ERTSNet/new_arch_LA/decimation/model/best-model_r0_J2_NE16.pt (torch, 483295 bytes, 65 tensors)

weight_ih_l0 f4 [27, 15]
000000 ee 50 46 3e 7b bf 09 be c8 be 1f 3d 2e ac 59 3e
       0.1936681 -0.1345195 0.039000303 0.21257088
000010 95 f7 06 be 09 14 75 be 3e bb 89 be 22 92 ab 3e
       -0.13180383 -0.23933424 -0.26900667 0.33509928
000020 3b 5b 87 bd ad 41 14 bb 61 52 35 3e 1f 0f 90 be
       -0.06609198 -0.0022622154 0.17707206 -0.28136536
000030 f1 6f d3 3d ba 55 98 be 83 a9 4c be d5 32 d1 3b
       0.103240855 -0.29752904 -0.19986539 0.0063842335
000040 bd 0f 16 3e 48 b1 2d bd 0b b8 c5 3c 16 ce 5f be
       0.14654441 -0.042405397 0.02413561 -0.2185596
000050 eb eb c4 3d 24 51 92 3e 1b 4d b3 bd 7e c3 c2 3b
       0.0961531 0.2857753 -0.08754941 0.0059437146
000060 e7 bd 9b be 4c b5 8a be a7 bc 98 be d0 f9 d4 3d
       -0.30418321 -0.27091444 -0.2983143 0.103992105
000070 64 c0 34 3d 51 f7 2d be 01 b9 f5 3d ca 9a 96 be
       0.04412879 -0.16988875 0.11998177 -0.2941497
000080 3e 21 95 be a6 97 6e 3e 12 26 49 3d a1 0a 0d be
       -0.29126924 0.23300037 0.049108572 -0.13773586
000090 8b f6 91 be 6b 76 22 be 95 5e 35 be 45 93 42 3e
       -0.2850841 -0.15865485 -0.17711861 0.19001491
0000a0 85 65 21 be 0b 4b 3b be 8b 9d 8e bd 01 37 1a be
       -0.15761383 -0.18290345 -0.06963643 -0.15060045
0000b0 29 3f ff bb 91 1b 0a be f6 64 9a bc d7 a3 85 3e
       -0.0077895117 -0.13487078 -0.01884697 0.26101562
0000c0 65 48 a8 bd 81 4b e8 bb 1b f3 8a be fd 6f 60 3d
       -0.08216933 -0.007089079 -0.271386 0.0547943
0000d0 bc 11 ac 3e be 9a 1a 3e 3b ee 43 be 6b bb 44 3e
       0.3360728 0.15098092 -0.19133846 0.1921212
0000e0 5b 90 6f 3e fe 5a 28 3e ae 8b 44 3e 8a a1 9b be
       0.23394911 0.16440961 0.19193909 -0.30396682
0000f0 2a 52 9b be a0 58 8f bc 49 d9 80 3e 64 00 a8 3e
       -0.30336124 -0.017498314 0.25165775 0.32812798
000100 20 89 a3 be 90 d4 86 bd 65 c9 6b 3e 19 33 13 3e
       -0.31940556 -0.06583512 0.23026045 0.14374961
000110 81 3a 21 3e 59 cf 3d be 01 c7 5e 3e 20 2c c6 bd
       0.15744974 -0.18536128 0.21755601 -0.09676385
000120 cb a1 13 be c4 14 3e bd 88 a0 9a be 4b fa d3 3c
       -0.14417188 -0.046406522 -0.302006 0.025876185
000130 27 50 a5 be d6 55 8f bb a0 a3 10 be cf 8f 01 be
       -0.32287714 -0.004374246 -0.14124918 -0.12652515
000140 55 d4 67 be 68 17 2b 3e 0e 3c 48 3d a1 5f 74 3e
       -0.22639592 0.16708148 0.048885398 0.23864605
000150 8d b6 71 be ab 1e bf bd ab c5 6a be 20 7d 2a be
       -0.23604794 -0.09332021 -0.22926967 -0.16649294
000160 ee 11 46 bd 30 f3 8f 3d ec 88 8c 3e f0 78 86 be
       -0.048356943 0.07028806 0.27448213 -0.26264143
000170 f6 03 9e bc 09 ba 69 3e 35 e5 6d be cc 97 89 3e
       -0.019288998 0.22824873 -0.23231967 0.26873624
000180 d2 fa f8 bc 97 61 9e be 9b 03 85 bd 7d 93 75 3d
       -0.030393038 -0.3093383 -0.06494828 0.05995511
000190 d6 59 46 3e 54 90 96 3e a5 04 d2 bd 88 9b 04 3e
       0.19370207 0.2940699 -0.10254792 0.12949955
0001a0 ff ac 34 bb 5e 58 12 bd 28 57 28 3d 20 d3 96 3e
       -0.0027568934 -0.035728805 0.041098744 0.2945795
0001b0 c3 b4 0d 3e 68 7b 57 3c ef c5 9d be 5c 42 7f bd
       0.13838486 0.013151981 -0.30815074 -0.062319145
0001c0 de ea 83 3c 65 b1 3c 3e d1 e8 a0 3d 23 23 01 3e
       0.016103204 0.18427046 0.07856906 0.1261106
0001d0 0d 8d 0c be 36 4f 83 bc 7b 72 28 3e 8d 63 43 3e
       -0.13725682 -0.016028982 0.16449921 0.19080944
0001e0 ac c8 99 3e 20 32 c7 bd aa b6 8b be e0 98 c3 bc
       0.30035913 -0.097263575 -0.272878 -0.023876607
0001f0 49 7f 60 3e 0e 2f a0 be 0d 0b 23 be 01 44 93 3d
       0.21923555 -0.312859 -0.15922184 0.07190705
000200 8b 6f 93 bc 69 df 09 3e 05 bf 2c 3e d1 57 f7 bd
       -0.017997524 0.1346413 0.16869743 -0.120772965
000210 9b 9a 83 bd 0e d7 18 3d e3 f3 8f 3e 08 fb 9e be
       -0.06425973 0.037314467 0.28115758 -0.31050897
000220 f0 63 90 3e ab 6b 1e 3e 93 ad 72 3e db be 29 be
       0.28201246 0.1547076 0.23699026 -0.16576712
000230 8b ec 6b 3e ba 8d ad be 61 3f 81 3e e8 fd 71 3d
       0.23039453 -0.3389719 0.25243667 0.059080034
000240 47 53 92 3e e6 45 3d 3e 39 92 34 bd 81 6a 9a bd
       0.2857916 0.18483695 -0.04408476 -0.07539845
000250 a3 7e 66 3e 08 22 96 be d5 92 64 3e fb 34 37 be
       0.22509246 -0.2932284 0.22321637 -0.17891304
000260 17 f1 9a 3e 6c 93 92 be e2 df 80 bd 7b f6 91 3e
       0.30262062 -0.286281 -0.06292702 0.28508362
000270 26 14 6f be 2e c6 09 3e 76 ec ae 3c 2d 6c 24 3e
       -0.2334753 0.13454506 0.021352988 0.16056891
000280 50 77 f2 bd 7b 5f 1f be 4b 15 9d 3e 9b 27 a3 3e
       -0.11839163 -0.15563767 0.30680308 0.31866154
000290 03 f8 37 3e 99 e8 28 3e c8 01 8e 3e 81 fc 03 bd
       0.17965703 0.16494979 0.27735734 -0.03222323
0002a0 90 32 ad bd d8 7c 82 3d fe 6a 8a 3e ec aa 63 bc
       -0.0845691 0.06371468 0.27034754 -0.013895731
0002b0 32 a7 a1 3e e1 2d 18 3e 57 48 8e be 6a 30 63 3e
       0.31572872 0.14861251 -0.27789566 0.22186437
0002c0 48 21 5d 3d 8b 9a 9f 3c 61 42 df 3d 3b 91 38 be
       0.053986818 0.019482872 0.10901333 -0.18024151
0002d0 2c 3e 71 3d e1 d6 3c be 4b 46 8e bd d5 cf 3a 3e
       0.058897182 -0.18441345 -0.06947001 0.18243344
0002e0 4b 01 e7 bc 62 af 94 be 89 d3 5e 3e a3 8c 7a 3e
       -0.028198859 -0.29040056 0.21760382 0.24467711
0002f0 d8 1a 5e 3e 39 2b 13 bd 90 f2 87 bd db f3 69 be
       0.21689928 -0.035929892 -0.06638062 -0.2284693
000300 4b 42 a3 3e 68 3c 1b bd 00 06 2c be bd 7c 2a bd
       0.31886515 -0.037899405 -0.16799164 -0.041622866
000310 00 5d c2 3d cb 21 20 3e 1b cd d2 bd 39 e6 2f bd
       0.094903946 0.15637891 -0.10293027 -0.042944167
000320 61 81 f9 bd 81 08 f3 3d 00 fd 96 3e fd b6 4c bd
       -0.1218288 0.11866856 0.294899 -0.0499792
000330 2b fe 68 be 28 1f 27 bd 73 56 7c 3e 13 c9 38 3e
       -0.22753207 -0.040801197 0.24642353 0.18045454
000340 ab db b0 bd 15 29 67 bc b3 22 09 3e a8 dd 2e bd
       -0.08635648 -0.014108916 0.13392143 -0.042691857
000350 61 12 27 3e 26 74 b1 3b 4b f4 40 be 1d c9 70 3e
       0.16315605 0.0054154573 -0.1884319 0.23514219
000360 25 1a 36 be 46 a9 bb bd ce 64 77 3e 02 31 9a 3e
       -0.17783411 -0.09163146 0.24159548 0.30115515
000370 0b 6b 9d 3d c5 d7 c5 3d e0 76 f0 3c e4 e4 a0 3e
       0.076864325 0.096602954 0.029353559 0.3142463
000380 1d 15 6e bd 04 0b a6 be 61 69 8d bc 3b 8f a3 be
       -0.058125604 -0.3243028 -0.017262163 -0.31945214
000390 83 9f 6c be ab 9c d3 bd 31 26 dc bd 59 64 24 3e
       -0.23107724 -0.103326164 -0.10749472 0.16053905
0003a0 0f da 8d 3e ae 63 0e bd 0c d4 93 be 20 38 41 be
       0.27705428 -0.03476303 -0.28872716 -0.18869066
0003b0 65 25 b3 bd e1 d6 cf bd 75 c9 4a be de e4 a6 3e
       -0.08747367 -0.10148407 -0.19803412 0.32596487
0003c0 81 0d 8f 3d 17 2f 8f be c9 d9 57 3e fd 02 52 3e
       0.069849975 -0.27965614 0.21079172 0.20508952
0003d0 2c f5 8e 3e 68 0a 57 3c fb 45 e8 3c 88 41 4e bd
       0.27921426 0.01312504 0.028353682 -0.050355464
0003e0 c6 4a 33 3e 55 e7 42 3e 21 89 4a be b9 eb 0f 3e
       0.17508993 0.19033559 -0.19778873 0.14054765
0003f0 bd ac 58 bd 61 1c f6 bd 90 ea a9 3d b5 62 6c be
       -0.05289911 -0.120171316 0.08296692 -0.23084529

weight_hh_l0 f4 [27, 9]
000000 95 8c be 3d 5e 28 5b be 82 53 b6 3b cf 1b a5 be
       0.09304158 -0.21402118 0.005564154 -0.3224778
000010 82 4b 9e be 42 3e 91 3e 82 64 c5 3b f1 5c 21 be
       -0.30916983 0.2836781 0.0060239444 -0.1575811
000020 4b 19 d2 3d 61 de 9e bc 2e d0 7c be 4b bd 62 3e
       0.102587305 -0.019393148 -0.24688789 0.22142522
000030 55 93 47 3e f0 67 8d 3e 80 86 b0 bd 05 ff 20 be
       0.19489796 0.2761836 -0.08619404 -0.15722282
000040 43 ea 1c 3e ca 6c 86 be 16 4a 14 be e9 4d 7e 3e
       0.15323739 -0.26254874 -0.14481387 0.24834408
000050 31 0d 06 be f1 6d 74 be 6a 13 99 be 2f 04 9d be
       -0.1309097 -0.23870064 -0.29897624 -0.30667254
000060 a8 c3 a6 3e 35 1c eb bc 11 9d 27 3e 08 2e 74 bd
       0.3257115 -0.028699974 0.1636851 -0.05961421
000070 d4 c9 cb bb 16 be d3 3d d0 a8 82 be 99 89 67 be
       -0.006219128 0.103389904 -0.2551942 -0.22611083
000080 90 8f 9b 3e a7 98 7d bd 05 a5 7a 3e e1 aa ee 3c
       0.30382967 -0.06191316 0.24477012 0.029134216
000090 d5 03 d3 3b 36 9d 68 3e 63 d1 33 3e 13 a9 38 3e
       0.006439666 0.22716221 0.17560343 0.18033247
0000a0 51 c0 65 3b b5 a9 08 3e 50 c3 02 3e 03 f8 4c be
       0.0035057256 0.13345988 0.12769818 -0.20016484
0000b0 be bb 8c 3e e0 80 b6 bc e0 41 91 3e 39 9b 57 3e
       0.27486986 -0.02227825 0.2837057 0.21055306
0000c0 3b 70 d9 bd bb 03 0d be e5 b6 dd 3d 90 f3 70 be
       -0.106171094 -0.13770954 0.108259 -0.23530412
0000d0 eb 7c 0c 3e 7d 83 1f bd b5 41 aa 3c 24 93 80 be
       0.13719527 -0.038943756 0.020783285 -0.2511226
0000e0 b8 92 8b be 23 25 4f bd a8 58 6d 3e 15 3d 33 3e
       -0.27260375 -0.050572526 0.23178351 0.1750377
0000f0 3e 14 81 3e a3 64 9d be 68 1d ac be 34 c0 a0 be
       0.25210756 -0.30740842 -0.33616185 -0.3139664
000100 4d 3b 71 be 1b b3 a5 be 16 73 80 3e 12 7e 84 be
       -0.23557778 -0.3236321 0.25087804 -0.25877434
000110 cb e0 6c 3e ee 4c 30 bd f8 a4 d8 3c 61 b0 7a 3e
       0.23132627 -0.043042116 0.02644585 0.24481346
000120 f6 b7 a2 3c 1e db 72 3e d0 78 f8 bd cb 8b 7b 3e
       0.01986311 0.23716399 -0.12132418 0.24565046
000130 5b 08 a0 3d 88 cc 8a bc c5 86 31 3e 36 3f be bd
       0.07814094 -0.016943231 0.17336567 -0.092894
000140 a6 14 5b 3e 7b 93 f3 bd b9 0d 4e 3e 99 20 45 bd
       0.21394596 -0.11893364 0.20122422 -0.04812679
000150 46 91 dc 3d 23 85 fb bd b3 d1 98 3e 75 d3 28 3e
       0.10769896 -0.12281253 0.29847488 0.16486914
000160 b4 10 85 3e 9b 1e 2d 3e db 1c 35 be 3b ab 40 3e
       0.25989306 0.16906206 -0.17686789 0.18815319
000170 7f 7e 81 be 46 7c 8c 3d 82 78 a3 be 53 cc 4f be
       -0.2529182 0.06859641 -0.31927878 -0.20292787
000180 70 44 03 be 0f 91 92 be a0 a5 8b bd b8 a0 85 3e
       -0.12819076 -0.28626296 -0.068187 0.2609918
000190 dd 2b 65 3e 7b 07 a3 bd 51 6e ec bd c3 1f 95 be
       0.22380014 -0.07960411 -0.11544479 -0.29125795
0001a0 bd 21 5a 3e 10 74 94 bd fb dc f7 bd a1 95 97 bd
       0.21301933 -0.072487 -0.121026956 -0.07401586
0001b0 31 c5 66 3e 8d 55 62 be 66 92 c9 bd 23 6f 88 be
       0.2253616 -0.22102948 -0.098423764 -0.2664729
0001c0 de ba a7 3e 56 c8 e9 bd a3 aa 71 3e 05 78 5b 3e
       0.32759756 -0.11415164 0.23600249 0.21432503
0001d0 b5 cc 3f be b7 e7 01 3d a1 cb ff 3d a1 0f dd 3d
       -0.18730433 0.03171512 0.12490011 0.107939966
0001e0 fd 1c 0b bb 8d 07 2e 3e 56 e3 f6 bd 73 15 4b 3e
       -0.0021226995 0.16995068 -0.1205508 0.19832401
0001f0 a4 00 47 3d e0 f8 86 3e a8 d5 a0 be 60 05 0c 3e
       0.048584595 0.26361752 -0.31413007 0.13673925
000200 00 67 8b 3d 2b 17 e5 bd 36 a5 a9 bc 64 45 88 be
       0.06806755 -0.111860596 -0.020708662 -0.2661544
000210 0b 8d 04 be a0 be a2 3e 66 ea 4b be a4 ee 60 bd
       -0.12944429 0.3178606 -0.19913635 -0.054915085
000220 8e 50 7d 3e 4c 60 c8 38 38 c0 78 be fe a2 a1 3e
       0.2473776 9.55468e-05 -0.24292076 0.31569666
000230 13 42 8b 3e 83 89 3d be 00 b9 2d be 62 fa a4 be
       0.27198848 -0.18509488 -0.16965103 -0.32222277
000240 7a ee 90 be 18 8b 8b 3e 8e 7d 94 3e 63 5e 6b be
       -0.28306943 0.27254558 0.2900204 -0.22985224
000250 c5 97 f2 bd 85 41 d0 3d db ef b1 bd 29 3f 50 3e
       -0.11845354 0.10168747 -0.08688327 0.20336594
000260 01 85 fd 3d 61 2d ee bd 04 36 85 bd ff a9 d0 ba
       0.12378884 -0.11629749 -0.06504443 -0.0015919803
000270 b9 ec 3f 3e 48 79 71 bd 1b 42 a6 3e 65 b7 cc bd
       0.18742646 -0.058953553 0.3247231 -0.09995917
000280 53 62 46 bb fb 17 98 3d 51 24 57 be cd 95 73 be
       -0.0030271008 0.07426449 -0.21009947 -0.23787613
000290 4b ba 8c 3e b3 04 a8 be db 61 04 be 1e 49 3d 3e
       0.2748588 -0.32816085 -0.12927954 0.18484923
0002a0 45 9d 2a be b3 6b 71 3e 65 79 6a be d9 f1 2e 3e
       -0.16661556 0.2357624 -0.22897871 0.17084445
0002b0 81 a4 52 be f9 97 50 bd 35 36 16 be 64 01 51 3d
       -0.20570566 -0.050926182 -0.14669116 0.051026717
0002c0 e4 db 83 be cb b9 e2 3c 70 02 4c 3e 83 75 67 be
       -0.257537 0.027676484 0.19922805 -0.22603421
0002d0 c5 ae dc 3d cd 3e 23 3e a8 41 01 be 69 6b 73 3c
       0.10775522 0.15941925 -0.12622702 0.014857152
0002e0 11 ff dc bd 2c a9 80 be a6 4b a6 3e 1c 02 7b 3e
       -0.107908376 -0.25129068 0.3247959 0.24512523
0002f0 30 8c 85 bd a0 7f a8 3c 7c c2 5b be 63 13 0b 3e
       -0.06520879 0.020568669 -0.21460909 0.13581614
000300 6c 40 96 be 61 11 b1 3d 21 ce 76 3e 19 e3 22 3d
       -0.29346025 0.08645893 0.2410207 0.03976736
000310 bb 8d 3c be 25 db 24 3e 75 2b e9 bc b4 e6 99 3e
       -0.18413441 0.16099222 -0.028463105 0.30058825
000320 eb 6b 43 3e 2e 11 91 3e 30 97 59 3e e6 1b 3e be
       0.19084136 0.2833342 0.2124908 -0.1856533
000330 b6 30 8c 3e 59 94 26 be fe 9d 86 ba 56 f6 ed bd
       0.27380913 -0.16267528 -0.0010270474 -0.116192505
000340 3e 3c 09 3c 1b 8d ac bd 93 81 99 3e 45 52 a3 bd
       0.008376179 -0.08425351 0.2998167 -0.07974676
000350 bb 2a 30 3e fb 75 8b bd c5 b9 58 be 8e aa 82 3e
       0.172038 -0.06809612 -0.21164615 0.25520748
000360 a5 a5 bf 3d b6 3b ef bd bb 68 ad 3e ce 06 0b bd
       0.09357766 -0.11681311 0.33868966 -0.033942036
000370 8b b5 c7 bd 00 80 81 be f5 77 94 bd 11 57 3a be
       -0.097514234 -0.2529297 -0.072494425 -0.18197276
000380 ad c1 5d 3e 82 37 95 3e 5f 98 9e 3e 33 44 7c 3e
       0.21655913 0.29143912 0.30975625 0.24635391
000390 2b af 14 be fb 32 d4 bd 7d 05 53 3e cb 92 3d 3e
       -0.14519946 -0.10361286 0.20607562 0.18513028
0003a0 e9 ee 2f 3e 0e a4 61 3d 7d 70 1d 3d 31 a6 fd bd
       0.1718098 0.055088095 0.038437355 -0.12385214
0003b0 51 35 af 3d fa 64 a9 3e 2b e9 a7 3d 29 3e 50 3e
       0.08555091 0.33084852 0.0819877 0.20336212
0003c0 96 00 eb bd de 91 85 3d e7 1a 89 3e
       -0.11474721 0.065219626 0.26778337

bias_ih_l0 f4 [27]
000000 cd 66 25 3e 75 db c2 3d 76 00 b7 bc 96 d7 61 bc
       0.16152497 0.09514514 -0.022339087 -0.01378431
000010 12 3f 3c 3d b3 c8 8c 3e ad 52 18 3e 96 3a a8 3d
       0.045958586 0.2749687 0.14875288 0.082142994
000020 12 40 8a be 39 de 44 3d d4 fc ff bc c5 3f 55 3e
       -0.27002007 0.04806349 -0.031248488 0.20825107
000030 a8 9c 6a 3e 69 98 5f 3e fa 44 ab be 42 2d 60 bc
       0.22911322 0.21835484 -0.33451062 -0.013682665
000040 d2 55 43 3d 34 0e fa bd c1 c0 59 be 79 86 26 bd
       0.047689267 -0.1220974 -0.21264936 -0.040655587
000050 f9 33 1d 3e a4 a6 56 3d 7e 5d 9c be 7d 86 42 be
       0.15351857 0.052405015 -0.3054008 -0.18996616
000060 6d 36 66 3e de 77 58 be 50 fc 1b bb
       0.224817 -0.21139476 -0.0023801513

bias_hh_l0 f4 [27]
000000 b6 4c d2 3c 8a 4d af bc 3b 12 f8 3d fc fb 84 be
       0.025671344 -0.021399278 0.12112852 -0.259735
000010 aa 6f a1 3e c3 40 69 be 6b f0 c0 3d b0 9d 91 bd
       0.31530505 -0.22778611 0.09420856 -0.07110155
000020 05 b5 9b bd c9 21 1b be 7c 36 84 bb 7c 75 8f 3e
       -0.07602886 -0.15149607 -0.0040348154 0.2801932
000030 42 a1 fd 3d 44 b1 85 be bb c5 ca bd 36 7d d1 3d
       0.12384273 -0.26111805 -0.09900995 0.1022896
000040 47 d9 9c 3e 21 14 0a 3e 31 d5 09 be 30 f6 d8 bd
       0.3063452 0.13484241 -0.13460232 -0.105938315
000050 0a 19 a4 3c 2d 9c 24 be 4b 50 8a 3d 20 02 67 3e
       0.02003147 -0.16075201 0.06753596 0.22559404
000060 1b d1 9a 3e 49 3d 7c be dd 40 61 bd
       0.3023766 -0.24632753 -0.0549935

weight_ih_l0 f4 [27, 24]
000000 4b 28 3a be ce b7 2b bd 73 c5 24 be 3a c8 95 be
       -0.18179433 -0.041923337 -0.16090946 -0.29254323
000010 7d 6e b9 bb 0b 29 30 be 4b 89 4b 3e cb 37 40 3e
       -0.005658923 -0.17203157 0.19876592 0.18771283
000020 50 ec 3c 3e db 18 10 b4 83 c0 de bb 75 96 87 bd
       0.18449521 -1.3420087e-07 -0.0067978515 -0.06620494
000030 d5 37 12 3e db 78 93 3e 9f 99 84 bd 17 93 ac be
       0.1427911 0.28803143 -0.064746134 -0.3370597
000040 a4 65 54 3d 75 70 00 be 24 4d 85 3e 5f a4 a8 be
       0.051854745 -0.12542899 0.26035416 -0.32937905
000050 18 ef 0d 3c cd ce 01 be a2 68 83 3a 4c 5a ed 34
       0.008662961 -0.12676544 0.001002569 4.421039e-07
000060 4b 0c 1c be 14 75 85 3e a6 4c ed bd f6 d1 dd bd
       -0.15239064 0.26065886 -0.11586885 -0.108310625
000070 25 2d f1 bd eb 32 36 be 13 c5 4d be b0 77 e3 bd
       -0.11776189 -0.17792861 -0.20094709 -0.11106813
000080 73 15 7b be 7e 05 56 b5 59 1a 33 3d 62 d4 9e be
       -0.24519901 -7.9729205e-07 0.0437263 -0.3102141
000090 bf e2 9a 3e 56 81 63 be a0 fa bd 3c 6b a0 61 be
       0.3025112 -0.22217306 0.023190796 -0.22033851
0000a0 d0 5b c6 3d 17 4c 92 be 7e a1 94 3e 4d e9 21 3d
       0.096854806 -0.28573677 0.2902946 0.039529134
0000b0 c9 db 66 3e 97 14 a7 be 79 e2 17 be 0f 27 b7 3a
       0.22544779 -0.32632896 -0.14832486 0.0013973432
0000c0 c6 1f c2 3d 8a fd f9 3d b6 a8 c8 3c 52 6b 7b bd
       0.094787166 0.12206562 0.02449451 -0.061381646
0000d0 a8 d6 5c be 36 9c b3 bc eb 6b ee 3d f9 cf 19 bd
       -0.2156626 -0.021925073 0.116416775 -0.037551854
0000e0 bb 29 b1 bd 1f 9a f4 ba 2a 66 89 be eb e9 7f 3e
       -0.086505376 -0.0018661654 -0.26835757 0.24991576
0000f0 3b ab cb bd 75 54 69 3e 3b 1c 03 be 41 85 a8 bd
       -0.09944769 0.22786124 -0.12803738 -0.08228541
000100 76 39 82 3e 43 02 1b 3c c6 ae 99 bd 00 9f 29 bb
       0.25434464 0.009460988 -0.075040385 -0.0025882125
000110 a5 51 90 bd b4 b7 98 be bb c7 8a 3e c4 e8 15 38
       -0.070468225 -0.29827654 0.27105507 3.5741148e-05
000120 b3 24 8b bc bb 5b 22 be 2e 3a 06 3e 4b ab 92 3e
       -0.016985273 -0.15855305 0.13108131 0.2864631
000130 b9 6b 6d be 83 62 a1 3e 0d 7d 0a be 41 5f 5f be
       -0.23185624 0.3152047 -0.13524266 -0.2181368
000140 27 80 9e be de 79 a2 29 41 c9 71 3e 75 b8 1d be
       -0.30957147 7.215386e-14 0.23611929 -0.15402396
000150 44 de 3c bd bb ab 3f 3e b5 4a 7e 3e 9b 83 a5 3d
       -0.046110407 0.18717854 0.24833186 0.080817424
000160 b1 ea c7 3d b0 b5 90 3e 9c 86 94 be 28 10 2b be
       0.09761561 0.28263617 -0.2900895 -0.16705382
000170 17 b7 5e bc b4 66 81 be 43 90 64 be 1c ce 3c 35
       -0.013593457 -0.2527367 -0.22320656 7.0335386e-07
000180 90 29 2f be 06 74 b8 3d bf 46 91 3e e0 ad d8 bc
       -0.17105699 0.09006505 0.28374287 -0.026450098
000190 cb 4d 32 be 32 23 50 bd 59 c0 2a be 1b 16 8d be
       -0.17412488 -0.050814815 -0.16674937 -0.27555928
0001a0 94 e3 17 3c 09 9c 8e 22 46 b8 a7 be a0 9e 56 3e
       0.009270567 3.8654386e-18 -0.32757777 0.20958948
0001b0 31 13 8d bd 76 fc 85 3e dd 2f 4c be b1 fc f2 bd
       -0.06888426 0.26169175 -0.19940133 -0.11864603
0001c0 c8 53 83 3e e1 0e a0 3c 3f d7 07 bc f5 24 8b 3d
       0.25649858 0.019538345 -0.008291065 0.06794158
0001d0 c0 ab 99 be 20 f4 e7 bc 23 37 73 3e 26 9c 0b 39
       -0.30013847 -0.02831465 0.23751502 0.00013314243
0001e0 04 eb 85 3d 0c 5c 99 be d0 4e 8c 3e 6d e0 3b 3e
       0.06538966 -0.2995304 0.2740388 0.1834733
0001f0 f1 28 cd bd f1 02 32 3e 93 ee 8e be ca 0d aa 3c
       -0.100175746 0.17383935 -0.27916393 0.020758528
000200 0b 17 99 3e 6c ac 32 a9 7a f5 98 be 76 b0 ab bc
       0.29900393 -3.9673492e-14 -0.29874784 -0.020958167
000210 03 59 a3 3e 32 ad 2e bd b2 d6 aa be 8b 02 9c 3c
       0.31903848 -0.04264564 -0.33366925 0.019044181
000220 3e 6d 9e 3e d5 ca a7 3d 4d 15 0a be 72 03 ab 3e
       0.3094272 0.08192984 -0.13484688 0.33401066
000230 fb 4a 03 3e 7d 9e 1d 3d 98 aa 49 bc 4a 99 e7 b8
       0.12821572 0.038481224 -0.012308739 -0.00011043491
000240 0e 6b 28 3d af d7 fb bd c6 03 8b 3e d4 15 cc bb
       0.04111772 -0.12296998 0.27151316 -0.006228188
000250 28 07 41 bd 6b 93 c7 bd 92 ef a9 3e be a3 a7 be
       -0.047125965 -0.097449146 0.3319059 -0.32742113
000260 9e 6c 82 3d 4b 48 4c a3 8d 31 46 3e bb 93 8f be
       0.06368373 -1.1074171e-17 0.1935484 -0.28042397
000270 72 a7 8e 3e 36 c7 b7 3c 84 7d 7b 3e 00 36 35 be
       0.27862126 0.022433858 0.24559599 -0.1769638
000280 4b 4b a1 3c fd 97 6d 3d f9 2b 21 be 2a 77 07 3d
       0.019689223 0.058006275 -0.1573943 0.033072628
000290 f6 5b 3b 3e 15 a9 ba bd a7 58 ab ba 70 2d 0f 31
       0.18296799 -0.09114281 -0.0013072685 2.0835067e-09
0002a0 46 32 b6 3d 48 aa 80 be c2 dc 01 be 43 8a 13 be
       0.08896308 -0.25129914 -0.12681869 -0.14408211
0002b0 c6 b0 45 3e 49 78 6a 3e b3 80 8a 3e 36 f3 f4 3c
       0.19305715 0.22897448 0.27051315 0.029901128
0002c0 f5 e0 a4 bc 94 65 81 bb d2 4a 80 3e 25 2d af 3d
       -0.0201268 -0.0039488766 0.25057083 0.085535325
0002d0 60 2e ad 3c 53 66 97 be c2 58 88 3e ab fd e5 bd
       0.021140277 -0.29570255 0.26630217 -0.11230024
0002e0 2b b6 4a be 0e 48 0d 3d ce aa a0 be 8b d2 91 3c
       -0.19796054 0.034492545 -0.31380314 0.01780059
0002f0 55 56 6e be 13 c3 6a 3c 4f 12 83 bd ac 00 7c bb
       -0.2327512 0.014328736 -0.063999765 -0.003845255
000300 86 02 8f be 21 00 a7 3c 1f 9e f0 bc 81 e9 f5 bd
       -0.27931613 0.020385804 -0.029372273 -0.12007428
000310 bd 15 52 3c 62 18 21 3e 8a dd 8f 3c fe 88 77 3b
       0.012822566 0.15731958 0.017561693 0.0037770863
000320 a9 44 42 3e fc 35 94 a0 4e 57 8e 3e aa f4 a4 3e
       0.18971504 -2.51079e-19 0.27800983 0.32217914
000330 fb da 49 be 51 83 74 3e 5e 98 1a 3e f6 6d 8a be
       -0.1971244 0.23878218 0.15097186 -0.2703702
000340 48 00 a5 be 23 41 88 be 33 a2 81 3e fd c8 02 3e
       -0.32226777 -0.26612195 0.2531906 0.12771983
000350 20 56 e5 3d bc 7e 91 3e cb bb 89 3e 35 06 59 a0
       0.11198068 0.28417003 0.26901087 -1.8382669e-19
000360 cb 64 a6 3e 06 1d 44 3e f1 0a 26 be a9 7f 4c 3e
       0.32498774 0.19151697 -0.16215111 0.19970573
000370 29 9b 67 3e 1d 54 3d bd 86 71 97 be 8b a7 bc 3c
       0.22617783 -0.046222795 -0.295788 0.02302911
000380 91 59 28 3e cb cb 0c 39 39 2a 54 3e 3d 53 48 be
       0.16440417 0.00013427359 0.20719232 -0.19563003
000390 b0 77 2c be ab ad a8 3e 95 1a 76 be cb 14 27 be
       -0.16842532 0.32944998 -0.24033578 -0.16316526
0003a0 11 d8 71 3e 6a d0 01 3c 0b 80 eb bd bf 64 a1 be
       0.23617579 0.007923225 -0.11499032 -0.31522176
0003b0 e8 6f 43 3c c0 19 d7 bd 41 aa 25 3e ff 52 91 2e
       0.011928536 -0.10502958 0.16178228 6.60858e-11
0003c0 ce 63 42 3d a0 6b 8a bd b0 b0 87 ba 08 96 93 be
       0.047458462 -0.06758809 -0.001035234 -0.28825402
0003d0 75 90 81 3d c5 f7 d7 3d fb 4e ef 3d 92 5d 9b be
       0.06326381 0.10545305 0.11684986 -0.30344826
0003e0 ec ab a5 3e 4c 84 e1 1e 51 e1 53 be 00 ff 94 bd
       0.32357728 2.3877518e-20 -0.2069142 -0.072752
0003f0 88 9b 60 3d 13 f5 09 3e 35 fc 3a 3e 3f 3f 7d bc
       0.054835826 0.13472395 0.18260272 -0.015456974

weight_hh_l0 f4 [27, 9]
000000 e2 55 a4 a5 24 32 92 b4 ea ef 86 be 44 a3 9c be
       -2.8507661e-16 -2.72311e-07 -0.26354915 -0.30593312
000010 da 10 41 ba 9f 36 01 b8 2f 03 36 ab 81 85 a7 bb
       -0.0007364877 -3.0806867e-05 -6.4663807e-13 -0.0051123505
000020 0b 11 8a 3e f3 a1 4d 38 bb 9d da 36 a3 83 70 be
       0.26966128 4.9026636e-05 6.5152685e-06 -0.23487715
000030 16 29 8c be 33 6e 2c bc 60 3c 1a 3b 3c 47 c7 35
       -0.27375096 -0.01052432 0.0023534521 1.4847387e-06
000040 e8 52 0b 3e 13 6c 86 be c2 e1 b4 31 8a 69 ac b3
       0.13605845 -0.2625433 5.264355e-09 -8.0285716e-08
000050 c8 e4 18 bd 4e cc 16 be 64 ab ed 3c 55 09 52 39
       -0.037327558 -0.14726374 0.02901239 0.00020030637
000060 48 ee 19 ab 44 29 a7 be 51 9e c5 bd 04 4b df 39
       -5.46872e-13 -0.3264867 -0.09649337 0.00042589766
000070 b7 33 e8 3a c8 ad 8f be 30 7a 9b bd 99 bc 79 bb
       0.0017715608 -0.28062272 -0.07591665 -0.0038106798
000080 a5 96 57 28 0d d1 24 22 fd 21 6e 3d ce ed 39 bd
       1.1967563e-14 2.2336815e-18 0.058137883 -0.045392804
000090 43 e2 05 30 0d 13 74 34 b5 32 18 3e 4e 83 a7 3e
       4.8706655e-10 2.2731201e-07 0.14863093 0.32717365
0000a0 a4 6a 15 bb 38 c1 bf 3a 7e 7a 9a a3 f0 2b 85 3e
       -0.0022799158 0.0014629727 -1.6748591e-17 0.26010084
0000b0 ac b4 83 3e 73 95 0e 2b e1 a9 7f b5 6f fe 94 be
       0.2572378 5.0655937e-13 -9.524211e-07 -0.29100367
0000c0 1a 8c 95 3e 80 bf b3 bc 05 7f 36 3b b3 17 8d 22
       0.29208452 -0.0219419 0.0027846706 3.824322e-18
0000d0 2a 53 90 3e 2e b5 9b 3e 99 3d 40 27 95 47 22 b6
       0.2818845 0.30411667 2.6678745e-15 -2.4181547e-06
0000e0 5d 22 2b be 6e 01 81 3e f4 88 b7 3c 65 07 e6 a6
       -0.16712327 0.25196403 0.022404172 -1.596146e-15
0000f0 32 5d 77 a4 11 03 54 be 45 4f d2 bd 13 09 55 27
       -5.3638527e-17 -0.20704295 -0.10269026 2.9564607e-15
000100 b2 5d fb 33 8a 5b 9a bc ca 58 d5 3c 5a 34 e6 3c
       1.17051414e-07 -0.018842477 0.026043314 0.028101135
000110 74 b2 0a ba 78 32 df a9 c8 51 5e bd 48 5e 5c bd
       -0.0005290874 -9.911944e-14 -0.05427721 -0.05380085
000120 68 6b 7b a5 78 0a 60 b3 d5 79 88 bd 2c 7a 6f 3d
       -2.180717e-16 -5.2163585e-08 -0.066638626 0.05846612
000130 d6 76 d9 bc f7 5f 46 bb 4e 0b 3a ba b8 cc 24 3e
       -0.026545923 -0.0030269602 -0.00070970214 0.16093719
000140 36 90 a3 bd 5a e8 1f 36 a0 b9 0d 36 ae d4 40 bd
       -0.079864904 2.3828093e-06 2.1118685e-06 -0.047077827
000150 d6 fb 03 3d ad d9 7d 3d a4 f6 15 25 6d c1 06 a5
       0.03222259 0.06197517 1.3007255e-16 -1.1688182e-16
000160 a2 fc a2 3e 8b dd 35 3e 67 81 80 27 a2 d0 51 b4
       0.3183337 0.17760293 3.5667435e-15 -1.9540542e-07
000170 16 e7 04 3d 06 b5 66 3e 9a 16 2e be a9 0a 07 23
       0.032446943 0.22529992 -0.1700081 7.320622e-18
000180 48 97 15 36 f8 f8 34 be 14 02 9b be 87 07 35 3a
       2.2290787e-06 -0.17673099 -0.30275023 0.0006905724
000190 18 b8 0f b4 fb b2 83 be ac 9b 84 be 7f 5d 2f 3c
       -1.3384886e-07 -0.2572249 -0.25900018 0.010703444
0001a0 3f 10 1a 37 69 07 b8 37 33 54 19 be 00 15 5a 3b
       9.182898e-06 2.193796e-05 -0.14973526 0.0033276677
0001b0 2a a3 ef 30 09 d4 66 ba 50 9e e7 bd 06 20 cc 3d
       1.7435913e-09 -0.00088053994 -0.113094926 0.099670455
0001c0 ba 25 44 3d cf 50 df a4 ee 66 9c a1 db 9e 9f 3e
       0.04788754 -9.684773e-17 -1.0598216e-18 0.31175885
0001d0 33 f7 89 3c 61 d5 c8 b9 3d 69 44 37 26 52 bc bd
       0.016841507 -0.00038305952 1.1707013e-05 -0.09195356
0001e0 21 88 b5 bd af 7c d8 3d 45 e8 5c 2e 2f a0 75 a1
       -0.08863855 0.105706565 5.0228505e-11 -8.322123e-19
0001f0 c4 b8 4c 3c 98 8b 0d 3c 4b 13 50 30 ac 80 38 b9
       0.012495223 0.008639239 7.5697376e-10 -0.00017595541
000200 93 f8 6f 3e e9 9d 0e be 27 99 24 bc 2c 49 b6 b6
       0.23434667 -0.13927425 -0.01004628 -5.432541e-06
000210 ce 48 61 3a c5 f0 08 3e a8 4b 92 be 10 1f 23 2a
       0.00085939176 0.13373096 -0.28573346 1.4488085e-13
000220 ea ce 1e b4 ea f9 85 be 54 42 96 be 42 f5 c9 bd
       -1.4790172e-07 -0.26167232 -0.2934748 -0.09861232
000230 40 9a 07 37 44 29 e4 34 c4 95 3e bd a0 8d fb 3c
       8.082541e-06 4.2498334e-07 -0.046529546 0.03070718
000240 a0 3e 80 ab 94 78 1b b9 75 2a 06 3d bd 06 5b 3d
       -9.112329e-13 -0.00014826871 0.032755334 0.053473223
000250 28 08 e1 bd ba 6f a4 b1 ab 10 92 bb ed 49 5a bc
       -0.10987884 -4.78573e-09 -0.0044575534 -0.013323289
000260 40 eb 90 be f9 bf 46 26 a7 50 e6 ba a8 2a 1c be
       -0.28304482 6.895522e-16 -0.0017571644 -0.15250647
000270 ad 1c 31 be 3e e9 e5 3d ae 68 6d a8 f9 56 44 a9
       -0.17296095 0.11226128 -1.3178842e-14 -4.359618e-14
000280 bb 1a 2d be 88 62 1b 3d 8f 11 8f 3a bf 18 0c 3a
       -0.16904728 0.037935764 0.0010915267 0.00053442636
000290 0e 59 39 be 9e 0c 8c 3e 8c 4b 09 3e 7f bb 30 3a
       -0.18100378 0.27353376 0.13407725 0.0006741806
0002a0 b9 a8 86 a1 88 91 10 3e 43 05 61 be 4e 0d a1 25
       -9.124854e-19 0.14118016 -0.21974663 2.7938064e-16
0002b0 56 49 3b b9 01 0b 39 be 1d e7 76 3d 92 cd 96 be
       -0.0001786103 -0.18070604 0.060279 -0.29453713
0002c0 c7 bb f1 a3 92 77 29 b8 ad bb 1c be d7 1f 90 3e
       -2.6208799e-17 -4.04041e-05 -0.15305968 0.28149292
0002d0 86 4e 59 27 79 0f ac b5 47 7c 90 3e 13 1d 37 3c
       3.0157367e-15 -1.2819502e-06 0.28219816 0.011176365
0002e0 a2 c1 2a 3d 7e 50 1c a6 e5 08 87 3b 0f 27 9a be
       0.04168857 -5.423246e-16 0.0041209334 -0.30107924
0002f0 8b ba 93 3d 58 39 2b a8 44 88 79 bb 0c ed 85 be
       0.072133146 -9.504841e-15 -0.0038075605 -0.26157415
000300 3b 56 4c 3e 98 5a 22 bd 98 a6 e7 b7 12 1e 25 34
       0.1995477 -0.03963718 -2.7614922e-05 1.5377762e-07
000310 9f 77 99 3e 21 c5 1a 3e 27 41 48 31 b7 9a 0b 3a
       0.29974076 0.15114261 2.9140865e-09 0.00053254835
000320 2b 22 c9 3d cd 49 5f be 26 c4 9d bd 77 03 c6 a5
       0.0982097 -0.21805497 -0.07703428 -3.4349873e-16
000330 9b c2 9c ba b3 a4 a1 be ba 37 ac be 37 5b 0d a8
       -0.0011959852 -0.31570968 -0.33636266 -7.846851e-15
000340 6e 99 98 b3 e3 0a 96 be 89 09 5e 3e e0 4c 5c be
       -7.10596e-08 -0.2930518 0.21683325 -0.215137
000350 44 2f da a5 0e d4 06 b0 d6 3c bc 3d 19 f7 38 be
       -3.7849e-16 -4.9050264e-10 0.09191291 -0.1806301
000360 e7 c9 52 29 27 f6 87 35 6b 30 a6 3d 11 15 f0 3d
       4.680449e-14 1.0129924e-06 0.08114704 0.11722768
000370 54 95 b8 3d 86 90 b8 3a c7 d6 a5 38 8e 1a a1 be
       0.09012857 0.0014081157 7.9078185e-05 -0.31465572
000380 f2 c9 9f be 1c f4 da 27 b6 e5 5f b5 9e d9 83 be
       -0.3120876 6.077182e-15 -8.3408247e-07 -0.25751966
000390 2d 2d 61 be 06 79 91 bc a7 e2 64 26 66 b5 97 1f
       -0.2198989 -0.017757904 7.941056e-16 6.4251086e-20
0003a0 58 d8 46 3e 33 e3 42 be f0 23 2e 28 89 e9 f7 b5
       0.19418466 -0.19031982 9.666733e-15 -1.8470902e-06
0003b0 63 53 60 3e 8b b5 b7 bc 57 8c 1b 3e bc 59 9a a4
       0.2190681 -0.022425434 0.15190254 -6.693887e-17
0003c0 76 77 0b bb 30 5a 90 3e 26 42 9f bb
       -0.002128092 0.28193808 -0.0048601804

bias_ih_l0 f4 [27]
000000 5a e0 a7 be da c4 8d be 3b f4 cd bd a6 67 ef 3d
       -0.32788354 -0.27689248 -0.10056349 0.11689691
000010 f3 d1 2a be a4 33 83 be e3 26 48 be e0 ec 86 be
       -0.16681652 -0.25625336 -0.19546084 -0.26352596
000020 5b d7 fc bd 39 01 5c bd 66 d6 eb 3d 5a 8a 8d 3e
       -0.12345763 -0.053712104 0.11515503 0.27644616
000030 59 85 2d 3e a5 97 7e 3d da 76 a0 be be f1 1a 3c
       0.169454 0.06215634 -0.31340677 0.00945705
000040 c5 69 65 be 0b 7a 05 3d c0 fc 75 3e 6a 8d 09 3d
       -0.22403629 0.032587092 0.24022198 0.03358213
000050 e9 1e 0d 3e 60 38 8f be 83 82 56 be 95 25 27 be
       0.13781323 -0.27972698 -0.20948224 -0.1632293
000060 48 c8 7f be 6b 18 f2 3d 5b 84 92 be
       -0.24978745 0.118210636 -0.28616604

bias_hh_l0 f4 [27]
000000 0b b8 83 be 5b d6 89 3d f9 8f 16 b9 44 fd 95 3e
       -0.2572635 0.06730338 -0.00014358749 0.2929479
000010 bc e6 9d be 0e d9 4f bd 5b f1 35 be b6 d3 95 3c
       -0.308401 -0.05074411 -0.17767851 0.018289428
000020 ec 8e 89 be bb e0 92 3e 05 fe 17 be 5b 83 a1 be
       -0.26866853 0.2868708 -0.14842995 -0.3154553
000030 83 11 58 be fa f3 92 be f9 c0 6b be 84 9e f0 3b
       -0.2110043 -0.28701764 -0.23022832 0.0073431153
000040 db 14 1a be 7b 30 a6 3e 44 94 23 3c 2d 0d 35 be
       -0.15047018 0.32458863 0.00998408 -0.17680807
000050 63 ee 86 be ee f5 a2 3e 99 c7 0a 3e d5 85 d3 bb
       -0.2635375 0.31828254 0.13552703 -0.006455163
000060 e1 eb e6 3d d2 59 a7 be 3b 31 7f be
       0.11275459 -0.32685715 -0.24921124

weight_ih_l0 f4 [27, 39]
000000 d1 77 06 be 9a 5c 2c b7 56 b7 a4 be 1f 0a 4b ba
       -0.13131644 -1.0273559e-05 -0.32171124 -0.00077453436
000010 66 c4 91 be 20 e6 d8 bc f1 51 3e be a1 da 98 bd
       -0.28470153 -0.02647692 -0.18585946 -0.07463575
000020 c1 11 ec bd cf cf e8 3c 2f 42 8f be 20 22 a2 3d
       -0.11526824 0.028419403 -0.27980182 0.07916665
000030 59 8b 07 3d 51 25 f9 bd 18 9b 0c 3c 0b f7 f9 bd
       0.033091877 -0.12165321 0.008581899 -0.12205323
000040 35 98 c5 3d e0 2e 91 3e 1b a3 8f bd ea 6c 02 3e
       0.09648172 0.28356075 -0.07013532 0.1273686
000050 76 d2 ac bd 30 0d c7 3d 8e 5a a3 3e 53 14 51 3e
       -0.0843858 0.09719312 0.31905025 0.2041791
000060 b9 43 5b 3e 85 9c 97 3d e3 e0 1f 3e 89 f2 85 bd
       0.21412553 0.074029006 0.15613131 -0.065404005
000070 fc 02 4b 3b 99 03 55 3d d6 85 54 be 76 6f 8d 3c
       0.003097712 0.052005384 -0.2075418 0.017265063
000080 b3 40 88 be 83 54 67 be 76 32 a3 bd e6 9a 96 be
       -0.26611862 -0.22590832 -0.07968609 -0.29415053
000090 5b 51 25 be a1 b2 c0 3c 4b cd e3 bc e3 cd 34 be
       -0.16144316 0.023522677 -0.027807852 -0.17656665
0000a0 31 41 eb 3a 90 20 a9 3e 87 34 5e 3b a4 79 8a 3e
       0.0017948506 0.33032656 0.003390582 0.2704593
0000b0 d7 88 8f 3e 9b 29 1c be 51 fc 9b 3d c0 fc ac 3d
       0.28034088 -0.15250246 0.07616485 0.08446646
0000c0 9c f3 91 be 7a f2 90 be ea 17 0c 3c 78 39 18 be
       -0.28506172 -0.28309995 0.008550623 -0.14865673
0000d0 9b 7c 91 bd e5 50 b0 bd 46 93 14 3e 25 cd b7 bd
       -0.07103845 -0.086091794 0.14509305 -0.08974675
0000e0 d4 58 94 be 9b 06 1a be e2 1d 71 3d ec 3a 95 3e
       -0.2897402 -0.15041582 0.05886639 0.29146516
0000f0 1b 19 40 be 1f ec 80 be 19 07 5b bd 04 99 7e bb
       -0.18759577 -0.25180146 -0.053473566 -0.0038848529
000100 ae 54 08 3e d3 af 20 be be 5b 75 3c e5 59 32 3e
       0.13313553 -0.15692072 0.014975486 0.17417105
000110 4b ae 82 bc 50 a0 eb 3d cd 1d 19 3e a6 28 9a be
       -0.01595225 0.115051866 0.14952774 -0.30109137
000120 29 fa 33 3e 95 af 68 be 6b 81 a3 bd 24 9b a1 be
       0.17575897 -0.22723229 -0.07983669 -0.31563675
000130 a0 94 7e be 7a 4b 98 3e 0e d8 61 3d 40 54 64 35
       -0.24861383 0.29745084 0.055137686 8.505922e-07
000140 86 4f 69 3e 99 e7 45 ba 99 78 10 3d 9d 1a 3f bd
       0.22784242 -0.00075494644 0.03527126 -0.04665624
000150 3b 30 9b be 2d 2b 0a 3e 23 0c 8d be fb 07 ae 3d
       -0.30310234 0.13493033 -0.27548322 0.08497616
000160 a5 fb 85 3d 52 93 d0 3a 6d 7f 49 3e b3 4d a2 3e
       0.06542138 0.0015913045 0.19677515 0.31699905
000170 6b 2f 67 be 7d e7 7e 3e 0b d3 b5 bc 28 26 8c 3e
       -0.22576682 0.24892993 -0.02219536 0.2737286
000180 37 8e a6 be 97 07 80 be 7d ed 2e bd 2b 13 f8 3d
       -0.32530376 -0.2500579 -0.042706955 0.12113031
000190 5c 28 84 3e 56 b7 75 be 54 74 8d be 56 5e c1 3d
       0.25812042 -0.23995718 -0.27627814 0.09441821
0001a0 79 36 40 be b6 f2 7a be 49 28 5d 3e 78 4f 85 be
       -0.1877078 -0.2450665 0.21597399 -0.26037192
0001b0 8f 80 a5 3e 2b f8 43 be e4 4f 63 3d 6b 50 8e be
       0.32324645 -0.19137637 0.05549611 -0.2779573
0001c0 ca f9 ab 3c db 88 fd bd ad 97 4a 3e d8 3f 9d be
       0.020993132 -0.12379619 0.19784422 -0.3071277
0001d0 ab 1a d4 bd 02 ae 95 be 2d 7b 10 38 86 04 ca 3d
       -0.10356649 -0.2923432 3.444699e-05 0.09864144
0001e0 1a 4c 81 b7 6c f3 a3 3e 85 d4 59 be d3 c7 66 be
       -1.5413436e-05 0.32021654 -0.21272476 -0.22537164
0001f0 4b 76 18 be ce 81 82 be d6 96 03 3d 7f 9a 91 be
       -0.14888875 -0.25489658 0.03212627 -0.28438184
000200 31 6e da 3d 32 d4 66 3d b5 88 dc 3c 94 c5 7a bc
       0.106655486 0.05635471 0.026920656 -0.015305895
000210 00 ca 5b be 20 55 06 bd 96 0a 7d be 37 f7 ab 3e
       -0.21463776 -0.032796025 -0.2471107 0.33587047
000220 4c f2 d1 3c c1 c5 11 be d1 f1 a4 3d 96 ca 89 be
       0.025628231 -0.14235593 0.08053935 -0.26912373
000230 d7 3a 8e 3e 31 9f d6 3d ea 00 a0 3e 43 66 33 be
       0.27779266 0.10479582 0.31250697 -0.17519478
000240 b1 cc b7 3d e2 5f d9 bc a3 64 48 3e 57 fb a2 be
       0.08974589 -0.026534978 0.1956964 -0.31832382
000250 4b ec 4f 3e e6 1e ad 3e f6 94 da 3d 8e 2b 1a 3e
       0.20304982 0.33812636 0.10672943 0.15055677
000260 6f 93 a0 3e fb 97 c1 3d 11 74 7e 3e 92 31 a9 3e
       0.31362483 0.09452816 0.24848963 0.33045632
000270 c8 e4 0d be ff db 4d 35 81 40 51 be 38 32 5e 3b
       -0.13856804 7.668859e-07 -0.20434763 0.0033904444
000280 b8 b4 8d be 51 28 d2 3d dd c7 72 3d 4a af a3 3c
       -0.2767694 0.10261596 0.059272636 0.019981045
000290 61 fb 42 be b1 73 e5 3d 93 22 37 3c d2 0e 3f 3d
       -0.19041206 0.11203707 0.011177677 0.046644993
0002a0 d9 e7 76 be bf ac 9a 3e d5 6e 16 be 35 c7 76 be
       -0.2411188 0.3020992 -0.14690717 -0.24099429
0002b0 a1 98 ff 3d 3f 33 6b bc ee d2 91 be 5e 64 4f 3e
       0.124802835 -0.01435548 -0.2848124 0.20253131
0002c0 32 27 74 3d b6 30 ad bc f9 ca 63 bd 56 70 79 3e
       0.059607692 -0.021141391 -0.05561349 0.24359259
0002d0 d5 ff 6e be 37 56 80 3d 66 2e 9c 3e 94 5d 18 3c
       -0.2333978 0.06266444 0.3050415 0.0092996545
0002e0 e0 3c 3a be 1e 70 a2 be b8 e9 29 be 97 90 99 3e
       -0.18187284 -0.31726164 -0.16593063 0.29993126
0002f0 b0 52 92 bd 83 2e 5d be cd af 27 3e 76 94 fe 3d
       -0.07144678 -0.21599774 0.16375656 0.124306604
000300 da 6c 86 3e 60 2a 67 be 71 4b e7 3d 08 e0 4f 3d
       0.26254922 -0.22574759 0.11293686 0.050750762
000310 64 e4 dd ba 10 c4 3f be 82 28 93 ba d5 1b 9f bd
       -0.0016929028 -0.18727136 -0.0011227282 -0.077689804
000320 a1 b3 63 3e 5d cc 73 3d 30 75 cd bd 91 51 cb 3d
       0.22236492 0.059521068 -0.10032117 0.09927667
000330 58 95 95 3e 15 6a f3 bd c3 a5 48 3e cb f4 a2 be
       0.29215503 -0.11885468 0.19594483 -0.31827387
000340 ee 50 a7 3e 11 e1 ec 3d 4e 0b 84 3d 5b e9 89 bd
       0.32678932 0.115663655 0.06447469 -0.06733962
000350 88 e5 12 3d 4b 2e 27 be d2 3b 90 be 56 53 aa 3d
       0.03586343 -0.16326253 -0.2817064 0.08316676
000360 4b 0f d1 3c 04 f3 2c bd c1 79 00 be bb 1d 81 3e
       0.025519988 -0.042223945 -0.12546445 0.25217995
000370 f0 72 63 be 25 0a 74 be ae 5b 02 bd e4 01 30 bd
       -0.22211814 -0.23831995 -0.031825714 -0.042970553
000380 28 1c 77 3d 78 15 84 3e 46 a5 93 be 64 e7 88 be
       0.060329586 0.2579763 -0.2883703 -0.26739037
000390 fb 24 6c 3e 4e 84 15 bd c9 a4 83 3d 7e 60 8a bb
       0.23060982 -0.03650313 0.06427915 -0.0042229285
0003a0 b8 a8 6e bd f3 20 27 3e 73 2e 20 be fe ca d2 ba
       -0.05826637 0.16321163 -0.15642719 -0.0016082225
0003b0 b2 99 fc bd 64 bb 3d 33 f0 b8 9e 3d b4 01 9b be
       -0.123340026 4.4175422e-08 0.07750118 -0.30274737
0003c0 2c 9a 8f 3e 1c 7e 97 be 6b b0 8e 3d 88 f7 9b be
       0.2804731 -0.295884 0.06967243 -0.3046229
0003d0 52 a0 19 bd 6f b7 8a 3e 63 f5 73 3e b9 a1 44 3d
       -0.03750641 0.27093074 0.23824076 0.048005793
0003e0 64 bf 60 bd f1 b3 30 3e 86 da e9 3d 63 7f 62 be
       -0.054870024 0.17256142 0.11418633 -0.22118907
0003f0 eb 29 d5 bd eb 23 a9 3e 20 29 8f 3e 51 9e 55 3e
       -0.10408386 0.33035216 0.27961063 0.20861174

weight_hh_l0 f4 [27, 9]
000000 10 9c d2 bd 4a 7a ad 3e 20 a4 59 be a1 11 cc bc
       -0.10283673 0.33882362 -0.21254015 -0.02491075
000010 10 8b d3 3d 56 4e 8b be 76 b0 cf 3d e0 d7 2d be
       0.103292584 -0.27208203 0.10141079 -0.16976881
000020 84 c4 54 3d 75 8a 2c 3e 00 75 51 3e 7b 4c f3 bd
       0.051945224 0.16849692 0.20454788 -0.11879822
000030 26 62 2f be b9 95 2f be 23 33 86 3e c4 01 2a 3d
       -0.17127284 -0.17146958 0.2621089 0.04150559
000040 a6 ed df bd 1a a8 81 be a5 e3 19 3b 50 95 2f be
       -0.10934 -0.25323564 0.0023481634 -0.17146802
000050 35 59 74 be 09 9f 28 be ae b9 81 3e bf ae 93 be
       -0.23862155 -0.16466917 0.25336975 -0.28844258
000060 d6 d5 80 be 11 cf 97 bd c4 3d 23 3c cd 94 67 3e
       -0.25163144 -0.07412542 0.009963457 0.22615357
000070 fd 36 27 bb f5 66 9c 3d ce 12 8a be 2c 76 87 3e
       -0.0025514953 0.07636825 -0.26967472 0.26457345
000080 39 6f 6f 3e f4 dd 88 be db 86 f3 bd 44 89 94 be
       0.23382272 -0.26731837 -0.11890956 -0.29010975
000090 24 13 98 3e 32 82 23 bd 92 c5 77 bd 33 3c 46 be
       0.29702103 -0.039919086 -0.060491152 -0.19358902
0000a0 47 ad a2 b9 ae 30 a2 3e db df 0d 3e 0a 11 8e bc
       -0.0003102815 0.31677765 0.13854925 -0.01734211
0000b0 15 5b a7 bd f8 99 68 3e 7b 48 6d 3e eb 2b 01 3e
       -0.081716694 0.22714984 0.2317218 0.1261441
0000c0 fb b9 2f 3e b0 8a fa bd 48 4e 65 be 7d 8d 09 3e
       0.1716079 -0.12233484 -0.22393143 0.1343288
0000d0 f5 06 71 3e a5 02 bf bd db 05 a5 3e ee 6d a2 3e
       0.2353781 -0.09326676 0.3223103 0.31724495
0000e0 a6 d6 89 3e 99 b8 1c bd 1e f0 91 be e7 bf 8c 3e
       0.26921576 -0.038261984 -0.28503507 0.2749016
0000f0 99 d8 4a 3e 6f 42 83 be 98 9b 8f 3e d6 08 46 3e
       0.19809188 -0.25636622 0.28048396 0.19339308
000100 32 30 36 3d b4 69 09 3d 6e 12 ab be a7 44 ab be
       0.044479556 0.033548072 -0.33412498 -0.33450815
000110 67 06 99 be 69 02 1d 3e cf 43 93 be b7 1e 73 3d
       -0.29887697 0.1533295 -0.2876267 0.059355464
000120 7b 0c 95 bd 52 47 9b 3e 2b 7b bf bd 21 c5 72 be
       -0.07277771 0.3032785 -0.09349664 -0.23708011
000130 7a d9 97 3e ff a6 24 bb 6d d7 76 3e eb ea 31 3e
       0.2965811 -0.0025123951 0.24105616 0.1737477
000140 ff 7c a4 3e 7f 3b a4 3e b8 b9 da 3c 8b f1 35 be
       0.32126614 0.32076642 0.026699886 -0.17767923
000150 4e 33 60 bd a1 a6 bc bc 84 c7 2a bd 9f 30 ff 3d
       -0.054736428 -0.023028674 -0.04169418 0.124604456
000160 73 d0 03 be 9b ca cd 3d bb 1c c2 3d 06 e8 9d be
       -0.12872486 0.100484096 0.09478136 -0.30841082
000170 f9 76 4a be 8a bb 8c be ae d6 7b 3e 92 37 ad 3e
       -0.19771947 -0.2748683 0.24593613 0.3383146
000180 02 0c 71 3d ee e0 1f 3d 55 5b 49 be 80 0b 27 3e
       0.058849342 0.03903287 -0.19663747 0.1631298
000190 fa b4 a6 3e 7a 56 a1 3e 99 41 12 3d 69 e3 47 3e
       0.3255995 0.3151129 0.03570709 0.19520344
0001a0 c8 b2 8a 3e 98 51 2e 3c 8b b2 0a 3e 89 49 0e 3d
       0.27089524 0.010639571 0.13544671 0.034738097
0001b0 eb 3f 32 be 3c 1a 5a be ca fa 8c 3e 37 8f 83 3e
       -0.17407195 -0.2129907 0.27535087 0.25695202
0001c0 0a 21 8d be 43 ab 00 3c e5 f7 60 3e 9b 59 21 be
       -0.2756427 0.007853332 0.21969564 -0.15756838
0001d0 b2 2a 9b 3e 93 cf 65 be 2b 97 ca bd 9b b5 c7 bd
       0.3030601 -0.22442465 -0.09892114 -0.09751435
0001e0 fc 8e 92 3e 94 bf 92 be 86 e0 88 3e d5 d3 45 be
       0.28624713 -0.28661788 0.26733798 -0.19319089
0001f0 b5 11 be 3d c4 d1 56 3d 7b 6c c9 bd 3b c4 a1 3d
       0.09280721 0.05244614 -0.09835144 0.07898756
000200 68 31 29 3e e8 60 1a bd 84 a9 fd 3b c1 0c 00 3d
       0.16522753 -0.037690073 0.007741155 0.031262163
000210 bb b9 88 be 84 53 84 bd 19 38 0a be b9 52 33 3d
       -0.267042 -0.06461242 -0.13497962 0.043780062
000220 0c 36 6f 3d ca 39 83 be 68 97 38 bd 2b 19 ce bd
       0.058401152 -0.25630027 -0.045066267 -0.10063394
000230 a6 52 ce 3d 62 bd aa 3e 98 6d 99 3e 79 2e 0c bd
       0.10074358 0.33347613 0.29966426 -0.034224007
000240 fb af a5 3d cc 9b a3 3e e9 92 24 3e 96 c2 a8 3e
       0.08090206 0.319548 0.16071667 0.32960957
000250 0b c8 a8 be 7a 56 9e 3e 81 18 30 3e a1 f3 73 3e
       -0.3296512 0.3092535 0.17196847 0.23823406
000260 f9 a8 25 bd 24 4f 81 be 6f b4 a1 be e6 43 4e be
       -0.040444348 -0.25255692 -0.31582972 -0.20143089
000270 7b c9 5f be 34 e2 8d 3e d3 b5 65 3e d7 a2 f4 3b
       -0.21854202 0.27711642 0.22432642 0.007465701
000280 33 44 4f 3e a9 53 54 be 8f 76 e9 bc 23 aa 80 be
       0.2024086 -0.20735039 -0.028498916 -0.25129804
000290 e1 c9 5a be 5d d9 6b be e3 a8 48 3e cd 6a 0e be
       -0.21366073 -0.23032136 0.19595675 -0.13907929
0002a0 7e 04 8b be e9 26 00 3c b3 f4 74 3e d6 4a 7d 3e
       -0.27151865 0.007821777 0.2392147 0.24735579
0002b0 33 aa 4c 3e 32 48 34 3d 30 5e 85 3e 0b 36 d1 bc
       0.19986801 0.044014163 0.26048422 -0.025538465
0002c0 0d a2 07 be f6 fd 93 3e 39 35 51 3e 45 31 36 be
       -0.13245411 0.28904694 0.20430459 -0.17792232
0002d0 d2 ba b6 3b 3b ec 9d 3e dd 17 10 be 00 e5 81 3e
       0.00557647 0.30844292 -0.14071603 0.25370026
0002e0 fc d0 88 3e a8 14 81 be 2d 0d cf bb 26 45 99 be
       0.26721942 -0.25211072 -0.0063187093 -0.2993557
0002f0 50 9c ad 3e e9 53 5a 3e 7e f1 a9 3e ca 0e aa 3e
       0.3390832 0.21321072 0.33192056 0.33214408
000300 eb 59 bd bd 53 83 c8 3a a6 99 9e 3e 30 33 f9 bd
       -0.09245666 0.0015297927 0.309766 -0.12167966
000310 e9 62 4f 3e c8 2b 86 be 5b 6e 96 be 1a 51 9d 3e
       0.20252575 -0.26205277 -0.2938107 0.30725938
000320 7f 8d fd bc 1b bd 90 be fb 03 da 3d ef 27 85 be
       -0.03095126 -0.28269276 0.106452905 -0.2600703
000330 c4 1a 2d bd bb ca d5 bd e3 fb a6 be 63 58 61 be
       -0.042261854 -0.104390584 -0.3261405 -0.22006373
000340 ae 6d 53 3d e6 7f 8c be f6 4d c8 bc d2 73 15 3d
       0.05161827 -0.2744133 -0.024451237 0.036487408
000350 80 41 89 3d 09 99 0c be a4 4f 16 3d bd 78 5a 3e
       0.06701946 -0.13730253 0.036697045 0.2133512
000360 21 ae 48 3e 7e 57 8d 3e 7b 3f 03 3e 59 d6 60 3e
       0.19597675 0.27605814 0.12817185 0.21956767
000370 eb 94 e7 bd c8 e5 95 3e 85 7b 19 be 4b 7f fe 3d
       -0.11307701 0.29276872 -0.14988525 0.12426623
000380 60 14 8a bc 74 12 96 3e 66 a4 11 3e 8b fd 02 be
       -0.016855419 0.29310954 0.1422287 -0.12792031
000390 4b c6 88 3e 7d 54 6d 3e c9 9c 11 3e 23 bb 1f be
       0.26713786 0.23176761 0.14219965 -0.1559873
0003a0 c1 7a 37 3e 33 c2 97 3e 8a 07 8c bc b6 55 bc 3d
       0.1791792 0.2964035 -0.017093439 0.091960356
0003b0 70 5a 72 be c3 6b 5a be 6f a8 87 be be 08 9c be
       -0.23667312 -0.2133017 -0.26495692 -0.3047542
0003c0 ae 7e 7b 3e a8 ca 97 3e 6b a3 f2 3d
       0.24560043 0.29646802 0.11847576

bias_ih_l0 f4 [27]
000000 08 aa 20 bd 36 ff 84 bc db 6e e4 bd 1b 1b 98 bd
       -0.039224654 -0.016234975 -0.111539565 -0.07427045
000010 da 62 85 be 9b a5 d8 3d 3d 5c 1f be 7d 35 73 3e
       -0.2605198 0.10578462 -0.1556253 0.23750873
000020 21 55 41 3e 25 de 20 be 2b 42 c2 bd 93 4c 27 3e
       0.1888013 -0.15709741 -0.09485277 0.16337804
000030 a0 df 82 3c d8 b5 32 3e 08 20 23 3d 87 05 96 be
       0.015975773 0.1745218 0.03982547 -0.29301092
000040 ab e2 5d be 26 42 0a 3e 43 9b 92 be 0f 41 a3 be
       -0.21668498 0.13501796 -0.2863408 -0.31885573
000050 5e 5c a0 be 1b 79 b7 3d f6 71 c9 3c eb c4 ba 3d
       -0.3132047 0.08958646 0.024590474 0.0911959
000060 a8 56 5f bd 31 1a 41 be 39 a4 33 3d
       -0.054526 -0.18857647 0.043857787

bias_hh_l0 f4 [27]
000000 e6 19 82 be 7e 15 f5 bc d9 4e 20 3d c6 e8 74 3e
       -0.25410384 -0.029917475 0.039137695 0.23916921
000010 3b eb 35 be 25 d2 6b be aa 7c 09 3d c5 d3 2c 3e
       -0.17765515 -0.23029383 0.033566155 0.16877659
000020 51 59 53 be a3 b4 04 3e eb 2c 43 be ee 1d 1f 3e
       -0.2063954 0.12959532 -0.19060104 0.15538761
000030 95 8c b3 3d 4e d1 8f 3e 93 97 6d 3c e1 d5 28 be
       0.08767048 0.28089374 0.01450147 -0.16487838
000040 f3 a3 76 be 11 43 f5 bd 91 b8 5d 3e 80 24 44 3e
       -0.24085979 -0.119756825 0.21652438 0.19154549
000050 25 e5 05 3e fd 9c 15 bb be f3 91 be 19 f7 34 3e
       0.13075693 -0.0022829168 -0.28506273 0.17672385
000060 41 85 2e be 8e a8 92 3e a6 ab 41 be
       -0.1704302 0.28644222 -0.18913135

weight f4 [9, 9]
000000 95 2b cf bd b1 87 c6 3d d9 97 4f 3e fb 4a 84 3e
       -0.101157345 0.0969385 0.20272769 0.25838456
000010 25 51 5a be 15 84 4b be 70 76 64 be 1b 17 df bd
       -0.21320017 -0.19874604 -0.22310805 -0.10893079
000020 4d 4b 03 3e 97 2d 86 2b fa e7 a8 22 e4 51 31 34
       0.12821694 9.533926e-13 4.5782106e-18 1.6514201e-07
000030 7f bf fd 34 5c 49 e2 37 7d 23 85 bb 3d 16 06 b0
       4.7264254e-07 2.697546e-05 -0.0040630684 -4.878052e-10
000040 81 d8 98 a5 0b 1e 95 34 95 68 23 3e 26 2b 85 be
       -2.6514506e-16 2.7775272e-07 0.15957864 -0.26009482
000050 0b 1c 6e be 0c 1f e9 3c ed f9 23 be 9b 60 bf bd
       -0.23252885 0.028457187 -0.16013308 -0.09344598
000060 ea 04 a5 3e 30 01 a3 be 24 d8 8a 3e 5e ef 74 b8
       0.32230312 -0.31836843 0.27118027 -5.839706e-05
000070 e0 9d 88 33 a9 da 25 b7 23 35 eb 39 da 50 eb b9
       6.361711e-08 -9.885677e-06 0.00044862283 -0.00044882932
000080 d3 93 98 b5 7b cc 14 b8 c2 91 a4 34 3a d1 93 bb
       -1.1367905e-06 -3.5476387e-05 3.0653433e-07 -0.0045110257
000090 f0 c3 72 3e 2e 84 9d be b1 00 10 3e c1 96 1a 3e
       0.23707557 -0.30764908 0.14062764 0.1509657
0000a0 29 92 6d be 96 60 9e 3e bd 56 54 bc 38 56 84 3e
       -0.23200287 0.30933064 -0.012960133 0.2584703
0000b0 7f cf 87 be 81 93 76 3e a5 e5 13 bb f7 b6 86 be
       -0.26525494 0.24079706 -0.0022567299 -0.26311466
0000c0 6b a6 98 bd eb 2c ec 3d cd 0b 37 be ab e8 8b 3e
       -0.07453617 0.11532005 -0.17875595 0.2732595
0000d0 8b 9a df bc be 33 8c be 00 1b aa be c4 82 9e be
       -0.027295372 -0.27383226 -0.33223724 -0.3095914
0000e0 93 11 74 3e 10 e9 8f 3e 7c 45 8c 3e 54 f4 61 3b
       0.23834829 0.281075 0.27396762 0.0034477906
0000f0 10 ac c5 bd 7d d5 5b be 7b 4e ee 3d 2d bf 41 be
       -0.09651959 -0.21468158 0.11636063 -0.18920584
000100 06 3c 98 3e 1b 11 d9 bd d9 a1 1c 3e cb fd 73 be
       0.29733294 -0.10598966 0.15296115 -0.23827283
000110 20 16 ef 3d 70 d7 10 be e9 b1 6c 3e e6 71 ae bd
       0.11674142 -0.14144683 0.23114742 -0.08517818
000120 f1 19 0d be 7d de 57 3e 38 e6 88 3e d6 aa 86 be
       -0.13779427 0.21080966 0.26738143 -0.26302212
000130 71 ea 0e 3e 90 32 94 bd 93 3b 05 be 83 a5 fb 3b
       0.1395662 -0.072362065 -0.13011007 0.0076796426
000140 a9 a9 36 be
       -0.17838158

bias f4 [9]
000000 90 41 80 3e d8 ce 73 ba cb 63 d2 bc 77 45 d1 ba
       0.2505002 -0.00093005365 -0.02568235 -0.0015966137
000010 71 d7 a1 bd 5e 5f aa 3e 12 e9 31 3d 1b 00 f7 3d
       -0.0790242 0.33275884 0.043435164 0.12060567
000020 e1 38 c2 bd
       -0.09483505
