ERTSNet/new_arch_LA/decimation/model/best-model_r0_J2_4gains.pt (torch, 386069 bytes, 117 tensors)

weight_ih_l0 f4 [27, 15]
0	0xbdb76178	-0.089541376
1	0xbb11fb6b	-0.00222751
2	0xbe32c9e1	-0.17459823
3	0x3ea34e66	0.3189575
4	0x3e5da197	0.21643673
5	0xbe4fec75	-0.20305045
6	0xbdeaf796	-0.114730045
7	0x3e8d0b47	0.27547666
8	0x9e231e0d	-8.6353625e-21
9	0x3e659513	0.22420149
10	0x3dd5ad83	0.10433485
11	0x3d8adf1a	0.067808345
12	0x383c085d	4.483048e-05
13	0xbd890105	-0.066896476
14	0xba9430da	-0.0011306063
15	0xbc591e49	-0.013251849
16	0xbcbe253a	-0.02321111
17	0x3e3e005c	0.18554825
18	0xbdb8b2c8	-0.09018475
19	0xbe88e86d	-0.26739827
20	0x3e1176d8	0.14205492
21	0xbc91d795	-0.017802993
22	0xbe879484	-0.26480496
23	0x3696e63d	4.4971516e-06
24	0xbe960428	-0.29300046
25	0x3e4ac81c	0.19802898
26	0x3d99f85a	0.075180724
27	0xbe62d162	-0.22150186
28	0x3dacb713	0.08433356
29	0xbe924068	-0.28564763
30	0x3e802d2b	0.2503446
31	0xbd8ab871	-0.06773461
32	0xbdb8e935	-0.09028856
33	0x3e8c37a1	0.2738619
34	0xbdd24515	-0.102670826
35	0xbe23a2a8	-0.15980017
36	0xbc478058	-0.012176596
37	0x3dcc84cb	0.09986266
38	0x1a40f738	3.990437e-23
39	0x3ea34371	0.3188739
40	0xbe9db8aa	-0.3080495
41	0x3e9527c2	0.29131895
42	0x3dfb59c3	0.1227298
43	0xbe4fe713	-0.20302992
44	0xbe54bb0f	-0.20774482
45	0xbcf68d55	-0.03009669
46	0x3cb8e562	0.022570316
47	0xbe05ab05	-0.1305352
48	0x3e92b1ee	0.28651375
49	0x3e9bf83d	0.30462828
50	0xbe6b8ab6	-0.23002133
51	0xbea38ab5	-0.31941763
52	0x3e94d741	0.29070476
53	0x256016bb	1.9436604e-16
54	0x3e94cefe	0.29064173
55	0xbe398832	-0.1811836
56	0x3d2c8282	0.04211665
57	0xbe1672e0	-0.14692259
58	0x3d81b72a	0.06333764
59	0xbcfd97a0	-0.03095609
60	0x3df497ba	0.11943002
61	0x3dc60ebd	0.0967078
62	0x3dda39d6	0.106555626
63	0xbe41a6bd	-0.18911262
64	0xbc91a0dc	-0.017776899
65	0x3e3233d7	0.17402588
66	0x39ac123d	0.00032819985
67	0xbe620742	-0.22073081
68	0x27dd4d3c	6.142356e-15
69	0xbe678715	-0.22610123
70	0xbd2ce97a	-0.042214848
71	0x3e483224	0.19550377
72	0x3e4762bc	0.19471258
73	0x3e919431	0.28433374
74	0xbe7c2070	-0.24621749
75	0x3e68d57b	0.22737686
76	0x3ca1b47b	0.01973938
77	0x3e2a1e26	0.16613063
78	0xbd616cc6	-0.055035375
79	0x3a039f0a	0.0005020952
80	0x3e222077	0.15832697
81	0x3e93a2f4	0.2883526
82	0xbdc58bd6	-0.09645812
83	0xb6314048	-2.6412472e-06
84	0xbe4c40a6	-0.19946536
85	0xbe16d3c7	-0.14729224
86	0x3dcbd98f	0.099536054
87	0xbde60bff	-0.11232757
88	0xbe3f7008	-0.1869508
89	0x3e6e363e	0.23262879
90	0xbe95c078	-0.29248405
91	0xbccb530f	-0.024819879
92	0x3dfd30e6	0.12362842
93	0xbe8d199c	-0.275586
94	0x3cbd0cf4	0.023077466
95	0xbccd9cad	-0.025099123
96	0x3e67500e	0.22589132
97	0x3e062d24	0.13103157
98	0x9d9f3638	-4.214301e-21
99	0xbe6baecf	-0.23015903
100	0x3dcc9595	0.09989468
101	0xbe93c5e5	-0.2886192
102	0xbd03076c	-0.0319895
103	0xbdab04f8	-0.08350557
104	0xbe75b9e9	-0.239967
105	0x3de953f3	0.11392965
106	0xb9f89709	-0.00047414776
107	0xbd6bef79	-0.057601426
108	0x3c4984bb	0.012299712
109	0xbc96f1b6	-0.018425804
110	0xbdcbbf0d	-0.099485494
111	0x3e67eca9	0.22648872
112	0xbe5a5622	-0.2132192
113	0xb4e4bd1d	-4.2605907e-07
114	0x3e84dc70	0.2594943
115	0x3db22ab2	0.0869955
116	0xbd7ce372	-0.061740346
117	0x3e8f8950	0.2803445
118	0xbe339186	-0.17535982
119	0x3d900abf	0.070333
120	0x3e886377	0.26638386
121	0x3de1b5a8	0.11020976
122	0x3ea0a877	0.31378528
123	0xbe2defb1	-0.16985966
124	0xbe714579	-0.23561658
125	0x3da46498	0.08026999
126	0x3bf5cc49	0.0075011593
127	0x3dd8fb5b	0.10594817
128	0xba970e83	-0.001152471
129	0x3e8fc489	0.28079632
130	0xbde299bb	-0.11064478
131	0xbe7838f2	-0.24240473
132	0x3e84072f	0.2578673
133	0x3e5566ce	0.20839998
134	0xbb1bc61f	-0.0023769212
135	0xbc8f5654	-0.01749722
136	0x3dc50758	0.09620541
137	0x3e9660b2	0.29370648
138	0x3ea671a3	0.32508573
139	0x3e92f83f	0.28705022
140	0xbde95cbd	-0.113946415
141	0xbe1136b0	-0.14181018
142	0xbd3bd840	-0.04586053
143	0xb90938e2	-0.00013086529
144	0xbdfda5a0	-0.12385106
145	0xbdd1f27b	-0.102513276
146	0xbe1e11dc	-0.154365
147	0x3d91bf2b	0.071165405
148	0x3d1493c4	0.036273733
149	0xbe3d6fe4	-0.18499714
150	0x3df5928e	0.11990844
151	0x3c1b3148	0.009472199
152	0x3e1f36db	0.1554827
153	0x3dcfe82c	0.10151705
154	0xbe66dee7	-0.22545968
155	0x3e31708f	0.17328094
156	0x3e068aea	0.13138929
157	0xbc71924f	-0.014744355
158	0x35135340	5.488291e-07
159	0x3e9fc9d7	0.3120868
160	0x3ea05e82	0.31322104
161	0x3e4ec02b	0.20190494
162	0x3e3c5111	0.183903
163	0xbe7f6323	-0.24940161
164	0xbd6841c2	-0.056703337
165	0xbe53e289	-0.20691885
166	0xbd647dda	-0.055784084
167	0x3e2efe51	0.17089202
168	0xbe2ba970	-0.16763854
169	0xbde472b5	-0.11154691
170	0xbe19d562	-0.15022805
171	0xbe00e8ed	-0.12588854
172	0xbde1836e	-0.11011396
173	0xb6e19f5d	-6.724075e-06
174	0xbe76d543	-0.2410479
175	0xbeaae993	-0.33381328
176	0x3e9ce9f7	0.3064725
177	0xbe1a6f87	-0.15081607
178	0x3e18b522	0.14912847
179	0x3e790a6b	0.2432038
180	0xbd10fea1	-0.035399083
181	0xbd8ff682	-0.070294395
182	0xbe9f3a82	-0.31099325
183	0x3ea0cc6f	0.3140597
184	0xbe1350ca	-0.14386287
185	0xbd802dce	-0.062587366
186	0x3dbca083	0.09210303
187	0x3e0881dd	0.13330789
188	0x397df5d4	0.00024219538
189	0x3e16a5ba	0.14711657
190	0xbe994750	-0.2993722
191	0x3e8c9588	0.27457833
192	0xbe033427	-0.12812863
193	0x3e312b9e	0.17301795
194	0xbe322574	-0.173971
195	0x3e741bea	0.23838773
196	0x3d15310e	0.036423735
197	0x3e9659b8	0.29365325
198	0xbd01fccc	-0.031735227
199	0xbe99c8b3	-0.30035934
200	0xbdff726c	-0.12472996
201	0x3d737094	0.059433535
202	0xbe2d6bad	-0.16935606
203	0x2626ae5a	5.782911e-16
204	0xbda1ee8d	-0.07906828
205	0x3d82fbe6	0.06395702
206	0xbe321e80	-0.17394447
207	0xbe7f4f27	-0.24932538
208	0x3da2fbe2	0.07958199
209	0xbd1ccd4e	-0.03828173
210	0x3e07ea61	0.13273002
211	0x3d2d08cd	0.04224472
212	0x3e090edc	0.13384575
213	0xbd51a351	-0.05118114
214	0x3e9f94f6	0.31168336
215	0x3e784a72	0.24247149
216	0xbe331587	-0.17488681
217	0xbe289ea3	-0.16466765
218	0x1e7e6cc6	1.3469142e-20
219	0x3d89f6e3	0.06736543
220	0xbe0a42f2	-0.135021
221	0xbbb475a9	-0.0055071902
222	0xbe8c015a	-0.2734478
223	0xbc9d8488	-0.019228235
224	0xbdd42206	-0.10358052
225	0x3b1c7650	0.002387423
226	0xbca5b4dd	-0.020227844
227	0xbcee7550	-0.029108673
228	0x3dc55117	0.09634607
229	0xbe8a1c1a	-0.26974565
230	0xbe921b02	-0.2853623
231	0xbe179e7a	-0.14806548
232	0xbe2f8edb	-0.17144339
233	0xa03e67f6	-1.6128024e-19
234	0x3d175456	0.036945663
235	0x3d7e6a5d	0.062113155
236	0x3e295dac	0.16539639
237	0xbe5e2806	-0.21694955
238	0xbd9113ec	-0.07083878
239	0x3e65afbb	0.22430317
240	0xbdd82eb2	-0.105557814
241	0x3cab373a	0.020900358
242	0x3e50dd8e	0.20397016
243	0xbddfb0c9	-0.10922391
244	0x3e3331d2	0.17499474
245	0xbe0322a7	-0.12806188
246	0x3df21194	0.11819759
247	0xbe127bbc	-0.14305013
248	0xb90fa089	-0.00013697347
249	0xbd06294a	-0.03275422
250	0x3d80d604	0.0629082
251	0xbe8de1de	-0.27711385
252	0xbce89604	-0.028391846
253	0xbe4017e1	-0.18759109
254	0x3cd9f3e2	0.02660555
255	0x3e922495	0.28543535

weight_hh_l0 f4 [27, 9]
0	0x3e425090	0.18976045
1	0xbcb42d73	-0.021994328
2	0x3e816dd2	0.252791
3	0xbe91f4fc	-0.2850722
4	0x3e416a9d	0.18888326
5	0xbd0b8710	-0.034064353
6	0x3d0e2551	0.034703556
7	0x3ccaff44	0.024779923
8	0x3e69b701	0.22823717
9	0xbdfb5bfb	-0.12273403
10	0x3de4b216	0.1116678
11	0x3dcdad8b	0.10042866
12	0x3e148056	0.14502081
13	0xbe282c9c	-0.16423267
14	0xbe39cf20	-0.18145418
15	0x3deefd05	0.116693534
16	0x3e509552	0.20369461
17	0x3e932790	0.2874112
18	0x3e6c3c00	0.23069763
19	0x3d3fce44	0.04682757
20	0xbdc687a0	-0.09693837
21	0x3e81fee5	0.25389782
22	0xbd7e86e9	-0.06214038
23	0x3c3e775e	0.011625139
24	0x3def0dfc	0.11672589
25	0xbe89d645	-0.26921287
26	0x3e794086	0.2434102
27	0x3e687a4b	0.22702901
28	0xbe12b652	-0.14327362
29	0xbe65b1e4	-0.22431141
30	0xbe13b971	-0.14426209
31	0xbd410bcb	-0.047130387
32	0x3dea17f8	0.11430353
33	0x3e3c300e	0.18377706
34	0x3c9ff829	0.019527512
35	0xbe94a932	-0.29035336
36	0x3bd2099c	0.006409837
37	0xbd552c8e	-0.052044444
38	0x3e57c1f9	0.21070088
39	0xbe20d7c7	-0.15707313
40	0x3e2f07b7	0.17092787
41	0x3e1991f7	0.14997087
42	0xbc853914	-0.016262569
43	0x3be3c8fb	0.006951449
44	0xbe84e357	-0.25954697
45	0x3e91515e	0.2838239
46	0xbe924768	-0.28570104
47	0x3dcbca98	0.09950751
48	0xbe40ec62	-0.18840173
49	0x3e999ea0	0.30003834
50	0x3ea13772	0.31487614
51	0xbea1892e	-0.31549972
52	0xbe4d2ea9	-0.2003733
53	0x3e98e46d	0.29861775
54	0xbe3542ff	-0.17701338
55	0xbdcd1936	-0.10014574
56	0x3e8fd512	0.28092247
57	0x3e94b64b	0.29045328
58	0xbd7b5ade	-0.061365955
59	0xbe760843	-0.24026589
60	0xbd975a9f	-0.073903315
61	0x3d5b9892	0.0536123
62	0x3cb872ff	0.022515772
63	0x3e9ce15c	0.30640686
64	0x3d43d44b	0.04780988
65	0xbe7e1796	-0.24813685
66	0xbd823bd8	-0.063590705
67	0x3db98435	0.090584196
68	0xbe48ea28	-0.19620574
69	0xbd9c8feb	-0.07644638
70	0x3c056c43	0.008143487
71	0xbdd65f59	-0.10467405
72	0xbe16a177	-0.14710031
73	0xbdcf9ba8	-0.10137111
74	0x3e10c390	0.14137101
75	0xbcc32c26	-0.023824763
76	0x3dc293e0	0.09500861
77	0xbd511df3	-0.051053952
78	0x3e175bf7	0.14781176
79	0xbe8c8580	-0.27445602
80	0x3ea39060	0.31946087
81	0xbe753818	-0.2394718
82	0x3e8de911	0.27716878
83	0x3e95df18	0.2927177
84	0xbb0b7fd0	-0.00212859
85	0x3e7a36c8	0.2443496
86	0xbe664670	-0.22487807
87	0x3ea3c74b	0.31987986
88	0x3e85e462	0.26150805
89	0x3dbdbc70	0.09264457
90	0x3c9d2b3f	0.01918566
91	0xbc2790b5	-0.010227372
92	0xbdac726e	-0.08420263
93	0x3c878f37	0.016547782
94	0xbe89fee8	-0.2695229
95	0xbd1e7889	-0.03868917
96	0x3dd9a171	0.10626496
97	0xbd88c947	-0.066790156
98	0xbd9ef568	-0.07761651
99	0x3e6e5f40	0.23278522
100	0xbe223e89	-0.15844168
101	0xbe0c7476	-0.13716301
102	0xbdca2ded	-0.09872041
103	0x3e47b8cf	0.19504093
104	0x3e8c4c8e	0.27402157
105	0x3e9ed120	0.31018925
106	0xbdf035a1	-0.11728979
107	0x3e3079e9	0.17234005
108	0x3c951d65	0.018202493
109	0x3e97cc33	0.2964798
110	0xbe9cd6f7	-0.30632755
111	0x3e9e1968	0.30878758
112	0xbe894abd	-0.26814833
113	0x3e9c6c38	0.30551314
114	0x3e8eb574	0.27872813
115	0x3ce59a94	0.02802781
116	0xbe68b26f	-0.22724317
117	0x3e55d68e	0.20882627
118	0xbe6dd554	-0.2322591
119	0xbe167d87	-0.14696322
120	0xbe0e6c5e	-0.13908526
121	0x3e35f92b	0.17770831
122	0xbe87f879	-0.26556757
123	0x3da65bf1	0.08123005
124	0xbe308b58	-0.17240655
125	0x3e0f9de0	0.14025068
126	0xbcc7ac67	-0.0243742
127	0xbe0060c6	-0.12536916
128	0x3e7e0640	0.24807072
129	0xbe322ded	-0.17400332
130	0x3e3455dd	0.17610879
131	0x3c414cca	0.011798093
132	0xbe87e50f	-0.26541945
133	0xbcc4ce06	-0.02402402
134	0x3c9370fe	0.017998215
135	0x3e4e2882	0.2013264
136	0x3e21e91e	0.15811583
137	0xbe4bb44c	-0.19892997
138	0xbd33c62f	-0.043890174
139	0xbdc8a357	-0.097967796
140	0x3c2f8e5a	0.010715092
141	0x3d3b45db	0.045720916
142	0xbe846608	-0.25859094
143	0xbe4f18c8	-0.20224297
144	0x3e902707	0.28154776
145	0xbe6fe7cb	-0.23428266
146	0x3c75a305	0.01499248
147	0xbe2c4ab1	-0.16825368
148	0xbe36eeba	-0.17864504
149	0xbe8f0ae4	-0.27937996
150	0xbd8c1502	-0.068399444
151	0x3e8ff70b	0.28118166
152	0x3e3750c8	0.1790191
153	0xbe641099	-0.22271957
154	0xbdbf575d	-0.09342835
155	0x3e1f7f04	0.15575796
156	0xbd79b56a	-0.060964026
157	0x3d9ddf7a	0.077086404
158	0x3e8b4ae2	0.2720557
159	0xbe321c14	-0.17393523
160	0xbe2e7687	-0.17037402
161	0x3e3ce076	0.18445
162	0xbe82adaf	-0.25523135
163	0xbe8c3934	-0.27387393
164	0x3d8386d0	0.06422198
165	0x3b8d6502	0.0043150196
166	0x3e3184d3	0.17335825
167	0x3d72d3c3	0.059283983
168	0xbcce599b	-0.025189212
169	0x3be262e3	0.006908761
170	0xbe791e4f	-0.24327968
171	0xbe2997f7	-0.16561876
172	0xbe8bbc1d	-0.27291957
173	0xbcd775de	-0.02630132
174	0x3e8c9d6b	0.2746385
175	0x3d84a2e9	0.06476385
176	0xbe1c8cba	-0.15288058
177	0xbe1519ff	-0.14560698
178	0x3d0ca125	0.034333367
179	0xbd806362	-0.06268956
180	0x3cd1e486	0.025621664
181	0xbe533a87	-0.20627795
182	0x3e7f2062	0.24914697
183	0x3b8fdfdd	0.0043907003
184	0x3e955e6d	0.29173604
185	0x3bd59071	0.006517463
186	0xbe7a319f	-0.24432991
187	0x3e3114bd	0.17293067
188	0xbe23a744	-0.15981776
189	0x3e6424c9	0.22279657
190	0x3e767b0c	0.24070376
191	0x3e62fdc1	0.22167112
192	0x3ea6ea74	0.3260075
193	0xbe31aa0f	-0.17350028
194	0xbe646bca	-0.22306743
195	0xbe89e91d	-0.26935664
196	0x3e00a49a	0.1256279
197	0xbe9def37	-0.3084657
198	0xbea523ec	-0.3225397
199	0xbe407f84	-0.18798643
200	0xbea21c52	-0.31662232
201	0x3cb4cc33	0.022070026
202	0xbea72ba2	-0.32650477
203	0x3e9fb78d	0.31194726
204	0x3e99be91	0.30028203
205	0xbe489a76	-0.19590172
206	0xbd96e534	-0.07367936
207	0x3ea43eaa	0.3207906
208	0xbc245536	-0.0100300815
209	0xbd5716bc	-0.052511916
210	0xbd43ec4a	-0.047832765
211	0xbe27380e	-0.16329977
212	0xbea2b4af	-0.31778476
213	0x3e7baf33	0.24578552
214	0xbd82f4e4	-0.063943654
215	0x3e3deae9	0.18546642
216	0x3cd1a23f	0.02559006
217	0x3d4b939c	0.04970132
218	0x3e45c504	0.19313437
219	0x3dbae4f4	0.091257006
220	0xbde3555c	-0.111002654
221	0x3e20dbd0	0.15708852
222	0xbd9d76a6	-0.07688646
223	0x3dc4f333	0.09616699
224	0x3d109603	0.035299312
225	0xbe27f483	-0.16401868
226	0x3e79d86f	0.24398969
227	0xbd2c223e	-0.042024843
228	0x3e8403a5	0.2578403
229	0xbe86077c	-0.26177585
230	0xbea395e0	-0.31950283
231	0xbdb6614d	-0.089052774
232	0xbe30ffc7	-0.17285071
233	0x3dc4d315	0.09610573
234	0x3e1eb61a	0.15499154
235	0x3cf88570	0.030337065
236	0x3e0f047f	0.13966559
237	0x3e543f2d	0.20727225
238	0x3ea2212a	0.31665927
239	0xbe3c0b23	-0.18363623
240	0x3e06eda7	0.13176595
241	0xbe0ca1bc	-0.13733572
242	0xbdf1c9e2	-0.11806084

bias_ih_l0 f4 [27]
0	0x3e65609c	0.22400135
1	0xbd99d4c8	-0.07511288
2	0xbe9c0cbd	-0.3047847
3	0x3e54db47	0.20786773
4	0xbe86b56e	-0.26310295
5	0x3e7709ff	0.24124907
6	0xbc8a19be	-0.016857978
7	0xbe8cee3f	-0.27525517
8	0xbe8e6b67	-0.27816316
9	0xbdab15d7	-0.08353775
10	0x3e0b09e6	0.13577995
11	0x3dbabe45	0.09118322
12	0xbcc785a6	-0.02435572
13	0x3beb9c0c	0.007190233
14	0x3e2c91a9	0.1685244
15	0x3eadd884	0.3395425
16	0xbe44fdd1	-0.19237448
17	0xbe91cffe	-0.28478998
18	0xbd8ec8c4	-0.06971887
19	0xbe7f2de7	-0.24919854
20	0x3cf8c71a	0.030368377
21	0x3e6d5e5c	0.23180526
22	0x3dff1251	0.124546655
23	0x3e9c6869	0.3054841
24	0x3e1682b3	0.14698295
25	0xbe8fbfe4	-0.28076088
26	0x3c96cd1e	0.018408354

bias_hh_l0 f4 [27]
0	0xbde7ca42	-0.113178745
1	0x3e889adf	0.26680657
2	0x3e63613e	0.22205064
3	0x3e28de9a	0.16491166
4	0x3d164cc5	0.036694307
5	0x3dfa416e	0.12219511
6	0xbe215576	-0.15755257
7	0xbe693c62	-0.2277694
8	0x3e5041d8	0.20337617
9	0x3e9307ef	0.2871699
10	0x3e9205c2	0.28520018
11	0x3dd01f62	0.10162236
12	0x3cc61718	0.024180934
13	0xbe1e5816	-0.1546329
14	0xbd59be55	-0.05316003
15	0xbdee8fda	-0.11648531
16	0x3dfe2ffb	0.12411495
17	0xbda492a9	-0.08035786
18	0xbe786cb3	-0.24260215
19	0x3debb791	0.11509622
20	0x3e576276	0.21033654
21	0x3e918c33	0.28427276
22	0xbdf0953f	-0.117472164
23	0xbe8f3ea8	-0.2797749
24	0xbd92c06d	-0.071656086
25	0x3e18dcf6	0.1492804
26	0x3e9937dd	0.29925433

weight_ih_l0 f4 [27, 24]
0	0x3e9bb1e3	0.30409154
1	0xbe4992a5	-0.19684847
2	0xbe8b2b3b	-0.2718142
3	0xbd52b0c7	-0.05143812
4	0x3d2e8408	0.042606384
5	0xbe85c874	-0.26129496
6	0x3c0bc1b5	0.00853007
7	0x3dc6ac78	0.097008646
8	0x3e73438e	0.23756239
9	0xbd187ef0	-0.037230432
10	0xbda9be7a	-0.08288284
11	0xbde18839	-0.110123105
12	0xbd2ce4f5	-0.042210538
13	0xbe97c580	-0.29642868
14	0xbe7619bd	-0.24033256
15	0xbda7e0ea	-0.08197196
16	0xbe3bdc85	-0.1834584
17	0xb084e33a	-9.668846e-10
18	0x3e8fa0ea	0.28052455
19	0xbde8915d	-0.11355851
20	0x3c48c7ce	0.012254668
21	0xbe9d0903	-0.30670938
22	0xbe86ab1e	-0.26302427
23	0x3d10e0e7	0.035370734
24	0xbd3918ff	-0.045189854
25	0x3de6658e	0.11249839
26	0x3d04c13a	0.032410838
27	0x3e9e90a9	0.30969742
28	0xbb284814	-0.0025677728
29	0x3e2e8f9f	0.17046975
30	0xbd8a3e03	-0.06750109
31	0xbe6f9f59	-0.2340063
32	0x3dc1871b	0.094495974
33	0x3b914e42	0.004434378
34	0x3ea9bf72	0.33153874
35	0x3e55f27c	0.20893282
36	0x3df31a4d	0.11870251
37	0x3ddca07f	0.107728
38	0x3dc3cb9d	0.095603205
39	0xbbe4dc6b	-0.0069842837
40	0x3e86d760	0.26336193
41	0x38d04de4	9.932721e-05
42	0xbc3170e6	-0.01083014
43	0xbe462bcf	-0.19352649
44	0xbdd03191	-0.10165704
45	0x3e091087	0.13385211
46	0xbe82a783	-0.25518426
47	0x3cbb4c2d	0.022863472
48	0x3e8fffc9	0.28124836
49	0x3e84ef7f	0.2596397
50	0xbde0f1eb	-0.10983642
51	0xbd0a1b04	-0.03371717
52	0xbea59102	-0.32337195
53	0x3e518329	0.2046019
54	0xbea44e8e	-0.32091182
55	0xbe7ff8e0	-0.24997282
56	0x3e88f4e1	0.26749328
57	0x3e9fa3b6	0.3117959
58	0xbe9c9c6f	-0.305881
59	0xbd748e56	-0.059706055
60	0xbe792eb3	-0.2433422
61	0x3c5471d8	0.012966596
62	0xbcc996cd	-0.02460804
63	0x3cafd0de	0.0214619
64	0x3e8d1735	0.27556768
65	0x9e05ce74	-7.083655e-21
66	0x3e9d9259	0.30775717
67	0x3dc468e4	0.09590319
68	0x3e1f52a1	0.15558864
69	0x3d84f422	0.06491877
70	0x3e218067	0.15771638
71	0xbdb3f72d	-0.087873794
72	0xbe3db46f	-0.18525861
73	0xbe5448de	-0.20730922
74	0x3e4dfbd9	0.20115604
75	0xbe9d1a92	-0.30684334
76	0x3de00a52	0.109394684
77	0xbe96530e	-0.2936024
78	0x3e935af8	0.2878034
79	0xbe40e5cd	-0.18837662
80	0x3e57b49d	0.21064992
81	0x3e3eab0c	0.18619937
82	0xbe13568b	-0.14388482
83	0xbde4df58	-0.11175412
84	0xbe1073a1	-0.14106609
85	0x3d24af87	0.04020646
86	0xbc89e428	-0.016832426
87	0x3e20b843	0.1569529
88	0xbea9bda6	-0.33152503
89	0xafb0b8ff	-3.214566e-10
90	0xbe84c682	-0.259327
91	0xbad84547	-0.0016500138
92	0x3e80d539	0.25162676
93	0x3c1d52fb	0.009602304
94	0xbe86b9ba	-0.26313573
95	0x3e1765d6	0.14784941
96	0xbe0a424f	-0.13501857
97	0x3ea58110	0.3232503
98	0x3e623c06	0.2209321
99	0xbe8fd236	-0.28090066
100	0xbe0dfbd1	-0.13865592
101	0x3ea3afe6	0.31970137
102	0xbdbc35cf	-0.09189951
103	0x3e9ffdfb	0.3124846
104	0xbb86347c	-0.004095612
105	0x3e414331	0.18873288
106	0x3ea37153	0.31922397
107	0xbe89e23f	-0.26930425
108	0x3e7f12c1	0.24909498
109	0xbe0235ec	-0.12715882
110	0xbd7a2151	-0.06106693
111	0x3b3d5178	0.002888767
112	0x3e15c6b1	0.14626576
113	0xae1a52b7	-3.508901e-11
114	0x3e2389bc	0.1597051
115	0xbe5d22b7	-0.21595274
116	0x3dd1e7ed	0.102493145
117	0xbdf84533	-0.12122574
118	0xbe1c06d4	-0.1523698
119	0x3c925c06	0.017866146
120	0xbe6392ea	-0.22224012
121	0xbd8158b5	-0.06315748
122	0x3d056e5d	0.032575954
123	0xbea5bf5b	-0.32372555
124	0xbe4cbbcb	-0.19993512
125	0xbd58b857	-0.052910175
126	0xbe8448b9	-0.25836733
127	0xbea2d535	-0.3180329
128	0x3e6e913b	0.23297589
129	0x3e004903	0.12527852
130	0xbe332b6b	-0.17497031
131	0x3cc276c7	0.023738278
132	0xbe902361	-0.28151992
133	0xbdb305a5	-0.08741311
134	0x3e70dad2	0.23520973
135	0x3e2a5c9b	0.16636889
136	0xbe8267ab	-0.25469717
137	0x3adca1f5	0.0016832935
138	0xbdb76e87	-0.08956628
139	0x3e5a9c98	0.21348798
140	0x3d729330	0.0592224
141	0x3e659c6b	0.2242295
142	0xbd16ceed	-0.036818434
143	0x3e917fe8	0.28417897
144	0xbe7ff641	-0.24996282
145	0x3d8dc07d	0.0692148
146	0x3e43787e	0.19088933
147	0xbd327085	-0.04356434
148	0x3e90b914	0.28266203
149	0xbe8acfcc	-0.2711166
150	0xbe146f5a	-0.14495602
151	0x3e24f079	0.16107358
152	0x3e4298d0	0.19003606
153	0x3da7f099	0.08200187
154	0xbe2190d1	-0.157779
155	0x3e968fc4	0.2940656
156	0xbdbd26fb	-0.092359506
157	0xbe0b5df9	-0.13610066
158	0xbcfa6a4d	-0.030568266
159	0x3ad319b5	0.0016105684
160	0xbe247200	-0.16059113
161	0x2a046f15	1.1762494e-13
162	0xbe70e35b	-0.23524229
163	0xbe8c419c	-0.27393806
164	0x3da92a23	0.0825999
165	0x3e83a690	0.25713015
166	0x3cc3e46f	0.023912637
167	0xbd0b199f	-0.03395998
168	0x3e39e738	0.18154609
169	0xbceb777c	-0.028743498
170	0x3e30bf8d	0.17260571
171	0xbe90b1fc	-0.2826079
172	0xbe03d816	-0.12875399
173	0x3e714586	0.23561677
174	0xbe9fbf53	-0.31200656
175	0x3e779c98	0.2418083
176	0xbe301210	-0.1719439
177	0xbe1077f5	-0.1410826
178	0x3e75a338	0.23988044
179	0xbe200f1d	-0.15630765
180	0x3d0f407f	0.034973618
181	0x3d4a3966	0.049371146
182	0xbd535b8d	-0.05160098
183	0xb8996f99	-7.316395e-05
184	0x3d8240c3	0.063600086
185	0x9ffec276	-1.0789489e-19
186	0xbe25acb2	-0.1617916
187	0xbe69b427	-0.22822629
188	0xbe934be6	-0.28768843
189	0x3cfd9e6c	0.03095933
190	0x3e01d2e6	0.12678108
191	0xbe775e21	-0.24157001
192	0xbe87948c	-0.2648052
193	0xbe3a0380	-0.18165398
194	0xbdb39cfb	-0.08770176
195	0xbd3a564a	-0.045492448
196	0x3e92f97c	0.28705966
197	0x3e85f2c0	0.26161766
198	0x3d801d28	0.06255561
199	0x3dfa330b	0.12216767
200	0x3e15f658	0.14644754
201	0x3d6c38ce	0.05767136
202	0x3d80495d	0.06263993
203	0x3e4feea3	0.20305876
204	0x3c383715	0.011243601
205	0x3e9af377	0.30263874
206	0x3e449f74	0.19201452
207	0xbb8c5bb2	-0.004283392
208	0xbe5db0a7	-0.21649419
209	0x9f8bcd17	-5.920808e-20
210	0xbe9db8dc	-0.308051
211	0xbe65b4ef	-0.22432302
212	0xbdfe895c	-0.12428543
213	0x3e2228a8	0.15835822
214	0xbd131969	-0.035912905
215	0x3e3a3e23	0.18187766
216	0xbe9db8be	-0.3080501
217	0x3e34d453	0.1765912
218	0x3e6113be	0.21980187
219	0xbd8f226f	-0.069889896
220	0xbea74d6c	-0.32676256
221	0x3e42e656	0.19033179
222	0xbe98d592	-0.2985044
223	0xbe680076	-0.22656426
224	0xbe9b802f	-0.30371234
225	0xbbfe62ec	-0.0077632573
226	0x3e91c82a	0.28473026
227	0x39e51dae	0.00043700397
228	0xbe4341df	-0.19068097
229	0x3e349559	0.17635097
230	0xbe0b755d	-0.1361899
231	0x3cd30d63	0.02576322
232	0x3ea198ce	0.31561893
233	0x359a7812	1.1508839e-06
234	0xbea7cd1c	-0.32773674
235	0xbe74f59f	-0.23921822
236	0xbe14f768	-0.14547503
237	0x3e8a2227	0.2697918
238	0xbe52d018	-0.20587194
239	0x3e386254	0.18006259
240	0x3b777c18	0.0037763175
241	0xbe9f2422	-0.31082255
242	0xbe9e3ec5	-0.30907264
243	0x3dfe5b6f	0.12419783
244	0x3d88cc72	0.0667962
245	0x3e9f0506	0.3105852
246	0x3dd16fa6	0.102263734
247	0x3d33bd91	0.043881956
248	0xbdeb7be8	-0.114982426
249	0x3e0cda9a	0.13755265
250	0xbe9f5659	-0.31120566
251	0xbe86ff28	-0.26366544
252	0x3c266f19	0.010158324
253	0xbe2feffc	-0.1718139
254	0x3e7fe058	0.24987924
255	0x3d969bfb	0.0735397

weight_hh_l0 f4 [27, 9]
0	0x3e67bca1	0.2263055
1	0xb59907a7	-1.1401615e-06
2	0xbe83a714	-0.25713408
3	0x3ba6ba77	0.0050881463
4	0xbc1fd16e	-0.009754522
5	0x3a1e5bb2	0.00060408853
6	0xbdacff4d	-0.08447132
7	0xbe356fa5	-0.1771837
8	0x3a9d8545	0.0012017867
9	0xbc994af4	-0.018712498
10	0xb22c86ff	-1.0042412e-08
11	0xbe969ab6	-0.2941491
12	0xbd56a6dd	-0.052405227
13	0x3df60d68	0.12014276
14	0x3cfd035f	0.030885397
15	0x3e117730	0.14205623
16	0x3e7334cf	0.23750614
17	0xbd9b3a83	-0.075795196
18	0xbe96ab48	-0.29427552
19	0x1c9281bc	9.695005e-22
20	0x3c83b77a	0.0160787
21	0xbdc2f139	-0.09518666
22	0x3da72ed5	0.081632294
23	0x3bb56272	0.0055354172
24	0xbe92b7e3	-0.2865592
25	0x3e845bf5	0.25851408
26	0xbb60de5c	-0.0034312224
27	0x3e26e0e6	0.1629673
28	0xb080b35b	-9.364202e-10
29	0xbe9fd84b	-0.31219706
30	0xbe4aa7d6	-0.19790587
31	0x3e3b6db7	0.18303572
32	0xbdaa42fd	-0.08313558
33	0xbe2d26f0	-0.16909385
34	0xbdcee40e	-0.10102092
35	0x3e0d39a8	0.13791525
36	0xbdbcf9b4	-0.092273146
37	0x3ad27460	0.0016056411
38	0xbe8b63e1	-0.2722464
39	0x3d7c9207	0.0616627
40	0xbdff9f8d	-0.12481604
41	0xbe026a07	-0.12735759
42	0xbe373ffc	-0.17895502
43	0x3e5cda7a	0.21567717
44	0x3c8fbbe4	0.017545648
45	0x3e9bae2e	0.30406326
46	0x99df4bf0	-2.308833e-23
47	0xbe8aa197	-0.27076408
48	0xbdb6b5db	-0.08921405
49	0xbcedda69	-0.02903481
50	0x3a8edeec	0.0010900176
51	0x3e4a2d6d	0.19743891
52	0xbd6a0c39	-0.057140563
53	0x3caf835b	0.02142494
54	0xbd233423	-0.039844643
55	0x30dfc429	1.6281138e-09
56	0xbd85770c	-0.06516847
57	0xbc08ca19	-0.008348965
58	0x3ca28f09	0.019843595
59	0xb80261c3	-3.1085463e-05
60	0x3c19c7b0	0.009385988
61	0x3e4da9ec	0.20084351
62	0xbc9f8387	-0.019471897
63	0xbe16bf84	-0.14721495
64	0xac473edc	-2.8314495e-12
65	0x3e79f19e	0.24408576
66	0x3d8b8674	0.06812754
67	0x3d21826e	0.039431028
68	0xbc58634a	-0.013207266
69	0xbd3b64c9	-0.045750413
70	0x3e174863	0.14773707
71	0x3e274592	0.16335133
72	0xbe83770c	-0.25676763
73	0xa0bad252	-3.1648804e-19
74	0x3e5e26ae	0.21694443
75	0x3994f79d	0.00028413246
76	0xbbac5084	-0.0052586216
77	0x38fa6ddc	0.00011941392
78	0x3e7f2cbd	0.2491941
79	0xbe43e8f4	-0.19131833
80	0xb8b56395	-8.649301e-05
81	0x3dc6de33	0.0971035
82	0x385fd478	5.336522e-05
83	0xbdb409d6	-0.087909386
84	0x3e0db851	0.13839842
85	0xbb6c4cb9	-0.0036056472
86	0x3e0a71e1	0.13520004
87	0x3e8146a7	0.25249216
88	0x3e67c850	0.22635007
89	0x3c0e162a	0.0086722765
90	0xbd422f4f	-0.0474084
91	0x37767b8c	1.4691508e-05
92	0xbe9e415c	-0.3090924
93	0x3e029654	0.12752658
94	0xbe1639ca	-0.14670482
95	0x3d379f8e	0.044829898
96	0xbe853824	-0.26019394
97	0x3e81bb5a	0.2533825
98	0x3bea040b	0.0071415952
99	0x3e343d0c	0.17601413
100	0x1b6e21d0	1.9697824e-22
101	0xbe45f3a6	-0.19331226
102	0xbde78e3b	-0.11306425
103	0x3e8edef5	0.27904478
104	0x3d82b0a4	0.06381348
105	0x3e751a47	0.23935805
106	0xbc8d441d	-0.017244393
107	0xbb30fbc2	-0.0027005528
108	0xbead0991	-0.3379636
109	0x1f9a8251	6.543713e-20
110	0xbe2a333b	-0.16621105
111	0xbe3f3e8c	-0.18676203
112	0x3e5ff8c3	0.21872239
113	0xbde6478d	-0.11244116
114	0xbe2b152e	-0.16707298
115	0xbd1b34dc	-0.037892208
116	0xbe01e2e1	-0.12684204
117	0x3dcb40cd	0.09924469
118	0x287258f2	1.34529855e-14
119	0x3e66fdeb	0.225578
120	0xbde3183b	-0.11088606
121	0xbe2f67d8	-0.17129457
122	0xbe8b174d	-0.27166215
123	0xbcf85514	-0.030314006
124	0xbddb6cca	-0.10714109
125	0x3e551055	0.20807011
126	0xbc44fa5c	-0.012022581
127	0xa1cc73b0	-1.38542e-18
128	0x3db302a2	0.087407365
129	0x3df2a6ad	0.11848197
130	0x3dbee629	0.09321243
131	0x3defa225	0.117008485
132	0xbe9a9979	-0.30195215
133	0x3d195d7f	0.03744268
134	0xbe188e82	-0.14898112
135	0x3dbcc9a9	0.09218151
136	0x3a1d164d	0.0005992398
137	0x3e24ad6c	0.1608178
138	0xbde29f54	-0.11065546
139	0x3e8a66f9	0.27031687
140	0x3cc014c5	0.023447404
141	0x3e172d9a	0.1476349
142	0xbdd48191	-0.10376275
143	0xbe1e943f	-0.15486239
144	0xbe3f751e	-0.1869702
145	0xb4fe5143	-4.7370312e-07
146	0x3d2897a9	0.04116026
147	0xbce9e467	-0.028551294
148	0x3e1c7b5d	0.15281434
149	0x3e330d9e	0.17485663
150	0x3e47ccb3	0.1951168
151	0x3e5c0cd9	0.21489276
152	0x3dcedf62	0.10101201
153	0xbe863da5	-0.26218906
154	0xb247828c	-1.16130074e-08
155	0xbe1ae0d4	-0.15124828
156	0xbe087b5b	-0.13328306
157	0x3ab32439	0.0013667411
158	0xbe14016b	-0.14453666
159	0x3d8022be	0.062566265
160	0x3e6d67cb	0.23184125
161	0xbd705128	-0.058671147
162	0x3d342955	0.04398473
163	0x32b451d1	2.0991964e-08
164	0xbc9de425	-0.019273827
165	0x3e660b43	0.22465234
166	0x3d9be525	0.07612065
167	0xbe2c56e4	-0.16830021
168	0xbdc544a0	-0.0963223
169	0xbe7dfa30	-0.2480247
170	0x3dd09356	0.10184352
171	0xbc2feeda	-0.010738099
172	0xb0c5f803	-1.4404126e-09
173	0xbd149924	-0.03627886
174	0x3e8f59c0	0.2799816
175	0xbe9859bd	-0.29755965
176	0xbd2dfc0f	-0.04247671
177	0x3e0c9793	0.13729696
178	0x3e21082a	0.1572577
179	0x3cb19fe2	0.021682683
180	0xbeac5575	-0.3365895
181	0xb91d38ed	-0.00014993893
182	0x3e9c4d10	0.30527544
183	0xbd194f54	-0.03742917
184	0xbe6295a6	-0.22127399
185	0xbe44ea9b	-0.1923012
186	0x3e6a4e29	0.22881378
187	0x3ea3083c	0.3184222
188	0x3e53af12	0.20672253
189	0xbe63d7ce	-0.22250292
190	0x27a5b385	4.5991335e-15
191	0xbc8170fd	-0.015800947
192	0x3e90f3e0	0.28311062
193	0xbe9857a5	-0.29754367
194	0xbdb6fa2d	-0.08934436
195	0x3e2017d6	0.15634093
196	0xbc5bb1c3	-0.013409081
197	0xbd973798	-0.073836505
198	0xbccf441f	-0.025301037
199	0x1e0bd170	7.401909e-21
200	0xbd4bba1e	-0.049738042
201	0x3d1a19b8	0.037622184
202	0xbe495e96	-0.19664988
203	0xbe682f84	-0.22674376
204	0x3e8ca62c	0.2747053
205	0xbd698501	-0.057011608
206	0xbe3313b9	-0.17487992
207	0x3e50b6eb	0.20382278
208	0xbaba248b	-0.0014201564
209	0x3d9e6951	0.07734931
210	0xbdf2c5c9	-0.11854131
211	0x3dca992b	0.09892496
212	0x3e73e150	0.23816419
213	0xbd3f29cd	-0.046670724
214	0xbe88d3ac	-0.26723993
215	0x3e32b69d	0.17452474
216	0x3e965425	0.29361072
217	0xba4225c3	-0.00074061396
218	0xbe2051b9	-0.15656175
219	0xbe558587	-0.20851718
220	0x3c28cd0e	0.010302795
221	0x3e68f7c3	0.22750764
222	0x3e3e4625	0.18581446
223	0xbe3d9b35	-0.18516238
224	0xbe845e0e	-0.25853008
225	0x3d17f955	0.037103016
226	0xb78ee290	-1.703322e-05
227	0x3e25a510	0.16176248
228	0x3e7c6462	0.24647668
229	0x3df6abf6	0.12044518
230	0xbd9485a9	-0.07252056
231	0x3e8c4296	0.2739455
232	0xbd89f7cd	-0.067367174
233	0x3e833b43	0.2563115
234	0xbca04fab	-0.019569239
235	0xb4c253b4	-3.6196218e-07
236	0x3dc704fb	0.09717747
237	0xbd336fa3	-0.043807637
238	0xbe97cc2b	-0.29647955
239	0x3e022f20	0.1271329
240	0xbe8676f0	-0.26262617
241	0x3ea98866	0.33111876
242	0x3e985413	0.29751644

bias_ih_l0 f4 [27]
0	0x3dca3fc6	0.09875445
1	0x3c4fb890	0.0126782805
2	0x3e8c34c1	0.27383998
3	0xbe66b359	-0.22529353
4	0x3d802b67	0.06258278
5	0x3d0a2329	0.033724938
6	0x3dbb5a47	0.091480784
7	0xbe9597ea	-0.29217464
8	0x3e86eb47	0.26351377
9	0x3e0d3163	0.13788371
10	0xbdf5de8c	-0.12005338
11	0x3dab4f40	0.08364725
12	0x3b21b902	0.0024676924
13	0xbd21460c	-0.039373443
14	0xbe3514df	-0.17683743
15	0xbcc75423	-0.024332112
16	0x3db385f5	0.08765785
17	0xbc0b911b	-0.008518483
18	0xbdbb7480	-0.0915308
19	0xbe8b5787	-0.27215216
20	0xbda78f8e	-0.08181678
21	0x3e7b074e	0.24514505
22	0xbbea93c9	-0.0071587306
23	0x3e1a33b2	0.15058783
24	0xbe73fd0c	-0.23826998
25	0xbda96086	-0.082703635
26	0x3bd771fe	0.006574868

bias_hh_l0 f4 [27]
0	0xbe458099	-0.19287337
1	0xbea5a30e	-0.32350963
2	0xbe12ddf0	-0.14342475
3	0x3d18c9a4	0.037301674
4	0x3e62b194	0.22138053
5	0x3d9d4ce6	0.07680683
6	0x3d324ed8	0.043532223
7	0xbe0bae1b	-0.13640635
8	0xbca1fdd3	-0.019774353
9	0xbe764f98	-0.240538
10	0x3e28a5f8	0.16469562
11	0xbdc0565a	-0.0939147
12	0xbe5c9fa2	-0.2154527
13	0xbe7b7f87	-0.24560367
14	0xbdb7a60f	-0.0896722
15	0xbea7d83d	-0.32782164
16	0xbe9823d1	-0.29714826
17	0xbe009618	-0.12557256
18	0xbc5f280d	-0.013620389
19	0xbe920632	-0.28520352
20	0x3db18afb	0.086690865
21	0xbdf57200	-0.119846344
22	0xbe7903b3	-0.24317817
23	0x3e864825	0.26226917
24	0xbd778479	-0.06042907
25	0xbea3bef4	-0.31981623
26	0xbd5da390	-0.054111063

weight_ih_l0 f4 [27, 39]
0	0x3487c842	2.5291416e-07
1	0xbdd01e7f	-0.10162067
2	0x3e08ae7f	0.13347815
3	0x1ec2402c	2.056709e-20
4	0xbe3e2ab8	-0.18570983
5	0x3de674af	0.112527244
6	0x3d4204cb	0.047367852
7	0x3d9e3481	0.07724858
8	0x367613f7	3.6668478e-06
9	0xbe359e99	-0.17736281
10	0xbe6d7840	-0.23190403
11	0xbdfc8a80	-0.12331104
12	0x3df82574	0.121165186
13	0xbd8449e2	-0.064594045
14	0x3e6c476f	0.23074125
15	0xbe59dea3	-0.21276335
16	0x3e34d1ae	0.17658111
17	0xbeaaab3e	-0.33333772
18	0x3d886df8	0.066616
19	0x3e9a0f73	0.30089912
20	0xbdb3f46c	-0.08786854
21	0x3e3a0815	0.18167146
22	0xbe78cfe5	-0.24298055
23	0xbdf51f47	-0.11968856
24	0x3e07f508	0.13277066
25	0xbd3e1cf3	-0.046414327
26	0x3dd9d04b	0.10635432
27	0x3e28bd1b	0.16478388
28	0x3e049616	0.12947878
29	0xbeaac5b0	-0.3335395
30	0xbea87765	-0.3290359
31	0x3e4b76f5	0.19869597
32	0xbd23c5f7	-0.039983716
33	0xbe50dd78	-0.20396984
34	0xbeac7ebf	-0.3369045
35	0xbe94a3e4	-0.2903129
36	0xbd86cc6f	-0.06581961
37	0x3d06beee	0.03289693
38	0x3e879f03	0.26488504
39	0x3ab4911d	0.0013776157
40	0x3c502286	0.0127035435
41	0x3e5a6095	0.21325906
42	0x1e54888e	1.1251425e-20
43	0xbde5959a	-0.11210175
44	0x3d8d08a8	0.06886417
45	0x3ba82b44	0.005132111
46	0x3e1f6f2f	0.15569757
47	0xba9affce	-0.0011825503
48	0xbe9aae76	-0.30211228
49	0x3eab17f4	0.33416712
50	0xbc610a52	-0.013735371
51	0xbe118f0c	-0.14214724
52	0xbe49d2d1	-0.19709326
53	0x3cfba80f	0.030719785
54	0xbe711f3e	-0.23547074
55	0x3e85f45f	0.26163003
56	0x3ea438da	0.32074624
57	0xbd830ff4	-0.06399527
58	0x3dcf053e	0.10108422
59	0xbe137b74	-0.14402562
60	0xbe5cbd85	-0.21556671
61	0x3c9ea376	0.019365054
62	0xbe898cd9	-0.2686527
63	0x3e1d7628	0.15377104
64	0xbe8ce60a	-0.27519256
65	0x3d816b93	0.06319346
66	0xbc026778	-0.007959239
67	0xbe83c64f	-0.25737235
68	0x3e49e30b	0.19715516
69	0x3e940caf	0.28915927
70	0xbc2d6d7e	-0.010585187
71	0x3e281091	0.1641257
72	0xbe78de04	-0.24303442
73	0xbe587754	-0.2113927
74	0x3c174905	0.009233718
75	0x3e957381	0.29189685
76	0xbe6c78d3	-0.23092966
77	0x3d960481	0.07325078
78	0xbae458c0	-0.0017421469
79	0xbe865a79	-0.262409
80	0x3de5a49a	0.11213036
81	0x28a472ce	1.8257446e-14
82	0x3e693351	0.22773482
83	0xbd8eac99	-0.06966514
84	0xbe237aa8	-0.15964758
85	0xbe95f086	-0.29285067
86	0xb7d3ef9f	-2.5264742e-05
87	0x3e9b0208	0.30274987
88	0x3e452a38	0.19254386
89	0x3de483c6	0.11157946
90	0x3d5c28ad	0.05374973
91	0xbdb8c361	-0.090216406
92	0x3dad43a1	0.08460165
93	0xbc867329	-0.016412335
94	0x3db286bd	0.087171055
95	0x3e82b8ff	0.25531766
96	0x3e049f2d	0.12951346
97	0x3e076b44	0.13224512
98	0xbe4bce12	-0.19902828
99	0x3ddd47c7	0.10804706
100	0x3e67b040	0.22625828
101	0xbea75c11	-0.3268743
102	0x3db39cd6	0.087701485
103	0xbbd1b06e	-0.006399206
104	0x3dd3663c	0.10322234
105	0x3cf81815	0.03028492
106	0xbe21e0a9	-0.15808357
107	0xbde968b8	-0.11396927
108	0x3e94b1c8	0.29041886
109	0x3ea9d4c1	0.3317013
110	0x3e5a4586	0.21315584
111	0xbde8130b	-0.11331757
112	0x3d9b1462	0.07572247
113	0x3e8a6108	0.27027154
114	0xbe178df1	-0.1480024
115	0x3d91feb2	0.071286574
116	0x3e777642	0.24166206
117	0xa8179b78	-8.415896e-15
118	0x3e6046fb	0.21902077
119	0x3e1abddf	0.15111493
120	0x1ed08533	2.2077947e-20
121	0xbddbdbd1	-0.10735286
122	0xbc9e4975	-0.019322136
123	0x3ea01cec	0.31272066
124	0xbeaaddea	-0.33372432
125	0x3261f8e6	1.3153317e-08
126	0x3d3e26eb	0.046423834
127	0x3b8af3d4	0.0042404924
128	0x3d17263e	0.036901705
129	0x3de6ea03	0.11275103
130	0x3db0c454	0.086311966
131	0x3cb3f2d0	0.021966368
132	0x3d5e0cdd	0.054211486
133	0x3e67aaab	0.22623698
134	0x3dd2b46b	0.10288318
135	0xbbeb961b	-0.007189525
136	0xbd2d5f62	-0.042327292
137	0xbd138675	-0.0360169
138	0x3e93ba6a	0.2885316
139	0x3e8a6849	0.27032688
140	0xbe82cf08	-0.25548577
141	0x3e5c2755	0.21499379
142	0x3df57515	0.11985222
143	0xbd85fc3f	-0.06542253
144	0x3e26b015	0.16278107
145	0x3e3cfdcd	0.18456192
146	0x3e83115e	0.25599188
147	0x3e0efab2	0.1396282
148	0x3dff6145	0.124697246
149	0x3e2baec6	0.1676589
150	0x3daa2e34	0.08309594
151	0xbdf61789	-0.12016208
152	0x3e51740f	0.20454429
153	0x3e8bfd0e	0.27341503
154	0x3d1a11e2	0.03761471
155	0x3e9068f2	0.28205067
156	0xb1aa9bd5	-4.9653672e-09
157	0x3d197078	0.037460774
158	0x3abb2a56	0.0014279585
159	0x2fcd724e	3.73705e-10
160	0xbe00a455	-0.12562688
161	0xbcd86838	-0.026416883
162	0xbde78586	-0.113047644
163	0x3df0b75e	0.117537245
164	0x33268e63	3.8779387e-08
165	0xbcd969c4	-0.02653969
166	0xbe51542e	-0.20442268
167	0xbddccc1b	-0.107811175
168	0xbd806f12	-0.06271185
169	0xbd2f6260	-0.042818427
170	0xbc4f7e61	-0.012664408
171	0x3dafa9e1	0.08577324
172	0x3dbc2a68	0.09187776
173	0xbe82262f	-0.25419757
174	0x3e19d1bc	0.15021414
175	0x3d044e53	0.03230126
176	0x3e7ba2fb	0.24573891
177	0x3e5c14f2	0.21492365
178	0xbe8e0198	-0.2773559
179	0xbe7069b9	-0.2347783
180	0xbd04977f	-0.03237104
181	0xbe9d974a	-0.30779487
182	0x3e4ec20c	0.2019121
183	0xbe9936c3	-0.29924592
184	0xbe5579ec	-0.20847291
185	0x3e9723e0	0.29519558
186	0x3bc51e09	0.0060155434
187	0xbe791b62	-0.24326852
188	0x3e0315ae	0.12801239
189	0x3d4764b9	0.04868004
190	0x3e93d36f	0.2887225
191	0x3e7a414f	0.24438976
192	0x3e2b286d	0.1671464
193	0x3e786197	0.24255978
194	0x3e3f35c0	0.18672848
195	0x20e5d503	3.8935068e-19
196	0x3e183b64	0.14866406
197	0x3e121e42	0.14269355
198	0xabdeda0b	-1.5834568e-12
199	0xbe31326c	-0.1730439
200	0x3912f3dc	0.0001401449
201	0xbe87c6d3	-0.26518878
202	0x3df24323	0.118292116
203	0x39e99ae1	0.00044556617
204	0x3e93e0eb	0.28882536
205	0xbe0e26b0	-0.13881946
206	0xbe54c3c8	-0.2077781
207	0x3cf007fe	0.029300686
208	0x3e971ad4	0.29512656
209	0x3dc80f40	0.09768534
210	0x3e3afad3	0.18259744
211	0xbe1ba7be	-0.15200707
212	0x3e068aad	0.13138838
213	0x3e79f771	0.24410798
214	0xbd44d53e	-0.048054926
215	0xbe9ed167	-0.31019136
216	0x3e59a0c6	0.21252736
217	0x3e81532d	0.2525877
218	0x3e10397e	0.14084432
219	0xbc7de03b	-0.015495355
220	0x3e170891	0.14749362
221	0xbe81fc75	-0.25387922
222	0xbdceb8b4	-0.10093823
223	0xbe9bc4ee	-0.30423683
224	0x3e746afd	0.23868938
225	0x3dc8dfd0	0.09808314
226	0x3e9f59b4	0.31123126
227	0x3e816fad	0.25280514
228	0xbd875a8c	-0.06609067
229	0x3c00a74f	0.0078523895
230	0x3e8ee2a7	0.27907297
231	0xbe7274c6	-0.23677358
232	0xbb354cd5	-0.0027664204
233	0x3ce3282c	0.027729116
234	0x3948a4c1	0.00019134862
235	0xbc832bc8	-0.016012087
236	0xbcc350a8	-0.02384217
237	0x399deef7	0.00030123416
238	0xbcb97902	-0.022640709
239	0x3a8808b0	0.0010378566
240	0x3e89e119	0.26929548
241	0x3e9048b8	0.2818048
242	0xa4390b0d	-4.012484e-17
243	0xbe4fcedb	-0.20293753
244	0xbe91980f	-0.28436324
245	0xbe8ee7e2	-0.27911288
246	0xbc3800f5	-0.011230697
247	0xbe4a1afe	-0.19736859
248	0xbd5780cf	-0.052613076
249	0x3ddd74ba	0.108132794
250	0xbe5e6c3a	-0.21720973
251	0xbe845f75	-0.25854078
252	0xbe381715	-0.17977555
253	0xbcde49fb	-0.027134886
254	0x3e0290ee	0.12750599
255	0xbdbe2485	-0.09284309

weight_hh_l0 f4 [27, 9]
0	0x3dd38d45	0.103296794
1	0x3dcc63ab	0.09979948
2	0x3e46f6b4	0.19430047
3	0xbde411d4	-0.11136213
4	0xbe38f32d	-0.18061514
5	0xbdf15a82	-0.11784841
6	0xbe95e1ee	-0.29273933
7	0xbc979f29	-0.01850851
8	0x3e674fc5	0.22589023
9	0xbe5d468a	-0.2160894
10	0xbe3f5cab	-0.18687694
11	0xbea965d7	-0.3308551
12	0x3e19278e	0.14956495
13	0xbe983d12	-0.29734093
14	0x3e69b23b	0.22821896
15	0xbe3e8c4a	-0.18608204
16	0x3d6d0758	0.05786833
17	0xbea65f47	-0.32494566
18	0xbe1d8742	-0.15383628
19	0xbd38f411	-0.045154635
20	0xbe0a9cdf	-0.13536404
21	0xbe102d8e	-0.14079878
22	0x3d3c8c8b	0.04603247
23	0x3dd3dae7	0.10344487
24	0x3ddce44e	0.10785733
25	0x3e28b443	0.16475014
26	0xbd84fcfd	-0.06493566
27	0xbe339c13	-0.17540006
28	0xbe01e1f0	-0.12683845
29	0xbe058e5f	-0.13042592
30	0x3e21979f	0.15780495
31	0xbe99aed4	-0.30016196
32	0xbd1f8058	-0.038940758
33	0x3e94510a	0.28968078
34	0xbe247370	-0.16059661
35	0x3e86a27c	0.2629584
36	0xbdfbff9f	-0.12304615
37	0xbdb6a46f	-0.08918082
38	0x3e972b1e	0.29525083
39	0x3e3e3579	0.18575086
40	0xbd29fbf2	-0.04150004
41	0xbc9861d5	-0.018601337
42	0x3e69f27f	0.22846411
43	0xbc046b56	-0.0080822315
44	0xbe9ead8e	-0.30991787
45	0xbea4cb08	-0.3218615
46	0xbd5fac04	-0.054607406
47	0x3ea8ad4b	0.32944712
48	0xbe21b258	-0.15790689
49	0xbd9f6622	-0.07783152
50	0x3e972f6e	0.29528373
51	0xbe8e4af2	-0.27791554
52	0xbd186f75	-0.03721567
53	0xbe8c424c	-0.2739433
54	0x3e08205c	0.13293594
55	0xbb198f43	-0.0023431338
56	0x3e6dc6d2	0.23220375
57	0xbd016078	-0.03158614
58	0xbe3608d0	-0.17776799
59	0xbd0bebe7	-0.03416052
60	0x3cc37bb2	0.023862693
61	0x3e808fe2	0.25109774
62	0xbe3d6c05	-0.18498237
63	0xbeaafec5	-0.333975
64	0x3c27d961	0.010244698
65	0x3e83f998	0.25776362
66	0x3dd75bcc	0.10515556
67	0xbe7c2425	-0.24623163
68	0xbd3f30d5	-0.04667743
69	0xbdfa78e4	-0.12230089
70	0xbda4e1a8	-0.08050853
71	0xbcc55925	-0.024090359
72	0x3ea73006	0.32653826
73	0x3e813170	0.2523303
74	0xbdb133f6	-0.08652489
75	0xbe9c1cc3	-0.30490693
76	0xbdd40940	-0.10353327
77	0xbe91ab37	-0.2845094
78	0xbe8aadfa	-0.2708586
79	0x3e6bd4b3	0.23030357
80	0x3aaf2efa	0.001336544
81	0xbe713fc4	-0.23559481
82	0xbe90271d	-0.2815484
83	0xbdc33963	-0.0953243
84	0xbe163928	-0.14670241
85	0xbd5d7bf4	-0.05407329
86	0xbd4c68db	-0.049904685
87	0xbe1b656a	-0.15175405
88	0x3e202006	0.15637216
89	0xbd214590	-0.03937298
90	0x3d4d9326	0.05018916
91	0x3cc35338	0.023843393
92	0xbe934026	-0.2875988
93	0xbe03d034	-0.12872392
94	0x3e9657be	0.29363817
95	0x3e3400f3	0.17578487
96	0xbe37ffc7	-0.17968665
97	0xbdfabd47	-0.12243133
98	0xbd8d180d	-0.06889353
99	0xbe859017	-0.26086494
100	0x3e2fce0a	0.17168441
101	0x3e6f433b	0.2336549
102	0xbd2869a5	-0.041116375
103	0x3c7e25d0	0.015511945
104	0xbdfc6bb7	-0.123252325
105	0x3e9063ac	0.28201044
106	0x3e32644e	0.17421076
107	0x3e502930	0.20328212
108	0x3db54bff	0.08852386
109	0x3e4a72e9	0.19770397
110	0x3d3d6886	0.04624226
111	0x3dfd7a12	0.12376799
112	0xbea8fad4	-0.33003867
113	0x3ea4777d	0.32122412
114	0x3dde2579	0.10846991
115	0x3ceefb50	0.02917257
116	0xbe14bbfa	-0.14524832
117	0xbe98301b	-0.29724202
118	0xbe21f84a	-0.15817371
119	0xbe07f539	-0.13277139
120	0x3dc4ac22	0.09603144
121	0x3ea5a9c3	0.3235608
122	0x3e847f4f	0.2587838
123	0x3e3bdace	0.18345186
124	0xbe541b1b	-0.20713465
125	0xbe0f7ff4	-0.14013654
126	0xbd9de70c	-0.07710084
127	0xbe8b98d1	-0.27265027
128	0xbe9c57ea	-0.30535823
129	0x3e66e0d9	0.2254671
130	0xbda4e2c5	-0.08051065
131	0x3e408279	0.18799771
132	0x3d8255e3	0.06364038
133	0xbe3b2884	-0.18277174
134	0x3cf0137e	0.02930617
135	0x3e53ded8	0.20690477
136	0xbd992651	-0.074780114
137	0xbe9ce3fe	-0.30642694
138	0x3d5224a9	0.051304493
139	0x3e74f2a7	0.2392069
140	0x3df2d8e7	0.11857777
141	0x3e860e47	0.26182768
142	0xbd5c8665	-0.053839106
143	0x3e60c77c	0.21951097
144	0xbe4e0b2b	-0.20121448
145	0x3e4fcd21	0.20293094
146	0x3d1ea502	0.038731582
147	0xbe7fce77	-0.24981104
148	0xbdb7131d	-0.089391924
149	0x3e77a6c9	0.24184717
150	0x3ab2baf8	0.0013636043
151	0x3e624710	0.2209742
152	0x3e41c201	0.18921663
153	0x3dec108c	0.115265936
154	0x3e9e10a9	0.30872086
155	0x3c942080	0.018081903
156	0x3e501774	0.20321447
157	0x3e48d270	0.19611526
158	0xbdfd55b3	-0.123698615
159	0x3df16bb0	0.11788118
160	0xbe0f07a8	-0.13967764
161	0x3e9ade3e	0.30247682
162	0x3e815185	0.25257507
163	0x3e155698	0.14583814
164	0xbd3842ee	-0.044985704
165	0xbe91b02f	-0.2845473
166	0x3dabc75a	0.08387633
167	0xbe9460d3	-0.2898012
168	0xbea25e13	-0.31712398
169	0xbcc86425	-0.024461815
170	0x3d826199	0.063662715
171	0xbe6c8010	-0.23095727
172	0xbe6afb5b	-0.22947447
173	0xbe8193cb	-0.2530807
174	0x3e7d2ca6	0.24724063
175	0xbea414be	-0.32047075
176	0xbde85abd	-0.11345432
177	0xbe4cabdb	-0.19987433
178	0xbd490ca0	-0.049084306
179	0xbe585e45	-0.21129711
180	0xbcd73d56	-0.026274364
181	0xbbaadcc1	-0.005214304
182	0xbd82c725	-0.0638564
183	0x3e26ec2c	0.1630103
184	0x3ea55782	0.32293326
185	0x3e909238	0.28236556
186	0x3da600cf	0.08105623
187	0x3e954f17	0.29161903
188	0x3e2773bb	0.16352741
189	0x3ea7b6a4	0.3275653
190	0x3e02abaf	0.12760805
191	0xbce7913a	-0.028267492
192	0xbd5f2903	-0.05448247
193	0x3e63f132	0.22259977
194	0xbe393513	-0.18086652
195	0x3e4f04d5	0.20216687
196	0x3e081bf1	0.13291909
197	0xbe6cda90	-0.2313025
198	0xbccfd18d	-0.025368476
199	0xbe4c6a2a	-0.19962373
200	0xbe46f1e5	-0.19428213
201	0x3d3bd914	0.04586132
202	0xbe227937	-0.15866552
203	0xbe95dcd9	-0.29270056
204	0x3e01481b	0.12625162
205	0xbe949870	-0.2902255
206	0x3dcb2683	0.09919455
207	0x3e2055c6	0.1565772
208	0xbdd6fbe4	-0.10497263
209	0x3ce8d875	0.028423527
210	0xbe432106	-0.19055566
211	0xbd4653e3	-0.048419844
212	0xbe8c2f58	-0.2737987
213	0x3e4454d3	0.19172983
214	0xbd9396f7	-0.07206529
215	0xbe08d8af	-0.13363908
216	0xbe86205a	-0.26196557
217	0xbe714cb3	-0.23564415
218	0xbe4dadb1	-0.2008579
219	0xbe327c9f	-0.17430352
220	0x3e0a06d7	0.13479172
221	0xbdcfd41d	-0.10147879
222	0x3d96f3a4	0.073706895
223	0xbe024491	-0.12721469
224	0xbdd36e2d	-0.10323749
225	0x3dd38d17	0.10329645
226	0x3e03fd38	0.12889564
227	0xbe31212c	-0.1729781
228	0xbe7f13e9	-0.24909939
229	0x3e0fd033	0.14044265
230	0xbe152d2f	-0.14568017
231	0xbe64cd18	-0.22343862
232	0x3ce3b49d	0.027796084
233	0xbe77d648	-0.24202836
234	0x3d90e335	0.07074586
235	0xbe9c2ff3	-0.30505332
236	0xbe914b99	-0.2837799
237	0xbd3d5350	-0.04622203
238	0xbe90f3c6	-0.28310984
239	0xbe57d49a	-0.21077195
240	0xbcf52605	-0.029925356
241	0x3d84c4e3	0.06482866
242	0xbdf1f290	-0.11813843

bias_ih_l0 f4 [27]
0	0xbe80fcad	-0.25192776
1	0xbdd27214	-0.10275665
2	0xbe5b51f4	-0.21417981
3	0x3e14484e	0.14480707
4	0xbdc88a8d	-0.097920515
5	0xbd5f5a7b	-0.05452965
6	0x3e0aa854	0.13540775
7	0x3dd03b3a	0.101675466
8	0x3e062130	0.13098598
9	0xbe34cccb	-0.17656247
10	0xbd8b94a5	-0.06815461
11	0x3e7ccc77	0.24687372
12	0x3d9e075c	0.077162474
13	0x3e839786	0.2570154
14	0xbe1a6125	-0.1507612
15	0xbe3a4b00	-0.18192673
16	0xbe8701b7	-0.26368496
17	0xbdf4f94f	-0.11961614
18	0x3cd72510	0.02626279
19	0xbea2422b	-0.31691107
20	0xbde6b08d	-0.11264143
21	0x3e5703f0	0.20997596
22	0xbe95ef6b	-0.29284224
23	0x3ea45f33	0.3210388
24	0xbe289ddd	-0.1646647
25	0x3e088e8a	0.13335624
26	0x3e8b3168	0.2718613

bias_hh_l0 f4 [27]
0	0xbe7b4f2b	-0.24541919
1	0x3e7d9fd1	0.24767996
2	0x3e8da372	0.2766376
3	0xbd504316	-0.050845228
4	0x3d70855e	0.05872094
5	0x3c894cec	0.016760312
6	0xbe3ac338	-0.18238533
7	0xbda8bcad	-0.08239112
8	0xbe6adba5	-0.2293535
9	0x3d7e0dbe	0.062024824
10	0xbe43f68c	-0.19137019
11	0x3d9399ec	0.07207093
12	0x3e19322d	0.14960547
13	0xbd39e78e	-0.045386843
14	0xbe21986b	-0.15780799
15	0x3d333ce4	0.04375924
16	0xbe9c9b48	-0.3058722
17	0x3d8a0822	0.067398325
18	0x3e415208	0.18878949
19	0xbe24371a	-0.16036645
20	0xbc50c043	-0.012741151
21	0x3e66fefc	0.22558206
22	0xbe0c7be2	-0.13719133
23	0xbe2716ef	-0.16317342
24	0xbe9d35e3	-0.30705175
25	0xbe123f55	-0.14281972
26	0xbe9469b6	-0.289869

weight f4 [9, 9]
0	0xb982e5ca	-0.00024966738
1	0x3aacd814	0.0013186955
2	0x1ce5c39d	1.5204514e-21
3	0x3aac61eb	0.001315174
4	0x389712ab	7.203718e-05
5	0x38fe23c1	0.000121183235
6	0xb9f77eaa	-0.00047205883
7	0xa792f7e0	-4.0791887e-15
8	0x290e1bf1	3.155457e-14
9	0x3dea7654	0.114483505
10	0xbce07398	-0.02739887
11	0x3e9115b7	0.2833688
12	0x3e355dc6	0.17711553
13	0x3e9d2019	0.3068855
14	0x3e1a7040	0.15081882
15	0x3c3b776d	0.011442048
16	0xbe3b491e	-0.1828961
17	0x3e84df8a	0.25951797
18	0xbe4ca951	-0.19986464
19	0xbcd4e4a0	-0.025987923
20	0xbea6fbac	-0.32613885
21	0xbd076818	-0.033058256
22	0xbea3b578	-0.31974387
23	0x3e981bee	0.2970881
24	0x3e64525e	0.22297046
25	0xbe71dbc7	-0.23618995
26	0x3db1137b	0.08646294
27	0x3b7bed23	0.0038440905
28	0x3a0272eb	0.00049762306
29	0x35c9f6ff	1.5047552e-06
30	0x374de4ef	1.2272255e-05
31	0x2ff424b6	4.4409426e-10
32	0xb56af9be	-8.7535216e-07
33	0x3a31bc69	0.00067800895
34	0xb9506299	-0.00019873156
35	0xb4e5fda7	-4.283913e-07
36	0xbe22cc31	-0.15898205
37	0x3e8a9849	0.2706931
38	0xbd47363e	-0.048635714
39	0x3e60f8ac	0.21969861
40	0x3e9c3b51	0.30514005
41	0xbe95c88b	-0.29254565
42	0xbdd29103	-0.10281565
43	0xbe4c6b5c	-0.1996283
44	0x3ea38cf8	0.31943488
45	0x3d2b8d3d	0.041882742
46	0x3ea51ff5	0.32250944
47	0xbe366d7c	-0.17815202
48	0x3e8bcf5c	0.2730664
49	0x3dbc7651	0.092022546
50	0xbd9b0657	-0.075695686
51	0x3e0ffc1f	0.1406102
52	0x3d67c8db	0.056588035
53	0x3e022680	0.12709999
54	0x3e8bf020	0.27331638
55	0xbeaa319b	-0.3324097
56	0x3e9d8dc4	0.3077222
57	0xbe8d0b5c	-0.2754773
58	0x3e5ed6f1	0.21761681
59	0x3e50b7cf	0.20382617
60	0x3e7584e7	0.2397648
61	0xbc17cc47	-0.009265012
62	0x3e32645f	0.17421101
63	0xbe6f3296	-0.23359141
64	0x3e865277	0.2623479
65	0x3e063b5f	0.13108586
66	0xbdba509c	-0.09097406
67	0xbdfe82f8	-0.12427324
68	0x3e9495c7	0.2902052
69	0x3e6f7fd4	0.23388606
70	0xbabe32fc	-0.0014511044
71	0xbda34071	-0.079712756
72	0x9fd35567	-8.950326e-20
73	0x3af0f8db	0.0018384712
74	0x1d9e288d	4.186418e-21
75	0x1eade060	1.8409887e-20
76	0x37b2f18f	2.1331738e-05
77	0x32a597a7	1.9277492e-08
78	0x9cc9aa82	-1.3345139e-21
79	0x23538a32	1.1467597e-17
80	0x9b6b6a18	-1.9473025e-22

bias f4 [9]
0	0xba7bf1c6	-0.0009610917
1	0x3e128b0e	0.14310858
2	0x3d827a1b	0.06370946
3	0xbbace752	-0.005276599
4	0x3e246a4f	0.16056179
5	0x3d28d9b5	0.041223247
6	0x3e6cab50	0.23112226
7	0x3e9a968b	0.3019298
8	0x216ec56e	8.0898833e-19
