ERTSNet/new_arch_LA/decimation/model/best-model_r0_J2_NE3_MSE-14.8798.pt (torch, 483295 bytes, 65 tensors)

weight_ih_l0 f4 [27, 15]
0.1314209 -0.17291398 0.01863737 0.19126515 0.02027817 -0.15208945 0.112997234 0.16643196
0.04593806 -0.0139955785 0.0646112 0.109002486 -0.16339369 -0.2527435 1.8009324e-07 0.0019878836
0.0002982631 0.026316311 -0.29236096 0.080354005 -0.11125562 0.0827236 -0.26795346 -0.03254302
-0.005175207 -0.030313142 0.02208313 0.089195006 -0.17597008 1.758237e-17 0.031008052 -0.0053370395
0.2605792 0.08162546 -0.08438433 0.14337732 -0.10711334 -0.114345156 0.05579326 0.002620391
0.089280345 0.059339225 0.071173064 -0.000110585504 -2.8085838e-06 0.00038982468 0.096982226 -0.13627079
-0.128314 -0.03902031 0.19265734 0.0032181037 0.33288312 0.0032946577 -0.014142163 0.28412926
-0.24488163 0.22331235 -0.0079955915 0.0031603097 0.012506684 -0.096637435 -0.08885828 -0.029505875
-0.08202377 -0.19639878 0.26405317 -0.00039950918 -0.049832772 0.007682891 0.04011459 0.086871095
0.041028216 -0.16498232 -4.2932243e-08 -0.21855338 0.09359823 -0.13254483 0.17989756 -0.039437313
0.035295963 -0.16123727 0.28220758 0.03014084 -0.11154055 0.2648092 -0.18296875 0.28727058
-0.059044704 -2.5155434e-19 -0.04944426 0.17699999 -0.19482403 -0.3247872 -0.09753813 0.30078927
-0.16330758 0.1113612 -0.24265021 0.00598171 0.03919931 -0.07708597 -0.12115492 -0.12866129
0.00018945537 -0.24855477 0.0345387 0.11488996 0.28333065 0.09164193 0.1721437 -0.25601602
-0.075486735 0.077317245 0.032565504 0.26812154 -0.09823337 -0.27072436 -0.15333007 1.8199074e-18
-0.17930497 0.020231633 0.2685884 -0.07195407 0.1614761 0.27364844 -0.2962135 -0.2205846
-0.22328863 0.01462668 0.098797865 0.15178189 -0.26002428 -0.1320416 -0.00014271706 0.037848443
-0.076071896 0.104519986 -0.22377472 -0.083056755 0.0011137314 -0.16626295 -0.17906581 0.0012142475
0.001080871 0.08431239 0.16548093 0.0013306157 0.020898324 -1.05215686e-16 -0.0117829805 0.0018515942
0.12514777 0.032579225 0.010081818 0.14621757 0.11349795 -0.004434797 0.03601999 -0.0040954947
0.017193416 0.015375137 0.12727456 0.12729557 -5.8273584e-18 -0.10578961 -0.042355485 0.20076585
-0.25336835 0.17466709 0.29717794 0.039229054 -0.2867689 -0.09217704 -0.0018451401 0.11913847
-0.19176114 -0.072596245 0.2505544 -0.0036279021 0.020027718 0.003216562 -0.03665532 -0.053403422
0.008793476 0.030070445 0.03892743 -0.074242786 0.005201146 -0.00029469095 0.013491748 0.059575632
0.06540653 0.03048641 -9.301716e-05 -0.03261818 0.011996942 -0.06585952 -0.06847861 0.17900501
0.030214118 0.042840183 0.06370242 0.1255441 0.00069458 0.012888581 -0.009854174 -0.023614727
0.0023721089 6.2207073e-07 -0.101123564 0.06097641 0.0017292745 -0.17288843 -0.0347181 0.010926861
-0.1338089 -0.25304475 -0.037846543 -0.0033510292 0.0035214336 -0.08312737 -0.021072038 0.060970068
-1.8072474e-13 -0.011326352 0.01734591 -0.1582588 0.15104063 0.073994964 -0.16996863 0.21952151
-0.21169873 0.04522525 -0.005444024 -0.06925695 -0.04717319 -0.005768994 0.037317257 -4.2365565e-18
-0.06800716 0.0016356817 0.04712307 -0.16927633 -0.021582915 -0.015532357 0.056247156 -0.090478204
-0.022392986 9.484297e-05 -0.009352843 0.030880088 0.008669527 0.03311176 -0.0012589814 -0.0087838005
00000000: 3393 063e 5d10 31be 66ad 983c 03db 433e
00000010: 681e a63c 56bd 1bbe 186b e73d 246d 2a3e
00000020: 8c29 3c3d b64d 65bc e052 843d b23c df3d
00000030: ad50 27be 9967 81be a75f 4134 2747 023b
00000040: 3260 9c39 4e95 d73c 56b0 95be a490 a43d
00000050: fdd9 e3bd fe6a a93d 3231 89be d44b 05bd
00000060: c894 a9bb 4453 f8bc aee7 b43c dfab b63d
00000070: 8031 34be 332b a223 9904 fe3c 55e2 aebb
00000080: a36a 853e 402b a73d b1d1 acbd 81d1 123e
00000090: 3d5e dbbd cb2d eabd 7987 643d deba 2b3b
000000a0: 9dd8 b63d b00d 733d 2fc3 913d 24ea e7b8
000000b0: 1a7b 3cb6 6261 cc39 9e9e c63d 928a 0bbe
000000c0: bf64 03be c3d3 1fbd f747 453e d2e6 523b
000000d0: a86f aa3e 2feb 573b 88b4 67bc 6479 913e
000000e0: 40c2 7abe feab 643e f1ff 02bc 331d 4f3b
000000f0: d6e8 4c3c d9e9 c5bd 54fb b5bd 4eb6 f1bc
00000100: 14fc a7bd c31c 49be fa31 873e 3775 d1b9
00000110: 731d 4cbd c3c0 fb3b 324f 243d 79e9 b13d
00000120: 340d 283d 20f1 28be 8064 38b3 75cc 5fbe
00000130: 6eb0 bf3d d5b9 07be 1137 383e 0589 21bd
00000140: 8092 103d 621b 25be 837d 903e ece9 f63c
00000150: 5f6f e4bd 1295 873e 295c 3bbe 2115 933e
00000160: dcd8 71bd d17d 94a0 1086 4abd 7c3f 353e
00000170: f37f 47be 824a a6be 12c2 c7bd 0d01 9a3e
00000180: 1a3a 27be 5711 e43d 4c79 78be 3802 c43b
00000190: 758f 203d 40df 9dbd 1220 f8bd c9bf 03be
000001a0: 8aa8 4639 2485 7ebe 7478 0d3d 6d4b eb3d
000001b0: b710 913e c4ae bb3d 7046 303e 8814 83be
000001c0: ca98 9abd 8158 9e3d 6863 053d 3a47 893e
000001d0: 942e c9bd 629c 8abe 8f02 1dbe 1449 0622
000001e0: b99b 37be cfbc a53c 6b84 893e a85c 93bd
000001f0: fe59 253e a61b 8c3e 4ca9 97be eee0 61be
00000200: c6a5 64be bea4 6f3c 8956 ca3d b66c 1b3e
00000210: e721 85be ea35 07be 52a6 15b9 f806 1b3d
00000220: 95cb 9bbd 930e d63d 3325 65be a919 aabd
00000230: a0fa 913a d640 2abe 075d 37be 6327 9f3a
00000240: 03ac 8d3a f9ab ac3d d573 293e 0e68 ae3a
00000250: f632 ab3c 619c f2a4 670d 41bc 31b1 f23a
00000260: bd26 003e cb71 053d 362e 253c 0fba 153e
00000270: 9d71 e83d c651 91bb b289 133d 8033 86bb
00000280: 35d9 8c3c 00e8 7b3c 4354 023e c559 023e
00000290: d8fd d6a2 39a8 d8bd f27c 2dbd 9095 4d3e
000002a0: 7fb9 81be eedb 323e b527 983e a5ae 203d
000002b0: 60d3 92be 51c7 bcbd a1d8 f1ba dffe f33d
000002c0: 085d 44be 57ad 94bd ab48 803e 19c2 6dbb
000002d0: 2b11 a43c f5cc 523b e423 16bd 8cbd 5abd
000002e0: 8312 103c 4b56 f63c 5e72 1f3d 9a0c 98bd
000002f0: 606e aa3b c080 9ab9 7e0c 5d3c 9405 743d
00000300: dcf3 853d a3be f93c 3512 c3b8 a49a 05bd
00000310: d28e 443c 5be1 86bd 833e 8cbd 174d 373e
00000320: 9983 f73c 3079 2f3d 6a76 823d a28e 003e
00000330: 7a14 363a a02a 533c 6773 21bc ac73 c1bc
00000340: 6275 1b3b 60fc 2635 df19 cfbd 66c2 793d
00000350: d3a8 e23a aa09 31be 9134 0ebd 9406 333c
00000360: 3305 09be 158f 81be fa04 1bbd f19c 5bbb
00000370: dac7 663b af3e aabd 449f acbc c0bb 793d
00000380: 5c7a 4baa 2a92 39bc 0319 8e3c 980e 22be
00000390: 65aa 1a3e ac8a 973d 420c 2ebe 3fca 603e
000003a0: 8dc7 58be 1d3e 393d c963 b2bb 96d6 8dbd
000003b0: ad38 41bd d409 bdbb fbd9 183d 254d 9ca2
000003c0: 5747 8bbd 5f64 d63a 1f04 413d c656 2dbe
000003d0: a7ce b0bc 6d7b 7ebc 6b63 663d a34c b9bd
000003e0: 7f71 b7bc 6fe6 c638 ab3c 19bc 3df8 fc3c
000003f0: a20a 0e3c 32a0 073d 6804 a5ba eee9 0fbc

weight_hh_l0 f4 [27, 9]
-0.0096560065 0.2102812 0.13425569 -0.11133676 -0.1506013 -0.2807382 -0.19793071 0.053741243
-0.25951585 0.13260727 -0.23086043 -0.034173805 0.04946554 0.086021535 0.16395408 0.12736203
0.125941 0.17242022 0.14877547 0.026675398 -0.12545559 0.04372913 -0.2110747 -0.020202583
0.08624671 0.1617931 0.07200973 0.11171175 0.09166927 -0.16148418 0.03433303 0.26974788
0.030499524 0.22089696 0.28360537 -0.04852458 -0.17795874 -0.085646056 -0.0008325058 -0.034485195
-0.123353876 0.001300773 0.17690176 -0.03444616 0.16988295 -0.02255047 0.14843455 0.031761397
0.08665358 0.068233564 -0.16825245 -0.103636906 -0.1883162 -0.03849777 0.030011924 -0.027606599
0.18778826 -0.23160452 -0.24722242 -0.006509403 -0.2480478 -0.15503734 0.06191281 0.05378303
-0.15285403 -0.065975964 0.14562748 -0.008943377 0.0029600996 0.119191006 -0.11411904 -0.0077012624
0.2015757 0.21392465 0.070526525 -0.052766457 -0.060769264 0.09932619 -0.27334335 0.20507059
-0.23668535 -0.16453794 -0.09079501 -0.10447561 0.22997221 -0.24822882 -0.055944096 0.035825655
0.12574396 -0.046014853 0.052658595 0.055556994 0.025984526 0.07945138 -0.06800907 0.042462975
-0.06455684 0.10931298 0.13620122 0.10176671 0.05791457 0.110788755 0.21872082 -0.013884382
0.07883027 -0.1948159 0.17201264 0.10984288 0.0009445801 0.017098257 0.02000509 0.052786507
0.11068356 -0.053975023 0.043664865 0.013749757 0.021480754 -0.014299512 -0.011433159 0.055911653
0.14876448 -0.24709398 -0.053248588 0.011948359 0.1663969 0.10407433 0.020157963 0.23577264
0.010655466 -0.12377833 0.16009256 -0.21810317 -0.17762803 -0.10906589 0.036961343 -0.13927972
0.029896164 0.15971786 0.12626876 0.03636402 0.0074176807 -0.0191124 0.18262355 -0.1259598
0.012266462 0.019375816 0.057426985 0.036753666 -0.08649738 0.002762802 0.02665581 -0.023217974
-0.0035061135 -0.09091628 -0.044756867 0.009887599 -0.124782346 -0.14160779 0.005480413 -0.00072661816
0.22157417 -0.05460245 -0.04131637 0.11208236 0.17332499 0.1221583 0.28654096 -0.29848346
0.02759746 -0.04241598 0.32149184 0.07565664 0.071728 -0.11585239 -0.083653465 0.22222431
-0.13325231 -0.20191108 0.03313107 -0.090897486 0.20514853 -0.23142466 -0.03740371 0.09491284
0.036663532 -0.2194595 0.029719274 -0.05573681 0.28720713 -0.3236435 0.31901604 -0.3034129
0.06884469 0.2550324 0.01699465 -0.29774243 0.15552796 0.004542927 0.07728703 0.098276116
-0.16482931 0.0890382 -0.1603634 -0.03995221 -0.1388071 0.12992086 -0.021915348 -0.25739294
-0.1486292 -0.05319347 -0.08715306 -0.30945036 0.2585069 -0.053387154 0.31911692 0.11245388
-0.29318094 0.053665042 -0.25182003 -0.26229438 -0.23601976 -0.16436578 -0.05023971 -0.23688857
-0.007563302 -0.12790662 -0.18221454 0.11273489 0.1171466 -0.17032896 -0.1780572 -0.024950165
0.072203495 0.21946238 -0.09893929 0.14198291 0.22312553 -0.23602661 0.30477092 0.23324056
-0.22917084 0.10283367 0.011075753
00000000: 3a34 1ebc f453 573e 537a 093e 8704 e4bd
00000010: 3a37 1abe ebbc 8fbe 59ae 4abe c71f 5c3d
00000020: 43df 84be 33ca 073e ad66 6cbe d5f9 0bbd
00000030: 619c 4a3d 0f2c b03d 94e3 273e 316b 023e
00000040: adf6 003e ed8e 303e 9958 183e 5d86 da3c
00000050: 6e77 00be 511d 333d f723 58be e37f a5bc
00000060: 1da2 b03d 17ad 253e d679 933d 21c9 e43d
00000070: 19bd bb3d 1c5c 25be cba0 0c3d 651c 8a3e
00000080: 23da f93c d032 623e b934 913e b6c1 46bd
00000090: d13a 36be 3367 afbd 853c 5aba 5940 0dbd
000000a0: f5a0 fcbd b37e aa3a bc25 353e 6b17 0dbd
000000b0: ccf5 2d3e c3bb b8bc 3aff 173e 3d18 023d
000000c0: 6f77 b13d 0abe 8b3d 5f4a 2cbe 963f d4bd
000000d0: f6d5 40be d6af 1dbd 91db f53c 3c27 e2bc
000000e0: 914b 403e bc29 6dbe e027 7dbe d54c d5bb
000000f0: 3e00 7ebe 1cc2 1ebe 4998 7d3d 984b 5c3d
00000100: c485 1cbe 681e 87bd 5f1f 153e 3e87 12bc
00000110: 3bfe 413b 6a1a f43d 3eb7 e9bd df5a fcbb
00000120: dc69 4e3e 100f 5b3e 3670 903d a421 58bd
00000130: 31e9 78bd 886b cb3d a9f3 8bbe 06fe 513e
00000140: a55d 72be a27c 28be bcf2 b9bd 4ff7 d5bd
00000150: d67d 6b3e b22f 7ebe a325 65bd ecbd 123d
00000160: 06c3 003e 127a 3cbd 8ab0 573d bb8f 633d
00000170: 80dd d43c 68b7 a23d 5748 8bbd a8ed 2d3d
00000180: 6036 84bd 7cdf df3d 5578 0b3e 116b d03d
00000190: d437 6d3d 37e5 e23d 5af8 5f3e 527b 63bc
000001a0: c471 a13d d27d 47be 1524 303e 4ef5 e03d
000001b0: b39d 773a a511 8c3c b7e1 a33c aa36 583d
000001c0: 10ae e23d ea14 5dbd eed9 323d a946 613c
000001d0: 68f8 af3c 8048 6abc 2552 3bbc 9e03 653d
000001e0: b755 183e 3406 7dbe 311b 5abd 0dc3 433c
000001f0: f363 2a3e ec24 d53d 5022 a53c 626e 713e
00000200: 4394 2e3c 7e7f fdbd 4eef 233e 7056 5fbe
00000210: 1fe4 35be f05d dfbd c764 173d 589f 0ebe
00000220: cde8 f43c 148d 233e 994c 013e 70f2 143d
00000230: 0410 f33b 9c91 9cbc ab01 3b3e 9bfb 00be
00000240: 45f9 483c 08ba 9e3c 8f38 6b3d 038b 163d
00000250: 8a25 b1bd 2010 353b 495d da3c 9f33 bebc
00000260: d3c6 65bb 5132 babd fa52 37bd 99ff 213c
00000270: e38d ffbd a201 11be 0995 b33b 857a 3eba
00000280: 57e4 623e d2a6 5fbd 5b3b 29bd 708b e53d
00000290: 1b7c 313e 212e fa3d 7fb5 923e d3d2 98be
000002a0: 1214 e23c 61bc 2dbd 949a a43e def1 9a3d
000002b0: 21e6 923d 0544 edbd 8252 abbd c58e 633e
000002c0: 4b73 08be c7c1 4ebe 72b4 073d 7628 babd
000002d0: 7512 523e 96fa 6cbe a234 19bd aa61 c23d
000002e0: 802c 163d feb9 60be d675 f33c 484c 64bd
000002f0: d00c 933e 9ab4 a5be 1256 a33e f058 9bbe
00000300: 72fe 8c3d 9b93 823e 5d38 8b3c b271 98be
00000310: b942 1f3e d5dc 943b aa48 9e3d fd44 c93d
00000320: 04c9 28be a959 b63d 4e36 24be eea4 23bd
00000330: 7323 0ebe f909 053e d187 b3bc 02c9 83be
00000340: 4132 18be 65e1 59bd 4e7d b2bd 4770 9ebe
00000350: 045b 843e 7dac 5abd 4b63 a33e 384e e63d
00000360: d01b 96be e0cf 5b3d 8eee 80be 734b 86be
00000370: 2aaf 71be 814f 28be 27c8 4dbd eb92 72be
00000380: 93d5 f7bb f4f9 02be 7396 3abe 8de1 e63d
00000390: 8eea ef3d b76a 2ebe a054 36be 4a64 ccbc
000003a0: 6ddf 933d bfba 603e afa0 cabd f863 113e
000003b0: 057b 643e f6b0 71be ef0a 9c3e 9dd6 6e3e
000003c0: c3ab 6abe 769a d23d 1377 353c

bias_ih_l0 f4 [27]
0.11007831 0.24799362 0.097242266 -0.0991319 -0.049619116 0.011320433 0.2321727 0.09529561
-0.03934271 -0.035183948 0.20036446 0.06918132 -0.076513715 -0.04355436 0.025428182 -0.07371498
-0.07770564 -0.25022078 -0.13874343 0.29681182 0.01580541 0.31851313 -0.07726214 0.1546792
-0.08561197 0.19419837 -0.19729654
00000000: bd70 e13d 0af2 7d3e f426 c73d aa05 cbbd
00000010: 6a3d 4bbd 5679 393c aebe 6d3e 582a c33d
00000020: d225 21bd 0b1d 10bd 572c 4d3e f0ae 8d3d
00000030: 39b3 9cbd 0e66 32bd c34e d03c e1f7 96bd
00000040: 2224 9fbd f01c 80be c212 0ebe b8f7 973e
00000050: 597a 813c 2714 a33e 9d3b 9ebd 3964 1e3e
00000060: 5455 afbd f0db 463e 1b08 4abe

bias_hh_l0 f4 [27]
-0.11524892 0.2660387 -0.056871112 -0.23798813 -0.19327064 -0.3040096 0.108135015 -0.2900973
-0.03565527 0.17801374 0.23399903 0.11061185 0.023780596 -0.2718296 0.21376693 -0.19252776
0.15257072 -0.21948262 0.20390771 0.26849267 0.09376561 -0.16504534 -0.2598019 -0.034122244
-0.06591987 0.24816589 0.2801253
00000000: a007 ecbd 3936 883e aff1 68bd 29b3 73be
00000010: bde8 45be 25a7 9bbe e475 dd3d a287 94be
00000020: 430b 12bd 3c49 363e 719d 6f3e 7788 e23d
00000030: 86cf c23c 402d 8bbe b8e5 5a3e ff25 45be
00000040: 803b 1c3e 0dc0 60be 2fcd 503e df77 893e
00000050: 2f08 c03d a501 29be c104 85be c4c3 0bbd
00000060: ff00 87bd 331f 7e3e 956c 8f3e

weight_ih_l0 f4 [27, 24]
0.18880302 0.2074747 -0.33046755 -0.085011825 -0.004761091 -0.2650193 -0.019746553 -0.24454887
0.027009455 0.16797166 0.033780824 0.09439883 -0.14307302 -0.12545206 -0.15351975 -0.014603021
0.008109835 0.29672977 -0.018062783 0.22861727 0.11230044 -0.12804605 -0.2245494 -0.1392742
0.09262957 -0.11131501 -0.19070949 -0.004375619 0.22118255 0.078867756 -0.1289178 -0.13994314
0.13170761 -0.00373071 -0.1941839 -0.07091144 0.051532373 -0.24488746 0.19717991 0.0047532376
0.09578641 -0.15844046 0.0027885651 -0.24492106 0.033496294 0.19278376 -0.2320493 -0.10583362
0.26272255 -0.029665377 0.0248445 0.14645056 0.20803437 -0.21960823 -0.08075057 0.08560652
-0.18985529 -0.10033055 0.22263475 0.20541261 -0.08720832 0.027224733 0.21625338 -0.00039715777
-0.15875511 0.0010251058 0.11755037 0.23569302 0.15447864 -0.030294888 0.043886784 0.18327975
-0.04502187 0.13085695 -0.03934441 -0.18674965 0.27035907 0.0102288965 0.003287128 0.23911604
-0.06340581 -0.0398854 -0.19834042 0.27474242 0.08680801 -0.014812697 -0.044496734 0.004240129
-0.12031946 0.30801508 0.0033141363 0.15671495 0.11743758 -0.020061389 -0.0732677 -0.1495828
0.2306445 0.2779125 0.24292508 0.2208585 0.24230419 0.021388695 0.06398589 -0.32933208
-0.15809838 -0.1230381 0.20304713 0.15851007 -0.13080949 -0.08775588 0.061704867 -0.041960906
0.29163763 0.17226025 -0.022407662 0.05211055 -0.22810602 -0.034998212 -0.030545732 0.22949
-0.19504756 -0.25998434 0.18369502 -0.1354602 -0.2458185 0.026801892 0.04294573 0.12827663
0.26155928 -0.10131594 0.0053569432 0.16416404 -0.07509385 0.013315557 -0.30454174 0.005159194
0.19906677 0.17365246 -0.0007642053 -0.1786682 0.07790832 -0.24023391 0.0066736992 0.11064108
0.08531129 -0.2582102 -0.21089885 0.16190498 -0.165672 -0.08388572 0.19596666 0.28295496
0.09378908 -0.18000746 -0.3107996 -0.031865735 0.024153814 0.13167508 -0.17971526 -0.019258637
0.12432322 0.20199686 -0.052290313 0.1633144 -0.08611074 -0.025901947 -0.2605427 0.095515884
-0.0044665383 -0.0080708135 0.14459485 -0.106610835 0.064755864 0.04873333 0.1712335 0.13693376
0.024977608 0.0031344183 -0.00038578425 0.037827816 -0.006100514 -0.011796596 -0.1488595 -0.00028128692
0.008602184 -0.023025874 0.00034511235 -0.040608197 0.18487762 -0.025176268 -0.005152055 -0.040084053
-0.009534797 0.29609165 0.11833931 0.14339393 0.031676345 -0.2497456 0.11143531 -0.14738195
0.066035904 0.05868232 0.23303622 -0.29720452 0.13359676 0.06562282 0.07221109 -0.0010711176
-0.2332361 0.14043267 0.0040111905 -0.2112513 -0.02275097 -0.025613919 -0.19627723 0.13529146
-0.09179828 0.044891752 0.12933385 -0.1516085 0.19099928 0.08173765 0.15932852 -0.023913015
-0.30032164 0.102421835 -0.29276067 -0.24082425 0.24252279 0.2451182 0.043068178 0.059659474
-0.16668153 0.007839318 0.14968735 -0.08008319 0.28874186 -0.3198313 -0.037175767 -0.22272423
-0.08365271 0.21550256 -0.04829185 0.33576134 0.253322 -0.07721001 0.17740421 0.26108122
0.22236615 -0.023624176 0.17245483 -0.15686092 0.18249555 0.0017472876 -0.1865259 -0.02436635
00000000: 9455 413e 3f74 543e 0b33 a9be ae1a aebd
00000010: ed02 9cbb 9cb0 87be 86c3 a1bc 056b 7abe
00000020: ef42 dd3c c300 2c3e c35d 0a3d 2c54 c13d
00000030: bc81 12be 8176 00be 4834 1dbe 8241 6fbc
00000040: 1ddf 043c f7ec 973e 67f8 93bc a51a 6a3e
00000050: c6fd e53d 811e 03be 47f0 65be e59d 0ebe
00000060: 92b4 bd3d 20f9 e3bd 5949 43be 5a61 8fbb
00000070: ae7d 623e 6b85 a13d 0703 04be 414d 0fbe
00000080: 5cde 063e ed7e 74bb 25d8 46be 043a 91bd
00000090: 9c13 533d c7c3 7abe 88e9 493e 0cc1 9b3b
000000a0: aa2b c43d 373e 22be 5cc0 363b 96cc 7abe
000000b0: 6933 093d 1b69 453e 559e 6dbe 4cbf d8bd
000000c0: 9283 863e ce04 f3bc b186 cb3c 23f7 153e
000000d0: f606 553e fbe0 60be 8e60 a5bd 7952 af3d
000000e0: 6d69 42be 1a7a cdbd 5dfa 633e af57 523e
000000f0: 479a b2bd 6706 df3c 8771 5d3e 9d39 d0b9
00000100: b390 22be d85c 863a 40be f03d 8359 713e
00000110: a62f 1e3e fc2c f8bc a1c2 333d b0ad 3b3e
00000120: da68 38bd 5dff 053e 9b27 21bd 4d3b 3fbe
00000130: 816c 8a3e 1a97 273c db6c 573b d6da 743e
00000140: e8da 81bd e05e 23bd c019 4bbe 0aab 8c3e
00000150: 66c8 b13d f4b0 72bc 3542 36bd c8f0 8a3b
00000160: 0d6a f6bd 27b4 9d3e fb31 593b e279 203e
00000170: 1d83 f03d c857 a4bc 600d 96bd 3c2c 19be
00000180: 122e 6c3e 8c4a 8e3e 5ac1 783e bb28 623e
00000190: 971e 783e 5837 af3c 090b 833d 379e a8be
000001a0: 8be4 21be 66fb fbbd 96eb 4f3e 7750 223e
000001b0: ecf2 05be 5bb9 b3bd 3ebe 7c3d 33df 2bbd
000001c0: 8751 953e fe64 303e 4690 b7bc df71 553d
000001d0: a094 69be 495a 0fbd 0b3b fabc 6dff 6a3e
000001e0: 8cba 47be ab1c 85be 8c1a 3c3e 14b6 0abe
000001f0: d8b7 7bbe a48f db3c dde7 2f3d f35a 033e
00000200: 19eb 853e bb7e cfbd 4c89 af3b 9e1a 283e
00000210: ceca 99bd 7e29 5a3c e5ec 9bbe 750e a93b
00000220: 29d8 4b3e f3d1 313e f354 48ba ccf4 36be
00000230: 668e 9f3d e1ff 75be 0caf da3b ca97 e23d
00000240: b0b7 ae3d 2134 84be def5 57be 6bca 253e
00000250: eca5 29be 47cc abbd 7cab 483e 79df 903e
00000260: 7d14 c03d e053 38be 2021 9fbe a585 02bd
00000270: 38de c53c d5d5 063e 4707 38be 4ac4 9dbc
00000280: 2c9d fe3d 44d8 4e3e 5e2e 56bd e43b 273e
00000290: d45a b0bd 5230 d4bc da65 85be d59d c33d
000002a0: 0a5c 92bb 723b 04bc ac10 143e c856 dabd
000002b0: b99e 843d 9a9c 473d d657 2f3e 5d38 0c3e
000002c0: d79d cc3c d06a 4d3b 1643 cab9 57f1 1a3d
000002d0: d2e6 c7bb 8346 41bc a06e 18be b179 93b9
000002e0: 2df0 0c3c c2a0 bcbc 32f0 b439 c854 26bd
000002f0: 8f50 3d3e 763e cebc 92d2 a8bb 2d2f 24bd
00000300: d637 1cbc 5399 973e e15b f23d dcd5 123e
00000310: 0ebf 013d 50bd 7fbe 3238 e43d 4beb 16be
00000320: d53d 873d df5c 703d 0ca1 6e3e 312b 98be
00000330: 97cd 083e 4265 863d 68e3 933d be64 8cba
00000340: 72d5 6ebe 95cd 0f3e 4e70 833b 4352 58be
00000350: 3e60 babc 48d4 d1bc e6fc 48be d889 0a3e
00000360: bd00 bcbd 6ae0 373d 1870 043e 423f 1bbe
00000370: 5195 433e 1266 a73d 0427 233e 3ae5 c3bc
00000380: c2c3 99be 8ac2 d13d bae4 95be a29a 76be
00000390: e557 783e 4400 7b3e 4268 303d 7e5d 743d
000003a0: 90ae 2abe 7c70 003c a447 193e a802 a4bd
000003b0: f9d5 933e eec0 a3be 9e45 18bd d211 64be
000003c0: 1d52 abbd b4ac 5c3e adcd 45bd e9e8 ab3e
000003d0: 6cb3 813e 4820 9ebd 73a9 353e 70ac 853e
000003e0: f4b3 633e 7d87 c1bc 0098 303e 26a0 20be
000003f0: 1de0 3a3e 3e05 e53a a500 3fbe f19b c7bc

weight_hh_l0 f4 [27, 9]
2.7003375e-07 -6.819159e-08 -0.04507226 0.17443311 -3.8080827e-11 -0.13223019 -3.466615e-13 0.10313553
-0.065198466 2.507884e-16 6.0263726e-05 -0.01674291 0.16837828 -4.6990755e-11 -0.12194486 -9.545931e-07
0.29943317 0.20226437 -0.0012568408 9.91588e-08 -0.0130049 -0.29282275 -2.8464553e-16 0.3014492
0.002326188 -0.31251577 -0.1472326 -0.00038285178 -5.5712572e-08 -0.002793759 0.10171894 3.323674e-16
0.13850103 -1.4195239e-11 0.11242235 0.15399626 2.6667457e-13 -3.1594962e-09 0.0004357743 -0.027335256
-3.1443574e-15 -0.29990062 6.13608e-14 0.086188816 0.09508772 -7.729671e-17 -1.25370525e-05 0.0013248418
-0.110766284 0.0013791346 0.18704474 4.9498746e-13 -0.23417982 0.14759104 -5.83983e-08 7.819846e-08
-0.047729593 -0.12493274 3.1610001e-09 0.18630832 8.7136776e-13 0.08039384 0.11602947 0.0014622194
-0.00035169048 0.0005607344 0.09326405 -3.1461985e-16 -0.04238886 6.736124e-14 -0.1020612 0.07341503
-2.5097775e-20 -5.343667e-06 -0.012805235 -0.26024193 2.3361325e-15 0.15788442 7.004225e-05 -0.13007024
0.29533294 -2.575488e-19 5.6409583e-05 0.117370814 0.27679032 3.0513045e-05 0.06864864 7.627616e-10
0.08423769 0.17073117 -0.00030537302 -8.633478e-09 -0.032188974 -0.24641874 -3.7361903e-15 0.054851424
-1.5349246e-05 -0.2837739 0.121367946 -2.2093836e-09 7.2713173e-09 -0.018623978 -0.034396295 -6.9553625e-12
-0.194185 6.767117e-05 0.1944979 -0.006952745 -5.0763786e-15 2.836969e-08 0.050419252 0.11675215
-2.6496176e-07 -0.091143794 -0.0015479814 0.18236442 -0.026395967 -3.0943987e-21 8.4849894e-08 -0.056192752
-0.1879071 6.869188e-05 -0.045381892 -2.024259e-12 -0.08151303 -0.074344985 0.0026701363 -5.034859e-07
0.09258529 -0.05779106 -1.06709055e-13 0.3230136 8.128784e-10 0.039314885 -0.020853585 2.5129868e-06
-0.0006589502 0.03961534 0.24649182 -6.4634158e-15 -0.20094796 -0.0025188173 0.080984384 -0.15999752
0.00043381692 1.5905298e-08 0.04404294 0.16314466 -3.6988907e-16 -0.08628443 0.0033177685 0.075176485
-0.06734005 5.046199e-10 -6.037902e-09 -0.04712274 0.122981615 0.00062984374 0.1627812 -3.603531e-12
0.008163476 -0.052409247 0.00017655612 -8.8036424e-05 -0.05537002 0.21712856 4.3877625e-14 -0.052664988
-0.0010832892 -0.20609356 -0.2559516 0.0010304446 -8.682271e-06 0.18239547 0.048596233 -1.3856911e-10
0.058444064 0.0002655721 0.28404123 -0.14561072 1.6845465e-09 1.5977471e-07 0.24557935 -0.17174916
1.1780631e-14 0.0055131908 -4.8886737e-12 0.077556975 0.2762065 1.5850004e-20 -8.9877965e-08 0.15893824
-0.17715816 -1.5034657e-10 -0.026322246 0.0036929979 0.3184367 0.29225567 1.5717884e-20 -2.5117907e-07
-0.038449723 0.112029865 -0.001352605 -0.09762403 -5.423607e-12 0.059607763 0.043694157 9.99868e-10
6.6907354e-08 0.022819322 0.31751633 0.0016571722 0.062074903 -0.00028076264 0.03848304 0.28682253
6.089758e-05 9.001242e-05 0.2259947 0.09820321 -3.618702e-14 0.20430227 0.0014908832 0.07006287
0.015919369 -5.364377e-21 1.1131755e-07 -0.08204159 0.19835046 -1.0370147e-14 -0.2974348 0.0012712702
-0.21922797 -0.30000287 -4.133855e-18 -3.8407578e-07 -0.10767159 -0.17849468 -8.390407e-12 -0.21845858
-0.0019643053 0.18734281 -0.105192184
00000000: 28f9 9034 b970 92b3 b19d 38bd 989e 323e
00000010: 337b 27ae 5a67 07be 3027 c3aa b938 d33d
00000020: c686 85bd d691 9025 afc3 7c38 6d28 89bc
00000030: 5b6b 2c3e e3aa 4eae 3abe f9bd 921f 80b5
00000040: 4e4f 993e 641e 4f3e 94bc a4ba 20f1 d433
00000050: 8112 55bc ddec 95be 4416 a4a5 8d57 9a3e
00000060: f572 183b 1102 a0be 25c4 16be 7fb9 c8b9
00000070: 9f48 6fb3 8017 37bb 0552 d03d c598 bf25
00000080: 37d3 0d3e acb9 79ad b03d e63d 32b1 1d3e
00000090: db1f 962a 721e 59b1 a378 e439 30ee dfbc
000000a0: 2893 62a7 938c 99be 182c 8a29 c383 b03d
000000b0: 5abd c23d ed3b b2a4 3b56 52b7 50a6 ad3a
000000c0: 6fd9 e2bd 14c4 b43a a888 3f3e 9b53 0b2b
000000d0: d6cc 6fbe 1b22 173e 9cd1 7ab3 0fee a733
000000e0: 1b80 43bd bddc ffbd e738 5931 9cc7 3e3e
000000f0: aa44 752b 87a5 a43d dca0 ed3d f1a7 bf3a
00000100: 1963 b8b9 40fe 123a 3901 bf3d b25d b5a5
00000110: f19f 2dbd 1caf 9729 7605 d1bd 9f5a 963d
00000120: b20a ed9e c04d b3b6 0ccd 51bc 6e3e 85be
00000130: 0a56 2827 74ac 213e a6e3 9238 2231 05be
00000140: e135 973e ad07 98a0 5499 6c38 1c60 f03d
00000150: 76b7 8d3e 44f6 ff37 a897 8c3d 93aa 5130
00000160: cf84 ac3d 27d4 2e3e 791a a0b9 7052 14b2
00000170: 96d8 03bd 3255 7cbe 469c 86a7 e3ab 603d
00000180: 41c2 80b7 d04a 91be c28f f83d e3d3 17b1
00000190: 2fd7 f931 5091 98bc 21e3 0cbd 56b8 f4ac
000001a0: 6fd8 46be afea 8d38 752a 473e dad3 e3bb
000001b0: 54e5 b6a7 9cb1 f332 6b84 4e3d c01b ef3d
000001c0: 1140 8eb4 99a9 babd a3e5 caba bdbd 3a3e
000001d0: 5b3c d8bc 60ce 699d b936 b633 5f2a 66bd
000001e0: b86a 40be ac0e 9038 5de2 39bd cf71 0eac
000001f0: 4ef0 a6bd 2f42 98bd 74fd 2e3b 4a27 07b5
00000200: 5b9d bd3d 52b6 6cbd 9549 f0a9 0a62 a53e
00000210: 3b71 5f30 a508 213d 23d5 aabc c9a4 2836
00000220: 66bd 2cba b243 223d 5a68 7c3e 7dde e8a7
00000230: 4dc5 4dbe be12 25bb 24db a53d 64d6 23be
00000240: ec71 e339 1fa0 8832 5f66 343d 650f 273e
00000250: fe39 d5a5 e4b5 b0bd eb6e 593b 21f6 993d
00000260: 95e9 89bd 78b5 0a30 f375 cfb1 c603 41bd
00000270: c9dd fb3d 191c 253a 1db0 263e 7293 7dac
00000280: 1ac0 053c 14ab 56bd ec21 3939 32a0 b8b8
00000290: adcb 62bd f356 5e3e 759b 4529 3eb7 57bd
000002a0: 27fd 8dba 310a 53be 170c 83be fc0f 873a
000002b0: 12aa 11b7 e1c5 3a3e d80c 473d bd5b 18af
000002c0: 0b63 6f3d 7c3c 8b39 da6d 913e fa1a 15be
000002d0: b685 e730 8a8e 2b34 2779 7b3e 03df 2fbe
000002e0: 9238 5428 ffa7 b43b 4201 acac 31d6 9e3d
000002f0: f06a 8d3e f5b2 951e ef02 c1b3 b5c0 223e
00000300: f368 35be cc4e 25af c0a1 d7bc 3906 723b
00000310: 230a a33e 89a2 953e 8373 941e cad9 86b4
00000320: 757d 1dbd ea6f e53d e449 b1ba 1cef c7bd
00000330: 82d3 beac 4527 743d a5f8 323d ba6b 8930
00000340: b5ae 8f33 96ef ba3c 8091 a23e 7935 d93a
00000350: 4142 7e3d 5333 93b9 64a0 1d3d 67da 923e
00000360: 476c 7f38 0dc5 bc38 286b 673e c41e c93d
00000370: cbf8 22a9 9d34 513e bd69 c33a 1f7d 8f3d
00000380: 5669 823c 12a9 ca9d 780d ef33 6c05 a8bd
00000390: 621c 4b3e ddcf 3aa8 6049 98be c0a0 a63a
000003a0: 4c7d 60be fa99 99be 2883 98a2 f932 ceb4
000003b0: ec82 dcbd 4fc7 36be 099b 13ad 9bb3 5fbe
000003c0: 93bb 00bb cbd6 3f3e 006f d7bd

bias_ih_l0 f4 [27]
-0.010486485 0.2862027 -0.019080766 0.23609103 -0.11509663 -0.13027343 -0.10609827 0.13294645
-0.2889413 -0.14451492 -0.2564572 -0.063927665 -0.24338138 -0.11459598 0.062686905 -0.13739195
-0.27982527 0.09431114 -0.15336844 0.15746428 -0.23487194 -0.2513021 -0.13890612 -0.26888698
0.2156665 0.19485621 -0.15843602
00000000: 82cf 2bbc 2989 923e 444f 9cbc d9c1 713e
00000010: c8b7 ebbd 6666 05be 0d4a d9bd 1d23 083e
00000020: 1df0 93be b8fb 13be 5c4e 83be 82ec 82bd
00000030: f838 79be 4cb1 eabd fe61 803d 7ab0 0cbe
00000040: 4245 8fbe 3326 c13d 9e0c 1dbe 513e 213e
00000050: 4582 70be abaa 80be 683d 0ebe 8eab 89be
00000060: aed7 5c3e 6388 473e 0d3d 22be

bias_hh_l0 f4 [27]
-0.24753201 0.2678404 0.1372595 -0.29279238 0.17404766 -0.20515259 0.21567906 0.024965983
-0.16929953 0.0010059675 0.007828835 0.19526018 -0.07200782 -0.28950596 -0.2965517 0.31303477
-0.17349833 -0.2848254 -0.18133539 -0.20192403 0.25383464 -0.29604825 0.1108858 -0.3236585
-0.2822436 0.123017356 0.23555405
00000000: 0879 7dbe 6022 893e c18d 0c3e e2e8 95be
00000010: 8d39 323e 8513 52be f9da 5c3e 7685 cc3c
00000020: db5c 2dbe abda 833a 8444 003c 49f2 473e
00000030: d678 93bd 203a 94be a0d5 97be 1846 a03e
00000040: 8ca9 31be a3d4 91be fcaf 39be 2cc5 4ebe
00000050: 9df6 813e a393 97be 1818 e33d 91b6 a5be
00000060: 3c82 90be 86f0 fb3d 1535 713e

weight_ih_l0 f4 [27, 39]
0.011791067 -0.16307206 0.16942258 0.0018445993 0.16530457 9.360826e-05 0.098336436 3.8096528e-06
1.909334e-06 -0.13062851 0.19798869 -0.20822631 0.103295416 -0.08003046 -0.06664393 -0.12626556
0.021690391 -0.10666376 -0.18771301 -0.06921672 0.03787455 0.045816887 -0.31011146 0.10635635
0.04284926 0.12984544 -0.11742822 -0.2868158 -0.03192858 -0.13236934 -0.29718614 0.06259617
0.035680335 0.14149572 0.03213343 0.32548055 -0.117925346 0.010716518 0.18239214 0.08767867
-0.021887569 0.037533917 0.025558282 -0.26982242 -4.691182e-21 0.18127076 0.00047985284 -2.9876296e-06
0.2745453 0.23295765 0.23477666 -0.008665249 0.24879333 -0.042078927 0.109384075 -0.15356037
0.012967424 -0.12707034 -0.027686909 -0.18087552 -0.048739776 -0.17503624 -0.1032276 -0.018500652
0.2590725 -0.18808964 -0.044119604 -0.014751305 -0.09989888 -0.10661969 -0.25938874 0.30194348
-0.21927549 -0.10488646 -0.13360907 -0.12128916 0.2814256 0.26825324 0.12755254 0.13309433
0.30409074 -0.10740418 -0.0014673887 0.00074199785 -0.1271841 -3.8285805e-07 4.575815e-06 -0.17110743
-0.20697108 0.2899893 -0.114714675 -0.001939308 0.1647098 0.20841497 0.30258554 -0.108564
-0.26704553 0.038881943 -0.078109756 -0.11560151 0.31796286 0.024460109 0.08596873 0.23684955
-0.06227748 -0.062095366 -0.012675756 -0.091402486 0.24737169 0.1738876 0.30793682 0.03549632
-0.1840192 0.06345187 0.28644598 -0.2066646 -0.19851233 -0.103794724 -0.0871094 0.11547659
0.09253951 0.29106867 5.865839e-06 -0.15088117 1.3256386e-07 -0.0015972852 0.2422699 -0.14054693
0.2246372 -0.03009382 0.2948541 -0.012117081 -0.06569548 0.31706756 0.020775141 0.1343735
0.042304255 -0.23940429 -0.23221886 0.23456699 0.07038967 0.012008088 -0.14341103 0.051371127
0.012593726 0.0072767385 -0.059898067 0.29530686 -0.24531335 0.039391365 -0.1604742 -0.10285288
0.0038534752 -0.00035425008 -0.2921319 0.033046488 0.21965887 -0.010406952 0.002333938 0.06556971
-0.1669293 -3.4027912e-19 -0.22085243 0.00047594076 -3.6197275e-07 -0.13030115 -0.1258917 0.21361457
0.021582061 0.11112271 -0.030214133 0.26801106 0.0616372 0.23913886 -0.057039823 0.2810579
0.054625567 -0.2557497 -0.28157863 0.0937894 -0.16216113 0.2610828 0.21483749 -0.25694057
-0.0005186244 -0.13149682 0.14572202 -0.3125106 -0.17901315 0.09241984 -0.12475046 -0.028211236
-0.089831345 0.19268729 0.1744744 -0.06037047 -0.14717449 0.32014436 0.19883883 -0.014430056
0.000105534076 0.2735089 1.8013604e-07 -7.046873e-05 0.27984107 -0.076762736 0.29045528 -0.059857383
-0.04950706 0.15830897 -0.18825781 -0.081421226 0.14818817 0.12480719 -0.26540542 0.13973884
0.24342522 -0.080334365 -0.11763089 -0.053399596 -0.1740154 0.017004171 0.036807444 0.011751607
-0.19367571 -0.123666056 0.31898355 0.24984813 0.20864323 0.31289554 -0.14372113 0.06279698
-0.19571806 0.029074261 -0.31258672 -0.25783047 -0.109570354 0.16319795 0.04573854 3.3475844e-18
-0.0888046 7.1594644e-05 1.4716862e-05 -0.29030275 -0.14922471 -0.15817034 -0.16105041 -0.07828846
-0.21417691 -0.28810626 0.2522092 0.20230015 -0.22946283 0.15857913 -0.22694942 -0.16581215
00000000: 522f 413c 5dfc 26be 1d7d 2d3e 7bc6 f13a
00000010: 9a45 293e 8d4f c438 9d64 c93d 56a9 7f36
00000020: 1c22 0036 7bc3 05be 8cbd 4a3e 4739 55be
00000030: 8c8c d33d 03e7 a3bd 9d7c 88bd c24b 01be
00000040: 0cb0 b13c 8872 dabd d737 40be 7fc1 8dbd
00000050: 5822 1b3d 7daa 3b3d eec6 9ebe 5cd1 d93d
00000060: b582 2f3d 34f6 043e 357e f0bd 85d9 92be
00000070: 8bc7 02bd d48b 07be c828 98be 6c32 803d
00000080: 8b25 123d 41e4 103e 589e 033d 63a5 a63e
00000090: d882 f1bd 5694 2f3c 01c5 3a3e e090 b33d
000000a0: 8f4d b3bc 2abd 193d 9a5f d13c 2a26 8abe
000000b0: 543a b19d 0b9f 393e c294 fb39 167f 48b6
000000c0: 3491 8c3e 738c 6e3e 4b69 703e b0f8 0dbc
000000d0: aec3 7e3e f45a 2cbd c204 e03d ee3e 1dbe
000000e0: 5175 543c ba1e 02be a8cf e2bc 6f37 39be
000000f0: 5ca3 47bd b33c 33be fe68 d3bd ae8e 97bc
00000100: 27a5 843e 929a 40be c2b6 34bd 75af 71bc
00000110: c997 ccbd 6d5b dabd 9ace 84be 5698 9a3e
00000120: c189 60be b6ce d6bd d1d0 08be 7366 f8bd
00000130: 0417 903e 7d58 893e 229d 023e e149 083e
00000140: c8b1 9b3e b9f6 dbbd 6555 c0ba a282 423a
00000150: 8c3c 02be 9c8b cdb4 f489 9936 c936 2fbe
00000160: 3af0 53be 7a79 943e 87ef eabd 6130 feba
00000170: b0a9 283e bc6a 553e 7eec 9a3e cd56 debd
00000180: 31ba 88be ac42 1f3d 02f8 9fbd 7cc0 ecbd
00000190: 07cc a23e 9160 c83c 6010 b03d b088 723e
000001a0: ac16 7fbd b657 7ebd f9ad 4fbc 3a31 bbbd
000001b0: 014f 7d3e 970f 323e e5a9 9d3e 9764 113d
000001c0: 876f 3cbe 0ef3 813d 0ca9 923e e39f 53be
000001d0: d146 4bbe 5492 d4bd 6a66 b2bd fe7e ec3d
000001e0: 5b85 bd3d f406 953e 2cd3 c436 9880 1abe
000001f0: e056 0e34 ff5b d1ba 9a15 783e 89eb 0fbe
00000200: 4b07 663e 5187 f6bc 1ef7 963e b986 46bc
00000210: 5a8b 86bd ae56 a23e a130 aa3c 3599 093e
00000220: 3a47 2d3d 6626 75be c8ca 6dbe 5432 703e
00000230: 7628 903d 92bd 443c 57da 12be 886a 523d
00000240: ea55 4e3c b571 ee3b ad57 75bd 7632 973e
00000250: 6c33 7bbe d758 213d 5953 24be 88a4 d2bd
00000260: 968a 7c3b a4ba b9b9 5092 95be c15b 073d
00000270: 41ee 603e ec81 2abc fbf4 183b 6a49 863d
00000280: 84ef 2abe 87dd c8a0 2427 62be b087 f939
00000290: 2855 c2b4 aa6d 05be c1e9 00be c7bd 5a3e
000002a0: ddcc b03c 4e94 e33d a183 f7bc bf38 893e
000002b0: 4a77 7c3d d1e0 743e 97a2 69bd d2e6 8f3e
000002c0: 0fbf 5f3d a0f1 82be 132b 90be a814 c03d
000002d0: 910d 26be a5ac 853e 5cfe 5b3e b78d 83be
000002e0: 4bf4 07ba 1aa7 06be 2738 153e 6401 a0be
000002f0: 394f 37be 9d46 bd3d 2b7d ffbd 401b e7bc
00000300: 7ff9 b7bd d14f 453e 6ba9 323e 0747 77bd
00000310: e9b4 16be f6e9 a33e 689c 4b3e 0b6c 6cbc
00000320: 2d52 dd38 5c09 8c3e 6b6b 4134 9dc8 93b8
00000330: 5447 8f3e c835 9dbd 8eb6 943e 042d 75bd
00000340: eac7 4abd bf1b 223e a8c6 40be 2cc0 a6bd
00000350: a4be 173e e99a ff3d 38e3 87be b317 0f3e
00000360: 7644 793e 5886 a4bd 77e8 f0bd 89b9 5abd
00000370: 1831 32be 554c 8b3c 67c3 163d d089 403c
00000380: ed52 46be a144 fdbd d051 a33e 30d8 7f3e
00000390: 92a6 553e d833 a03e a22b 13be b49b 803d
000003a0: 516a 48be 252d ee3c 5e0b a0be 5b02 84be
000003b0: 6c66 e0bd 5d1d 273e 5658 3b3d 1502 7722
000003c0: 30df b5bd 1525 9638 71e8 7637 90a2 94be
000003d0: 5dce 18be 68f7 21be 66ea 24be b355 a0bd
000003e0: 3151 5bbe aa82 93be 9021 813e c527 4f3e
000003f0: 4ef8 6abe 9162 223e 6e65 68be a9ca 29be

weight_hh_l0 f4 [27, 9]
-0.13702653 -0.17184395 -0.065118074 0.19141842 0.2576958 -0.16403227 -0.1702755 -0.13088425
-0.118560106 -0.13424748 0.14040405 0.11186814 0.23516501 -0.12102481 0.079632215 0.063808784
-0.24501307 0.012253604 -0.17316818 -0.10454536 -0.2290296 -0.17702161 -0.17863314 0.047537893
-0.1976832 0.045402545 0.028038014 -0.18604955 0.216546 0.10768532 -0.24948794 -0.26850402
-0.23063807 -0.053029835 -0.044463016 0.044545285 0.15904568 0.2136568 0.2822137 0.04246457
0.099335134 0.07699462 0.2540537 -0.15927368 -0.023520172 -0.17889088 -0.1620331 0.014185585
0.30782095 -0.04033093 0.14464465 0.14171779 0.21094577 -0.05884308 -0.27662948 0.06812152
-0.13178715 -0.32778335 -0.2986741 -0.23376122 -0.12440359 -0.20297527 0.1472084 0.014136315
-0.09751885 0.012031098 0.19982937 -0.18765827 0.17183939 0.26077512 -0.085431896 -0.05929275
0.3042791 -0.11507241 0.04251446 -0.19560057 -0.13124159 0.30944595 -0.14972267 -0.23764521
-0.2833823 -0.04096393 -0.13302073 0.18963368 -0.040962934 0.30489734 0.22837877 0.01306823
0.08379396 0.1047806 0.17273887 -0.04762706 0.13713303 0.18826017 0.029484147 0.0058492827
-0.19508106 0.13815452 0.09046463 -0.09678844 -0.08423684 0.048977647 0.14784142 0.09658823
-0.28747833 -0.00025180503 -0.2887386 -0.18294908 -0.2156978 0.2728741 0.21372662 0.18025315
0.15118808 0.30827174 0.0060908846 0.008059699 0.1064743 0.31562915 -0.22548331 0.08905931
0.07043915 -0.0714674 0.2564464 -0.12765662 -0.11017909 0.13444111 0.034728426 0.23506159
-0.10166949 0.0053942953 0.30486888 -0.20316209 0.2917353 -0.050331715 -0.05610208 -0.017293343
-0.14599326 -0.21136084 -0.2978013 -0.28009954 -0.14991352 -0.07777436 -0.045774493 -0.25085375
-0.22962397 0.2890679 -0.11092349 0.17995457 0.21801786 0.20969911 -0.069763206 -0.18367071
0.02375071 -0.2071158 0.23775186 0.24862559 -0.13115479 -0.041535117 0.23486741 -0.19197015
0.22439353 0.073908895 -0.0286339 0.19306232 0.17139667 -0.3071541 0.12384146 0.11494779
0.09945213 0.22017138 -0.05728696 0.17460307 -0.1835047 0.1967623 -0.004071449 0.18148822
0.21923736 0.0011467444 -0.14192231 0.13945962 0.08903911 -0.021262057 -0.07243744 -0.3342885
-0.020170553 -0.1394238 -0.17210013 -0.107440636 0.25055876 -0.18437871 -0.060038768 0.12552251
-0.24666116 -0.17542394 0.15600687 0.11369515 0.32571027 -0.252865 -0.07986133 0.0085951965
0.21232912 -0.26196375 0.06773988 -0.286855 -0.052929208 -0.08570427 -0.24845088 0.29810742
-0.2677881 -0.30363378 0.2417142 -0.30367512 -0.1732207 0.115904905 -0.10428513 -0.054205287
0.101996824 0.22165719 -0.05083867 0.2224529 -0.14317627 0.22376321 -0.1692481 -0.26105618
-0.125575 -0.047284633 -0.2579221 -0.2829733 0.09994209 -0.09398235 -0.15201193 0.16560464
-0.23282166 0.2120011 -0.19934675 -0.23047769 0.2894854 -0.25344187 -0.2351711 0.15892582
0.23505753 0.16531642 -0.2948828
00000000: af50 0cbe dcf7 2fbe a05c 85bd 3103 443e
00000010: b4f0 833e 13f8 27be b35c 2ebe 8506 06be
00000020: a4cf f2bd 2c78 09be 14c6 0f3e 201b e53d
00000030: 19cf 703e dbdb f7bd 3716 a33d 2eae 823d
00000040: b5e4 7abe 57c3 483c 0053 31be e11b d6bd
00000050: bc86 6abe 2745 35be 9beb 36be 18b7 423d
00000060: 776d 4abe 05f8 393d faaf e53c c683 3ebe
00000070: 3cbe 5d3e 1f8a dc3d c479 7fbe 5c79 89be
00000080: 632c 6cbe d035 59bd da1e 36bd 1e75 363d
00000090: dfdc 223e d9c8 5a3e 507e 903e 54ef 2d3d
000000a0: 3870 cb3d 5baf 9d3d 5413 823e a418 23be
000000b0: 60ad c0bc 2c2f 37be 01ec 25be a86a 683c
000000c0: b59a 9d3e 0c32 25bd ba1d 143e 781e 113e
000000d0: 2b02 583e 7105 71bd 61a2 8dbe 4c83 8b3d
000000e0: 36f3 06be 38d3 a7be d0eb 98be 1a5f 6fbe
000000f0: 4fc7 febd c0d8 4fbe ccbd 163e 019c 673c
00000100: f6b7 c7bd 151e 453c 12a0 4c3e 7d29 40be
00000110: aaf6 2f3e 5184 853e ebf6 aebd f4dc 72bd
00000120: 78ca 9b3e 15ab ebbd a423 2e3d 844b 48be
00000130: 3264 06be b36f 9e3e e650 19be 4459 73be
00000140: 7c17 91be cbc9 27bd 9636 08be 552f 423e
00000150: c0c8 27bd 811b 9c3e 20dc 693e 211c 563c
00000160: 2b9c ab3d 3697 d63d 75e2 303e 9814 43bd
00000170: 9a6c 0c3e 46c7 403e bd88 f13c 57ab bf3b
00000180: 54c3 47be 6178 0d3e 8545 b93d 0539 c6bd
00000190: 5d84 acbd c99c 483d be63 173e 0dd0 c53d
000001a0: 5c30 93be b304 84b9 8cd5 93be 0157 3bbe
000001b0: e2df 5cbe 27b6 8b3e 27db 5a3e 4894 383e
000001c0: 0cd1 1a3e cbd5 9d3e 0b96 c73b d40c 043c
000001d0: 330f da3d 259a a13e 19e5 66be ba64 b63d
000001e0: 6742 903d 805d 92bd f14c 833e 6bb8 02be
000001f0: 93a5 e1bd eeaa 093e 653f 0e3d fcb3 703e
00000200: 1838 d0bd a1c2 b03b c617 9c3e b909 50be
00000210: 545e 953e a128 4ebd 4bcb 65bd c5aa 8dbc
00000220: 427f 15be fa6e 58be 6979 98be 3569 8fbe
00000230: ee82 19be 2a48 9fbd 097e 3bbd e76f 80be
00000240: 8c22 6bbe b500 943e db2b e3bd 0346 383e
00000250: 1340 5f3e 5dbb 563e 03e0 8ebd 2d14 3cbe
00000260: d990 c23c 2a16 54be 3975 733e b597 7e3e
00000270: 714d 06be ba20 2abd 1581 703e d393 44be
00000280: 6bc7 653e 8c5d 973d a491 eabc 21b2 453e
00000290: 9c82 2f3e 4d43 9dbe 97a0 fd3d bf69 eb3d
000002a0: 8fad cb3d 9b74 613e bba5 6abd 26cb 323e
000002b0: a8e8 3bbe 0e7c 493e ca69 85bb 0cd8 393e
000002c0: c27f 603e 5b4e 963a 1554 11be 81ce 0e3e
000002d0: 235a b63d c42d aebc 155a 94bd dd27 abbe
000002e0: b73c a5bc 1dc5 0ebe 043b 30be d609 dcbd
000002f0: 3d49 803e c6cd 3cbe 36eb 75bd f988 003e
00000300: be94 7cbe 55a2 33be 44c0 1f3e 01d9 e83d
00000310: 7fc3 a63e 8577 81be 568e a3bd ded2 0c3c
00000320: ce6c 593e 1d20 86be 35bb 8a3d a9de 92be
00000330: 4ccc 58bd b885 afbd e869 7ebe 89a1 983e
00000340: 861b 89be e375 9bbe ed83 773e 4e7b 9bbe
00000350: c460 31be 8d5f ed3d 7193 d5bd 5d06 5ebd
00000360: b6e3 d03d 1afa 623e 363c 50bd b1ca 633e
00000370: cd9c 12be 2f22 653e 604f 2dbe 28a9 85be
00000380: bc96 00be 88ad 41bd 5e0e 84be e0e1 90be
00000390: 70ae cc3d d179 c0bd 04a9 1bbe 4394 293e
000003a0: cd68 6ebe d116 593e 8e21 4cbe 5802 6cbe
000003b0: 6e37 943e 22c3 81be b1d0 70be 73bd 223e
000003c0: ecb2 703e b548 293e e1fa 96be

bias_ih_l0 f4 [27]
0.24166618 0.14684239 -0.29539698 -0.18953341 0.21592891 0.21071985 0.28775015 0.30215573
0.24869 0.22004892 -0.004522263 0.3244108 -0.13644944 0.22534993 0.065708034 -0.26426652
0.0053206547 -0.032670625 0.31956324 0.19819093 0.16593285 0.14806323 0.32086158 0.2378564
-0.17949738 0.074642666 -0.03767218
00000000: 5777 773e da5d 163e 463e 97be 0c15 42be
00000010: 781c 5d3e f2c6 573e fd53 933e 28b4 9a3e
00000020: 97a8 7e3e 8154 613e 7e2f 94bb 2c19 a63e
00000030: 67b9 0bbe 22c2 663e ef91 863d f14d 87be
00000040: e358 ae3b a2d1 05bd cb9d a33e 90f2 4a3e
00000050: 4dea 293e e39d 173e f847 a43e a190 733e
00000060: 29ce 37be 41de 983d 254e 1abd

bias_hh_l0 f4 [27]
-0.08093835 0.32318693 -0.28078222 0.14093074 -0.21322045 -0.29572287 0.070434235 0.3106697
0.16066292 -0.21325333 0.21921967 -0.05100894 0.28056893 0.17651755 0.020610483 -0.33049586
-0.068321995 0.31055877 0.3142187 0.07930927 -0.08720609 0.20042665 0.31170902 -0.30277628
0.2317367 -0.18987823 -0.16290236
00000000: 01c3 a5bd c278 a53e b0c2 8fbe 2650 103e
00000010: 7656 5abe fd68 97be d33f 903d 1910 9f3e
00000020: d284 243e 155f 5abe 1f7b 603e c0ee 50bd
00000030: bba6 8f3e 04c1 343e 51d7 a83c c136 a9be
00000040: 67ec 8bbd 8f01 9f3e 46e1 a03e e66c a23d
00000050: 1b99 b2bd a53c 4d3e 5398 9f3e 7e05 9bbe
00000060: 634c 6d3e 706f 42be e0cf 26be

weight f4 [9, 9]
0.018230312 0.10076966 0.098699674 -0.103860915 0.06572207 0.10738935 -0.21523239 0.040078618
0.19294924 0.12553601 -0.07499111 0.13628384 -0.27958047 -0.13071878 -0.20563383 -0.0035335072
0.2631974 -0.3366504 0.17607385 -0.057217762 -0.28567398 -0.26509595 -0.29009235 0.034620356
0.14521548 0.011064329 0.12958634 -0.259546 0.077483036 0.0012345001 -0.28203002 -0.050256494
0.1522551 0.25726554 0.2980934 -0.07596846 0.07781141 -0.0042565935 -0.1452174 0.22871219
-0.22996572 -0.09742515 -0.012998251 -0.30893 0.21027005 -5.7075773e-08 0.002240218 2.3966426e-19
-8.1935915e-23 1.102673e-14 1.7447593e-19 2.6189512e-20 -0.0028855745 -0.0020038073 -0.11865001 0.116189934
0.023865612 -0.105134726 -0.004464204 0.31575415 -0.09743779 -0.28456694 -0.12291141 -2.8575354e-05
1.1314243e-05 3.902251e-05 5.582522e-05 0.0016744684 0.0010304726 6.335629e-05 0.0013676307 0.0010582688
-0.00014112436 0.0005868968 3.4142064e-05 -6.214219e-05 -0.00014291002 -2.5064473e-05 0.0017652508 1.6214552e-05
0.00093248906
00000000: bc57 953c 5360 ce3d 0e23 ca3d 08b5 d4bd
00000010: 4b99 863d f3ee db3d e165 5cbe 7a29 243d
00000020: 7c94 453e 838c 003e f094 99bd fe8d 0b3e
00000030: 2c25 8fbe 25db 05be ad91 52be 6a92 67bb
00000040: cfc1 863e 715d acbe b44c 343e 2c5d 6abd
00000050: dc43 92be a8ba 87be fc86 94be 13ce 0d3d
00000060: 5eb3 143e 2947 353c 48b2 043e 37e3 84be
00000070: 6daf 9e3d f3ce a13a 3d66 90be c1d9 4dbd
00000080: c3e8 1b3e 4fb8 833e b39f 983e 5a95 9bbd
00000090: 975b 9f3d e57a 8bbb dfb3 14be 8733 6a3e
000000a0: 227c 6bbe d686 c7bd 9ef6 54bc 132c 9ebe
000000b0: 0851 573e 7a23 75b3 9fd0 123b 0a79 8d20
000000c0: e01b c69a d1a3 4628 1dfc 4d20 5b5a f71e
000000d0: e81b 3dbb 4f52 03bb c7fe f2bd fdf4 ed3d
000000e0: d181 c33c e050 d7bd 7548 92bb 87aa a13e
000000f0: 778d c7bd c2b2 91be fab8 fbbd 1bb5 efb7
00000100: 4ed2 3d37 1aac 2338 e025 6a38 d679 db3a
00000110: ec10 873a 26de 8438 1242 b33a 9cb5 8a3a
00000120: c8fa 13b9 fad9 193a c333 0f38 5652 82b8
00000130: 1eda 15b9 8c41 d2b7 fd5f e73a 7c04 8837
00000140: 4872 743a

bias f4 [9]
-0.031673964 0.22545484 0.06323092 -0.15031704 0.19927037 -0.0011581139 0.2699797 -0.0005487735
-0.0003532016
00000000: 8fbc 01bd a2dd 663e 367f 813d b6ec 19be
00000010: 880d 4c3e dbcb 97ba c73a 8a3e 91db 0fba
00000020: eb2d b9b9

weight f4 [720, 18]
-0.0018265045 -0.22382863 -0.23429321 0.041064598 -0.039493214 -0.1265653 -0.07644069 -0.0452448
-0.099549785 0.17739886 0.21374246 -0.030836072 -0.096105844 0.08928046 -0.08924287 0.13674253
-0.18444964 0.037170332 0.037203837 0.0063151177 -0.02946005 -0.11090087 0.043012794 0.0021217556
-0.0087014185 -0.049807083 -0.08833189 -0.041994277 -0.13739324 -0.14916396 -0.041714907 0.1164448
0.10838329 -0.0698177 0.008456753 -0.18432133 0.18738453 0.07985234 -0.18241252 0.13201073
-0.21104348 -0.15601572 -0.14042021 -0.20445174 -0.0066174716 -0.13839993 -0.026080547 0.043454397
0.06151836 0.156467 -0.22743112 -0.08638233 -0.11190701 0.19499457 -0.052709375 -0.009960566
-0.03170244 -0.011285397 0.03304252 -0.06902058 -0.0037586913 -0.015757656 -0.0155405635 0.13210815
-0.069645666 -0.05603454 -0.038586248 -0.025083728 -0.05635688 -0.03704845 0.01966198 0.07275069
0.19269313 -0.2022558 -0.2140442 -0.13934988 -0.049518455 -0.21829984 0.121929795 -0.21132696
-0.17704692 0.12651153 -0.08341913 0.14410242 0.20043673 0.056972194 -0.13846229 -0.21070126
0.115470216 0.13377172 -0.17862792 0.025017593 -0.0018507343 0.061763123 -0.18250798 0.22887982
0.14300428 -0.03574479 -0.11936775 -0.18110262 0.14831014 -0.1715279 0.05315353 -0.028481785
0.06839491 -0.21170975 0.0036761556 0.1006305 -0.024469683 0.05124036 0.10832912 -0.00558241
-0.03120048 -0.18658513 -0.039704677 0.121943414 0.06372988 0.21615817 0.08306956 0.17891337
0.018512454 -0.21234576 -0.2086206 -0.19886059 0.23173255 0.18389541 6.927257e-19 -9.0801365e-08
2.993666e-14 5.0237007e-15 -5.332621e-13 7.7977875e-06 7.837619e-07 1.5616342e-18 -6.718874e-17 -6.462877e-19
-2.1831516e-05 -1.8797337e-19 -4.150067e-07 7.8512294e-08 7.557665e-19 -2.2260787e-12 -2.467197e-12 -4.6424922e-10
-6.792283e-09 6.347688e-16 5.3386154e-18 -9.623284e-07 1.0407766e-09 -1.4249292e-19 -1.2635103e-18 2.6592076e-19
6.380361e-20 -2.0425688e-09 -4.9865553e-13 -1.5120243e-09 1.2004681e-11 -4.8083066e-06 -7.398801e-16 8.023661e-17
-2.929857e-20 2.5308722e-18 0.052349556 -0.06989184 0.0038231583 0.18377046 0.12679599 0.2059648
-0.079130664 -0.17848596 -0.00809053 -0.08287139 0.09737913 0.13056764 0.03320561 0.11080803
-0.0039348113 -0.1665583 -0.14766952 0.20069495 0.11038416 0.004427976 0.008938207 0.04672454
0.060315836 -0.003944657 -0.030153165 0.03934814 -0.017192353 0.00340122 -0.042742927 0.03992615
0.0492585 -0.026354238 0.035944507 -0.005772434 0.015532012 -0.16473395 0.09439709 -0.18291558
-0.069419265 -0.1838336 0.16178305 -0.13856195 -0.014048261 0.03988024 0.09539718 0.2011813
-0.18888462 -0.17794512 -0.117274135 -0.14273481 -0.13110863 -0.016638992 -0.15802175 0.2211461
-0.14997657 -0.10178004 -0.046471953 0.1034516 -0.12273341 0.14288971 0.0059179454 -0.12611072
-0.078010835 0.17906237 -0.17230502 0.06570567 0.20772316 0.061638743 -0.1781132 0.23815197
-0.17850536 -0.08970627 -0.07415765 -0.04660745 -0.17607966 0.03902182 -0.10273662 -0.18167715
-0.24506363 -0.025528463 0.18587883 -0.09415212 0.14086655 -0.024292843 0.20787306 -0.11588141
0.057131883 0.15479289 -0.061877344 0.09109462 0.009403764 0.008242399 -0.007423171 0.0126571115
00000000: 5267 efba 5533 65be 8fea 6fbe 5a33 283d
00000010: a3c3 21bd 569a 01be f08c 9cbd 9d52 39bd
00000020: c2e0 cbbd 0ca8 353e 4edf 5a3e ee9b fcbc
00000030: 24d3 c4bd acd8 b63d f7c4 b6bd 3c06 0c3e
00000040: 5ee0 3cbe eb3f 183d 0d63 183d 0cef ce3b
00000050: 3456 f1bc ff1f e3bd 2f2e 303d 270d 0b3b
00000060: 6590 0ebc 8302 4cbd 5ae7 b4bd 3102 2cbd
00000070: d0b0 0cbe 70be 18be 40dd 2abd 9c7a ee3d
00000080: 0ff8 dd3d 95fc 8ebd 318e 0a3c bbbe 3cbe
00000090: bbe1 3f3e a089 a33d 59ca 3abe d22d 073e
000000a0: c81b 58be 96c2 1fbe 51ca 0fbe cc5b 51be
000000b0: 60d7 d8bb b6b8 0dbe dfa6 d5bc 3dfd 313d
000000c0: adfa 7b3d e338 203e b4e3 68be 38e9 b0bd
000000d0: 812f e5bd a8ac 473e c9e5 57bd a431 23bc
000000e0: 6bda 01bd 63e6 38bc 9857 073d a95a 8dbd
000000f0: 6054 76bb 3316 81bc d99d 7ebc 5c47 073e
00000100: 63a2 8ebd 7984 65bd 9d0c 1ebd 647c cdbc
00000110: 79d6 66bd 1ec0 17bd 2912 a13c 50fe 943d
00000120: 5951 453e 251c 4fbe 672e 5bbe bcb1 0ebe
00000130: ddd3 4abd fe89 5fbe 54b6 f93d 1866 58be
00000140: ca4b 35be 3d8c 013e a6d7 aabd 968f 133e
00000150: 493f 4d3e ad5b 693d 0fc9 0dbe 12c2 57be
00000160: a67b ec3d 74fb 083e 3dea 36be b2f1 cc3c
00000170: 5794 f2ba 54fb 7c3d 5fe3 3abe 795f 6a3e
00000180: b76f 123e 2169 12bd 1477 f4bd f772 39be
00000190: 9dde 173e 03a5 2fbe 84b7 593d a252 e9bc
000001a0: a112 8c3d 71ca 58be a8eb 703b 5d17 ce3d
000001b0: a574 c8bc 69e1 513d a8db dd3d a6ec b6bb
000001c0: 2698 ffbc 2c10 3fbe 5fa1 22bd 78bd f93d
000001d0: d084 823d 9158 5d3e 6020 aa3d 1135 373e
000001e0: 6ea7 973c 2b71 59be a3a0 55be 1ca2 4bbe
000001f0: 4c4b 6d3e 144f 3c3e e074 4c21 94fe c2b3
00000200: 9ed2 0629 76ff b427 9519 16ab 3ed3 0237
00000210: b563 5235 df74 e621 3bed 9aa4 1ec0 3ea1
00000220: d322 b7b7 77eb 5da0 16ce deb4 979a a833
00000230: 1a10 5f21 78a5 1cac 129d 2dac 4539 ffaf
00000240: 8e61 e9b1 acf5 3626 ccf5 c422 5a29 81b5
00000250: 120b 8f30 d839 28a0 1276 baa1 cff8 9c20
00000260: eaa6 961f 405d 0cb1 eb5b 0cab a0cf cfb0
00000270: 4730 532d 0a57 a1b6 8441 55a6 5603 b924
00000280: cc5b 0a9f d3be 3a22 7d6c 563d 7423 8fbd
00000290: f48d 7a3b 532e 3c3e cfd6 013e 70e8 523e
000002a0: 420f a2bd 06c5 36be 248e 04bc 7ab8 a9bd
000002b0: b66e c73d 86b3 053e 9b02 083d 52ef e23d
000002c0: 97ef 80bb 428e 2abe ae36 17be fa82 4d3e
000002d0: 1711 e23d 8e18 913b 8f71 123c 3b62 3f3d
000002e0: bd0d 773d 2e42 81bb c503 f7bc 842b 213d
000002f0: fad6 8cbc 01e7 5e3b 3513 2fbd 9a89 233d
00000300: 48c3 493d d8e4 d7bc 8c3a 133d b026 bdbb
00000310: fb79 7e3c 04b0 28be 4353 c13d 394e 3bbe
00000320: b02b 8ebd e03e 3cbe 75aa 253e 2fe3 0dbe
00000330: ad2a 66bc 7659 233d 995f c33d 7902 4e3e
00000340: f86a 41be 3f37 36be 6c2d f0bd 1329 12be
00000350: 5741 06be 7f4e 88bc 74d0 21be 2074 623e
00000360: 7593 19be 0e72 d0bd 6059 3ebd 6fde d33d
00000370: a75b fbbd ae51 123e 53eb c13b 2b23 01be
00000380: 25c4 9fbd 205c 373e ba70 30be b290 863d
00000390: 61b5 543e e878 7c3d 4f63 36be 1cde 733e
000003a0: 1cca 36be ecb7 b7bd f7df 97bd 74e7 3ebd
000003b0: 3a4e 34be 58d5 1f3d 9467 d2bd 9309 3abe
000003c0: f6f1 7abe 1121 d1bc 0557 3e3e d4d2 c0bd
000003d0: 523f 103e c901 c7bc addc 543e 3c53 edbd
000003e0: 1f03 6a3d 0782 1e3e 1973 7dbd d18f ba3d
000003f0: 3f12 1a3c 210b 073c 123e f3bb c65f 4f3c
