ERTSNet/new_arch_LA/decimation/model/best-model_r0_J2_2pass2gains.pt (torch, 231010 bytes, 64 tensors)

weight_ih_l0 f4 [27, 15]
0.23940673 -0.23331238 0.14652508 -0.33252478 0.20346637 -4.9729093e-18 -0.142919 -0.28440997
0.0755751 -0.29730916 -1.96831e-18 -0.24055335 0.18459484 0.08769074 -0.12370961 0.2700386
-0.034182545 0.10510128 -0.32932928 0.29295707 2.602969e-16 0.22593147 0.31630835 -0.22741827
-0.017982656 -1.7460946e-12 0.18834017 -0.15850358 -0.28359213 0.023032159 -0.17849499 0.26346615
0.15257742 -0.23107229 -0.06324868 -7.39462e-05 0.18433209 -0.10553062 -0.32719693 -0.023859246
1.2865438e-05 0.11768436 0.1968978 -0.09678814 0.11904329 -0.19103275 0.1502162 0.3288223
0.31418768 0.013955073 -4.2323116e-17 -0.07671209 -0.05830413 0.14799662 0.22896954 0.06000502
0.022173991 0.17245692 0.2349747 0.2699869 0.15318954 0.2387503 -0.013895064 -0.06808118
0.05436816 -0.008988358 -0.06435747 0.14790764 0.040628206 -0.002676172 -0.076762214 0.19537994
-0.25280806 0.23789482 -0.19978946 -0.027491922 -0.11099981 0.2155576 0.00034841365 -0.26261583
1.4838724e-15 -0.10371012 0.13319959 0.28234965 0.29217502 -2.37636e-09 0.29123628 -0.23210463
-0.3327816 0.17537834 -0.11986709 0.11616125 -0.2849845 0.21715912 -0.009000383 -0.00030572657
0.08950608 -0.15368918 0.007453876 0.27927774 -0.00016591643 0.29106992 0.177463 0.045982692
-0.22340891 0.0014590375 0.16909818 0.11910604 0.20296635 -0.33076972 -9.067617e-17 0.1358996
0.0047033094 -0.2674349 0.29423186 0.009448504 0.06588066 0.30961588 -0.24426028 -0.091124624
-0.3124848 -0.08433707 -0.03662209 0.0066190604 0.29228938 -4.1323485e-15 -0.22660528 -0.041938353
-0.23140642 -0.24716902 -0.0034733978 -0.22747228 0.039750773 -0.11270479 0.1656578 0.007048269
-0.231244 0.054917604 -0.15421438 -0.026053479 3.3548975e-05 -0.16344653 -0.12582901 -0.21459214
-0.16134197 -0.0023902846 0.047951013 0.16358835 -0.01836624 0.0977401 0.32226795 -0.041577175
0.0950846 -0.27577466 0.10451367 0.035589 0.18147737 0.09249446 0.24142854 -0.040064182
0.06245632 0.2559304 -0.027685244 -0.13129137 0.25298932 0.18309325 0.10539893 0.2950583
-0.31356612 0.14862995 -1.09988135e-14 0.25231263 -0.007395771 -0.15392609 0.030985892 0.046171527
0.23842143 -0.2584467 0.2962252 -0.19967358 -0.24216183 -0.31829867 -0.025592057 0.14336616
0.32921982 -2.2714605e-06 -0.30605945 0.17461 0.16194683 0.18749708 -4.596488e-13 -0.034229152
-0.22418196 0.076259084 0.11129189 -0.17290325 0.11124851 -0.24569914 0.16687436 -0.14554694
-0.07845838 -0.2430214 0.18331987 0.15314043 -0.013086452 -0.04384696 -0.15982985 0.059875734
0.01916659 0.29274353 0.1879583 0.122110836 -0.1361141 0.3227467 0.22994481 0.07579352
0.18008861 0.10259335 -0.15420403 0.21462707 0.009670911 -0.28530732 -0.31278497 0.18093218
-0.024927791 0.071111955 -0.12255786 0.26152247 0.119130276 -0.21454722 6.15736e-19 0.047158223
0.24401549 -0.1131997 0.22137329 -0.035754364 -0.2859195 -0.070761815 0.13317302 0.090582214
-0.06112104 -0.2099863 -0.21155004 -0.29108116 -0.32909673 -0.065596595 0.26490277 0.2899655
0.01479317 -0.2969703 4.6569977e-17 -0.15637939 -0.04927453 0.039060216 -0.1233115 -0.05556448
00000000: 0a27 753e 71e9 6ebe ac0a 163e b040 aabe
00000010: 7d59 503e cd77 b7a2 5c59 12be 2f9e 91be
00000020: 1ec7 9a3d e838 98be 533c 11a2 9e53 76be
00000030: 6e06 3d3e 3497 b33d 775b fdbd 8042 8a3e
00000040: ff02 0cbd 573f d73d d99d a8be 78fe 953e
00000050: 0b0d 9625 945a 673e 2bf3 a13e 56e0 68be
00000060: 5d50 93bc b0bd f5ab 3fdc 403e c34e 22be
00000070: fd32 91be f0ad bc3c 64c7 36be 09e5 863e
00000080: 413d 1c3e 379e 6cbe 8688 81bd 9013 9bb8
00000090: 8dc1 3c3e 7020 d8bd 5b86 a7be 7774 c3bc
000000a0: a3d8 5737 7f04 f13d 949f 493e dc38 c6bd
000000b0: f8cc f33d 179e 43be 47d2 193e 665b a83e
000000c0: 35dd a03e d2a3 643c 512e 43a4 3a1b 9dbd
000000d0: 50d0 6ebd 6d8c 173e fe76 6a3e d3c7 753d
000000e0: 3ba6 b53c 8c98 303e 359d 703e b93b 8a3e
000000f0: b8dd 1c3e f57a 743e 1fa8 63bc 256e 8bbd
00000100: 26b1 5e3d e843 13bc d9cd 83bd 1a75 173e
00000110: c369 263d b762 2fbb 8235 9dbd ae11 483e
00000120: 0f70 81be b39a 733e 9c95 4cbe bd36 e1bc
00000130: de53 e3bd 22bb 5c3e 4aab b639 9575 86be
00000140: 3bd9 d526 f965 d4bd 7965 083e 2290 903e
00000150: f797 953e 5e4d 23b1 ec1c 953e d6ac 6dbe
00000160: 5a62 aabe 6196 333e e07c f5bd f3e5 ed3d
00000170: 7de9 91be f65e 5e3e 5876 13bc ed49 a0b9
00000180: f74e b73d b260 1dbe a53f f43b 7efd 8e3e
00000190: daf9 2db9 1e07 953e dcb8 353e 5958 3c3d
000001a0: 4ec5 64be 2d3d bf3a 1328 2d3e deed f33d
000001b0: 69d6 4f3e a65a a9be c315 d1a4 4429 0b3e
000001c0: 381e 9a3b 3aed 88be 8fa5 963e e6cd 1a3c
000001d0: 71ec 863d f985 9e3e 5e1f 7abe 8c9f babd
000001e0: 02fe 9fbe eab8 acbd 0b01 16bd b4e4 d83b
000001f0: f4a6 953e 30e2 94a7 370b 68be 8dc7 2bbd
00000200: cef5 6cbe e019 7dbe f2a1 63bb 7eee 68be
00000210: b5d1 223d c5d1 e6bd 33a2 293e 2af5 e63b
00000220: 3acb 6cbe 48f1 603d 60ea 1dbe 1b6e d5bc
00000230: f0b6 0c38 875e 27be 52d9 00be 0bbe 5bbe
00000240: d436 25be 52a6 1cbb 4868 443d b483 273e
00000250: cc74 96bc f62b c83d 4e00 a53e d44c 2abd
00000260: b7bb c23d 5632 8dbe 430b d63d c5c5 113d
00000270: 34d5 393e bc6d bd3d 0b39 773e 571a 24bd
00000280: 33d2 7f3d 4f09 833e 2acc e2bc 3f71 06be
00000290: d187 813e cc7c 3b3e 65db d73d e211 973e
000002a0: bd8b a0be 7332 183e 1323 46a8 1f2f 813e
000002b0: 3958 f2bb cd9e 1dbe 20d6 fd3c 5b1e 3d3d
000002c0: bf24 743e 2053 84be d4aa 973e 3b77 4cbe
000002d0: 45f9 77be 0bf8 a2be 6fa6 d1bc 94ce 123e
000002e0: 808f a83e 656f 18b6 d3b3 9cbe f7cc 323e
000002f0: 64d5 253e 3cff 3f3e 3061 01ab de33 0cbd
00000300: f58f 65be b92d 9c3d 01ed e33d 8d0d 31be
00000310: 42d6 e33d 8e98 7bbe 1de1 2a3e 420a 15be
00000320: caae a0bd 9ada 78be 34b8 3b3e d8d0 1c3e
00000330: 8f68 56bc df98 33bd 70aa 23be 4240 753d
00000340: 4103 9d3c 7be2 953e 2478 403e 3f15 fa3d
00000350: 7f61 0bbe 0e3f a53e a776 6b3e a239 9b3d
00000360: 2669 383e 761c d23d a9e7 1dbe 33c7 5b3e
00000370: be72 1e3c cd13 92be 5a25 a0be 4946 393e
00000380: 5e35 ccbc 25a3 913d 9eff fabd 46e6 853e
00000390: 93fa f33d 44b2 5bbe b2bb 3521 fb28 413d
000003a0: 32df 793e 3fd5 e7bd aeaf 623e 2b73 12bd
000003b0: 0a64 92be 92eb 90bd 825e 083e 2b83 b93d
000003c0: 0e5a 7abd a606 57be 93a0 58be 9708 95be
000003d0: 5e7f a8be 8257 86bd 56a1 873e 5c76 943e
000003e0: 0d5f 723c 7e0c 98be 20c4 5624 eb21 20be
000003f0: 17d4 49bd 9bfd 1f3d bd8a fcbd 9597 63bd

weight_hh_l0 f4 [27, 9]
-0.11119351 -0.20184326 -0.10585865 0.15859024 0.21383296 -0.15091966 -0.301328 -0.22300394
-0.17392635 -0.31630233 0.30841842 -0.2501602 -0.26851225 -0.24297984 -0.06157106 -0.0056329533
0.16609298 -0.2076076 0.037772473 -0.013811884 -0.0747449 0.29891142 0.32461727 -0.012632279
0.034331735 -0.04263717 0.19430216 -0.1825307 0.26786563 0.082111605 -0.05902508 0.32841274
-0.122940615 -0.20512296 0.101869285 0.0017672676 -0.064538546 0.25718492 -0.11716696 0.017945977
-0.19026393 -0.2750498 0.16315284 0.21134287 0.24095358 -0.26458624 0.23531166 -0.089603186
-0.058288157 -0.14442615 -0.20981818 0.14588934 -0.32333425 -0.18752351 0.09275065 0.11745136
0.24221247 -0.2459698 -0.32130802 0.07418777 -0.2497869 0.15189831 -0.29799813 -0.3017805
0.070655935 -0.31293318 -0.14370698 -0.20643544 0.1482461 0.32793468 0.20434561 -0.19834092
-0.31768435 0.07240082 -0.010805627 0.07662744 -0.30768704 0.22798346 0.008264545 0.16971369
0.29457477 -0.029645953 -0.039302513 -0.072023794 0.020906856 -0.3296086 0.12950161 -0.09814591
-0.029604334 0.13468549 0.08221298 0.11303415 0.070138276 0.32656446 -0.09565482 -0.16097523
0.15360296 0.3267124 -0.04637014 -0.20143121 -0.27335832 -0.040428523 0.30869588 -0.14353305
0.12240468 -0.15320513 0.15689102 0.32189968 -0.2639436 0.01611314 0.07490579 -0.1114497
-0.173211 -0.21989432 -0.101998776 0.014237541 -0.016311973 -0.3169217 0.17348903 -0.060156547
-0.33392096 0.30994448 -0.23448545 -0.13218644 -0.17944516 -0.27782434 -0.2044769 0.31981465
-0.27734908 -0.27804267 -0.31047273 0.33452109 -0.29359838 -0.04081465 0.11016741 0.3230918
-0.006645508 -0.15859474 -0.20276272 0.24011375 0.3258197 0.1301395 0.25087342 -0.09474158
-0.258715 -0.24592192 -0.12834594 0.10243614 -0.21917184 0.13240223 -0.28136182 0.2726634
-0.056324035 0.13197507 -0.08254103 -0.1139005 -0.0714939 0.29219976 -0.24618198 -0.31709975
0.25889984 0.2914216 0.21318543 -0.29955953 0.20755574 0.14004204 0.3226783 -0.110637836
0.11480595 -0.18339579 0.22899204 -0.1655251 0.14111677 0.1749916 0.10734876 -0.3208724
-0.09134604 0.3103664 -0.097578935 0.050710373 -0.1851805 -0.12081142 -0.117552124 -0.22851476
0.23152961 0.23866966 -0.2730869 -0.10066133 0.14662194 0.20676939 0.29311615 0.2579865
-0.27944234 -0.2739405 -0.3199372 0.19227956 -0.2912744 -0.058976013 0.21109681 -0.026954666
-0.18701021 0.19119853 -0.28061584 0.312697 0.09668335 0.2278794 0.043504626 -0.26335776
-0.03348705 0.19504373 -0.24837473 0.3117091 -0.29493317 -0.08854815 -0.2603491 -0.20777899
-0.32933047 0.012830818 0.087552875 -0.20113398 -0.17557795 0.103495464 0.25708497 0.098680235
0.083779745 -0.010509058 0.3062793 0.04105484 -0.15599906 -0.22480461 0.18323356 0.18471286
0.27114254 -0.16663021 -0.32073402 0.0071922513 -0.044872638 -0.24224184 -0.23844758 -0.04073314
0.25714797 -0.15899464 -0.15563375
00000000: 6cb9 e3bd 00b0 4ebe 6bcc d8bd 7b65 223e
00000010: 07f7 5a3e af8a 1abe aa47 9abe 255b 64be
00000020: c019 32be 61f2 a1be 05e9 9d3e ff14 80be
00000030: 707a 89be b5cf 78be f031 7cbd a394 b8bb
00000040: 4714 2a3e 1697 54be 4fb7 1a3d 3e4b 62bc
00000050: db13 99bd eb0a 993e 3c34 a63e 9ef7 4ebc
00000060: 6f9f 0c3d 50a4 2ebd 25f7 463e 54e9 3abe
00000070: af25 893e 212a a83d 48c4 71bd b725 a83e
00000080: 4ac8 fbbd c10b 52be d8a0 d03d a9a3 e73a
00000090: c92c 84bd bead 833e 3bf5 efbd 7103 933c
000000a0: 8cd4 42be 54d3 8cbe 8a11 273e 446a 583e
000000b0: 89bc 763e d977 87be 8af5 703e e081 b7bd
000000c0: 90bf 6ebd 73e4 13be 94da 56be 0464 153e
000000d0: 118c a5be 2a06 40be 0ef4 bd3d 578a f03d
000000e0: 8c06 783e 82df 7bbe 7c82 a4be c2ef 973d
000000f0: 23c8 7fbe 3b8b 1b3e 3693 98be f982 9abe
00000100: 0fb4 903d c738 a0be ec27 13be d063 53be
00000110: d3cd 173e 0ee7 a73e fa3f 513e e219 4bbe
00000120: 86a7 a2be e246 943d 160a 31bc d9ee 9c3d
00000130: 2889 9dbe 7f74 693e 0468 073c 6dc9 2d3e
00000140: 81d2 963e 12dc f2bc acfb 20bd 3681 93bd
00000150: db44 ab3c 75c2 a8be 129c 043e b900 c9bd
00000160: ca84 f2bc feea 093e 475f a83d 737e e73d
00000170: a8a4 8f3d 7533 a73e ade6 c3bd b1d6 24be
00000180: 184a 1d3e d946 a73e 9eee 3dbd fc43 4ebe
00000190: 9ff5 8bbe 6198 25bd 630d 9e3e 54fa 12be
000001a0: 4eaf fa3d cee1 1cbe 0aa8 203e 09d0 a43e
000001b0: 9e23 87be b4ff 833c 3568 993d be3f e4bd
000001c0: 395e 31be fa2b 61be bce4 d0bd 9344 693c
000001d0: b0a0 85bc 9043 a2be 1ca7 313e b666 76bd
000001e0: b0f7 aabe 0bb1 9e3e f41c 70be e25b 07be
000001f0: 79c0 37be fe3e 8ebe 6462 51be bfbe a33e
00000200: b300 8ebe 9c5b 8ebe 48f6 9ebe 5946 ab3e
00000210: 8752 96be 432d 27bd 739f e13d 4a6c a53e
00000220: 90c2 d9bb a966 22be 08a1 4fbe 61e0 753e
00000230: d7d1 a63e 4a43 053e 7b72 803e e007 c2bd
00000240: 4b76 84be f5d2 7bbe 1e6d 03be 0aca d13d
00000250: 956e 60be 7394 073e a80e 90be 8a9a 8b3e
00000260: 08b4 66bd 7924 073e 460b a9bd aa44 e9bd
00000270: 656b 92bd 359b 953e 2117 7cbe e65a a2be
00000280: 858e 843e 3635 953e 484d 5a3e de5f 99be
00000290: 7e89 543e 2e67 0f3e 1736 a53e 1796 e2bd
000002a0: 621f eb3d 1bcc 3bbe e47c 6a3e 697f 29be
000002b0: ea80 103e ff30 333e abd9 db3d 6349 a4be
000002c0: a213 bbbd 58e8 9e3e 77d7 c7bd aeb5 4f3d
000002d0: f59f 3dbe fa6b f7bd 2bbf f0bd c6ff 69be
000002e0: 1916 6d3e d265 743e 0cd2 8bbe 8727 cebd
000002f0: 1024 163e 5bbb 533e 5213 963e ce16 843e
00000300: 1113 8fbe ee41 8cbe cfce a3be efe4 443e
00000310: eb21 95be d590 71bd c329 583e 08d0 dcbc
00000320: 9b7f 3fbe 8cc9 433e e1ac 8fbe d219 a03e
00000330: ec01 c63d 3859 693e e831 323d d4d6 86be
00000340: b829 09bd 8bb9 473e f255 7ebe 5698 9f3e
00000350: 7b01 97be bc58 b5bd 7a4c 85be 04c4 54be
00000360: 019e a8be 5a38 523c ec4e b33d 11f6 4dbe
00000370: b5ca 33be 6ef5 d33d a4a0 833e dd18 ca3d
00000380: b794 ab3d 2f2e 2cbc a4d0 9c3e 1f29 283d
00000390: 38be 1fbe 2e33 66be 94a1 3b3e 5e25 3d3e
000003a0: 32d3 8a3e 1ca1 2abe 4037 a4be faac eb3b
000003b0: 5fcc 37bd 3f0e 78be 9a2b 74be cbd7 26bd
000003c0: e6a8 833e 7ecf 22be 745e 1fbe

bias_ih_l0 f4 [27]
-0.010140971 -0.21441282 -0.16547404 0.22521786 -0.134214 0.3174878 -0.003948815 -0.082987584
-0.016176512 -0.0337388 0.14184515 -0.09652749 0.32092324 0.32790518 0.06075289 -0.12985401
0.14499098 -0.058566853 0.027077643 0.2962913 0.08163949 -0.2528821 -0.09268385 -0.17581254
-0.016533019 0.3049924 0.033764113
00000000: 5126 26bc 098f 5bbe 0772 29be 839f 663e
00000010: 656f 09be c38d a23e 1065 81bb 65f5 a9bd
00000020: 9b84 84bc b231 0abd db3f 113e 34b0 c5bd
00000030: 0d50 a43e 30e3 a73e 06d8 783d 73f8 04be
00000040: 8478 143e cce3 6fbd efd1 dd3c 7eb3 973e
00000050: 9b32 a73d c379 81be 08d1 bdbd 3408 34be
00000060: 4170 87bc f727 9c3e 3d4c 0a3d

bias_hh_l0 f4 [27]
-0.32085362 0.3061158 -0.23924309 0.10817821 0.25527012 0.31385753 0.04955517 0.30320764
-0.0014811491 -0.092269905 -0.29617622 -0.05311811 0.29671925 0.13154963 -0.067613624 -0.284361
0.09484046 0.1583177 -0.020331444 -0.055618357 -0.13401583 0.32108185 0.29061592 -0.026369113
0.107418254 -0.20392005 0.21183613
00000000: ed46 a4be 36bb 9c3e 24fc 74be 8a8c dd3d
00000010: c4b2 823e efb1 a03e 5dfa 4a3d 083e 9b3e
00000020: 1e23 c2ba 01f8 bcbd 69a4 97be 6092 59bd
00000030: 96eb 973e f2b4 063e 0379 8abd c497 91be
00000040: b73b c23d 091e 223e 218e a6bc 13d0 63bd
00000050: 723b 09be d764 a43e 9ccb 943e 0a04 d8bc
00000060: 1afe db3d 6bd0 50be 92eb 583e

weight_ih_l0 f4 [27, 24]
-0.2271473 -0.06672979 -0.031861234 0.3225836 -0.07510945 -0.032217827 0.06635903 -0.05505128
0.20979272 -0.12884678 0.113788016 -0.0075992607 -0.11484238 -0.2593729 -0.06580419 -0.26562244
0.057438884 -0.023734232 -0.044655647 -0.024986101 0.027150936 0.2925674 -0.15559544 -0.10916471
0.020336568 0.29640517 -0.070491694 -0.1382849 0.14080948 0.050323598 -0.29716355 -0.14021681
0.23940693 -0.20043114 0.2274993 0.09396513 -0.3190014 -0.2022384 0.17801788 -0.1047243
0.007541287 -0.18552935 0.21262139 -0.022186253 -0.33091217 -0.12904377 -0.20531635 0.027102845
-0.12888287 0.10359001 0.32919818 0.022752944 0.013633992 -0.026716975 0.013480932 -0.24080588
-0.1482996 0.26700297 0.14070188 0.035333723 0.088000834 -0.056759022 -0.22217573 0.056369156
-0.08104827 0.055664286 0.15343082 -6.9347653e-19 -0.07786635 -0.26945218 -0.113723494 0.0063931225
0.2956542 0.31889394 -0.15108152 -0.2696626 -0.04791689 0.0617715 0.3278335 -0.23221858
0.014640108 -0.16506708 0.0770919 0.018530756 0.084897004 0.16211061 0.07929071 -0.02453154
0.0021448464 0.061758544 0.020599589 -0.03871268 -0.14024487 0.060896073 0.0994909 -0.19263409
0.2900746 0.08513093 -0.094147876 0.23623769 -0.1663053 0.2124527 -0.12954248 -0.015766183
0.2128171 0.1802336 -0.018055761 -0.24358001 0.12060156 0.13023686 0.023481324 0.24282242
0.085441224 -0.29267386 -0.22729696 -0.0334614 0.26749796 -0.04279738 -0.09961888 -0.14490762
0.020675631 -0.2893513 0.11496341 0.0036278176 -0.13743477 0.17763974 -0.13888383 0.049497377
-0.15407321 -0.15926942 -0.017463453 -0.11321476 0.05686981 -0.082218766 0.32268843 0.10221493
0.04491861 -0.30035722 -0.2907336 1.2731642e-15 0.30228636 -0.2849176 0.09204066 -0.11730062
-0.25955492 -0.17642967 -0.26486826 0.15979245 -0.08997258 0.05817671 -0.26675197 -0.26686606
-0.05404137 -0.30151528 0.3028868 -0.031817637 -0.089140974 0.06421183 -0.14704365 -0.2833571
-0.002131295 -0.2606124 0.07115291 4.0152326e-17 -0.24658754 -0.19706279 0.14268568 -0.26924908
0.1345647 -0.101110674 0.08269362 0.2895477 0.19422506 0.07210806 -0.1070769 0.06734114
-0.3290272 -0.24130188 -0.19189307 0.25183666 0.037438516 0.1264039 -0.12332424 0.06286575
0.00026330995 -0.111786775 -0.030463137 -3.1519508e-13 -0.2791615 -0.0072140642 0.14780323 0.21974576
-0.07502686 0.233028 0.26090226 0.11390221 -0.023301398 -0.30220556 0.07661544 0.07181652
0.18153664 0.16969073 0.15468636 -0.2779451 0.11191368 -0.04273939 -0.24588656 0.060766328
1.6535647e-05 0.03438304 0.17553747 -0.0005485286 -0.29168683 -0.042148475 0.29996425 0.2701758
0.14065775 -0.26120213 0.028092287 -0.3232283 0.04608376 0.020460114 0.25156328 0.23512676
-0.115161166 0.16895948 0.18522806 -0.22327104 0.2905886 0.109187275 0.21691561 0.101309404
-0.00231154 0.26508892 -0.027790545 -0.0021135607 -0.18712103 0.2702862 0.16452436 0.069135174
-0.32137418 -0.22584423 -0.109769896 0.23422988 0.013516722 0.0351353 0.24199307 -0.010215202
0.12154722 0.0018055587 0.20148781 0.20059323 -0.32916367 -0.14102972 -0.24727373 -0.27852175
00000000: 4d99 68be a1a9 88bd ed80 02bd ad29 a53e
00000010: fcd2 99bd d7f6 03bd 3ee7 873d 737d 61bd
00000020: e7d3 563e 69f0 03be b109 e93d 3803 f9bb
00000030: 7b32 ebbd 86cc 84be 59c4 86bd aaff 87be
00000040: 0945 6b3d 4b6e c2bc d7e8 36bd a7af ccbc
00000050: a46b de3c 65cb 953e 6954 1fbe bf91 dfbd
00000060: e098 a63c 6bc2 973e f35d 90bd 8f9a 0dbe
00000070: 5c30 103e 1e20 4e3d d225 98be ff94 0fbe
00000080: 1727 753e d23d 4dbe 94f5 683e ca70 c03d
00000090: 2754 a3be 9517 4fbe 524a 363e b279 d6bd
000000a0: e71c f73b 68fb 3dbe 6cb9 593e f2bf b5bc
000000b0: 526d a9be 0d24 04be 733e 52be c906 de3c
000000c0: dff9 03be 0027 d43d aa8c a83e 6264 ba3c
000000d0: 1b61 5f3c 8fdd dabc 21df 5c3c d195 76be
000000e0: dadb 17be 9db4 883e 2714 103e 18ba 103d
000000f0: c839 b43d 267c 68bd 0982 63be 58e3 663d
00000100: a3fc a5bd 3c00 643d f81c 1d3e 9bad 4ca1
00000110: 6578 9fbd a3f5 89be dde7 e8bd 667d d13b
00000120: fd5f 973e 1146 a33e 1db5 1abe 3711 8abe
00000130: 8044 44bd 1d04 7d3d cbd9 a73e b5ca 6dbe
00000140: 10dd 6f3c 5807 29be 5ce2 9d3d d0cd 973c
00000150: 7bde ad3d 5300 263e 2b63 a23d 5ef6 c8bc
00000160: 8d90 0c3b 87f6 7c3d 78c0 a83c 3091 1ebd
00000170: 5a9c 0fbe 296e 793d e3c1 cb3d df41 45be
00000180: a884 943e 2059 ae3d 9ad0 c0bd 4be8 713e
00000190: f04b 2abe 338d 593e c9a6 04be 1528 81bc
000001a0: baec 593e 288f 383e ade9 93bc 0a6d 79be
000001b0: f3fd f63d d05c 053e e85b c03c 71a6 783e
000001c0: cffb ae3d 59d9 95be 89c0 68be d20e 09bd
000001d0: 7ef5 883e 4e4c 2fbd fc04 ccbd aa62 14be
000001e0: f15f a93c db25 94be f071 eb3d aec0 6d3b
000001f0: b3bb 0cbe 31e7 353e 9037 0ebe c3bd 4a3d
00000200: 5ec5 1dbe 8617 23be 840f 8fbc 24dd e7bd
00000210: 51f0 683d 5062 a8bd 6b37 a53e 1056 d13d
00000220: 94fc 373d 6cc8 99be 09db 94be 787b b726
00000230: 47c5 9a3e b8e0 91be d07f bc3d 4f3b f0bd
00000240: 62e4 84be fba9 34be d09c 87be a2a0 233e
00000250: 8b43 b8bd b44a 6e3d b793 88be aba2 88be
00000260: 7c5a 5dbd 3660 9abe fb13 9b3e 3653 02bd
00000270: 8b8f b6bd 7e81 833d 9c92 16be 2f14 91be
00000280: 32ad 0bbb fd6e 85be 9eb8 913d 802b 3924
00000290: 7281 7cbe d4ca 49be 321c 123e 04db 89be
000002a0: 54cb 093e 1d13 cfbd 465b a93d 993f 943e
000002b0: efe2 463e 64ad 933d 224b dbbd 27ea 893d
000002c0: 4176 a8be d717 77be 9e7f 44be bcf0 803e
000002d0: 2159 193d 0670 013e 6b91 fcbd c2bf 803d
000002e0: dd0c 8a39 77f0 e4bd d48d f9bc 6670 b1aa
000002f0: 42ee 8ebe f563 ecbb bb59 173e 0805 613e
00000300: afa7 99bd e49e 6e3e fb94 853e 9045 e93d
00000310: 93e2 bebc b0ba 9abe 8ee8 9c3d 8a14 933d
00000320: bee4 393e 68c3 2d3e 1a66 1e3e d24e 8ebe
00000330: 0033 e53d 800f 2fbd b0c9 7bbe 1de6 783d
00000340: 08b6 8a37 3bd5 0c3d 18c0 333e 22cb 0fba
00000350: fa57 95be e1a3 2cbd ea94 993e 7c54 8a3e
00000360: 9608 103e 49bc 85be cc21 e63c 2e7e a5be
00000370: 53c2 3c3d f89b a73c e7cc 803e 12c5 703e
00000380: 9ed9 ebbd b703 2d3e 6dac 3d3e 2aa1 64be
00000390: 07c8 943e 949d df3d 201f 5e3e 4e7b cf3d
000003a0: 357d 17bb bcb9 873e ffa8 e3bc aa83 0abb
000003b0: a89c 3fbe f462 8a3e 1379 283e be96 8d3d
000003c0: 288b a4be b643 67be 0acf e0bd f5d9 6f3e
000003d0: 3e75 5d3c 08ea 0f3d 08cd 773e aa5d 27bc
000003e0: c0ed f83d 7fa8 ec3a d252 4e3e 5068 4d3e
000003f0: 2488 a8be 186a 10be 5335 7dbe 679a 8ebe

weight_hh_l0 f4 [27, 9]
0.042892054 -0.24795315 -0.0647152 0.1723391 0.05872561 3.253999e-11 -0.13564688 -0.2926779
0.002840526 -0.0082609 0.110095054 -0.08623605 0.017092403 -0.18690977 -0.06980944 0.021001006
-0.32256347 -0.07770512 -0.013559542 0.09402107 0.06684282 0.3348072 -0.117005326 -7.0090064e-05
-0.09954249 -0.28391102 -5.489664e-17 -0.08641071 0.04732106 0.028861027 0.023158388 0.1379208
0.025552718 -0.14992213 -0.079801284 0.010815853 0.0023347829 -0.107519805 1.3030537e-14 -0.32964605
-0.14450696 -0.053067606 0.3153409 -0.20485288 -0.00060319353 0.049015854 -0.12309309 1.1510384e-08
-0.0020353529 -0.3147158 0.02106819 -0.2496745 0.32733336 7.4185165e-09 0.017744875 0.28882045
-0.006093757 -0.31070632 -0.2883981 0.00010283584 -0.23307341 0.104208335 0.0047232495 -0.014063824
0.21035978 -0.06675502 0.2684772 -0.19065163 0.07343985 0.051936805 -0.122215785 -3.2152246e-17
0.008311541 -0.22392759 -0.0005922435 -0.20327441 -0.30227554 -7.9094415e-18 -0.30712304 0.2965861
-0.025483852 0.06449774 -0.17494197 0.009995154 -0.0062573077 0.16903767 0.05014717 0.021006089
0.05073737 -0.08225759 -5.8259994e-11 -0.15608598 8.0056526e-07 -0.15067902 0.15063694 3.640599e-11
0.2679347 0.08147813 0.0011685962 -0.026845986 -0.19479881 0.018396614 -0.18898042 0.050488606
1.2132944e-14 -0.13798653 0.30345693 -5.7847183e-06 -8.650663e-06 -0.12214669 -0.008862403 0.02697549
0.07163565 -0.009150927 0.15256555 0.27381155 6.3584266e-05 -6.648964e-06 -0.14931251 -0.05936702
0.025318494 -0.04793929 0.013563028 0.32140958 0.103674956 -1.101456e-14 -0.03220701 -0.32283506
0.0035393892 -0.04916004 0.25470638 -1.2894341e-15 0.25132588 -0.3090322 0.000188007 -0.06249537
-0.10647032 -0.042702537 -0.2720559 -0.00864329 -7.208742e-19 -0.20361903 0.06179072 -3.581117e-05
-0.08376172 -0.19758224 -0.0057747974 -0.039556414 -0.13700408 -0.0005229956 0.22485115 -0.072858736
0.016116973 0.00044832515 0.23050879 -0.03785926 -0.05016638 0.3224541 0.0016167035 0.3208104
0.0021711937 -0.009651132 -0.024054911 0.1941051 0.08485184 0.3019752 -0.2231294 -0.0049581854
-0.07795275 0.054746926 -4.3276968e-17 -0.020482827 0.26218057 -0.04925148 0.24230589 0.21525703
0.06410304 -0.17441708 -0.065170005 -0.0075438474 -1.1358352e-05 0.16664582 0.04982132 0.31778717
0.3044165 0.045687888 0.29856026 0.079104505 0.0392333 0.0060074623 0.3011276 -0.07735546
0.18654796 -0.040882375 -0.028375808 -0.29900628 0.30146134 0.016327273 -0.013792609 -0.29549196
0.052185945 -0.022840522 0.26224217 0.04190939 0.028416097 -0.16229491 0.0066850944 0.030417364
0.25781858 0.00035910495 -0.0026699272 -0.040729217 -5.3444967e-17 -0.32885483 0.28832757 7.704776e-15
-0.009833259 0.21620068 2.6967898e-12 0.13482837 0.2155095 -1.2716605e-06 0.06759312 -0.051616658
-0.03400643 0.004840655 -0.025191063 -0.0195616 -0.16499679 0.28376684 -2.1833692e-16 -0.0036639152
-0.058256414 0.0002001689 -0.003038946 -0.26864928 2.9586799e-13 0.30007586 -0.3100041 0.0407289
0.20797704 -0.30375087 0.017843736
00000000: 94af 2f3d 6ee7 7dbe 6789 84bd a979 303e
00000010: 448a 703d c61c 0f2e 04e7 0abe e1d9 95be
00000020: 1e28 3a3b ba58 07bc 8479 e13d 879c b0bd
00000030: 5e05 8c3c 4665 3fbe 40f8 8ebd 4d0a ac3c
00000040: 0a27 a5be dd23 9fbd d728 5ebc 1e8e c03d
00000050: e3e4 883d d96b ab3e 7da0 efbd 51fd 92b8
00000060: efdc cbbd c95c 91be 832a 7da4 19f8 b0bd
00000070: bad3 413d f66d ec3c a9b6 bd3c 1c3b 0d3e
00000080: ef53 d13c 3085 19be db6e a3bd fa34 313c
00000090: 2803 193b 5833 dcbd bfbc 6a28 5ec7 a8be
000000a0: a2f9 13be 6b5d 59bd 5d74 a13e f4c4 51be
000000b0: a21f 1eba d9c4 483d 3b18 fcbd 34bf 4532
000000c0: 8e63 05bb 6e22 a1be 3297 ac3c acaa 7fbe
000000d0: 3d98 a73e f6e5 fe31 b35d 913c 46e0 933e
000000e0: 24ae c7bb e614 9fbe eaa8 93be 92a9 d738
000000f0: ccaa 6ebe 2e6b d53d 7dc5 9a3b f46b 66bc
00000100: 8e68 573e dbb6 88bd d875 893e 2e3a 43be
00000110: a267 963d b0bb 543d 454c fabd ac46 14a4
00000120: 212d 083c 464d 65be ca40 1bba 2b27 50be
00000130: dcc3 9abe 48e7 11a3 3b3f 9dbe 22da 973e
00000140: 83c3 d0bc 6417 843d fd23 33be b7c2 233c
00000150: 1a0a cdbb 3618 2d3e 1e67 4d3d f614 ac3c
00000160: fdd1 4f3d ab76 a8bd 761d 80ae 01d5 1fbe
00000170: 6de6 5635 9a4b 1abe 9240 1a3e 801d 202e
00000180: bd2e 893e 01de a63d 952b 993a 1dec dbbc
00000190: 5779 47be 7fb4 963c 1584 41be 24cd 4e3d
000001a0: 5491 5a28 574c 0dbe b55e 9b3e 5a1a c2b6
000001b0: 5122 11b7 0b28 fabd 9d33 11bc b4fb dc3c
000001c0: b6b5 923d c5ed 15bc 253a 1c3e 0731 8c3e
000001d0: 8b58 8538 2a1a dfb6 61e5 18be d52a 73bd
000001e0: bb68 cf3c fd5b 44bd 7637 5e3c cc8f a43e
000001f0: 8953 d43d b16b 46a8 7feb 03bd a34a a5be
00000200: 19f5 673b 0a5c 49bd e068 823e b9d3 b9a6
00000210: c9ad 803e 7839 9ebe bf23 4539 25fb 7fbd
00000220: 1c0d dabd dbe8 2ebd e94a 8bbe 969c 0dbc
00000230: b7c3 54a1 8281 50be 4418 7d3d f333 16b8
00000240: 448b abbd 0053 4abe 833a bdbb e805 22bd
00000250: cc4a 0cbe a419 09ba 613f 663e f636 95bd
00000260: be07 843c 2f0d eb39 7f0a 6c3e 5012 1bbd
00000270: 437b 4dbd b418 a53e 91e7 d33a 4341 a43e
00000280: 964a 0e3b c81f 1ebc ce0e c5bc 7dc3 463e
00000290: cdc6 ad3d 7e9c 9a3e 097c 64be 4678 a2bb
000002a0: b1a5 9fbd 503e 603d 6d94 47a4 9acb a7bc
000002b0: 883c 863e ebbb 49bd 091f 783e 576c 5c3e
000002c0: 7448 833d 649a 32be da77 85bd 6132 f7bb
000002d0: c08f 3eb7 34a5 2a3e 7111 4c3d 00b5 a23e
000002e0: 7bdc 9b3e 3923 3b3d e4dc 983e 8b01 a23d
000002f0: 19b3 203d 3fda c43b 662d 9a3e 8a6c 9ebd
00000300: 6e06 3f3e 4774 27bd 6274 e8bc 5a17 99be
00000310: 2459 9a3e c6c0 853c 65fa 61bc b94a 97be
00000320: eec0 553d 0c1c bbbc 9b44 863e 2ea9 2b3d
00000330: e0c8 e83c a330 26be a30e db3b d62d f93c
00000340: cc00 843e 4046 bc39 f2f9 2ebb aed3 26bd
00000350: ae78 76a4 a95f a8be ac9f 933e 02cc 0a28
00000360: ad1b 21bc b663 5d3e 0cc5 3d2c 7310 0a3e
00000370: 86ae 5c3e ecad aab5 436e 8a3d fd6b 53bd
00000380: 544a 0bbd 5b9e 9e3b 7d5d cebc a63f a0bc
00000390: ebf4 28be e349 913e afb9 7ba5 4c1e 70bb
000003a0: 479e 6ebd 6ee4 5139 0e29 47bb 668c 89be
000003b0: 128f a62a 8ba3 993e dbb8 9ebe 59d3 263d
000003c0: eff7 543e 3c85 9bbe 072d 923c

bias_ih_l0 f4 [27]
-0.12118271 -0.022493914 0.077870645 -0.22212623 0.07099497 0.03235528 0.27457058 0.2940545
0.2928432 -0.29726714 0.11493426 0.2057614 0.0118651865 -0.09757645 -0.042028856 -0.2683006
0.2908973 -0.10303427 -0.09584992 -0.3221288 -0.08315583 0.3295898 0.21005417 0.08444516
-0.09222011 0.26329547 0.27282837
00000000: a42e f8bd 2845 b8bc a57a 9f3d 0f75 63be
00000010: d065 913d f886 043d 8494 8c3e 508e 963e
00000020: 8bef 953e 6633 98be a762 eb3d 1eb3 523e
00000030: 3366 423c 29d6 c7bd 7326 2cbd b25e 89be
00000040: 7ef0 943e a203 d3bd f64c c4bd 11ee a4be
00000050: 9b4d aabd ffbf a83e 7118 573e 96f1 ac3d
00000060: e6dd bcbd aace 863e 29b0 8b3e

bias_hh_l0 f4 [27]
0.1520548 -0.012736258 -0.3257573 -0.1989328 -0.2257543 0.30975863 0.30372345 0.035091516
-0.08174456 0.24187383 -0.32915282 -0.07821883 0.013655547 0.29548338 0.057241913 -0.23577231
-0.055795234 -0.2554498 0.11115073 -0.2970195 -0.3306266 -0.19437742 -0.115976244 -0.1709307
0.23380809 0.202486 -0.20487644
00000000: 41b4 1b3e bdab 50bc a9c9 a6be 0ab5 4bbe
00000010: 232c 67be af98 9e3e a481 9b3e 1fbc 0f3d
00000020: b169 a7bd c6ad 773e b886 a8be 3231 a0bd
00000030: 84bb 5f3c 9949 973e 7f76 6a3d 4c6e 71be
00000040: 8b89 64bd 51ca 82be fea2 e33d f112 98be
00000050: e447 a9be e00a 47be f484 edbd 7508 2fbe
00000060: 636b 6f3e 7d58 4f3e 21cb 51be

weight_ih_l0 f4 [27, 39]
0.06009051 1.625136e-06 0.12350241 0.06385953 0.2438959 -0.17375043 -0.057910357 -0.30103597
0.06380676 0.016113495 -0.17405277 0.011416298 -0.29273894 0.22192776 -0.023078665 -0.14006214
0.09874042 -0.15138401 -0.30590528 0.29283735 -0.27955568 0.22699986 0.32819414 0.06774072
-0.1270058 0.160062 0.27782968 -0.22348571 -0.29097465 -0.0077261887 -0.12392099 0.2533802
-0.15553354 0.27035224 0.2655364 0.32217163 -0.16766961 -0.23801039 0.3186126 0.2733741
2.5892691e-14 0.27414194 0.15594485 0.0039359974 0.15489303 -0.0024798603 -0.04432296 -0.023739314
-0.06445129 -0.028124318 0.32731912 -0.21727496 -0.02396842 -0.225849 -0.040385842 -0.0057677836
0.084289595 -0.07700673 -0.24043535 -0.087762065 -0.0974699 -0.084074646 0.2335306 0.1858288
-0.10718605 0.25903285 -0.31323788 0.21559934 -0.1038853 0.11424027 0.023188964 0.32117158
0.21794578 0.26263478 -0.061358437 0.029440518 0.33281004 -0.18652242 -0.17370237 0.013864172
-0.048555974 0.23956496 -0.005302846 -0.16878714 -0.07086037 -0.10752607 0.07766041 -0.22645856
-0.1802933 -0.25610688 0.3278012 -0.062354885 0.28142112 0.08785832 0.13170311 0.08544562
-0.1807422 0.29170895 -0.31747174 0.16739929 0.2368571 -0.021880623 0.047723673 0.025701143
-0.11236665 0.17136844 -0.30498526 -0.23530854 0.10802634 0.12063307 -0.2769626 0.070917174
-0.30571768 0.19430043 0.1010845 0.16809931 0.20402281 -0.0924202 0.04119016 -0.21809638
-0.24663809 0.16205114 0.09574138 -2.9106389e-13 0.24144451 0.00020682113 0.2939783 -0.2687708
0.1840157 0.014963516 0.2425585 -0.18629172 -0.03776434 0.012925325 0.2531097 0.07922536
-0.10116517 -0.2409134 0.238803 -0.22102447 -0.013122235 -0.16222319 -0.26176575 -0.056229614
-0.3156699 0.1446107 0.067179084 -0.22300361 0.31497362 -0.11848391 -0.1139539 0.2563251
-0.14257081 0.11581428 0.16975708 0.15746702 -0.19980112 -0.06190119 -0.11159493 -0.30181563
0.02566378 0.19229653 0.0013532755 -0.20129989 0.0077624083 -0.12532882 -0.13177799 -0.13922977
-0.039008304 -0.09221051 0.3280427 -0.1892812 -0.28260395 0.105556644 0.19825594 0.32367244
0.027050626 0.13518803 -0.30953664 0.124860115 -0.16663298 -0.25384423 0.17093438 -0.032903183
-0.1634856 0.27410364 -0.17645279 -0.27688643 -0.23257987 -0.044989742 0.030866168 -0.2396956
-0.2572479 0.19850685 -0.13768183 -0.26145712 -0.002816195 -0.101557724 -0.24035755 0.20494743
-0.022933923 0.0012920345 -0.3138294 -0.11867848 -0.086024135 -0.016206332 -0.0028053445 -0.1147507
0.2808458 -0.29615977 -0.038757212 0.21074578 0.0047999234 0.15547878 0.09585406 -0.17098548
-0.13033886 -0.1600149 0.23059067 0.29711622 -0.066011086 -0.11780417 -0.013250767 -0.3311832
0.001988085 0.15875633 -0.2904562 0.20345716 -0.015023072 0.2166664 -0.14530529 0.2919795
-0.11760288 0.26733932 0.26441643 0.064072035 0.2999983 0.031374507 0.32602054 -0.16671504
0.0009841205 -0.26995125 -0.068092756 0.21044998 0.00027038928 -0.18812238 -0.3300973 -0.15215896
0.10037 0.07012906 -0.16396545 0.17867728 -0.08246627 -0.11597494 0.27120298 0.25300476
00000000: 7721 763d 3f1f da35 d5ee fc3d c9c8 823d
00000010: d9bf 793e a2eb 31be 6933 6dbd 6321 9abe
00000020: 1ead 823d 7300 843c e43a 32be 6d0b 3b3c
00000030: e1e1 95be 0841 633e 780f bdbc 736c 0fbe
00000040: 6b38 ca3d 6904 1bbe 9e9f 9cbe c7ee 953e
00000050: ec21 8fbe a772 683e 1009 a83e a6bb 8a3d
00000060: cf0d 02be 4be7 233e b13f 8e3e 70d9 64be
00000070: a1fa 94be f82b fdbb 4aca fdbd 0dbb 813e
00000080: 2f44 1fbe 9c6b 8a3e 63f4 873e aef3 a43e
00000090: 95b1 2bbe ffb8 73be 3121 a33e b1f7 8b3e
000000a0: 7b38 e928 555c 8c3e 02b0 1f3e 8af9 803b
000000b0: 479c 1e3e 2785 22bb fe8b 35bd f378 c2bc
000000c0: 0aff 83bd f864 e6bc 5f96 a73e 547d 5ebe
000000d0: 6c59 c4bc f644 67be a06b 25bd adff bcbb
000000e0: 06a0 ac3d b4b5 9dbd af34 76be 99bc b3bd
000000f0: 4d9e c7bd 542f acbd a522 6f3e e849 3e3e
00000100: 5c84 dbbd f49f 843e b760 a0be 13c6 5c3e
00000110: d1c1 d4bd cdf6 e93d c8f6 bd3c 9a70 a43e
00000120: 2e2d 5f3e 1178 863e fc52 7bbd 3e2d f13c
00000130: 1466 aa3e bcff 3ebe 09df 31be 8d26 633c
00000140: a1e2 46bd 8450 753e 7fc3 adbb 89d6 2cbe
00000150: 3e1f 91bd a136 dcbd 6c0c 9f3d c1e4 67be
00000160: cf9e 38be 7120 83be 8fd5 a73e d667 7fbd
00000170: 6e16 903e 10ef b33d 2edd 063e 1dfe ae3d
00000180: 7c14 39be e05a 953e a88b a2be b86a 2b3e
00000190: ab8a 723e fe3e b3bc e679 433d 348b d23c
000001a0: 7c20 e6bd 357b 2f3e 0727 9cbe b9f4 70be
000001b0: ea3c dd3d 790e f73d 0bce 8dbe 063d 913d
000001c0: 0787 9cbe b1f6 463e 6405 cf3d 3a22 2c3e
000001d0: 5beb 503e cd46 bdbd 03b7 283d a854 5fbe
000001e0: b28e 7cbe bcf0 253e 0e14 c43d bada a3aa
000001f0: 3b3d 773e 20de 5839 5384 963e 549c 89be
00000200: 9d6e 3c3e 8929 753c 4161 783e 42c3 3ebe
00000210: c8ae 1abd bec4 533c 9897 813e e840 a23d
00000220: af2f cfbd 01b2 76be c688 743e 3d54 62be
00000230: a5fe 56bc d61d 26be 2906 86be 0651 66bd
00000240: 7c9f a1be d414 143e 3095 893d 0f5b 64be
00000250: 3944 a13e b1a7 f2bd aa60 e9bd 0b3d 833e
00000260: 15fe 11be 0a30 ed3d cdd4 2d3e 093f 213e
00000270: aa98 4cbe 1a8c 7dbd e28b e4bd 9487 9abe
00000280: d93c d23c 62e9 443e 6460 b13a 8f21 4ebe
00000290: cd5b fe3b 3356 00be cff0 06be 4092 0ebe
000002a0: 2cc7 1fbd ddd8 bcbd 36f5 a73e eed2 41be
000002b0: 77b1 90be 152e d83d 9b03 4b3e 65b8 a53e
000002c0: 4699 dd3c bb6e 0a3e 967b 9ebe a9b6 ff3d
000002d0: d6a1 2abe dff7 81be 6c09 2f3e 7dc5 06bd
000002e0: c568 27be 5057 8c3e 0ab0 34be 0fc4 8dbe
000002f0: 6b29 6ebe 2a47 38bd 0cdb fc3c c372 75be
00000300: ffb5 83be 6145 4b3e 77fc 0cbe b5dd 85be
00000310: e98f 38bb 7ffd cfbd 4a20 76be bddd 513e
00000320: ecdf bbbc 7c59 a93a 3fae a0be b40d f3bd
00000330: 6c2d b0bd 24c3 84bc dfd9 37bb 6a02 ebbd
00000340: 05cb 8f3e 41a2 97be e2bf 1ebd becd 573e
00000350: ad48 9d3b d435 1f3e 224f c43d d116 2fbe
00000360: 8d77 05be f2da 23be f61f 6c3e 9e1f 983e
00000370: d230 87bd 5043 f1bd bf19 59bc d890 a9be
00000380: 884a 023b 0591 223e adb6 94be 1357 503e
00000390: 5523 76bc ccdd 5d3e e9ca 14be 567e 953e
000003a0: c7d9 f0bd b3e0 883e 9761 873e 3338 833d
000003b0: 6199 993e 8e82 003d 2aec a63e 59b7 2abe
000003c0: 9bfd 803a 0d37 8abe 3774 8bbd 3380 573e
000003d0: 09c3 8d39 27a3 40be 8302 a9be 8fcf 1bbe
000003e0: c98e cd3d d39f 8f3d 8fe6 27be 2df7 363e
000003f0: 13e4 a8bd 4584 edbd 1edb 8a3e d789 813e

weight_hh_l0 f4 [27, 9]
-0.031151297 -0.08679656 0.15975235 0.1756499 -0.22770333 -0.2267457 0.0023744567 0.23979943
0.044681 -0.18032672 -0.03835295 -0.1759202 -0.26424903 -0.2655756 0.23290192 -0.26108047
-0.11697678 -0.008662933 -0.12841329 -0.2522062 -0.13002278 -0.11371493 0.2725605 0.21526085
0.15041383 0.29060927 0.023147343 -0.11280739 -0.32631257 -0.016831564 0.024194337 -0.0020586194
0.22096953 0.08377309 0.32691714 0.26314178 -0.27065596 -0.07248274 0.07483623 0.2123339
0.12887546 -0.14325589 0.08807881 -0.19666597 -0.040218312 -0.0015488674 0.22911373 0.008643904
0.100919455 -0.247545 -0.09697675 -0.2112152 0.17026508 0.14421313 -0.1156272 -0.11647937
-0.036218207 0.3276224 0.0007472459 0.19323769 -0.16250166 -0.27791983 -0.286317 0.22833781
-0.12353121 0.090269 -0.19108044 -0.009653285 0.31027076 0.2467075 -0.15291943 0.15069328
-0.25642693 0.071553454 -0.055801697 0.2501737 -0.22692536 -0.019772325 -0.14892821 0.19881949
-0.04677444 0.23057799 0.14324974 0.052348368 0.17912747 -0.028412078 0.23760876 0.13321996
-0.028497241 0.005742341 0.3275917 0.17103522 -0.21166496 -0.28247717 -0.32625288 -0.2916612
-0.29414025 -0.19843584 0.23891236 0.11680387 0.30282065 0.28858998 -0.1783339 0.19637126
-0.28502545 0.1611341 -0.31073242 -0.24833481 -0.30523634 -0.3295906 -0.004244089 0.15067828
0.07636042 -0.03316542 0.16911682 -0.1702509 -0.15222259 -0.22924136 -0.22791745 0.049647402
0.23298135 0.31218442 0.25401357 -0.11781125 -0.049418934 -0.16581528 0.18657927 -0.18448406
-0.32746223 0.03334018 -0.18845306 -0.1305337 0.21694542 0.1691107 -0.29135412 -0.21552823
0.3296862 0.08174291 0.019438144 -0.24116631 -0.055293035 -0.12930143 -0.28178883 -0.034342673
0.15793312 0.19081357 0.17960444 0.22132237 0.15950985 0.09507825 -0.11082122 -0.21437764
0.18340984 0.15430534 0.31580645 -0.039725717 0.18207155 -0.23979057 -0.0366411 0.21176763
0.016428577 -0.21930173 -0.13272311 -0.25381887 0.08729297 0.057096846 -0.10896435 -0.30223745
0.30847463 -0.08254258 0.19774014 -0.07114438 0.19901147 0.26726612 0.2364953 0.24008013
0.19577128 -0.11860452 0.15035763 -0.061993375 0.08814764 0.23112045 -0.04894561 -0.07179754
0.07368279 0.22662717 -0.035832044 -0.26671037 -0.28898004 0.12213529 -0.25789472 -0.090284996
0.124007516 0.289341 -0.1203644 -0.065286815 -0.010316609 -0.051510774 0.31450593 -0.08401222
0.18474384 0.28564978 -0.2783877 0.20128325 0.13595423 0.32065862 0.22751455 0.14662516
0.06387407 -0.18198091 0.08512843 0.17013732 -0.31510672 -0.09352782 0.31111178 -0.01071107
-0.2677889 -0.3004427 -0.28538102 -0.24898916 -0.30630866 0.06400197 -0.19350438 0.21211492
-0.13114387 0.1800164 -0.08283335 -0.28409326 -0.27339914 -0.33357516 -0.18434942 0.2921511
0.03694218 -0.18821123 0.21903008 -0.13997035 -0.17817667 0.11917101 -0.11207944 0.13635105
0.23396358 -0.15063941 0.21189128
00000000: 0131 ffbc 65c2 b1bd 1f96 233e 91dd 333e
00000010: 102b 69be 0630 68be c69c 1b3b fb8d 753e
00000020: 6d03 373d 91a7 38be fc17 1dbd 6d24 34be
00000030: a64b 87be 86f9 87be d77d 6e3e 57ac 85be
00000040: 8691 efbd f9ee 0dbc c67e 03be 2c21 81be
00000050: b124 05be 60e3 e8bd 0d8d 8b3e 576d 5c3e
00000060: 1506 1a3e bdca 943e 7f9f bd3c 9007 e7bd
00000070: 7112 a7be 59e2 89bc 3433 c63c e7e9 06bb
00000080: d645 623e 3a91 ab3d af61 a73e 85ba 863e
00000090: 6b93 8abe d571 94bd bd43 993d 0f6e 593e
000000a0: eef7 033e acb1 12be aa62 b43d ce62 49be
000000b0: f5bb 24bd 5e03 cbba ca9c 6a3e 299f 0d3c
000000c0: dcae ce3d 707c 7dbe bf9b c6bd cc48 58be
000000d0: f859 2e3e 9bac 133e f4cd ecbd bc8c eebd
000000e0: 8b59 14bd 20be a73e d3e2 433a 1ae0 453e
000000f0: d666 26be 824b 8ebe 2498 92be 63d1 693e
00000100: eefd fcbd f4de b83d 97aa 43be d028 1ebc
00000110: cfdb 9e3e e4a0 7c3e e996 1cbe 574f 1a3e
00000120: 644a 83be 9e8a 923d 5290 64bd c416 803e
00000130: 1f5f 68be 92f9 a1bc a380 18be 5697 4b3e
00000140: 8e96 3fbd a31c 6c3e 0fb0 123e 3e6b 563d
00000150: 316d 373e 72c0 e8bc b64f 733e d06a 083e
00000160: 0c73 e9bc 3f2a bc3b 19ba a73e db23 2f3e
00000170: b3be 58be d9a0 90be 9e0a a7be 9e54 95be
00000180: 8d99 96be c432 4bbe 71a5 743e de36 ef3d
00000190: 4f0b 9b3e 11c2 933e 299d 36be 8c15 493e
000001a0: dbee 91be 5600 253e 5218 9fbe 7b4b 7ebe
000001b0: f047 9cbe 19c0 a8be 0012 8bbb 684b 1a3e
000001c0: da62 9c3d 77d8 07bd f62c 2d3e 4056 2ebe
000001d0: 3de0 1bbe 3fbe 6abe 3163 69be 135b 4b3d
000001e0: aa92 6e3e a3d6 9f3e 110e 823e 0647 f1bd
000001f0: 826b 4abd 7bcb 29be a30e 3f3e 64e9 3cbe
00000200: 21a9 a7be b68f 083d d7f9 40be a0aa 05be
00000210: f126 5e3e 5b2b 2d3e 5e2c 95be 6fb3 5cbe
00000220: a1cc a83e d468 a73d be3c 9f3c 4df4 76be
00000230: f37a 62bd 9867 04be a046 90be e7aa 0cbd
00000240: 38b9 213e a264 433e 3aea 373e 55a2 623e
00000250: 8d56 233e 63b8 c23d 3cf6 e2bd d085 5bbe
00000260: cacf 3b3e 3802 1e3e 62b1 a13e 6fb7 22bd
00000270: f770 3a3e a98b 75be fa14 16bd 9dd9 583e
00000280: 3995 863c a290 60be 91e8 07be 8cf4 81be
00000290: a8c6 b23d 62de 693d b328 dfbd debe 9abe
000002a0: 63f0 9d3e 160c a9bd 647c 4a3e 25b4 91bd
000002b0: aac9 4b3e 1bd7 883e d32b 723e 91d7 753e
000002c0: 4478 483e ede6 f2bd 5af7 193e c4ec 7dbd
000002d0: c086 b43d d7aa 6c3e 317b 48bd 970a 93bd
000002e0: 01e7 963d f410 683e 9fc4 12bd 438e 88be
000002f0: 31f5 93be 1122 fa3d c70a 84be 57e7 b8bd
00000300: a7f7 fd3d 8124 943e 9c81 f6bd 18b5 85bd
00000310: ff06 29bc f6fc 52bd ec06 a13e 990e acbd
00000320: 7d2d 3d3e b040 923e d588 8ebe 321d 4e3e
00000330: 9637 0b3e 5e2d a43e 93f9 683e e824 163e
00000340: 69d0 823d 3459 3abe d057 ae3d 7a38 2e3e
00000350: ab55 a1be 848b bfbd 0b4a 9f3e 7c7d 2fbc
00000360: a01b 89be a0d3 99be 761d 92be 04f7 7ebe
00000370: 7dd4 9cbe 7713 833d 0326 46be a734 593e
00000380: 944a 06be 3856 383e 88a4 a9bd ac74 91be
00000390: f9fa 8bbe 5dca aabe 18c6 3cbe d494 953e
000003a0: af50 173d 72ba 40be 6c49 603e 6354 0fbe
000003b0: f273 36be ee0f f43d e889 e5bd 9c9f 0b3e
000003c0: 2694 6f3e 3841 1abe 07fa 583e

bias_ih_l0 f4 [27]
-0.0038073212 0.07291793 0.062491454 0.31148034 -0.11794237 -0.15946859 -0.16314307 -0.14540985
-0.2393663 0.058089875 -0.24322478 -0.12835985 -0.17892753 0.32767966 0.29248902 -0.15141222
0.029968606 0.2586219 -0.3277163 0.23645054 0.10670504 -0.045068633 0.048133288 0.1036239
-0.024166945 -0.08674598 -0.026005855
00000000: 4084 79bb ff55 953d 0af7 7f3d 5a7a 9f3e
00000010: c58b f1bd bc4b 23be fa0e 27be 52e6 14be
00000020: 701c 75be a6ef 6d3d eb0f 79be c470 03be
00000030: c738 37be a1c5 a73e 1fc1 953e ce0b 1bbe
00000040: b980 f53c 176a 843e 6eca a7be 1720 723e
00000050: 2c88 da3d e399 38bd 6927 453d c438 d43d
00000060: c2f9 c5bc e0a7 b1bd 3b0a d5bc

bias_hh_l0 f4 [27]
0.24795173 -0.00936298 -0.20250352 0.1538995 0.2785745 -0.23236252 0.13259573 0.19675364
-0.16678487 0.31348023 -0.2739013 0.32500005 -0.08300577 0.014516786 -0.15997525 0.2905647
0.25987685 0.25878078 -0.14959368 0.32159576 -0.14585106 -0.29314673 0.203232 0.2254551
0.28348434 0.11751442 0.28650787
00000000: 0fe7 7d3e 2f67 19bc 155d 4fbe d597 1d3e
00000010: 51a1 8e3e 71f0 6dbe 2dc7 073e c979 493e
00000020: a7c9 2abe 7b80 a03e cb3c 8cbe 6866 a63e
00000030: eefe a9bd d0d7 6d3c 8dd0 23be e5c4 943e
00000040: 940e 853e ea7e 843e 162f 19be 33a8 a43e
00000050: fb59 15be 5417 96be 0d1c 503e b4dd 663e
00000060: dc24 913e 66ab f03d 29b1 923e

weight f4 [9, 9]
-0.23174378 0.10582588 -0.057832103 0.27112994 0.015545261 -0.27436832 -0.026201949 0.33480656
-0.17692134 -0.056954663 -0.0010961494 0.010802239 6.3915513e-07 -0.0032503027 -6.484572e-05 -0.00019761725
-0.055334076 0.05692393 0.10175963 0.059777234 -0.07902237 0.13465723 -0.3261586 0.1554468
0.044948805 -0.32277304 0.16112645 -0.3163645 -0.22652814 -0.21685636 0.11934784 -0.2059093
-0.31283462 -0.0050278218 0.09400288 0.17973895 0.13772081 0.02328837 -0.15088448 0.2363103
0.12975891 0.31194943 0.24312072 -0.17454407 0.009583111 0.12809493 -0.09884022 -0.30757418
-0.113045596 0.12563188 -0.06449214 0.03464888 0.31867814 0.10517851 -0.0062294267 0.03463081
0.056444217 -8.9840933e-17 -0.033835787 -0.001681392 0.00037501298 -0.025544263 0.03152713 -0.06562283
-0.20404974 0.3105245 0.032827128 0.120673895 -0.21120775 0.042105254 -0.14149418 -0.062846385
0.024032043 -0.049151182 -0.21002023 -0.12608567 -0.16434614 0.23624201 -0.299871 0.14587525
0.031792566
00000000: 3e4e 6dbe 3dbb d83d 5be1 6cbd 8bd1 8a3e
00000010: 8db1 7e3c 017a 8cbe 78a5 d6bc c46b ab3e
00000020: de2a 35be 4b49 69bd acac 8fba e0fb 303c
00000030: 6892 2b35 0803 55bb c8fd 87b8 7a37 4fb9
00000040: fca5 62bd 1129 693d 5a67 d03d f9d8 743d
00000050: 7bd6 a1bd 96e3 093e 43fe a6be 722d 1f3e
00000060: 3d1c 383d 8242 a5be 55fe 243e 87fa a1be
00000070: fef6 67be 980f 5ebe a46c f43d e3d9 52be
00000080: dc2b a0be 6dc0 a4bb 9584 c03d 7d0d 383e
00000090: af06 0d3e 40c7 be3c 7681 1abe 54fb 713e
000000a0: 85df 043e d6b7 9f3e a3f4 783e aebb 32be
000000b0: 7b02 1d3c 512b 033e be6c cabd 5d7a 9dbe
000000c0: 7384 e7bd a5a5 003e 7514 84bd fceb 0d3d
000000d0: c829 a33e d567 d73d 3820 ccbb 09d9 0d3d
000000e0: 0d32 673d ba28 cfa4 6597 0abd 2762 dcba
000000f0: 649d c439 3442 d1bc 9822 013d 4365 86bd
00000100: 6af2 50be 11fd 9e3e bd75 063d e023 f73d
00000110: d846 58be 8f76 2c3d dae3 10be 9bb5 80bd
00000120: d9de c43c c052 49bd 8b0f 57be 9a1c 01be
00000130: 5b4a 28be 6de9 713e b188 99be 5260 153e
00000140: ec38 023d

bias f4 [9]
0.11522724 -0.045273587 0.22778524 -0.10717813 0.30985862 -0.093305886 -0.0030231588 0.2809996
-0.053872216
00000000: 42fc eb3d cc70 39bd 8940 693e 3580 dbbd
00000010: caa5 9e3e 2817 bfbd 3020 46bb 2edf 8f3e
00000020: 1da9 5cbd

weight f4 [720, 18]
-0.14668159 0.031882986 -0.07556311 0.21183237 -0.05613534 0.018472876 0.020680116 -0.024316339
0.1259583 -0.20542842 -0.2233107 0.017699385 -0.21132189 -0.038824134 0.21975784 0.106845334
0.015711742 -0.1312885 0.05789719 -0.20110792 0.19797568 -0.11203332 -0.19241619 0.23232447
0.041371346 -0.1614585 0.123367436 -0.13917352 0.16928591 -0.15605915 0.17929605 -0.14841276
0.00015395114 0.20836532 0.0708075 -0.13874531 0.102638036 0.18058522 -0.1796825 -0.053237114
-0.16453956 -0.20715807 0.021734461 -0.04594312 -0.1349176 -0.06033312 0.21005294 -0.14074242
-0.16513559 -0.02692964 -0.09214718 0.009689333 -0.005612356 0.15913373 0.05891176 -0.01887661
-0.2070479 -0.031735495 0.103645965 0.23663026 0.20727268 0.13857985 0.035887815 -0.08001974
0.20655662 -0.188516 0.057291076 0.076493464 0.06135171 -0.07483143 -0.18436138 -0.2150076
0.0038685584 0.15824284 0.029678477 2.028523e-05 0.09747185 0.00936629 -0.20473742 0.08080205
-0.0862477 0.04966143 0.07857765 0.22916341 0.03821894 -0.011325556 -0.004631904 0.20270638
-0.076056734 -0.18617553 0.011150384 0.011397125 0.00054915145 -0.0010222998 -2.7862592e-07 -8.7892366e-18
3.1406827e-05 -0.02363714 0.014352039 0.00010451553 -0.01839499 4.7335848e-07 -0.004422616 0.016724568
3.0036026e-11 0.00028517123 -0.011871432 1.15588155e-05 -0.18309036 0.19663809 0.1521221 -0.2266372
-0.033602167 -0.034437343 0.221039 0.12305834 0.18564126 0.14329022 0.07251025 0.16345736
0.08859995 0.15887001 0.034908593 -0.07706096 -0.11541345 -0.019010302 0.20371994 0.18018219
0.16504365 0.028031727 -0.09807926 -0.1273697 -0.13469101 0.23092616 0.12674275 -0.18044208
0.21734463 -0.23655058 -0.1818287 0.029434912 -0.01395393 -0.0674468 0.014837824 0.009944485
0.026062949 -0.10923125 -0.053833462 -0.0028948141 0.06387124 0.23849784 -0.13007696 0.12835243
0.026951492 -0.19729726 0.07217926 -0.0475462 0.04930282 0.14463302 -0.055959698 -0.21834227
-0.18890367 0.030826462 -0.09353178 -0.015434141 -0.13878262 0.060976442 0.2354762 0.050459716
0.12870519 -0.20263916 -0.13501461 -0.18168138 0.0007740721 -0.04655864 0.1788447 -0.04853484
-0.049975403 0.010982062 -0.205494 0.19764829 0.16295953 -0.056889087 -0.17988604 0.07794824
-0.118530914 -0.049009874 0.13221093 0.17813374 -0.2281609 -0.17105983 0.02977416 0.17317154
-0.0722449 -0.08991103 0.22518411 -0.14387177 0.1200387 0.040506158 0.15116891 0.23625547
-0.14401022 0.19859596 -0.07805515 0.013427706 -0.061921354 0.16076905 -0.097659744 -0.15574773
-0.055990137 -0.20682178 -0.121898785 0.1626763 0.08344291 0.029065654 -0.1111532 -0.06686764
0.111365974 0.15553817 -0.22522624 0.12416413 0.12124426 -0.09274244 -0.11816026 0.027114045
-0.11462734 0.053716037 -0.20431547 -0.04183888 -0.0035697885 -0.22352038 -0.1341432 -0.10799515
0.15798275 -0.05407894 -0.048506748 0.01491644 0.20269997 0.08209326 -0.01749644 0.07263778
-0.10134871 -0.17008708 0.07236472 0.044504832 0.19587399 0.12862478 0.017900692 -0.014586188
-0.21451841 -0.12454094 0.22708304 -0.08721735 -3.8494096e-07 0.003149397 0.0070483363 -0.0019171176
00000000: b333 16be bc97 023d d5c0 9abd 96ea 583e
00000010: 2cee 65bd 6e54 973c 5969 a93c 0f33 c7bc
00000020: 36fb 003e d45b 52be 8fab 64be 4dfe 903c
00000030: c464 58be 0e06 1fbd 3308 613e bad1 da3d
00000040: e9b5 803c 7e70 06be 9b25 6d3d 3cef 4dbe
00000050: 23ba 4a3e ba71 e5bd c008 45be 77e6 6d3e
00000060: 0075 293d 6155 25be 11a8 fc3d 8183 0ebe
00000070: 4959 2d3e f8cd 1fbe 6299 373e 84f9 17be
00000080: f26d 2139 b85d 553e 8603 913d 4013 0ebe
00000090: e433 d23d 55eb 383e b0fe 37be 290f 5abd
000000a0: 0f7d 28be 3f21 54be 780c b23c da2e 3cbd
000000b0: d727 0abe dd1f 77bd 1e18 573e c81e 10be
000000c0: 4e19 29be 8c9b dcbc a9b7 bcbd 02c0 1e3c
000000d0: dbe7 b7bb f4f3 223e 754d 713d 1fa3 9abc
000000e0: 5d04 54be 14fd 01bd 5644 d43d 344f 723e
000000f0: 4a3f 543e e0e7 0d3e 1aff 123d 64e1 a3bd
00000100: 9483 533e 570a 41be 0caa 6a3d 9ba8 9c3d
00000110: ee4b 7b3d 3941 99bd 3bc9 3cbe f42a 5cbe
00000120: a487 7d3b 690a 223e 4720 f33c 332a aa37
00000130: 529f c73d 1175 193c b0a6 51be 8c7b a53d
00000140: a2a2 b0bd c969 4b3d 52ed a03d d0a9 6a3e
00000150: 778b 1c3d d38e 39bc 3ac7 97bb 4392 4f3e
00000160: a2c3 9bbd cca4 3ebe 1ab0 363c 02bb 3a3c
00000170: eef4 0f3a b0fe 85ba 0e96 95b4 ff21 22a3
00000180: d3ba 0338 ada2 c1bc d124 6b3c 592f db38
00000190: 17b1 96bc e521 fe34 98eb 90bb f601 893c
000001a0: 8f19 042e 0983 9539 6580 42bc bcec 4137
000001b0: 0a7c 3bbe 7f5b 493e e5c5 1b3e 9513 68be
000001c0: 6da2 09bd 2c0e 0dbd 0c58 623e 0306 fc3d
000001d0: be18 3e3e acba 123e 4180 943d 5e61 273e
000001e0: e473 b53d d2ae 223e 50fc 0e3d 23d2 9dbd
000001f0: e35d ecbd 7ebb 9bbc f69b 503e ae81 383e
00000200: 3401 293e cba2 e53c c7dd c8bd 346d 02be
00000210: 71ec 09be e877 6c3e dac8 013e cfc5 38be
00000220: 978f 5e3e 513a 72be 4d31 3abe 7c21 f13c
00000230: 069f 64bc 8c21 8abd 581a 733c 31ee 223c
00000240: f781 d53c a2b4 dfbd 7a80 5cbd ecb6 3dbb
00000250: edce 823d c738 743e e532 05be d26e 033e
00000260: 60c9 dc3c 4b08 4abe b8d2 933d cebf 42bd
00000270: c1f1 493d ae1a 143e ff35 65bd 1e95 5fbe
00000280: f76f 41be c787 fc3c 978d bfbd 7bdf 7cbc
00000290: 081d 0ebe 6fc2 793d ac20 713e d9ae 4e3d
000002a0: 4bcb 033e a480 4fbe 4541 0abe af0a 3abe
000002b0: 19eb 4a3a 46b4 3ebd 1123 373e 78cc 46bd
000002c0: 02b3 4cbd 1bee 333c 056d 52be 5064 4a3e
000002d0: ddde 263e 8804 69bd 0c34 38be 54a3 9f3d
000002e0: 56c0 f2bd 94be 48bd 4d62 073e b168 363e
000002f0: 03a3 69be 4f2a 2fbe f0e8 f33c e153 313e
00000300: 22f5 93bd 4623 b8bd aa96 663e 1f53 13be
00000310: dad6 f53d c9e9 253d 06cc 1a3e f4ec 713e
00000320: 6a77 13be bd5c 4b3e 61db 9fbd e2ff 5b3c
00000330: 3fa1 7dbd a4a0 243e d501 c8bd 557c 1fbe
00000340: ea55 65bd 17c9 53be 12a6 f9bd 9e94 263e
00000350: 1ee4 aa3d 181b ee3c 4aa4 e3bd e7f1 88bd
00000360: d813 e43d 6645 1f3e b5a1 66be c349 fe3d
00000370: e94e f83d c0ef bdbd 02fe f1bd 461e de3c
00000380: bdc1 eabd 5905 5c3d 1338 51be 3f5f 2bbd
00000390: 1df3 69bb 87e2 64be d65c 09be 902c ddbd
000003a0: 3bc6 213e e181 5dbd 03af 46bd 1564 743c
000003b0: 9590 4f3e 8320 a83d b254 8fbc 1ec3 943d
000003c0: ea8f cfbd 4f2b 2ebe f433 943d b34a 363d
000003d0: 3193 483e 37b6 033e 79a4 923c e8fa 6ebc
000003e0: b7aa 5bbe 520f ffbd 7588 683e 039f b2bd
000003f0: e2a9 ceb4 1d66 4e3b bbf5 e63b cb47 fbba
