ERTSNet/new_arch_LA/decimation/model/best-model_trainonWelling.pt (torch, 231010 bytes, 65 tensors)

weight_ih_l0 f4 [27, 15]
0	0x3c9fdfbe	0.019515868
1	0xbb2f92b9	-0.0026790334
2	0xbde340df	-0.110963576
3	0xbb44ed12	-0.0030048531
4	0x390508a8	0.00012687093
5	0xbb3d1761	-0.0028853046
6	0x3b61276a	0.0034355768
7	0xbe26e701	-0.16299058
8	0xbde4915c	-0.111605376
9	0xbdada9ae	-0.084796295
10	0x3d95b0f6	0.07309143
11	0x3e1f7ff1	0.1557615
12	0x3ca32f18	0.019919917
13	0xbcec7716	-0.028865378
14	0x3e0dda93	0.1385291
15	0xbd941d9f	-0.07232212
16	0xbba62582	-0.0050703892
17	0x3e6b1cb5	0.2296017
18	0x3ca91473	0.020639634
19	0xb96aa368	-0.00022376853
20	0xafca2886	-3.677238e-10
21	0x3e219167	0.15778123
22	0x3e0bd074	0.13653737
23	0x3e8f119d	0.27943125
24	0xbdd92117	-0.106020145
25	0xbc083a0a	-0.008314619
26	0x3e0e7a62	0.13913873
27	0x3e91c4b4	0.28470385
28	0x3d421501	0.047383312
29	0x3e682ec9	0.22674097
30	0x3e36436d	0.17799158
31	0x3c8f3247	0.017480029
32	0xbe4ac2eb	-0.19800918
33	0x3d790750	0.06079799
34	0x24f0283d	1.04151575e-16
35	0xbb9fd606	-0.0048778085
36	0x3e334511	0.17506815
37	0xbdf5fe43	-0.12011387
38	0x3e62433c	0.2209596
39	0xbdec0fce	-0.11526452
40	0xbe01c775	-0.12673743
41	0xbdd5d997	-0.104418926
42	0xbe884a95	-0.26619402
43	0xbdb5e998	-0.08882445
44	0xbe63f91e	-0.22263
45	0xbe186462	-0.14882043
46	0xbb220b7d	-0.0024726086
47	0x3d13b577	0.03606173
48	0x3cc56777	0.024097187
49	0xbb1fb2e2	-0.0024368097
50	0x379a1968	1.8370061e-05
51	0x3dab9c4b	0.0837942
52	0xbc96dcc2	-0.018415812
53	0xbe11a1e7	-0.14221917
54	0xbe0e18ed	-0.13876696
55	0xbe38ed5e	-0.18059298
56	0xbe0456e5	-0.12923773
57	0x3dd79df6	0.105281755
58	0x3d86c7a5	0.06581048
59	0x3e4aad76	0.19792733
60	0xbbf18402	-0.007370473
61	0xb922b8bf	-0.00015518347
62	0xbd54e911	-0.051980082
63	0xbbb72ccc	-0.005590057
64	0xb20e25c8	-8.274078e-09
65	0xb82ac9af	-4.071899e-05
66	0x3cc93391	0.024560722
67	0xbdc79446	-0.09745078
68	0xbbf108ef	-0.0073558013
69	0xbd812657	-0.06306141
70	0x3d63acad	0.0555846
71	0x3ce5190e	0.027966049
72	0xbd36d8e1	-0.044640426
73	0xbcb9988b	-0.022655746
74	0x3dacb703	0.08433344
75	0x3dafcd65	0.08584098
76	0x3bd772b9	0.0065749553
77	0x3e7185de	0.23586223
78	0xbd52a304	-0.051424995
79	0x27adbb30	4.8220095e-15
80	0x2e30a6e0	4.016598e-11
81	0xbe062a73	-0.1310213
82	0x3e7756b2	0.24154165
83	0x3e839349	0.25698307
84	0xbd85b1a7	-0.06528025
85	0xbe42eeca	-0.19036403
86	0x3e08d258	0.1336149
87	0xbd8614fa	-0.0654697
88	0x3c5a5cef	0.013327821
89	0xbe40e6ce	-0.18838045
90	0x3bbfbb1a	0.0058511617
91	0xbc0bb1ae	-0.008526249
92	0xbe06ac9d	-0.13151784
93	0xbaeecfcb	-0.0018219886
94	0xbbb52659	-0.005528253
95	0xae88cedf	-6.221312e-11
96	0xbc8729ac	-0.016499363
97	0xbd311e34	-0.043241695
98	0x3de8b48e	0.11362563
99	0x3d9dcebb	0.07705446
100	0xbb859762	-0.004076884
101	0xbdbbf909	-0.09178359
102	0xbda35d40	-0.079767704
103	0x3cfeae96	0.031089108
104	0x3db51823	0.08842494
105	0xbd188d89	-0.037244353
106	0xbc8decb2	-0.01732478
107	0x3c8e729c	0.017388634
108	0xbd11db54	-0.03560956
109	0xb1c946f0	-5.8579346e-09
110	0xb18381de	-3.827366e-09
111	0x39e9b85e	0.00044578587
112	0x3d40adc7	0.047040727
113	0xbe0085b4	-0.12551004
114	0x3e338ad4	0.17533427
115	0xbe80383f	-0.25042912
116	0xbd1d6a5a	-0.038431503
117	0x3c579dae	0.013160152
118	0xbe8e132e	-0.27749008
119	0xbe29292d	-0.16519614
120	0x3d1c5c6d	0.03817408
121	0xbc8d95c8	-0.017283335
122	0x3d151fd8	0.03640732
123	0xbc23ad2f	-0.009990021
124	0x2fc0838e	3.5018072e-10
125	0x2fba95e7	3.3939715e-10
126	0x3d39f7b5	0.045402247
127	0x3e11b7a0	0.14230204
128	0x3e7a4dd0	0.24443746
129	0x3e04f8b0	0.12985492
130	0x3d478776	0.04871317
131	0x3d08a109	0.0333567
132	0x3c97491d	0.01846748
133	0x3db882d2	0.09009327
134	0xbe39990d	-0.1812479
135	0x3cc5711a	0.024101783
136	0xba7cdeaa	-0.00096462166
137	0x3e8530c3	0.26013765
138	0x3cf8f805	0.030391702
139	0xbbea8d96	-0.0071579916
140	0xabeafde0	-1.6697164e-12
141	0xbdc8d174	-0.09805575
142	0x3e8e317a	0.27772123
143	0x3cbb5175	0.02286599
144	0x3e873807	0.26409933
145	0xbb2cb69e	-0.0026353966
146	0x3c28feb9	0.010314637
147	0x3d12426f	0.035707887
148	0xbd3324e3	-0.04373635
149	0x3e9b8dbe	0.30381578
150	0x3b92653d	0.004467635
151	0x3a01c17d	0.00049497915
152	0x3e4ffb33	0.20310669
153	0x3d3e8136	0.046509944
154	0x389d8552	7.511176e-05
155	0x3c32a20a	0.010902891
156	0xbccab046	-0.024742257
157	0xbd15b76e	-0.036551885
158	0xbcaa029f	-0.020753203
159	0x3e00b2dc	0.1256823
160	0x3de277ab	0.11057981
161	0x3cd4f681	0.025996448
162	0x3e4dc01b	0.20092814
163	0xbd233beb	-0.039852064
164	0x3cc47e59	0.023986029
165	0x3ce8e7bd	0.028430814
166	0x3a2a3c8a	0.00064940064
167	0x3d35a42c	0.04434602
168	0x3cce6888	0.025196329
169	0x3724dd75	9.826724e-06
170	0x2e8bbe27	6.354766e-11
171	0xbda74f37	-0.08169406
172	0x3d9b92d6	0.07596366
173	0x3e157f71	0.14599396
174	0xbb798107	-0.003807129
175	0x3d9750f2	0.07388486
176	0xbcb24576	-0.021761637
177	0x3dee2598	0.11628264
178	0xbd0480a2	-0.032349236
179	0xbdf9b726	-0.12193136
180	0xbd00ee0a	-0.03147701
181	0xbc0cdbe8	-0.008597352
182	0xbe1ef913	-0.15524702
183	0xbb557415	-0.003257041
184	0x3a4a20ab	0.00077105564
185	0x3c1f9b8b	0.009741674
186	0x3d1cde7c	0.038298115
187	0x3e06f32c	0.131787
188	0x3d99a657	0.0750243
189	0xbdd7b484	-0.105324775
190	0x3e3f464b	0.18679158
191	0x3d678098	0.05651912
192	0xbdd6d365	-0.10489539
193	0xbd44b47c	-0.048023686
194	0x3b5b89d4	0.00334989
195	0x3cdf0fc4	0.027229197
196	0xbaa3981e	-0.0012481248
197	0xbdc07e61	-0.09399105
198	0xbc49b75a	-0.012311781
199	0x3580f43d	9.607826e-07
200	0xba8d7994	-0.0010793679
201	0xbcd0faff	-0.02551031
202	0xbdb1472d	-0.08656154
203	0x3e0d3f3a	0.1379365
204	0x3dc8e41c	0.098091334
205	0xbe0be04e	-0.13659784
206	0xbde6943d	-0.11258743
207	0xbde02b49	-0.10945756
208	0x3d045337	0.032305922
209	0x3e2134b7	0.15742765
210	0x3d37c5ee	0.044866495
211	0xba0177c3	-0.00049388054
212	0xbd70e70e	-0.0588141
213	0x3ccef531	0.0252634
214	0x28e64f08	2.5569404e-14
215	0x2f24bbe2	1.4982462e-10
216	0xbd6e1c7e	-0.05813264
217	0xbd8cc9e5	-0.06874446
218	0xbd466241	-0.048433546
219	0x3db5f6d3	0.088849686
220	0x3d5d8722	0.05408395
221	0xbd83af7b	-0.064299546
222	0x3e12bdeb	0.1433026
223	0xbcd140d4	-0.025543608
224	0x3d215545	0.03938796
225	0xbccae27a	-0.024766196
226	0x39dfd388	0.00042691478
227	0xbdb91fb9	-0.09039254
228	0xbbb91069	-0.005647708
229	0x274780ca	2.7686614e-15
230	0xae959ef8	-6.803974e-11
231	0x3bb2c1c3	0.005455227
232	0x3c25e215	0.010124703
233	0x3d9a2277	0.07526105
234	0x3bb370ca	0.005476092
235	0x3c3d0ac4	0.011538211
236	0x3c4d953e	0.012547789
237	0xbd06007d	-0.03271531
238	0x3cc4512f	0.023964493
239	0xbdd8ce81	-0.105862625
240	0xbd1ed592	-0.038777895
241	0xbc0aed90	-0.008479491
242	0x3e649244	0.22321421
243	0x3c701ad3	0.014654833
244	0x2b37e388	6.5330423e-13
245	0x2d4ff92e	1.1821917e-11
246	0x3df68c2d	0.12038455
247	0x3e35b0db	0.17743246
248	0x3d018f67	0.0316309
249	0x3b606b17	0.0034243518
250	0x3e35615f	0.17712925
251	0xbdc7a5e8	-0.09748441
252	0x3e5d1116	0.21588549
253	0xbe00096b	-0.12503593
254	0x3e778224	0.24170738
255	0xbcd08a2e	-0.025456514

weight_hh_l0 f4 [27, 9]
0	0xbda19b91	-0.07891
1	0xbe2ac2c7	-0.16675864
2	0xbd9edda4	-0.07757118
3	0xbe504829	-0.20340027
4	0xbe34911d	-0.17633481
5	0x3d960c07	0.07326513
6	0xbde8ac29	-0.11360962
7	0xbda2e60a	-0.07954033
8	0xbe316d70	-0.17326903
9	0xbcda4268	-0.026642993
10	0x3d43b397	0.047778692
11	0x3e1113bb	0.14167683
12	0xbe795b67	-0.24351273
13	0x3d2b6bb3	0.041850757
14	0x3d85eb73	0.06539049
15	0x3e85b904	0.26117718
16	0x3ea493fe	0.3214416
17	0xbc96d9bb	-0.018414369
18	0xbdfd5a2b	-0.12370714
19	0x3e307bc1	0.17234708
20	0xbdafefb5	-0.08590642
21	0xbd6c5d86	-0.05770638
22	0x3e4a032c	0.19727772
23	0xbe74be93	-0.23900823
24	0x3e884f25	0.26622882
25	0xbe33f953	-0.17575578
26	0xbe10f11e	-0.14154479
27	0xbddf931b	-0.1091673
28	0xbe4c2fb8	-0.19940078
29	0x3d1619f6	0.036645852
30	0x3d2caa3e	0.042154543
31	0xbe1c3eaa	-0.1525828
32	0xbda4ac66	-0.08040695
33	0xbe494cce	-0.19658205
34	0xbd7b482a	-0.061348118
35	0xbdb57b6a	-0.0886143
36	0x3d348e82	0.04408122
37	0xbd142416	-0.036167227
38	0x3d0ad272	0.033892103
39	0x3cefc334	0.029267885
40	0x3d42d407	0.047565486
41	0x3c49fc33	0.012328195
42	0xbcd25a45	-0.02567781
43	0xbda78235	-0.08179132
44	0x3d48afb3	0.048995685
45	0x3e14a672	0.14516619
46	0xbcd2a1fb	-0.025712004
47	0x3c6f9e02	0.014625074
48	0xbdb22904	-0.08699229
49	0xbd9a4f67	-0.07534676
50	0xbd99577c	-0.074873894
51	0xbe2fb054	-0.17157108
52	0x3e79517e	0.24347493
53	0x3e179064	0.14801174
54	0xbd736d9b	-0.0594307
55	0xbd696a31	-0.056986038
56	0x39acc2eb	0.00032951622
57	0x3bd404d1	0.0064703007
58	0xbda91750	-0.082564
59	0xbd32ab74	-0.04362054
60	0xbc184ab3	-0.009295153
61	0x3c07d0c4	0.00828952
62	0x3d58bd3f	0.052914854
63	0xbe27ad00	-0.16374588
64	0x3c251b3a	0.010077292
65	0xbdf3fd4c	-0.11913547
66	0x3e92d5e5	0.28678814
67	0xbe5503f9	-0.20802297
68	0xbd8255c7	-0.06364017
69	0xbe8b644b	-0.27224955
70	0x3eaabfb3	0.3334938
71	0xbe61d95b	-0.22055571
72	0xbda7ec17	-0.081993274
73	0xbdbe41da	-0.09289904
74	0x3cf928e9	0.030415015
75	0xbd157b79	-0.036494706
76	0x3dc1d6f7	0.094648294
77	0xbd998a2b	-0.074970566
78	0x3e1db778	0.15402019
79	0x3e0151fb	0.1262893
80	0x3de3b2c3	0.111180805
81	0x3d85f25e	0.065403685
82	0xbd58aa26	-0.05289664
83	0xbe43d563	-0.1912437
84	0x3e138381	0.14405634
85	0x3c87af69	0.016563134
86	0x3e17788d	0.1479208
87	0x3dc67dcf	0.09691965
88	0x3e81d6c9	0.2535918
89	0x3e828881	0.2549477
90	0x3cc1d7c3	0.023662454
91	0xbd88850b	-0.06666001
92	0xbc22ea2f	-0.009943529
93	0x3e15fe20	0.14647722
94	0xbc2c8f79	-0.010532253
95	0x3bbedf97	0.005824994
96	0xbdb030ff	-0.08603095
97	0x3e015135	0.12628634
98	0xbe2b6cf2	-0.16740778
99	0x3dd0b51a	0.101907924
100	0xbdccff54	-0.100096375
101	0xbc12153d	-0.008916196
102	0xbd1e03b3	-0.038577747
103	0xbde04de4	-0.109523565
104	0x3d1f85fe	0.038946144
105	0x3d028ef6	0.03187462
106	0x3e2a197f	0.16611288
107	0x3d87a413	0.066230915
108	0xbdacdb5a	-0.084402755
109	0xbdb0b515	-0.08628289
110	0xbccbbd42	-0.024870519
111	0xbc81b0bc	-0.015831344
112	0xbce299bc	-0.027661197
113	0xbc10cc56	-0.00883778
114	0xbd0d71c7	-0.034532335
115	0x3db7ed5e	0.08980821
116	0xbe3e9f6b	-0.186155
117	0x3df2c7b9	0.118545
118	0xbc3a02e5	-0.011353229
119	0xbd8fc2d9	-0.07019586
120	0x3aa51d19	0.0012597173
121	0xbd503971	-0.05083603
122	0x3d0cfcc5	0.034420747
123	0x3c2eaecf	0.010661795
124	0x3d651ea0	0.05593741
125	0x3db8d59e	0.09025119
126	0xbc84371b	-0.016139558
127	0xbc81ab1b	-0.01582866
128	0xbcb7879d	-0.022403533
129	0x3d1d9582	0.03847266
130	0x3bf82c2d	0.0075736255
131	0x3cc9d550	0.024637848
132	0xbb3ec3ae	-0.0029108333
133	0x3c976da9	0.018484907
134	0x3c2664be	0.010155855
135	0x3ddae6e3	0.106885694
136	0xbbc9bbff	-0.006156444
137	0x3cb4d3f6	0.022073727
138	0x3d8de93c	0.069292516
139	0xbd2e225e	-0.042513244
140	0xbc8b6e09	-0.017020242
141	0x3d8fd9f9	0.07023997
142	0xbd569b03	-0.052393924
143	0xbdb97cc8	-0.09057003
144	0xbc0190b2	-0.007908033
145	0xbe16b7a1	-0.14718486
146	0xbe318179	-0.17334546
147	0x3e75c8a8	0.24002326
148	0x3d649577	0.055806603
149	0x3e2221e7	0.15833245
150	0xbdd5c7e4	-0.10438517
151	0x3e932b6e	0.28744072
152	0xbe057218	-0.13031805
153	0x3c18ad35	0.0093186395
154	0xbc7a4539	-0.015275293
155	0x3cd7814b	0.026306769
156	0x3ddb1e91	0.106991895
157	0xbe1d00bd	-0.15332313
158	0xbbae22c3	-0.0053142025
159	0x3d8363d6	0.064155266
160	0x3e2ab5c9	0.16670908
161	0xbe45bd1a	-0.19310418
162	0x3e867012	0.26257378
163	0x3dd8b9cd	0.10582314
164	0x3d1eda29	0.038782272
165	0x3e091d57	0.13390099
166	0x3e301a23	0.1719747
167	0x3e8a34b5	0.26993337
168	0xbd95a4f6	-0.073068544
169	0xbe1dbae3	-0.15403323
170	0x3df18df5	0.11794654
171	0xbcd36cac	-0.025808655
172	0x3e9daed4	0.30797446
173	0xbc353be1	-0.0110616395
174	0xbe6d676f	-0.23183988
175	0x3e8e423c	0.27784908
176	0xbe7c2d4d	-0.24626656
177	0xbe6c5923	-0.23080878
178	0xbe8546a7	-0.26030466
179	0x3e4374aa	0.19087473
180	0x3dda40d7	0.106568985
181	0xbe8e4d03	-0.2779313
182	0x3e4c96c3	0.19979386
183	0x3e841939	0.25800493
184	0x3e96c963	0.2945052
185	0x3e72ff3e	0.2373018
186	0xbd80473b	-0.06263586
187	0x3e34ad2d	0.17644186
188	0xbe162031	-0.14660718
189	0xbc45451b	-0.012040402
190	0x3d82d42a	0.06388123
191	0xbcfa8b36	-0.03058396
192	0x3dd42448	0.103584826
193	0x3e21ff1e	0.15819976
194	0x3e6378a2	0.22213987
195	0xbda2d607	-0.07950979
196	0xbe4b65ce	-0.19863054
197	0xbe49b58c	-0.19698161
198	0x3e5eaaab	0.21744792
199	0xbe238543	-0.15968804
200	0xbd693000	-0.056930542
201	0xbdb25065	-0.0870674
202	0x3d8d70a9	0.06906254
203	0x3e8487a0	0.25884724
204	0xbe4e9a34	-0.20176011
205	0x3cdc98a7	0.026928259
206	0x3e668b16	0.22513995
207	0x3dc78108	0.09741408
208	0xbdfe0944	-0.12404111
209	0xbe08040e	-0.13282797
210	0x3e44cec0	0.19219494
211	0xbdebfaa2	-0.11522414
212	0xbcda9dba	-0.026686538
213	0x3e6496f2	0.22323206
214	0x3eb3a7a6	0.35088843
215	0xbc4b57c1	-0.012411059
216	0x3e753c57	0.23948799
217	0x3bef405c	0.0073013734
218	0x3df3f623	0.11912181
219	0xbe8c9b58	-0.27462268
220	0x3e5b240b	0.21400468
221	0x3e4210d7	0.18951736
222	0xbda2e37b	-0.07953545
223	0x3dcf3b20	0.10118699
224	0xbe473aeb	-0.19456069
225	0x3e584ab8	0.21122253
226	0xbe917f98	-0.2841766
227	0xbe90aee9	-0.28258446
228	0x3dccdeaf	0.10003411
229	0xbe970665	-0.29497066
230	0xbd2d60f7	-0.0423288
231	0xbe9d5826	-0.30731314
232	0x3e8c18b1	0.27362588
233	0x3d9ea17d	0.07745645
234	0xbe454577	-0.1926478
235	0xbe90b4a4	-0.28262818
236	0xbe3b7c8a	-0.18309227
237	0xbd7b67b9	-0.061378215
238	0x3e4c2b91	0.19938494
239	0x3d8dae2c	0.06917986
240	0x3eb295f8	0.34880042
241	0xbcfad683	-0.030619865
242	0xbe0976ac	-0.13424176

bias_ih_l0 f4 [27]
0	0xbd0c26a2	-0.03421653
1	0x3d9185e6	0.07105617
2	0x3dc8dea6	0.09808092
3	0xbe4260b6	-0.18982205
4	0xbe0daa30	-0.13834453
5	0xbb231491	-0.0024884085
6	0x3d4ad207	0.049516704
7	0x3de59725	0.11210469
8	0x3d8be991	0.06831659
9	0x3de019ef	0.109424464
10	0x3e90ca3f	0.28279302
11	0x3dddac8b	0.108239256
12	0xbde04a18	-0.10951632
13	0x3e3fe857	0.18740974
14	0xbde3ab80	-0.111166954
15	0xbe2e9f4a	-0.17052951
16	0x3e107d53	0.14110307
17	0x3df53ad2	0.1197411
18	0x3e72ffad	0.23730345
19	0xbeaa1c19	-0.33224562
20	0x3d86d8a3	0.06584289
21	0x3e87e4c3	0.2654172
22	0xbd3971be	-0.04527449
23	0x3d435412	0.047687598
24	0x3e9ba7bd	0.30401412
25	0xbe30c74f	-0.1726353
26	0xbde0fa34	-0.109852225

bias_hh_l0 f4 [27]
0	0x3e1ad4d1	0.15120246
1	0xbe673019	-0.22576942
2	0xbdd0a89d	-0.101884104
3	0x3e4719cc	0.19443434
4	0xbd78f0b2	-0.06077642
5	0xbe66a3c8	-0.22523415
6	0x3e21a406	0.15785226
7	0x3e827461	0.25479415
8	0xbe33f7fe	-0.1757507
9	0xbe397bcb	-0.1811363
10	0x3e1a2f16	0.15057024
11	0xbde476df	-0.11155485
12	0xbca5408f	-0.020172385
13	0x3ceb19c1	0.028698804
14	0xbd631e2d	-0.0554487
15	0x3de0381d	0.10948203
16	0x3e838d61	0.256938
17	0xbc7b0d94	-0.0153230615
18	0xbd4c5b82	-0.049891956
19	0x3dc6dbd2	0.09709896
20	0xbdebad47	-0.115076594
21	0x3e7624d2	0.24037483
22	0x3dbeb974	0.09312716
23	0xbda8a2a1	-0.08234144
24	0x3deb0bd8	0.114768684
25	0x3e8d8d18	0.27646708
26	0x3d0ddbb6	0.03463336

weight_ih_l0 f4 [27, 24]
0	0xbd736207	-0.059419658
1	0xbd2f20d8	-0.04275593
2	0x3d00804f	0.031372365
3	0x3db35793	0.08756938
4	0x3b880205	0.0041506314
5	0x3b8ef539	0.004362729
6	0xbde060a6	-0.10955934
7	0xbd51e9b8	-0.051248282
8	0xbc39c131	-0.011337564
9	0xb7d3d7df	-2.5253683e-05
10	0xa937c2d5	-4.0803153e-14
11	0xab955461	-1.0610507e-12
12	0x3da43137	0.080171995
13	0x3b8e2ac3	0.0043385937
14	0x3ab44448	0.001375326
15	0x3ba86e5d	0.0051401095
16	0xb9a3728c	-0.00031175127
17	0x3c543f7c	0.012954589
18	0x3b5fa242	0.0034123813
19	0xbd58a0f7	-0.052887883
20	0x3b538c0b	0.0032279517
21	0xbadf7baf	-0.001705041
22	0x3b8dc84e	0.0043268567
23	0x3e03c330	0.12867427
24	0xbcbe9f4d	-0.02326932
25	0x3c7c4432	0.015397118
26	0xbb3c274d	-0.0028709949
27	0x3d2ace4c	0.041700646
28	0xbc7216ff	-0.0147759905
29	0x3c4426c6	0.011972135
30	0x399bd8c0	0.00029725395
31	0x3d793669	0.060842905
32	0x3c49d0a8	0.012317814
33	0xbad6c233	-0.001638478
34	0xa55f06a5	-1.9344418e-16
35	0xadb858cc	-2.0957812e-11
36	0x3d215945	0.039391775
37	0x3c84c7d2	0.016208563
38	0xbd0506e9	-0.032477293
39	0xb88a2f22	-6.589132e-05
40	0xbbd4361f	-0.0064761783
41	0xbc75f2f1	-0.015011535
42	0x3c04cacc	0.008104991
43	0x3b1f8b62	0.0024344553
44	0x3c8e81ac	0.017395817
45	0xba262c5b	-0.0006339007
46	0x3bf98d06	0.0076156883
47	0xbcb7e243	-0.022446757
48	0x3e53e6da	0.20693532
49	0xbd8ec0fe	-0.06970404
50	0xbdb7d41b	-0.08976003
51	0xbdb0b6b6	-0.08628599
52	0x3d5f27ce	0.05448132
53	0x3d255b22	0.040370114
54	0x3996ad45	0.00028739325
55	0x3defa56e	0.11701475
56	0x3b2dec09	0.0026538393
57	0x39211233	0.00015360936
58	0x3a0f14b9	0.0005458105
59	0x3aa56c13	0.001262071
60	0xbce09f5d	-0.02741974
61	0x3e5da3be	0.21644494
62	0x3e2a9b2f	0.1666076
63	0x382c9fa8	4.1156687e-05
64	0x3c20f2d1	0.009823517
65	0xbe7cad1e	-0.24675414
66	0xbe06e076	-0.13171563
67	0x3de520e8	0.11187917
68	0x3e2190d1	0.157779
69	0x3e04ed80	0.12981224
70	0x3cf2f35e	0.029657062
71	0x3e939b2c	0.28829324
72	0x3dcddb47	0.100515895
73	0x3d3f2ecc	0.04667549
74	0x3e05abcb	0.13053815
75	0x3dd8fe50	0.10595381
76	0xbd1e75b4	-0.03868647
77	0x3de8a4a6	0.11359529
78	0x3e2e30fc	0.17010874
79	0xbe87dd67	-0.26536104
80	0x3dcb975f	0.09940981
81	0xbaa0c258	-0.001226495
82	0xa687dbc3	-9.427073e-16
83	0x25fcef9a	4.3877392e-16
84	0xbe55540e	-0.20832846
85	0x3d158048	0.03649929
86	0xbd8b937f	-0.06815242
87	0xb93ab398	-0.00017805246
88	0xa8e23534	-2.5114114e-14
89	0xbe53934c	-0.20661658
90	0x3d2e3f2e	0.04254072
91	0xbdd3b4fb	-0.10337254
92	0xbe27efbb	-0.16400044
93	0x3c0b15ca	0.008489082
94	0xbe6590ea	-0.22418562
95	0xbe831f3d	-0.2560977
96	0xbe75761a	-0.23970833
97	0xbe122765	-0.1427284
98	0xbd0824be	-0.033238165
99	0xbe9fde02	-0.31224066
100	0xbd2df634	-0.042471126
101	0xbe34d668	-0.17659914
102	0xbdf6d061	-0.12051464
103	0x3e2e9568	0.17049181
104	0x3e6996c0	0.22811413
105	0x38fca352	0.00012046717
106	0xa3b8ee25	-2.0050178e-17
107	0xbbbee5b4	-0.0058257226
108	0xbd6051fb	-0.054765683
109	0x3de83697	0.11338537
110	0x3daf4597	0.08558195
111	0x3b44da37	0.0030037293
112	0xbae3fb0f	-0.0017393547
113	0x3e2c0224	0.16797692
114	0xbc9d624d	-0.019211913
115	0xbdc67907	-0.09691053
116	0x3e057f8b	0.13036935
117	0xbd8f180b	-0.06987008
118	0xbc8ddbba	-0.017316688
119	0xbe4999a2	-0.19687513
120	0xb8e67874	-0.00010989691
121	0x3cca2c22	0.024679247
122	0xbba1a877	-0.0049334127
123	0x3ce9b58d	0.028528953
124	0xbacddb83	-0.0015705678
125	0x3bef087f	0.007294714
126	0xbc8f1fcf	-0.017471222
127	0x3d5606f3	0.05225272
128	0xbc6ed913	-0.014578122
129	0x3b2712a9	0.00254933
130	0xaaded507	-3.958294e-13
131	0x367dd1df	3.78221e-06
132	0x3cedae0c	0.029013656
133	0x3a479fc1	0.0007615053
134	0xba170204	-0.0005760493
135	0x39e5ec12	0.0004385417
136	0x2a006df0	1.1406826e-13
137	0x3dae1db6	0.08501761
138	0xbbbde1d3	-0.0057947426
139	0x3b44dd9b	0.0030039314
140	0x3b332d51	0.0027340243
141	0xbcf7411a	-0.03018241
142	0x3d3db38e	0.046313815
143	0x3b38659e	0.002813674
144	0xbe2df6a8	-0.16988623
145	0xbe145038	-0.14483726
146	0x3d5a3e4a	0.05328206
147	0x3e2a4ca3	0.16630797
148	0x3d5d9c3e	0.054104082
149	0xbe4122d2	-0.18860939
150	0x3e36da4a	0.17856708
151	0xbe2d31e6	-0.16913566
152	0xbd82672d	-0.063673355
153	0xbc2f4c83	-0.010699394
154	0x381ac1d3	3.6896974e-05
155	0x390223e1	0.00012411132
156	0x3e7e7902	0.24850848
157	0x3dd70fe3	0.10501077
158	0x3dacb55e	0.084330305
159	0x3aebdaa7	0.0017994241
160	0x3bfaa1d1	0.0076486846
161	0x3dacde53	0.084408425
162	0xbcac6a9e	-0.021046933
163	0xbc40f1bf	-0.011776387
164	0xbdc559c3	-0.09636261
165	0xbe174e08	-0.1477586
166	0x3e348599	0.17629088
167	0xbe816e89	-0.25279644
168	0xbdbfc785	-0.09364227
169	0xbc64bb4f	-0.0139606735
170	0xbe06719f	-0.1312928
171	0x3e9513a3	0.29116544
172	0xbdca7ef5	-0.098874964
173	0x3deb6b08	0.11495024
174	0x3e768686	0.24074754
175	0x3e80eb36	0.25179452
176	0x3e8a9883	0.27069482
177	0xbb91fdfb	-0.0044553257
178	0x3b9cf4d8	0.00478993
179	0x3a89a08e	0.001050012
180	0x3ce543d7	0.02798645
181	0xbc404d3b	-0.011737163
182	0xbd0c2cb3	-0.034222316
183	0xbc7ebf55	-0.015548547
184	0xaa5c015a	-1.9540394e-13
185	0xbdfeb371	-0.124365695
186	0x3dc849d8	0.097797096
187	0xbe1b928e	-0.15192625
188	0x3dbafb57	0.091299705
189	0x3e22c6a8	0.15896094
190	0xbdc0be37	-0.094112806
191	0xbe8594d3	-0.26090106
192	0x3c4877fd	0.012235639
193	0xbc8c2193	-0.017105853
194	0x3bb20ee2	0.005433903
195	0xbda0a5fd	-0.0784416
196	0x3cdbd1ec	0.026833497
197	0x3b30d563	0.0026982657
198	0xbad62551	-0.0016338025
199	0x3d8e2162	0.06939961
200	0xbb102130	-0.0021992438
201	0xbc1aa5da	-0.009438956
202	0xa3ca03b4	-2.1902452e-17
203	0xa57eb0c4	-2.2090879e-16
204	0xbd471b20	-0.048609853
205	0x3c1837ba	0.00929063
206	0x3b1240f2	0.0022316542
207	0xb92fb31b	-0.00016756023
208	0xb9055058	-0.00012713799
209	0xbd9b7879	-0.07591338
210	0x392935f8	0.00016137201
211	0xbbde3e0b	-0.0067822984
212	0xbcdf54c7	-0.027262105
213	0xbc9b503e	-0.01895916
214	0xbdc675a9	-0.09690411
215	0x3e0f4d7d	0.13994403
216	0x3c44e74f	0.012018039
217	0xbd4d49ad	-0.05011909
218	0x3d787b72	0.0606646
219	0x3e7a017a	0.24414626
220	0xbe25bf16	-0.16186175
221	0x3d024dcc	0.031812474
222	0xbe7e7a1a	-0.24851266
223	0x3e32e4ca	0.17470089
224	0xbdf1311c	-0.11776945
225	0x3b19470e	0.00233883
226	0xbbf5f118	-0.0075055473
227	0xbc23d4d9	-0.009999477
228	0xbd4b80c4	-0.049683347
229	0xbdf91b03	-0.12163355
230	0xbd855150	-0.0650965
231	0xbbe5b974	-0.007010633
232	0xbc216adc	-0.009852137
233	0xbe76dc9f	-0.24107598
234	0x3c21c03c	0.009872492
235	0x3d10bd8c	0.035337016
236	0xbc4c4725	-0.012468134
237	0x3c35327a	0.011059398
238	0xbe2493ca	-0.16072002
239	0x3dcf107c	0.10110566
240	0xbd49c925	-0.049264092
241	0xbd80846a	-0.06275256
242	0x3c724c24	0.014788661
243	0x3e8c0907	0.27350637
244	0xbddb966f	-0.10722052
245	0xbc4b0122	-0.012390407
246	0x3e6bd2ac	0.23029584
247	0x3e2b51c1	0.16730405
248	0x3e87dbc9	0.2653487
249	0xb712f226	-8.758658e-06
250	0x3b50706f	0.0031805297
251	0xbab52f2d	-0.0013823264
252	0x3dba6cbd	0.091027714
253	0x3dd3d1c2	0.103427425
254	0x3e5c06fd	0.21487041
255	0x394ead90	0.00019710348

weight_hh_l0 f4 [27, 9]
0	0x2fbdd9ad	3.4533568e-10
1	0xbb35531a	-0.002766794
2	0xba80b6b8	-0.000982008
3	0x3a4b38e7	0.00077523146
4	0xb8ef2ea3	-0.00011405095
5	0x3d06fced	0.032956053
6	0xab9fa538	-1.1343487e-12
7	0x3798c419	1.8211127e-05
8	0xbabea76d	-0.0014545746
9	0x388abb8a	6.615285e-05
10	0x3a9283f6	0.0011178243
11	0x3a1a83e2	0.0005894286
12	0xbb980fe1	-0.004640565
13	0xb6c13a7a	-5.758656e-06
14	0x3ad17cfc	0.0015982683
15	0x3a4154ac	0.0007374983
16	0x3ac8b7d3	0.0015313573
17	0x39a052fa	0.000305794
18	0xa6be807e	-1.3218726e-15
19	0xba819a37	-0.0009887879
20	0xbd7cf33c	-0.061755404
21	0xbd38a311	-0.045077387
22	0xaacff28b	-3.6938885e-13
23	0xbe1cf900	-0.15329361
24	0x3968e7c1	0.00022211579
25	0xb6cf16dd	-6.1717424e-06
26	0xbd5a8fa1	-0.05335963
27	0xb7cd6a0b	-2.4487284e-05
28	0x3a98d5d4	0.0011660405
29	0x3c16909a	0.009189749
30	0x3d7f9957	0.062402096
31	0x2b6be4a9	8.38061e-13
32	0xbdf5354e	-0.11973058
33	0xabad39ca	-1.2308429e-12
34	0xb8b0b879	-8.426695e-05
35	0x3d323885	0.043510932
36	0x32c54865	2.296674e-08
37	0x3bc8ba8c	0.0061257537
38	0xbc6316a0	-0.013860375
39	0x3d259865	0.040428538
40	0x3673059a	3.6213082e-06
41	0x3d7fb879	0.062431786
42	0x32f552bb	2.8559375e-08
43	0xbab86ee3	-0.0014071133
44	0xbd338178	-0.043824643
45	0x263d27f1	6.562668e-16
46	0x3aaa2744	0.0012981673
47	0xbc2d1f5f	-0.0105665615
48	0x3beca30c	0.007221585
49	0x3288bf19	1.5919385e-08
50	0xbc3d52a4	-0.011555348
51	0xbb316cbd	-0.002707287
52	0xb7e206d9	-2.6944488e-05
53	0xbae61fcf	-0.0017557087
54	0x3bd995b6	0.0066401614
55	0x39cbabb8	0.00038847118
56	0x3ce751c8	0.028237239
57	0xbb4b3508	-0.003100695
58	0xad053f7e	-7.574273e-12
59	0x3c910ad1	0.017705353
60	0xbb36bbf7	-0.0027883032
61	0xbab66aea	-0.0013917361
62	0xbc5a81cc	-0.01333661
63	0x3c1023a3	0.008797559
64	0x3aef356d	0.0018250175
65	0xbd337646	-0.043813966
66	0x3b668686	0.0035175397
67	0xb92bb156	-0.00016373894
68	0xbe489974	-0.19589788
69	0x36228df8	2.4222518e-06
70	0x372f091c	1.0432934e-05
71	0xbc092aaa	-0.008371988
72	0x3c225ffd	0.009910581
73	0xbb36eb7e	-0.002791136
74	0xbb97c753	-0.0046319156
75	0xbbf1a09d	-0.007373883
76	0xaf8e74cc	-2.591264e-10
77	0x3cc012c6	0.023446452
78	0xac59387b	-3.0868908e-12
79	0xb7cc5886	-2.4359917e-05
80	0xbcb584a2	-0.02215797
81	0xb541dbdf	-7.221806e-07
82	0x3b382f4e	0.0028104368
83	0xbc8c991b	-0.01716285
84	0xbd75a8f2	-0.059975572
85	0x349e7e91	2.9521883e-07
86	0xbe1ad5bb	-0.15120594
87	0xb813bdd4	-3.5224322e-05
88	0xb760c7bb	-1.3397944e-05
89	0xbc93af40	-0.018027902
90	0x356d78bc	8.846507e-07
91	0x3c273599	0.01020565
92	0xbd80dd9a	-0.06292267
93	0x3e200ca6	0.15629825
94	0x33a6c2f0	7.765436e-08
95	0x3e2e74fa	0.1703681
96	0xafa66441	-3.026646e-10
97	0xb8831211	-6.249932e-05
98	0xbb6d89bd	-0.0036245428
99	0x3b0bae2a	0.0021313527
100	0x3b314f5c	0.0027055359
101	0x3da5ed17	0.08101862
102	0x3e394564	0.18092877
103	0xb8409744	-4.5917244e-05
104	0xbd8b0ace	-0.0678917
105	0xbb55abfa	-0.0032603727
106	0xbc9c38f7	-0.019070132
107	0xbd613598	-0.05498275
108	0x3b810ef3	0.0039385497
109	0xb9dd8388	-0.00042250403
110	0x3da208a7	0.079118066
111	0xbe4e49f4	-0.20145398
112	0xb4efec41	-4.4689116e-07
113	0xbd6115db	-0.054952484
114	0xac276d2a	-2.3792726e-12
115	0xb831445c	-4.2263753e-05
116	0x3cf3d05c	0.02976244
117	0x3c262412	0.010140436
118	0xbbce3b30	-0.006293677
119	0xbd352a55	-0.044229824
120	0xbc655362	-0.013996931
121	0xadb3c83c	-2.0438866e-11
122	0xbd8292ef	-0.063756816
123	0xafcf795a	-3.7739306e-10
124	0x36f9eca2	7.448326e-06
125	0xbd18f1ad	-0.037339855
126	0xb5832dab	-9.773552e-07
127	0xbb84b8b8	-0.0040503405
128	0xbe06c728	-0.1316191
129	0xbde4a4f7	-0.11164277
130	0x33b6a081	8.504231e-08
131	0x3e06e559	0.13173427
132	0xbb8156b1	-0.003947102
133	0xbbb914ff	-0.005648255
134	0xbddd01cd	-0.10791359
135	0x3b932dae	0.0044915294
136	0xbb7f5252	-0.003895898
137	0xbd437b1e	-0.047724836
138	0x3ceb06b6	0.028689723
139	0x3c0acce1	0.0084716985
140	0x3db9c960	0.09071612
141	0x2f28a973	1.5339711e-10
142	0x3d22a321	0.039706353
143	0x3d69f138	0.05711481
144	0x3508813e	5.085202e-07
145	0x3a9b29a0	0.0011837967
146	0x3d504692	0.05084855
147	0xbd9f863b	-0.07789274
148	0x2367fce2	1.2576085e-17
149	0xbbdc0b30	-0.006715201
150	0xaef56344	-1.1158943e-10
151	0x3a125291	0.00055817614
152	0x3d70de5c	0.05880581
153	0x2657efea	7.4918254e-16
154	0xbb00f03c	-0.001967444
155	0xbd91d009	-0.07119758
156	0xbd4b17b6	-0.04958316
157	0xa5b48656	-3.1316052e-16
158	0x3d6af99f	0.057366963
159	0xbab8aa0f	-0.0014088767
160	0x3c692bff	0.014231681
161	0x3c5898b8	0.013220005
162	0x37a387c5	1.9494337e-05
163	0x3b3c8e64	0.0028771395
164	0xbe59e1ba	-0.21277514
165	0x3ca7eef2	0.02049968
166	0xb64a9cef	-3.0191693e-06
167	0x3dd3e57d	0.10346506
168	0xba32684c	-0.00068057026
169	0xbd0c254b	-0.034215253
170	0x3e456a24	0.1927877
171	0xa9c8e16f	-8.920891e-14
172	0xbb95fcfa	-0.0045772763
173	0x3de458be	0.11149739
174	0x3da02963	0.07820394
175	0x3bbedbf9	0.0058245626
176	0xbd919b0d	-0.07109652
177	0x3b898d3f	0.004197746
178	0x3c1624a6	0.009164011
179	0x3d3c3c61	0.04595602
180	0x27c32a7e	5.4169443e-15
181	0xbb78569d	-0.0037893422
182	0xbe1d8679	-0.15383328
183	0xbe5b1df2	-0.21398142
184	0xba9e06a8	-0.0012056427
185	0xbcf895cb	-0.030344864
186	0xbc0f3a8f	-0.008741989
187	0x3c1fbf75	0.009750237
188	0x3b54d46b	0.0032475244
189	0xa6a04a75	-1.1122412e-15
190	0xbb4df391	-0.0031425694
191	0xbdbdf2ce	-0.09274827
192	0x3e3a170b	0.18172853
193	0xa8c85d2e	-2.224487e-14
194	0xbe5273ed	-0.20552035
195	0x3b08487a	0.0020795153
196	0x3a5f276d	0.000851265
197	0x3d507451	0.050892178
198	0x37dba5f6	2.6184116e-05
199	0x3aef75da	0.0018269375
200	0xbe352145	-0.17688473
201	0xbd9a74cb	-0.07541808
202	0x282b844c	9.521094e-15
203	0xbd5e9ace	-0.054346852
204	0xb770a2d2	-1.4343024e-05
205	0x3a60664a	0.0008560164
206	0x3d8a9ed8	0.06768578
207	0x3875bcca	5.8588375e-05
208	0xbbea9d35	-0.007159854
209	0x3e91ccbd	0.28476515
210	0xbe5db475	-0.2165087
211	0xac88bd58	-3.886374e-12
212	0xbd97626f	-0.073918216
213	0xbc45a4a0	-0.012063175
214	0x3baefca0	0.005340174
215	0x3e26052f	0.16212915
216	0x3b9ebbd2	0.0048441673
217	0xbb8c96d1	-0.0042904397
218	0xbe777ec2	-0.24169448
219	0xbe5c3aa2	-0.21506742
220	0xa6a33791	-1.1325458e-15
221	0xbea6fee5	-0.32616344
222	0x3332be1b	4.1616754e-08
223	0x3d9c1c95	0.07622639
224	0xbd9d6261	-0.0768478
225	0xb8be94e5	-9.08764e-05
226	0xbbc4ae1e	-0.0060022017
227	0x3c4ef10e	0.012630714
228	0xbe11844c	-0.14210624
229	0xb881e0be	-6.193061e-05
230	0xbe424535	-0.18971713
231	0xbb2fd086	-0.002682717
232	0xbd2c3ee3	-0.04205216
233	0xbe12f817	-0.14352451
234	0xad2bb2f9	-9.7599645e-12
235	0x3b8a54fb	0.0042215562
236	0x3dcd9ba0	0.10039449
237	0xbe497899	-0.1967491
238	0x2d8856cb	1.5499954e-11
239	0x3e3f8a67	0.1870514
240	0xaf25bdca	-1.5074089e-10
241	0xbdb1a866	-0.086746976
242	0xbe742a87	-0.23844348

bias_ih_l0 f4 [27]
0	0x3d876643	0.06611302
1	0x3dbd1307	0.09232145
2	0xbd4b7305	-0.049670238
3	0xbe01c60d	-0.12673207
4	0xbe99875d	-0.29986086
5	0xbd8e62af	-0.06952416
6	0xbd46f0ed	-0.04856961
7	0x3e79d643	0.2439814
8	0xbdebca07	-0.11513143
9	0xbe5f0fde	-0.21783397
10	0x3e92afbd	0.28649703
11	0xbcf85d8b	-0.030318042
12	0x3d3cab9b	0.046062093
13	0x3d59780d	0.053093005
14	0xbd7a6675	-0.061132867
15	0xbe1b9646	-0.15194044
16	0x3bfe3e8d	0.0077589215
17	0xbe0b576f	-0.13607572
18	0x3e2d92c8	0.16950524
19	0x3e9d6cff	0.3074722
20	0x3e7b3375	0.24531348
21	0xbdf3e877	-0.119095735
22	0x3d9d1678	0.07670301
23	0xbda15285	-0.078770675
24	0xbe774dad	-0.24150725
25	0x3e95eebe	0.29283708
26	0x3db93d14	0.09044853

bias_hh_l0 f4 [27]
0	0x3dd230fe	0.10263251
1	0xbaa214a2	-0.0012365768
2	0x3e50c117	0.20386158
3	0x3e0acdd2	0.13555077
4	0x3e458959	0.19290675
5	0x3d144d1f	0.03620636
6	0x3e932193	0.28736553
7	0xbd6f6d68	-0.058453947
8	0x3df5ff84	0.12011626
9	0x3e450723	0.19241004
10	0x3dacd9cb	0.08439978
11	0x3d8df25f	0.06930994
12	0x3c65f911	0.014036433
13	0xbe182edc	-0.14861625
14	0xbd65ec06	-0.056133293
15	0x3e51efec	0.20501679
16	0xbdfa6b31	-0.122274764
17	0xbe3ea04d	-0.18615837
18	0xbdaa8071	-0.083252795
19	0xbd62c6bc	-0.05536531
20	0x3e835bac	0.25655878
21	0xbe8d7058	-0.27624774
22	0xbe8f438c	-0.27981222
23	0xbbe6ca8e	-0.0070431894
24	0x3c8ceb0d	0.017201925
25	0xbdbdb6fa	-0.09263416
26	0xbd3abd13	-0.04559047

weight_ih_l0 f4 [27, 39]
0	0x37ac9031	2.0571142e-05
1	0xbba4b558	-0.0050265007
2	0x3e050f10	0.12994027
3	0xb614fa14	-2.2199283e-06
4	0xbd9d69d7	-0.07686203
5	0xbb0698b0	-0.0020537786
6	0xbe1020b4	-0.14074975
7	0xb8f2f5b9	-0.00011585229
8	0xb6c1d326	-5.776429e-06
9	0xbbb7706c	-0.0055981185
10	0x3b0c6122	0.00214202
11	0x3e764c9e	0.24052665
12	0x3dc9af0e	0.09847842
13	0x3cd2dd97	0.025740428
14	0xbdb86e72	-0.09005441
15	0x3d04ec29	0.032451782
16	0x3de8c809	0.11366279
17	0xbc8520e7	-0.01625104
18	0xbd01df7f	-0.031707283
19	0xbe411121	-0.1885419
20	0x3dce3a52	0.100697175
21	0xbe1bae47	-0.152032
22	0xbe41a341	-0.18909933
23	0xbe4b989c	-0.19882435
24	0x3e7ef43a	0.24897853
25	0x3e0eea1f	0.13956498
26	0x3dd661dc	0.10467884
27	0x3e0f5190	0.13995957
28	0x3e256935	0.16153415
29	0xbca25314	-0.019815005
30	0xbdce1e5d	-0.10064385
31	0xbd457dbc	-0.048215613
32	0x3ddda0d3	0.108216904
33	0xbd04e7aa	-0.032447495
34	0xbd5fcc81	-0.05463839
35	0xbd9eb31b	-0.077490054
36	0xbe23f720	-0.1601224
37	0x3e6e5f06	0.23278436
38	0xbe0a3d2e	-0.134999
39	0xbbd0cd57	-0.0063721347
40	0x3c213a1e	0.009840516
41	0xbe87d46b	-0.2652925
42	0xb9ef4fcc	-0.00045645086
43	0xbe838e20	-0.2569437
44	0xba6c042c	-0.0009003307
45	0xbe555150	-0.208318
46	0x388e5410	6.7867455e-05
47	0x3ba32873	0.004979187
48	0x3d3f1702	0.0466528
49	0x3cbb0e58	0.022833988
50	0xbd90d2ad	-0.07071433
51	0xbd450ec5	-0.04810979
52	0xbdb94a31	-0.09047354
53	0x3dd13473	0.10215082
54	0x3bad4ba7	0.0052885595
55	0x3d336522	0.04379762
56	0x3e032ebe	0.128108
57	0xbd064a84	-0.032785907
58	0x3dce13c9	0.100623675
59	0x3e14e999	0.14542235
60	0x3d2637d0	0.04058057
61	0xbdadf1f7	-0.08493417
62	0xbe2d7253	-0.16938142
63	0xbe9cba99	-0.30611113
64	0xbe05cc83	-0.13066296
65	0x3e1d50a9	0.153628
66	0x3c98f4a2	0.018671338
67	0x3e6dfd54	0.23241168
68	0x3d9e8af3	0.07741346
69	0x3deff30a	0.11716278
70	0x3da8d697	0.08244055
71	0x3e3fe988	0.18741429
72	0x3dcaa4c7	0.0989471
73	0x3e160ae1	0.14652587
74	0x3d652089	0.05593923
75	0xbdf74ab8	-0.12074798
76	0x3e05a81e	0.13052413
77	0xbe034b80	-0.1282177
78	0x375f6f54	1.3317756e-05
79	0x3c3dca60	0.0115838945
80	0xbea031e0	-0.31288052
81	0x2d9ede32	1.8061195e-11
82	0xbc8918f1	-0.016735526
83	0x26e26cf8	1.5711436e-15
84	0x3de99951	0.11406196
85	0xac232a21	-2.318708e-12
86	0xbbd84241	-0.006599695
87	0x3e820a2d	0.25398389
88	0x3c844d2c	0.01615008
89	0xbe211d70	-0.15733886
90	0x3e7475d8	0.23873079
91	0x3e1c13bc	0.15241903
92	0xbb5818f8	-0.0032973867
93	0x3e0dd654	0.13851291
94	0x3df6c853	0.120499276
95	0x3bb383fe	0.005478381
96	0x3debf08e	0.115204915
97	0x3e427f67	0.18993913
98	0xbdac1865	-0.084030904
99	0xbda9c53d	-0.08289573
100	0xbc2f70ff	-0.010708093
101	0xbe8d1308	-0.27553582
102	0x3e02d3b4	0.12776071
103	0xbe10fc97	-0.14158855
104	0xbddbd659	-0.10734243
105	0x3de60c03	0.1123276
106	0xbe452db2	-0.19255713
107	0xbd33af7a	-0.04386852
108	0x3df2bda3	0.118525766
109	0xbe0836d2	-0.13302162
110	0xbca4e326	-0.020127844
111	0x3d454b27	0.048167374
112	0x3cbef1c2	0.023308638
113	0xbe309ee8	-0.17248118
114	0xbe9627b7	-0.29327175
115	0xbd9a23c0	-0.0752635
116	0x3cd15c5f	0.025556741
117	0x3c1ccee8	0.009570815
118	0x3af76ac3	0.0018876422
119	0x3e35c0ba	0.177493
120	0xbb5d5424	-0.0033772076
121	0xbdddaa80	-0.10823536
122	0x39866c92	0.00025639363
123	0x3dc94099	0.09826774
124	0x2d56d01e	1.2210703e-11
125	0x3855969e	5.092343e-05
126	0x3e245604	0.16048437
127	0x3adc9bf8	0.001683115
128	0xbe62c701	-0.22146226
129	0x3d84f1c8	0.064914286
130	0xbdb24910	-0.08705342
131	0x3dc85669	0.097821064
132	0xbd067bea	-0.032833017
133	0xbd3cac22	-0.046062596
134	0xbda85577	-0.08219426
135	0xbd1c2807	-0.03812411
136	0x3e1edcd4	0.15513927
137	0xbcabef24	-0.020988055
138	0x3d7860fe	0.060639374
139	0xbe4dc017	-0.20092808
140	0x3e2ee661	0.1708007
141	0x3b21cc4d	0.0024688423
142	0x3e742219	0.23841132
143	0xbc99151e	-0.018686827
144	0xbd3578ce	-0.04430466
145	0xbe88c088	-0.2670939
146	0xbe3544af	-0.17701982
147	0xbe0b5d21	-0.13609745
148	0xbc9765f4	-0.018481232
149	0x3b2a58b1	0.0025992806
150	0xbdd9b76b	-0.10630687
151	0xbc962677	-0.018328888
152	0x3e5ae8a0	0.21377802
153	0x3e1ded10	0.15422463
154	0xbd272cb1	-0.040814105
155	0x3e37773f	0.17916583
156	0x3ae13c0f	0.0017184037
157	0xbb3db65d	-0.0028947808
158	0x3e69d723	0.22835974
159	0xaf9f0355	-2.89243e-10
160	0x3d93976e	0.07206617
161	0xad4d16aa	-1.1657933e-11
162	0xbb4c13a1	-0.003113963
163	0xab023fa7	-4.6273613e-13
164	0x3647926f	2.9738546e-06
165	0x3d6558a8	0.055992752
166	0xbb264d4a	-0.0025375658
167	0x3e5b2c58	0.21403635
168	0xbb85a581	-0.0040785675
169	0xbdb5821a	-0.088627055
170	0x3c62102a	0.013797799
171	0xba96a75a	-0.0011493966
172	0x3d7de620	0.061987042
173	0xbc28da34	-0.01030593
174	0xbc328fe4	-0.010898564
175	0x3d6b7765	0.05748691
176	0xbcf41b15	-0.02979807
177	0xbd364700	-0.044501305
178	0x3c7fb845	0.015607898
179	0xbda15cd9	-0.078790374
180	0xbd247b0b	-0.040156405
181	0xbdde570c	-0.108564466
182	0xbd862ec7	-0.06551891
183	0x3d8f7502	0.07004739
184	0xbded6933	-0.11592331
185	0xbda328b8	-0.07966751
186	0xbe4d4787	-0.20046817
187	0xbc32d497	-0.010914943
188	0xbd86825d	-0.065678336
189	0xbc723841	-0.01478392
190	0x3adba08a	0.0016756218
191	0xbddcd106	-0.107820556
192	0xbc5e7bd2	-0.013579326
193	0xbe46f4fa	-0.19429389
194	0xbd7e3264	-0.062059775
195	0x3c2389dc	0.009981599
196	0x3a3df900	0.0007246882
197	0xbe1f8aec	-0.15580338
198	0xa594ff71	-2.5847e-16
199	0xbd3324fc	-0.043736443
200	0xbbeeecde	-0.0072914204
201	0x3d6921a0	0.056916833
202	0x36b4467f	5.372625e-06
203	0xaf2208a6	-1.4736887e-10
204	0xbcb45fc6	-0.022018325
205	0xbb64e8e6	-0.0034928857
206	0xbdf72e93	-0.1206943
207	0x3e33e8dc	0.17569298
208	0xbe0353a9	-0.12824883
209	0xbd6a6fac	-0.057235405
210	0x3c19aef9	0.009380096
211	0x3a0cc291	0.0005369569
212	0x3c37fa03	0.011229041
213	0xbd0024b4	-0.031285003
214	0x3d61ceba	0.05512879
215	0xbb91c112	-0.0044480646
216	0x3b9d6acb	0.0048039905
217	0x3e288b66	0.16459426
218	0xbe0d2e45	-0.13787182
219	0xbe417086	-0.1889058
220	0xbd2e869e	-0.04260885
221	0xbcd06bad	-0.025441969
222	0xbd6398e1	-0.05556572
223	0x3dd33d2b	0.10314401
224	0x3e037560	0.12837744
225	0x3cc2bb73	0.023771023
226	0xb9598f5a	-0.00020748135
227	0xbdc87dff	-0.09789657
228	0x3d3e3b1e	0.046443097
229	0xbc10e2f1	-0.00884317
230	0xbd8d1f0f	-0.068906896
231	0x3da646c7	0.081189685
232	0x3d7ec5a4	0.062200204
233	0xbd9365a7	-0.07197123
234	0xbb2bcb1c	-0.0026213592
235	0x3be9e25f	0.0071375812
236	0x3cac6cfa	0.021048058
237	0x3a071a1f	0.00051537337
238	0xbe46d19f	-0.19415902
239	0xb1e8de1e	-6.7773405e-09
240	0xbe60fbe0	-0.21971083
241	0xbc1a7f58	-0.009429775
242	0x3b12aa4f	0.0022379344
243	0xbe5844e5	-0.21120031
244	0x3c68312d	0.014171881
245	0x3dff06e5	0.12452487
246	0xbe2f6063	-0.17126612
247	0xbdba3fc4	-0.090941936
248	0x3c94ef07	0.018180383
249	0xbdb9ac75	-0.09066097
250	0x3dc2195d	0.09477494
251	0xbc017402	-0.007901194
252	0x3da3c254	0.079960495
253	0xbe1bd82f	-0.15219186
254	0xbd9ca706	-0.07649045
255	0x3da700aa	0.081544235

weight_hh_l0 f4 [27, 9]
0	0x3db34bee	0.08754717
1	0xbded80af	-0.1159681
2	0xbe0678af	-0.13131975
3	0x3e3caa4a	0.18424335
4	0xbe2bd9b0	-0.1678226
5	0xbe49a1f9	-0.19690694
6	0xbd6766ae	-0.056494407
7	0xbe6f16b2	-0.23348501
8	0xbdb01b09	-0.085989065
9	0xbe4a12f0	-0.19733787
10	0x3d2201ec	0.039552614
11	0xbea294df	-0.31754205
12	0x3c4a489a	0.012346411
13	0xbe98aa9c	-0.29817665
14	0xbdd55960	-0.104174376
15	0x3d6d8fbb	0.0579984
16	0xbdae9dff	-0.08526229
17	0x3e7f502f	0.24932931
18	0x3e9475db	0.28996167
19	0xbd4dcca5	-0.050243992
20	0x3c32f420	0.010922462
21	0x3dda7ff1	0.10668934
22	0x3c6d95b3	0.014501023
23	0x3e97f84b	0.2968162
24	0x3e63f49f	0.22261284
25	0x3e9a2a1f	0.3011026
26	0xbd5672f8	-0.052355736
27	0xbe59327b	-0.21210663
28	0xbcd1f3da	-0.025628973
29	0x3e4e5054	0.2014783
30	0xbe9a0079	-0.30078486
31	0x3cbc23e9	0.022966342
32	0x3d7d421e	0.061830632
33	0xbc195580	-0.009358764
34	0xbe04232b	-0.1290404
35	0x3e4eb54f	0.20186351
36	0x3e430122	0.19043401
37	0x3de310c7	0.110871844
38	0xbc6c130a	-0.014408836
39	0x3dcaaeb6	0.09896605
40	0x3e7b2f0a	0.24529663
41	0xbd207eb9	-0.039183352
42	0xbc05833e	-0.008148966
43	0xbe368fcf	-0.17828296
44	0xbe42b687	-0.19014941
45	0xbdb3689a	-0.087601855
46	0x3dc53b9a	0.09630509
47	0xbdbf4061	-0.09338451
48	0xbcf19d53	-0.029493963
49	0x3cd02c55	0.025411764
50	0xbcc5eace	-0.024159815
51	0xbe5ea1f4	-0.21741468
52	0xbd87b658	-0.06626576
53	0xbd5f088e	-0.054451518
54	0x3e948462	0.2900725
55	0xbde63748	-0.11241013
56	0x3e864fc8	0.26232743
57	0xbe30303c	-0.172059
58	0xbe50dde4	-0.20397145
59	0xbd5ed175	-0.054398973
60	0x3e3f577c	0.18685716
61	0xbe229859	-0.15878429
62	0x3d816a48	0.063191
63	0xbe5f0159	-0.21777858
64	0xbe0cf8c5	-0.13766773
65	0x3e6d9e52	0.23204926
66	0xbdd630f2	-0.10458554
67	0x3e0005ef	0.12502263
68	0x3dadd7a7	0.08488398
69	0xbe4783a4	-0.1948381
70	0xbe7b0f5f	-0.24517582
71	0xbda10b1d	-0.07863448
72	0xbd938a7b	-0.072041474
73	0xbc6a5532	-0.014302539
74	0xbe3629d4	-0.17789394
75	0x3e5b4085	0.21411331
76	0xbdd468c6	-0.103715464
77	0x3d514a0e	0.051096015
78	0x3dd17f27	0.102293305
79	0x3d398f30	0.04530257
80	0xbcddfb26	-0.027097296
81	0x3e02db8f	0.12779067
82	0xbe823b5b	-0.2543591
83	0xbe11d046	-0.14239606
84	0xbdaece07	-0.0853539
85	0xbe8c502d	-0.2740492
86	0xbe5f1635	-0.21785815
87	0xbe8d6229	-0.27613953
88	0xbe90aae7	-0.28255388
89	0xbe16eb2d	-0.1473815
90	0xbe1f34d3	-0.15547495
91	0x3e2ba1b6	0.16760907
92	0xbdc83482	-0.0977564
93	0xbe532df2	-0.20622995
94	0x3a09a5f0	0.0005250862
95	0x3c9dc66b	0.019259652
96	0x3d476c36	0.048687182
97	0xbe7caba7	-0.24674855
98	0x3e56f73a	0.20992747
99	0xbe2ed0f5	-0.17071898
100	0x3d21b3b4	0.03947802
101	0x3c2910fd	0.010318992
102	0xbda8224d	-0.08209667
103	0x3d998673	0.07496347
104	0xbe8d252d	-0.27567425
105	0xbcfd447f	-0.03091645
106	0x3df23e5e	0.11828302
107	0xbd6a6b54	-0.057231262
108	0x3e8312ff	0.2560043
109	0x3c865856	0.016399544
110	0xbe116638	-0.1419915
111	0xbe8651e1	-0.26234344
112	0x3e2715db	0.16316931
113	0xbdd8cc6e	-0.10585867
114	0xbd41fb43	-0.047358762
115	0x3d9779eb	0.07396301
116	0x3e840373	0.25783882
117	0x3dde162b	0.10844072
118	0x3e268990	0.16263413
119	0xbe7a2312	-0.24427441
120	0x3dc57361	0.096411474
121	0x3dfd24a6	0.12360506
122	0x3dc04b67	0.09389382
123	0x3e2b51dc	0.16730446
124	0xbe84bb8d	-0.2592434
125	0x3e8a7261	0.2704039
126	0x3dbe30a6	0.09286623
127	0x3e37cafd	0.17948528
128	0xbe1489e8	-0.14505732
129	0x3dcc3b13	0.09972205
130	0x3de86550	0.11347449
131	0x3d10fd8b	0.035398047
132	0x3e85c419	0.26126173
133	0x3e7067dc	0.23477119
134	0xbe8777be	-0.26458544
135	0xbe5677aa	-0.20944086
136	0x3e9368be	0.2879085
137	0x3e8c7779	0.274349
138	0x3e937fc2	0.2880841
139	0x3e81aad1	0.25325635
140	0xbe391fb6	-0.18078503
141	0xbe199762	-0.14999154
142	0x3dd2dc16	0.10295884
143	0x3db4a7cf	0.088210694
144	0x3c7daf37	0.015483669
145	0x3c6e1b5a	0.014532888
146	0x3e793d34	0.24339753
147	0xbe2c933a	-0.16853037
148	0xbe0a14c3	-0.13484482
149	0x3d48ba21	0.04900563
150	0x3de3dc1d	0.11125968
151	0xbe3c2e8c	-0.18377131
152	0xbe6fa4b2	-0.2340267
153	0x3e9c5361	0.30532363
154	0x3d857bf8	0.06517786
155	0xbe3531ca	-0.17694774
156	0xbdfa82e6	-0.12231998
157	0x3e0791ab	0.13239162
158	0x3da54983	0.08070662
159	0x3dfec98d	0.124407865
160	0xbd686ce1	-0.05674446
161	0x3bf3e700	0.007443309
162	0x3e96f15a	0.29481012
163	0x3eab1d36	0.33420724
164	0xbe90dcb1	-0.28293374
165	0x3e9b8712	0.30376488
166	0x3e17a93e	0.14810655
167	0x3eb18f83	0.34679803
168	0xbe92dc3e	-0.28683656
169	0xbd359091	-0.044327322
170	0x3d303074	0.04301496
171	0x3c79111e	0.015201835
172	0x3e51da9f	0.20493554
173	0xbddfce93	-0.10928073
174	0x3e356e32	0.17717817
175	0x3ea68d30	0.32529593
176	0x3db2b4cb	0.0872589
177	0x3e8b613d	0.27222624
178	0xbdceaea0	-0.10091901
179	0x3e6a2d59	0.22868861
180	0x3e3a3ebd	0.18187995
181	0x3e0bd38b	0.13654916
182	0x3d7aa9f2	0.06119723
183	0xbe202e3d	-0.15642639
184	0x3d26c08a	0.040710963
185	0x3e82935b	0.25503048
186	0x3e13ea65	0.14444883
187	0xbd721eb9	-0.05911133
188	0x3e6a9e28	0.22911894
189	0xbe8b6b82	-0.2723046
190	0x3e783912	0.2424052
191	0x3e98e6f1	0.29863694
192	0x3e3d32a8	0.18476355
193	0xbde75ad2	-0.112966195
194	0x3e75af29	0.239926
195	0xbe2d6ef4	-0.16936857
196	0xbd9bb1ab	-0.07602247
197	0x3e95e333	0.29274902
198	0x3d2a46cb	0.04157142
199	0x3e9e10b4	0.30872118
200	0xbda43003	-0.0801697
201	0xbe13292c	-0.14371175
202	0xbe9544d2	-0.29154068
203	0xbe3f57e8	-0.18685877
204	0x3e594644	0.2121821
205	0x3e4e5f63	0.20153575
206	0x3da081d5	0.078372635
207	0xbe355137	-0.17706762
208	0xbdcf69c2	-0.101275936
209	0x3e67ea68	0.22648013
210	0xbe5168fa	-0.20450202
211	0x3ea2e093	0.31811962
212	0xbe01592c	-0.12631673
213	0xbe9f3470	-0.31094694
214	0x3e5eaa7f	0.21744727
215	0x3bd24638	0.006417062
216	0xbd199b41	-0.037501577
217	0xbe4a3777	-0.1974772
218	0xbe6d9b46	-0.23203763
219	0xbcc9b84a	-0.024624009
220	0x3ea19518	0.31559062
221	0xbda0201f	-0.078186266
222	0x3e9b6a09	0.30354336
223	0xbe228abf	-0.1587324
224	0xbe96abc3	-0.2942792
225	0xbe85ba7d	-0.26118842
226	0xbe34795d	-0.17624421
227	0x3e7b0365	0.24513014
228	0x3e8322e1	0.25612548
229	0x3e3492e3	0.17634158
230	0x3e524995	0.20535882
231	0x3e773afd	0.24143596
232	0xbe6fe05b	-0.23425429
233	0x3b0b4905	0.002125324
234	0x3e2677c1	0.1625662
235	0xbe1cd605	-0.15316017
236	0xbe83c785	-0.2573816
237	0x3e00d2be	0.12580392
238	0x3c3af923	0.011411938
239	0xbe6c1675	-0.23055442
240	0x3e4e62a5	0.20154817
241	0x3dd8c7c2	0.10584976
242	0x3e9cd8fb	0.30634293

bias_ih_l0 f4 [27]
0	0x3ea20723	0.3164607
1	0xbda7d9bc	-0.081958264
2	0xbe8639aa	-0.2621587
3	0xbe9317c0	-0.28729057
4	0xbe6886e9	-0.22707714
5	0x3cee5ada	0.029096056
6	0xbc9bdb78	-0.01902555
7	0xbe74f091	-0.23919894
8	0x3db189ed	0.086688854
9	0x3e83faa2	0.25777155
10	0xbd500a45	-0.050791044
11	0x3dc7cb26	0.09755544
12	0xbd01f10f	-0.031724032
13	0x3e8ec8e0	0.2788763
14	0x3e553d9f	0.20824288
15	0x3eaf1976	0.34199113
16	0x39950f7e	0.00028431037
17	0x3eb5f15d	0.35535708
18	0x3e6513f7	0.22370897
19	0xbe98187e	-0.29706186
20	0x3e407ba1	0.1879716
21	0xbe3db706	-0.18526849
22	0xbe499717	-0.19686542
23	0xbe988454	-0.29788458
24	0xbd5fbefa	-0.05462549
25	0xbdb0f0df	-0.086396925
26	0xbda44a43	-0.08021977

bias_hh_l0 f4 [27]
0	0xbd947405	-0.072486915
1	0xbbec337b	-0.0072082854
2	0xbe821fed	-0.25414982
3	0x3e36961d	0.17830701
4	0x3e145560	0.14485693
5	0xbe669eac	-0.22521466
6	0x3eaab612	0.33342034
7	0xbe86e52a	-0.26346713
8	0x3b883e94	0.0041578505
9	0x3c8764b1	0.016527506
10	0x3eb70138	0.35743117
11	0xbe8adca5	-0.27121463
12	0x3df4efd9	0.1195981
13	0x3db33a33	0.08751335
14	0x3e4df4b9	0.20112886
15	0x3e078ec2	0.13238052
16	0xbe8258d6	-0.254584
17	0xbe008285	-0.12549789
18	0x3e595c88	0.21226704
19	0xbdb292b0	-0.08719385
20	0xbe811990	-0.25214815
21	0x3d111350	0.03541881
22	0xbe2e6498	-0.17030561
23	0x3df95437	0.12174266
24	0x3e6baad9	0.23014392
25	0x3cdc8027	0.026916577
26	0x3da0695c	0.07832596

weight f4 [9, 9]
0	0xb9959542	-0.000285307
1	0xbb63eb2c	-0.0034777625
2	0xbb8ae79d	-0.0042390362
3	0xb9028c34	-0.00012449996
4	0x398b3369	0.0002655045
5	0x3adb33d6	0.0016723822
6	0x3bc28281	0.0059359674
7	0xb83ecfaa	-4.5492932e-05
8	0x3a52a508	0.0008035456
9	0x3dfe5dde	0.124202475
10	0xbcc5aa16	-0.024128955
11	0x3c7bfb58	0.015379749
12	0xbe24951b	-0.16072504
13	0x3dbbdcf5	0.091730036
14	0x3cb9c7f2	0.02267835
15	0xbd09b17c	-0.033616528
16	0xbb24ff48	-0.0025176574
17	0x3d5fab19	0.05460653
18	0xbc05e273	-0.0081716655
19	0x3e75562e	0.23958656
20	0xbea42602	-0.32060248
21	0xbe63d86f	-0.22250532
22	0xbceb085a	-0.028690506
23	0x3dd5c4b4	0.10437909
24	0x3dd7c5db	0.10535785
25	0xbde6aff1	-0.11264027
26	0x3e456eaa	0.19280496
27	0xbb5e6a02	-0.0033937697
28	0x3d3517a6	0.044212006
29	0x3de153b7	0.110022955
30	0xbe19e13f	-0.15027331
31	0xba8187d8	-0.0009882404
32	0xbbed2d21	-0.007238046
33	0xbdd59535	-0.104288496
34	0x3be93ce6	0.0071178554
35	0x3a34789b	0.00068844267
36	0x3e0ea134	0.13928682
37	0xbe9ab6f1	-0.30217698
38	0x3e7dfebb	0.24804203
39	0xbe7bf34e	-0.24604532
40	0x3e86814a	0.26270515
41	0xbe893679	-0.26799372
42	0x3da5ea85	0.08101372
43	0xbe8b082d	-0.27154675
44	0x3ca01617	0.019541783
45	0x3a99ee01	0.0011743904
46	0x3ba20227	0.0049441042
47	0xbc5823f7	-0.013192168
48	0x3b803c87	0.0039134654
49	0xa910ec77	-3.2179524e-14
50	0x39bded70	0.00036225794
51	0x3be92f14	0.007116208
52	0x3c0db68c	0.00864948
53	0x2a7325c0	2.1595833e-13
54	0x3d4e9390	0.050433695
55	0xbe1b1285	-0.15143783
56	0xbdd1a20a	-0.102359846
57	0xbdd519b5	-0.10405294
58	0x3d12d605	0.035848636
59	0x3e514ec9	0.2044021
60	0xbd627188	-0.055284053
61	0xbe3accbd	-0.18242164
62	0x3eb03b90	0.34420443
63	0x239ddb3a	1.711482e-17
64	0x249a9312	6.7036e-17
65	0xb33b8e4f	-4.366876e-08
66	0xb8c25fde	-9.2684975e-05
67	0x37097a76	8.194349e-06
68	0x260f4b3a	4.971504e-16
69	0xbbefe112	-0.0073205316
70	0xac98c8fe	-4.3424144e-12
71	0x3b0221c6	0.0019856556
72	0xbb3b7d68	-0.0028608683
73	0xbb6fea10	-0.0036608018
74	0xba9e1a7a	-0.0012062334
75	0xb2de1775	-2.5854868e-08
76	0x3c61563f	0.013753473
77	0x3c02c820	0.007982284
78	0x3b9fcc61	0.004876659
79	0x3234c3ed	1.0521927e-08
80	0x38929b0b	6.9907015e-05

bias f4 [9]
0	0xbc3beb26	-0.011469638
1	0x3c8cc927	0.01718576
2	0x3ea4fbe0	0.32223415
3	0xbe67bbb0	-0.22630191
4	0x3cbdeaa6	0.023183178
5	0xbaf46abc	-0.0018647532
6	0x3db85d1d	0.09002135
7	0xbb7811a1	-0.0037852305
8	0xbc1ee772	-0.009698736
