ERTSNet/new_arch_LA/decimation/model/best-model_r0_J2_NE30.pt (torch, 483295 bytes, 65 tensors)

weight_ih_l0 f4 [27, 15]
000000 c5 48 eb bd 17 f1 5e bd a0 cc 80 be 28 6e 14 3e
       -0.11488489 -0.05442914 -0.25156116 0.14495146
000010 43 0f 53 be b3 05 bf 3c 9f d3 9a be 43 37 55 be
       -0.2061129 0.023318147 -0.3023958 -0.20821862
000020 8f e3 02 3d fb 30 67 3e 0c 40 6b 3e 32 90 e3 bd
       0.031955298 0.22577278 0.2297365 -0.111114874
000030 bc 27 4a be 78 f1 40 be 21 28 56 be cc be ff 3d
       -0.1974172 -0.18842113 -0.20913745 0.124875635
000040 ff 48 00 3e 2e f4 a7 3e ce 05 63 3e 39 d6 38 be
       0.12527846 0.32803482 0.22170183 -0.1805047
000050 66 25 85 3e f0 75 27 3d 38 ae 0f 3e 04 0b 93 3e
       0.26005095 0.04088396 0.14031303 0.28719342
000060 6e e1 86 3e 27 54 a5 be f5 60 8c 3d 64 0c 83 be
       0.26343864 -0.32290766 0.068544306 -0.2559539
000070 7f 2a 8a be 01 6a 91 bd 11 66 8f bd 6a cc de bb
       -0.26985547 -0.07100297 -0.070018895 -0.0067992704
000080 8e 2c 97 3e 28 f3 45 be 80 84 65 3e 03 b3 6e be
       0.2952618 -0.19331038 0.22413826 -0.23310475
000090 60 19 19 be 1a 63 83 be a0 8a 59 be f6 d2 9e be
       -0.14951086 -0.25661546 -0.21244287 -0.31020325
0000a0 7f 9f c7 3d 2e e6 38 3e dd 98 95 bd 33 4f 3f be
       0.09747218 0.18056557 -0.07304547 -0.18682556
0000b0 c6 53 9a be b0 94 57 3e 15 71 bd 3d 80 2a 22 be
       -0.3014204 0.21052814 0.09250084 -0.15836525
0000c0 d0 88 4c 3e 35 1a 5a 3e e6 10 48 be 86 69 63 3e
       0.19974065 0.2129906 -0.19537696 0.22208223
0000d0 0e 54 8a 3e 9c 9a 9b 3e 65 5b 6f bd f3 22 ae 3d
       0.27017254 0.30391395 -0.05843677 0.0850276
0000e0 e5 25 dc bd 15 6a 86 bd 83 60 8f be 68 01 1d 3e
       -0.10749415 -0.06563202 -0.2800332 0.15332568
0000f0 0f 79 86 be f0 34 8a bc 95 ca 4e 3d 97 6f 06 bd
       -0.26264235 -0.016870946 0.050486166 -0.032821264
000100 48 c9 ee 3c 7f 2c 81 be c7 96 27 bd 0d 40 3e be
       0.029148713 -0.2522926 -0.040915277 -0.18579121
000110 c3 78 38 3e dc 27 a5 3e ab 6a 4f be 5c 7a 62 3e
       0.18014817 0.32256973 -0.20255534 0.22116989
000120 8a f9 80 be ac 4f 9d 3e 9f 14 9e 3e d8 03 5d 3e
       -0.25190383 0.30724847 0.30875108 0.21583498
000130 80 f1 70 3d 63 75 76 be 68 49 eb 3b 3b 0c 8e 3d
       0.058824062 -0.24068217 0.0071803816 0.069359265
000140 87 39 99 3e eb 4f f0 bd 24 ee 90 be 4b 0c 6e be
       0.29926702 -0.11733993 -0.28306687 -0.23246877
000150 4b a8 14 3e 26 02 3e be e6 96 35 3e a6 17 6c be
       0.14517324 -0.18555507 0.17733344 -0.23055896
000160 80 d9 1b be 96 25 7e be a2 f4 95 be d4 d8 ff 3a
       -0.15219688 -0.24819025 -0.29288203 0.0019519576
000170 6f 53 f4 bd 8e 4d 56 be 69 3c 25 3e 5b 27 27 bd
       -0.11929976 -0.20928022 0.16136326 -0.040809017
000180 31 3e 51 bd 44 5a 13 3d ce b8 19 be c6 96 18 be
       -0.0510847 0.035974756 -0.15011904 -0.14901266
000190 02 3c 90 be c5 cb c7 3d 3b ac 44 3e 24 60 7f 3e
       -0.28170782 0.09755663 0.19206326 0.24939018
0001a0 78 2c 4d bc fb eb 6d 3d 93 00 e4 bd d9 47 8f be
       -0.012522809 0.058086377 -0.11132922 -0.27984503
0001b0 bc 6b 8c bd 7f ca 93 3e fb e8 32 be 3b 5e 1b 3d
       -0.06856486 0.2886543 -0.17471687 0.037931662
0001c0 b6 13 07 3d f0 72 13 be f7 e6 13 bc 6e a9 16 3e
       0.032977782 -0.14399314 -0.009027234 0.1471307
0001d0 cf c9 7d bd a4 41 70 3d 2b e6 93 be b3 d5 32 3e
       -0.061960038 0.05865635 -0.28886542 0.17464332
0001e0 e3 2a 90 be 74 1c 11 b7 bb d4 8b 3e 88 e5 41 3d
       -0.2815772 -8.649298e-06 0.27310738 0.04733804
0001f0 a5 84 e1 bd 8e 06 9e be db 35 de bd f3 1e 87 3e
       -0.11011628 -0.30864376 -0.10850116 0.263908
000200 3b 52 12 be 0b ad 46 be 62 bb 5d bd f7 0d a2 be
       -0.14289181 -0.19401948 -0.05413378 -0.3165128
000210 bc b2 04 3d f6 1d 49 3e 57 74 9b 3e f8 ef 87 3e
       0.032397017 0.19640335 0.30362198 0.2655027
000220 ee 45 d0 3d 66 72 54 be e3 c6 92 be 92 b0 99 be
       0.10169588 -0.20746765 -0.28667364 -0.30017525
000230 8f b1 2b 3d 4c 2d a3 bd bf 74 81 be d0 f2 4d bd
       0.04191738 -0.07967624 -0.25284383 -0.050280392
000240 1a 8b 02 3e 82 45 42 bd b6 61 b6 bd ce 3d 41 3e
       0.12748376 -0.04742957 -0.08905356 0.18871233
000250 15 e4 f9 3d 2e 5c 1a be bb f0 12 3d a0 d2 07 be
       0.12201706 -0.15074226 0.03587411 -0.13263941
000260 01 ad aa be 00 da d2 3d fe 00 a0 bd 59 7f ff 3d
       -0.33335117 0.102954865 -0.07812689 0.124754615
000270 8e ce 35 3e 4a cc e8 bd b5 5e 67 3c 40 83 8e 3e
       0.17754576 -0.1136709 0.014121701 0.2783451
000280 55 da 41 be 95 fe 5e 3c cc 56 f4 bd 97 a5 86 3e
       -0.18930943 0.013610502 -0.11930618 0.2629821
000290 33 57 80 be bb f7 65 3e 8c ba dc bc 68 d0 0f be
       -0.25066528 0.22457783 -0.026944421 -0.14044344
0002a0 76 e9 be 3d 71 cb 8c bd e5 e8 b2 3d a6 57 16 be
       0.09321873 -0.06874741 0.08735827 -0.14681873
0002b0 54 3a b5 3d 13 3a a1 3e 80 4c 80 bd 4e f0 9d be
       0.08849016 0.3148962 -0.06264591 -0.308474
0002c0 3c 08 8c be a3 69 7a be e7 a6 89 3e b6 79 9b 3e
       -0.27350032 -0.2445436 0.2688515 0.30366296
0002d0 48 92 a5 be c7 8c 59 3c d2 35 26 3e 4d 5a cf bd
       -0.32338166 0.013278193 0.16231468 -0.101246454
0002e0 b3 fd 24 bd b2 b4 09 3c 8e 71 9a 3e b6 f3 98 be
       -0.04028101 0.0084048975 0.3016476 -0.29873437
0002f0 2f 13 0c 3b 90 26 57 be 6e 03 52 be 43 b1 87 bb
       0.002137374 -0.21010804 -0.20509121 -0.0041410043
000300 55 68 b2 3d 53 0d 36 3e 73 1e f5 3c 42 34 84 bc
       0.08711306 0.1777852 0.029921746 -0.0161382
000310 63 e8 9f bd 6c a2 7d 3e 97 7e 69 3e 07 74 e3 bd
       -0.07807996 0.2476899 0.22802196 -0.11106115
000320 b2 17 93 be d3 04 09 3e d6 cd 09 3e 8a 39 86 be
       -0.28729016 0.13380747 0.13457426 -0.26215774
000330 0c 9a 90 3e bb 20 a3 bd 65 f5 cd 3d 07 fe 8c 3e
       0.28242528 -0.07965227 0.10056571 0.27537557
000340 6b 05 a8 3e 73 d8 38 3e cc 35 87 3e 97 cb ea 3d
       0.32816634 0.18051319 0.2640823 0.11464613
000350 86 71 9f 3e a0 e6 28 3e de ef 31 be bb fa be 3d
       0.311413 0.16494226 -0.17376658 0.09325167
000360 56 7e 90 be 30 7c e3 3d 26 68 59 3e 60 65 68 be
       -0.28221387 0.11107671 0.21231136 -0.22694921
000370 f2 31 16 be ce c9 15 be a7 58 5a be 70 17 28 bd
       -0.1466749 -0.14627764 -0.2132288 -0.041037977
000380 3a 8c b9 bb 22 a7 4e be ff fd 09 3e e0 c0 9c 3e
       -0.0056624683 -0.20180944 0.13475798 0.30615902
000390 76 75 8d 3e 36 f2 4e be 8e ad 5a 3e 87 06 f1 bc
       0.27628678 -0.20209584 0.21355268 -0.029422058
0003a0 5e 6a 8a be 58 6c 9f 3e 10 79 1a 3e 38 bd 93 be
       -0.27034277 0.31137347 0.15085244 -0.288553
0003b0 61 67 a5 3d 11 87 b4 3d db 0b 27 be a6 c5 72 be
       0.080763586 0.088148244 -0.16313116 -0.2370821
0003c0 a7 89 68 3d d6 2f b4 2b d4 83 a4 bd 88 e0 21 3e
       0.0567719 1.2803046e-12 -0.08032957 0.15808308
0003d0 bf ec 51 be 48 b6 4e be 12 66 a1 be f9 be bc bd
       -0.20500468 -0.20186722 -0.31523186 -0.09216113
0003e0 03 67 77 3e d7 a5 8c be 87 90 38 be 2a 18 92 3d
       0.2416039 -0.27470276 -0.18023883 0.07133515
0003f0 70 40 94 bd bb 0c 17 3d e1 d3 ce 3c 7a 55 8f be
       -0.07238853 0.036877375 0.025247516 -0.279949

weight_hh_l0 f4 [27, 9]
000000 96 8e 6a 3e 42 1a 85 3e ef 5b 8b bd ea 5e 91 3e
       0.22905955 0.25996596 -0.06804644 0.28392726
000010 2b 31 49 be 1f 38 83 be 30 ab 8b be 26 c7 5a be
       -0.19647662 -0.25628754 -0.27279043 -0.21365032
000020 d7 79 9b 3e de 21 08 be 53 b8 92 be e3 1f 96 be
       0.30366394 -0.1329417 -0.28656253 -0.29321203
000030 b5 68 c3 bd f4 d5 05 3a 80 34 9e bd c8 43 65 be
       -0.09541456 0.0005105429 -0.07724857 -0.22389138
000040 72 78 ad bc 8e 35 a3 3e 3e 77 16 be de 5c 57 be
       -0.021175597 0.31876796 -0.14693925 -0.2103152
000050 93 76 0b 3d 86 f3 56 be 37 a3 87 3e 81 79 92 3d
       0.034048628 -0.20991334 0.2649171 0.07152081
000060 61 ac 92 be 66 08 79 3e 31 cb 6e bc 9b 78 59 bd
       -0.2864714 0.2431961 -0.014574812 -0.053093534
000070 93 2f 20 3e 08 f3 a3 3e 96 e1 47 3e 91 5c 8e 3d
       0.15643148 0.32021356 0.19519648 0.069512494
000080 31 e6 65 bd 6b f6 10 3e c8 d8 22 3e c6 f8 66 be
       -0.05612773 0.14156501 0.15903008 -0.22555837
000090 96 24 f9 3d e8 1c 0c be 88 db 3b 3e a6 d2 a3 3e
       0.12165181 -0.13682902 0.18345463 0.3199665
0000a0 5f 10 cf bd 53 1b 0e 3e d9 a3 59 be a7 24 8d be
       -0.101105444 0.13877611 -0.21253909 -0.27567026
0000b0 e8 1f 24 3e 70 bd 26 bd f3 e5 53 be c0 fe 24 be
       0.16027796 -0.040708005 -0.20693187 -0.16112804
0000c0 e4 47 7f bc b1 1e 43 bd cf 5a a2 be b4 21 01 3e
       -0.015581105 -0.04763669 -0.31709906 0.12610513
0000d0 a8 cf 2a be ce f7 a7 3e 4e d6 a5 be d6 a9 3f 3e
       -0.16680777 0.32806247 -0.32390064 0.18717131
0000e0 91 be cd bd 3b 58 46 be 1e 7e 5b be dc 05 a8 be
       -0.10046113 -0.19369595 -0.21434829 -0.3281697
0000f0 ce e8 68 be 76 ac 8e 3e db 7f 8c bd fe 61 9a 3e
       -0.22745058 0.27865952 -0.06860324 0.30152887
000100 8e 68 62 3e be e5 9f be 03 b4 58 bd 17 64 8d 3e
       0.22110197 -0.31229967 -0.052906048 0.27615425
000110 d3 9e 07 3e de e2 02 3d 4f 7b e2 3d d0 e3 7b 3e
       0.1324418 0.03195464 0.110586755 0.24598622
000120 e8 f8 27 3e c8 1a 34 be 8b bc cd bd c6 75 6d be
       0.16403544 -0.17588341 -0.10045727 -0.23189458
000130 2f 40 88 3e 88 4a 6a be 0b d8 01 be 48 6c 38 3e
       0.26611468 -0.22879994 -0.1268007 0.18010056
000140 27 bc 36 bd af b0 1f bd 15 bf 98 be e6 88 8b bd
       -0.04461303 -0.038986858 -0.29833284 -0.06813221
000150 a5 fa aa 3d 80 72 c3 bd 16 f9 3e 3e e6 d1 07 3e
       0.08348588 -0.095433235 0.18649706 0.13263664
000160 81 a1 dc 3d 53 ef b7 bd db 54 48 be 85 ff 6e 3e
       0.10772992 -0.08981194 -0.1956362 0.2333966
000170 46 a7 e9 3d f3 ba 84 bd d5 6a 90 be 88 21 44 be
       0.11408858 -0.0648097 -0.28206506 -0.19153416
000180 92 39 38 3d 29 8f d1 3c b9 7d d9 3d a9 e5 95 3e
       0.04497678 0.02558096 0.10619683 0.2927678
000190 68 f8 13 be 56 29 3b 3e 09 b2 35 3c 6e 3a 1b 3e
       -0.14450228 0.18277487 0.01108981 0.15159008
0001a0 93 20 74 3e 76 9a a9 bd 87 f1 93 3e 32 01 ed bc
       0.23840551 -0.08281414 0.28895208 -0.028931234
0001b0 28 bc 13 be 87 a1 b9 bd 56 ad 4d 3e 33 55 70 be
       -0.14427245 -0.09064012 0.20085654 -0.23470001
0001c0 81 2a 96 3e 57 13 ad 3d 2e 04 56 be 85 10 e9 bb
       0.29329303 0.084509544 -0.20900032 -0.007112565
0001d0 3c ec 12 3e ca aa 84 be 29 e7 17 3d 84 c8 50 bd
       0.14347929 -0.25911552 0.037085686 -0.050972477
0001e0 32 72 96 3d 06 cb 85 be 70 f4 28 be 5e 26 21 be
       0.07346 -0.26131457 -0.16499496 -0.15737292
0001f0 12 37 20 3e c9 b0 9a 3e 7b 9d 21 3e c9 eb 79 3e
       0.15646008 0.30213 0.1578273 0.24406351
000200 cc 0b 84 3e 21 3f bd 3c 1c e9 c6 3d fa be a9 3d
       0.2579025 0.023101391 0.09712431 0.08288379
000210 82 bb ff 3d 78 c4 8b be c0 62 03 be 2a 5c d8 3d
       0.12486936 -0.2729833 -0.12830639 0.10564454
000220 54 94 5f bd 91 ca f3 bd 37 93 c6 bd 1a d6 91 be
       -0.054584816 -0.11903871 -0.09696048 -0.2848366
000230 45 2b 8e 3e 28 b3 57 be 7a 1e 81 bd dd e2 e2 3d
       0.27767387 -0.21064436 -0.06304641 0.11078427
000240 84 4d ae 3d 71 16 8e be 24 7e 85 3e 4b 92 57 3e
       0.08510879 -0.27751496 0.260728 0.210519
000250 67 da 58 bd ee 11 53 3e bd 68 79 bc 92 2a ba 3d
       -0.05294266 0.20612308 -0.015222725 0.09090151
000260 3a 4f af bc f2 7a 82 3d 27 cc 5c 3d b0 a4 08 bd
       -0.021400083 0.06371106 0.053905632 -0.033360183
000270 a0 4e 75 3e 86 b0 ad 3d ac 2e 88 3e 2a 5e aa 3e
       0.23955774 0.08480935 0.26598108 0.33274966
000280 5d c6 07 3c b2 26 a0 3e 2f bc 8f be 8e 90 a3 3e
       0.00828704 0.31279522 -0.2807326 0.31946224
000290 71 a4 80 3e e8 89 04 be 46 8b 04 be 0e 68 86 3b
       0.2512546 -0.12943232 -0.12943754 0.0041017598
0002a0 08 6c 9d 3e aa 16 1a 3d 80 6a 8e 3d 5e 05 7d 3e
       0.30746484 0.03761927 0.06953907 0.24709079
0002b0 51 e4 63 bd 03 e5 62 be 98 9f 96 3e 9b 3e 6f bd
       -0.05563766 -0.22157674 0.29418635 -0.058409315
0002c0 41 cf 94 bd 40 53 9a 3e 34 ad a6 be a0 60 f4 3d
       -0.07266093 0.3014164 -0.32554018 0.11932492
0002d0 c6 9b 48 3e 43 28 35 be d0 93 76 be 0a d5 a7 be
       0.19590673 -0.1769114 -0.24079823 -0.32779723
0002e0 4e 01 8a be 70 58 da bd 8e a8 14 be fb 8b a2 3e
       -0.2695412 -0.10661399 -0.14517424 0.31747422
0002f0 b4 3d a1 3c bf ee a6 3e 70 0c e3 bd b9 a9 6e 3c
       0.019682743 0.32604024 -0.11086357 0.014566832
000300 7c d2 0c 3d fa b3 03 3d 96 97 a8 3e 90 be 99 bd
       0.03438042 0.03215406 0.3292815 -0.0750705
000310 ee f6 60 3e 68 1a 9b be 72 3e 49 3d bb 07 bd bd
       0.21969196 -0.30293584 0.049131818 -0.0922999
000320 98 bc 0a be 00 9a 97 be fe b5 68 3e 00 79 82 3e
       -0.13548505 -0.2960968 0.22725675 0.2548294
000330 8c c5 63 be 90 00 58 be d3 e1 89 be 86 7e 43 3e
       -0.22243327 -0.21093965 -0.26930103 0.19091234
000340 4b f6 87 bc 05 e4 1c bd a3 e9 70 bc cb 6a 1d be
       -0.016596934 -0.038303394 -0.014704141 -0.1537277
000350 d5 ca 89 3d 1d 06 e6 bb 58 6e 07 3e 65 ae c8 3d
       0.0672814 -0.0070197717 0.13225687 0.09798888
000360 5f cc ce bc c3 29 6c 3e 05 30 f1 bd af 6f 33 3d
       -0.025243936 0.23062806 -0.11776737 0.04380768
000370 4d b5 d7 bc 9e 1f 50 3e 93 e7 4a 3e 3b 11 33 3e
       -0.026331568 0.20324561 0.19814901 0.17487042
000380 c6 88 18 bd c3 4b 39 3e e0 0e 76 3e d7 81 a8 3e
       -0.037239812 0.18095307 0.24029112 0.3291156
000390 94 47 bf bd fc ae 83 3e 3e bb 55 be e8 76 36 3d
       -0.09339824 0.2571944 -0.20872208 0.04454699
0003a0 0a da 97 be 2e 43 41 be 1f 94 a2 be 2a ea 92 be
       -0.29658538 -0.18873283 -0.31753632 -0.28694278
0003b0 e6 10 a7 be 13 f2 82 be 06 09 6d be 20 d2 a1 3c
       -0.3263008 -0.25575313 -0.23147973 0.019753516
0003c0 d1 2a a7 3e a8 68 61 be 6a f3 ab 3e
       0.32649854 -0.2201258 0.33584148

bias_ih_l0 f4 [27]
000000 44 54 fa 3d 20 f5 1a be 30 7a e0 3d c0 9b c3 bd
       0.12223104 -0.1513257 0.109608054 -0.09551191
000010 d7 5e f4 bb 6a 1c a0 3e 83 29 4e be e6 aa 19 be
       -0.007457595 0.31271678 -0.20133023 -0.15006599
000020 cd c8 a1 3c 51 06 70 3b c1 47 8d be 63 69 14 bc
       0.01974907 0.0036624859 -0.27593806 -0.009058329
000030 ff 3f 69 3e f3 11 4a 3c 64 7e 0d bd 82 dd 76 be
       0.22778319 0.012333381 -0.034544364 -0.24107936
000040 0d 4d 4c be b0 8c 84 3d 4a a4 c1 bc e2 be 89 be
       -0.19951268 0.064721465 -0.02363791 -0.26903445
000050 71 8d c1 bd 9b dc 32 be c6 f3 8e bd b3 d8 c5 3c
       -0.09450806 -0.17466967 -0.0698009 0.024151182
000060 ea 33 9f 3b 96 5d 83 3e 08 3d a3 be
       0.0048584836 0.25657338 -0.318825

bias_hh_l0 f4 [27]
000000 fb 9b 1d 3e 0a cb 0a 3c 9c ac 9a be 53 b0 60 3e
       0.15391533 0.00847126 -0.30209816 0.21942262
000010 be 1d 77 be 8f 3d 9a be 06 9f 9d be d1 68 75 bc
       -0.2413244 -0.3012509 -0.30785388 -0.014978603
000020 a5 a4 a3 bd 6f cd 13 3e 05 86 c1 3d b4 9c 8c 3e
       -0.07990388 0.14433835 0.0944939 0.27463305
000030 56 9f bf 3c fc 2d 97 bd a8 68 9f be 9f 56 28 be
       0.023391407 -0.07381818 -0.31134534 -0.16439293
000040 1a b1 1d be 56 b7 d5 bd 6a cd a8 bd 68 57 eb bb
       -0.1539959 -0.10435359 -0.082423046 -0.0071820505
000050 25 6f ab 3d 1b c5 a7 be 12 b0 65 3c 1b fb 9a be
       0.083708085 -0.32767567 0.014019029 -0.30269703
000060 d3 b2 87 be 9c 12 95 3e cb 06 50 be
       -0.2650362 0.2911576 -0.20315091

weight_ih_l0 f4 [27, 24]
000000 90 e3 1d be 3b d9 a5 be dc f4 9b be bb b5 c1 3d
       -0.1541884 -0.32392296 -0.3046025 0.094584905
000010 b2 c4 20 3c 36 7b 8f 3e bc 90 94 be 26 cc 48 bd
       0.009812521 0.2802369 -0.29016674 -0.049022816
000020 94 52 a5 be be e5 9a 3b 3c a0 87 3e f0 d4 9e 3e
       -0.32289565 0.0047270944 0.26489437 0.31021833
000030 f3 bb 16 3e 13 7c 84 be 15 44 27 be 93 93 16 3e
       0.14720134 -0.2587591 -0.16334565 0.14704733
000040 62 6f 00 bd 46 31 ac be fb d9 3c bd 9e 01 8b be
       -0.031356223 -0.33631343 -0.04610632 -0.2714967
000050 d6 0d d5 bd 31 c6 4b bd ef 9c f6 b7 fe 55 93 3d
       -0.104030296 -0.049749557 -2.9398563e-05 0.07194136
000060 2e a1 a0 be 51 b3 52 3d 78 65 66 be e8 cd 0e 3e
       -0.3137297 0.05144054 -0.22499645 0.13945735
000070 5e b1 42 be 36 96 78 be 62 a9 99 3c 30 c2 6b 3e
       -0.19012973 -0.24276051 0.018757526 0.23023295
000080 e6 d0 a8 3d 4b 9d 5f 3e 13 86 42 be 71 36 73 bd
       0.08242969 0.21837346 -0.18996458 -0.05937809
000090 e6 f6 16 3e c0 4c 69 3d 74 08 59 3e 3b 1b 0e 3e
       0.14742622 0.05695796 0.21194631 0.13877575
0000a0 7a ef 82 bd 08 ff 9c bc a3 a0 9e be 0b 34 5f 3c
       -0.06393333 -0.019164577 -0.3098193 0.013623248
0000b0 1c fb 87 3e 00 84 09 3e 28 47 04 39 f9 18 e7 36
       0.2655877 0.1342926 0.00012615009 6.8872437e-06
0000c0 eb 62 9f bd b6 b5 80 3e a6 6f 85 3d a8 4f 82 be
       -0.07782539 0.25138634 0.06515436 -0.25451398
0000d0 72 5f 8c bd 51 da a6 3b 1e 3f 94 be fa 87 42 bd
       -0.06854142 0.0050919433 -0.28954405 -0.04749296
0000e0 b5 62 78 be ab 53 4f 3d 17 f5 e1 bd c5 b5 93 3e
       -0.24256404 0.0506169 -0.11033075 0.28849617
0000f0 b1 5e 23 be 61 98 8c 3e d7 ae 95 be ff 5f a5 be
       -0.1595409 0.27460006 -0.29234955 -0.32299802
000100 fb 6d 06 be 7d c4 94 3e 88 f2 9c bd 4d 8a 0d 3d
       -0.13127892 0.2905616 -0.07663447 0.034555722
000110 e9 79 6d be d8 40 54 be 82 05 00 3b e4 1d aa bd
       -0.23191036 -0.20727861 0.0019534533 -0.083064824
000120 45 ee ca bd d6 e4 77 3e 6b 02 e2 bd 60 97 32 be
       -0.099087276 0.24208388 -0.110356174 -0.17440557
000130 af f0 80 3e 34 2c c2 3c a5 07 8f 3c 80 11 95 3d
       0.25183627 0.023702718 0.0174597 0.072787285
000140 dc bc 9e 3e ce c7 55 be 92 fc 88 be 92 d5 8d 3e
       0.31003463 -0.20877 -0.26755196 0.27702004
000150 2b 1b 86 bd 29 9b 13 be 88 59 35 3e 0e 6f 39 3e
       -0.06548151 -0.14414658 0.17709935 0.1810877
000160 51 2e fa 3d 8a 6b a1 3d a6 bf 21 be f0 8f 31 3e
       0.122158654 0.078818396 -0.15795764 0.17340064
000170 b1 6e 60 3b c0 05 d7 3d 9c 81 c9 bd df 85 13 3d
       0.0034245665 0.104991436 -0.09839174 0.03601634
000180 16 c9 0f be 09 db 8e be 46 69 0b be af b1 8d be
       -0.14041552 -0.27901486 -0.13614377 -0.27674624
000190 57 aa 34 3e 93 ef 25 39 0b 8f 9f be 4b a4 a4 3e
       0.17643104 0.00015824875 -0.3116382 0.32156596
0001a0 48 2d 9b be ea b5 3e be 3e a9 93 3d 55 f3 a1 bd
       -0.30307984 -0.18624082 0.07210015 -0.0790774
0001b0 3e ed 5a 3e 85 76 9b 3e 5c 61 8e 3e 6d 46 66 3e
       0.21379563 0.3036386 0.27808654 0.22487803
0001c0 87 32 11 3e 43 d3 f5 3a 30 d3 35 be 64 cd a1 3e
       0.14179431 0.0018754978 -0.17756343 0.31602013
0001d0 cd 6a 8f 3e 4f 5e 00 bc 20 8e 9a bd dd 6e fb 3c
       0.2801117 -0.007834985 -0.075466394 0.030692512
0001e0 ff 2c a4 3e c1 db 90 3d cf aa 20 3b 03 e9 15 3e
       0.3206558 0.07073165 0.0024515872 0.14639668
0001f0 5b bf 8a 3d 13 b6 2f be 8b 50 30 be c3 a9 a2 3e
       0.067747794 -0.171593 -0.17218225 0.31770143
000200 75 ff dc bd 52 b1 57 bd c6 2b e7 bd 20 46 c4 3c
       -0.10790912 -0.05265934 -0.11287646 0.02395922
000210 26 85 2b be 14 f8 ff 3d 83 a4 a3 bd e0 f0 5b be
       -0.16750011 0.12498489 -0.079903625 -0.21478605
000220 41 6d ed bd 96 44 85 3e bf fe c7 3d 44 d6 3c 3d
       -0.11593104 0.2602889 0.09765386 0.046102777
000230 d3 d2 42 3e 10 0c 30 be 2d ae d2 3d 51 3f 9c bc
       0.19025736 -0.17192101 0.10287128 -0.01907316
000240 75 34 5d bc 5b c5 78 be 61 35 f3 3d 91 70 87 3d
       -0.013501276 -0.24294035 0.118754156 0.06613267
000250 f1 d6 a7 3c ec a3 a7 be 96 9d 78 3e 4c b9 a3 3e
       0.020488234 -0.3274225 0.24278864 0.31977308
000260 e5 7b 20 3d 0e 12 60 be 7b 68 80 3e f1 cc b4 3c
       0.039180655 -0.21881887 0.25079712 0.02207038
000270 82 cc 9e be 66 6c 20 3e 78 79 ce 3d 0e 19 9e bd
       -0.31015402 0.1566635 0.10081762 -0.077196226
000280 13 cc 0a be 30 77 85 be 03 12 7b be e8 80 7a 3e
       -0.1355441 -0.26067495 -0.2451859 0.24463236
000290 70 68 20 3e 48 f1 31 3e d0 9a a7 3d be 36 e6 39
       0.1566484 0.17377198 0.08183825 0.00043909805
0002a0 03 e5 3b 3e 90 27 97 be 1a fd e0 bd 44 53 ab 3d
       0.1834908 -0.2952237 -0.10985775 0.08365491
0002b0 7b b9 9d 3e e1 20 04 bd cf 6c 08 bd 61 ca 17 3c
       0.30805573 -0.03225792 -0.033306893 0.0092645595
0002c0 86 89 0f be e0 c0 a7 be 16 db a2 3e 64 c3 27 3e
       -0.14017305 -0.3276434 0.31807774 0.1638313
0002d0 86 3e 6d 3d f4 e2 29 be 9e 9d 9d 3e 89 dd cd bd
       0.057920955 -0.16590482 0.30784315 -0.1005202
0002e0 a4 fc 8e 3e f1 c9 11 be 58 97 ae 3d e3 be 82 be
       0.27927125 -0.14237191 0.0852496 -0.2553626
0002f0 6f 9f 91 be 88 38 d9 bd 13 5d 0a bc 26 b6 11 3d
       -0.2844195 -0.106064856 -0.008445042 0.0355741
000300 d0 16 1c be 56 b0 34 3e 48 7c 0d be 94 1f d2 bb
       -0.15243077 0.17645392 -0.13816941 -0.006412456
000310 b8 03 04 be 63 7a d3 3c 67 cb d7 3d b4 6a e9 3c
       -0.12892044 0.025815194 0.10536843 0.028493263
000320 a8 dd 8f 3e 50 18 b3 bd a3 2d 5d 3e 7e b3 36 3e
       0.28098798 -0.087448716 0.2159944 0.17841908
000330 88 09 36 bc 93 c9 19 be 1e 39 1a be fb 2a 71 3e
       -0.011110671 -0.150183 -0.15060851 0.23551552
000340 0b be 98 bd 18 d7 fe bd 1e 01 dc 3c 81 c2 9a 3d
       -0.07458123 -0.124433696 0.026856001 0.0755663
000350 f7 8c ce bc 83 38 33 be 23 cb f6 b7 e5 cb 6f 3d
       -0.025213702 -0.17502026 -2.9420078e-05 0.05854406
000360 b2 0a d6 bd 4c 55 ed bd 5b a6 17 3d 0c 53 a5 3e
       -0.10451259 -0.11588535 0.037023883 0.32289922
000370 b7 8e 8e be 03 7e 3e 3d 88 dc 45 be 5b 7a 43 3d
       -0.27843258 0.046506893 -0.19322407 0.04772411
000380 6e ac 8e 3e 9a df 9f be b6 10 2a 3e 46 09 03 3e
       0.27865928 -0.31225282 0.16607937 0.12796506
000390 b0 f1 58 3e 05 e8 0b 3d e5 22 75 3d 58 e5 11 3e
       0.21185946 0.034156818 0.05984773 0.14247644
0003a0 7b eb 01 be 60 0b 79 3e 00 46 6d be 57 b9 88 3e
       -0.12687485 0.24320745 -0.23171234 0.26703903
0003b0 fb b3 a1 bd bb 53 4e be f8 0e 32 3d cc c1 98 3d
       -0.07895657 -0.20149128 0.043471307 0.07458839
0003c0 e5 99 90 3e c6 b0 75 3c 27 e0 8f be ff 07 9e 3d
       0.28242412 0.014995759 -0.28100702 0.07716369
0003d0 24 36 96 bd 85 ff 40 3e 58 97 51 3e 87 b7 d2 3b
       -0.07334545 0.18847473 0.2046789 0.0064305696
0003e0 d7 b9 23 be c7 e6 36 3e 9a 75 82 bd 42 aa d2 3d
       -0.15988861 0.17861472 -0.06370087 0.1028638
0003f0 28 0c 65 3e cc 81 0f be 17 e9 5c be 91 4d b0 bd
       0.22367918 -0.14014357 -0.21573292 -0.086085446

weight_hh_l0 f4 [27, 9]
000000 8f 7e 0b 28 7e b8 32 3e f8 88 cb 3c eb 0f 3e 3a
       7.743493e-15 0.1745319 0.024845585 0.0007250297
000010 90 d3 60 3e 3a 91 6a bc c1 e1 f9 bd 58 b8 c7 3d
       0.21955705 -0.014316851 -0.12201262 0.09751958
000020 3c 14 71 3d e1 34 42 bd 93 ff 86 3e 38 1b 74 3d
       0.058857188 -0.04741371 0.26366863 0.05959627
000030 9d 38 b3 3d 80 32 f0 3d a2 fe 23 39 6b eb b7 bd
       0.087510325 0.11728382 0.0001563975 -0.08980449
000040 34 77 54 ba 8c c7 e2 3d 1e b5 c8 bd c6 39 a6 be
       -0.0008104921 0.11073217 -0.0980017 -0.32465953
000050 03 14 cf 3c 30 13 e3 3d 3a 02 8e 3d e3 24 0b bc
       0.025278097 0.11087644 0.069340184 -0.008492681
000060 8b dc 1f 3e fa 73 a5 3d 5c 3a bc 3d e0 8f b4 3d
       0.15611474 0.080787614 0.09190819 0.088165045
000070 64 fc 59 3e 99 cf 3e 3b 83 a4 44 29 1b e9 98 3e
       0.21287686 0.0029115437 4.3663434e-14 0.29865345
000080 66 39 8b bc 2e 8d a2 be 4e 15 9c bd a3 64 87 be
       -0.016995143 -0.31748337 -0.07621251 -0.26443967
000090 12 05 84 bd 67 3b a0 be ac b7 cc bc 6d c0 82 bd
       -0.064462796 -0.3129532 -0.024989925 -0.063843586
0000a0 98 01 3b be 64 73 e8 3d b6 66 46 3e 60 f4 01 be
       -0.18262327 0.11350134 0.19375119 -0.12690878
0000b0 34 a7 4a 3d 4f 7c 69 a9 5e 1a 66 be 40 af 83 bc
       0.049475864 -5.1844213e-14 -0.22470996 -0.016074777
0000c0 85 24 b1 ab fc 09 12 bd 21 e3 07 bd 8f 50 82 bc
       -1.2586743e-12 -0.035654053 -0.03317559 -0.015907554
0000d0 14 86 0a 3b 5c 84 07 be 14 50 e6 bd d6 4a 29 be
       0.0021137046 -0.13234085 -0.112457424 -0.16532454
0000e0 26 37 76 bd 48 e3 4c bd 46 f4 97 3e d8 9f 40 38
       -0.060111187 -0.05002144 0.29678553 4.5925233e-05
0000f0 33 55 34 be 37 73 dd bc 1b b5 ce bb 78 8e a4 a7
       -0.17610626 -0.027032478 -0.0063082105 -4.567361e-15
000100 90 b8 64 3e b2 03 82 bd 07 20 e8 bd 9c e2 b8 bd
       0.2233603 -0.06348361 -0.11334234 -0.09027597
000110 61 32 26 bb 37 43 d8 bd cf 73 06 be 80 33 0c 3e
       -0.0025359618 -0.10559695 -0.13130115 0.1369152
000120 9f 06 06 ba 2f 70 40 3e b6 d2 a6 bd 48 9c 00 bb
       -0.0005112681 0.18792795 -0.08145659 -0.00196244
000130 76 3f 50 be 59 40 68 bb 37 55 80 bc 6f 94 a3 ba
       -0.20336708 -0.0035438745 -0.015665634 -0.001248015
000140 bc 28 9f be ba 23 dc 3a 8a 65 a6 bd a4 d3 f7 bd
       -0.31085765 0.0016795315 -0.08124836 -0.12100914
000150 da 9a 8a 3c 2e 39 9f 3e 56 74 bd bb 06 44 65 3e
       0.016919542 0.31098312 -0.0057816906 0.2238923
000160 cc 9e fd bd 6c 64 0c be bd 5d 85 bd d0 e5 35 3e
       -0.12383804 -0.13710183 -0.0651202 0.17763448
000170 fd 6d e5 bd 34 a9 0d b3 84 0a 8d 3e 17 2b 1f be
       -0.11202619 -3.298301e-08 0.27547085 -0.15543781
000180 61 4b 27 3e 8e 33 02 3e ff db 76 3e d4 f5 83 bd
       0.16337349 0.12714979 0.2410736 -0.06443372
000190 05 a5 25 3e 1e e5 43 3d 92 13 70 3b 26 39 90 3e
       0.16176231 0.047825925 0.0036632759 0.281686
0001a0 44 e0 dc bc b6 e1 8f bc 4c 61 78 bd 1f fd 68 be
       -0.026962407 -0.017563682 -0.060639665 -0.22752808
0001b0 5f 69 43 3c 26 ff 0a 3e b2 82 81 3d ea 9d 87 3b
       0.011926978 0.13573894 0.06323756 0.004138698
0001c0 ac 14 93 3e 96 95 76 bc 36 9b 2b be 91 7c 96 bd
       0.2872671 -0.0150503125 -0.16758427 -0.07347978
0001d0 4d 99 51 be f5 8d 13 aa 4e fb a2 3d 47 bb 02 3e
       -0.20468636 -1.3105474e-13 0.07958089 0.12766753
0001e0 90 41 b5 3d fb 47 be bd 7d 59 21 3e 5a 6a a4 be
       0.08850396 -0.09291073 0.15756793 -0.3211239
0001f0 99 d6 a8 a4 7f f0 19 be 7c d5 9d 3d 37 db a2 be
       -7.322193e-17 -0.15033148 0.077067345 -0.31807873
000200 1c f3 5d bd f4 cb b6 b3 96 a7 86 be e1 c1 3a be
       -0.054186925 -8.512134e-08 -0.26299733 -0.18238021
000210 e1 c2 f0 bd fe 95 0b 3d 45 06 91 3e d4 85 8c 3d
       -0.1175592 0.03407859 0.28325096 0.06861463
000220 1d 5d a5 3e 44 26 1e b6 99 1a c5 bb 7b 1b 10 be
       0.32297602 -2.3566108e-06 -0.0060151336 -0.14072983
000230 6b 2a 7d bd fa 13 83 be 8c 80 c7 bc a5 e1 68 3e
       -0.06180803 -0.25601178 -0.024353288 0.22742327
000240 5b 27 53 b4 58 51 0e 3e 90 28 0f bd a2 4a 9b bd
       -1.9665224e-07 0.13898218 -0.034950793 -0.075825945
000250 4b b0 35 3e 0f bd 82 bc 05 1d 65 bc 12 15 6e a6
       0.17743032 -0.01595929 -0.01398397 -8.2601393e-16
000260 a6 be 32 be d6 ff fd bd 48 d1 4e 3b 9b c9 be 3d
       -0.17455539 -0.124023125 0.0031557847 0.09315797
000270 e5 f3 09 be cc 00 88 3e a0 24 4a 3e ab e1 3e be
       -0.13471945 0.26563108 0.19740534 -0.18640773
000280 eb 06 58 3a 62 0b 17 be e5 44 51 3a 68 7b 12 be
       0.0008240777 -0.14750436 0.00079829834 -0.14304888
000290 4f 21 0b bd 60 a0 08 3e 73 81 75 3e 5f 59 81 bd
       -0.033967312 0.13342428 0.23975162 -0.06315874
0002a0 5b c5 bc bd 4c 5d c5 32 b8 4e 9d 3d a6 c0 57 28
       -0.0921733 2.2976245e-08 0.0768103 1.19766715e-14
0002b0 dc c1 9b 3e 02 34 6a bc a1 69 cd 3d 03 61 82 be
       0.3042134 -0.014294626 0.10029913 -0.2546464
0002c0 35 90 05 be bb a6 8d 3e 0e 25 ec 3b a6 ea 5e 3e
       -0.13043292 0.27666268 0.0072065657 0.21769199
0002d0 88 8f 6a b3 87 15 52 3e d0 05 fb bd bd 3d f8 bd
       -5.461291e-08 0.20516025 -0.12256968 -0.12121151
0002e0 4f 15 9b bd ba f0 5d 3d 9a 14 9c 3e 97 a2 8b 3d
       -0.07572424 0.054184653 0.30484468 0.06818121
0002f0 59 01 a9 3e 93 47 7f 3c 7a 9e 3e 3d 7a 8f d8 3d
       0.3300884 0.0155810295 0.046537854 0.10574241
000300 1c d9 6b bc 6e 70 5b be c1 9e 60 be db b0 6e be
       -0.014395025 -0.21429607 -0.2193556 -0.23309653
000310 53 55 32 3c 93 78 30 3d 23 b5 09 be 77 a5 15 3e
       0.010884601 0.04308374 -0.13448004 0.14613901
000320 0c 9a 3c a9 48 8f 2d 3d 1f 67 69 3e c3 38 2f 3a
       -4.1878e-14 0.04237297 0.22793244 0.00066841784
000330 05 1c 25 3d d7 09 1f ae 90 2b a0 3e a4 00 d7 3b
       0.040309925 -3.6161154e-11 0.31283236 0.0065613557
000340 c7 ad e3 bb ee 94 e6 2c f5 e9 d0 bb b8 ad 63 be
       -0.006948206 6.5535277e-12 -0.006375546 -0.22234237
000350 f0 00 aa 3d 1b 59 76 3d 3e 58 7c ac 61 43 7a 3c
       0.0830096 0.06014357 -3.5860338e-12 0.015274853
000360 66 8d 0d bd 20 e6 10 be 65 4c 63 bd bf 9f 05 2d
       -0.034558676 -0.14150286 -0.055492777 7.5956455e-12
000370 b1 2e d9 3d 0d cf 05 3e 90 4f 76 be 0c 24 8b bc
       0.10604609 0.13067265 -0.24053788 -0.016984962
000380 49 da 58 3d 07 69 e2 bb a8 cd a6 be f2 be b0 3c
       0.052942548 -0.006909493 -0.32578778 0.021575425
000390 66 41 07 3e c7 44 57 3e 78 ac 1d 3e 4e 92 3e 3e
       0.13208541 0.2102233 0.15397823 0.18610498
0003a0 82 e2 fa bc b1 19 6b 3e 89 34 b1 bd 8c 04 88 be
       -0.030625585 0.22959019 -0.086525984 -0.2656597
0003b0 d0 52 c0 3d 12 9e e7 3d a6 01 6f 3d e5 62 67 be
       0.09390795 0.113094464 0.05835118 -0.22596319
0003c0 88 94 6d be 09 20 bf bd 1f c3 86 be
       -0.23201191 -0.09332282 -0.2632074

bias_ih_l0 f4 [27]
000000 b6 db e3 bd 4e ea 12 be 3d 3e 97 bc 8b bc 0b be
       -0.11125891 -0.14347193 -0.018462295 -0.13646142
000010 57 6e 45 3e da 16 13 3d ee bd 9f be 01 4d 6f 3e
       0.19280373 0.035910465 -0.31199592 0.23369218
000020 58 2b 06 3e 55 60 f2 b9 71 37 8c be ce a5 ab 3d
       0.13102472 -0.0004622961 -0.27386048 0.08381234
000030 63 cd a0 be 90 0f 24 3e 92 14 3a bd 0c f7 a8 be
       -0.31406698 0.16021562 -0.045429774 -0.33000982
000040 b6 36 29 3e 28 bf 28 3e c1 dd b0 3b 91 e6 11 3d
       0.16524777 0.1647917 0.005397529 0.035620276
000050 6c 12 a6 3e 76 48 0a be 24 25 fa 3c 5e c8 78 3e
       0.3243593 -0.13504204 0.030535288 0.24295184
000060 55 5c f2 bd 20 73 f0 3c b6 30 97 be
       -0.11834017 0.02935177 -0.2952935

bias_hh_l0 f4 [27]
000000 05 04 ce 3d 46 52 44 bd a6 75 73 3e a0 ae bf 3d
       0.100593604 -0.047930025 0.23775348 0.09359479
000010 e5 60 b8 bd 66 58 a7 bd 58 94 57 3e d2 66 6f be
       -0.09002856 -0.081711575 0.21052682 -0.23379067
000020 de 3c 61 be 16 14 48 3e 90 ab a4 3c 19 a5 c8 3d
       -0.21995875 0.19538912 0.020101339 0.09797115
000030 86 d7 47 3e 20 67 19 3e 9c 37 20 bd 60 c5 07 bc
       0.1951581 0.14980745 -0.039115533 -0.008286804
000040 27 df 4a 3d de a0 15 bc b6 09 21 3e 54 b9 89 be
       0.04952922 -0.009132592 0.1572636 -0.26899207
000050 de b1 a6 be 7b f1 d3 3d 8c b8 41 3e a8 d4 96 be
       -0.32557577 0.10348793 0.18918055 -0.2945912
000060 66 0a 75 3d 48 7d c8 bb 7b a3 98 3d
       0.05982437 -0.0061184503 0.074530564

weight_ih_l0 f4 [27, 39]
000000 ba bf c2 3a 4c fb 87 3d 43 0e 67 be 9a 00 43 bd
       0.0014858164 0.06639728 -0.22564034 -0.047607996
000010 12 fa 9f 3e 86 25 99 3e a4 7e 4b bd d7 1a cd 3b
       0.31245476 0.2991144 -0.04968132 0.006259303
000020 9d a3 51 bd 3e 36 1d be 7b 32 47 3e 28 01 04 3e
       -0.051181424 -0.15352723 0.1945285 0.12891066
000030 48 52 4a 3e 82 88 82 b9 26 27 d4 bd 68 13 99 3d
       0.1975795 -0.00024897238 -0.103590295 0.074744046
000040 66 88 a5 be 23 98 14 be 16 d0 99 be 68 f6 a7 3e
       -0.32330626 -0.1451116 -0.3004157 0.3280518
000050 ae 56 0f be 55 48 ca 3d 39 dd 9a 3d 85 60 95 3d
       -0.1399791 0.098770775 0.07561726 0.072938
000060 56 62 5c be 85 7f 87 bd ae f7 3b be 65 75 c4 bc
       -0.21521887 -0.06616119 -0.18356201 -0.02398176
000070 7b aa 0e 3e b6 78 56 3e db 4f 64 3d 43 3c 16 3e
       0.1393222 0.20944485 0.05574022 0.14671426
000080 23 a9 7b 3d 6b 2b da 3d 3e 4f 99 be 27 0d 95 be
       0.0614406 0.106528126 -0.2994327 -0.29111597
000090 c0 36 19 be 2b 14 ff bd 5e df f7 3c 6b 87 95 bc
       -0.14962292 -0.124550186 0.030257877 -0.018253049
0000a0 29 0c 38 3d ff 68 a2 3e 76 1f 99 bd 5e 9d a5 be
       0.04493347 0.3172073 -0.07476704 -0.32346624
0000b0 41 9c a9 3d 1b 16 93 3d 54 61 a8 38 b8 e5 84 bc
       0.08281756 0.07181951 8.028993e-05 -0.01622282
0000c0 db ee 18 3d 66 f0 8b 3d 46 0a 3d 3d 40 0e a0 3e
       0.037337165 0.06832962 0.046152376 0.31260872
0000d0 3b 1c 6a bd 0a 48 fc bc 6a 0f c1 3d fe 9b 29 be
       -0.05715583 -0.03079607 0.09426768 -0.16563413
0000e0 ee 17 57 3e 5e dc 91 3c cc d3 0d 3e 81 d8 b9 3d
       0.21005222 0.017805275 0.13850325 0.09074498
0000f0 60 5a 9a 3e e6 1c 18 3d 48 e3 49 bd 3e 81 a2 be
       0.30147076 0.037136935 -0.049289018 -0.3173923
000100 49 26 e4 bd f5 38 7f be 6b c3 63 be fb de 08 bd
       -0.11140115 -0.24924071 -0.22242515 -0.033415776
000110 0d 75 ff bb d0 8a c6 bc 5a 6b 83 3e 63 19 71 be
       -0.007795936 -0.024236113 0.2566784 -0.2354484
000120 00 0f 71 be 32 b9 88 be 0b 81 14 3e a0 5b 97 3e
       -0.23540878 -0.26703793 0.14502351 0.29562092
000130 34 03 85 3d be 1d 21 3e 63 ae 2e 2b f8 71 4f ba
       0.064947516 0.15734002 6.205923e-13 -0.0007913406
000140 f8 59 92 be f0 af 5e 3d fc ac b1 bd be a3 91 be
       -0.28584266 0.054367006 -0.08675572 -0.28445238
000150 e8 cc 28 3e 1d 43 7d 3d 63 cd 29 3e 78 81 5f 3e
       0.16484416 0.061831582 0.16582255 0.21826732
000160 71 6e 91 bd 9e 84 49 3e 20 ee d4 3d f0 35 a4 be
       -0.07101143 0.19679496 0.10396981 -0.320724
000170 4b 58 e4 3d c6 21 8e be 71 99 05 bd 16 bf 3a 3e
       0.11149653 -0.27760142 -0.032617036 0.18236956
000180 5a e9 51 bc d8 cf 6b be b0 44 53 be de 05 43 3e
       -0.012811983 -0.23028505 -0.20631671 0.19045207
000190 c6 d1 93 bd a3 b6 05 be d6 a5 aa 3e 9a 70 2b 3d
       -0.072177455 -0.13057952 0.33329648 0.041855432
0001a0 68 a9 fb 3d 4b 4b 24 3e b0 bc c8 3d f8 41 b9 bc
       0.12288171 0.16044347 0.09801614 -0.022614464
0001b0 48 b8 a6 be c3 6d 1d 3e 6b 85 fb bd 1c 7a 91 be
       -0.3256247 0.15373902 -0.12281307 -0.28413475
0001c0 07 53 ed 3c fa b5 cb 3d da 3c 1d 3d 24 42 ba 3c
       0.028970255 0.09946819 0.03838811 0.022736616
0001d0 f8 b1 42 be 9f ab 77 2e 61 dd e0 bd 48 fd 0e 3e
       -0.19013202 5.6313728e-11 -0.10979725 0.13963807
0001e0 33 e3 28 be 10 9f 27 be 2b 10 34 3e d6 7d a7 bd
       -0.1649292 -0.16369271 0.17584293 -0.08178298
0001f0 12 95 23 3b 61 b8 85 3c 6e 36 61 3e 5a 60 68 bd
       0.002496068 0.01632327 0.2199342 -0.056732513
000200 8a a2 8b 3c 9a df 2d 3d c0 22 76 3e 54 b4 fd 3d
       0.017045278 0.04244957 0.24036694 0.123879105
000210 88 64 98 3e ee c0 08 be 12 c1 10 be 57 ef 82 3e
       0.297642 -0.13354847 -0.1413615 0.25573227
000220 7b 1d 2d bd b2 3a d4 bd 8e 04 4c 3e 1f c9 a0 be
       -0.042264443 -0.10362758 0.19923612 -0.31403443
000230 11 cf 71 bd 8c ed a3 bd 8a 96 c5 3d 59 d1 31 3e
       -0.059035365 -0.08004293 0.09647854 0.17365016
000240 f4 a2 a5 be 4e 7a 27 be 73 1c 4c be 89 be b1 bc
       -0.32350886 -0.1635525 -0.19932728 -0.0216973
000250 e1 ae f2 3c 23 24 41 be 70 e5 54 3e 91 6a f9 3d
       0.029624404 -0.18861441 0.20790648 0.12178529
000260 37 2c 85 3e 08 57 29 3e bc ef 8a be 96 4b d5 bd
       0.26010296 0.16537106 -0.27136028 -0.104148075
000270 fe 9b a0 3d 93 d9 b4 3d 9a f4 a6 be 4d 4d be bc
       0.07842253 0.088305615 -0.3260849 -0.02323022
000280 de 09 6d be fe 6d 34 3e 0b c6 0f 3c bb ce 19 ae
       -0.23148295 0.17620084 0.0087752445 -3.4971786e-11
000290 13 8c 73 bd a3 f7 90 3e c3 47 1f 3e da c4 3a be
       -0.059459757 0.28313932 0.15554719 -0.18239155
0002a0 4b 95 71 3e e1 dc 79 3d f0 92 91 3d 1a ba fd bd
       0.23592107 0.061001662 0.07108104 -0.12389012
0002b0 18 1b 7a be a8 7a 15 bd 96 f5 a2 3e 24 4f 2c be
       -0.24424398 -0.036493927 0.31827992 -0.16827065
0002c0 29 e1 60 be cb 15 81 be 3b 2a cd ba 12 96 6d be
       -0.21960892 -0.2521194 -0.0015652844 -0.23201779
0002d0 c0 98 26 be eb b0 4d be eb 07 99 3e d0 ee 3b bc
       -0.16269207 -0.2008702 0.29888853 -0.011470512
0002e0 ec eb 91 3e f4 e3 2f be b0 dc 96 be e3 0b 2a 3e
       0.28500307 -0.17176801 -0.29465246 0.16606097
0002f0 02 c0 68 3e 8e 6a fb bc 92 2e bf bd c9 ba 8b 3c
       0.22729495 -0.030690458 -0.093350545 0.01705684
000300 e0 4e d0 3d 41 a0 91 3d 70 d3 90 be 46 1f f0 bb
       0.10171294 0.07110644 -0.28286314 -0.007327947
000310 30 af 2e 3a 05 14 f2 bd d8 18 97 3d 6b ce 9f 3e
       0.0006663678 -0.11820225 0.073777854 0.31212172
000320 f0 d1 ab 3b 9b c4 82 3e d7 3d d7 bd a6 f5 9c 3e
       0.0052435324 0.25540623 -0.10509842 0.30656165
000330 0a bd 83 bc 47 59 8f 3b eb 60 a5 be 9e 7d 47 be
       -0.016081352 0.0043746564 -0.32300505 -0.19481513
000340 bf 81 26 3e d6 d1 9e be 76 e2 9f be 76 0a 83 3e
       0.16260432 -0.31019467 -0.31227463 0.2559392
000350 0e 3e 8a be a6 8e 99 3d f7 7c f2 bc 30 e3 86 be
       -0.2700047 0.07497911 -0.029600604 -0.26345205
000360 63 2f 5d 3e 18 fd 06 be 97 50 01 3e 17 cf 1e be
       0.21600108 -0.13182485 0.12628399 -0.15508686
000370 76 95 08 be ca 7f 80 3e 05 09 f4 3d 3b 72 23 3e
       -0.13338265 0.25097495 0.11915783 0.15961544
000380 b0 97 20 be 06 64 62 3d 28 5d 50 be b3 a9 49 be
       -0.15682864 0.05527117 -0.20348036 -0.19693641
000390 9b ef 7d 3e 13 b0 37 be d8 44 a7 3e 5b 11 68 be
       0.24798433 -0.1793826 0.3266971 -0.2266287
0003a0 60 c0 87 3e 00 b6 92 3e 97 87 af ab 20 f1 ec bc
       0.26513958 0.2865448 -1.2472132e-12 -0.028923571
0003b0 88 90 82 be 51 b0 4f bd 50 c7 a0 3e 64 d1 da bc
       -0.25500894 -0.050705258 0.31402063 -0.026711173
0003c0 70 ef 3d be c8 ae 26 37 5e 8c 80 be de e4 63 be
       -0.1854837 9.9350655e-06 -0.25107092 -0.22255275
0003d0 bf 1b 87 bd 16 a2 9e be 4a f4 eb 3d e1 6b cb 3d
       -0.06597089 -0.30983037 0.11521204 0.09932686
0003e0 44 3b 64 be 02 c8 ad 3d 7c d7 c5 bd eb f4 36 3e
       -0.22288233 0.08485414 -0.09660241 0.17866866
0003f0 c8 d0 a7 3e 30 87 23 3e d1 b0 d1 bc 13 85 a9 3e
       0.32776475 0.15969539 -0.025597008 0.3310934

weight_hh_l0 f4 [27, 9]
000000 fb af 8e 3e 34 b3 a5 be 33 da 8c be ae 58 4c 3e
       0.27868637 -0.32363284 -0.27510223 0.19955704
000010 30 70 1c 3e 88 02 1c 3e 61 be fb 3c bb 29 b5 bd
       0.15277171 0.1523534 0.030730428 -0.0884585
000020 a0 fe 8d bd 44 40 79 3d ab 11 2c be d7 c7 8f 3e
       -0.069333315 0.060852304 -0.16803615 0.28082153
000030 a8 91 3c 3e e4 c7 c3 bc b9 4f 26 3c 9e b7 67 bc
       0.18414938 -0.023899026 0.010150843 -0.014142899
000040 62 b8 a7 be 13 46 38 be e6 b7 5e 3e f3 d0 41 3e
       -0.3275786 -0.17995481 0.21749839 0.18927364
000050 ef b8 8d 3e a7 7f 31 3d 84 7c 23 3d f3 56 39 be
       0.27680156 0.04333463 0.03991367 -0.18099575
000060 ce 4e 6a be 5b 0e 58 be 84 33 96 3e 93 1e 32 3e
       -0.22881624 -0.21099226 0.29336178 0.17394476
000070 ae ef 37 be 43 fe 58 be e8 ed 06 3e e2 2f 9c 3e
       -0.17962524 -0.21190743 0.13176692 0.30505282
000080 66 85 4e 3e 1b f4 4e 3e 5c e4 7c bd 8b 46 cb 3d
       0.20168075 0.20210306 -0.061741218 0.099255644
000090 e4 dd e0 bc f3 c6 39 bc 0c 58 89 be d0 38 5a 3e
       -0.027449556 -0.011338937 -0.26824987 0.21310735
0000a0 39 0e f4 bd d8 cd 55 3e c1 8e 02 be 87 92 35 3e
       -0.11916775 0.20879304 -0.12749769 0.17731677
0000b0 0a 0c d9 3a 2e d9 a7 3e 61 75 e3 bd b1 1f b1 bd
       0.0016559374 0.32782882 -0.111063726 -0.08648623
0000c0 38 d1 24 3e be 1a 22 3e 3e 1c a7 3e 7a da 1b 3d
       0.16095436 0.15830514 0.32638735 0.038050152
0000d0 34 5b 94 bc 66 f1 d0 bd 2a e6 9d 3e 50 a7 59 3e
       -0.018109895 -0.10202293 0.30839664 0.21255231
0000e0 f4 47 8e be 26 91 b8 3d 26 f4 6c be 1a 2a 97 3e
       -0.2778927 0.0901206 -0.2314001 0.29524308
0000f0 fd 14 88 3e 6b 1e df bb 3c 6b 8c 3e 53 74 78 be
       0.26578513 -0.006809046 0.27425563 -0.24263124
000100 7c 81 a4 b9 41 62 76 3e e8 13 77 be 2c f5 97 3e
       -0.0003137699 0.24060918 -0.24128687 0.2967924
000110 9e e7 a1 be fc ca aa 3a 26 21 1a be 03 80 21 be
       -0.31622022 0.0013030465 -0.15051708 -0.15771489
000120 5a d4 4e 3e 47 c3 60 3e 89 aa af 3d bb 6a 1a be
       0.20198193 0.21949492 0.08577449 -0.15079777
000130 6d f3 e5 3d 61 8d 89 be d9 5a 58 3b 08 8a 42 be
       0.112280704 -0.26865676 0.0033013134 -0.18997967
000140 47 0e 38 3e ce 50 05 be ff 7d 49 3e a0 11 0e 3c
       0.17974196 -0.13019106 0.1967697 0.008671194
000150 b0 d8 4a 3e b8 55 6d 3e 10 d6 3c 3e de 86 2b 3e
       0.19809222 0.2317723 0.18441033 0.16750666
000160 a0 a0 ce bd 58 ce 1b 3e 5c 3d 7e be 61 4b 84 3c
       -0.100892305 0.15215433 -0.24828094 0.016149225
000170 f7 67 a6 3e 10 0e 79 3d db 29 68 be dc 7c 54 bd
       0.32501194 0.060804427 -0.22672217 -0.051876888
000180 da 01 88 3e 5b dc c3 bd 2b 5f 23 be 5c 73 8b 3e
       0.26563913 -0.09563514 -0.15954272 0.2723645
000190 b7 92 7d be 3f e1 8b be 4a eb 73 bd e3 20 86 3e
       -0.24762999 -0.27320287 -0.05955056 0.26196966
0001a0 64 b2 49 3e cb 31 10 3e 49 56 7c 3e 21 3f 98 3e
       0.19696957 0.14081495 0.2464229 0.29735664
0001b0 03 75 3d be b1 6e da 3d 83 fb d2 3d 6d c1 16 3e
       -0.18501668 0.10665644 0.10301878 0.14722224
0001c0 e1 ef c4 bd d7 dd 29 3e ce a6 d5 bb b7 19 4b 3c
       -0.09616066 0.16588531 -0.006520129 0.012396268
0001d0 ee b7 70 3e 1b 58 4b 3e 75 4a ee bd d8 56 5d 3e
       0.23507664 0.19857828 -0.11635295 0.2161516
0001e0 e1 65 d0 bc cb 81 92 be 0f 3c ca 3c 37 99 d1 bd
       -0.025439205 -0.2861465 0.024686841 -0.102343015
0001f0 6d c7 02 3d ab 9b a3 3d 30 03 4a be b8 c8 8a 3e
       0.03192847 0.07988676 -0.19727778 0.2710626
000200 0c 4c 91 3e c4 d6 91 3e 38 6d 07 be 2e a7 08 3e
       0.28378332 0.28484166 -0.13225257 0.13345024
000210 e8 60 86 3c 6b 99 a2 3d 5e a9 41 3e fb e3 dc 3d
       0.01640363 0.079394184 0.18912265 0.10785671
000220 28 14 40 3e f6 1e c9 bc 8e 57 85 be 30 c0 0f 3e
       0.18757689 -0.024550896 -0.2604336 0.14038157
000230 ee b4 7b be e8 1a 91 3e 0e e3 a6 be 4c f9 94 be
       -0.24580738 0.2834084 -0.32595104 -0.29096448
000240 e1 a8 bb bd 81 b7 4d 3b 11 0e 27 3d e5 2e 06 bd
       -0.091630705 0.0031389894 0.0407849 -0.032759566
000250 46 1c 5f 3d 45 e9 30 3e dc 85 66 be 88 0d 0d be
       0.054470323 0.17276485 -0.22512001 -0.13774693
000260 31 3c 48 3d af b4 40 bd b2 5e 9b 3d c7 fe 8f 3e
       0.048885528 -0.047047313 0.07586421 0.28124067
000270 73 59 1a be f0 50 85 3e ac 56 66 be 00 b5 d0 bb
       -0.15073185 0.26038313 -0.22494 -0.006369233
000280 ee 15 86 bb 43 3a 90 3b bc 1f 68 3e 88 2f 54 be
       -0.0040919697 0.0044014766 0.22668356 -0.20721257
000290 30 28 3c bd c6 77 99 3d 1e ee 3e 3e e1 ff e7 3d
       -0.045936763 0.07493548 0.18645522 0.11328102
0002a0 07 78 1a 3d c6 eb 34 be 91 1f 6b 3d 76 04 71 bc
       0.037712123 -0.17668065 0.05740315 -0.014710536
0002b0 c0 d0 31 3e 7b 94 76 3d ab e7 40 be a3 17 a0 3e
       0.17364788 0.060200196 -0.18838374 0.31268033
0002c0 01 7b d9 3d d2 a0 9f 3e a5 13 56 bd 30 e5 a4 be
       0.10619164 0.31177384 -0.05226483 -0.32206106
0002d0 a1 ba 82 3e 4e 47 07 3e d8 49 22 3e eb bc f4 3d
       0.25533012 0.13210794 0.15848482 0.11950096
0002e0 91 ff 9b 3d 51 48 a2 bd d6 43 34 be 52 93 34 3d
       0.07617105 -0.079239495 -0.17604002 0.044085808
0002f0 d2 90 37 bd 13 0c 5e 3e a2 82 a2 be 53 12 2c be
       -0.044815846 0.21684293 -0.3174029 -0.16803865
000300 8a 54 85 be 62 03 97 bc 91 31 4d 3e 77 98 98 3e
       -0.2604106 -0.01843423 0.2003844 0.2980382
000310 74 bb 2e be c9 ba 5f 3d df 10 9c 3e 52 fe 56 3c
       -0.17063695 0.05462149 0.30481622 0.013122158
000320 05 aa 5b 3e 66 0a 79 be 7d f4 52 3e 75 ce c3 b8
       0.21451576 -0.24320373 0.20601077 -9.33678e-05
000330 34 05 84 3e 40 2f ac 3e 16 cc cb 3d b8 8f 1f be
       0.2578522 0.336298 0.09951036 -0.15582168
000340 f9 57 11 bd ad f5 36 3c 96 0b 3a 3e 2e a1 0d 3e
       -0.035484288 0.011166972 0.18168482 0.13831016
000350 68 1f 8e 3e f8 de 91 be e3 9b 24 be f2 4d 62 3d
       0.27758336 -0.28490424 -0.16075091 0.055250116
000360 77 2f 95 3e 1e b0 47 3d 62 00 0e be db a2 7d be
       0.29137775 0.048751943 -0.13867334 -0.24769156
000370 b6 a0 10 be 22 6e 84 3e 74 a2 73 be f3 c0 08 3e
       -0.14123806 0.25865275 -0.2379244 0.13354854
000380 6a e2 8a bd 0e 16 1f be d0 49 7c 3e fd b6 6e be
       -0.06781466 -0.15535757 0.24637532 -0.23311992
000390 7b 8f 07 be ef cd 91 be 97 07 88 be 86 85 7e be
       -0.13238327 -0.28477427 -0.2656829 -0.24855623
0003a0 43 a7 a5 3e f0 5c 36 3d 12 ad 4c be bc f2 45 3e
       0.32354173 0.044522226 -0.19987896 0.19330877
0003b0 96 b9 06 bd e3 73 09 be 43 07 61 3e 47 45 25 3e
       -0.032891832 -0.13423114 0.21975426 0.16139708
0003c0 9b 31 17 3d 95 3f 40 3e 37 60 8f 3e
       0.03691254 0.18774255 0.28003094

bias_ih_l0 f4 [27]
000000 c0 a3 7a be 6e cb e7 bb 1b 7c 9b bd 7f 0e 81 3e
       -0.24476528 -0.0070738113 -0.075920306 0.25206372
000010 46 01 6e 3e 16 04 8c 3d 5c cb a1 3e 0f f4 a4 be
       0.23242673 0.06836717 0.31600463 -0.32217452
000020 50 91 9a 3e e6 33 46 3c 86 a1 7d be f8 ff 85 be
       0.3018899 0.0120973345 -0.24768648 -0.2617185
000030 6f 24 9e be 57 72 a4 3d a0 d1 cf bd a8 54 5f 3e
       -0.30887172 0.08029621 -0.10147405 0.21809638
000040 cf 58 af 3c 9e cd c2 bc b3 11 0e be b0 f3 b0 bd
       0.021404652 -0.023779687 -0.13873939 -0.0864023
000050 86 78 11 3e e0 8a c8 3d 9e aa ec 3c d0 ef 9f 3d
       0.14206132 0.09792113 0.02888995 0.078094125
000060 39 bd 1e 3d de 7e d1 3c d8 28 92 be
       0.038754676 0.02557319 -0.28546786

bias_hh_l0 f4 [27]
000000 da 26 82 be ee e7 63 3e 84 5d 1b 3d 2e c3 a5 3e
       -0.25420266 0.22256443 0.03793098 0.32375473
000010 db 50 24 3e 8f 67 98 3e 25 7b 9c bd 8c fb 9b bd
       0.16046469 0.2976651 -0.076406755 -0.07616338
000020 38 cb 29 be fe 7e 74 be 0d 31 7f be a7 f3 6c bd
       -0.16581428 -0.23876569 -0.24921055 -0.057849552
000030 36 ea 72 3c 95 9b 25 bc 51 8b 4f 3d 96 73 ea 3d
       0.014826348 -0.010107894 0.05066997 0.114478275
000040 95 16 b1 bd de 79 67 3e 7b 06 a0 3e 3e 3a 40 3e
       -0.08646885 0.22605082 0.31254944 0.18772218
000050 36 8f 37 be 54 5a 7e 3e 45 f0 52 bd fc c5 37 bd
       -0.17925724 0.24839145 -0.05149867 -0.044866547
000060 87 70 bd bd a0 66 57 3e 5f af 94 be
       -0.092499785 0.21035242 -0.29040048

weight f4 [9, 9]
000000 4a f5 70 b2 4c d7 a4 25 dc 11 b7 3d 7c bb 03 be
       -1.4025611e-08 2.8595356e-16 0.08938953 -0.12864488
000010 ba df ad ba 41 38 eb 3d 38 de 34 ba 3e f0 f9 3d
       -0.0013265528 0.11485339 -0.0006899568 0.12204026
000020 dd 95 33 bd 0f 4c 3a bd 55 11 13 be 7b 4d bd bc
       -0.043844093 -0.04548269 -0.1436208 -0.023108235
000030 7f d3 e4 bc 9b 16 2e 3d d8 ac 13 3e 94 ac aa 3c
       -0.02793288 0.042502027 0.14421403 0.020834245
000040 d2 e7 cd 3b 03 00 30 bd 9e cd 8d bc 19 2a 4c 3e
       0.0062837387 -0.04296876 -0.01730996 0.19937934
000050 0d 7c 91 be c1 9b b0 3d a7 51 5e bd e4 a0 b6 bd
       -0.28414956 0.08623458 -0.05427709 -0.08917406
000060 20 36 9d be 8b ad d2 3d 20 20 c8 3d 51 a9 e9 3d
       -0.30705357 0.10287007 0.09771752 0.11409248
000070 64 57 9f bb 41 be 0a bc 4f 8b 99 3c c7 ba 4e 3e
       -0.0048627127 -0.008468212 0.018743185 0.20188437
000080 3f ed de bd 53 15 e9 bd ba 10 4b 3b ea 14 25 3c
       -0.10885095 -0.113810204 0.0030985312 0.010075787
000090 4d ec 88 be 9e b0 16 be 7e 5a cf 3d 13 96 b2 bd
       -0.26742783 -0.14715812 0.10124682 -0.08720031
0000a0 f5 5a 76 3d 19 1c 5f 3e ef 6d 22 be fe 6e 2c 3e
       0.060145337 0.21788062 -0.15862249 0.16839215
0000b0 7d a0 9d 3e ff d0 d6 3d 22 2e 92 be 36 4f 2a 3e
       0.30786505 0.104890816 -0.28550822 0.16631779
0000c0 73 21 80 3e 33 f5 e1 3d a0 53 1a 3e 9e 09 1f 3e
       0.2502552 0.11033096 0.15070963 0.15531012
0000d0 5e b3 4a be 5b b6 d2 bd 2b ba 7e 3e 4f 23 86 be
       -0.19794986 -0.10288688 0.24875705 -0.26198813
0000e0 89 b5 5c 3a e0 e9 a6 be d3 50 10 bb ab 66 3a be
       0.0008419385 -0.32600307 -0.0022020831 -0.18203227
0000f0 16 bd 77 be e6 32 14 be 97 16 90 3e 97 04 0d 3d
       -0.24193224 -0.14472541 0.28142235 0.034428205
000100 ef eb 9c 3d 56 16 30 bd 00 69 8e 3c 85 8b c1 bc
       0.07662188 -0.04299005 0.017384052 -0.023626098
000110 53 2f d8 bb 16 ee d3 3d cc 50 ec bc ec a0 fc bc
       -0.0065974384 0.10348146 -0.02884712 -0.030838452
000120 5b 82 3a be ef 5a 04 3d f6 8f cd bc 68 bd 57 be
       -0.18213789 0.032313284 -0.02509306 -0.21068347
000130 9e 73 47 be 16 b5 46 3e 0b f7 86 3d e8 17 20 be
       -0.19477698 0.19405016 0.065900885 -0.1563412
000140 36 af 95 3e
       0.29235238

bias f4 [9]
000000 1f 87 f0 bd 77 bf 96 bd b7 63 f8 3d 31 d2 af 3c
       -0.11744522 -0.07360738 0.12128394 0.021462532
000010 9d ba 05 3e 4e 2f 57 3e 24 4a 96 3e 3c c8 61 bd
       0.13059469 0.21014139 0.2935344 -0.0551226
000020 73 d1 1b 3e
       0.15216617
