ERTSNet/new_arch_LA/decimation/model/best-model_r0_J2_NE1000.pt (torch, 483295 bytes, 65 tensors)

weight_ih_l0 f4 [27, 15]
000000 58 a3 80 3e 6e 88 4b be 6f 8f c8 3d a6 43 43 be
       0.2512462 -0.19876263 0.09792983 -0.19068775
000010 c1 cf a2 bc 88 94 3c bd 7d b3 c2 bd 70 47 ed bd
       -0.019874455 -0.046040088 -0.09506891 -0.11585891
000020 36 41 a9 bd c0 ef fd bb 7d c9 8c be ec 58 0e be
       -0.08264391 -0.0077495277 -0.27497473 -0.13901109
000030 ae 32 2b 3e 44 aa 8f bd 83 8d d6 bb 51 18 b8 bd
       0.16718552 -0.070148975 -0.006547631 -0.08989013
000040 9a 5b a5 3e 08 6c 48 be 06 12 e3 bd 8f 0c e5 3c
       0.3229645 -0.1957246 -0.11087422 0.02796009
000050 7c 75 21 be 64 75 35 be 36 41 8b 3e f7 f6 96 be
       -0.15767473 -0.17720562 0.2719819 -0.29485294
000060 a5 64 19 be 20 d6 57 3e 3a 71 5d 3e ab cc 8a be
       -0.14979799 0.21077776 0.21625224 -0.27109274
000070 6a 4f ab 3d 9b 01 4b be 20 d4 3c 3e 31 7f 01 3c
       0.083647564 -0.19824831 0.18440294 0.00790386
000080 5f 3c 8c 3e fb 04 54 be 77 d1 91 bd 8f 83 ad 3d
       0.2738981 -0.20705025 -0.071200304 0.084723584
000090 24 ad 69 3e 76 f6 a5 3e b2 41 0d be f2 e9 65 3e
       0.22819954 0.32414597 -0.13794592 0.22452524
0000a0 1d d2 1e 3e 16 e6 ae bd 67 ea ef 3d 0a bf 3e be
       0.1550984 -0.08539979 0.117146306 -0.18627563
0000b0 a5 60 7c bc a0 bf f3 bd 6f 91 1d be 58 00 34 be
       -0.015403901 -0.11901784 -0.1538751 -0.17578256
0000c0 00 ef 96 3e 25 f5 5d 3c 97 9d 30 be a8 81 8f be
       0.29479218 0.013547217 -0.17247616 -0.28028607
0000d0 a7 19 1b 3e 3e 4b 03 3b 83 a4 a8 be 67 c7 35 3e
       0.15146504 0.0020033862 -0.32938012 0.17751847
0000e0 7e dc bb bc 01 96 25 be 25 db 0d 3e 5e c2 39 3d
       -0.022932287 -0.16170503 0.13853128 0.04535138
0000f0 52 7e 95 3e aa 79 cc 3d 9e db a7 b9 6b ec 18 bd
       0.29197937 0.09984143 -0.0003201635 -0.03733484
000100 ac 0c 56 bb 6f 6f 0e 3e a2 5e da bd ec 91 9f be
       -0.0032661362 0.13909696 -0.10662581 -0.31166017
000110 9e 35 25 ba 65 5b e6 3d d8 60 88 3e 57 d2 a7 3e
       -0.000630224 0.11247901 0.26636386 0.32777664
000120 ff 77 98 3e ca 38 30 3c 49 3a 79 3b 15 8f 44 be
       0.2977905 0.010755727 0.0038029125 -0.19195206
000130 5c 75 b0 bd f8 94 41 3e 58 2a 29 be 62 bc f6 3a
       -0.086161345 0.18904483 -0.16520059 0.0018824453
000140 77 0b 67 3e 81 58 92 be 07 2b f5 3d 67 21 32 bd
       0.22562967 -0.28583148 0.119710974 -0.043488886
000150 6b a0 bb 3d 8b 04 0d bd f7 09 ec 3d f0 a9 ca bd
       0.09161457 -0.03442816 0.11525338 -0.09895694
000160 c0 6e b9 bd 7c 47 85 3e e4 3f 87 3e 7a 65 2b 3d
       -0.09054327 0.260311 0.26415932 0.041844822
000170 e6 c5 2b 3e 22 74 d7 3a 84 ec 9d bc e7 77 45 3e
       0.16774711 0.0016437809 -0.019277819 0.1928402
000180 7c 7a 83 3b 77 43 8c be 3d 62 47 be 9e 3d 2f be
       0.004012404 -0.27395222 -0.19471069 -0.17113349
000190 04 8b 97 bd 47 3b 5d 3e 3f 90 86 3c 40 19 6d bc
       -0.07399562 0.21604644 0.016426204 -0.014471352
0001a0 be ca 8c bd e3 59 6e 3d a1 dd 16 be 81 24 2d 3e
       -0.068746075 0.05819119 -0.14732982 0.16908456
0001b0 62 32 75 3e 25 7a 08 3c 6a 47 78 be 85 d7 44 3d
       0.23945001 0.008329903 -0.24245992 0.048057098
0001c0 b1 1e 22 be 14 51 90 bc 05 fd 83 3e 83 93 38 be
       -0.1583202 -0.017616786 0.25778976 -0.18025021
0001d0 d5 4c 1f 3d 6d a5 c7 bd 20 9d 4e bd e8 4d 46 3d
       0.038891632 -0.09748349 -0.050442815 0.04841414
0001e0 7c 74 50 be 5c 50 81 be 57 26 94 3e 06 90 01 bd
       -0.20356935 -0.25256622 0.289355 -0.031631492
0001f0 6c e6 0c 3d b3 4a 6c 3c 1e c7 0a be 6e 6e 8f be
       0.034399435 0.014422107 -0.1355252 -0.2801394
000200 0f 47 89 be b2 98 6c 3e 70 b6 8f 3e 26 fc 80 be
       -0.26812026 0.23105124 0.28068876 -0.25192374
000210 18 d7 4b bd aa d2 6d 3e cc 98 f5 3d 5f bc 84 3d
       -0.049765676 0.23224893 0.11992034 0.064812414
000220 0b ac 74 3e e5 fa 2b 3e 3f 90 5b 3d fe 63 70 bc
       0.23893754 0.16794927 0.05360436 -0.0146722775
000230 21 1a 1a 3e d1 56 a5 3d dc 48 26 3d 86 e9 6d be
       0.1504903 0.080731995 0.040596828 -0.23233613
000240 b3 03 a9 3d 4a c7 4e 3e 75 a1 5e bd 7c cc fa bd
       0.08252659 0.2019321 -0.054353196 -0.122460335
000250 90 38 42 3e 61 9c 6f be 1b a9 1d 3e b5 14 22 be
       0.1896689 -0.23399498 0.1539654 -0.15828212
000260 07 e6 8e 3d 41 e3 ce bd 96 32 1a bd 85 5c 80 be
       0.06977468 -0.10101939 -0.0376459 -0.25070587
000270 dd c2 69 bd c2 c1 7e 3e c6 d2 14 be 3a fb 29 3e
       -0.0570706 0.248786 -0.14533529 0.16599742
000280 1c b9 b2 bd c8 c7 1b bc 16 5c 74 3d 52 79 0a 3d
       -0.08726713 -0.009508081 0.059658132 0.033807106
000290 51 b8 0c be 4c 27 22 3e b1 23 93 bd a3 b6 6a 3e
       -0.13742186 0.15835303 -0.07184542 0.22921233
0002a0 9a 76 3f 3d e6 e6 91 3c c0 87 14 3d b8 0a 85 3e
       0.046743967 0.017810296 0.036262274 0.2598474
0002b0 b6 0a 45 3e e7 d6 f7 3d 73 04 53 3e 40 e2 8c 3d
       0.19242367 0.12101536 0.20607166 0.06879091
0002c0 48 f6 38 3e 75 15 4f be 9e 0f e0 bc cd 69 eb bb
       0.18062699 -0.20223029 -0.027351197 -0.0071842433
0002d0 bf 5d 90 be c3 3a 95 be 9a 4a 24 bd 18 6d 24 bd
       -0.28196523 -0.29146394 -0.040110208 -0.040143102
0002e0 97 ae b1 bb 3a cb 89 be 43 79 88 3d 13 46 36 3e
       -0.005422424 -0.26912862 0.06663754 0.17800169
0002f0 9f 02 6d 3d 39 c3 39 3e 67 af 63 3e 25 e6 85 3d
       0.057863828 0.18140878 0.2223488 0.06538037
000300 16 02 d6 3c 01 84 d6 3b e9 cc f1 bd eb ab 6f 3e
       0.026124042 0.006546498 -0.11806662 0.23405425
000310 55 6e 65 be 28 eb 0f 3d 29 2a 79 be d0 05 3d 3b
       -0.2240537 0.03513637 -0.24332489 0.0028842576
000320 01 c0 3a be 83 b3 18 be 16 c9 8d bd b0 d5 1f bb
       -0.18237306 -0.14912228 -0.0692312 -0.0024388842
000330 43 04 05 bd 82 ae 8e 3e 7b e5 f2 bd 4e 2a 75 3c
       -0.032474767 0.27867514 -0.11860176 0.0149636995
000340 03 89 3a 3d 68 f8 0a 3e 12 99 9d be 22 8e 95 be
       0.04554082 0.13571322 -0.30780846 -0.2921
000350 06 67 9b bd 50 51 37 3e f6 07 d2 bc c9 22 26 3e
       -0.075880095 0.17902112 -0.025638562 0.16224207
000360 97 ab 08 be c4 53 53 be d3 5a c4 3c 60 d2 36 be
       -0.13346706 -0.20637423 0.02396909 -0.17853689
000370 ad e1 76 3e 85 3d 20 be 56 47 91 be a5 e2 0a 3a
       0.24109526 -0.15648468 -0.28374738 0.0005298055
000380 ba 52 b4 3d cf a3 79 be a2 c9 58 3d 2e ca 85 bc
       0.08804841 -0.24378894 0.052926667 -0.016331758
000390 bf 4c 0d bd d6 1d 1e 3d 3c 91 42 3e 8a 30 76 3e
       -0.03449702 0.038602673 0.19000715 0.24041954
0003a0 20 43 04 be c0 72 85 3c b8 8a 92 3e 6b 6a 6f 3d
       -0.12916231 0.016290069 0.2862146 0.058451097
0003b0 f6 72 81 3e 41 0b 21 be 96 d2 89 bd dd 28 89 bd
       0.2528302 -0.1572695 -0.06729619 -0.06697247
0003c0 f7 4d 0d 3e b8 6e d9 3d e9 b8 4d 3d 64 8b 29 be
       0.13799272 0.10616821 0.050225172 -0.1655708
0003d0 68 db 08 3d 02 67 a0 bd ce be f5 3c 45 16 6b be
       0.033412367 -0.07832147 0.02999821 -0.22957714
0003e0 9b 51 99 3d be e9 08 3e 7e e1 9b 3e d4 22 d2 3b
       0.07486268 0.13370416 0.30445474 0.0064128432
0003f0 a9 15 38 3e 9f 68 9c 3c 75 3a 92 be 76 44 24 3c
       0.17977013 0.019092856 -0.28560224 0.010026088

weight_hh_l0 f4 [27, 9]
000000 a5 38 6e 3e b0 db 5c 3e b5 a5 9c 3d 7a 6a a1 3c
       0.23263796 0.21568179 0.076487936 0.019704092
000010 68 17 91 be 00 46 9d 3e 92 07 51 be 01 83 e4 bd
       -0.2833817 0.30717468 -0.20413044 -0.111577995
000020 07 e8 89 be 8b 14 11 be a4 07 6d be dc 0c 90 3c
       -0.26934835 -0.14167993 -0.23147446 0.017584257
000030 04 37 d4 bd 2e 37 4d be 68 99 84 3e 28 64 97 be
       -0.10362056 -0.2004058 0.2589829 -0.295686
000040 f0 4c 40 bd e6 a8 44 3c ef 5b b7 3c 2f 56 85 3e
       -0.046948373 0.012003159 0.022382705 0.26042315
000050 bc f2 77 be 8c bf 14 3d 08 99 94 3e 92 ac b4 3d
       -0.2421369 0.036315486 0.29023004 0.08821978
000060 01 35 2a bd 74 37 a5 3d 95 5f 01 bc 02 4d 96 3e
       -0.041554455 0.080672175 -0.007896324 0.29355627
000070 05 02 49 be c3 5c a4 3e 4c 8b 26 3e 71 19 48 3e
       -0.19629677 0.32102022 0.16264075 0.19540955
000080 9d d9 99 3e 90 d7 39 3e 2c 21 67 3e a9 d1 a5 be
       0.30048838 0.18148637 0.22571248 -0.3238652
000090 63 f6 30 bd ef a7 c8 3c 1d 7a 81 3e 40 07 17 3e
       -0.043203723 0.02449414 0.25288478 0.1474886
0000a0 1f 19 8d 3e 1d eb dd 3d 1c 44 e8 3d ee 94 5e 3d
       0.27558228 0.1083586 0.11341116 0.05434125
0000b0 6c 46 fa bd af 09 82 3e 29 70 1e be 85 80 59 3d
       -0.12220463 0.25398013 -0.15472473 0.05310108
0000c0 8e 8e 5f bc 35 7a 20 be 97 cc c8 3c 22 ea 2c 3e
       -0.0136448275 -0.15671618 0.024511619 0.1688619
0000d0 e5 26 d7 3d 49 90 36 bb 51 f3 c6 3c 11 c8 53 3b
       0.105054654 -0.0027856997 0.024285944 0.0032315294
0000e0 d6 5f 78 bd d0 ae fa 3d fe cb 82 3d a1 7a 44 3d
       -0.06063827 0.12240374 0.06386565 0.04796851
0000f0 08 b1 8f 3e 93 35 20 3e 4e 01 9c 3d f5 6d 98 3e
       0.28064752 0.15645437 0.07617436 0.2977139
000100 10 e7 bc 3c 48 dd 3a 3d ee 90 dc 3d 99 13 e3 3d
       0.023059398 0.045621186 0.10769831 0.11087722
000110 75 f3 6b bd 33 b3 9c be 7d e5 7f 3d 51 50 34 be
       -0.057605226 -0.30605468 0.062474716 -0.17608763
000120 c5 3c f2 bc 30 e5 63 3e 94 71 9d 3e 78 92 9f 3e
       -0.029569993 0.22255397 0.30750716 0.31166434
000130 1a c0 c0 ba e5 e1 4d 3e d5 c6 50 bd a4 71 89 be
       -0.0014705688 0.20105703 -0.05097087 -0.26844513
000140 c9 87 2e be e1 2f 1a be 1f 96 aa bd ab 1c 91 be
       -0.17043985 -0.15057327 -0.083294146 -0.28342184
000150 e2 5e 39 3c a2 97 f5 3d 95 e1 81 3e 18 b1 92 3e
       0.011314126 0.11991812 0.25367418 0.28650737
000160 31 23 8f 3d 52 66 57 bd ed 39 6b bc 2d 6e 82 3e
       0.06989134 -0.052587815 -0.014357072 0.25474682
000170 4c 6f c2 bd 58 bf ab bd b9 dc 57 3e 76 47 37 3d
       -0.094938844 -0.08386105 0.21080293 0.044745885
000180 e3 f3 17 be a4 30 9a 3e 0a 94 ca bb ed 8c 29 3e
       -0.14839129 0.30115235 -0.0061821984 0.16557665
000190 6c db 68 3d 15 30 79 be 3a b5 b9 bd 37 99 17 3d
       0.056849882 -0.24334748 -0.09067769 0.03701135
0001a0 48 0f 93 3e 13 8d 17 be 37 3b fe bd e3 22 8d be
       0.28722596 -0.1479991 -0.12413638 -0.2756568
0001b0 b6 7a e0 3d a1 58 34 bd bd 79 8e 3d a9 77 34 3d
       0.10960905 -0.044029836 0.069568135 0.04405943
0001c0 6e 96 24 be 62 99 a7 bc 1f 05 47 be 8b 7b 8a 3e
       -0.1607301 -0.02045888 -0.19435547 0.2704738
0001d0 89 17 07 3e ba a6 8d be a3 69 77 3d ae 5d 39 be
       0.13192572 -0.27666265 0.060403477 -0.18102142
0001e0 60 38 b1 3d 2f 53 f3 bd 3a 64 81 3c 25 02 99 3e
       0.08653331 -0.118811004 0.015794862 0.2988445
0001f0 12 31 3c 3d 94 bb db bd cd ec 73 3e 0f ca 89 3e
       0.045945235 -0.10729137 0.23820801 0.2691197
000200 ab 5d d4 3d 25 07 e7 bc 3b f2 6a 3d 63 61 8a 3c
       0.10369428 -0.028201649 0.057359915 0.01689214
000210 6e fc 7d 3d 09 93 a5 3d 8c 2c db b9 95 9d 1e be
       0.062008314 0.08084685 -0.00041804125 -0.154898
000220 04 d0 2f be a6 00 8e 3e 45 4d 3f be 0a 19 cb bc
       -0.17169195 0.2773487 -0.1868182 -0.024792213
000230 43 b6 e1 3d a6 8f 17 3e 25 2a 99 be 98 83 8a 3e
       0.11021092 0.14800891 -0.29914966 0.27053523
000240 50 fa ac 3c df 03 2c be 2a 54 11 3e a2 bb 50 be
       0.021115452 -0.16798352 0.14192262 -0.20384076
000250 46 08 83 be 90 42 4e be e2 a2 3f 3d ea f1 3d be
       -0.2559225 -0.20142579 0.046786197 -0.18549314
000260 fb fe 62 3e 54 23 33 3e 36 d7 a6 3e b2 24 b3 3c
       0.2216758 0.17493945 0.32586068 0.021868084
000270 87 af 1f be e4 11 82 be 27 ca 7f 3e aa ca b0 bd
       -0.15594302 -0.25404274 0.24979459 -0.08632405
000280 6a a9 0e be fb 19 37 be 11 bf 1e bd 7b e1 62 3e
       -0.13931814 -0.17881005 -0.038756434 0.22156326
000290 68 7a dc bd c5 03 1c be a4 40 29 be 04 ec 00 3e
       -0.10765535 -0.15235813 -0.16528565 0.12590033
0002a0 08 47 63 3e 8e 9e 4a 3d d0 a2 2e bd ab 72 3b bd
       0.22195065 0.049467616 -0.04263574 -0.045763653
0002b0 11 a7 4f 3e 09 f2 7f bd ee b2 a0 bb 29 26 54 be
       0.20278575 -0.062486682 -0.0049041426 -0.20717682
0002c0 a5 49 a0 3e a5 39 3c be 99 4c ea 3d ad c3 a2 3e
       0.31306186 -0.18381365 0.11440391 0.31789914
0002d0 da d6 13 be 44 92 f9 3d 3b 1c c3 bd f3 74 a3 3e
       -0.14437428 0.12186101 -0.09526869 0.31925163
0002e0 fb 7e 26 3e fe 34 61 3e 47 69 58 3e 65 d7 fd bd
       0.16259377 0.21992871 0.2113391 -0.12394599
0002f0 6c 55 27 be 85 a8 19 be 36 9e c9 3d 7a 28 82 bd
       -0.1634118 -0.15005691 0.098446295 -0.063553765
000300 02 78 95 be e6 9b 5a be 90 13 8a be 37 fb 9e be
       -0.2919312 -0.21348533 -0.2696805 -0.31051037
000310 8b 1e f5 3d 6a 62 8d 3e 9e 76 40 3e de 37 ef bc
       0.11968716 0.27614146 0.18795249 -0.029201444
000320 3d 5b 95 3e 7f ec 75 be 51 f1 a0 be e6 a8 b4 bd
       0.29171172 -0.24015997 -0.3143411 -0.08821277
000330 f1 25 63 3e df 8f 0f 3e 43 72 ba bc 43 78 1e 3e
       0.22182442 0.14019726 -0.022759562 0.15475564
000340 76 85 83 3d d8 39 f4 bc 7b fc 0c 3e 8f 68 5f 3e
       0.0642194 -0.029812738 0.13768189 0.2181723
000350 b5 f0 29 3e b2 95 81 3e e8 ea 32 be 19 73 99 3e
       0.16595729 0.2530952 -0.17472422 0.29970625
000360 07 21 77 be 54 32 71 3e 4d a7 c3 bd 28 c9 b0 3d
       -0.24133693 0.23554355 -0.095533945 0.086321175
000370 d1 dd 66 3e 4f f7 a7 3e 3f 05 00 3e 45 05 8a 3e
       0.22545554 0.3280587 0.12502001 0.26957145
000380 12 e6 99 be 06 c1 21 3e bc 1f f1 3d 8b af 68 be
       -0.30058342 0.15796289 0.11773631 -0.22723214
000390 94 68 6c be 37 9b 45 bd 72 ad 4b 3e 5d 32 1d be
       -0.23086768 -0.048243728 0.19890383 -0.15351243
0003a0 5d 4e d0 3d 9d 9e 01 be 9f 85 a5 3d 4d 7c 99 be
       0.101711966 -0.12658162 0.08082127 -0.29977646
0003b0 a0 fa 51 bc de df 8d bc 00 a2 ff bd fb a0 04 be
       -0.012816101 -0.017318662 -0.12482071 -0.12952034
0003c0 05 40 fb bd 3d f2 06 3e 3f c2 27 3e
       -0.1226807 0.13178344 0.16382693

bias_ih_l0 f4 [27]
000000 96 23 9a 3c dd f6 84 be 8f 2a e7 3d cb db 56 3e
       0.018815797 -0.25969592 0.11287414 0.20982282
000010 49 87 29 be 03 4f 2a bd 7d d3 60 3e 29 41 0f be
       -0.16555513 -0.041579258 0.21955676 -0.139897
000020 59 ed 04 be e7 ec 90 3c f3 60 96 bd 5a 9e 3b 3e
       -0.12981166 0.017691089 -0.0734271 0.18322125
000030 79 95 37 be 62 49 82 3d b6 d2 83 bd b1 3a 42 ba
       -0.17928113 0.06361653 -0.06436674 -0.00074092584
000040 00 fc 1e 3e 4e 1b a5 bd 1c b3 4f be 02 2d 8e 3d
       0.15525818 -0.080618486 -0.20283169 0.06942178
000050 38 b2 d5 bd 3e e3 36 bd e9 12 ba bd 5e 2c 4d 3e
       -0.10434383 -0.04465031 -0.09085638 0.20036456
000060 ab f7 ac 3d b3 3b 06 3d 51 50 83 be
       0.084456764 0.032771777 -0.25647214

bias_hh_l0 f4 [27]
000000 31 d4 cb bd 6c 7f 8f be d7 19 52 be d6 8f 07 3c
       -0.09952582 -0.28026903 -0.2051767 0.008274039
000010 53 7e 02 bd 6b 2b 84 3e 6c e0 89 3e cb 41 85 be
       -0.031858753 0.25814375 0.26929033 -0.2602676
000020 b5 b5 71 be 44 b5 89 3e ae 9e b4 3d 26 19 8a be
       -0.23604472 0.26896107 0.08819328 -0.26972312
000030 c2 97 8a bd e3 59 2c 3e 73 ff 90 3c e2 52 80 3d
       -0.06767227 0.16831164 0.017699933 0.06265809
000040 9e 99 af 3d 78 0c 44 be 01 10 90 be 35 b7 9d 3e
       0.08574222 -0.19145381 -0.2813721 0.30803838
000050 28 29 8b 3d 92 20 6a bd be fb 6e 3d e8 f0 92 bd
       0.06794959 -0.057159968 0.05834555 -0.071748555
000060 fe b6 2a be 26 f6 0d be 12 9d 42 bd
       -0.16671368 -0.1386343 -0.047513075

weight_ih_l0 f4 [27, 24]
000000 0e c7 a0 3e fa d9 f2 b9 7a 0d 39 3c 55 ea 2b 3e
       0.31401867 -0.00046320242 0.011294717 0.1678861
000010 e2 d8 80 bd 77 6b e7 3d ae b0 58 bd 2f 5f 9e 3e
       -0.06291367 0.11299794 -0.05290287 0.30931994
000020 2a f4 fb bd 3d bf 1a be 30 24 9a bd 00 75 8a 3e
       -0.1230243 -0.15112014 -0.075264335 0.2704239
000030 b5 23 8f 3e ed 6f 03 bd 6b 34 7e 3e 8b 98 47 be
       0.2795693 -0.032089163 0.24824683 -0.19491784
000040 18 71 99 3e 02 e3 2e 3e 7f b5 d2 bd 67 0a 9f be
       0.29969096 0.17078784 -0.10288524 -0.31062624
000050 88 91 1e 3c 0b 9a 97 3e 10 37 09 3d b3 a3 36 be
       0.009678252 0.29609713 0.033499777 -0.17835884
000060 ce 3a fc 3d 8e 4e 91 bd cb 4d 7c be 60 df 0a 3e
       0.123159036 -0.07095061 -0.2463905 0.13561773
000070 3f d7 ee bd 1a 67 4b 3e 87 6f a2 3e c2 f0 b6 bd
       -0.11662149 0.19863549 0.31725714 -0.0893264
000080 41 e7 10 3c 77 c8 a7 3e 37 4c 90 be c9 1c 8e be
       0.008844198 0.3277013 -0.28183147 -0.27756336
000090 e1 f0 a7 3e fa 59 06 be 7d d3 97 be c3 d6 59 be
       0.32800964 -0.13120261 -0.2965354 -0.21273331
0000a0 d6 e0 8e be 47 d8 d5 3d 53 8c 5c 3e 90 b7 07 be
       -0.2790591 0.10441642 0.21537904 -0.13253617
0000b0 ea 49 3c be 67 c9 d0 3d 50 d7 07 bc cb 47 85 be
       -0.18387571 0.101946644 -0.008291081 -0.26031336
0000c0 9e c7 54 3e 85 89 95 be 43 49 83 be a1 f3 af 3c
       0.20779273 -0.29206482 -0.25641832 0.021478476
0000d0 df ab cd bd 67 64 a6 be 45 3f 14 3e 41 ca 98 bd
       -0.100425474 -0.32498476 0.1447726 -0.07460452
0000e0 d4 44 6b 3e a8 5f a5 3c 75 04 62 3e 86 d3 a0 3e
       0.22975475 0.020187214 0.22072013 0.3141138
0000f0 40 db 2c 3e b8 22 17 3e e1 7a 9e bc fc 03 9c 3d
       0.16880512 0.14759338 -0.019345703 0.076179475
000100 1f 99 b5 3d 8a 84 6c be 0e 42 9b 3e 38 c6 c3 3b
       0.08867096 -0.23097435 0.30323833 0.0059745573
000110 7b 68 81 bd 3c 0d 7c 3e ab 7a c0 3d 65 a4 bf bd
       -0.06318756 0.24614424 0.09398397 -0.09357528
000120 1a f8 12 be ac 7b 8e 3e 43 24 94 3d c4 60 05 bc
       -0.14352456 0.2782873 0.07233479 -0.0081407465
000130 18 14 32 3e 8d c7 2d be ef 24 91 3e 35 fb 09 be
       0.17390478 -0.16970654 0.2834849 -0.13474734
000140 34 1d 76 3e 4f 27 53 be a0 d6 66 be ac fb 97 be
       0.24034578 -0.20620464 -0.2254281 -0.29684198
000150 8e 30 43 bc 07 bc e8 3d c4 7a 99 bd dc 18 5a bd
       -0.011913432 0.11363988 -0.07494119 -0.053246364
000160 2b 5b 1c 3e e4 05 a9 bd 4a 38 36 3e 2f d1 bb bd
       0.15269153 -0.08253077 0.1779491 -0.09170758
000170 54 3e 7b 3e da ef 1f be 7d 0f a1 bd 98 40 b3 bc
       0.24535495 -0.1561884 -0.07864282 -0.021881387
000180 b4 9a 8b 3e 72 88 7f 3e 4f e7 a8 3d 29 f8 8b bd
       0.27266467 0.24954394 0.082472436 -0.06834442
000190 57 5d d0 bd 39 d6 65 be 98 91 ba bd c7 19 24 3e
       -0.10174053 -0.22445 -0.09109801 0.16025458
0001a0 ca d7 64 3e ae 90 97 3d a5 b4 06 3e 45 9e b6 bd
       0.22347942 0.07400642 0.13154848 -0.08916906
0001b0 9f 07 35 3e 5f 33 8d 3e 83 34 57 3e d9 48 61 bd
       0.17678688 0.27578256 0.21016125 -0.055001114
0001c0 ac e2 98 be 99 d0 9c 3e 07 e0 64 be 24 1e 8e 3e
       -0.29860437 0.30627897 -0.22351085 0.2775737
0001d0 91 4b a6 be 07 f7 6a 3e ce 16 9a be c4 d3 dc bd
       -0.32479528 0.22945796 -0.30095524 -0.107825786
0001e0 ae 19 b9 bc 4a 5d 72 3e 2c a6 88 3d 76 e0 74 3d
       -0.022595253 0.236684 0.0667232 0.059784375
0001f0 b7 3c 7f be 39 2a 34 be 95 c7 be bb 6e 31 55 bd
       -0.24925505 -0.17594232 -0.005822132 -0.052049093
000200 b0 81 36 3c 67 b0 b6 3d fc d9 8b 3e 1b f0 56 3c
       0.011139318 0.08920365 0.27314746 0.013118769
000210 bf 41 8d 3e 16 21 8a be b1 ba 53 be 01 c9 73 3e
       0.27589223 -0.26978368 -0.20676686 0.23807146
000220 fa ee 50 be 24 b8 9c 3d df b0 11 bd 9d c0 45 bd
       -0.20403662 0.076523095 -0.035569068 -0.048279393
000230 3c 84 8e bc 40 43 b1 bd c3 2a 88 be 91 58 09 be
       -0.017397039 -0.08655405 -0.26595125 -0.13412692
000240 35 74 63 3e 51 b1 5e be b2 6c 56 be 00 74 e9 3d
       0.22212298 -0.21747328 -0.20939901 0.11399078
000250 8c 4e 3e be 76 47 76 be a1 67 83 be d1 6b c3 bd
       -0.18584651 -0.24050698 -0.25665 -0.09542049
000260 b6 1e ee bd d8 9c 0c 3d 03 61 15 3d b4 37 7a 3d
       -0.116269514 0.034329265 0.03646947 0.06108828
000270 23 28 70 be 98 a8 91 3e 2f 1f 95 bd 09 41 47 3e
       -0.23452811 0.2844894 -0.072813384 0.19458403
000280 b8 6e a4 bd 9e 8b b8 3d db a2 2a be 3e 64 d5 bd
       -0.080289304 0.09011005 -0.16663687 -0.1041951
000290 4b a4 89 3e c4 4b 11 be 48 a5 7e bd c2 9a 93 be
       0.26883158 -0.14189059 -0.062169343 -0.28829008
0002a0 36 ee 36 3e eb 3e 2e 3e 49 3c 4b be 47 22 ac bd
       0.17864308 0.17016189 -0.19847216 -0.084049754
0002b0 81 a1 8a bd 62 96 12 bd fa 65 3c 3d c7 78 ce 3d
       -0.06769086 -0.035787947 0.04599569 0.1008163
0002c0 08 f7 1c be ae 4e 6f be 13 f7 2f bd cb 31 91 bc
       -0.1532861 -0.23369858 -0.042960238 -0.017723938
0002d0 72 fd d4 bd e1 6d b3 3c 68 f3 f1 3d 26 3b ef bd
       -0.10399903 0.02190298 0.11814004 -0.116812035
0002e0 fe f7 7d be 29 12 96 be b6 88 c3 bd be 8b df bd
       -0.24801633 -0.2931073 -0.0954756 -0.109153256
0002f0 a4 89 29 3d 19 4b 5a be 0f 41 47 bd c4 ff aa 3d
       0.04139103 -0.2131771 -0.04864603 0.08349565
000300 a7 b7 98 be f8 f2 00 3d 66 8f 71 be 48 25 65 be
       -0.29827616 0.031481713 -0.23589858 -0.22377503
000310 37 bb 19 3d 22 34 8c be 2d f4 35 3e b0 d8 d8 3d
       0.037532058 -0.27383524 0.17768927 0.10588205
000320 69 3a 08 bb 3a 33 b3 bd b7 48 64 be bf 27 da 3c
       -0.0020786768 -0.08750005 -0.22293364 0.02663028
000330 42 8c e2 bc 1c 95 cd 3d e5 75 e2 bc a9 c8 48 3d
       -0.02765477 0.10038206 -0.027644107 0.04901949
000340 40 3a 1c be 86 4b 6b 3e e0 a8 81 3e 1b 3a 42 be
       -0.15256596 0.22978029 0.25324154 -0.18967478
000350 4f 9f 2a bd 72 14 17 3e a9 7b 66 3d 75 78 8b be
       -0.041655835 0.14753893 0.056270275 -0.2724034
000360 c6 b1 0e be 9d 04 63 3e 7d 2d 38 bb 49 9e 99 be
       -0.13935003 0.22169729 -0.0028103285 -0.30003574
000370 3c 5a ab 3e 75 bb 20 be 6f 77 0a be c9 1e a2 be
       0.3346728 -0.15696509 -0.13522123 -0.31664112
000380 db c9 05 be dc 0a 9f be 5b 29 6b be 5e 72 b7 bd
       -0.13065283 -0.31062973 -0.22964995 -0.08957361
000390 c6 af 8b bc 80 bc 58 3e 93 07 6c bc 48 f6 a8 3d
       -0.017051589 0.21165657 -0.014406103 0.082500994
0003a0 9a 5e e1 bd db d4 25 3e 70 71 71 bc 78 df 2b bd
       -0.11004372 0.16194479 -0.014736518 -0.041961163
0003b0 2e 8d 84 3e 7d 03 21 3e c9 14 61 be b8 9c 27 be
       0.25888962 0.15723987 -0.21980585 -0.16368377
0003c0 52 40 81 be c0 db 96 3e 0a ec c1 3b e7 0a a5 3e
       -0.25244385 0.2946453 0.0059180306 0.3223488
0003d0 e1 db 13 be 15 41 76 3e cb 25 85 3e 11 fb 05 3c
       -0.14439346 0.24048264 0.26005396 0.008177535
0003e0 ce eb 82 be ed 99 8e be 91 a9 5b 3b e3 bb a9 be
       -0.2557053 -0.2785181 0.0033517818 -0.3315116
0003f0 e3 ac 6b 3d 3e ef be 3c 29 ea 68 be 45 73 92 be
       0.057537924 0.023307439 -0.22745575 -0.2860357

weight_hh_l0 f4 [27, 9]
000000 6f 6b 33 3e c2 5e 3b 3d 30 b2 3c b7 d8 67 d9 bd
       0.17521451 0.045744665 -1.1247161e-05 -0.1061551
000010 d2 df 78 3e d3 bd 91 3a d6 34 86 3e 35 6d eb bc
       0.2430413 0.0011119194 0.26212186 -0.028738597
000020 b6 1b 11 3e ea 31 37 be 04 96 b7 bd 7f 2c d7 bc
       0.14170727 -0.17890134 -0.0896416 -0.026266335
000030 a4 ec 8b 3e 0c 02 05 3d 09 ce ce bc fc c7 5f 3e
       0.2732898 0.032472655 -0.02524473 0.21853632
000040 76 ff 1d 3a 1a 45 8e be 38 3b 6c be 9c 0f c4 3d
       0.00060271414 -0.27787095 -0.23069465 0.0957329
000050 ad 95 18 bc 9c 01 b2 3d 28 b7 a9 3e c5 9a 8b 3a
       -0.009313029 0.08691713 0.3314755 0.0010650983
000060 15 8f cb 3c 9d 72 60 3d 89 03 29 bd 24 2b 0c 3e
       0.0248485 0.054796804 -0.041263137 0.13688332
000070 75 6f 29 3e 30 a1 b6 b7 3e f7 3f 3c 36 0f 50 be
       0.16546424 -2.177115e-05 0.011716662 -0.20318303
000080 41 18 2e bc cc 69 bc bd f2 78 ba 3c 62 4d 21 3e
       -0.0106259 -0.09199867 0.02276275 0.15752175
000090 42 1d 0d 3e 9b 72 9c bd f7 39 d3 bb f2 24 44 be
       0.13780692 -0.07639047 -0.006446119 -0.19154719
0000a0 90 dc 40 be 79 e7 f4 3b 2c bc 76 3e 6b 20 ac 3b
       -0.18834138 0.0074738828 0.2409522 0.005252888
0000b0 17 ea 5a be b5 67 1d bd a4 62 34 be 24 74 b8 3c
       -0.2137836 -0.03842898 -0.17615753 0.022516318
0000c0 bd 40 4d 3a c1 f9 85 be 98 57 42 b8 74 26 77 3a
       0.0007829776 -0.2616711 -4.6334782e-05 0.0009428032
0000d0 e7 61 31 bb b4 c1 81 3e cd e0 78 3d 80 ec a4 3d
       -0.002706641 0.25343096 0.06076126 0.08052921
0000e0 8b 99 5f bb f8 f3 40 3d 6c 0a a2 3c a2 c5 38 bd
       -0.0034118618 0.047107667 0.01978036 -0.045110352
0000f0 34 1e f5 3c 1f 5c d7 bc c7 9e 2d be 5f 73 15 3e
       0.029921629 -0.026289044 -0.169551 0.14594792
000100 60 91 9e be f7 53 06 bd fd fb 12 3e 99 fa cd bd
       -0.30970287 -0.03279492 0.14353938 -0.10057563
000110 3c 64 56 38 b5 7c 74 3e 50 79 a5 3c 2c 59 b0 3d
       5.1114926e-05 0.23875697 0.020199448 0.08610758
000120 65 9f 2e 3a a8 7e 93 be 04 54 af 3c 01 de 24 3d
       0.0006661325 -0.2880757 0.021402366 0.040250782
000130 9f 4c 4c bd 95 94 22 b7 67 29 24 be 91 1f 61 ba
       -0.04987776 -9.690547e-06 -0.16031419 -0.00085877726
000140 71 d5 79 3d 09 3c 9a 3e 7f 17 81 3e c0 9a d2 b7
       0.06099457 0.30123928 0.2521324 -2.5106012e-05
000150 30 78 84 be c4 ca be 3d 21 0e c3 b8 84 d7 9f be
       -0.25872946 0.09316018 -9.300956e-05 -0.31219113
000160 a7 9c c8 3c b7 f9 86 bd a1 54 5e 3e 42 c2 8c be
       0.02448876 -0.06590598 0.21711971 -0.27491957
000170 ad 3c a0 3a 6f ab 45 3e 08 4d 7d bc f5 a3 c1 bd
       0.0012225114 0.19303678 -0.01546026 -0.094551004
000180 54 78 3f be ef 67 00 be c1 71 78 be da d8 2c 3e
       -0.18698245 -0.12539648 -0.24262144 0.16879597
000190 31 ee 91 3e c4 b2 81 3a 18 1c 3f be ee f4 73 be
       0.28502038 0.0009895195 -0.1866306 -0.23823902
0001a0 03 c6 87 bd 7e 8a f1 3d 88 01 0c 3d 08 54 96 3e
       -0.066295646 0.117939934 0.034181148 0.29360986
0001b0 05 a6 37 be 48 f9 17 3e a0 ba 6a ba a1 e4 c7 bc
       -0.17934425 0.14841187 -0.0008954201 -0.024401011
0001c0 ff ee a2 3e 75 1c ef 39 c7 8c 48 be 3c a0 89 3c
       0.31822965 0.00045606834 -0.19584952 0.016800039
0001d0 d0 cc 87 3e a3 a8 a8 3b 6e e0 15 3e 7c 91 db 3a
       0.26523447 0.005147056 0.14636394 0.0016751732
0001e0 2c bc 01 bd 0e 16 93 3e 51 7e 1e bd 6e 6f 82 3e
       -0.031673595 0.28727764 -0.038694683 0.2547564
0001f0 04 48 cf 3c c0 ed 77 3d b6 67 27 3d 02 8f 91 3d
       0.025302894 0.06052947 0.04087039 0.07107355
000200 53 d9 20 3c 4d 81 da bb 1d bb 05 3e c3 0f 16 bc
       0.009817439 -0.006668246 0.1305966 -0.009159031
000210 c1 07 54 3c 23 f2 24 3b d4 61 a5 be 02 a0 1f 3d
       0.012941302 0.0025168739 -0.323012 0.038970955
000220 18 0a 14 3e c6 de b4 ba b4 9d 24 be 06 fe 8a 3e
       0.14456975 -0.0013799302 -0.16075784 0.2714693
000230 85 af 08 3e a1 2e d3 bd e1 c7 25 bc 85 3a c4 bd
       0.13348205 -0.10311628 -0.010118456 -0.09581474
000240 50 6c ea bd 51 ea 48 3e e1 33 28 3c 0d c6 01 be
       -0.1144644 0.19620635 0.010266275 -0.12673207
000250 a1 42 7e 3e d0 1a a1 b9 21 c9 95 be 3d cb 53 bd
       0.24830104 -0.0003072829 -0.29255012 -0.051707495
000260 49 1e 9b 3e e8 96 2d be 40 ed 65 bd 5e f6 c5 bc
       0.30296543 -0.16952097 -0.056134462 -0.024165329
000270 2c 0e 66 be fc fe cd 3d 66 11 dc bc a3 c8 0b be
       -0.22466344 0.100584 -0.026863765 -0.13650756
000280 66 3d d0 bd b0 ac 74 be 77 4b 61 3e 29 f2 a6 3a
       -0.10167961 -0.23894 0.22001444 0.0012736964
000290 70 f7 62 b9 0c a7 2d 3d 99 2c 2b 3e d0 0e 15 3e
       -0.00021645217 0.042395636 0.16716231 0.14556432
0002a0 1f 14 34 be 6d 78 00 3e 50 a0 7b be 0f c8 8a 3e
       -0.175858 0.12545939 -0.24572873 0.27105758
0002b0 2d b0 90 be d4 7e b2 39 b5 5c 9d 3e df 54 a1 bc
       -0.2825941 0.000340453 0.30734792 -0.01969379
0002c0 6a 67 b5 3d b3 fb 40 be 60 d1 4b be 49 50 aa be
       0.08857615 -0.18846016 -0.19904089 -0.33264378
0002d0 91 ec 68 3e 99 b8 f0 3d cf 55 38 ba 13 83 b0 3d
       0.22746493 0.11753959 -0.00070318294 0.086187504
0002e0 c6 f3 78 be 38 2a 55 3c bc 88 8d bd 58 8a f2 bc
       -0.24311742 0.013010554 -0.06910846 -0.029606983
0002f0 08 ec 93 3e e4 b1 91 3e ee 7d 40 be d4 e1 43 3c
       0.28891015 0.28456032 -0.18798038 0.011955697
000300 d7 bc 00 3e 7d e3 44 3e 57 57 94 bd b4 7e 3f 3e
       0.12572037 0.19227405 -0.07243221 0.18700677
000310 9f d6 83 bd 1a 07 a1 3e 48 82 e8 3a 9c e2 a4 3e
       -0.0643742 0.3145073 0.0017739022 0.3220414
000320 d5 bc 4d bc d7 bf a3 3e 41 4d 7e 3e 2f 37 00 be
       -0.012557228 0.319823 0.24834158 -0.12521051
000330 01 1d 03 bd 4f e9 af 3d e7 53 9a be fd d7 82 3e
       -0.032010082 0.08589422 -0.30142137 0.2555541
000340 17 d4 3d be 80 9f 07 b7 12 8c 98 3d 42 84 33 be
       -0.18537937 -8.0837635e-06 0.07448591 -0.17530921
000350 31 35 c7 bb 46 f7 a3 be 17 52 19 be e7 cf 11 be
       -0.006079339 -0.32024592 -0.14972721 -0.14239465
000360 fd da a2 3d 46 99 49 be 21 7b f4 3c fc 2c e9 bd
       0.07951925 -0.19687375 0.029843869 -0.11385533
000370 b2 9d 31 3e 1f 9d 15 3e 65 d0 f8 3b 1d 8e 2b bd
       0.17345312 0.14610718 0.007593202 -0.041883577
000380 8e e2 54 3e f3 f2 33 3d 97 69 e6 3d 23 c1 c5 3b
       0.20789549 0.043932866 0.112506084 0.0060349866
000390 df c9 26 3e 71 de 9b 3e 11 df 87 3c 33 0e 86 3e
       0.16287945 0.30443147 0.016585859 0.26182708
0003a0 e8 55 f1 bc 57 ac 5d be 15 a2 92 3e 16 bf 54 be
       -0.029459909 -0.21647774 0.28639284 -0.20776019
0003b0 30 ba 1f 3a 82 41 1b 3e 0a f5 91 be 8c 7e a4 bc
       0.0006093113 0.15161708 -0.28507262 -0.020079874
0003c0 d5 d9 a2 3e bd d2 5d be dd f0 92 be
       0.31806818 -0.21662422 -0.2869939

bias_ih_l0 f4 [27]
000000 4e d0 77 be 56 05 88 3e 31 6b 18 3e 10 2c 62 be
       -0.24200556 0.2656657 0.1488464 -0.22087121
000010 bf ba 84 bc 00 4f 8d 3c ca 95 d4 bd 46 4b 86 be
       -0.016202329 0.017249584 -0.103801325 -0.26229304
000020 e3 a7 44 be ac 0c 09 bd c4 08 17 be 65 54 35 3e
       -0.19204669 -0.03345935 -0.14749438 0.17707975
000030 29 3e 53 3e 44 ae 9c be e1 8a df 3d 6b a0 3f bd
       0.20629181 -0.30601704 0.10915161 -0.046783846
000040 65 70 2e 3e db 72 fa bd 7a 37 6c 3e 72 55 4d be
       0.17035063 -0.12228938 0.23068038 -0.20052126
000050 44 85 9a 3c 45 e3 86 3e cf 13 9f 3e 00 6b 84 3e
       0.018862374 0.26345268 0.310698 0.25862885
000060 17 00 3d 3e f2 4b 31 3e 48 f1 83 3e
       0.18457066 0.17314127 0.2577002

bias_hh_l0 f4 [27]
000000 31 cf 50 3e bc b1 f8 bd 77 76 b6 3d 36 8a 43 be
       0.20391537 -0.12143275 0.08909314 -0.19095692
000010 ab 74 f8 3c 1e 1b 2e bb 4e 79 65 be 12 01 3e be
       0.03032907 -0.0026566456 -0.22409555 -0.18555096
000020 62 67 16 be b4 1e d0 3d 5a 93 d2 bd 2f fe ee 3d
       -0.14687875 0.10162106 -0.10282011 0.116695754
000030 45 54 a9 be ff c6 25 3e 95 a6 e6 3d 45 88 90 be
       -0.33072105 0.16189192 0.11262242 -0.28228965
000040 97 2d 69 3e 76 d3 72 3c e5 eb 33 3e fe c3 8e be
       0.22771297 0.014820924 0.17570455 -0.27883905
000050 f1 3d 5c be 2c a3 00 3e dc d2 99 3e a0 c0 9d 3e
       -0.21508004 0.12562245 0.30043685 0.30811024
000060 a0 ae 20 be 4c 27 59 3e 45 2d 88 3d
       -0.15691614 0.21206397 0.066492595

weight_ih_l0 f4 [27, 39]
000000 dd fc a6 be 8f dc 12 3a b0 c3 9a bd d5 bc d3 3c
       -0.32614794 0.0005602324 -0.07556856 0.025846878
000010 2f da ce 3d 37 24 b4 bc ef d4 97 3e 9a 1c 4b be
       0.10100209 -0.021989925 0.29654643 -0.1983513
000020 c4 0b e0 b9 91 ef fe bd 69 71 6c 3d c5 ee e8 bd
       -0.00042733375 -0.124480374 0.057725344 -0.11373667
000030 75 cb d3 3d 3b 08 61 3e 13 5e 7f bc 08 01 2c 3e
       0.10341541 0.21975796 -0.015586394 0.16797268
000040 d3 3f ea 3d 6c 62 6f bc 1f 63 1d 3e b2 29 a6 3e
       0.11437955 -0.014610868 0.15369843 0.32453686
000050 46 0c 0a 3e 00 4d 8f be df c5 4d 3d 0b ca 83 3e
       0.13481244 -0.27988434 0.050237533 0.25740084
000060 f2 d0 21 be 98 5a c1 bd a6 bb 25 3e 6f f3 f0 bd
       -0.15802363 -0.094411075 0.16184863 -0.11765181
000070 35 80 97 bd de df 94 3e 29 22 08 3d d0 ef b7 3d
       -0.073975004 0.29077047 0.033235703 0.089812875
000080 cc f5 47 bd 37 ce 8c be 0f 0d 04 be 2d 3a 62 bd
       -0.048818395 -0.2750108 -0.12895606 -0.055231262
000090 d9 ff c1 3d 56 3b 6e 3e d6 46 0a 3e 91 3b 09 3d
       0.09472627 0.23264822 0.13503584 0.033504073
0000a0 ee 03 54 bc 04 99 66 bd 08 7f 8a be 2e 8c 88 3e
       -0.01294039 -0.05629827 -0.27050042 0.2666945
0000b0 f1 19 06 3e 2e 63 f0 3d 4f b9 35 be fc 73 17 b9
       0.13095833 0.11737667 -0.17746471 -0.0001444369
0000c0 00 8d 35 bd 4c fa 84 be 8d 1d dd bd 2f db 6f be
       -0.04432392 -0.2597221 -0.10796652 -0.23423456
0000d0 82 73 d6 3d 24 bc ac 3c 02 8a 49 3e 6a 98 48 be
       0.1047125 0.021085806 0.19681552 -0.19589391
0000e0 ac c5 69 be c0 86 19 3e 09 27 8f be 45 55 a8 be
       -0.22829312 0.1499281 -0.2795947 -0.32877555
0000f0 72 aa 1f be ef f2 85 be 52 7a a8 bd 5b 64 4e 3d
       -0.15592363 -0.26161906 -0.08226456 0.050388675
000100 d1 34 36 be ab 4c a0 bc 34 43 a4 bd 59 fd 38 be
       -0.17793585 -0.019567808 -0.080206305 -0.18065394
000110 26 19 27 3e 32 4a e6 bd 24 8e cf bd e6 e1 93 be
       0.16318187 -0.112446204 -0.10134533 -0.28883284
000120 6e 1b cf 3d 5b f1 7f 3e ea 0f 76 be cd 40 52 bc
       0.10112654 0.24994414 -0.24029508 -0.0128328325
000130 34 81 7b be 05 93 87 be 0f 91 14 be aa 0c 55 ba
       -0.24561006 -0.26479355 -0.1450846 -0.0008127192
000140 8f c4 30 3c f7 cf 96 3e c1 f2 93 3e 32 5f 1d 3d
       0.010789051 0.2945554 0.28896144 0.038420863
000150 dd 6e 8d 3d 89 da 91 be b5 2d 11 3d 76 d9 eb bd
       0.06905911 -0.28487042 0.03544398 -0.11516087
000160 ee b9 08 bd 32 41 c6 bc c3 1a 4c be e5 3b 2a be
       -0.03338044 -0.02420101 -0.19932084 -0.1662441
000170 52 65 b4 bd 65 fe 24 3e 31 25 bd bd 65 46 a6 be
       -0.08808388 0.16112669 -0.09235609 -0.32475582
000180 74 88 68 3e 4b fe 82 bd e8 27 a9 3c 90 fb 96 be
       0.22708303 -0.06396159 0.020648912 -0.29488802
000190 82 88 2b 3e 93 1e a7 bd 5e f6 2a 3e 13 8b 4e 3e
       0.16751292 -0.081601284 0.16695544 0.2017024
0001a0 01 ac 2d 3d c5 ea da bd 2b 35 f7 3d 82 2b 87 3d
       0.042400364 -0.1068931 0.12070688 0.06600095
0001b0 89 91 ad 39 e9 91 58 be 39 f4 ee 3d 83 a1 6e be
       0.00033105563 -0.2114941 0.116676755 -0.233038
0001c0 82 50 4b 3d 13 b2 cf 3d 98 a2 a9 3e f8 7c 9a 3e
       0.049637325 0.10141387 0.33131862 0.3017347
0001d0 10 a5 09 3e 6e 5e 3f be 33 3d 6e b0 74 f4 d9 bd
       0.13441873 -0.18688366 -8.6670865e-10 -0.10642329
0001e0 70 af 9a 3e 5f a2 28 be ab 14 b4 3d 47 b4 20 3e
       0.30211973 -0.1646819 0.087930046 0.1569377
0001f0 5f 0c 6c be 03 44 32 ba f1 31 5b 3e 63 1b 51 3e
       -0.23051594 -0.00068002957 0.2140577 0.20420603
000200 0b 71 5f be e8 d1 80 3e 12 bc 22 3e 3e bb e7 bc
       -0.21820466 0.25160146 0.15892056 -0.028287526
000210 9d c2 a7 be 41 f1 32 be 48 46 18 be da 9b 8f 3e
       -0.32765666 -0.17474844 -0.1487056 0.28048593
000220 8c 78 4a 3e e3 75 d2 3d f7 02 ac bd d9 04 70 3e
       0.19772547 0.10276391 -0.08399003 0.23439349
000230 26 a5 a1 be 21 67 3e be 1c 54 fd 3d df 2f fa bd
       -0.3157131 -0.18594028 0.12369558 -0.12216162
000240 19 b2 a4 3e ec d4 29 3e 74 da 21 bd 22 a4 19 be
       0.32167128 0.1658513 -0.039514974 -0.15004018
000250 63 96 83 3e 33 e5 95 be 37 2e 03 be e0 5d 86 3b
       0.25700673 -0.29276428 -0.12810598 0.0041005462
000260 48 f6 93 be 3c 5f ce bc b5 ba 22 be 4b 75 ed 3d
       -0.28898835 -0.025191896 -0.15891536 0.115946375
000270 15 5b 6b be 20 60 25 35 c4 f1 8e be bd 4a b5 bd
       -0.22983964 6.160717e-07 -0.27918828 -0.08852146
000280 03 62 65 be 87 d3 9e 3e f6 6c 98 3e 87 5f 6b 3e
       -0.2240067 0.31020758 0.2977063 0.2298566
000290 d8 4c 19 bc cd ee 38 3e 67 27 f7 3d e7 df 4b 3e
       -0.0093567 0.18059845 0.12068062 0.1990963
0002a0 78 33 83 3d 78 6d 8b 3e 5c 0e 33 3d f7 dc 88 be
       0.06406301 0.27231956 0.043714866 -0.26731083
0002b0 ac 12 8e bd 2b 6e 8f be c1 5e 32 3d 29 a7 19 be
       -0.06937155 -0.2801374 0.043547396 -0.15005173
0002c0 98 84 12 be 5c b7 07 be 7d 57 3f 3e a6 3d 14 be
       -0.14308393 -0.1325354 0.18685718 -0.14476642
0002d0 8e 46 75 be b3 4b 1b 3e d2 56 a8 3e c9 20 0d 3e
       -0.23952696 0.15165596 0.3287874 0.13782038
0002e0 4b 96 1e 3e 78 83 df bd 40 03 a6 3e 66 38 3e be
       0.1548702 -0.109137475 0.32424355 -0.18576202
0002f0 e6 bb 4d be 2a 37 9e 3e 1f 69 42 3e ea 29 79 be
       -0.20091209 0.30901462 0.18985413 -0.24332395
000300 15 51 02 3c 37 9d 81 3e 18 3a 51 be f1 a3 f0 bd
       0.007953902 0.25315258 -0.20432317 -0.11750019
000310 ff dd 44 2c da 08 8d be 2a 0e 09 3e 1f c9 48 3b
       2.7976508e-12 -0.27545816 0.1338431 0.0030637456
000320 82 61 83 3d 1a b8 93 3e 04 c1 3a 3e 2d 2f 2c 3b
       0.064150825 0.28851396 0.18237692 0.0026273236
000330 b2 d0 c4 3d 85 94 ac 3e b7 ff 45 be b6 0e 8d be
       0.09610118 0.3370706 -0.19335829 -0.27550286
000340 bb 78 10 be cf 90 47 be 31 2e 1d 3d 13 35 a4 3e
       -0.14108555 -0.19488834 0.03837413 0.32071742
000350 f3 10 ac bd d7 e1 91 be d1 14 41 be 7f 0d 7e 3d
       -0.0840167 -0.28492615 -0.18855597 0.06202459
000360 07 cf 20 be 55 f9 a2 3d 32 ff 09 3d 84 7b 48 3c
       -0.15703975 0.079577126 0.03369064 0.01223648
000370 de 14 ce bb 48 52 c6 bd 09 bd aa 3e d2 fc a3 bd
       -0.0062891087 -0.09683663 0.33347347 -0.08007206
000380 98 39 1c be e1 62 1c bd 62 75 3d 3e ca 52 39 3d
       -0.15256345 -0.038180236 0.18501809 0.04524497
000390 40 a8 82 3e 87 d0 7f 3e e0 0f 9a 3c b5 96 16 3d
       0.2551899 0.2498189 0.018806398 0.03676482
0003a0 7e da 42 3e 75 6e ca bd d0 85 3e 3e 04 32 86 3c
       0.1902866 -0.09884349 0.18605733 0.016381271
0003b0 38 2f 2a 3c b1 e2 65 be 52 bb 5e be 31 17 80 3e
       0.010387234 -0.22449757 -0.21751145 0.25017694
0003c0 e1 9d 27 be c8 6f 1b bc 50 b2 fd 36 81 37 59 3d
       -0.1636882 -0.0094871 7.560746e-06 0.05303145
0003d0 bf 2a 33 3d 94 44 d0 bd 92 56 fc bd cc 74 3e 3e
       0.043741938 -0.1016933 -0.123211995 0.18599242
0003e0 53 19 70 3e 36 1e e2 bd b4 2f 28 be 8e f9 76 3e
       0.2344716 -0.110409185 -0.16424447 0.24118635
0003f0 24 40 a7 be db ec 8d 3e ef 7b 44 be 95 e5 26 3e
       -0.32666123 0.2771977 -0.19187902 0.16298516

weight_hh_l0 f4 [27, 9]
000000 32 e0 bb 3c 9e e6 10 be 01 2b 87 be 2d e6 1a 3e
       0.022934053 -0.14150473 -0.26399997 0.15126868
000010 6b 88 6c be 21 65 51 be 90 0f fa bd 75 8f 1f be
       -0.23098914 -0.20448734 -0.122099996 -0.15582068
000020 21 fc 9a be a3 75 0a 3e d8 44 fb bc 69 98 05 be
       -0.30270484 0.13521437 -0.030672476 -0.13046421
000030 65 78 76 3e f3 24 a4 be ec 11 a6 3e 15 90 38 3d
       0.24069364 -0.3205944 0.32435548 0.045059282
000040 a8 70 0a be fe 74 87 be 50 02 68 be b4 fb 52 3d
       -0.13519537 -0.26456445 -0.22657132 0.051509574
000050 e0 5d 37 be 40 1f e3 bc 40 cb 7c 3e b6 da 31 bd
       -0.17906904 -0.027724862 0.24686909 -0.04342147
000060 d1 42 51 be f5 b1 a0 3d 1b 17 93 3d bf 78 94 3e
       -0.20435645 0.078464426 0.071821414 0.28998372
000070 ba 80 87 3d c9 06 49 3d b5 23 d9 3d 28 a4 e4 3d
       0.066163495 0.049078736 0.10602514 0.11164123
000080 47 07 9a 3d 6d 99 0f 3e d4 a2 97 3e 7d f9 5d be
       0.07520919 0.14023371 0.29616416 -0.21677203
000090 b0 80 10 3e c7 6d 7f bc a2 1b 83 bd 6c 3b a6 3d
       0.1411159 -0.015590138 -0.06401755 0.081168026
0000a0 aa 27 5c bd 03 9e 88 3e f8 f4 88 3e c6 66 41 3e
       -0.053748764 0.26683053 0.26749396 0.18886861
0000b0 84 32 f4 3c e7 93 42 be 34 3b f8 bd 40 e5 40 3e
       0.029809244 -0.19001733 -0.12120667 0.18837452
0000c0 6c 59 79 be 1a 95 98 3c 92 3f 5c be d9 69 64 3e
       -0.24350518 0.018625785 -0.21508625 0.22306003
0000d0 db f8 8a be 3c eb 99 3e f5 3a 9e 3e a2 06 61 3e
       -0.27142987 0.30062282 0.30904356 0.21975186
0000e0 25 94 94 3e f6 60 6c 3e f3 71 29 be 78 50 82 be
       0.29019275 0.23083863 -0.16547374 -0.25452018
0000f0 e9 0b 1a bd 47 70 95 be e2 c3 3e 3e 8e 98 a6 be
       -0.037609015 -0.29187223 0.18629411 -0.32538265
000100 33 cc e3 bd c4 57 71 3c a1 3d 7b 3e 18 bc e5 bd
       -0.11122932 0.014730398 0.24535228 -0.11217517
000110 a9 d3 d7 bd ca 07 a1 3e 7b a2 fe 3d 56 2c a5 be
       -0.10538418 0.31451255 0.124333344 -0.32260388
000120 a5 7b e6 bd 28 af 9f 3e 91 76 62 3d 85 3a f6 bc
       -0.11254052 0.3118832 0.055288855 -0.030057201
000130 08 cf 57 3e a1 7b a8 3e d5 0f 91 3e 53 f6 50 be
       0.2107507 0.3290682 0.2833239 -0.20406465
000140 00 86 25 be 8a 25 a5 be f4 29 87 bc 79 dc 1c be
       -0.16164398 -0.32255203 -0.016499497 -0.15318479
000150 dd 11 93 be a9 d3 8e be af 93 05 3e 19 e5 8f 3e
       -0.28724566 -0.2789586 0.13044618 0.28104475
000160 ef 77 02 be 97 1c 90 3e 1c 50 68 be e3 1b d4 3c
       -0.12741064 0.28146812 -0.2268681 0.025892204
000170 03 59 d8 3d a5 48 88 3e 27 7e 60 be 04 9d c2 3d
       0.10563853 0.26617923 -0.21923123 0.095026046
000180 94 97 0b 3e 8f d9 48 3e 41 21 5d be 4a f1 c3 3d
       0.13632041 0.19614242 -0.21594717 0.095675066
000190 32 b1 da 3d 81 01 44 3e f5 d5 17 3e a1 30 ea bd
       0.106783286 0.19141199 0.14827712 -0.114350565
0001a0 6b f7 77 be 1a 34 73 bd 73 c6 62 be 68 9d 1b be
       -0.24215476 -0.05937586 -0.22146015 -0.15196764
0001b0 c1 3d 9b 3e b6 70 be 3d 26 6b ab 3e ca e9 ba bd
       0.30320552 0.09298842 0.33480185 -0.09126623
0001c0 08 e3 ab 3e 90 b4 4f be 32 f7 3a 3d fb 9e a3 be
       0.3357165 -0.20283723 0.0456459 -0.3195723
0001d0 c8 8d 64 3e e8 08 29 3e 82 a9 a0 be cd ab 40 3b
       0.2231971 0.16507304 -0.31379324 0.0029399276
0001e0 9f a4 73 3e c4 a7 00 3e ef c2 12 be 5e 68 e8 bd
       0.23793267 0.12563998 -0.14332174 -0.113480315
0001f0 b9 2f 1d bd 80 ba 28 be a0 d3 a3 be ba 5d 97 3e
       -0.03837559 -0.16477394 -0.31997395 0.29563695
000200 a3 c2 8b be af aa 2c 3e e7 91 7e be 69 4b 11 3e
       -0.27296934 0.16861986 -0.24860345 0.14188923
000210 b6 22 ab bc 64 5f 8e 3e 9b 08 74 3c 10 68 a0 3e
       -0.020890575 0.27807152 0.01489463 0.31329393
000220 4a 6f 46 3e b6 ac 20 3d 3f 57 24 3e 4a 30 3c be
       0.19378391 0.03922721 0.16048907 -0.18377796
000230 f3 2f 92 3e 87 ed ff 3d 36 9a 2d be 93 1d 81 be
       0.28552207 0.124964766 -0.16953358 -0.25217876
000240 8f d9 13 3a c2 a0 7e 3d 7a 45 9f be d2 e7 0a 3e
       0.0005640024 0.06216503 -0.31107694 0.13564995
000250 84 8e c5 3c af da 9a be b4 1c 9d 3e a6 d4 ad 3e
       0.024115808 -0.30244967 0.3068596 0.339513
000260 8d 67 af 3d f0 3e 88 3e 42 f8 1a bd 08 50 89 be
       0.085646726 0.26610518 -0.037834413 -0.26818871
000270 54 e0 78 3e c9 1f 90 be 6c f4 05 3e 38 10 c1 3d
       0.24304324 -0.2814925 0.13081521 0.094269216
000280 c8 f2 a4 3e ec 74 1c bd f5 8f 82 3e 97 d1 a9 3e
       0.32216477 -0.038197443 0.25500455 0.33167717
000290 af 7c 04 3e 1e 79 22 be dc 5f 33 be ca a2 8b be
       0.12938188 -0.15866515 -0.17517036 -0.27272636
0002a0 1b 14 76 3e 41 05 c6 bd d9 f7 06 3e 32 29 86 3e
       0.24031107 -0.09668971 0.13180484 0.26203305
0002b0 71 43 39 3d b2 87 94 be 20 2b e5 bd 09 b5 a5 be
       0.045230333 -0.29009777 -0.11189866 -0.3236468
0002c0 ae d8 76 be be d5 34 be f6 52 57 be 50 3d 6a 3d
       -0.24106094 -0.17659661 -0.21027741 0.05718738
0002d0 5b de 8c 3e f1 3f aa bd d9 7a 02 3e 78 cb 4c be
       0.27513394 -0.08312977 0.12742175 -0.19999492
0002e0 9d 1e 71 3d 83 48 97 be 06 c4 7b 3a ca 92 ad 3d
       0.058867086 -0.2954751 0.00096041 0.084752634
0002f0 84 39 54 be 15 0e 93 3e ce 1d a9 bd 45 e6 be bd
       -0.20725065 0.2872168 -0.08257638 -0.09321264
000300 cb d0 93 3e cc 31 59 3c 7c 8d 25 be d0 ce 06 3e
       0.28870234 0.013256501 -0.16167253 0.1316483
000310 4f 8b 00 3d aa 09 09 be e8 af 89 3e b2 56 3c be
       0.031382855 -0.13382593 0.26892018 -0.18392447
000320 5e 74 7f 3e 91 0a 79 be 2b 64 48 be 1c 03 92 3e
       0.24946734 -0.24320437 -0.19569461 0.28517997
000330 14 79 5d 3b 08 b9 28 3e d9 59 11 3e 6d ac 3b 3e
       0.0033794092 0.16476834 0.1419443 0.18327494
000340 4c 08 39 be ce fe 6f 3e 72 be ab bc 34 1a 22 3e
       -0.18069571 0.23437044 -0.020964835 0.15830308
000350 b5 1d 05 be 1f 71 23 3c e8 62 9f bb e5 17 73 3d
       -0.12999614 0.009975701 -0.0048640855 0.05934896
000360 d4 4c 09 be a3 d4 6b 3e 1d ca 5e be a6 b2 16 3e
       -0.13408214 0.23030333 -0.21756788 0.14716586
000370 e0 9d a5 3e 40 fc 4b be e0 b0 a9 3d 14 ad 61 bd
       0.32347012 -0.19920444 0.08285689 -0.0550967
000380 cd 62 0b 3d 5a b3 ad 3e 92 39 b4 bd e1 86 b4 3d
       0.03402977 0.33925897 -0.08800043 0.088147886
000390 60 99 f1 3d 86 62 00 3e d0 e0 66 3e 4f d0 56 bd
       0.11796832 0.12537584 0.22546697 -0.052444752
0003a0 b5 6e 54 be 34 f6 2b bd 32 e4 4a be 77 a1 3f 3e
       -0.20745356 -0.041982844 -0.19813612 0.18713938
0003b0 3c 0a 99 be 4a 8c 81 bd 4a 96 33 be 33 d3 50 be
       -0.2989062 -0.06325586 -0.175378 -0.20393066
0003c0 1a 4b d1 bc 82 50 12 be 62 4f 44 bd
       -0.025548507 -0.14288524 -0.047927268

bias_ih_l0 f4 [27]
000000 67 16 6d 3e cf d5 07 ba 9b d7 31 3e 74 c3 aa be
       0.23153077 -0.0005181701 0.17367403 -0.33352244
000010 da 54 0d 3e 24 54 4b be 4a 90 df bd c2 92 4b be
       0.138019 -0.19856316 -0.10916193 -0.19880202
000020 ff e1 5d 3e 57 3b 7c 3e 13 d0 b9 3c 20 6d 0b be
       0.21668242 0.24632011 0.022682225 -0.13615847
000030 28 19 6a be fb f5 15 be 95 f5 98 3e 0a 87 05 be
       -0.22861159 -0.14644615 0.29874864 -0.13039795
000040 a1 b6 a2 be cb b1 79 3e 58 2b 31 3e 85 c9 a5 3e
       -0.3177996 0.24384229 0.1730169 0.3238031
000050 2b 91 7a bd 12 16 68 3e 57 30 a2 be 65 bc da 3d
       -0.0611736 0.22664669 -0.31677505 0.10680465
000060 94 59 ae bd 6e 64 aa 3d b7 f9 74 3d
       -0.085131794 0.08319937 0.05980846

bias_hh_l0 f4 [27]
000000 93 2a 4c 3e e0 d5 90 3e b2 d6 76 3e ba dc ac be
       0.19938116 0.28288174 0.24105337 -0.3376215
000010 79 d9 94 3e 35 5f fc 3d 69 a9 36 3e 3d 49 25 3e
       0.29072168 0.12322847 0.17838062 0.1614122
000020 63 20 94 be 8c 6c 03 be f4 3e 98 be 86 75 5d 3e
       -0.2893096 -0.12834376 -0.2973553 0.21626863
000030 46 66 ef bd df ae 8b 3e b2 be 99 be 10 56 b8 bd
       -0.11689429 0.27281854 -0.300283 -0.0900079
000040 91 73 96 be ae 2e 66 3e 6d 55 24 3e 7d fc 90 be
       -0.29385045 0.22478744 0.16048212 -0.28317633
000050 44 d5 9e 3e 11 3d 2c 3e ec 25 77 3e 66 ae 38 3e
       0.31022084 0.1682017 0.2413556 0.18035278
000060 21 86 9f be 84 2a 6a 3d 1a 52 90 3e
       -0.3115702 0.057169452 0.2818764

weight f4 [9, 9]
000000 4c 60 bb bd 11 27 8a be 5c 7e 62 3e 71 fc 51 bd
       -0.091492265 -0.2698293 0.22118515 -0.051266138
000010 07 a6 3e be 78 f3 7e 3e c8 47 25 be ea 04 32 bc
       -0.18618022 0.24897563 -0.16140664 -0.010865429
000020 c2 00 34 3e 95 8e 0f bb 99 dc 9a 3c ac 4f ec bc
       0.17578414 -0.0021905054 0.018904017 -0.028846584
000030 91 24 eb 3c a0 32 1f bc 42 84 13 bb 03 a9 c8 3b
       0.02870396 -0.00971666 -0.0022509252 0.0061236634
000040 9e 80 1a ba 48 30 e0 3c e9 98 c9 3b 5c 67 89 be
       -0.0005893799 0.027366772 0.0061522615 -0.2683667
000050 4f 14 f4 bd 8c 53 2b 3e c6 43 5e 3e 93 6d 18 be
       -0.11917936 0.1673109 0.21705541 -0.14885549
000060 ed 44 11 3c 51 c6 82 be 66 62 99 bd 13 8a 82 3e
       0.008866531 -0.25541928 -0.07489471 0.25495967
000070 2d 69 94 be 8f 1c 49 3e 95 b2 b1 3d 89 a0 9f 3c
       -0.28986493 0.196398 0.0867664 0.019485729
000080 24 64 8c bd 4b 7d 75 bd b2 ef a2 3e e5 16 fd 3d
       -0.06855038 -0.05993394 0.31823498 0.123578824
000090 86 db be 3d b1 ca dd bd 3f ca 57 be c3 cd 2e bc
       0.093192145 -0.10829676 -0.21073245 -0.010669175
0000a0 74 43 0a 3e 25 27 2b 3e 6e d2 88 3e fb 10 a6 be
       0.13502294 0.16714151 0.26723045 -0.3243483
0000b0 30 b2 68 3e 78 38 08 bb 60 5b 9c be a1 d1 5f 3e
       0.22724223 -0.002078561 -0.30538464 0.21857311
0000c0 36 16 6c be fd 80 ca bd c6 6b 4b 3e 1e b6 91 be
       -0.23055348 -0.09887884 0.19865331 -0.28459257
0000d0 96 bf 01 be 46 88 2f be a5 37 ac 3e 8d dd 12 be
       -0.1267074 -0.17141828 0.33636203 -0.14342327
0000e0 af 8c 47 3e db a2 9a bb 16 95 94 3e e6 10 34 3e
       0.1948726 -0.004719121 0.29019994 0.17584571
0000f0 fd 8f 93 be 30 7f 57 be 36 63 02 3e 3c 48 37 bc
       -0.28820792 -0.21044612 0.12733158 -0.011186656
000100 3c 7c 6a 3c 97 c7 66 be cd 44 11 3e f6 c5 1e 3e
       0.014311846 -0.22537075 0.14186402 0.15505204
000110 b4 8a 86 be 45 03 67 be 71 e0 05 3c b4 93 a3 3e
       -0.26277697 -0.22559841 0.008171187 0.31948626
000120 8f 44 71 3e 52 64 82 3e d7 ee 4b bd 10 55 0b 3e
       0.2356131 0.25467163 -0.049788322 0.13606668
000130 04 fc b9 bc c4 bc 2d bd 95 fb af bd 0e 8c f5 bb
       -0.022703178 -0.04241635 -0.08592907 -0.0074935025
000140 a9 c8 6c 3e
       0.23123421

bias f4 [9]
000000 f6 db 70 3e 69 9a f6 bc 6e a2 aa 3e 1d eb c7 3d
       0.23521408 -0.030102925 0.3332705 0.09761641
000010 29 60 86 3e ca 8d 46 bc d5 51 7c 3d b7 62 99 3e
       0.2624524 -0.012118766 0.06160148 0.29958126
000020 d7 21 4a bd
       -0.04934868
