ERTSNet/new_arch_LA/decimation/model/best-model_r0_J2_4gains_2.pt (torch, 386069 bytes, 117 tensors)

weight_ih_l0 f4 [27, 15]
000000 3f 57 b7 bd 4b 67 11 bb ba b9 32 be f1 47 a3 3e
       -0.08952188 -0.0022186812 -0.17453662 0.31890824
000010 aa 9a 5d 3e cf c3 4f be ef eb ea bd 54 08 8d 3e
       0.21641031 -0.20289539 -0.11470782 0.27545416
000020 89 1a e1 9d f0 8a 65 3e ac a9 d5 3d b1 d4 8a 3d
       -5.958444e-21 0.22416282 0.10432753 0.06778849
000030 84 8d 4c 38 eb fa 88 bd 66 df 93 ba 3f fa 58 bc
       4.8769187e-05 -0.06688484 -0.0011281788 -0.013243257
000040 a6 21 bc bc 63 f6 3d 3e 59 b0 b8 bd f8 e2 88 be
       -0.022965264 0.1855102 -0.09018011 -0.26735663
000050 78 75 11 3e 4f c9 91 bc c1 91 87 be bd 17 8d 36
       0.14204967 -0.017796187 -0.2647839 4.204891e-06
000060 11 02 96 be 89 c4 4a 3e 2d f4 99 3d e2 cd 62 be
       -0.29298452 0.19801535 0.07517276 -0.2214885
000070 93 b0 ac 3d a8 38 92 be 62 25 80 3e 44 d4 89 bd
       0.08432116 -0.2855885 0.2502852 -0.067299396
000080 73 e9 b8 bd 59 34 8c 3e 5f 45 d2 bd cd a1 23 be
       -0.09028902 0.27383688 -0.10267138 -0.15979691
000090 45 a8 47 bc 0f 7f cc 3d d6 1f d9 9b fd 40 a3 3e
       -0.012186115 0.09985172 -3.5920212e-22 0.3188552
0000a0 68 b7 9d be 0d 22 95 3e b2 50 fb 3d cb e2 4f be
       -0.3080399 0.2912754 0.12271251 -0.20301358
0000b0 f7 b0 54 be 86 f4 f5 bc bb e9 b6 3c 1d a5 05 be
       -0.20770632 -0.030023824 0.022328248 -0.13051267
0000c0 b2 b1 92 3e e3 f4 9b 3e 8f 89 6b be 87 87 a3 be
       0.28651196 0.3046027 -0.23001693 -0.31939337
0000d0 d8 d6 94 3e 9d cc 48 25 9c ce 94 3e 2c 83 39 be
       0.29070163 1.741656e-16 0.2906388 -0.18116444
0000e0 d1 83 2c 3d 8b 71 16 be e7 ba 81 3d 43 7c fd bc
       0.042117897 -0.1469175 0.06334477 -0.030943042
0000f0 4b 70 f4 3d 44 e7 c4 3d 39 2e da 3d 6f a1 41 be
       0.11935481 0.09614423 0.106533475 -0.18909238
000100 5a 9e 91 bc b0 2e 32 3e 9c 4b ac 39 b9 fe 61 be
       -0.017775703 0.17400622 0.0003286273 -0.22069825
000110 2a a4 50 27 0b 6d 67 be 0c db 2c bd 95 29 48 3e
       2.8954792e-15 -0.2260019 -0.042201087 0.19547112
000120 45 5b 47 3e 51 81 91 3e c6 09 7c be cf cf 68 3e
       0.1946841 0.28418973 -0.24613103 0.22735523
000130 67 36 a1 3c 06 1c 2a 3e 87 6d 61 bd c0 e7 02 3a
       0.019679261 0.16612253 -0.055036094 0.000499364
000140 57 1f 22 3e d6 a0 93 3e 78 8c c5 bd fb 1e 25 b6
       0.15832268 0.28833646 -0.09645933 -2.460495e-06
000150 da 40 4c be 1b d3 16 be 2a d8 cb 3d b4 0b e6 bd
       -0.19946614 -0.14728968 0.099533394 -0.11232701
000160 e9 6a 3f be 77 33 6e 3e 0b b3 95 be 22 90 c9 bc
       -0.18693127 0.2326182 -0.2923816 -0.02460486
000170 fe 22 fd 3d f2 14 8d be 15 fb bc 3c f3 a0 cd bc
       0.1236019 -0.27555043 0.023068944 -0.02510116
000180 57 38 67 3e ac 28 06 3e 8e 15 b8 9e 91 aa 6b be
       0.22580086 0.13101453 -1.9490673e-20 -0.23014285
000190 f4 8c cc 3d 18 ad 93 be a2 02 03 bd 20 f8 aa bd
       0.09987822 -0.28842998 -0.031984933 -0.08348107
0001a0 73 a9 75 be 14 61 e8 3d 51 4c e4 b9 46 c2 6b bd
       -0.23990421 0.11346641 -0.0004354441 -0.05755832
0001b0 fa 74 49 3c e4 ad 96 bc c6 b8 cb bd 69 d9 67 3e
       0.012295956 -0.018393464 -0.09947352 0.22641529
0001c0 ed 3d 5a be 71 44 d2 b4 5d d3 84 3e 20 12 b2 3d
       -0.21312685 -3.9165346e-07 0.25942507 0.08694863
0001d0 80 be 7c bd 48 80 8f 3e 17 68 33 be cb eb 8f 3d
       -0.061705112 0.28027558 -0.17520176 0.07027396
0001e0 1c 5b 88 3e 4b 5e e0 3d d4 a4 a0 3e 86 ef 2d be
       0.2663201 0.10955485 0.31375754 -0.16985902
0001f0 49 41 71 be 21 63 a4 3d 0e bd f5 3b a6 f8 d8 3d
       -0.2356006 0.0802672 0.0074993437 0.10594301
000200 79 3c 92 ba 80 c3 8f 3e 82 98 e2 bd 92 36 78 be
       -0.0011156938 0.28078842 -0.11064245 -0.24239567
000210 1c 06 84 3e d2 61 55 3e ec 03 1c bb 86 50 8f bc
       0.2578591 0.20838097 -0.0023806049 -0.017494451
000220 9b 79 c4 3d c0 5d 96 3e b9 6f a6 3e ff f4 92 3e
       0.09593507 0.293684 0.32507113 0.28702542
000230 60 5a e9 bd b3 34 11 be 36 d4 3b bd a0 23 03 b9
       -0.11394191 -0.1418026 -0.045856677 -0.00012506405
000240 88 98 fd bd 72 e7 d1 bd 6e 0f 1e be b2 bd 91 3d
       -0.12382609 -0.10249223 -0.15435573 0.0711626
000250 9f 8d 14 3d ff 6a 3d be 30 87 f5 3d e2 cf 19 3c
       0.036267873 -0.18497847 0.119886756 0.009387942
000260 b5 32 1f 3e 76 e7 cf 3d cc db 66 be 33 6f 31 3e
       0.15546687 0.101515695 -0.22544783 0.17327575
000270 09 8c 06 3e c4 a0 71 bc 1b b0 07 35 37 c5 9f 3e
       0.13139357 -0.014747802 5.0547686e-07 0.3120515
000280 1b 5b a0 3e 2f bf 4e 3e 1a 4f 3c 3e b8 51 7f be
       0.31319508 0.20190118 0.1838955 -0.24933517
000290 4e 44 68 bd 65 ac 53 be b8 ef 63 bd a9 fb 2e 3e
       -0.056705765 -0.20671232 -0.055648535 0.17088188
0002a0 1b a6 2b be e8 72 e4 bd cb d1 19 be 8a e6 00 be
       -0.16762583 -0.11154729 -0.15021436 -0.12587944
0002b0 9d 83 e1 bd fc 89 d3 b6 14 d3 76 be 49 e6 aa be
       -0.11011431 -6.3043535e-06 -0.24103957 -0.3337882
0002c0 b0 e3 9c 3e bb 69 1a be ae a8 18 3e f2 02 79 3e
       0.30642462 -0.15079395 0.14908096 0.2431753
0002d0 92 f3 10 bd 13 32 8f bd 6e 38 9f be a2 cb a0 3e
       -0.035388537 -0.06991973 -0.3109774 0.3140536
0002e0 c6 4e 13 be ef 2a 80 bd b7 a3 bc 3d e8 80 08 3e
       -0.14385518 -0.06258189 0.09210914 0.13330424
0002f0 c0 9c 73 39 84 a4 16 3e 96 45 99 be f8 93 8c 3e
       0.0002323268 0.14711195 -0.29935902 0.2745664
000300 18 32 03 be 83 2a 31 3e 99 23 32 be 27 ed 73 3e
       -0.12812078 0.17301373 -0.17396392 0.23820935
000310 fa 81 14 3d e6 53 96 3e a0 f5 01 bd 86 c2 99 be
       0.036256768 0.29360884 -0.031728387 -0.30031222
000320 4a 68 ff bd e5 61 73 3d e8 66 2d be 90 b7 01 26
       -0.124710634 0.05941953 -0.16933787 4.500464e-16
000330 dc e9 a1 bd 05 f7 82 3d d7 11 32 be f3 40 7f be
       -0.07905933 0.063947715 -0.17389618 -0.2492712
000340 ab e3 a2 3d 62 bd 1c bd db df 07 3e 62 99 2b 3d
       0.079535805 -0.038266547 0.13268988 0.041894324
000350 3c 0d 09 3e bb 9d 51 bd 50 93 9f 3e af 47 78 3e
       0.13383955 -0.051175814 0.31167078 0.24246095
000360 fd 02 33 be 19 9d 28 be b4 6d 90 1e f3 f5 89 3d
       -0.17481609 -0.16466178 1.5291965e-20 0.06736364
000370 6e 40 0a be 24 56 b4 bb 9e fc 8b be 10 74 9d bc
       -0.1350114 -0.005503433 -0.2734117 -0.019220382
000380 99 1b d4 bd d8 cf 1c 3b b8 35 a4 bc 36 70 ee bc
       -0.10356826 0.0023927595 -0.020045146 -0.02910624
000390 92 4b c5 3d ca 18 8a be 58 18 92 be 89 8b 17 be
       0.096335545 -0.26972038 -0.28534198 -0.14799322
0003a0 b1 8b 2f be d9 25 00 a0 8a 50 17 3d fc 66 7e 3d
       -0.17143132 -1.0854544e-19 0.036942042 0.062109932
0003b0 69 39 29 3e 3d 1f 5e be 4a 05 91 bd f4 a0 65 3e
       0.16525806 -0.21691604 -0.07081087 0.2242468
0003c0 08 ce d7 bd 44 d9 a8 3c da a4 50 3e e2 9f df bd
       -0.10537344 0.020611413 0.20375386 -0.10919167
0003d0 d6 1a 33 3e fc 19 03 be 13 06 f2 3d 62 5d 12 be
       0.17490706 -0.12802881 0.11817565 -0.14293435
0003e0 6c 4c 09 b9 c1 f8 05 bd 40 cf 80 3d 32 d0 8d be
       -0.00013093808 -0.032707933 0.0628953 -0.27697903
0003f0 cb 77 e8 bc c8 0a 40 be 85 98 d9 3c a4 1c 92 3e
       -0.028377434 -0.18754113 0.026561985 0.28537476

weight_hh_l0 f4 [27, 9]
000000 91 36 42 3e f8 28 b4 bc 68 5e 81 3e 29 ef 91 be
       0.18966128 -0.021992192 0.2526734 -0.28502777
000010 47 d7 40 3e b4 74 0b bd 92 13 0e 3d 24 e9 ca 3c
       0.18832122 -0.034046844 0.034686632 0.024769373
000020 4d ab 69 3e 0e 58 fb bd 26 95 e4 3d 2b a8 cd 3d
       0.22819252 -0.122726545 0.1116126 0.10041841
000030 c8 70 14 3e fd 24 28 be 68 c4 39 be e6 d2 ee 3d
       0.14496148 -0.1642036 -0.1814133 0.116613194
000040 72 86 50 3e eb 20 93 3e b1 39 6c 3e f1 c7 3f 3d
       0.20363787 0.28736052 0.23068883 0.04682154
000050 ea 80 c6 bd 7b fb 81 3e 53 80 7e bd 6f 5f 3e 3c
       -0.09692557 0.25387177 -0.0621341 0.011619433
000060 d8 00 ef 3d e7 c0 89 be 7d 29 79 3e d6 77 68 3e
       0.11670083 -0.26904985 0.24332233 0.22701964
000070 94 b3 12 be a3 af 65 be b7 b7 13 be 19 06 41 bd
       -0.14326316 -0.22430281 -0.1442555 -0.047124956
000080 e6 14 ea 3d 4e 29 3c 3e 05 e2 9f 3c 6d a7 94 be
       0.11429767 0.18375131 0.019516954 -0.29033986
000090 4c 20 d2 3b 12 15 55 bd f6 b7 57 3e 8f c8 20 be
       0.0064125415 -0.052022047 0.2106627 -0.15701507
0000a0 57 f4 2e 3e d3 7d 19 3e 88 2f 85 bc 49 a8 e3 3b
       0.17085396 0.14989404 -0.016258016 0.0069475514
0000b0 d0 cd 84 be c6 50 91 3e 44 42 92 be ab c9 cb 3d
       -0.25938272 0.28381938 -0.28566182 0.099505745
0000c0 66 e6 40 be 92 9c 99 3e 46 35 a1 3e 97 86 a1 be
       -0.1883789 0.30002266 0.31485957 -0.31547996
0000d0 df 2a 4d be e8 e2 98 3e d7 38 35 be dc 03 cd bd
       -0.20035885 0.29860616 -0.17697464 -0.10010502
0000e0 a4 bc 8f 3e 01 ae 94 3e 84 3b 7b bd a5 f8 75 be
       0.2807361 0.29039004 -0.061336055 -0.24020632
0000f0 c8 42 97 bd aa 7d 5b 3d 13 3f b8 3c e0 d4 9c 3e
       -0.073857844 0.05358664 0.022491014 0.3063116
000100 06 81 43 3d e1 fd 7d be cb 1e 82 bd d8 63 b9 3d
       0.04773047 -0.24803878 -0.063535295 0.09052247
000110 5e ac 48 be e7 4c 9c bd 8f 46 05 3c d1 37 d6 bd
       -0.19597003 -0.076318555 0.008134498 -0.10459865
000120 d2 9f 16 be 10 8e cf bd 80 c1 10 3e a1 31 c3 bc
       -0.14709404 -0.10134518 0.14136314 -0.023827376
000130 de 8f c2 3d 91 1a 51 bd df 51 17 3e 07 80 8c be
       0.09500097 -0.051050726 0.14777325 -0.27441427
000140 c3 8d a3 3e 7b 2d 75 be 37 e1 8d 3e 84 d3 95 3e
       0.31944093 -0.2394313 0.27710888 0.29262936
000150 55 c0 0b bb 67 17 7a 3e f0 35 66 be c1 c0 a3 3e
       -0.0021324356 0.2442299 -0.22481513 0.31982997
000160 4a db 85 3e 8e b5 bd 3d 47 0f 9d 3c f7 55 27 bc
       0.26143867 0.092631444 0.019172324 -0.010213367
000170 bb 63 ac bd 4f 7d 87 3c 28 f2 89 be 85 7b 1e bd
       -0.084174596 0.016539244 -0.26942563 -0.038692016
000180 f7 91 d9 3d f5 b4 88 bd bb de 9e bd ab 59 6e 3e
       0.10623544 -0.0667514 -0.07757326 0.23276393
000190 05 2c 22 be 71 6a 0c be 49 1c ca bd 07 a8 47 3e
       -0.15837105 -0.13712479 -0.09868676 0.19497691
0001a0 65 46 8c 3e 31 c8 9e 3e 29 19 f0 bd e9 6e 30 3e
       0.27397457 0.3101211 -0.11723549 0.17229809
0001b0 ff 12 95 3c d8 c7 97 3e f4 d1 9c be 8e 15 9e 3e
       0.018197535 0.29644656 -0.30628932 0.3087582
0001c0 b0 46 89 be f9 68 9c 3e 2c ab 8e 3e df 98 e5 3c
       -0.26811743 0.30548838 0.2786497 0.028026996
0001d0 31 96 68 be aa c7 55 3e 6a af 6d be 13 63 16 be
       -0.22713543 0.20876947 -0.23211446 -0.14686231
0001e0 cb 5a 0e be ac e6 35 3e 88 eb 87 be 42 2b a6 3d
       -0.13901822 0.17763776 -0.26546884 0.081137195
0001f0 92 77 30 be 01 7d 0f 3e ca ac c7 bc 43 58 00 be
       -0.17233112 0.14012529 -0.024374384 -0.12533669
000200 b8 fe 7d 3e 1e 27 32 be 4d 4e 34 3e e8 4c 41 3c
       0.24804199 -0.17397735 0.17607994 0.011798121
000210 df be 87 be 80 c4 c4 bc 08 42 93 3c 57 21 4e 3e
       -0.2651281 -0.02401948 0.017975822 0.20129906
000220 90 da 21 3e 86 a8 4b be 96 c1 33 bd f9 95 c8 bd
       0.15806031 -0.19888505 -0.04388579 -0.0979423
000230 bb 86 2f 3c 33 fa 3a 3d e5 56 84 be 5b df 4e be
       0.010713275 0.045648765 -0.25847545 -0.20202391
000240 b7 1b 90 3e 08 b3 6f be 04 6f 75 3c 84 37 2c be
       0.28146145 -0.23408139 0.0149800815 -0.16818053
000250 2d d2 36 be b1 f3 8e be 7a b0 8b bd 82 d1 8f 3e
       -0.17853613 -0.27920297 -0.068207696 0.2808953
000260 d6 fb 36 3e 39 08 64 be c6 3b bf bd 92 79 1f 3e
       0.17869505 -0.22268762 -0.09337573 0.15573719
000270 36 a1 79 bd 29 d8 9d 3d 04 3f 8b 3e de 10 32 be
       -0.06094476 0.07707245 0.27196515 -0.17389247
000280 ef 27 2e be 02 d9 3c 3e 9d ad 82 be d8 38 8c be
       -0.17007421 0.18442157 -0.2552308 -0.27387118
000290 f8 86 83 3d e5 67 8d 3b 98 84 31 3e 0a d4 72 3d
       0.064222276 0.0043153637 0.17335737 0.059284247
0002a0 f1 51 ce bc 56 58 e2 3b 2d 1f 79 be c1 98 29 be
       -0.025185557 0.006907503 -0.24328299 -0.16562177
0002b0 02 bb 8b be a4 6e d7 bc e2 9b 8c 3e 6b a3 84 3d
       -0.27291113 -0.026297875 0.2746268 0.06476482
0002c0 bd 8b 1c be 0b 18 15 be 16 a1 0c 3d b2 61 80 bd
       -0.15287681 -0.14559953 0.03433331 -0.06268634
0002d0 b6 f6 d1 3c 4f 38 53 be e3 1a 7f 3e b9 0e 90 3b
       0.025630336 -0.20626949 0.249126 0.0043962863
0002e0 6b 5c 95 3e 9c 6d d5 3b 3f 2f 7a be aa 14 31 3e
       0.29172072 0.0065133106 -0.24432085 0.17293039
0002f0 63 a5 23 be b2 24 64 3e d4 7c 76 3e 72 fe 62 3e
       -0.15981059 0.22279623 0.24071056 0.22167376
000300 5f eb a6 3e 19 aa 31 be b6 6c 64 be 4c e9 89 be
       0.3260145 -0.17350043 -0.22307095 -0.26935804
000310 8f a4 00 3e 3e ef 9d be 9e 23 a5 be e5 7c 40 be
       0.12562774 -0.3084659 -0.32253736 -0.18797643
000320 c4 1b a2 be e3 d3 b4 3c 0e 2b a7 be b9 b6 9f 3e
       -0.31661808 0.022073692 -0.32650036 0.31194094
000330 0a bd 99 3e ce 98 48 be 1c e5 96 bd 54 3e a4 3e
       0.30027038 -0.1958954 -0.07367918 0.32078803
000340 72 70 24 bc e6 18 57 bd a7 f4 43 bd 2e 37 27 be
       -0.010036575 -0.05251398 -0.04784074 -0.16329643
000350 be b3 a2 be 92 af 7b 3e 2f f5 82 bd b3 e9 3d 3e
       -0.31777757 0.24578694 -0.06394421 0.1854618
000360 78 a3 d1 3c 85 87 4b 3d df c2 45 3e 3f df ba 3d
       0.025590643 0.04968979 0.19312619 0.09124612
000370 cb 54 e3 bd 8c dc 20 3e 6d 72 9d bd 2f f2 c4 3d
       -0.11100157 0.15709132 -0.076878406 0.09616505
000380 62 99 10 3d 25 f4 27 be 37 d2 79 3e ca 1d 2c bd
       0.035302527 -0.16401727 0.24396597 -0.042020597
000390 23 01 84 3e d1 05 86 be 56 94 a3 be ab 5e b6 bd
       0.25782117 -0.26176313 -0.3194911 -0.08904775
0003a0 5c fc 30 be 71 d2 c4 3d 2d b6 1e 3e c2 79 f8 3c
       -0.17283767 0.09610451 0.15499182 0.030331496
0003b0 aa 03 0f 3e 3f 3c 54 3e 98 20 a2 3e 75 0a 3c be
       0.13966241 0.20726107 0.31665492 -0.18363364
0003c0 ec eb 06 3e 56 a0 0c be 16 c4 f1 bd
       0.13175935 -0.13733038 -0.118049785

bias_ih_l0 f4 [27]
000000 e5 5d 65 3e 8a d2 99 bd a6 0c 9c be da db 54 3e
       0.22399099 -0.0751086 -0.304784 0.20786992
000010 ba b0 86 be 23 09 77 3e 03 21 8a bc 27 e8 8c be
       -0.26306707 0.24124579 -0.016861444 -0.27520868
000020 2d 6b 8e be 63 12 ab bd 86 0a 0b 3e 50 b8 ba 3d
       -0.27816144 -0.08353116 0.13578233 0.09117186
000030 e1 7d c7 bc ad a5 eb 3b a3 90 2c 3e 9a d6 ad 3e
       -0.024352016 0.007191381 0.1685205 0.3395279
000040 52 f7 44 be dd ca 91 be a8 c8 8e bd 20 2d 7f be
       -0.1923497 -0.28475085 -0.06971866 -0.24919558
000050 d4 b7 f8 3c 1f 5e 6d 3e d7 11 ff 3d 8e 68 9c 3e
       0.030361094 0.23180436 0.124545746 0.3054852
000060 e4 82 16 3e a5 bf 8f be 79 cc 96 3c
       0.14698368 -0.280759 0.018408047

bias_hh_l0 f4 [27]
000000 c8 c5 e7 bd 03 9a 88 3e 71 5d 63 3e 55 df 28 3e
       -0.11317021 0.26680002 0.22203614 0.16491444
000010 fb 40 16 3d 35 40 fa 3d 1a 54 21 be 3b 32 69 be
       0.036683064 0.12219278 -0.15754738 -0.22773068
000020 c3 40 50 3e 0f 06 93 3e d7 04 92 3e 2e 19 d0 3d
       0.20337205 0.2871556 0.28519318 0.10161053
000030 5f 1d c6 3c a1 54 1e be f0 bb 59 bd 36 8c ee bd
       0.024183927 -0.15461971 -0.053157747 -0.11647837
000040 a9 29 fe 3d be 87 a4 bd 92 6c 78 be fe b8 eb 3d
       0.1241029 -0.08033703 -0.24260166 0.11509894
000050 66 60 57 3e 02 8c 91 3e 77 95 f0 bd 66 3e 8f be
       0.21032867 0.2842713 -0.11747258 -0.27977294
000060 1f c0 92 bd fe dc 18 3e c5 37 99 3e
       -0.071655504 0.14928052 0.2992536

weight_ih_l0 f4 [27, 24]
000000 4a ad 9b 3e 97 75 49 be d3 24 8b be 29 9e 52 bd
       0.30405647 -0.19673763 -0.27176532 -0.051420365
000010 90 77 2e 3d e1 be 85 be 01 b5 0b 3c 8c 92 c6 3d
       0.042594492 -0.26122192 0.008527041 0.0969592
000020 4e 2a 73 3e 59 6c 18 bd ec ae a9 bd 0d 81 e1 bd
       0.23746607 -0.037212703 -0.08285317 -0.110109426
000030 50 de 2c bd d3 be 97 be 3f 0d 76 be f8 99 a6 bd
       -0.0422042 -0.29637775 -0.2402849 -0.08134836
000040 41 d8 3b be cf 14 66 b0 47 9a 8f 3e 9b 89 e8 bd
       -0.18344213 -8.3703083e-10 0.28047392 -0.11354371
000050 80 63 48 3c 3c 04 9d be ca a5 86 be 7f ce 10 3d
       0.012230754 -0.30667293 -0.26298362 0.03535318
000060 6d 18 39 bd 30 63 e6 3d 5e c1 04 3d e0 8e 9e 3e
       -0.04518931 0.11249387 0.03241097 0.3096838
000070 c9 35 28 bb f9 8d 2e 3e af 3c 8a bd 27 9b 6f be
       -0.0025666824 0.17046346 -0.06749856 -0.2339903
000080 b9 85 c1 3d 52 4a 91 3b d4 bc a9 3e a0 f1 55 3e
       0.09449334 0.0044339085 0.33151877 0.20892954
000090 3a 1a f3 3d af 9f dc 3d 0f c9 c3 3d 79 0c e4 bb
       0.11870237 0.10772645 0.09559833 -0.0069594947
0000a0 e0 d6 86 3e 69 bb c6 38 4c 72 31 bc 1f 26 46 be
       0.26335812 9.4762836e-05 -0.010830473 -0.1935048
0000b0 71 28 d0 bd 54 10 09 3e 1d a7 82 be 67 49 bb 3c
       -0.101639636 0.13385135 -0.25518122 0.02286215
0000c0 ba fe 8f 3e 75 eb 84 3e a2 ed e0 bd 7a 12 0a bd
       0.28124028 0.2596089 -0.10982825 -0.033709027
0000d0 a8 8d a5 be 1c 7f 51 3e d8 48 a4 be 06 f0 7f be
       -0.32334638 0.20458645 -0.32086825 -0.24993905
0000e0 6e f1 88 3e 47 a0 9f 3e 84 99 9c be 5b 8d 74 bd
       0.26746696 0.3117697 -0.30585873 -0.05970512
0000f0 23 2d 79 be 33 6c 54 3c df 99 c9 bc c5 65 af 3c
       -0.24333625 0.01296525 -0.024609504 0.021410832
000100 01 16 8d 3e af ea b7 9d a1 90 9d 3e 28 66 c4 3d
       0.2755585 -4.8682354e-21 0.30774406 0.09589797
000110 cf 3d 1f 3e 15 f2 84 3d b0 7e 21 3e 13 f2 b3 bd
       0.15550922 0.06491486 0.15770984 -0.08786406
000120 db b3 3d be 6b 44 54 be 1a fa 4d 3e eb 13 9d be
       -0.1852564 -0.20729224 0.20114937 -0.3067926
000130 74 07 e0 3d f0 4f 96 be f5 4d 93 3e 0a e4 40 be
       0.109389216 -0.29357862 0.28770414 -0.1883699
000140 88 b2 57 3e 9b a8 3e 3e 16 54 13 be 52 dc e4 bd
       0.21064198 0.18619005 -0.14387545 -0.11174835
000150 55 71 10 be 73 b0 24 3d 54 d4 89 bc b9 79 20 3e
       -0.14105733 0.040207338 -0.016824879 0.15671434
000160 ec bc a9 be 89 3e 96 af a2 c4 84 be 04 05 d7 ba
       -0.33151948 -2.7329275e-10 -0.2593127 -0.0016404693
000170 6d cd 80 3e 9c 58 1d 3c b7 b8 86 be 73 63 17 3e
       0.25156727 0.009603646 -0.263128 0.1478403
000180 66 41 0a be 9b 7d a5 3e 3e 37 62 3e 0a d1 8f be
       -0.1350151 0.32322392 0.22091386 -0.28089172
000190 11 f8 0d be ab ad a3 3e 87 26 bc bd b4 f8 9f 3e
       -0.13864161 0.31968436 -0.09187036 0.31244433
0001a0 e1 82 86 bb f5 3f 41 3e b9 6d a3 3e 3c e1 89 be
       -0.0041049575 0.18872054 0.3191965 -0.26929653
0001b0 59 10 7f 3e 0d 35 02 be 40 11 7a bd 18 33 3a 3b
       0.2490858 -0.1271555 -0.061051607 0.0028411802
0001c0 16 c6 15 3e a5 d5 f4 ad 46 88 23 3e a6 1f 5d be
       0.14626345 -2.7834466e-11 0.15969953 -0.21594104
0001d0 86 d7 d1 3d 98 42 f8 bd ba 05 1c be 9c 5b 92 3c
       0.10246186 -0.12122077 -0.1523656 0.017865948
0001e0 45 91 63 be bb 54 81 bd 94 6c 05 3d a2 bc a5 be
       -0.22223385 -0.06314989 0.03257425 -0.32370478
0001f0 31 ba 4c be 91 b9 58 bd f1 46 84 be 03 d3 a2 be
       -0.19992901 -0.052911345 -0.25835374 -0.31801614
000200 58 8f 6e 3e ec 47 00 3e 65 25 33 be b8 70 c2 3c
       0.23296869 0.12527436 -0.17494734 0.02373539
000210 65 23 90 be b2 05 b3 bd ef d5 70 3e 2e e0 29 3e
       -0.28152004 -0.08741321 0.23519109 0.16589424
000220 97 67 82 be 95 0d d6 3a ab 6d b7 bd fe 95 5a 3e
       -0.25469658 0.0016330952 -0.089564644 0.2134628
000230 ec 8b 72 3d 18 97 65 3e 02 cf 16 bd 3a 7e 91 3e
       0.05921547 0.22420919 -0.03681851 0.28416616
000240 85 e8 7f be 2b 9f 8d 3d 33 69 43 3e 2a 55 32 bd
       -0.24991043 0.069151245 0.19083099 -0.04353825
000250 bd a9 90 3e c6 bd 8a be f9 3f 14 be 21 d6 24 3e
       0.282545 -0.2709791 -0.14477529 0.16097309
000260 e1 82 42 3e 79 d5 a7 3d 94 6a 21 be 9b 87 96 3e
       0.18995239 0.081950136 -0.15763313 0.29400334
000270 d5 14 bd bd 79 52 0b be a2 04 fa bc 95 09 ce 3a
       -0.09232489 -0.1360568 -0.030519787 0.0015719408
000280 4a 6b 24 be 9b be f4 29 bd cc 70 be 61 3d 8c be
       -0.16056553 1.08688415e-13 -0.23515601 -0.27390578
000290 cc 92 a8 3d cd 9b 83 3e 7a d6 c3 3c f9 05 0b bd
       0.08231124 0.25704804 0.023905981 -0.033941243
0002a0 cf e4 39 3e 4a 78 eb bc ec b6 30 3e db af 90 be
       0.1815369 -0.028743882 0.17257279 -0.28259167
0002b0 f0 d0 03 be 90 43 71 3e d7 bb 9f be f1 98 77 3e
       -0.12872672 0.2356093 -0.31197998 0.24179436
0002c0 74 10 30 be aa 76 10 be af 9f 75 3e 94 0d 20 be
       -0.17193776 -0.14107767 0.23986696 -0.1563018
0002d0 a0 41 0f 3d 26 37 4a 3d ba 55 53 bd c6 77 a4 b8
       0.034974694 0.049369 -0.051595427 -7.842439e-05
0002e0 c4 40 82 3d 4d fe 25 a0 53 a9 25 be a1 b0 69 be
       0.06360009 -1.4060185e-19 -0.16177873 -0.22821285
0002f0 fc 44 93 be e9 9f fd 3c 35 d2 01 3e 40 5b 77 be
       -0.28763568 0.03096004 0.12677844 -0.24155903
000300 56 8c 87 be a9 b7 39 be c0 8e b3 bd 3b 29 3a bd
       -0.26474255 -0.18136467 -0.08767462 -0.045449477
000310 23 e5 92 3e e4 de 85 3e 43 fe 7f 3d 8b da f9 3d
       0.28690442 0.26146615 0.062498342 0.12199887
000320 1f e7 15 3e af 18 6c 3d 1c 30 80 3d 33 e1 4f 3e
       0.14638947 0.057640728 0.06259176 0.2030075
000330 21 ea 37 3c e3 e8 9a 3e 49 5e 44 3e 4d d9 88 bb
       0.011225254 0.30255803 0.19176592 -0.004176295
000340 4d a3 5d be c8 4a 7e 9f e0 ab 9d be d5 64 65 be
       -0.21644326 -5.384845e-20 -0.30795193 -0.22401746
000350 88 e5 fd bd 8d 1c 22 3e f7 10 13 bd 91 20 3a 3e
       -0.12397295 0.15831204 -0.03590485 0.18176486
000360 b6 b7 9d be 77 d0 34 3e 43 11 61 3e a6 20 8f bd
       -0.30804223 0.17657648 0.21979241 -0.06988649
000370 b5 4a a7 be 8d e5 42 3e d4 cd 98 be ec fe 67 be
       -0.32674184 0.19032879 -0.29844534 -0.22655839
000380 82 80 9b be 0c 72 fe bb 06 c4 91 3e 20 ca e4 39
       -0.3037148 -0.0077650603 0.28469867 0.00043638144
000390 0b 3f 43 be 2a 93 34 3e a8 72 0b be 48 f2 cf 3c
       -0.19067018 0.17634264 -0.13617957 0.025384083
0003a0 4b 98 a1 3e 3c 0c 8f 35 ee ca a7 be 8a f1 74 be
       0.31561503 1.0657891e-06 -0.3277201 -0.23920265
0003b0 32 e9 14 be ec 20 8a 3e 05 cf 52 be 34 5f 38 3e
       -0.14542082 0.26978242 -0.20586784 0.18005067
0003c0 60 81 77 3b 0e 24 9f be b8 3e 9e be 33 5b fe 3d
       0.0037766322 -0.31082195 -0.30907226 0.124197386
0003d0 b2 cb 88 3d ff 04 9f 3e e8 6f d1 3d c8 ba 33 3d
       0.06679477 0.310585 0.102264225 0.0438793
0003e0 be 7e eb bd 6c da 0c 3e 45 56 9f be 0a ff 86 be
       -0.114987835 0.13755196 -0.31120506 -0.26366454
0003f0 07 5d 26 3c 00 f0 2f be 84 de 7f 3e e9 8c 96 3d
       0.010154015 -0.17181396 0.24987227 0.07351095

weight_hh_l0 f4 [27, 9]
000000 ee b4 67 3e 96 b4 8d b5 bb 9b 83 be 2e e4 a4 3b
       0.22627613 -1.0557876e-06 -0.2570475 0.005032084
000010 d8 89 1e bc 92 f5 19 3a af f1 ac bd 2a 66 35 be
       -0.009676419 0.00058730796 -0.08444535 -0.17714754
000020 3a e3 98 3a 22 4a 99 bc 03 8d 19 b2 3d 97 96 be
       0.0011664398 -0.018712107 -8.9378345e-09 -0.2941226
000030 86 7d 56 bd f1 47 f5 3d 5d 9f fa 3c 2c 75 11 3e
       -0.052365802 0.11976612 0.030593568 0.14204854
000040 e1 32 73 3e 80 fe 99 bd 00 aa 96 be a7 50 d7 1d
       0.23749878 -0.07519245 -0.29426575 5.699342e-21
000050 1e b2 83 3c c9 3a c2 bd 74 db a6 3d ab 34 b4 3b
       0.016076144 -0.09483869 0.08147326 0.0054994426
000060 d1 b4 92 be c8 59 84 3e 2b 8d 5b bb b3 e0 26 3e
       -0.28653577 0.25849748 -0.003350089 0.16296653
000070 ae ba 5e b0 ce d3 9f be 0b 40 4a be a1 25 3b 3e
       -8.102842e-10 -0.31216282 -0.19750993 0.18276073
000080 59 30 a9 bd 71 23 2d be 4d e0 ce bd 84 07 0d 3e
       -0.08261175 -0.16908051 -0.10101376 0.13772398
000090 de f7 bc bd bc 1f cc 3a 71 5e 8b be 09 3f 7c 3d
       -0.092269644 0.0015573422 -0.2722049 0.061583553
0000a0 6e 63 fe bd c9 d5 01 be 39 3a 37 be bb d7 5c 3e
       -0.124213085 -0.12679209 -0.17893304 0.2156667
0000b0 54 32 8e 3c 23 ad 9b 3e 8f 2b 6a 1c 56 a0 8a be
       0.017357983 0.3040553 7.7480403e-22 -0.27075452
0000c0 c9 73 b6 bd a8 13 ec bc af 51 8e 3a 75 2a 4a 3e
       -0.08908803 -0.028817967 0.0010858084 0.19742759
0000d0 9b 0d 6a bd a9 d9 ad 3c a6 2b 23 bd 20 18 c3 30
       -0.05714188 0.021221953 -0.03983655 1.4194974e-09
0000e0 fc 43 85 bd 6b d1 06 bc 50 26 a0 3c 73 4c f0 b7
       -0.065071076 -0.00822864 0.019549519 -2.8645829e-05
0000f0 87 a8 19 3c 30 95 4d 3e 37 9d 9d bc 4b be 16 be
       0.009378559 0.20076442 -0.019240005 -0.14721029
000100 f8 f0 b7 ab 3a e8 79 3e b9 6d 8b 3d 1c bc 1f 3d
       -1.3069814e-12 0.24404994 0.06808037 0.038997754
000110 9a 8a 56 bc 48 5c 3b bd a9 46 17 3e e5 ce 26 3e
       -0.013094569 -0.045742303 0.14773048 0.16289862
000120 bb 6d 83 be 95 d5 85 a0 74 ec 5d 3e db 08 92 39
       -0.25669655 -2.2672413e-19 0.21672231 0.00027853888
000130 be 6d a8 bb 2a 60 f0 38 83 02 7f 3e fd cf 43 be
       -0.0051400354 0.00011462004 0.24903302 -0.1912231
000140 60 3d ad b8 b2 dc c6 3d 78 b7 54 38 b1 04 b4 bd
       -8.260715e-05 0.09710063 5.0715607e-05 -0.08789957
000150 27 a4 0d 3e fc 88 6a bb fe ff 09 3e 49 44 81 3e
       0.1383215 -0.0035787215 0.1347656 0.2524741
000160 a7 c5 67 3e dd 2b 0d 3c 19 2f 42 bd 31 4e 68 37
       0.22633992 0.008616415 -0.047408197 1.3846483e-05
000170 c2 40 9e be c8 93 02 3e 01 2a 16 be 0d 29 37 3d
       -0.3090878 0.12751687 -0.1466446 0.044716883
000180 d8 37 85 be 34 bb 81 3e 5c a9 e9 3b b4 3c 34 3e
       -0.26019168 0.25338137 0.007130785 0.17601281
000190 56 f5 a6 1d 52 f3 45 be f8 81 e7 bd dd d0 8e 3e
       4.4193506e-21 -0.193311 -0.113040864 0.27893725
0001a0 f3 9b 82 3d 0f 19 75 3e 21 46 8d bc 85 c4 30 bb
       0.06377401 0.2393534 -0.017245354 -0.0026972604
0001b0 f6 08 ad be 3a b6 1c 1f 66 32 2a be 50 14 3f be
       -0.337959 3.318502e-20 -0.16620788 -0.18660092
0001c0 39 e6 5f 3e a1 9e e5 bd 8e 14 2b be 52 32 1b bd
       0.21865167 -0.11211897 -0.1670706 -0.037889786
0001d0 b3 bb 01 be 28 3f cb 3d 82 47 20 28 67 fb 66 3e
       -0.12669258 0.099241555 8.89729e-15 0.2255684
0001e0 67 11 e3 bd ee 47 2f be d0 fa 8a be 4f 5d f8 bc
       -0.110873036 -0.17117283 -0.2714448 -0.03031793
0001f0 d5 6d db bd 32 97 54 3e 33 dc 44 bc c5 21 d7 a1
       -0.10714308 0.20760801 -0.01201539 -1.4577905e-18
000200 8c 03 b3 3d 5e 69 f2 3d 0a f6 bd 3d 8a 0f ef 3d
       0.08740911 0.118365034 0.09275444 0.11672886
000210 45 97 9a be 89 64 19 3d c1 e1 17 be 4d c9 bc 3d
       -0.30193534 0.037449393 -0.14832212 0.092180826
000220 cc 7f 17 3a ec aa 24 3e 66 55 e2 bd 13 46 8a 3e
       0.0005779236 0.16080827 -0.11051445 0.27006587
000230 4d 77 bd 3c 25 2c 17 3e 8b 80 d4 bd 02 5d 1e be
       0.023128176 0.14762934 -0.1037608 -0.15465167
000240 37 75 3f be ff f7 e9 b4 1d 92 28 3d 3c d4 e9 bc
       -0.18697058 -4.3580073e-07 0.04115497 -0.028543584
000250 7a f3 1b 3e 34 ce 32 3e 57 ca 47 3e 93 0b 5c 3e
       0.15229598 0.17461473 0.1951078 0.2148879
000260 c8 b6 ce 3d 54 3d 86 be b3 d2 31 b2 2d df 1a be
       0.100934565 -0.26218665 -1.0350663e-08 -0.15124197
000270 b6 35 08 be a7 51 b1 3a e8 67 13 be 33 21 80 3d
       -0.13301739 0.0013528363 -0.14395106 0.06256332
000280 ef 65 6d 3e dc c4 6f bd 06 27 34 3d b3 a2 a1 32
       0.23183416 -0.05853735 0.04398253 1.8816854e-08
000290 f5 dc 9d bc 20 f9 65 3e 20 d8 9b 3d 09 c8 2b be
       -0.0192704 0.22458315 0.07609582 -0.16775526
0002a0 d0 43 c5 bd ed f9 7d be 04 4d d0 3d ac ef 2f bc
       -0.09632075 -0.2480237 0.101709396 -0.010738295
0002b0 52 53 ac b0 82 98 14 bd 19 56 8f 3e 2a 49 98 be
       -1.2538328e-09 -0.036278255 0.27995375 -0.2974332
0002c0 5c cf 2d bd 3a 97 0c 3e ea 07 21 3e d9 6e b1 3c
       -0.04243408 0.13729563 0.15725675 0.021659302
0002d0 6f 55 ac be c4 60 16 b9 cf 4c 9c 3e 5b 4e 19 bd
       -0.3365893 -0.00014341163 0.3052735 -0.03742824
0002e0 87 8e 62 be f1 d7 44 be 91 4d 6a 3e 0e 08 a3 3e
       -0.22124682 -0.19223 0.22881152 0.31842083
0002f0 2f 92 53 3e 70 d8 63 be 83 c1 84 27 53 6d 81 bc
       0.20661233 -0.22250533 3.6847166e-15 -0.0157992
000300 58 e9 90 3e 57 50 98 be cd d6 b6 bd 47 17 20 3e
       0.28303027 -0.29748794 -0.08927689 0.1563388
000310 39 bc 5b bc a5 30 97 bd 46 46 cf bc 27 d1 d7 1d
       -0.013411575 -0.07382325 -0.025302064 5.7126285e-21
000320 0e bd 4b bd 42 13 1a 3d 4c 41 49 be c1 12 68 be
       -0.049740843 0.037616022 -0.19653815 -0.22663404
000330 62 a5 8c 3e 0b 86 69 bd 25 e0 32 be e8 b5 50 3e
       0.27469927 -0.0570126 -0.17468317 0.20381892
000340 eb 6a b4 ba 9f 67 9e 3d 25 c4 f2 bd 09 5f ca 3d
       -0.0013764774 0.07734608 -0.11853818 0.09881408
000350 80 c1 73 3e 5c 2c 3f bd 09 d4 88 be 44 7b 32 3e
       0.23804283 -0.046673164 -0.2672427 0.17429835
000360 35 54 96 3e 0b 79 3b ba 79 51 20 be 92 64 55 be
       0.2936112 -0.00071515207 -0.1565608 -0.20839146
000370 59 c1 28 3c 94 87 68 3e 88 45 3e 3e 9a 9a 3d be
       0.010300004 0.22707969 0.18581212 -0.18516007
000380 8c 53 84 be df f7 17 3d 23 cc 86 b7 8e a2 25 3e
       -0.2584499 0.037101623 -1.6069103e-05 0.16175291
000390 a6 5d 7c 3e b4 2d f6 3d a2 4f 94 bd 71 41 8c 3e
       0.24645099 0.12020436 -0.07241751 0.27393678
0003a0 5b f8 89 bd cf 29 83 3e 0a 4f a0 bc 71 69 b2 b4
       -0.06736823 0.25617835 -0.019568939 -3.3231802e-07
0003b0 3b 06 c7 3d bf 74 33 bd a9 c3 97 be 50 14 02 3e
       0.09717985 -0.04381251 -0.29641464 0.12703061
0003c0 86 76 86 be 5f 88 a9 3e a6 49 98 3e
       -0.262623 0.33111855 0.2974369

bias_ih_l0 f4 [27]
000000 c7 3d ca 3d a3 b8 4f 3c 23 34 8c 3e 19 b2 66 be
       0.09875064 0.012678298 0.27383527 -0.22528876
000010 b3 2b 80 3d ab 1f 0a 3d 9d 56 bb 3d 42 97 95 be
       0.06258335 0.033721607 0.091473795 -0.29216963
000020 0e e7 86 3e 30 31 0d 3e 72 de f5 bd a8 4e ab 3d
       0.26348156 0.13788295 -0.12005319 0.08364612
000030 ea d9 21 3b 5b 49 21 bd 99 12 35 be d5 54 c7 bc
       0.0024696537 -0.039376598 -0.17682876 -0.024332443
000040 83 84 b3 3d 41 97 0b bc 31 75 bb bd 88 57 8b be
       0.08765509 -0.008519948 -0.09153212 -0.2721522
000050 e1 8f a7 bd a8 06 7b 3e 56 a0 ea bb c1 32 1a 3e
       -0.081817396 0.24514258 -0.007160227 0.15058424
000060 dc fc 73 be 7a 61 a9 bd 94 79 d7 3b
       -0.23826927 -0.08270545 0.0065757725

bias_hh_l0 f4 [27]
000000 31 7e 45 be bf a2 a5 be cd dd 12 be de cb 18 3d
       -0.1928642 -0.32350728 -0.14342423 0.037303798
000010 3e b1 62 3e 00 4b 9d 3d e9 4b 32 3d 44 ad 0b be
       0.22137925 0.07680321 0.043529425 -0.13640314
000020 4c fe a1 bc db 4e 76 be f2 a5 28 3e cb 56 c0 bd
       -0.019774579 -0.24053518 0.16469553 -0.093915544
000030 f9 9e 5c be 3a 80 7b be ce a1 b7 bd 20 d8 a7 be
       -0.21545018 -0.24560633 -0.08966409 -0.32782078
000040 0c 24 98 be 50 96 00 be 7f 2c 5f bc 32 06 92 be
       -0.29715002 -0.1255734 -0.013621449 -0.28520352
000050 b3 8a b1 3d 27 73 f5 bd 04 04 79 be 9f 47 86 3e
       0.08669033 -0.11984854 -0.24317938 0.26226518
000060 56 83 77 bd 21 bf a3 be 9f a2 5d bd
       -0.060427986 -0.31981757 -0.054110166

weight_ih_l0 f4 [27, 39]
000000 bc a1 78 34 53 1e d0 bd bd aa 08 3e c9 ca e9 1e
       2.3155638e-07 -0.10162034 0.13346381 2.4753705e-20
000010 2d 1e 3e be 1c 70 e5 3d 33 01 42 3d b6 2f 9e 3d
       -0.18566199 0.11203024 0.047364425 0.07723944
000020 26 c3 65 36 74 9d 35 be 0b 77 6d be c6 89 fc bd
       3.423725e-06 -0.17735845 -0.23189943 -0.12330966
000030 f1 25 f8 3d 42 49 84 bd fb 31 6c 3e c1 cb 59 be
       0.12116612 -0.06459285 0.23065941 -0.21269132
000040 29 d0 34 3e df aa aa be 37 6b 88 3d 60 0e 9a 3e
       0.17657532 -0.3333349 0.066610746 0.30089092
000050 4b f3 b3 bd d0 05 3a 3e 53 cf 78 be 9c 1f f5 bd
       -0.08786639 0.1816628 -0.24297838 -0.1196892
000060 cd ed 07 3e c1 1b 3e bd dc ce d9 3d 1a bc 28 3e
       0.13274308 -0.046413187 0.106351584 0.16478005
000070 98 95 04 3e ed c4 aa be 9d 76 a8 be e4 75 4b 3e
       0.1294769 -0.33353367 -0.32902995 0.1986919
000080 89 c6 23 bd cb d5 50 be 57 7e ac be c2 a0 94 be
       -0.03998426 -0.20394056 -0.3369014 -0.29028898
000090 de ce 86 bd 15 b3 06 3d 45 9e 87 3e a3 fb ae 3a
       -0.065824255 0.03288563 0.26487938 0.001335014
0000a0 2f 33 50 3c 7b 5b 5a 3e 63 39 02 1e 16 2e e4 bd
       0.012707516 0.2132396 6.89401e-21 -0.11141603
0000b0 5d d2 8b 3d 9d 4e a8 3b 65 6d 1f 3e 3a 13 96 ba
       0.06827233 0.0051363246 0.15569074 -0.0011449822
0000c0 60 ad 9a be c9 15 ab 3e ad f9 60 bc c8 8d 11 be
       -0.302104 0.33415058 -0.013731402 -0.14214242
0000d0 ba d1 49 be 57 af fb 3c d0 c6 70 be 1b f2 85 3e
       -0.1970891 0.030723257 -0.23513341 0.26161274
0000e0 bb 37 a4 3e dd 07 83 bd c3 04 cf 3d 1f 7a 13 be
       0.3207377 -0.06397984 0.1010833 -0.14402054
0000f0 6b b9 5c be 70 ac 9e 3c 5e 8b 89 be 9e 1c 1d 3e
       -0.21555106 0.019369334 -0.2686414 0.15342948
000100 cb e3 8c be 6c 6c 81 3d 5f 42 02 bc 07 c4 83 be
       -0.27517542 0.06319508 -0.007950394 -0.25735494
000110 cf e2 49 3e 4d 0c 94 3e de 60 2d bc 4f 10 28 3e
       0.19715427 0.28915635 -0.010582177 0.16412471
000120 40 b2 78 be 29 73 58 be 89 4b 17 3c 38 73 95 3e
       -0.24286747 -0.2113768 0.009234318 0.29189467
000130 3d 66 6c be ba fe 95 3d 81 94 dd ba 6d 59 86 be
       -0.23085876 0.07323976 -0.001690522 -0.262401
000140 b6 9e e5 3d c4 7f 68 28 57 dd 68 3e 94 f0 8d bd
       0.11211912 1.2906292e-14 0.22740684 -0.06930652
000150 28 7a 23 be 88 ee 95 be 1e 74 c8 b7 6e 01 9b 3e
       -0.15964568 -0.29283547 -2.389593e-05 0.30274528
000160 7b 28 45 3e 13 7f e4 3d f3 25 5c 3d b5 c3 b8 bd
       0.19253723 0.1115705 0.05374713 -0.09021703
000170 0d 41 ad 3d 8b 83 85 bc e4 86 b2 3d 69 b7 82 3e
       0.08459673 -0.016298076 0.087171346 0.25530556
000180 b6 98 04 3e 2e 6a 07 3e 85 cd 4b be c8 41 dd 3d
       0.1294888 0.13224098 -0.19902618 0.108035624
000190 35 ac 67 3e 2a 5b a7 be 7d 8b b2 3d da e3 d1 bb
       0.22624286 -0.3268674 0.087180115 -0.006405336
0001a0 1c 65 d3 3d 4e 1d f8 3c d0 de 21 be e7 67 e9 bd
       0.103220195 0.030287411 -0.15807652 -0.11396771
0001b0 ac b0 94 3e 33 d4 a9 3e 9e 44 5a 3e 3d 04 e8 bd
       0.2904104 0.33169708 0.21315238 -0.113289334
0001c0 54 13 9b 3d 4b 5c 8a 3e 04 8e 17 be 6e e6 91 3d
       0.07572046 0.2702354 -0.14800268 0.07124029
0001d0 f2 70 77 3e 2a b4 06 a8 e7 43 60 3e 1e b9 1a 3e
       0.24164179 -7.477561e-15 0.21900903 0.15109679
0001e0 18 4e ce 1e e0 77 db bd c6 2c 9c bc d1 1b a0 3e
       2.1843397e-20 -0.10716224 -0.019064318 0.31271222
0001f0 5c da aa be d7 a7 49 32 c9 24 3e 3d fc f1 8a 3b
       -0.3336972 1.1737902e-08 0.0464218 0.0042402726
000200 f4 21 17 3d df e8 e6 3d 70 c3 b0 3d 5a ef b3 3c
       0.036897615 0.112748854 0.08631027 0.021964718
000210 78 72 5d 3d 51 a8 67 3e bd b1 d2 3d 36 84 eb bb
       0.054064244 0.22622801 0.10287807 -0.0071873916
000220 90 5e 2d bd d4 85 13 bd 5e b5 93 3e 9a 65 8a 3e
       -0.04232651 -0.0360163 0.2884931 0.2703064
000230 46 ce 82 be 90 fd 5b 3e 94 6b f5 3d 2e fc 85 bd
       -0.25548 0.21483445 0.119834095 -0.0654224
000240 63 ac 26 3e d7 fa 3c 3e b8 10 83 3e 95 f9 0e 3e
       0.16276698 0.18455063 0.25598693 0.13962395
000250 d0 5f ff 3d 4a ae 2b 3e 8f 21 aa 3d e5 14 f6 bd
       0.12469447 0.16765705 0.08307182 -0.12015704
000260 9b 63 51 3e 7f fc 8b 3e c1 de 19 3d e4 66 90 3e
       0.20448153 0.27341077 0.03756595 0.282035
000270 59 ba 96 b1 f0 6a 19 3d 92 9d ba 3a 19 26 af 2f
       -4.38676e-09 0.0374555 0.0014237633 3.1859385e-10
000280 61 ff ff bd a1 a3 d6 bc e7 82 e7 bd eb aa f0 3d
       -0.124998815 -0.026201071 -0.113042645 0.1175135
000290 55 22 16 33 96 66 d9 bc c5 50 51 be 28 c5 dc bd
       3.495582e-08 -0.026538175 -0.20440967 -0.10779792
0002a0 b5 6d 80 bd 7e 61 2f bd 4a 6c 4f bc 2b 94 ae 3d
       -0.06270925 -0.042817585 -0.0126600955 0.085243545
0002b0 87 24 bc 3d 15 22 82 be 76 b5 19 3e 0c 4c 04 3d
       0.091866545 -0.25416628 0.15010628 0.032299086
0002c0 d3 9d 7b 3e a4 08 5c 3e 57 ef 8d be 01 66 70 be
       0.24571924 0.21487671 -0.27721664 -0.23476411
0002d0 ef 5c 04 bd 61 8a 9d be c6 c0 4e 3e 44 33 99 be
       -0.03231519 -0.30769637 0.20190725 -0.29921925
0002e0 96 71 55 be 76 22 97 3e 00 25 c5 3b a7 19 79 be
       -0.20844111 0.2951848 0.0060163736 -0.24326192
0002f0 79 14 03 3e 65 4f 47 3d 06 d1 93 3e 7f 18 7a 3e
       0.12800778 0.0486597 0.2887041 0.24423407
000300 53 27 2b 3e 6d 02 78 3e 40 2c 3f 3e 23 7b dc 20
       0.1671422 0.24219675 0.18669224 3.7350935e-19
000310 7c 3a 18 3e 25 1c 12 3e 1c 8c 15 ac 61 1b 31 be
       0.1486606 0.14268549 -2.125195e-12 -0.172956
000320 f5 ed 34 39 6e c6 87 be 3c 41 f2 3d 24 e7 e0 39
       0.00017254784 -0.26518577 0.11828849 0.00042896823
000330 83 e0 93 3e 67 26 0e be ec c2 54 be b8 05 f0 3c
       0.28882226 -0.13881837 -0.20777482 0.029299602
000340 93 1a 97 3e ff 0a c8 3d c6 d3 3a 3e b4 a6 1b be
       0.29512462 0.09767722 0.18244848 -0.15200311
000350 ab 89 06 3e 4a f0 79 3e a6 d5 44 bd c3 d0 9e be
       0.13138454 0.24408069 -0.048055314 -0.31018648
000360 5d 9e 59 3e 48 52 81 3e e1 38 10 3e a7 cf 7d bc
       0.21251817 0.25258088 0.14084198 -0.015491403
000370 22 07 17 3e 65 fc 81 be c8 b6 ce bd e6 c3 9b be
       0.14748815 -0.25387874 -0.100934565 -0.30422896
000380 56 6a 74 3e d4 de c8 3d 6f 59 9f 3e 72 6f 81 3e
       0.23868689 0.09808126 0.3112292 0.2528034
000390 c3 55 87 bd a2 a4 00 3c 49 df 8e 3e a2 74 72 be
       -0.066081546 0.0078517515 0.27904728 -0.23677304
0003a0 2f 38 35 bb 32 27 e3 3c b1 31 40 39 e7 5b 83 bc
       -0.0027651896 0.02772865 0.00018329058 -0.016035033
0003b0 3c 70 c3 bc 6f b2 97 39 bf 54 b9 bc 25 24 84 3a
       -0.023857228 0.00028933908 -0.022623418 0.0010081573
0003c0 52 db 89 3e 12 41 90 3e d5 b6 36 a4 1b d0 4f be
       0.2692514 0.28174645 -3.9619824e-17 -0.2029423
0003d0 ec 96 91 be ac e7 8e be 04 08 38 bc 13 1b 4a be
       -0.28435457 -0.27911127 -0.01123238 -0.1973689
0003e0 85 85 57 bd 21 56 dd 3d 75 73 5e be ad 5f 84 be
       -0.05261757 0.108074434 -0.21723731 -0.25854245
0003f0 c5 ef 37 be 22 65 de bc fc 8b 02 3e b0 21 be bd
       -0.17962559 -0.027147833 0.12748712 -0.09283769

weight_hh_l0 f4 [27, 9]
000000 4a 8a d3 3d 2d 64 cc 3d f4 f4 46 3e b3 0e e4 bd
       0.10329111 0.099800445 0.1942938 -0.11135616
000010 6f f2 38 be 88 5a f1 bd 79 e1 95 be bc 9b 97 bc
       -0.18061231 -0.117848456 -0.29273584 -0.018506877
000020 2b 4c 67 3e 5f 3e 5d be 59 53 3f be 5f 65 a9 be
       0.2258765 -0.21605824 -0.18684138 -0.33085153
000030 cb 25 19 3e e8 3c 98 be c4 aa 69 3e 1f 8c 3e be
       0.14955823 -0.29733968 0.22819048 -0.1860814
000040 77 02 6d 3d 7a 5d a6 be 3f 84 1d be 19 f0 38 bd
       0.05786368 -0.32493192 -0.15382479 -0.04515085
000050 28 9c 0a be dd 2c 10 be 1d 8d 3c 3d e6 d6 d3 3d
       -0.13536131 -0.14079614 0.046033014 0.10343723
000060 aa e4 dc 3d 96 b3 28 3e 79 fc 84 bd 62 99 33 be
       0.10785802 0.16474757 -0.06493468 -0.1753898
000070 77 dc 01 be c1 8d 05 be 21 96 21 3e 50 ae 99 be
       -0.12681757 -0.13042356 0.15779926 -0.30015802
000080 dc 7d 1f bd 90 50 94 3e d3 71 24 be c4 a1 86 3e
       -0.03893839 0.28967714 -0.16059045 0.26295292
000090 5f f3 fb bd 1e 9f b6 bd d9 29 97 3e 10 33 3e 3e
       -0.12302279 -0.08917068 0.29524115 0.18574166
0000a0 50 fa 29 bd 60 5b 98 bc 39 ef 69 3e 9a 69 04 bc
       -0.041498482 -0.018598258 0.22845162 -0.008081818
0000b0 85 ab 9e be 88 c9 a4 be 5d a8 5f bd c1 ac a8 3e
       -0.30990234 -0.32185006 -0.054603923 0.329443
0000c0 b5 b0 21 be 92 65 9f bd 7b 2e 97 3e 59 4a 8e be
       -0.15790065 -0.07783045 0.2952765 -0.27791098
0000d0 dd 6d 18 bd d1 41 8c be 32 1b 08 3e 88 4a 18 bb
       -0.03721415 -0.27393964 0.13291624 -0.0023237783
0000e0 76 c4 6d 3e 99 54 01 bd 75 04 36 be 03 0b 0c bd
       0.23219475 -0.03157482 -0.17775138 -0.03419019
0000f0 36 9c c3 3c 4a 8f 80 3e d6 67 3d be 76 fb aa be
       0.023878198 0.2510932 -0.18496642 -0.33394974
000100 f0 bf 27 3c e2 f8 83 3e 17 5d d7 3d 55 23 7c be
       0.010238633 0.2577582 0.10515802 -0.24622853
000110 7f 2e 3f bd 7d 77 fa bd 7d e0 a4 bd c9 57 c5 bc
       -0.0466752 -0.12229822 -0.0805063 -0.02408971
000120 60 2d a7 3e 4f 2d 81 3e f0 30 b1 bd c4 18 9c be
       0.32651806 0.2522988 -0.08651912 -0.30487645
000130 91 08 d4 bd 69 a9 91 be c9 ac 8a be cd cf 6b 3e
       -0.103531964 -0.28449562 -0.2708495 0.23028488
000140 bc b2 ae 3a 6f 3e 71 be e0 24 90 be 73 35 c3 bd
       0.0013328413 -0.23558973 -0.28153133 -0.09531679
000150 b2 37 16 be a2 7a 5d bd 8c 69 4c bd f0 64 1b be
       -0.14669684 -0.05407203 -0.049905345 -0.15175223
000160 94 1e 20 3e 5b 3e 21 bd 8a 94 4d 3d 9c 43 c3 3c
       0.15636665 -0.039366107 0.050190486 0.02383595
000170 b6 3f 93 be ee cd 03 be 0d 56 96 3e a0 fe 33 3e
       -0.28759545 -0.12871525 0.29362527 0.175776
000180 97 ff 37 be de bc fa bd b2 16 8d bd c0 8f 85 be
       -0.17968594 -0.12243055 -0.068890944 -0.26086235
000190 58 cd 2f 3e 03 43 6f 3e b5 69 28 bd 92 30 7e 3c
       0.17168176 0.23365407 -0.041116435 0.01551451
0001a0 fa 6d fc bd 7f 63 90 3e 18 63 32 3e 36 26 50 3e
       -0.12325664 0.2820091 0.17420614 0.20327076
0001b0 f2 4b b5 3d 9d 72 4a 3e 59 66 3d 3d 0d 79 fd 3d
       0.08852376 0.19770284 0.046240184 0.12376604
0001c0 f0 fa a8 be 18 77 a4 3e 90 24 de 3d 1b f8 ee 3c
       -0.3300395 0.3212211 0.108468175 0.02917104
0001d0 e3 ba 14 be bc 2e 98 be c5 f4 21 be 59 f5 07 be
       -0.14524417 -0.29723155 -0.15816028 -0.13277186
0001e0 7c ab c4 3d 53 a9 a5 3e 89 7e 84 3e 78 d9 3b 3e
       0.096030205 0.32355747 0.2587779 0.18344676
0001f0 87 18 54 be 56 7e 0f be 5a e0 9d bd 13 97 8b be
       -0.20712481 -0.14013037 -0.07708807 -0.27263698
000200 07 57 9c be 7f de 66 3e 56 e5 a4 bd 16 82 40 3e
       -0.30535147 0.22545813 -0.08051555 0.18799624
000210 62 4c 82 3d 0e 2a 3b be 2d 0d f0 3c 9d dd 53 3e
       0.06362225 -0.18277761 0.029303158 0.20690008
000220 05 22 99 bd 2a e3 9c be d5 22 52 3d fb f2 74 3e
       -0.07477192 -0.30642062 0.05130275 0.23920815
000230 f3 cd f2 3d 0f 0e 86 3e 50 82 5c bd a0 c1 60 3e
       0.11855688 0.261826 -0.053835213 0.21948862
000240 c1 0a 4e be f5 ca 4f 3e 13 ab 1e 3d bc cb 7f be
       -0.2012129 0.20292266 0.038737368 -0.24980062
000250 a4 10 b7 bd ea a2 77 3e ab f8 b2 3a da 45 62 3e
       -0.08938721 0.2418324 0.0013654431 0.22096959
000260 6d b9 41 3e 52 19 ec 3d 4a 0a 9e 3e cd 03 94 3c
       0.1891839 0.11528267 0.30867225 0.018068219
000270 1e 0f 50 3e eb cf 48 3e 40 ca fc bd 77 5e f1 3d
       0.20318267 0.19610564 -0.123432636 0.11785596
000280 6f 06 0f be 4c dd 9a 3e fd 50 81 3e 38 57 15 3e
       -0.13967298 0.3024696 0.25257102 0.14584053
000290 98 40 38 bd 75 af 91 be f4 c7 ab 3d fc 60 94 be
       -0.044983476 -0.28454176 0.083877474 -0.28980243
0002a0 d9 5d a2 be 9f 60 c8 bc b5 65 82 3d b7 80 6c be
       -0.31712225 -0.024460135 0.06367055 -0.23095976
0002b0 16 f9 6a be ee 93 81 be 89 2c 7d 3e ba 14 a4 be
       -0.22946581 -0.25308174 0.2472402 -0.32047063
0002c0 04 63 e8 bd 92 ab 4c be b0 0a 49 bd ec 5d 58 be
       -0.11347011 -0.19987324 -0.049082458 -0.21129578
0002d0 76 40 d7 bc 63 c6 aa bb 14 c7 82 bd 23 ec 26 3e
       -0.026275855 -0.005211638 -0.063856274 0.16301017
0002e0 4f 57 a5 3e 3e 92 90 3e 21 ff a5 3d d7 4e 95 3e
       0.32293174 0.28236574 0.081053026 0.29161713
0002f0 e0 73 27 3e 50 b6 a7 3e c6 ac 02 3e b8 90 e7 bc
       0.16352797 0.3275628 0.1276122 -0.02826725
000300 84 28 5f bd 62 f1 63 3e 84 35 39 be 62 05 4f 3e
       -0.054481998 0.22260049 -0.18086821 0.20216897
000310 35 1c 08 3e 70 da 6c be c6 cd cf bc bc 6a 4c be
       0.1329201 -0.23130202 -0.025366675 -0.19962591
000320 f1 f1 46 be 8a da 3b 3d 34 79 22 be 67 dc 95 be
       -0.19428231 0.045862712 -0.15866548 -0.29269716
000330 25 48 01 3e 59 98 94 be c1 26 cb 3d 9a 55 20 3e
       0.12625177 -0.29022482 0.09919501 0.15657654
000340 d1 fc d6 bd b9 d9 e8 3c 31 21 43 be 3f 54 46 bd
       -0.1049744 0.02842413 -0.1905563 -0.048420187
000350 0c 2f 8c be 81 54 44 3e 58 97 93 bd b0 d8 08 be
       -0.27379644 0.1917286 -0.07206601 -0.1336391
000360 cf 1d 86 be ce 51 71 be a4 ad 4d be 1e 7f 32 be
       -0.26194617 -0.23566362 -0.2008577 -0.17431304
000370 85 04 0a 3e d5 bf cf bd c4 ea 96 3d 31 48 02 be
       0.13478287 -0.10144011 0.07368997 -0.12722851
000380 34 6e d3 bd f2 8a d3 3d 92 fe 03 3e 40 21 31 be
       -0.10323754 0.10329236 0.1289008 -0.1729784
000390 6a 14 7f be d9 cf 0f 3e 70 2d 15 be 47 cd 64 be
       -0.24910131 0.14044131 -0.14568114 -0.22343932
0003a0 79 b3 e3 3c 07 d6 77 be 6a e3 90 3d 0b 2f 9c be
       0.02779554 -0.24202739 0.07074626 -0.3050464
0003b0 02 4c 91 be 3a 52 3d bd f6 f3 90 be e3 d4 57 be
       -0.28378302 -0.046220995 -0.28311127 -0.21077304
0003c0 ab 2b f5 bc b8 c3 84 3d a4 f1 f1 bd
       -0.02992805 0.06482643 -0.118136674

bias_ih_l0 f4 [27]
000000 c8 fc 80 be a3 6f d2 bd f7 51 5b be d2 47 14 3e
       -0.25192857 -0.10275199 -0.21417986 0.14480522
000010 f3 89 c8 bd dc 5a 5f bd 89 9c 0a 3e 5a 3b d0 3d
       -0.09791937 -0.05453001 0.13536276 0.101675704
000020 61 20 06 3e a2 cc 34 be 4e 90 8b bd 47 cb 7c 3e
       0.13098289 -0.17656186 -0.06814633 0.24686919
000030 f3 07 9e 3d a2 97 83 3e ed 5c 1a be 84 4b 3a be
       0.0771636 0.25701624 -0.15074511 -0.1819287
000040 fa 01 87 be b3 eb f4 bd e4 1f d7 3c 61 42 a2 be
       -0.26368695 -0.119590186 0.026260324 -0.31691268
000050 22 b0 e6 bd 85 03 57 3e 54 ef 95 be 3d 5f a4 3e
       -0.112640634 0.20997436 -0.29284155 0.3210391
000060 52 96 28 be 87 8e 08 3e a1 31 8b 3e
       -0.16463593 0.1333562 0.271863

bias_hh_l0 f4 [27]
000000 63 4f 7b be 37 a0 7d 3e 14 a3 8d 3e 77 43 50 bd
       -0.24542002 0.24768148 0.2766348 -0.05084559
000010 98 83 70 3d a7 4b 89 3c a2 cb 3a be 03 bc a8 bd
       0.058719248 0.016759707 -0.18241742 -0.082389854
000020 3f db 6a be 76 0c 7e 3d 08 f4 43 be 00 98 93 3d
       -0.22935198 0.062023602 -0.1913606 0.07206726
000030 73 32 19 3e 71 e4 39 bd 2d 94 21 be eb 39 33 3d
       0.14960651 -0.045383874 -0.15779181 0.043756407
000040 84 9b 9c be 87 13 8a 3d 6c 51 41 3e 8f 37 24 be
       -0.305874 0.06742006 0.18878716 -0.16036819
000050 c3 bb 50 bc 99 fe 66 3e b4 7b 0c be c9 16 27 be
       -0.012740078 0.22558059 -0.13719064 -0.16317286
000060 e0 31 9d be 52 3f 12 be 69 69 94 be
       -0.30702114 -0.14281967 -0.28986672

weight f4 [9, 9]
000000 88 2c 7b b9 0f 75 a7 3a 75 25 c8 1c ed 01 a7 3a
       -0.00023953815 0.0012775975 1.3244572e-21 0.0012741663
000010 c9 d7 8f 38 4d c2 f2 38 45 5b ee b9 e8 b3 67 a7
       6.8589645e-05 0.000115756506 -0.000454629 -3.2155217e-15
000020 8f 5d da 28 d5 73 ea 3d 96 66 e0 bc 95 16 91 3e
       2.4243437e-14 0.114478745 -0.027392667 0.2833754
000030 f7 5b 35 3e d5 20 9d 3e 11 6f 1a 3e 19 97 3b 3c
       0.17710863 0.3068911 0.15081431 0.011449599
000040 81 44 3b be 99 de 84 3e f5 a7 4c be af f1 d4 bc
       -0.18287851 0.2595108 -0.19985946 -0.02599415
000050 5d fc a6 be b8 63 07 bd 54 b6 a3 be 55 1c 98 3e
       -0.32614413 -0.033054084 -0.31975043 0.29709116
000060 7e 50 64 3e 2a de 71 be 8b 16 b1 3d 91 a6 75 3b
       0.2229633 -0.23619905 0.08646878 0.0037483315
000070 86 55 fb 39 fc 29 bc 35 61 22 42 37 87 25 d1 2f
       0.0004793817 1.4019311e-06 1.1571306e-05 3.8043543e-10
000080 85 45 5a b5 ba 8a 2b 3a fe ed 47 b9 eb 7f d3 b4
       -8.131249e-07 0.0006543804 -0.00019066778 -3.9394885e-07
000090 f4 cb 22 be 23 98 8a 3e cc 36 47 bd c5 f8 60 3e
       -0.15898114 0.27069196 -0.048636243 0.21969898
0000a0 1d 3b 9c 3e 1a c8 95 be 3e 91 d2 bd 19 6b 4c be
       0.3051385 -0.29254228 -0.10281609 -0.1996273
0000b0 1d 8c a3 3e 4f 71 2b 3d 47 1f a5 3e 5d 4f 36 be
       0.31942835 0.041856106 0.32250425 -0.17803712
0000c0 f7 c8 8b 3e a6 74 bc 3d b4 07 9b bd e9 ea 0f 3e
       0.27301762 0.092019364 -0.07569829 0.14054455
0000d0 33 ea 67 3d 30 1e 02 3e dd ef 8b 3e 3e 31 aa be
       0.056619834 0.12706828 0.2733144 -0.33240694
0000e0 91 8d 9d 3e 6e 0b 8d be 85 d7 5e 3e d3 b6 50 3e
       0.3077207 -0.27547783 0.21761902 0.20382242
0000f0 01 85 75 3e bf a3 17 bc ef 62 32 3e 18 32 6f be
       0.23976518 -0.009255349 0.17420553 -0.23358953
000100 30 52 86 3e 80 3a 06 3e 72 4f ba bd 66 83 fe bd
       0.2623458 0.13108253 -0.09097184 -0.12427406
000110 b0 95 94 3e 1e 7f 6f 3e e9 04 bf ba 23 41 a3 bd
       0.29020452 0.23388335 -0.0014573607 -0.07971408
000120 0e 1f af 9f 05 e7 e9 3a ac 28 f2 1d 7f 55 78 1e
       -7.416676e-20 0.0017845338 6.409892e-21 1.3146691e-20
000130 25 10 a9 37 d6 50 94 32 00 e7 45 9d f8 40 2c 23
       2.0153888e-05 1.7266228e-08 -2.6192157e-21 9.337896e-18
000140 65 5a 1f 1c
       5.272552e-22

bias f4 [9]
000000 68 a6 73 ba 76 89 12 3e 12 7d 82 3d 01 94 a9 bb
       -0.0009294511 0.1431025 0.063715115 -0.005175114
000010 78 6a 24 3e ad c2 28 3d c6 aa 6c 3e b9 96 9a 3e
       0.1605624 0.041201282 0.2311202 0.30193117
000020 0a 63 9c 21
       1.0597187e-18
