ERTSNet/new_arch_LA/decimation/model/best-model_r0_J2_2passBaseOn-20.pt (torch, 375010 bytes, 64 tensors)

weight_ih_l0 f4 [27, 15]
00000000: 9ff2 51be 2dff 8abe 1f16 863e 3d3b 833e
00000010: c75d 89bc 4582 acbd d888 8dbe 2adc edbd
00000020: 618c 85bd b7c7 10be 76ce 75be ab6c 64be
00000030: 7d64 903e 7e3e 7a3e aadf 343e 54c1 683e
00000040: e2d2 47be 9b2d 693e d94f 5d3e cd97 5cbe
00000050: adf6 553e 6596 ddbd 8e63 77bd f389 84b9
00000060: af85 2d3d 7c3d 0f3b 814a 1b3e 3906 183e
00000070: 6704 81be 2829 31be ce68 bc3b 71c1 babd
00000080: cc95 32be f7b9 87be 3286 a3be 1b11 21be
00000090: 60d7 b73d 9be8 ce3d cfd7 a83d 7f70 703d
000000a0: 5c6c 2cbe 314a 4ebc 5a0f a23e 7c76 593c
000000b0: cfe4 53be 2016 33be b38e 87be 17a7 c8bc
000000c0: 4933 033e ba77 e7bd b853 833e d7e0 59be
000000d0: eca1 3f3e acff 823c eb95 77be 0490 bebc
000000e0: 069b 97be cd59 3abe 7606 a3be c03c 343e
000000f0: 7e8f 303e 969f f2bd fc08 a4be 4637 8ebe
00000100: 8d86 363e defc 043e 1146 a23b eba8 01be
00000110: bbf4 a6be 797a a03e 550f acbe 6463 943e
00000120: 64ea 6b3e 3758 0bbd 1ad4 ddbd 1c88 16be
00000130: 3f62 663d cdb1 08be ef6a 143e 0e18 07be
00000140: 6a9c d73c 4f53 47be 6eed 54be de8f a43e
00000150: 9954 853e 9e94 98be 6dd7 a3bd 6554 2c3d
00000160: 9efe 09be ad67 86be 526d 84be 8330 033e
00000170: 8f26 9c3e cd0c 94bd 7760 9d3e 48e5 9c3e
00000180: 6a63 89be 1982 9c3e b68f dc3d 485f 57be
00000190: 18ea 923e df8a 54be 412e 69be b3c8 84bd
000001a0: 1b72 2f3d 477b c1bd f2ec 953e 50cc a03c
000001b0: 60a8 813e c20b 823e 9e83 31be 0d9e 843e
000001c0: 7234 14be 21cc 93be 68e1 85be 9eb4 8abd
000001d0: a0ac 0e3e ac21 803e 50f7 9f3e 8a1e 173e
000001e0: 7ac5 313e a16c 8039 4fa4 a3be ea6f 043e
000001f0: 71ad 983e c507 dabd 836d 67bd eea8 d7bd
00000200: cfcc a63e 7391 073e 65b4 a13c aae6 a5be
00000210: 359b ed3b 1029 963e 50c0 5dbe 7b49 373e
00000220: 5740 a03e ff3e 213e fc63 543e 3a27 993e
00000230: a4eb a53e 1c9a 533e c8b0 06be bc21 7dbe
00000240: 36f4 193e 6980 2abe afc6 623d 5635 74be
00000250: 8f7e a1be 972b 2cbe 463d 16be cae8 18be
00000260: 30eb e3bd c7fc f739 167c 1dbe faa7 403e
00000270: e9b9 7b3e ee0f 38bc 23b4 863d 6608 52be
00000280: 2d7f 87be a40e 1b3e 21d8 933e 0088 5dbd
00000290: b949 ec3d 1e77 093e 4712 7cbd 2965 9f3c
000002a0: 2587 c23d e49f 273e fcff a73d 3f09 c73b
000002b0: 1a7b 093e 5e2d 573e bf2f 86be be42 833e
000002c0: cfe5 06bd 0db0 87be 6b92 69bd 76af 893e
000002d0: 08f8 11be 1d58 8dbe f5f7 983e 177e eb3d
000002e0: 7742 17be 1952 393e 4608 a8bc 84c0 3bbe
000002f0: 249a 71be 2366 95bd 5afb e93d e31a 9d3e
00000300: cd80 283e 1eda a8be 0aed 803e 7eec b9bd
00000310: 7919 ec3d 5c90 71be b4ab 3fbe 8aec a2be
00000320: e7aa 353e 76f5 293d 65a7 80be c083 4b3e
00000330: 7d73 9c3c 2817 77be 9f9a 78bc 079b 9fbe
00000340: 96a7 423e ceb6 813e e29e b3bd 9023 8d3e
00000350: 4a11 e13d 9777 a2bd 2406 843e 17a1 70be
00000360: f638 78bd 505b a6be d370 21be b7a3 923d
00000370: fe56 6ebe e8ff 3abe e0fe 4abe 7982 a53d
00000380: 6c67 a13d 1e50 2bbd 0119 143e c74c 03be
00000390: e5a3 273e b11c 2a3e 68b3 f53b bdbf 21bd
000003a0: 9d93 3cbe 5474 41bb e4a3 03bd 4c63 81be
000003b0: 6ba4 863e dbdf 94be a6a4 f73d f48b 8cbe
000003c0: d434 87be a34d a23d 0ca2 6d3e 9c84 5ebe
000003d0: 5bd0 823d 2c83 623e 6de1 84be 48ce 94be
000003e0: edf4 2c3d 02ee f33c 707a 7a3e d05c 52be
000003f0: f671 1c3e 6965 de3d 0c88 c2bd c844 32be
-0.20502709 -0.2714781 0.26188752 0.25631133 -0.01676835 -0.084232844 -0.27643466 -0.116142586
-0.06520916 -0.14138685 -0.2400454 -0.22307079 0.28201666 0.24437901 0.17663446 0.22729999
-0.19514039 0.22771303 0.2161249 -0.21542282 0.2089488 -0.10819701 -0.060397677 -0.00025279782
0.04236382 0.0021856716 0.1516514 0.14846124 -0.2519867 -0.17300856 0.0057497984 -0.09118927
-0.17439955 -0.26509067 -0.3193832 -0.15729181 0.089766264 0.1010296 0.08244287 0.058701035
-0.16838211 -0.012590931 0.31652337 0.013272878 -0.20692752 -0.17488909 -0.26476058 -0.024493737
0.12812532 -0.11302133 0.2564981 -0.21277176 0.18714112 0.015991054 -0.24178283 -0.023262031
-0.2961046 -0.18198319 -0.31840867 0.176013 0.17242238 -0.11846845 -0.32038105 -0.27776545
0.17824765 0.12987086 0.0049522 -0.12662093 -0.3260859 0.3134344 -0.33605447 0.2898208
0.23038632 -0.034019675 -0.10831471 -0.14700359 0.05624604 -0.13349076 0.14493917 -0.1319277
0.026319701 -0.19465373 -0.20793697 0.32141012 0.26041105 -0.29800886 -0.080000736 0.042072672
-0.13476035 -0.26250973 -0.25864655 0.12811475 0.30498168 -0.07229004 0.3073766 0.30643678
-0.2683366 0.30568007 0.10769598 -0.2103244 0.28694224 -0.207561 -0.2277155 -0.06483593
0.04283343 -0.094473414 0.29282337 0.019628674 0.25323772 0.25399595 -0.17335364 0.25901833
-0.14473131 -0.28866675 -0.26148534 -0.06772731 0.13933039 0.2502569 0.31243372 0.14757743
0.17360488 0.00024494997 -0.31961295 0.12933317 0.29819825 -0.10646013 -0.056500923 -0.10530268
0.32578132 0.13239078 0.01973934 -0.32402545 0.007251168 0.29328203 -0.21655393 0.17899124
0.31299087 0.15746687 0.20741266 0.2991274 0.32406342 0.20664257 -0.13153374 -0.247199
0.15034565 -0.16650547 0.05536526 -0.23848471 -0.3154187 -0.16813503 -0.14671811 -0.14932552
-0.11128843 0.00047299845 -0.15379366 0.18814078 0.24582638 -0.011234267 0.06577327 -0.20511016
-0.26464215 0.15142304 0.2887583 -0.054084778 0.11537499 0.13424346 -0.061540868 0.019457417
0.09498433 0.16369587 0.08203122 0.0060741003 0.13425866 0.210134 -0.26208302 0.25636858
-0.032934006 -0.26501504 -0.0570244 0.2689168 -0.14254773 -0.27606288 0.29876676 0.11498659
-0.14771448 0.18097724 -0.020511758 -0.18335158 -0.23593956 -0.07294872 0.11424895 0.30684575
0.16455384 -0.3297891 0.25180846 -0.090783104 0.11528296 -0.23590225 -0.18717843 -0.3182109
0.17740975 0.041493855 -0.25127712 0.19874477 0.019098038 -0.24129927 -0.015173583 -0.31172964
0.19009241 0.2533478 -0.08770539 0.27566195 0.10989626 -0.07932966 0.25785935 -0.23498951
-0.060601197 -0.3249154 -0.15765695 0.071601324 -0.23275372 -0.18261683 -0.1982379 0.08081526
0.07881054 -0.041824453 0.14462663 -0.12822257 0.16371115 0.16612507 0.0074981935 -0.039489496
-0.18415685 -0.00295188 -0.03213872 -0.2527107 0.26297316 -0.29077038 0.12091951 -0.27450526
-0.26407492 0.07924964 0.23206347 -0.21730274 0.06387397 0.2212035 -0.25953236 -0.2906363
0.042225767 0.029776577 0.24460769 -0.20543218 0.15277848 0.10859186 -0.09498605 -0.1740905

weight_hh_l0 f4 [27, 9]
00000000: 813d e43b 0a7f 6c3d 3614 5d3e d539 e53d
00000010: 42b5 193d 35e2 6c3e abfd 7dbd 889d 90be
00000020: 56a6 91be f8b1 74be 76ec 92be 7d6e 8cbe
00000030: 1cbb 583e 55fa 353d bcec 523e 6521 7e3e
00000040: 83ea 4c3e 473b 8c3e 18e0 84be 3f06 42be
00000050: 46fb febd 7351 8f3e 999e bfbd 8af2 24be
00000060: cf82 63be a352 1dbd a954 00be b19b 6dbc
00000070: f34f 71be ac32 8cbe 7a7e 6f39 0569 8b3e
00000080: bded 483d 2d6e 3b3d cfc4 86be ceee 37be
00000090: 2d98 5f3e 4ae3 413e 75e5 f13d 8950 9abe
000000a0: 9251 94be 710a 633e 6f9e 12bd 8949 a73e
000000b0: bea3 223e 421c a43c e52f 193e a9a1 5e3e
000000c0: 5168 39be 0e0e 0e3e 7ffe 8cbe fc2a a13e
000000d0: 82a4 b5bd e97b 9ebe 75b5 9b3e 0b95 5abe
000000e0: 740b a8be ea4b 03bd 4d5f d13c 765b 743d
000000f0: d843 5abe be7a 6fbd 2632 a53c c3e1 883e
00000100: b413 913e af7a 143e 2cf4 033e d635 ef3d
00000110: 7a9c 21be 2089 723e 6c09 24be 531f 7d3d
00000120: b071 573e c058 df3d 61b0 fd3d 47f2 9f3e
00000130: dbc0 90be 6bba 12be 7fa2 8f3e 98ed 303e
00000140: 38a9 0abc d6b7 57be 8b9e 26bb b64d 953e
00000150: da4f 553d 68ea 5ebe dbbe 443b d4b4 22be
00000160: de67 75bc e577 43be f275 02be 8dd1 a0bd
00000170: 4717 0abe 2b90 c33d 1834 5ebc d9be 9bbe
00000180: a112 443e 9f52 fdbd 73ff 2a3e 5c98 a53e
00000190: c32d f7bd ac32 78be a49c a73e 63ef 97bb
000001a0: 4d10 613e f088 19be c87e 293b 76ba 15be
000001b0: 35be 1bbd d8c5 93be 390b 3a3d 118c b9bd
000001c0: 4ff8 a63e bf57 34be 393a 6cbe d9cc d83d
000001d0: b9ac a0bd ef26 5cbe 17d6 583e fc6f 013d
000001e0: f538 15be 6752 cc3c 27ff 40be aa5a 9b3e
000001f0: e992 31be 57b3 89be 8d12 903e 290a 973e
00000200: dc6d 373e ed5a 603d 2036 39be e96f 1ebd
00000210: e91e d03c b5c3 febd 0ba8 05be 9151 15be
00000220: c015 8c3e 10b6 6d3c 40df 2dbe 4c21 a5be
00000230: 364a 36bd a5f0 6a3e 72b9 033e ea1a 5cbe
00000240: fd91 adbe c862 213d bbf3 373e 6db7 2c3e
00000250: dc2c 6cbd 1183 e63d 992a cb3d b1c0 36be
00000260: 239e 1cbe c1da 10bd 0f1a 9b3e a206 373e
00000270: b339 6abd 5956 a9be 307e d7bc 88ee 983d
00000280: 6a94 4b3e 1416 4bbe 821c 883e 7b09 adbe
00000290: 666a 073e 9764 a2be be51 353e 5a85 953e
000002a0: 27d8 243e e99b 2b3e 880f 7a3e a83e 2d3d
000002b0: e669 883e 6085 ab3d 6c72 61be 710c 8ebe
000002c0: e43f 9abd e4c0 51bc d6db 7a3e a631 c6bd
000002d0: cdd1 00be af86 6e3e e341 923d e35e 8a3e
000002e0: 95a3 09be 4ec6 3dbd 4c73 8e3e 69b6 babc
000002f0: c2a8 9bbe f40f 143e 8c84 fabc a9d5 9e3e
00000300: 1142 613e 9699 89be a530 a13e 1da3 1a3e
00000310: 66af d13c 7822 17be 9709 99be 490e 0b3e
00000320: 58ae 693d c01c 9abd ff36 94be 8f51 8abe
00000330: de2b 34be 4a1c 52be 103d 033e cf53 55be
00000340: fad8 293d 7cc6 e1bd b14f 3c3d c5e2 84be
00000350: ee5e 4fbe 2d81 7fbb 1cf3 42be e8a2 c8bd
00000360: e8a3 03be 8027 873e 6b02 783e 2d1b 9f3c
00000370: 2cef 9ebe 29ed 15bc 56d7 a3be e368 e13d
00000380: 2e02 c83d 8211 5fbe 1e78 9b3e 47f5 553e
00000390: d92a ff3c bb9d ecbc 8ebe 9d3e 61f7 293e
000003a0: 27be 373e cdc0 8cbe d872 3cbe 4404 a2bd
000003b0: 3116 5ebe bac1 203e f709 9d3d 966c a5bc
000003c0: af3d 9abc 4e41 a7be 8c34 7f3e
0.0069653396 0.05773834 0.21589741 0.11192671 0.037526377 0.23133166 -0.062009495 -0.28245187
-0.28447217 -0.23896015 -0.2869603 -0.27428046 0.21165127 0.04442819 0.2059812 0.24817427
0.20011334 0.27388975 -0.2595222 -0.18947695 -0.1245027 0.27991828 -0.09356422 -0.16108146
-0.22217868 -0.038408887 -0.12532295 -0.014502452 -0.23565654 -0.2738241 0.00022839932 0.2722856
0.04905485 0.04575937 -0.26322028 -0.1796219 0.21835394 0.1893436 0.118113436 -0.30139568
-0.28968483 0.22171952 -0.035795625 0.3267329 0.15882775 0.020033006 0.14959677 0.21741356
-0.181062 0.13872549 -0.27537915 0.31478107 -0.08869268 -0.3095391 0.30411878 -0.21345918
-0.32821238 -0.03205482 0.025558138 0.059657536 -0.21314943 -0.058466665 0.020165514 0.26734743
0.28335345 0.14499925 0.12886113 0.1168019 -0.15782347 0.23685122 -0.16019219 0.06179745
0.21039462 0.109055996 0.12387157 0.3123953 -0.28272137 -0.14328925 0.28053662 0.17278135
-0.008463196 -0.21066222 -0.0025424089 0.2916085 0.052078106 -0.21769106 0.0030020985 -0.15889293
-0.014978377 -0.19088705 -0.12740305 -0.07852469 -0.13485442 0.09548982 -0.013562225 -0.30419043
0.19147731 -0.12369274 0.16699009 0.32342803 -0.12069275 -0.2423808 0.32736695 -0.0046366914
0.21978875 -0.14993644 0.002586292 -0.1462191 -0.038023192 -0.2886188 0.04542086 -0.09059919
0.3261132 -0.17611597 -0.23069085 0.105859466 -0.07845444 -0.21499227 0.21175419 0.031600937
-0.14572509 0.024941636 -0.18847333 0.3034261 -0.17341198 -0.26894638 0.28139153 0.2949994
0.17913002 0.054774214 -0.18087053 -0.038680945 0.025405364 -0.12439672 -0.13052385 -0.14581896
0.27360344 0.014508739 -0.16979694 -0.32251966 -0.044504367 0.22943361 0.1286371 -0.21494642
-0.33900443 0.039400846 0.1796407 0.16866846 -0.05765997 0.11255468 0.09920234 -0.17846943
-0.152947 -0.03536487 0.3029332 0.17873624 -0.057183933 -0.3307369 -0.026305288 0.07467371
0.19880834 -0.19832641 0.2658425 -0.33796296 0.13224182 -0.3171737 0.17706963 0.29203302
0.1609808 0.16758694 0.24419987 0.04229608 0.26643294 0.08375049 -0.22016305 -0.27743867
-0.075317174 -0.012802336 0.24497923 -0.096774384 -0.12580033 0.23293565 0.07141473 0.27025518
-0.13441308 -0.046331696 0.2782234 -0.022792058 -0.3040219 0.1445921 -0.030580781 0.31022385
0.21997859 -0.2687499 0.31482425 0.15101285 0.025596332 -0.14759243 -0.2989013 0.13579668
0.057051033 -0.07525015 -0.2894821 -0.2701535 -0.17594859 -0.20518604 0.12816262 -0.20832752
0.04146669 -0.11024186 0.045974437 -0.2595426 -0.20251057 -0.0038986907 -0.19038051 -0.09796697
-0.12855494 0.26397324 0.24219672 0.019422138 -0.3104185 -0.009150782 -0.32000226 0.11006334
0.09766041 -0.21784022 0.3036508 0.20894347 0.031148361 -0.028883805 0.30809444 0.16598274
0.17943631 -0.27490845 -0.18403184 -0.0791097 -0.21688153 0.15698901 0.07667916 -0.02019338
-0.018828241 -0.3266701 0.24922389

bias_ih_l0 f4 [27]
00000000: 8c4c 9c3e 65c0 87be 4288 123e 0f6c 59be
00000010: ac78 77bd 9035 0cbe 2bf8 7b3e 09a9 3a3e
00000020: 7bf7 f23d 3006 523e ffbd fcbd d63a 18be
00000030: 8cae 063e 8676 cebb f717 fdbd 2643 a53e
00000040: 4396 9c3e b217 7c3d e634 62bd 4511 a9bd
00000050: 4b86 6cbe 7823 46be de85 503e db2b 24be
00000060: 1f6a 7f3e 8108 053e 7e43 923e
0.3052715 -0.26513973 0.1430979 -0.21232627 -0.060417816 -0.13692307 0.24606387 0.18228544
0.118636094 0.20510173 -0.123409264 -0.14866194 0.13152522 -0.00630075 -0.123580866 0.32277793
0.3058339 0.061546035 -0.05522623 -0.08255247 -0.23098104 -0.19349468 0.20363566 -0.16032355
0.24942826 0.12991525 0.28567117

bias_hh_l0 f4 [27]
00000000: 3594 783e f271 7c3e b981 963e d07a febd
00000010: 05af 2cbe 208d 353d ab4f 9fbd bba1 9f3e
00000020: 0132 473e 9908 14be de4e f5bd 9bcc 90be
00000030: d43e 3e3e 8a88 873e 3824 a43e 73cf e83d
00000040: 239a 653e 70c1 9f3e 4711 a3be 6a0b 1f3e
00000050: 2bd8 113e a20e 83be fba1 853e 260d 79be
00000060: b59a cdbd e11e c63d 005c 3fbe
0.24275286 0.24652842 0.29395846 -0.124257684 -0.1686364 0.04432404 -0.07778867 0.31178078
0.19452669 -0.14456405 -0.11977933 -0.28281102 0.18578655 0.2647136 0.32058883 0.11367693
0.2242208 0.3120227 -0.3184912 0.15531698 0.14242618 -0.255971 0.26100144 -0.24321422
-0.10039274 0.096738584 -0.18687439

weight_ih_l0 f4 [27, 24]
00000000: 0df4 383e 3571 ec3d 9db1 d9bd f355 4c3e
00000010: 54e2 5b3e 6ffb 67be c2f6 8d3e 85cd 873e
00000020: d225 283e 3426 52be d02b e83d 0a13 503e
00000030: 8ac7 8d3e 5951 443e 9cda 883e c2a9 c13d
00000040: 23b5 a8bd 3ae1 153d fe9a 9abd 9548 f9bd
00000050: e5dc 9a3e 7016 473d 0ace 553d bafe 94be
00000060: 48a3 ac3c 0d2f 78be bf0f dfbc 95bc 063e
00000070: e8d0 9c3e a525 92bc be4c abbd 2ecb a5be
00000080: e8b7 603e aa94 80bd 5050 6abe 1ddb 82be
00000090: 884a 9c3e 317e ad3d c8b6 ffbc 9796 043e
000000a0: dcfb 993d 9f29 78bd 068d 32be 704d 2d3e
000000b0: 075b d6bd 55c1 a6be 987c 763e ac15 8b3e
000000c0: d612 903d 8ff2 c6bd 615d 6d3e 8afd 4fbe
000000d0: b7c4 13be db01 173e da7c 97bd a2b7 46bd
000000e0: deaa e2bd 4c2e 0bbe 5c71 833e 08db a33e
000000f0: f2ac 933e 7f62 0e3e f2ef 393e bc8f d5bc
00000100: c480 993e afad 95bb 897f a6be aea0 5dbe
00000110: ba34 a7be 44ca 973d a2db 973e 56f2 45be
00000120: f444 333e f635 843e e96f d13d 4040 9bbe
00000130: 795d de3d ca90 2ebe fb0d 273d 9e88 9d3e
00000140: e60d 863d a820 ff3c 47fd febd 471f 6bbd
00000150: a629 52be 33c4 57bd 8035 7ebe 1ea1 c7bd
00000160: ba41 a5bd b367 9b3e 95c2 6c3d 9d28 f0bc
00000170: 0d6d abb9 28cb dfbd c468 86be 7456 02be
00000180: 6d38 143e 6444 893e d340 633e 59b8 fb3d
00000190: bb58 4f3a 5de1 80be 4c7a 2d3e cf3f 87be
000001a0: 7b61 893e d962 bcbd c719 a7bd 8118 d23d
000001b0: 3942 b53d 85db 8f3d e201 923e ceea 063e
000001c0: 6f1a adbe 157b ac3d 1380 1d3d 0ece 5abd
000001d0: 18b1 a53e 5fde ba3d 4b6a 52be 0136 94bc
000001e0: 0f2c 8c3e 18be bfbd 9c1a d9bd 76cc ff3c
000001f0: e6dd fa3d 9400 eebd 6a13 d0bd c7d2 403e
00000200: 8826 2e3d bf0d 213e 05b3 9f3e 9b64 9a3e
00000210: f362 a03d 9ba3 803d ad2b cfbd 8f49 a9be
00000220: 90bf 1fbe 7fea 0fbe c231 78be bb5e 3cbe
00000230: e283 5dbe bbc8 cbbd 2f2b 77bd d078 20be
00000240: 54fb d53d e6e2 07be cb50 3e3e b441 963e
00000250: 13bb 723e 0fb9 de39 7b7b 1dbe 2bf1 193e
00000260: a68c 803c e2cc fabd 83a4 7dbe 2741 a13e
00000270: d187 9fbe 169e aa3d 8622 a73d 38bc a93e
00000280: 18c7 7ebe e933 373e 4866 e6bd e153 d6bd
00000290: 0db3 0d3e 5225 4bbe ee92 4d3b 9231 09bd
000002a0: 2138 4a3e 9e70 b93d 2d02 82be bd7e 8bbe
000002b0: 1b8f ca3d cba4 9dbe 9217 cb3b dabe 42be
000002c0: d3c6 bcbc f038 913e d50b a23e 606a 2e3d
000002d0: 95ac e73d 29fa cd3c 3e8b 743e e70a 893d
000002e0: be7c dd3d f421 aabe 1dd1 763e 044a 9cbe
000002f0: 3fd9 7f3d b172 1f3e e7f2 8dbe 0b43 f4bc
00000300: 5dd0 0d3e 33f3 893e 020d 843e f3e4 8dbe
00000310: f85e f63d cc43 19be f307 923e e3d4 a7be
00000320: 8601 96be a78c 57bc a29c c83c c076 87bb
00000330: 6678 8f3c e4d0 903e 36e7 a4bc 7ddd 903e
00000340: 61a3 0dbd 2f39 8ebe fdcd 9cbd c57c 553e
00000350: d1c8 42be 7768 c63d 4341 bebd edfc 09be
00000360: 97c4 3e3e c98e 38be 2111 67be c93f ab3d
00000370: 6adf a0be 2e0e 98bd 7ed0 23be 2327 a0be
00000380: 5ae5 aa3e 4424 58bc 663e 893e be31 783e
00000390: 587b e8bd 0287 0fbb 8fdc 623d 50c0 363e
000003a0: 17b1 a33e 4bbb 95be 4ba5 abbe b5e6 e53b
000003b0: 7e53 7d3e eaa0 dbbb 2a75 1f3d 81d8 e4bd
000003c0: 34ed e2bc e266 06be 1c0d 64be 1d79 9a3e
000003d0: 24b0 143e a470 36bd 86cd 833d 05a6 0dbe
000003e0: c526 9d3e 0036 a03e 4049 52bd a1f0 30be
000003f0: d606 d33d 34b7 283e c29d a03e 06ef 1dbd
0.18061848 0.1154503 -0.1062958 0.19954662 0.21473056 -0.22654508 0.27727324 0.26523986
0.16420677 -0.20522386 0.113364816 0.20319763 0.276913 0.19171657 0.26729286 0.09456207
-0.08237674 0.036591746 -0.07549094 -0.12172047 0.30246654 0.048605382 0.052198447 -0.2910059
0.021073952 -0.24236698 -0.027229188 0.13157876 0.30628133 -0.017840216 -0.08364247 -0.32381576
0.21945155 -0.062783554 -0.228822 -0.25557795 0.30525613 0.08471335 -0.031215087 0.1294807
0.075187415 -0.060586568 -0.17436609 0.16924071 -0.10466581 -0.32569376 0.24070966 0.27164972
0.07034843 -0.09714233 0.23180152 -0.20311561 -0.1443051 0.14746802 -0.073968604 -0.04851497
-0.110677466 -0.1359188 0.25672424 0.32003045 0.28842884 0.13904761 0.18157938 -0.026069514
0.29981053 -0.004567824 -0.32519177 -0.21643326 -0.32657415 0.07411626 0.29659754 -0.19330725
0.17506772 0.2582242 0.10226423 -0.30322456 0.10857672 -0.1704742 0.040784817 0.30768293
0.0654562 0.031143501 -0.124506526 -0.057402875 -0.205237 -0.052677345 -0.24825096 -0.097475275
-0.08069177 0.30352554 0.057802755 -0.02931624 -0.0003269691 -0.10927421 -0.26251805 -0.12728292
0.1447465 0.2680999 0.22192697 0.12291021 0.0007909645 -0.2517194 0.16941184 -0.2641587
0.26832184 -0.09198541 -0.081592135 0.1025858 0.088505216 0.07024292 0.2851706 0.13175508
-0.3380923 0.084219135 0.03845222 -0.053419165 0.32361674 0.09124445 -0.2054836 -0.018092157
0.27377364 -0.093624294 -0.106007785 0.031225424 0.12249355 -0.11621204 -0.10159953 0.18830405
0.042517215 0.157279 0.3119127 0.3015488 0.07831373 0.06281205 -0.10115752 -0.33063933
-0.15600419 -0.14054297 -0.24237731 -0.18395512 -0.2163234 -0.09950396 -0.060343917 -0.15671086
0.10448328 -0.13270149 0.18585508 0.29347003 0.23704176 0.0004248102 -0.15379135 0.15033405
0.015692066 -0.122461095 -0.24769787 0.3149502 -0.31158307 0.08330934 0.08160882 0.33151412
-0.24880636 0.17890896 -0.11249977 -0.104652174 0.13837834 -0.19838455 0.0031368094 -0.03349454
0.19747974 0.09054683 -0.25392285 -0.2724513 0.098905765 -0.3078979 0.006197878 -0.19018117
-0.023044026 0.28363752 0.31649652 0.042581916 0.11312214 0.0251437 0.23881242 0.066915326
0.10814808 -0.3322903 0.24103208 -0.3052522 0.06246304 0.15571095 -0.27724382 -0.029817125
0.13849016 0.2694336 0.25791174 -0.27713737 0.120298326 -0.14967269 0.2852169 -0.32779607
-0.29298037 -0.013156093 0.02448875 -0.004134029 0.017513465 0.2828437 -0.020129781 0.28293982
-0.03457964 -0.27778003 -0.07656477 0.20848377 -0.19021918 0.09687894 -0.092897914 -0.1347539
0.1862968 -0.18023218 -0.22565128 0.083617754 -0.3142045 -0.074245796 -0.15997502 -0.3127986
0.33378106 -0.01319224 0.2680542 0.24237725 -0.11351651 -0.002190054 0.055386122 0.17846799
0.31971046 -0.29244456 -0.33524546 0.007016028 0.24738881 -0.006702532 0.038930096 -0.11174107
-0.027700998 -0.13125184 -0.22270626 0.30170527 0.14520317 -0.044541016 0.06435685 -0.13832863
0.3069364 0.312912 -0.051339388 -0.17279293 0.10304038 0.16476136 0.3137036 -0.03855803

weight_hh_l0 f4 [27, 9]
00000000: 5e85 f23d 91d0 2a3d e0bc 1abe b729 a5be
00000010: 5531 f53d 4d03 a639 c94e 68be 1a47 6fbe
00000020: 1f81 9c3e c4b6 903e 3009 9a37 207a 13be
00000030: 3411 13be 1e23 cc3d ad30 31af 0e3b edbd
00000040: d1fc 56be a120 b0bd 1ac2 1a3e 1ec5 0ebc
00000050: 368b ac3d c06b 25bd 1a6e 28be 23c1 f133
00000060: 3449 14bd 103f 973c 775e 89be 73bf 093e
00000070: cb4c 1c3d bf9c 263e 15dd 3bbe c9dc a4bd
00000080: 6150 713b 3a88 32be 343f e1bd c0af a4be
00000090: 07e6 7e3e 114b ce33 4a6a 203c e3a0 3a3d
000000a0: 64e6 7f3e 1188 5034 1e7f c2bd 8d8a 1bbc
000000b0: e78a 703d 1e22 393e c0e8 20bd 2acd 8f3e
000000c0: 52fb eebd 3fb4 3c3e 9b49 6130 e01a e03d
000000d0: e50f 15be f505 71be e0b4 7cbe 89de 2331
000000e0: f57a 093e 622e 583e 5ce7 90be 5b44 393d
000000f0: 78c8 94ba d3dd aabe efc9 8bbd 0c12 1dbe
00000100: 4104 36bc dfbe 993e 4520 69bd ac9a 9fbe
00000110: 1f9f 9bbc 13f3 ab3d be24 9dbe 9f88 24be
00000120: baab 52be 4786 8931 ee59 e6bd e4f4 2d3e
00000130: 090f ab3d fb5d e73c 2355 e43d 0e9b 6cbd
00000140: 2cf2 5fbd 29e2 4dbd 9ccf c53c 5e5d 8e3e
00000150: e678 4b3d d179 403e 301f 31bc b8a4 08b9
00000160: 35b8 f0bd 8766 3e3e 3775 a3be 468d 293b
00000170: e315 183e ce23 303c 7789 84bd 72ad 3b3b
00000180: f9f7 1d3e 1081 4abe eec0 7c3e 4fe0 75be
00000190: 6c58 6632 513b 2dbc c60a da3d 5178 94be
000001a0: 79a5 bd3c 8f7a b93c 0eb5 51be 58b6 a5be
000001b0: 581d 3fbe 5219 01b3 d689 0bbe dac7 24be
000001c0: 90a9 a03e 9358 f6bc 689d 72be c812 a43e
000001d0: bb39 95be 2b32 873d eb1b 39b3 96a1 573d
000001e0: b384 78bc 5468 8b3e 0c57 10bc 24d6 8cbe
000001f0: 9c63 51be c7a5 813e ba27 543c 0e40 3938
00000200: 0752 03be bde3 4c3e 2f89 533e 182e 35bd
00000210: 8cd5 9ebd 54ac 99bc c1d1 fe3d f2d4 10bd
00000220: e606 993c aefc 18be 3af7 32be 0742 fe3d
00000230: cc73 072c af9e 66bd c9f8 aabe 1138 8f3e
00000240: 6490 5c3e 6aad e73c 2288 d63c ecf5 8d3e
00000250: cca7 a13e 76b6 a6ad 3f34 3f3d 06b6 98be
00000260: 871f c0bd 8c08 6bbe 891a 613d 32ef 33bd
00000270: 9585 3f3e 769b 70be ee73 543b d733 c1bd
00000280: 91ea 4fbe b613 2abe 1cf0 9dbe 1ef2 9db5
00000290: 88f8 2e3e 43ac 70be 6b7f 77be 2cdb 722e
000002a0: 817f 54be e677 9e3e 1c9d 3f3c f961 0ebe
000002b0: 13b2 66b8 0517 94be 2f5a ddbc e216 4dbe
000002c0: 2087 40b0 75ab 3d3e 2f01 1e3e e896 aa3e
000002d0: 8bad 623e b732 9233 d91a 70bd f429 903e
000002e0: 7885 9dbe 34fe f6bc 60a8 1f3e 5546 0cbd
000002f0: 27e0 213e 7175 28be 0291 8e32 2618 2abe
00000300: b5bd 123e ea33 b9bc 9963 1b3b 950e 663d
00000310: 56d6 b8bd 9307 a2be 09c9 a5be 369a 2e3d
00000320: 0d44 373c 21f3 d0bd 7898 5d3e 9f1a ceac
00000330: 80b1 433e c161 a1bd 71cf 5dbd fcbb 713e
00000340: 9566 8ab3 178d 493e bd87 b93d 49c8 efbd
00000350: 005f 1c3d 60c5 4ebe af61 52be ef67 943e
00000360: 784c 063d 59c5 cdb8 2104 5cbe 73bc a3be
00000370: 6661 a5be 9004 fc3c 7e2f 913e 5fd3 6dbe
00000380: 1045 5f3d cdc8 dd3d 7401 7633 da9f 6dbe
00000390: 5cdc 343d 7e1e b7bd 00a8 522b 51dd 6a3e
000003a0: 1b09 9abe 579c 87be a217 6bbb dac5 25b4
000003b0: 51e4 8bbe f12d af3d 5568 7fbc 93c4 9dbb
000003c0: 3c88 fc3c 4bba 983e 020a d8bc
0.11841844 0.04170281 -0.15111113 -0.32258388 0.119723 0.00031664447 -0.22686304 -0.23366967
0.30567262 0.2826444 1.8362509e-05 -0.14402056 -0.14362031 0.099676356 -1.611535e-10 -0.115835294
-0.2099488 -0.085999735 0.15113106 -0.008713989 0.0842499 -0.04038596 -0.1644825 1.12575684e-07
-0.036202624 0.018462688 -0.26829883 0.13451938 0.038159173 0.16270731 -0.18346055 -0.08049924
0.0036821591 -0.17434779 -0.10998383 -0.32165337 0.24892436 9.606277e-08 0.009790966 0.04556359
0.24990231 1.942101e-07 -0.09496902 -0.009493482 0.058726218 0.18079421 -0.039284468 0.28086215
-0.11669029 0.18428133 8.1959123e-10 0.10942626 -0.14556845 -0.23537429 -0.24678373 2.3846118e-09
0.1342581 0.21111444 -0.28301513 0.045231204 -0.0011351248 -0.33372363 -0.06825625 -0.15338916
-0.011109413 0.30028436 -0.05691554 -0.31172693 -0.018996773 0.08395972 -0.30692095 -0.16067742
-0.20573321 4.0024903e-09 -0.112476215 0.1698795 0.08352477 0.028243056 0.11149051 -0.05776506
-0.054674312 -0.05026451 0.024146847 0.2780561 0.049675845 0.1879647 -0.010810658 -0.00013031333
-0.11753885 0.18593799 -0.31925365 0.002587156 0.14852099 0.010750724 -0.06471532 0.0028637317
0.15426625 -0.19775796 0.24682972 -0.24011348 1.3407867e-08 -0.010573224 0.10646586 -0.28998044
0.023150193 0.022641448 -0.20479223 -0.3236568 -0.18663538 -3.005818e-08 -0.13626799 -0.16091862
0.31379366 -0.030071532 -0.23692858 0.3204558 -0.29145607 0.06601366 -4.309906e-08 0.052644335
-0.015168357 0.27228034 -0.008809816 -0.27507126 -0.20448154 0.2532179 0.012948925 4.4167093e-05
-0.1282426 0.2000875 0.206578 -0.04423341 -0.077555746 -0.01875893 0.12442351 -0.03535933
0.018680047 -0.1494014 -0.17477122 0.124149375 1.9248934e-12 -0.056303676 -0.33392933 0.27972463
0.21539456 0.028280932 0.02618796 0.27726686 0.3157333 -1.8953044e-11 0.046680685 -0.29826373
-0.09381013 -0.22952479 0.054956947 -0.043929286 0.18703301 -0.23496804 0.0032417732 -0.09433716
-0.20304324 -0.16609082 -0.3084725 -1.1767877e-06 0.17086995 -0.23503213 -0.241697 5.5219093e-11
-0.20751764 0.3095085 0.011695173 -0.13904561 -5.5002118e-05 -0.28923813 -0.027020542 -0.2002826
-7.004122e-10 0.18522437 0.15430139 0.33318257 0.22136514 6.80788e-08 -0.058619354 0.28157008
-0.3076589 -0.03015051 0.15591574 -0.03424676 0.15808164 -0.1645105 1.6596918e-08 -0.16610774
0.1433018 -0.022607762 0.0023710488 0.05616625 -0.09025256 -0.31646404 -0.3237994 0.042627536
0.011185658 -0.10202623 0.21640193 -5.8578277e-12 0.1911068 -0.07879973 -0.05415291 0.23606867
-6.444785e-08 0.19682728 0.09059093 -0.11708123 0.038176537 -0.2019248 -0.20545076 0.28985545
0.03278777 -9.8119206e-05 -0.2148595 -0.31979713 -0.32300872 0.030763894 0.28356546 -0.23225163
0.054509223 0.10829315 5.727766e-08 -0.2320551 0.044155464 -0.08941363 7.4840134e-13 0.22935988
-0.30085072 -0.26486465 -0.003587224 -1.54388e-07 -0.2732263 0.085536845 -0.01558884 -0.0048146932
0.03082668 0.2982963 -0.02637196

bias_ih_l0 f4 [27]
00000000: c8e5 a23e 21ab 983e 9d9a c73d faa8 8a3c
00000010: 93a9 8d3e eb32 5fba 0238 8a3e 80d2 ab3e
00000020: 29ec ec3b b785 96bd b392 473d 044e 78be
00000030: 1df8 9abe 5264 19be 3e78 053e c80b 633e
00000040: 7568 76bc dbf8 88be c01e 58be 2510 08be
00000050: 7f74 d73d fe82 523e 5d4e 3c3e 8056 c13d
00000060: cb59 9f3d 7de5 a83d 99ab 94bd
0.31815934 0.2981806 0.09746287 0.016926277 0.27668437 -0.0008514362 0.26995856 0.33559036
0.007230301 -0.07349723 0.048723888 -0.2424851 -0.3026742 -0.14979675 0.1303415 0.22172463
-0.015039553 -0.26752362 -0.2110548 -0.13287409 0.10520267 0.20557782 0.18389268 0.09440327
0.077807985 0.082468964 -0.07259292

bias_hh_l0 f4 [27]
00000000: 634a 58be 33ee 1e3e 4d82 8dbe fe3f 2e3e
00000010: 33bf 953d 21d5 103e fafc 96bd 196b a5be
00000020: d69f 883e 2eea 62be d4cb 99be 5b55 49be
00000030: 42fc 3ebe bf6d 8c3e 3878 94be aba3 87be
00000040: b5e5 76bd 765d a2be 6dd4 f5bc 3235 a13e
00000050: 4269 7f3e 4c38 ad3e 5226 523e 1ee8 53bd
00000060: b274 cdbd cdb5 823e f4d7 443d
-0.21122126 0.15520553 -0.27638474 0.17016599 0.07311859 0.14143802 -0.0737247 -0.32308272
0.26684445 -0.22159645 -0.3003832 -0.19661467 -0.18650916 0.2742748 -0.2899797 -0.26492056
-0.06027766 -0.3171193 -0.030008519 0.31485897 0.24942496 0.33832014 0.2052243 -0.051735036
-0.100320235 0.25529328 0.04805751

weight_ih_l0 f4 [27, 39]
00000000: 2c5b 313e 84ff a3be 101d 813a e1a6 673e
00000010: a8f1 49be f218 5c39 a789 603e d485 7d3d
00000020: ec44 713e 282e e13b ade3 913e b8f1 53be
00000030: 7017 853e 1fe3 8c3e bfee 03be 6034 3bbe
00000040: d252 893e 49ea 07bc f798 643d 6699 e33c
00000050: be85 e0bd aabc a0bd 9d28 abbe 6f17 7bbe
00000060: ce3a 87bd eac6 4dbb 1417 14be 1fe6 443d
00000070: fb89 8bbc 8410 5bbe c9b1 dbbd 4962 433e
00000080: cc9c 99be 3aa4 873e ddea 053d d87f 313e
00000090: d5fb 81be 9ac0 9e3b f906 a0be 87d5 d3bd
000000a0: 3b6f 9abd 42a6 fdbb c241 12be 9e59 adbe
000000b0: d6d3 5e3c 2039 fe3d a088 a83d 0931 9e3e
000000c0: 2b1f 35be 2a42 e13d ef49 8c3e 95a0 863e
000000d0: fb65 be3d f962 0fbe d918 9cbe 82ae af3c
000000e0: 621b 713e 90af 023d 942c 913e d812 f23c
000000f0: 3418 62be 20ff 64be 7db1 96bd 36a7 4a3e
00000100: 83c5 733e 75a8 64be 477e cdbd 8219 a6bc
00000110: adca 163e 2e00 013e 2eb5 913e 27fc 6bbe
00000120: ba7c 15be c056 cebd afb9 323e 7ecb e6bd
00000130: 54c7 963c 6a37 2e3e b315 943e 3e43 553d
00000140: 2a56 cb39 b663 72be da01 06be 7283 2cbd
00000150: ea7b 8ebe 63eb 9a3e f7dc bf3d 51d5 28be
00000160: 1754 9bbe f4f2 313d 46b4 49bd 4a41 abbd
00000170: 7ff7 59be a794 433e 30d4 923d 9274 a0bd
00000180: 15f2 c3bd 562f 3b3e d330 21bd c173 153e
00000190: 9750 a7be e8a5 0d3e 54d7 42be 1b69 943e
000001a0: 434d 123e 928d 39be 4cd1 273b aa5b 87be
000001b0: 4356 9ebe 63f2 7bbe 2a0e 8a3e 5010 04be
000001c0: ce98 a5bd c3f8 a03e 2165 ce3c 3a5a d83d
000001d0: 2158 9a3e d4d9 1fbd dd11 2d3e 38ba 1c3c
000001e0: 8715 153e 262f acbd dbc3 3abd 8efc 5abe
000001f0: 88c4 c6bc 65b5 123d 764d b93d efb6 12be
00000200: 1ef2 36be 174b 693d 0ab0 a33e ca4a 33be
00000210: 9fd5 0dbe 346d 1a3c 0b6a 61bd 3f7a 6e3d
00000220: 4f1b 913e f826 bc3d e1d1 adbd 7433 55be
00000230: 6ec4 71be 0b76 8e3e 1816 3dbe 8cd3 ecbd
00000240: 4294 abbd 000b b9bd 30ba 953e 7473 613e
00000250: e8a4 ac3e 5320 b23c 87e7 e5bd bddf 9f3d
00000260: 8b28 5abe 2246 8b3e 84e7 a0be 7d33 8abe
00000270: af25 21be 6067 04ba 3cbd b3ba 6d02 803e
00000280: a274 81bd 042d dd3c 88c6 19be 8b2f 753e
00000290: bbda c4bd c070 953e 50d5 b93d 2f98 56bd
000002a0: 6cc1 463e 65fd e43d ea43 6cbe ab90 95be
000002b0: a58a 9d3d 0542 0dbe bdd1 6b3e ba6b 0ebb
000002c0: 0716 f33d ae53 61be 61bc 91be cadc 31be
000002d0: a827 9e3d e306 8ebe d147 91be 5795 693e
000002e0: dea4 f53d 522a e1bd c141 fd3d 07c8 8dbd
000002f0: 2fcd 8b3e ae11 68be 3395 903d c0a5 89be
00000300: 594f 6a3d 9f4f 65be fc34 2f3e 69a5 f5bd
00000310: 30ae 2cbd 3223 3c3a c7bc 353e 59ae 093e
00000320: d139 96ba 8217 5b3e 6ea4 043e 8baf 8fbe
00000330: c62b eabb 3a12 f0bd 4736 723e 086d 263d
00000340: acd6 9bbe 9820 eb3c df50 11bd da06 acbe
00000350: 3106 8bbe c2bc 9a3d bcea 9cbe 6c49 79be
00000360: e9e8 033e b50d 6b3e c5b0 2abe b04a 033d
00000370: 33bf 93bd 1b4f e33d 985a 30be 29d7 9ebe
00000380: 2487 94bd ef42 49be de1b 583e a45c 673b
00000390: a177 393e 96ae 71be 9ff8 1fbe cd28 a1be
000003a0: e713 1f3e 6449 8e3c 7163 d0bc 9b0f 26be
000003b0: a78e 2e3b 0435 013e 862c 17be a2c8 2b3b
000003c0: 3420 b33d e192 d6bd 2a2e 6d3d 2bae f1bd
000003d0: e937 3abd e155 27be 95d6 973e 379e ec3d
000003e0: 323e af3d 5b65 b73d 12cb 9f3e 047c 56be
000003f0: 048f 513e 603e 083e 9c77 5e3d 82e1 ecbd
0.17319936 -0.3203088 0.000985058 0.22622253 -0.19721091 0.00020990128 0.2192751 0.061895207
0.23561448 0.0068719573 0.28494015 -0.20697677 0.25994444 0.2751703 -0.12884043 -0.18281698
0.26821 -0.008295604 0.05580994 0.027783107 -0.10963009 -0.07848485 -0.33429423 -0.24520658
-0.06603013 -0.003139908 -0.14461929 0.048071023 -0.017033568 -0.21393019 -0.10727269 0.19080462
-0.3000244 0.26492482 0.032694686 0.17333925 -0.25387445 0.0048447372 -0.3125532 -0.103434615
-0.07540747 -0.0077407667 -0.14282897 -0.33857435 0.01360031 0.124132395 0.08229184 0.30896786
-0.17687671 0.10998948 0.27400157 0.2629439 0.09296795 -0.14002599 -0.30487707 0.021445516
0.23545602 0.03190571 0.28354323 0.029550001 -0.22079545 -0.22362947 -0.07358072 0.19790348
0.23805813 -0.22329886 -0.10033851 -0.020275835 0.14725752 0.12597725 0.28458542 -0.23045407
-0.1459836 -0.1007514 0.17453645 -0.11269282 0.018405594 0.17013326 0.28922805 0.05206608
0.00038783374 -0.23670849 -0.13086644 -0.042117544 -0.27828914 0.3025771 0.093683176 -0.16487624
-0.30337593 0.04344459 -0.049244188 -0.08362062 -0.21285819 0.19099675 0.07169378 -0.07834734
-0.09567658 0.18279776 -0.039353203 0.14594938 -0.32678673 0.1383282 -0.19027454 0.2898644
0.14287286 -0.18120411 0.0025606928 -0.26437122 -0.30925187 -0.24604182 0.2696393 -0.12896848
-0.08085786 0.3143979 0.025194706 0.10564084 0.30145362 -0.039026096 0.16901346 0.009565882
0.14558993 -0.0840743 -0.04559694 -0.21385404 -0.024263635 0.035817523 0.090479776 -0.14327596
-0.17865798 0.056956377 0.31970245 -0.17508999 -0.13851021 0.00942545 -0.05503277 0.05822205
0.28341147 0.0918712 -0.08487297 -0.20820409 -0.23610088 0.27824435 -0.1846546 -0.11563787
-0.08377887 -0.09035301 0.29243612 0.22016698 0.33719563 0.021743929 -0.11225801 0.078063466
-0.21304528 0.27201945 -0.31426632 -0.26992407 -0.15737031 -0.00050508045 -0.0013713012 0.2500185
-0.06321074 0.026999004 -0.1501714 0.23943917 -0.09612032 0.29187584 0.09073889 -0.052391227
0.19409722 0.11181144 -0.23072782 -0.29211935 0.0769246 -0.13794716 0.23029228 -0.002173169
0.11869436 -0.22004578 -0.28464034 -0.1736938 0.077224076 -0.2773963 -0.28375104 0.22810875
0.119943365 -0.109944 0.12366057 -0.06922918 0.2730498 -0.22662994 0.070597075 -0.2688427
0.057204578 -0.22393654 0.17110056 -0.1199444 -0.042158306 0.00071768754 0.17747794 0.13445415
-0.0011461322 0.21395686 0.1295335 -0.28063616 -0.0071463315 -0.117222264 0.23653518 0.040631324
-0.3043722 0.028702065 -0.035477515 -0.33598977 -0.2715316 0.07555534 -0.30647838 -0.24344414
0.12881817 0.22954448 -0.16668995 0.03205365 -0.07214203 0.110990725 -0.17222059 -0.3102353
-0.072523385 -0.1965444 0.2110438 0.003530302 0.18112041 -0.23601755 -0.15622185 -0.3147644
0.15534936 0.01736898 -0.025438042 -0.1621689 0.002663532 0.1261788 -0.14763078 0.0026212116
0.08746377 -0.10477234 0.057905354 -0.11800798 -0.045463476 -0.16341354 0.296559 0.115536146
0.08556785 0.08954879 0.31209618 -0.20945746 0.20464712 0.13305044 0.054313287 -0.1156645

weight_hh_l0 f4 [27, 9]
00000000: 03a3 003c 083f a6be 5406 8c3e c99c 8d3c
00000010: 436f a13e ba3f 80be 81e3 18be 1a1a acbe
00000020: 4fd3 823e 1ffa 363d 62bb 6b3e cd41 82be
00000030: 1980 303e b692 213e fee4 cf3d 557f 0dbe
00000040: 9459 a1bb 730b 95be 3843 1bbe 6b99 723e
00000050: 9239 443d 7720 6e3e a5f7 bfbd b2d4 a8bd
00000060: 0f78 1abe 225b 783e b0a3 b1bc bc5f 833e
00000070: 4987 c73d c77a da3d 5165 343a 2aee f3bc
00000080: b140 69be 86cb 703e 9e34 9d3e 6c6b 903e
00000090: eb1a a5be c98a bbbb fea9 9e3e 6572 c1bd
000000a0: 10d6 37be 8f86 a53e ea3f 2e3d 6c84 31be
000000b0: d423 8b3e 2592 d43d 8705 4d3d 0e20 50bd
000000c0: ee31 8c3e e2ee 8f3e 6023 57bd 83fd 49be
000000d0: ebde 673e dd6a 833c 0716 16be cd8b 9d3e
000000e0: 4c84 97be dc23 51be d158 11bd 2ec2 30be
000000f0: 2c29 a33e 637b 383e d48f 963e 63e1 7f3e
00000100: cde8 a83e 0135 fbbd d5e4 1cbe 0eae a5be
00000110: 4a25 ff3d 6e07 15be 946e 153e 28b9 883e
00000120: 8830 74be f2a3 073e 6a47 9dbc 0ff1 2d3e
00000130: a344 7bbe 44f6 86be 0859 a63d 0f14 22be
00000140: 696d 4abe 9c26 46be 119b 263e 320e 843e
00000150: 5c24 f53c 012e 43be 0245 7e3c 770b c63d
00000160: 4c3b 1f3e 7fcb 873d 9463 b8bd 9885 2dbe
00000170: d583 0c3e 3840 a23e ad13 8a3e 3026 c6bd
00000180: 4586 2e3e b377 fabd e841 4bbd d437 7cbd
00000190: df64 403e 9a5d a8be afaa 6e3e 2c02 8ebe
000001a0: 9e2c 27be a7d4 a4bd 43c2 8d3e 4c8e 383d
000001b0: 3a5a 92be 53a9 59be ede3 9f3e 7e4d 5b3e
000001c0: 9e11 953e 0545 a73e f944 06be 1158 223e
000001d0: 332b 3d3e 436d 50be 9d2a a23d 8e14 5e3d
000001e0: 6be9 083d 61eb a1be 2dff 213e fe81 01be
000001f0: 2773 fe3d 63c9 faba df4b 88be b8d4 2b3d
00000200: 7569 44bd 09fe 73be 1c19 98be 44e7 1b3e
00000210: 4bcf f8bd 990b 5e3e c290 0ebe 685e d33b
00000220: 4179 21be 8420 993e 37ea c43d 9c72 253d
00000230: 014e 93be 254d a63c f65b 1bbd 7558 2c3e
00000240: f9dd 85be 1137 0f3e 8f1f 76bc 4ac9 7cbd
00000250: a736 25bd 3968 673e 1e27 9c3e 8606 62bc
00000260: 1feb 7fbe aabf 58be 414e 323e aaf7 e4bc
00000270: c1aa 793e d3ea 9d3e 971f f03c 8567 9a3e
00000280: 27e9 843c 1845 ad3e cfea aabe 6305 5cbe
00000290: 47a2 e2bd 11a6 48be cc12 853e d3b0 c6bb
000002a0: 1c8e 4abd b1b0 763e 1af7 93be 4c06 dd3c
000002b0: 5451 a1be f396 a1be 25b5 983d 55a8 9ebd
000002c0: daae a4be 0028 70be 5136 513e c31a 8e3e
000002d0: c0d9 d33d 73bc 343d e285 38be 7993 523e
000002e0: 0e86 9a3e 01a6 703e e4d7 b73d f61c a03e
000002f0: 4cef 6b3e 7697 243e d26a ed3d 9fe0 0cbe
00000300: e961 733e b5f8 263e 526a 1b3c 66ed 2e3c
00000310: f8cc 92be b7c7 7c3e 0fd5 1b3e 127b a33e
00000320: 89cd be3c 0e34 a7be 4f9d 97be 2f9b 3e3e
00000330: 34b0 9bbe 4263 323c 7758 2cbd a10b 9d3e
00000340: af48 26bd 1102 1d3e 9bfd 9cbe d14a 083e
00000350: d7cf 9abd 3aa1 2fbe 64ff 60be 7f5c 60be
00000360: 583c e63d 6026 8a3e d949 9e3e 0a95 dfbd
00000370: c7bd 32be bf27 49be 3757 9ebe cecb 8dbc
00000380: 4aed 1e3e 3444 903d 9093 41be 000f 99be
00000390: 29bf 86bd 9b68 3c3e 1536 3bbe 1594 a5be
000003a0: f44a 213e e8be 35bd 6087 6a3e b102 883e
000003b0: dca6 9ebe 3d92 9bbe fd2e 89be b754 aa3e
000003c0: 63a5 1dbe abd2 463e 84b2 d2bd
0.007851365 -0.32469964 0.27348578 0.017286675 0.31530198 -0.2504862 -0.14930536 -0.33613664
0.2555184 0.044672128 0.230207 -0.25440827 0.17236365 0.15778622 0.10151099 -0.13818105
-0.0049240086 -0.29110298 -0.1516236 0.23691337 0.047906466 0.23254572 -0.09373406 -0.082436934
-0.15084861 0.24253514 -0.021684498 0.25658977 0.097426005 0.10667949 0.00068815524 -0.029776651
-0.22778584 0.23515138 0.30704206 0.28206956 -0.322471 -0.0057233316 0.3098907 -0.09445647
-0.17952752 0.32329223 0.042541422 -0.17335671 0.27175772 0.10379437 0.0500541 -0.05081182
0.27381843 0.2811194 -0.05252397 -0.19725613 0.2264363 0.016042167 -0.1465684 0.30770722
-0.29593122 -0.20423836 -0.035485093 -0.17261574 0.3186735 0.18015818 0.29406607 0.24988322
0.32990113 -0.12265969 -0.15321667 -0.32359356 0.12458284 -0.14553615 0.14592963 0.26703763
-0.23846638 0.13246134 -0.019199092 0.16986488 -0.24537902 -0.2635976 0.0812245 -0.15827964
-0.19768299 -0.19350666 0.1627009 0.2579208 0.029924564 -0.19060518 0.015519382 0.096701555
0.15549964 0.06630611 -0.09003368 -0.16945493 0.13722165 0.3168962 0.26968136 -0.096752524
0.17043407 -0.12229862 -0.0496234 -0.06157668 0.1878848 -0.32883912 0.23307298 -0.27736032
-0.16325614 -0.08048373 0.27687272 0.04505758 -0.28584462 -0.21255998 0.3122858 0.2141628
0.29115003 0.32669845 -0.13112248 0.15853907 0.1847351 -0.2035418 0.07918284 0.05421882
0.03342573 -0.31624892 0.15819998 -0.12647244 0.12424307 -0.0019133504 -0.26620385 0.04195091
-0.047952134 -0.23827375 -0.29706657 0.1522494 -0.12148913 0.21684112 -0.13922408 0.006450463
-0.15768911 0.2990762 0.096149854 0.040392503 -0.2877045 0.020300457 -0.037929498 0.16830619
-0.26145914 0.1398585 -0.015022173 -0.0617154 -0.040335324 0.22598352 0.30498594 -0.013795501
-0.24992035 -0.21166864 0.17412664 -0.027950127 0.24381544 0.3084322 0.029311938 0.30157104
0.016224457 0.33841777 -0.3338227 -0.2148643 -0.11066108 -0.195946 0.25990903 -0.0060635596
-0.049451932 0.2409084 -0.2889946 0.026980542 -0.3150736 -0.31560478 0.074564256 -0.077469505
-0.3216465 -0.23452759 0.20430876 0.27754793 0.10344267 0.04412503 -0.18019822 0.20564069
0.301804 0.23500825 0.08976725 0.31272095 0.23040503 0.16073403 0.1159264 -0.13757561
0.23767819 0.16305812 0.009485798 0.010676717 -0.28672004 0.2468556 0.15217994 0.31929833
0.023291366 -0.32656902 -0.29612204 0.18613885 -0.3040787 0.010887923 -0.042076554 0.30672935
-0.04059666 0.1533282 -0.30662236 0.1330979 -0.075591736 -0.17151347 -0.21972424 -0.21910284
0.112419784 0.26982403 0.30915716 -0.10917099 -0.17455207 -0.19644068 -0.30925915 -0.017309096
0.15520206 0.07044259 -0.18903947 -0.29894257 -0.0657943 0.18399279 -0.1828235 -0.3233954
0.15751249 -0.044371516 0.22903204 0.26564553 -0.3098668 -0.30385008 -0.26793662 0.33267757
-0.15395121 0.19416301 -0.102879554

bias_ih_l0 f4 [27]
00000000: 766e 6b3d fd90 323e 048d 7fbe 2199 3dbd
00000010: dd24 fa3d 3def 86be a24b 4a3d 5025 65be
00000020: a985 d73c ca2a 00bc 3142 b13b a02e de3d
00000030: 2c54 48be 18f5 02be 3e82 46bd b673 a93e
00000040: 88c5 5bbe 3efd febc 4d26 96be d9c4 95be
00000050: 145c 21be c6c9 e83d 38e3 823d a21e 99be
00000060: 6b62 06be 6b86 3a3d 9400 993e
0.05747839 0.17438121 -0.24956137 -0.046288613 0.12214062 -0.263544 0.049388535 -0.22377515
0.026308851 -0.007822702 0.005409502 0.10848737 -0.19563359 -0.12788808 -0.048464052 0.33096093
-0.21462071 -0.031126615 -0.29326096 -0.29251745 -0.15757781 0.1136661 0.06390995 -0.29906183
-0.13123481 0.045538347 0.29883254

bias_hh_l0 f4 [27]
00000000: 8e25 cf3d ac6e 153e f88a a4be 9398 98be
00000010: dfb3 09bc 8ad2 1e3e 4939 aa3d 504a 823e
00000020: 2761 de3d 63ef 00be 5695 413e f5b4 a1be
00000030: 1cdc c9bd 741a 98bd 87d9 39be 81d1 003e
00000040: b222 163d 6259 80be 137d fbbd 89ed e5bb
00000050: 0be2 493e 924e 9abd 886b a63e 9c06 813e
00000060: 0160 35be 0ba1 edbd 48aa 073e
0.10114585 0.14592999 -0.32137275 -0.29803905 -0.008404701 0.15510002 0.083117075 0.2544732
0.10858374 -0.12591319 0.18904623 -0.31583372 -0.09856436 -0.074269205 -0.18149386 0.1257992
0.03665418 -0.25068194 -0.122797154 -0.007016842 0.19715135 -0.07534517 0.32503915 0.25200355
-0.17712404 -0.11602982 0.13248551

weight f4 [9, 9]
00000000: 18b4 8fbe 8509 2c3e 2a67 6ebe ff17 033e
00000010: ee8a e9bd c9eb 28be 2235 8cbe bbeb 04bd
00000020: 356c 703e 4755 ac3d 0522 88be 3e68 9b3e
00000030: e0cd 833e 6c74 07be df1f 57be d108 55be
00000040: 223a 443e a036 0fbe 0946 a4bd 5949 e23d
00000050: 965b b2ba 3c47 4cbc b8ac 563d e455 debc
00000060: a9b1 4fbd bfa8 e73d 40ca 5dbd 8a2f 833e
00000070: a4da 4d3e 1bba 7fbd 74e1 aabd f5b9 133e
00000080: 2b3b 9e3e 2562 2bbd 2753 173c 6cbd 49be
00000090: 4bf1 3f3e 3af0 83be f560 f03d aee4 91be
000000a0: 7c96 e9bd 83ba 8cbe c688 993e b66a f3bd
000000b0: 986f adbe 2be3 20b6 3d65 a2bc a0a4 083a
000000c0: e386 8bbb 93e0 4abd 2e39 ccac 9ddf 3abd
000000d0: d1f8 832d 0acf 303c 08ad bbbd c297 cb3a
000000e0: 8d57 d3bc d516 483c 6f51 82be afd6 9e3e
000000f0: b7f4 e9bc c210 a23e 7098 39bc c492 8bbe
00000100: 3022 193e e5fa a0bd d174 a4be ce4b 74be
00000110: cb87 1fbe 6383 5fbe 228f 213c d7f0 2b3e
00000120: c1d4 3abe 6fc9 a23e fa55 96bd 84d6 2a3b
00000130: 6af7 a23e c165 353c 59c9 23be db4a 273e
00000140: e283 99be
-0.28067088 0.16800506 -0.23281541 0.12802123 -0.11403452 -0.16496195 -0.27384287 -0.032451373
0.23478778 0.08414703 -0.26588455 0.30352968 0.25743008 -0.13228005 -0.21008252 -0.20804144
0.19162801 -0.13985682 -0.08021171 0.11049146 -0.0013607617 -0.0124681555 0.05241081 -0.027140565
-0.05070654 0.11311483 -0.05414796 0.25622207 0.20102936 -0.062433343 -0.08343783 0.14426406
0.30904517 -0.041841645 0.009236134 -0.19701165 0.1874439 -0.25769216 0.11737243 -0.2849478
-0.11405656 -0.27486047 0.29987162 -0.11885588 -0.33874202 -2.3974087e-06 -0.019823665 0.00052125193
-0.004258023 -0.049530577 -5.804377e-12 -0.04562341 1.5003472e-11 0.010791549 -0.091638625 0.0015532898
-0.025798583 0.012212475 -0.25452754 0.31023166 -0.028559072 0.3165341 -0.011327848 -0.2726041
0.14954448 -0.07860354 -0.32120374 -0.23857042 -0.15579145 -0.21827464 0.009860786 0.16791092
-0.18245222 0.31794307 -0.073406175 0.0026067803 0.31829387 0.011071623 -0.15994777 0.16337149
-0.2998343

bias f4 [9]
00000000: 8b4a a43e 1e7d d4bd e7f3 9d3d 72fb d23d
00000010: 5615 5e3e f79c 92bb fbcb 573e 1bcc bfbc
00000020: 64d8 733e
0.32088122 -0.10375427 0.07712536 0.10301866 0.21687827 -0.004474278 0.21073906 -0.023412755
0.23813015

weight f4 [720, 18]
00000000: d14a 89bd 7e36 0dbe 2a1d 2fbe 5bea 50be
00000010: 4f5b a63d cf14 533e 6282 2f3e ed43 66bd
00000020: eeea babd e15b 283e 418c 183e c2de 75be
00000030: f870 833d f53c 193c e0da 17be 685e 1d3e
00000040: e65c 98bd aecd dcbd 93bb 943d e35a 233c
00000050: 5bef 45be 124a 553e 332c 01be 07dc 2abe
00000060: df30 583e 633b e53d d220 ebb9 feb6 543e
00000070: 482c 13be 9901 2f3e 0c75 8cbd ea9e 883c
00000080: 4b3f 4f3e 0b8a 75bd 3fbb 71bd c9af 8cbb
00000090: 3656 163b 65c2 15af 1569 11b7 5ada 82b6
000000a0: bc0c 7cae 0454 6bbb 5c17 5431 96c5 bf30
000000b0: bdc9 d03b 284d b4af b40a 102d 4e1a a33b
000000c0: 80e8 d5b5 cbb1 d3bb 5cac 873a ecda c231
000000d0: 631a 27b8 17aa 96ba 0ea8 dbbd a0e6 c6bd
000000e0: 156b be3c a46b 5fbe d826 5f3e c25d 083d
000000f0: cb55 213e d2e9 0a3e abca 023e 8c5c b0bd
00000100: 7268 683e f3e6 833c b648 99bd f459 5a3e
00000110: 9d83 333e ac64 3bbe 9a64 2c3e 6ca3 9c3c
00000120: 02c7 2bbd 612c c4bd b19d 20bd 9605 84bd
00000130: 9053 0cbc 8f7c 92bd c18a 5fbe 0ef6 dcbd
00000140: f85b 53be c237 683d 0552 3a3e 1f80 de3d
00000150: e84b 353e 7ee9 58be d1de 163d ed7a df3d
00000160: 4c50 07bc bae7 053e 2714 cc3d db07 03be
00000170: 1b4d 3abe ca2e b5bd e555 993d f8bc 83bd
00000180: a912 e93d fbdc 983d 7a4b 1ebc 3eaf f53d
00000190: 494c 24be bf11 4f3e 8865 243e 104e 373e
000001a0: 7326 763e 9bcd 3abe 6eb0 433c d764 1f3e
000001b0: 66de 50be f153 14bc e085 eebd cfc5 263e
000001c0: fa79 6d3e 3fb7 743e e94e ae3d 84ab 703e
000001d0: c237 d03d 8bc3 553e bb2e a2bd de8f 803d
000001e0: 20b0 2d3d 402b ee3d ceac d0bd 683c b73d
000001f0: b30e 643e 280f ef3d db16 eb3b 4a1a 55b2
00000200: 130e a0ba 5a7d 6fb3 b6a2 b2b9 b44f 6caf
00000210: b85d fc33 2de8 10bc dce6 96b5 9374 ae3b
00000220: 8092 5cab ea38 8db0 3adf 4eaf 904e ef2f
00000230: a344 8c2d abe3 0fba 481a 44bc 01ce 6eb6
00000240: ba8f cbae e46e 53bc f19b 352e d482 77b9
00000250: df0e 78b9 afb9 f53a 85e8 ecb7 e7a6 3d2f
00000260: 6dec c530 289f c8ac 8feb 03bb 3a2e 453c
00000270: 1791 14b8 0f78 9ab5 4fd1 1abc 941e 03b4
00000280: 1bd8 18ad d68a 393b dc3d 1f31 e5fc 973a
00000290: 18b1 85ba 66e7 2339 98c0 22bc 82b9 47ad
000002a0: 9f1e c239 c0d8 a0ad bc35 0b3c 7dea 5f39
000002b0: 3cac d8af 8bd3 9e2e ac5a 66af 1dc7 3537
000002c0: 705e 76ba fa31 9c3a bdcf b3b6 8952 162e
000002d0: 4fe6 8abe 139b 09bd b4c3 cfbd 6926 073e
000002e0: af7e a23d 6ad5 9f3c 07f9 99bd 9095 1bbd
000002f0: 93e7 a1bb f61e 6d3d 5847 053e bf3c 84bd
00000300: 35ad 1dbe 18ac cfba dbc5 9e3d 884d d93c
00000310: d892 823e 33f7 d1bd 47a8 22be 98f3 2a3e
00000320: e211 453e 55a5 183e 5332 623c 4c0b d3bd
00000330: e949 fa3d 1e1b 05bc ea71 583e 8bf3 18be
00000340: f78b 6c3d ecb4 c2bd eabe 56be c62f 03be
00000350: da11 22be 360c 3bbe b944 41be 0566 b4bd
00000360: 82da bbbd b467 193e c964 333e 8463 a0bd
00000370: 037d ed3d 20c5 fc3d cbef f3bd 2d85 973d
00000380: 153e 3fbc 6a71 693e 4d28 adbc 4be8 563e
00000390: 7f9e 31be 483a d3bd 515e 053e 1a7c de3c
000003a0: 553b 593e 1369 073c fdbe 653e c09e a2bb
000003b0: 474d 823d f30d a4bd 8a28 2cbd 939e 1b3e
000003c0: 5ada c2bd e600 d13d a21c e3bd ccd4 183e
000003d0: f49d 613e c09c 5f3e c63d 393e 99ad 443e
000003e0: 46ab 543d 3318 3f3c 3edc 4dbe b9da 8e3c
000003f0: 5a0f 373e e8e3 a93d b497 21be 24de 773d
-0.06703723 -0.13790318 -0.17100969 -0.204019 0.081228845 0.20613407 0.17139581 -0.056217123
-0.091268405 0.16441299 0.14897253 -0.24010757 0.064180315 0.009352912 -0.14829588 0.15368044
-0.07439594 -0.10781418 0.072623394 0.0099704 -0.19329588 0.20829037 -0.12614517 -0.16685496
0.21112393 0.11192968 -0.00044847146 0.20772931 -0.1437236 0.17090453 -0.068582624 0.016677339
0.20238988 -0.0599461 -0.059016462 -0.004293416 0.002293957 -1.3620534e-10 -8.66714e-06 -3.8997214e-06
-5.7309477e-11 -0.0035908232 3.0863339e-09 1.3953236e-09 0.0063717053 -3.2796632e-10 8.187829e-12 0.004977501
-1.5937403e-06 -0.0064604036 0.001035105 5.6710316e-09 -3.9840477e-05 -0.0011494783 -0.10725413 -0.09711957
0.02324442 -0.21818405 0.21792161 0.03329254 0.15755384 0.13565758 0.12772624 -0.08611402
0.22696093 0.016101336 -0.07484572 0.21323377 0.17530675 -0.18300122 0.16835251 0.019120894
-0.041937836 -0.09578777 -0.039212886 -0.06446378 -0.008564845 -0.07152664 -0.21830274 -0.10789119
-0.20640552 0.0566938 0.1819535 0.10864281 0.17704737 -0.2118282 0.036833588 0.10912118
-0.00825889 0.13076678 0.09964781 -0.12795965 -0.18193476 -0.08846815 0.07487086 -0.06432527
0.11380512 0.07464024 -0.00966155 0.119963154 -0.16044725 0.20221613 0.16054356 0.17900872
0.24038105 -0.18242495 0.01194392 0.15565811 -0.20397338 -0.009053216 -0.116466284 0.16286395
0.23191062 0.23898028 0.08511145 0.23502928 0.10166885 0.20875375 -0.079190694 0.062774405
0.042404294 0.11629343 -0.1018921 0.089470685 0.22271232 0.11672813 0.0071743554 -1.2404209e-08
-0.0012211226 -5.576053e-08 -0.00034072035 -2.1492391e-10 1.1751712e-07 -0.0088444175 -1.124306e-06 0.0053239553
-7.836301e-13 -1.0275276e-09 -1.8814897e-10 4.352967e-10 1.5946638e-11 -0.0005488942 -0.011969157 -3.5584674e-06
-9.256902e-11 -0.012904856 4.129314e-11 -0.00023604493 -0.00023656663 0.0018747355 -2.8241668e-05 1.7248745e-10
1.4400833e-09 -5.7020118e-12 -0.0020129418 0.012034947 -3.5421075e-05 -1.1508836e-06 -0.009449317 -1.221145e-07
-8.688185e-12 0.0028311512 2.3172708e-09 0.0011595754 -0.0010199873 0.00015631094 -0.009933613 -1.1353031e-11
0.00037025378 -1.828615e-11 0.008496698 0.00021354291 -3.941255e-10 7.222586e-11 -2.0950591e-10 1.08348e-05
-0.00093982276 0.001191675 -5.3587996e-06 3.4179357e-11 -0.27128837 -0.033595156 -0.10144749 0.13198246
0.07934319 0.019510943 -0.07518201 -0.03798443 -0.004940936 0.057890855 0.13015497 -0.06456899
-0.15398104 -0.0015844135 0.07752582 0.026526228 0.25502658 -0.10252228 -0.15884505 0.16694486
0.19245103 0.14906819 0.013805944 -0.10304889 0.122211285 -0.008124141 0.21137205 -0.14936654
0.05775067 -0.09507164 -0.20971265 -0.12811193 -0.15827122 -0.18266377 -0.18873872 -0.08808521
-0.091725364 0.14980966 0.17518915 -0.07831481 0.1159611 0.12342286 -0.11910971 0.07398448
-0.011672516 0.2279717 -0.021137381 0.2098705 -0.17345618 -0.10313851 0.1302426 0.027158786
0.2121404 0.008264798 0.22436137 -0.004962772 0.06362396 -0.08010473 -0.04203085 0.1519721
-0.095143035 0.102052495 -0.11089446 0.14924926 0.2203291 0.21837139 0.18089971 0.19206847
0.05192115 0.011663484 -0.20103547 0.01743828 0.1787695 0.08295423 -0.15780526 0.060514584
