ERTSNet/new_arch_LA/decimation/model/best-model_r0_J2_2passBaseOn-15.pt (torch, 375010 bytes, 64 tensors)

weight_ih_l0 f4 [27, 15]
000000 a2 b9 00 3b 7d d1 08 23 56 fd f6 39 b7 4c 16 bb
       0.0019641896 7.416936e-18 0.00047109526 -0.002293391
000010 32 78 0a b6 59 d0 6e ba ba ee c3 ba e2 5d 46 39
       -2.0633565e-06 -0.0009110026 -0.0014948465 0.00018917726
000020 d8 76 ee 38 8d 2f 88 21 2c 70 75 39 a4 10 cd 39
       0.00011370861 9.228305e-19 0.00023406808 0.00039113045
000030 49 17 da 3a f9 3d cf 37 ca 44 67 3b d3 d3 67 bd
       0.001663902 2.4705181e-05 0.0035288804 -0.056598496
000040 9c a4 a6 9f b1 05 4f bc b4 5c bf bd a3 0e 56 b9
       -7.057606e-20 -0.012635634 -0.093438536 -0.00020414083
000050 ac 00 8a 36 96 d9 12 3c f7 55 9e b2 16 cb c4 bc
       4.1127987e-06 0.008963009 -1.8432713e-08 -0.02402262
000060 7d 73 8d 25 47 42 c2 3a 97 41 d7 3b b1 bc 77 3d
       2.453786e-16 0.0014820778 0.006569098 0.060482685
000070 cc f6 90 3a ff 0f a4 3b ba 57 33 3c fa 2e d0 b6
       0.0011059879 0.0050067897 0.010946209 -6.204352e-06
000080 57 80 bb ba a8 f4 0a b9 da 02 06 39 5b 6a 4d b1
       -0.0014305216 -0.00013251847 0.00012780298 -2.9891882e-09
000090 a1 f6 52 ba a3 4c 80 ba bc de 5a b9 47 69 49 9e
       -0.0008047615 -0.0009788465 -0.00020873075 -1.0662622e-20
0000a0 94 e3 90 39 5d fa 9e 3a fc ec 96 3a cd 46 95 b9
       0.0002763538 0.0012129057 0.0011514719 -0.00028472245
0000b0 b2 a3 08 3a 31 47 fb 3b e8 49 1b bb 25 1a bd bc
       0.0005212381 0.007668399 -0.0023695175 -0.023083756
0000c0 61 4d b0 ba d1 ea 51 b8 81 5d 00 b3 74 84 39 3d
       -0.0013450795 -5.0048173e-05 -2.9887364e-08 0.045292333
0000d0 a8 87 21 b6 8c e3 70 ba 87 a7 fb 3a ce 44 01 bd
       -2.4069832e-06 -0.00091891806 0.0019199707 -0.031559758
0000e0 12 6b 96 b8 30 8a 5c bd b2 e6 c1 3a 41 b6 d0 3c
       -7.172501e-05 -0.053842723 0.0014793484 0.02547753
0000f0 4c 3a 55 3a 2f 2e a2 1e 49 d3 86 ba a1 ec 17 ba
       0.0008133992 1.7171518e-20 -0.0010286357 -0.00057954533
000100 88 0a 6f b7 a0 d3 30 3a e5 75 17 3a a7 9c 98 3a
       -1.4247962e-05 0.0006745402 0.00057777605 0.0011643366
000110 4b 71 31 ba 23 6c e4 b2 69 98 b3 37 2c f7 81 3b
       -0.0006768896 -2.6591868e-08 2.1409434e-05 0.0039662328
000120 d8 08 33 bc e3 0a e2 b9 4d 76 19 bb ac 69 7f bd
       -0.0109274015 -0.0004311419 -0.002341646 -0.062356636
000130 39 7d a1 2c 96 63 b5 3b 5c 35 bf 3c ac 2c dc 37
       4.5897977e-12 0.005535553 0.023340873 2.6246846e-05
000140 02 a1 01 32 19 6c 12 bd 5e 1f 54 23 51 1d 21 3a
       7.545397e-09 -0.03574762 1.1499185e-17 0.0006146031
000150 d2 77 0e b7 8d 68 5f ba 3a 05 94 bb 99 ec 6f bd
       -8.491757e-06 -0.0008522354 -0.0045172246 -0.058575246
000160 6d 65 05 3a 5f 14 9d 38 44 db 5e 3c 24 50 0a 3b
       0.0005088661 7.490138e-05 0.013602082 0.0021104896
000170 7c 6c c6 bb 79 d7 68 bb b8 07 b7 36 b6 9d 00 38
       -0.006055413 -0.0035528822 5.4547236e-06 3.0664458e-05
000180 66 af 17 ba 72 20 c0 b4 dc 25 fd b9 63 2a ea 9f
       -0.0005786329 -3.5786394e-07 -0.00048284128 -9.917298e-20
000190 ac 69 0e b9 f1 68 92 b7 6a 03 ed bc 8c 31 3d 39
       -0.00013581541 -1.7453423e-05 -0.028932292 0.00018042902
0001a0 f2 df 52 3b 12 9b 45 3e 3e 45 18 b9 04 b3 50 bc
       0.003217694 0.19297436 -0.00014521644 -0.012737993
0001b0 c3 09 c4 bd dc 7d 05 39 95 c4 6f b2 92 af 89 3b
       -0.095721744 0.00012730755 -1.39563285e-08 0.004201838
0001c0 a4 1b 8f 3a d1 44 5f bd e0 a0 ae b7 85 02 c9 ba
       0.0010918272 -0.054508988 -2.081733e-05 -0.0015335834
0001d0 d5 fa a4 ba 20 5a aa 3d a3 7a a5 3a 63 d5 9e 3c
       -0.0012586961 0.08317971 0.001262505 0.01938886
0001e0 26 e3 93 3d aa 9b 4f 9f 21 1b 21 bd ce d9 8d 3d
       0.072210595 -4.3962717e-20 -0.039332513 0.069263086
0001f0 7d 9a b7 3b 72 17 52 b8 24 10 1a be aa 95 05 3b
       0.0056031332 -5.0089737e-05 -0.1504522 0.0020383396
000200 23 ed 3a 3d 15 81 af 21 fb 35 87 ba 3a 57 3f b9
       0.045636307 1.1892629e-18 -0.001031577 -0.00018247674
000210 62 00 8e bd 4e d3 01 3a 0a d0 bb bc bc d9 33 bb
       -0.06933667 0.00049524463 -0.02292635 -0.0027443012
000220 fb cf 6c a1 ef 46 ef ba 58 a2 e2 38 a1 03 b4 b7
       -8.023517e-19 -0.0018255393 0.00010806759 -2.1459362e-05
000230 f4 5f 9a b8 c5 da 83 3c 76 ed 95 39 3a cf 31 b7
       -7.361165e-05 0.016095528 0.00028596417 -1.0598271e-05
000240 ac f1 bd 2a d3 03 aa 38 9c 26 87 ba 32 7f 58 bb
       3.3740838e-13 8.106944e-05 -0.0010311189 -0.0033034799
000250 db 38 01 38 eb 3e ae b9 f6 7d 89 bc ba 8b 6a 9e
       3.0808947e-05 -0.00033234744 -0.016783696 -1.2416752e-20
000260 5a 26 12 bd ab c9 74 bb 21 48 9a 37 e1 25 73 31
       -0.035681106 -0.0037351649 1.8391818e-05 3.5382686e-09
000270 1c 0e 4a bd e2 0e 3d ba 9b 20 99 ba f4 3a 9e ba
       -0.049329862 -0.00072119955 -0.0011682691 -0.0012072013
000280 40 e4 57 3b f5 6b ec ba 8e 77 92 b9 33 9a 46 ba
       0.0032942444 -0.0018037545 -0.00027936365 -0.0007576078
000290 0c b0 50 ba 6b 55 a0 bb 00 84 29 b8 6e 83 27 bb
       -0.00079608033 -0.004892995 -4.0415674e-05 -0.0025560516
0002a0 18 58 ad ba 87 50 42 35 ae 74 0d 3a 4e e9 7e bb
       -0.0013225107 7.2387814e-07 0.000539611 -0.0038896385
0002b0 3e 6b 05 ba 12 15 f1 ba 00 ac 9e 39 fe b5 57 b8
       -0.00050895277 -0.001839312 0.00030264258 -5.1429488e-05
0002c0 9f 18 27 ba 17 08 2b bb ea ad f6 b9 a3 e8 ad 39
       -0.0006374213 -0.0026097351 -0.00047050352 0.0003317046
0002d0 67 f1 a9 3d e3 e0 ca 9f b0 29 be ba 02 13 e9 ba
       0.08297997 -8.592237e-20 -0.0014508273 -0.0017782154
0002e0 92 ea 84 36 cd bc 23 b2 f3 ef 88 bb b6 9e 5d 22
       3.961214e-06 -9.530777e-09 -0.004178995 3.0035106e-18
0002f0 5c b6 80 ba bd a9 22 20 e4 ae c3 b9 15 88 6f 37
       -0.0009819972 1.3778095e-19 -0.00037323602 1.4277194e-05
000300 ad 0f 92 3d 96 73 bd b9 4a 00 f7 ba 39 f2 b7 39
       0.07131896 -0.00036135007 -0.0018844691 0.0003508495
000310 b4 c1 b3 9f a6 05 de 3a 91 7b ad 39 4e a5 60 36
       -7.6129904e-20 0.0016938939 0.00033089195 3.347482e-06
000320 1f f8 18 33 9c 58 b8 ba 77 66 37 20 a2 a9 73 39
       3.5615923e-08 -0.0014064494 1.5534606e-19 0.00023237479
000330 00 2c 8c 1d 95 a5 7e 38 b9 74 21 ba 9c f5 ef 39
       3.7103186e-21 6.071253e-05 -0.00061590556 0.00045768626
000340 e6 eb ab 38 5d 5b 67 39 90 da b2 3c 75 65 23 ac
       8.197855e-05 0.00022063912 0.021832734 -2.3220013e-12
000350 46 16 69 bb da c8 00 3a a8 2d 43 36 e5 d9 83 b0
       -0.0035566255 0.0004912742 2.908384e-06 -9.593434e-10
000360 6f 34 25 3b 92 06 1b a0 5d 5a ea 3a 93 a5 60 31
       0.0025208255 -1.3131185e-19 0.0017879714 3.2690408e-09
000370 f6 12 0a 3b 66 e5 20 3a 1d 60 b6 3b b5 f9 f0 39
       0.002106843 0.00061376987 0.005565657 0.00045962413
000380 b0 90 cd b8 4c 6d 27 37 42 9d 3c 3a c9 7f 86 bb
       -9.802112e-05 9.979423e-06 0.0007195064 -0.0041045886
000390 cd 76 ff b9 73 57 22 35 a6 c2 76 33 cb 4c 22 bd
       -0.00048725904 6.047696e-07 5.745337e-08 -0.039624017
0003a0 10 a4 53 a9 e5 6e bd b9 d9 da 5d 22 c6 78 1b ba
       -4.6993713e-14 -0.00036131512 3.0066942e-18 -0.00059307774
0003b0 b9 d2 51 ba e9 c0 56 bb 13 a8 37 38 a7 8d 10 bb
       -0.00080041174 -0.0032768792 4.378713e-05 -0.0022057088
0003c0 ce da 54 3b a6 c5 0f a2 22 99 b8 ba 76 55 92 3c
       0.003247905 -1.9484748e-18 -0.0014083723 0.017863017
0003d0 27 6d 1e 37 fd 28 38 b3 9b 3c 4c bb f9 d9 29 24
       9.442948e-06 -4.2878117e-08 -0.0031164053 3.6830663e-17
0003e0 46 4e d9 ba 6a 9f 47 35 9f 2e 0f b9 ac ba 1c ba
       -0.0016579113 7.4365255e-07 -0.0001365491 -0.0005978744
0003f0 b3 03 5c bc 3d 85 93 b9 78 c8 55 3c 21 e3 8a 3b
       -0.013428616 -0.00028137295 0.013048284 0.0042385017

weight_hh_l0 f4 [27, 9]
000000 86 0a 17 39 b6 11 ec b8 c5 67 b1 3b 81 ef 27 ba
       0.00014404402 -0.00011256656 0.0054139816 -0.00064062333
000010 4e a0 bc ba d3 fd f5 b9 14 18 f4 b9 0b b1 4c 3a
       -0.0014391036 -0.00046919155 -0.00046557246 0.0007808364
000020 0c 0b 96 bb 5c 6b ec bb 06 65 f1 bd 6d b8 1d 3c
       -0.0045789536 -0.0072149467 -0.11786847 0.00962649
000030 90 27 17 3c ff e4 e3 bc b8 57 0a 3a e1 0f e6 bc
       0.009225741 -0.027819155 0.00052773533 -0.028083744
000040 d8 7e 82 3b 48 d4 2c 3a 5f f9 ee ba b4 01 96 3b
       0.003982406 0.00065929117 -0.0018232277 0.0045778397
000050 db e7 04 3a 37 de 08 b9 04 d8 7e 3a a2 80 1e ba
       0.00050699495 -0.00013052752 0.000972152 -0.00060463895
000060 df 1c 12 3a c8 45 cf b9 82 ab 6b ba b3 40 1a 3c
       0.000557376 -0.00039534108 -0.0008990095 0.00941484
000070 f9 52 b8 bd 4a 77 76 3d 89 91 e5 bc 24 8b c0 bd
       -0.09000201 0.060172357 -0.028023498 -0.09401539
000080 e5 62 20 3a 5a 09 96 3c 72 ac 48 bd bc 5e d0 3c
       0.0006118252 0.018315006 -0.04899258 0.025435798
000090 8b 44 d1 39 bb 62 dc 39 2f d5 95 bb 54 17 83 38
       0.00039914655 0.0004203523 -0.0045725326 6.250912e-05
0000a0 90 a4 ca 3b e7 ce a1 b8 ca 23 e5 39 49 b4 62 b9
       0.006184168 -7.715617e-05 0.0004370495 -0.00021620201
0000b0 d7 19 2b 39 db f5 34 3a 75 7c 38 bc 3f ce a5 3c
       0.00016317457 0.00069030904 -0.011260142 0.020239947
0000c0 be 18 ca 3c 97 da 9c bd b7 ce 80 3a e6 0e d9 bb
       0.024670001 -0.0765888 0.0009827231 -0.0066240905
0000d0 64 ca b8 ba ad 52 0d bb 86 b5 3f 3a 75 59 2d 3c
       -0.0014098403 -0.0021564171 0.0007313121 0.01058041
0000e0 05 fb 51 ba ae 50 c5 3a bc 9f ca 3c 51 7b db 39
       -0.0008010122 0.0015053952 0.02473437 0.00041862813
0000f0 d1 1a 57 39 c0 0c a5 ba 25 c5 fc ba e2 ef 8e 3a
       0.00020513988 -0.0012592301 -0.0019284828 0.0010905231
000100 9c 38 07 be 56 68 87 3d 2a 43 a9 bd b7 bb da bd
       -0.13205189 0.066116974 -0.08264764 -0.10680335
000110 29 3c 9a 3c 16 6b 68 3c 9e a6 b4 ba fc be d9 b8
       0.018827515 0.0141856875 -0.0013782566 -0.0001038294
000120 92 47 be 39 50 8c 00 be 17 51 de 3d e9 c3 62 bc
       0.00036292948 -0.12553525 0.108553104 -0.013840654
000130 d8 5c 6a bc 52 75 cc b9 45 a1 8a 3d d2 6f 42 bd
       -0.014304362 -0.00038997323 0.06769041 -0.04746992
000140 45 84 8f bb cb 25 00 bb 4e d8 38 ba 79 33 7c 3b
       -0.0043797814 -0.0019553776 -0.0007051275 0.0038482829
000150 7b 68 8b 3a 51 ca ea bb 1e 5d 01 3a 60 c8 74 3b
       0.0010635996 -0.0071652313 0.0004934835 0.0037350878
000160 6a 90 29 b9 c7 ec c7 ba 08 5f 98 b9 99 dd ff 3b
       -0.00016170894 -0.001525306 -0.00029062503 0.007808399
000170 e5 0c a3 3b 43 ec f6 3a 64 ec 00 3d ba e6 13 3a
       0.0049759024 0.0018838722 0.03147544 0.0005641986
000180 99 68 d6 bb 4c 02 f0 3a 94 68 b0 3b 8d 61 b4 38
       -0.0065432307 0.0018311231 0.0053835604 8.601239e-05
000190 7b 85 ba ba 80 a5 9f 3b 2a a2 f4 3a 16 34 0a bb
       -0.0014230454 0.004872024 0.0018664051 -0.0021088175
0001a0 d6 b5 86 3a 72 dd 61 3a dd e8 d8 39 9b df 87 b9
       0.001027758 0.0008616067 0.00041372227 -0.00025915806
0001b0 3d 41 4d bb 58 04 35 bc 21 68 c7 3a 1c 77 4d bc
       -0.0031319403 -0.011048399 0.0015213528 -0.012540605
0001c0 61 51 d3 ba 1f ef 23 b9 28 44 66 39 8b 4f 30 3a
       -0.0016122275 -0.00015633971 0.000219599 0.000672572
0001d0 9a 66 17 3c 55 c7 2b 3b b7 51 f9 39 7b 70 a9 b9
       0.009240771 0.002621134 0.00047553863 -0.00032317996
0001e0 38 60 5d 3b fa f7 e5 bb 9a 8a 5f b6 f6 e0 98 38
       0.0033779275 -0.0070180865 -3.3310266e-06 7.289827e-05
0001f0 db 94 ba 39 07 fc c7 b9 16 88 84 ba 5d 05 fc ba
       0.0003558759 -0.00038144013 -0.0010111358 -0.0019227673
000200 57 3e 2d 3c 17 8d f8 ba 76 ee fb bc 85 3c 2c ba
       0.010573945 -0.0018962946 -0.030753355 -0.00065702974
000210 2b c2 a2 ba d6 c5 00 3b 0b e8 c7 37 38 7c ee 39
       -0.0012417486 0.001964917 2.3830702e-05 0.00045487448
000220 f2 c2 4d ba f0 68 d5 ba 73 4b f8 3a 90 57 bf ba
       -0.00078491785 -0.0016281884 0.0018943384 -0.0014598239
000230 76 0e 43 3a 47 0f 42 b8 44 50 6c b8 12 ca 1f 3b
       0.00074408145 -4.6267432e-05 -5.6341538e-05 0.0024381918
000240 28 ec 7f 3b 67 e2 89 bb c3 d8 6d bc dd 5b 9d 3b
       0.0039050672 -0.0042078975 -0.014517012 0.0048022107
000250 f1 53 84 3c 1b 12 6e 3a ac 01 8b 3a 7e c0 2f b9
       0.016153308 0.00090816774 0.0010605357 -0.0001676101
000260 ca 44 13 ba 53 6a be 39 cb b1 95 bb 66 b6 75 3a
       -0.00056178553 0.00036318842 -0.0045683137 0.0009373188
000270 02 de c1 39 0e c9 9f bb f6 f4 4b ba b2 4b 3e bb
       0.00036977237 -0.0048762625 -0.00077803375 -0.0029036817
000280 b6 d1 19 3b 05 4c 89 3b 65 7a 9b bc c9 65 97 3e
       0.0023470945 0.0041899704 -0.01897926 0.29569843
000290 b4 40 02 be d0 0f 6e 3e 8e bd 14 3e 66 10 92 bd
       -0.12719995 0.2324822 0.14525434 -0.07132034
0002a0 a5 4e d7 bd 1e ee d4 3d cb fa d0 3d 9f f7 13 3e
       -0.10513047 0.1039698 0.10204085 0.14449929
0002b0 8c 56 88 3e 1d 08 b6 bd ff 15 6c 3e 8c 00 b4 3d
       0.2662853 -0.08888266 0.23055266 0.08789167
0002c0 52 e4 00 be 55 d2 56 be 9a 95 ad bc e6 dd af bd
       -0.12587097 -0.20978673 -0.0211895 -0.08587246
0002d0 9f 6b c1 3b bd f5 33 be d7 93 2b be 82 f1 40 3e
       0.005902722 -0.1757421 -0.16755615 0.18842128
0002e0 f9 64 25 be 90 38 98 bd 33 9f fd bd cc 7a 9a 3d
       -0.161518 -0.074326634 -0.123838805 0.07542953
0002f0 53 3c 4c bd 8e f9 a9 bd ea be f9 3d d3 c7 88 bd
       -0.049862217 -0.08299552 0.12194617 -0.066787384
000300 5f c8 24 3d 88 e4 12 3d d3 69 9b 3d 52 54 f6 3d
       0.04023015 0.035862476 0.07588544 0.120278016
000310 09 d5 1f 3e d4 b3 db 3d 24 22 06 bc 63 08 07 3e
       0.1560861 0.10727659 -0.008186851 0.13186793
000320 5c 77 4c bd 67 e7 bb 3d 0a 76 5c bd 25 6f 3e bb
       -0.049918517 0.09174996 -0.05382351 -0.0029057947
000330 75 09 9d 3b e8 76 7b 3d 8e d8 06 3e ab 5c 6e 3c
       0.004792387 0.061392695 0.13168547 0.014548461
000340 54 11 6e bd 95 9b 08 be 3f ee 80 bc cf b5 34 3e
       -0.058121994 -0.133406 -0.015738605 0.1764748
000350 46 d5 1f bd db d0 d0 3d 91 52 63 bc 4f b2 a7 bc
       -0.039021753 0.10196086 -0.013874666 -0.020470766
000360 bb a6 61 3c e3 ed 74 be d9 0f 1f 3e f4 5d 05 3e
       0.013772662 -0.23918872 0.15533389 0.13024122
000370 79 2c d7 3d fa 2e c1 bd 06 d8 10 be 6e 34 05 3d
       0.10506529 -0.09432788 -0.14144906 0.032520704
000380 b4 aa 10 be d0 c8 53 bd 6e fd 78 3e 80 ca b3 3a
       -0.14127618 -0.05170518 0.24315426 0.0013716966
000390 74 e6 7a be 27 f3 67 be 2d ed c2 3d 49 67 1f 3e
       -0.24501973 -0.22651349 0.09517894 0.15566744
0003a0 02 aa c7 bc 37 6b 1e be ed 08 b7 bb a1 b5 ef bd
       -0.024373058 -0.15470587 -0.005585781 -0.11704565
0003b0 65 8c 94 3e 9a 7c 8d be f8 e0 48 be 96 db 32 bd
       0.29013363 -0.27634126 -0.19617069 -0.043666445
0003c0 5c e7 05 be 62 2d f5 3c 81 de e5 bb
       -0.13076538 0.029928867 -0.00701505

bias_ih_l0 f4 [27]
000000 e4 9a 8e 3d d1 2a 9b bd 6f 58 ac 3b 06 66 49 be
       0.06963137 -0.07576526 0.0052595655 -0.19667825
000010 87 4d c1 bb d6 ae a6 3d 4a 78 20 3d 5d f3 37 be
       -0.0058991346 0.08138816 0.039177217 -0.1796393
000020 5b 3c 6a be 6e 60 2b bc 87 15 76 3d d8 e3 58 bb
       -0.22874586 -0.010460002 0.060079124 -0.003309479
000030 19 23 84 3c 09 df e7 bb 3c b1 18 3d e5 b4 b1 bb
       0.016130017 -0.0070761484 0.0372784 -0.0054231756
000040 b7 76 6e 3d d9 dd ed bc b3 81 44 3e 3f 19 9e 3d
       0.058218684 -0.02903645 0.19190101 0.07719659
000050 20 6b 86 be fc 07 5c be 8b 0d 7d 3e 25 aa 1c be
       -0.26253605 -0.21487421 0.24712197 -0.1529928
000060 0c 60 9f 3d de 67 20 be a6 f1 5d be
       0.07781991 -0.15664622 -0.21674213

bias_hh_l0 f4 [27]
000000 75 7c 4b bc c6 15 a7 3d 46 d4 0e 3a d3 18 10 3e
       -0.01241981 0.0815845 0.00054485013 0.1407197
000010 12 e7 b5 bc 82 cc 37 bd da 83 86 3c 4c 44 07 3e
       -0.02220491 -0.04487277 0.016420294 0.13209647
000020 4a 00 50 3e 6e 72 89 ba 2c e6 97 bd 7e 60 fc bb
       0.2031261 -0.0010486373 -0.07416949 -0.0077019325
000030 0e 2a c6 bc 24 45 55 3b 24 44 24 3c 41 9d b9 bb
       -0.024189975 0.0032542432 0.010026012 -0.005664498
000040 bc bb 82 bd 07 97 69 3c a3 92 43 be e7 a3 d8 3c
       -0.06383464 0.014257199 -0.19098906 0.026445342
000050 a7 54 4d 3e 8f 89 61 3e 6c e1 06 3e cf 8c e6 3d
       0.20051824 0.2202513 0.13171929 0.11257326
000060 6b ae 8b 3e fd ae 80 3e 75 8e 39 be
       0.27281508 0.25133505 -0.1812075

weight_ih_l0 f4 [27, 24]
000000 b0 6d 1b 3a 1f 7d 62 3b be 48 d5 39 f4 de e1 3b
       0.00059291255 0.0034559441 0.00040680723 0.006893033
000010 d3 86 c1 3b ca 95 37 3a aa 30 9f 37 d8 77 0a ba
       0.005905965 0.00070032163 1.8976938e-05 -0.00052821403
000020 75 86 58 ba bf dc 7e b7 12 2b 09 ba a4 a3 d6 bb
       -0.0008259782 -1.5190976e-05 -0.0005232553 -0.006550269
000030 41 7e 02 ba d8 71 0e a2 a5 ee 81 2d 08 a7 38 ba
       -0.000497792 -1.9304857e-18 1.4771582e-11 -0.00070439326
000040 de ce 6e 24 fb 9c c1 bb d2 be 2c 3b 1d d4 4a 3b
       5.1783247e-17 -0.005908606 0.0026358855 0.0030949183
000050 6c f3 b5 b9 a9 e4 ee 3c 12 45 1e bc 1a e8 49 bd
       -0.00034704374 0.029161768 -0.009660022 -0.049293615
000060 04 d7 04 b8 d1 a2 8a ba 00 05 49 3c 2f 51 7e bc
       -3.16715e-05 -0.0010577088 0.0122692585 -0.015522285
000070 66 62 4c bc 0b 17 53 3a 90 db 99 3c 5f 8e 67 3a
       -0.012474632 0.0008052445 0.018781453 0.00088331656
000080 f2 28 44 3b 28 bb fc 38 d3 be 5b 39 0e b4 ee bc
       0.0029931632 0.00012051157 0.00020956555 -0.029138591
000090 b2 04 c9 38 30 f3 8f ba 54 b1 5e ab 18 3d e1 3b
       9.5853014e-05 -0.001098251 -7.9116336e-13 0.006873738
0000a0 1e 26 7c b6 62 8a a7 b9 97 e1 16 ba 12 d2 49 b9
       -3.7573113e-06 -0.00031955825 -0.00057556614 -0.00019247111
0000b0 1a 88 27 bc 06 70 1e bd 88 d6 1e 3b 46 98 90 bc
       -0.01022532 -0.038681053 0.0024236757 -0.017650735
0000c0 2b 58 65 bc 47 26 38 3d 23 73 40 be d1 cb d6 bd
       -0.013998072 0.04495838 -0.18793921 -0.10488094
0000d0 63 78 75 3c 82 88 11 3d 87 db 39 3d 5a a7 1c 3e
       0.014982316 0.035530575 0.045375373 0.15298215
0000e0 cb 8b 9a bd 54 e4 85 3d 64 22 88 bd 6e c0 45 be
       -0.07546195 0.06537691 -0.066471845 -0.19311687
0000f0 4c af c2 b8 31 5c 3f 2a ba 6b 2a 39 c1 ca 6c 3e
       -9.2832925e-05 1.6996193e-13 0.00016252595 0.2312422
000100 10 37 0e 3a 7a eb fe bc 1e 17 56 bd 96 d0 85 b7
       0.0005425075 -0.031118143 -0.05226814 -1.5951966e-05
000110 f7 93 58 bd f0 93 90 bd dd cb 20 be 06 7e 86 be
       -0.052875485 -0.07059467 -0.15702768 -0.26268023
000120 f0 72 67 bc be fa 29 3d 0f 79 64 bd ca 7f ad bd
       -0.014126524 0.041498892 -0.055779513 -0.084716395
000130 67 ab 64 3e cf 62 33 bb a8 0b 37 3c 4e 64 42 bd
       0.2233101 -0.0027372127 0.011172213 -0.04745894
000140 4d f1 ec bb c9 8c f8 bc cf 8f ad b8 9a fa 38 be
       -0.0072309137 -0.03034057 -8.276069e-05 -0.18064347
000150 1e 5b 96 3a b3 62 28 a2 6e 9b 26 ad 9e 4e 97 3d
       0.0011471247 -2.2820497e-18 -9.47052e-12 0.07388042
000160 b2 e1 86 39 27 ab dc 3c e1 a2 98 3d 5d 09 01 28
       0.00025726628 0.02693708 0.07452942 7.162969e-15
000170 71 ae 23 be 75 48 61 bd d0 b5 1b 3e 7f 94 02 3b
       -0.15984513 -0.05500074 0.15206075 0.0019924936
000180 be 65 85 38 00 b7 f4 bb 92 08 a0 3b c1 5a bb bb
       6.360885e-05 -0.0074681044 0.004883834 -0.005717606
000190 20 be b1 bc aa cf aa 39 9e ec d2 3b 3e d7 3e b8
       -0.021697104 0.00032579649 0.0064368984 -4.549999e-05
0001a0 28 24 2c b9 a6 e6 e4 bb 10 be 8d b9 7c d7 a2 bc
       -0.00016416667 -0.0069855032 -0.00027035223 -0.019878142
0001b0 d5 60 d5 b8 39 e6 1a bb 0b a8 6f b8 8b 3a 93 3c
       -0.00010174668 -0.0023635759 -5.7138543e-05 0.017972251
0001c0 2b 8f 10 a2 3a bb b0 ba 07 e4 52 bc 1c 30 2d a2
       -1.9591432e-18 -0.0013483532 -0.012871749 -2.347134e-18
0001d0 f7 f3 64 ba 34 77 b2 ba a8 1f 96 38 ae 3f 74 3c
       -0.00087338634 -0.0013615848 7.158454e-05 0.014907761
0001e0 95 9e 2b ba dd bc 38 be 02 0a c2 3d 0b 66 94 bd
       -0.0006546763 -0.18040796 0.09474565 -0.07246026
0001f0 9f 3e 81 bd 9c fa 41 3b ac 89 f2 bd 22 67 7b 3d
       -0.06310772 0.0029598838 -0.11842665 0.061377652
000200 a0 06 46 bd d1 b4 06 3d df a0 20 bc f8 6b 23 3e
       -0.04834616 0.032887284 -0.00980398 0.15959156
000210 d0 72 8d b9 3e 78 da b6 e2 3b 96 39 d5 f9 08 3d
       -0.00026979158 -6.5109043e-06 0.00028654846 0.033441383
000220 b9 30 9c ac 80 e0 b6 ba ec 9c 1d 3e 24 b5 7e b2
       -4.439196e-12 -0.0013952404 0.15391892 -1.48259325e-08
000230 c6 ea ff bc ae f6 b5 bd 67 02 0d 3d 81 f4 41 3e
       -0.031239878 -0.08884941 0.03442612 0.18940927
000240 41 5d c2 3a 59 6e d0 bc 07 76 44 bd 89 af 86 3c
       0.0014828817 -0.025443243 -0.047964122 0.016441124
000250 fe 92 16 3b 4a 90 96 3b 48 b7 09 3d bc 10 d0 bc
       0.0022975798 0.0045948373 0.033622056 -0.025398605
000260 b8 6d b0 bd 69 d2 75 3c e9 80 20 3b f8 10 c2 bc
       -0.08614677 0.015003779 0.00244909 -0.023689732
000270 d5 2d a5 ba 6d 38 86 3a 2f c1 6a 3b 44 9d 44 bc
       -0.001260216 0.0010240205 0.0035820713 -0.012000386
000280 f3 cd 25 38 c0 c6 c0 3c 91 e2 a0 3d 37 a1 63 3b
       3.953087e-05 0.023532271 0.07855714 0.0034733543
000290 82 4e cd 3c d8 13 52 bd 90 53 e7 3c 92 e3 b2 3c
       0.02506185 -0.051288456 0.028238088 0.02183703
0002a0 65 c2 5e 3a 5c 3f 2a be d1 12 39 bc 44 e6 10 3d
       0.0008497595 -0.16625732 -0.01129599 0.03537585
0002b0 0b 2b f5 bd b8 fe 06 3c ba 41 47 bd 39 bf a5 3c
       -0.119711004 0.008239441 -0.048646666 0.020232784
0002c0 4e 93 bd bc 35 93 ad bb de b9 e0 37 07 a8 6f 3e
       -0.02314153 -0.0052970895 2.6789432e-05 0.23403941
0002d0 ca d3 ff 3a b6 2d b7 26 e9 4d 69 ac 92 a5 e8 bd
       0.0019518074 1.2710566e-15 -3.315454e-12 -0.11359705
0002e0 e7 24 54 bb 6e 7a 6d ba e4 3b 01 bc b6 74 10 3b
       -0.0032370628 -0.0009059076 -0.007887814 0.0022042221
0002f0 47 37 e4 bd a9 c1 63 bc a1 1e 21 3d 63 4a 2f 3e
       -0.11143356 -0.013901153 0.03933585 0.1711822
000300 24 33 f0 38 84 16 bc bc 95 51 2d be 52 33 88 3d
       0.000114536175 -0.022959955 -0.16925652 0.066504136
000310 36 ab a2 3d 5f 4f 01 3a 1c fc 8e 3c aa 05 75 3c
       0.07942812 0.00049327867 0.0174542 0.014954964
000320 ce 08 e3 bc d3 91 c6 ba 28 11 b0 3a 54 61 86 3d
       -0.02771416 -0.001514966 0.0013432847 0.065615326
000330 19 e8 29 3a ac 15 fe b1 3d 60 bc b9 de c6 1f bd
       0.00064814236 -7.3948367e-09 -0.00035929857 -0.039008014
000340 e9 36 b7 2e e2 ac 21 ba a6 61 fe bc d5 9f 76 3b
       8.3316305e-11 -0.0006167424 -0.031052422 0.0037631888
000350 28 7e 9d 3d 56 84 bf bd 41 25 b0 3d b3 6c 4b 3e
       0.07690078 -0.09351413 0.086008556 0.19865684
000360 0c 1e 3a bd 40 59 33 3e 6d 11 7b bb 38 42 3b be
       -0.04543881 0.17514515 -0.0038309947 -0.18286979
000370 89 b4 1d 3d 61 ff 2c 3e 98 a7 68 bd f8 40 98 bc
       0.03850225 0.16894294 -0.056800455 -0.018585667
000380 72 3f 2e bc 83 57 ee ba ec 72 04 3c 45 07 8e ba
       -0.010635244 -0.001818404 0.00808404 -0.0010835907
000390 25 cb 76 bc ba 79 d6 3a e1 ac 4c 37 82 1e c8 bd
       -0.015063082 0.0016363182 1.2199599e-05 -0.09771444
0003a0 34 4c 16 b7 88 9b 7c 3e a9 32 97 3d 9a 2f 8c 3a
       -8.958439e-06 0.24668705 0.073827095 0.0010695339
0003b0 a2 bf 2c 3e 84 3b cf bd 6c 0b cb bd bd 25 48 3e
       0.16869977 -0.101187736 -0.09914288 0.19545646
0003c0 81 f9 37 bc f5 89 27 be 85 16 7f 3d 4c 1b ce 3d
       -0.01122892 -0.1636122 0.062277336 0.100638
0003d0 f5 e9 07 bd db 8e 5c 3a ef b2 2a 3e c4 30 01 be
       -0.033182103 0.0008413621 0.1666982 -0.12616259
0003e0 00 66 a6 3d a2 b5 f6 3c 64 2b ac 3d fc b8 c7 bb
       0.08124924 0.030115906 0.084067136 -0.00609505
0003f0 02 71 3f 3b 8c 66 fe 39 ae 8e bf 3b 2b 99 43 3d
       0.0029211645 0.0004852306 0.005845866 0.047753494

weight_hh_l0 f4 [27, 9]
000000 84 6d 9e 3a 6c 60 90 ba aa da 0a 27 4c 6c 2b b9
       0.0012087082 -0.0011015064 1.9269885e-15 -0.00016348175
000010 b4 be d7 b9 b4 72 82 b8 aa f3 a1 3a 81 82 93 ba
       -0.0004115008 -6.220248e-05 0.0012355943 -0.0011254103
000020 ec 59 91 3a 1c b0 84 20 7b 7a 79 b9 1c 5f 2f 3a
       0.0011089421 2.247821e-19 -0.00023792118 0.00066898926
000030 83 2b 7e b8 c9 cc 35 ba be 5d fb 38 e6 c2 67 ad
       -6.0598843e-05 -0.00069351174 0.000119860735 -1.3174106e-11
000040 3d 05 82 3b 91 66 2b 9f 0c 0f 44 2d 71 81 3c bd
       0.0039679096 -3.62955e-20 1.1144651e-11 -0.046021882
000050 ca 1c ef a7 d4 a9 7d bd a6 d0 03 be 36 7b ae 36
       -6.636704e-15 -0.06192954 -0.12872562 5.1999477e-06
000060 52 30 02 a8 f7 aa 1a 3d ef 8b 62 2d bd de 51 29
       -7.2269275e-15 0.0377607 1.2877684e-11 4.6600517e-14
000070 54 c2 16 bd b7 2a 6b bb 9d 57 f5 3c 95 c8 d1 3d
       -0.03680642 -0.0035883614 0.029949004 0.10243336
000080 35 8f 98 b8 d7 55 66 29 4f af 32 3c 48 4e f2 3a
       -7.274599e-05 5.1144713e-14 0.010906055 0.0018486464
000090 bb 63 06 33 4a b9 ce 3b 22 0c 93 29 ef 54 88 bb
       3.129001e-08 0.0063087093 6.530216e-14 -0.0041605155
0000a0 df f6 2e b9 ce 4c 1c b8 c2 c2 15 b9 94 ad 2f b9
       -0.000166859 -3.726483e-05 -0.000142823 -0.00016753963
0000b0 13 dc 2e a7 81 52 09 34 d8 6b 98 3d 9b 27 c3 2a
       -2.4266653e-15 1.2789134e-07 0.074424446 3.466644e-13
0000c0 15 5d 95 bc 95 0c 10 3d 44 20 5a 3a 96 fa c8 a2
       -0.018232862 0.03516825 0.0008320848 -5.4475427e-18
0000d0 0d 06 1e be a8 e8 b9 b7 a1 f6 52 a3 a7 5f 2a 3b
       -0.15431996 -2.2162058e-05 -1.14363485e-17 0.0025996955
0000e0 0b d9 55 a9 b3 ee df 3a f5 c6 24 3c d0 c4 0d 3a
       -4.7483756e-14 0.0017084688 0.010057201 0.00054080505
0000f0 72 00 66 a2 4b 10 65 3a d1 1c 31 24 06 be fd b5
       -3.1171048e-18 0.00087380846 3.8405165e-17 -1.8905273e-06
000100 fe dc 94 bd a2 4e 1f a5 44 10 69 3c 5d 72 06 3d
       -0.072687134 -1.3817693e-16 0.014225069 0.03282391
000110 91 1e 46 39 6c f9 cf 39 eb 82 59 3d 5f c1 53 3a
       0.00018894138 0.0003966795 0.05310337 0.0008077826
000120 e7 13 34 3b 21 de 82 3c fa 86 9d 27 3a 7d 99 3b
       0.0027477683 0.01597506 4.3722596e-15 0.0046841176
000130 0e 7e 01 3d 80 86 8f 39 8d fa 79 36 e4 2d 8b bd
       0.031614356 0.00027375296 3.724973e-06 -0.06795862
000140 04 4d b9 31 16 ee fa b9 a3 30 e3 bd ab 86 26 bb
       5.3929643e-09 -0.00047861104 -0.11093261 -0.0025409858
000150 a3 7e 86 ba fa 1c 2f 3e 36 02 b9 ba 83 d9 92 3a
       -0.0010261129 0.17100897 -0.0014115039 0.001120374
000160 7c 8b 29 3e 19 99 e1 b8 7a 9c 78 39 f8 66 31 bd
       0.16557115 -0.00010757353 0.00023709415 -0.04331109
000170 38 df c3 25 47 ca 30 3c 24 5d 07 bc cb 08 9c 3a
       3.3978367e-16 0.010790414 -0.008261953 0.0011904476
000180 a8 19 70 ba 0e 9c 81 bd 17 00 31 3b 99 e5 51 a2
       -0.00091590965 -0.06328593 0.002700811 -2.844633e-18
000190 21 d7 a5 3d 19 c0 8c b7 56 bf 92 3d 6f 08 11 3e
       0.08097673 -1.6778753e-05 0.07165401 0.14163373
0001a0 8a 8e 83 b9 4a 8d 3f b6 89 70 4c 3e d7 f8 7f ba
       -0.00025092467 -2.854346e-06 0.19964804 -0.0009764558
0001b0 e2 32 a0 b7 d0 86 8a 3a 46 8b b6 b7 e6 f1 2f 3a
       -1.909718e-05 0.0010568742 -2.1760945e-05 0.0006711766
0001c0 82 45 48 bc bc 83 95 b9 80 f6 90 2b b9 45 98 3c
       -0.012223603 -0.00028517644 1.0300233e-12 0.018587934
0001d0 d5 ff 8f a9 9c 4c 2d ab 91 08 59 bd e5 d1 e2 2a
       -6.3948555e-14 -6.1568264e-13 -0.052986685 4.0291308e-13
0001e0 8f 22 f3 3b 82 78 a6 bd 9a 2c aa 39 c1 9d 76 a3
       0.007419891 -0.08128454 0.00032458158 -1.3369092e-17
0001f0 22 9f 88 3d fb 60 36 ba e2 1c a2 1f 64 27 43 bd
       0.06670977 -0.00069572 6.865745e-20 -0.047644988
000200 08 1c 77 a6 07 7a 4c 3d 7c 72 46 3e c2 66 84 b9
       -8.573333e-16 0.04992106 0.1937961 -0.00025253562
000210 fd 02 72 b6 f3 53 66 3e b2 10 c9 38 f6 0d fa b9
       -3.606255e-06 0.22492962 9.5875366e-05 -0.00047694118
000220 3e 90 49 bd f8 3c 0c a6 a3 2b 41 3b f2 81 5b bd
       -0.049209826 -4.8654885e-16 0.0029475472 -0.053590722
000230 3e c1 7b bb 6d 88 0c ad 16 1c 72 bd 32 90 46 bb
       -0.0038414742 -7.988371e-12 -0.059108816 -0.003029835
000240 34 a7 be 28 0b e2 5e 3e a7 df 45 39 66 a5 28 3e
       2.116675e-14 0.21765916 0.00018870701 0.16469344
000250 4d d4 d3 3d bf 7e 99 3a 8b 84 43 3b ca c8 67 3e
       0.103432275 0.0011710747 0.002983364 0.22635189
000260 28 8f aa 36 30 09 9a 33 96 59 14 bc ad 93 d5 27
       5.0830604e-06 7.172855e-08 -0.009054562 5.9279486e-15
000270 9a 6b e1 ba ae d8 df 3b 53 24 6b ba a8 49 b9 ba
       -0.0017198205 0.00683125 -0.00089699513 -0.0014136331
000280 d1 17 2f 3b cd f7 33 22 d6 7c 44 b5 4d d9 b1 3d
       0.0026717077 2.4390208e-18 -7.319735e-07 0.08684025
000290 c2 28 e5 a8 c7 19 f3 bc 04 6b d8 bd 68 4c de ba
       -2.5441783e-14 -0.029675378 -0.105672866 -0.0016960027
0002a0 6c 78 79 a3 37 90 36 3b a4 d6 2f 39 f6 75 a6 1f
       -1.3523817e-17 0.0027856955 0.0001676926 7.0498885e-20
0002b0 c8 95 c6 bc 72 94 3c 27 45 16 17 3e 19 73 21 3e
       -0.024241343 2.6170713e-15 0.14754589 0.15766563
0002c0 6e 4b 80 3a 69 3b 21 a3 57 65 94 bc 5e b7 3f 22
       0.0009788105 -8.740408e-18 -0.018114729 2.59824e-18
0002d0 5a 51 06 32 45 d3 ad bd eb 4b 35 3a 4d 10 86 bd
       7.818324e-09 -0.08487562 0.0006915915 -0.06546078
0002e0 26 c6 89 3e 6e a3 09 38 da 2e 91 ba d9 1a 92 3c
       0.26908988 3.281555e-05 -0.0011076585 0.017835068
0002f0 c1 8f 36 b6 5d 4b 70 b7 c5 76 dd bd 2d 68 60 3a
       -2.720379e-06 -1.4322662e-05 -0.10813669 0.0008560445
000300 0a c4 93 bd 55 ab ea bd 29 f3 4e 3a 4b 5f 3d 33
       -0.07215126 -0.1145846 0.000789451 4.409166e-08
000310 e6 12 39 be 1c 45 07 3b 41 e9 9d ba 5f 2e aa 3d
       -0.18073615 0.0020640558 -0.0012047664 0.08309626
000320 28 17 a5 b2 80 d1 f3 3d 82 3a 70 3e 5b 2d 44 ba
       -1.9219058e-08 0.11905193 0.23459819 -0.0007483565
000330 ab ca 6e 3b c0 48 63 be 5b 87 5f 1f 29 2b 04 a3
       0.0036436717 -0.2219572 4.733405e-20 -7.164874e-18
000340 db cd 84 3e b4 49 2e a7 54 a2 5d 3d 60 5d fc bd
       0.25938305 -2.4187305e-15 0.054109886 -0.12322497
000350 9b 4d 88 b9 e2 f8 e9 ba 0b d3 03 3d 54 4b 52 39
       -0.00025997762 -0.0017850662 0.032183688 0.00020055223
000360 b7 8e ec 34 37 55 ab bc bf 0c b7 a6 04 88 cb bd
       4.4062264e-07 -0.020914657 -1.2701631e-15 -0.09938052
000370 d9 dd 21 be 54 6d 59 bb 69 2e 70 b8 ed 77 02 be
       -0.15807284 -0.0033176737 -5.726368e-05 -0.1274106
000380 77 0c df a0 a0 01 4a 1f 1b fc d3 3d 79 68 3a 3b
       -3.7785918e-19 4.2776508e-20 0.1035082 0.0028443618
000390 04 db 26 3d 7c 02 5f be 16 6a 34 ba a1 b7 c3 28
       0.040736213 -0.21778291 -0.0006882263 2.1728985e-14
0003a0 cc a6 0a 3e 59 24 b3 a7 46 bc a4 a6 b3 6d 8f bb
       0.1354019 -4.972189e-15 -1.1430818e-15 -0.004377091
0003b0 c0 0e 39 29 0b b8 02 bd 5c 43 42 be e0 61 a9 ba
       4.1091045e-14 -0.0319138 -0.18971008 -0.0012922846
0003c0 c6 5b 58 29 68 bf 83 be 4e 39 3d bb
       4.8041235e-14 -0.2573197 -0.0028873268

bias_ih_l0 f4 [27]
000000 d9 02 69 bc 40 0f ca bd 2b 1b 31 3e ca ab ee bc
       -0.01422187 -0.0986619 0.1729552 -0.02913465
000010 d7 32 95 3c eb ec 24 3e 7b 6d b2 3d 85 a7 1d be
       0.018212719 0.16106002 0.08712288 -0.15395935
000020 be d0 96 bd c8 26 0f 3e 39 c4 2c be 49 20 bd bc
       -0.07364033 0.13979638 -0.16871728 -0.023086684
000030 55 8a 5c bd da 69 5a 3e d7 3c 9e be c5 34 55 be
       -0.05384286 0.21329442 -0.30905792 -0.20820911
000040 c6 2e 88 3e bd 48 29 bd 72 50 8b be c8 b0 5a 3e
       0.26598185 -0.041329134 -0.27209812 0.21356499
000050 70 47 6c bd 76 d9 2f 3e ca fb 44 bd 2e 62 90 3e
       -0.057685316 0.17172799 -0.048091687 0.28199905
000060 34 af 81 be e7 2a a4 3e 2f 9e 8b 3d
       -0.25328982 0.32063982 0.068172805

bias_hh_l0 f4 [27]
000000 4a 86 36 bb 13 1d e6 3d 24 1b 80 be 64 72 a1 3d
       -0.0027851039 0.11236014 -0.25020707 0.078831464
000010 d6 0c 68 3d c7 e5 3a 3e 0e 8c b3 3d 79 fe 8b be
       0.056652866 0.18251716 0.08766948 -0.27342585
000020 d3 5f ed bd 36 0d e4 3d bf 90 08 3d 9c 1d 6d be
       -0.11590543 0.11135332 0.033341166 -0.23155826
000030 7a 3d 49 be 94 1f 70 be 95 d0 87 be 4b 1b a8 bd
       -0.19652358 -0.23449546 -0.26526323 -0.08208331
000040 09 fd 5e be c8 83 74 3d b8 b5 97 3d 9a 97 d6 bd
       -0.21776213 0.05969599 0.07407707 -0.104781345
000050 b0 58 22 3e b4 17 9e be a4 85 4e bd e1 85 58 be
       0.15854144 -0.3087746 -0.05042042 -0.21144821
000060 20 8d 5b be 2a 79 45 be c5 fb 60 be
       -0.21440554 -0.19284502 -0.21971042

weight_ih_l0 f4 [27, 39]
000000 5d df 09 3c e7 e3 81 34 92 31 0a be c2 9b 8e 3d
       0.00841507 2.4193943e-07 -0.13495472 0.06963302
000010 5e 0b 1a 27 e2 b7 f6 3d 6c 7b 54 3c 2c ab a5 34
       2.1377955e-15 0.120467916 0.012968879 3.085819e-07
000020 fb 01 94 ba 0d 26 18 be 91 dd 16 be 22 b1 17 bd
       -0.0011292094 -0.14858265 -0.14732958 -0.03703416
000030 42 fb 1f 3d ef b8 08 3d 34 77 78 3e 78 60 9b 3c
       0.039057977 0.03337949 0.24264222 0.018966898
000040 88 56 a7 3a 83 51 db bd 6f 4e 89 3d 7e 27 f6 bc
       0.0012766877 -0.107089065 0.06704413 -0.030048128
000050 dc 86 ab bd 5a 6b aa 3d f8 b6 49 bd 50 08 9e bd
       -0.08375332 0.08321257 -0.04924676 -0.07716429
000060 61 42 0d be 98 31 aa 3a 6c 50 93 3d f7 b4 08 3c
       -0.13794853 0.0012984751 0.07193074 0.008343927
000070 6d 7b 11 bd 03 6a 93 3d 85 f6 eb 3a e1 72 c9 3d
       -0.0355181 0.071979545 0.0018002546 0.098363645
000080 9f 3b 4d 3c dd 29 2b be 49 d1 30 3e 34 86 78 3e
       0.012526422 -0.16715188 0.17267336 0.24269944
000090 e1 ca 3b bc 96 0a b1 3d 33 ac ed bc 63 90 05 bd
       -0.011461944 0.08644597 -0.029012775 -0.0326084
0000a0 97 3a 18 38 68 d2 0c 3b 43 bf 5e 39 aa 10 59 a9
       3.629419e-05 0.0021487717 0.0002124282 -4.8198133e-14
0000b0 3e 3d bc 3d 53 e4 59 be c9 a4 b9 a9 33 e4 9e 37
       0.091913685 -0.21278505 -8.244236e-14 1.8941331e-05
0000c0 56 89 e8 3a 60 9b 60 3e be 7b 6a 3d 64 b5 45 3d
       0.0017741125 0.21934271 0.057246916 0.04826869
0000d0 a8 da 88 be a2 79 8d 3e 3f 5c 02 be 99 d7 41 3d
       -0.2672932 0.2763186 -0.12730502 0.04732475
0000e0 0a c8 31 3d 8b a5 ab bd 5f a6 a0 3d e1 28 81 be
       0.043403663 -0.08381184 0.07844233 -0.252265
0000f0 78 31 56 bc 94 c2 54 3e f9 92 79 be 86 ac 4b be
       -0.013073318 0.2077735 -0.24372472 -0.19890031
000100 7f 07 25 be 08 94 e1 bd e9 ed 54 3d 53 5e 36 be
       -0.16116141 -0.11014563 0.0519847 -0.1780942
000110 32 fb 34 be d5 ff c3 3a 2c cf 86 3d 96 f9 ec bc
       -0.17673948 0.0014953563 0.06582484 -0.028927606
000120 e4 8d 98 3d 11 c5 80 be fb 40 31 be e3 ee 6a 3e
       0.074489385 -0.2515035 -0.17309944 0.2294269
000130 e9 03 53 be 92 3c d7 bd fd d2 b7 3a bc 20 78 3b
       -0.2060696 -0.105096 0.0014024671 0.0037861308
000140 ca 4f 84 3b 8c b7 d9 3a e3 60 bd b9 f0 ca 09 3b
       0.004037832 0.0016610487 -0.00036121075 0.0021025501
000150 4c 15 6c 3b 00 da 43 39 8e e4 ef b8 53 cd 00 3c
       0.0036023436 0.0001867786 -0.0001143898 0.007861453
000160 26 61 06 3c 3c 5c 04 3b f6 a5 63 3c e0 74 ff 3b
       0.008201873 0.0020196578 0.013894549 0.007795915
000170 f2 24 5c bb 50 97 8e 3b 29 17 ba ba 51 43 b4 3b
       -0.0033591357 0.004351534 -0.0014197576 0.005501189
000180 d4 66 37 39 fc 46 31 bc 3b 20 fa 39 de 48 e2 3b
       0.00017490546 -0.010820147 0.0004770773 0.006905659
000190 4f 34 9d 3b ee 0f 92 3b 56 fc 27 3d 14 40 b1 3a
       0.0047974954 0.0044574654 0.04101213 0.0013523125
0001a0 9b e4 18 3c ae f8 5a 39 a1 be 1a 3c 0e 30 00 3b
       0.009331848 0.0002088274 0.009444864 0.0019559893
0001b0 f3 5e 90 3a 28 e0 66 bb dd 6e 96 39 97 b0 ce 3a
       0.0011014625 -0.0035228822 0.0002869283 0.0015769181
0001c0 ba 19 ef bb a1 c8 6e 3a fb 75 97 3a e5 ab 49 3b
       -0.007296768 0.00091088755 0.0011555547 0.0030772623
0001d0 f6 ce 10 3c d2 20 80 3a 9b 80 98 ba c8 4b e2 3b
       0.008838406 0.0009775406 -0.0011635007 0.0069060065
0001e0 61 04 f0 3a 5f 70 66 ba 7a 64 5d 3b 18 bc 9b 38
       0.0018311852 -0.00087905483 0.0033781813 7.426011e-05
0001f0 b1 d5 c4 aa fa 3a a5 39 98 60 c9 ba 66 ae 43 bd
       -3.4964872e-13 0.00031515193 -0.001536387 -0.04777374
000200 a8 ee 12 bd f6 c8 ac 3c 63 99 28 bd 63 06 7e 3c
       -0.03587213 0.02109192 -0.041161906 0.015504452
000210 b1 2d 1c 3c 1c d7 9e 3a 87 62 fc 3c de 5b ef bc
       0.009532378 0.0012118551 0.0308087 -0.02921861
000220 c8 ac 91 ba d0 ac 58 3d 62 2b 08 be 3d 4d 27 3d
       -0.0011114115 0.05289918 -0.13297799 0.040845145
000230 a4 33 92 3d 0e 00 91 3d cf 75 10 3a 29 bd d3 3b
       0.07138756 0.070800886 0.0005510719 0.0064617586
000240 fb cd 0d ba 21 78 d0 3b 31 be 0f 3c 32 87 54 b9
       -0.00054094166 0.0063619767 0.0087733725 -0.0002026826
000250 e6 63 6b b9 a3 50 16 bb ce 87 a8 3c ca 12 24 3c
       -0.00022448562 -0.0022936247 0.02057257 0.010014245
000260 e3 d3 f1 bd 2b a7 5e 3b e3 a1 55 ba c2 7a c5 3b
       -0.11807992 0.0033974152 -0.0008149428 0.0060265968
000270 2e d7 3c bd 98 f7 1b b0 0c 88 3b 3b 07 eb 99 bc
       -0.04610365 -5.6740523e-10 0.0028615026 -0.018788828
000280 c0 f3 be 20 48 e8 23 3d 35 85 08 bd fd f6 22 2b
       3.2348552e-19 0.040016443 -0.03333016 5.7896727e-13
000290 8c b0 a7 b2 b5 87 63 3d 64 08 86 bd 24 60 24 3c
       -1.9521643e-08 0.055549342 -0.06544569 0.010032687
0002a0 50 ec 8b bc a6 7f 2b 3d 9a 8a 1e 3d 69 b6 8e 3a
       -0.017080456 0.041869782 0.0387064 0.0010888103
0002b0 12 02 1d b9 e7 1e 87 bb f8 71 0e bc 67 eb e8 bc
       -0.00014973458 -0.004123557 -0.008694164 -0.028432561
0002c0 b1 7f c7 3c bc a1 a1 3b c0 3c 96 3b 48 f4 f8 3b
       0.02435288 0.0049326103 0.0045848787 0.00759748
0002d0 ec b4 19 3e c5 50 b9 3b f0 b8 3f ba 3b be e8 39
       0.15010422 0.0056553804 -0.00073136296 0.0004439222
0002e0 2b c7 b0 3a 3b 91 c7 bc d6 77 9a ba 28 d6 87 3d
       0.0013487091 -0.024361243 -0.0011784981 0.06632644
0002f0 9e f9 b7 3a f5 e5 8a bd c9 36 61 bd 03 7a c9 3d
       0.0014036184 -0.06782142 -0.054983888 0.09837725
000300 68 63 99 37 45 53 4d bd 39 51 d7 3b bf 9c d5 bd
       1.8285311e-05 -0.05012824 0.006570962 -0.104302876
000310 1c 98 d5 b4 db 20 72 bb fa f7 c2 3c 72 39 be 21
       -3.9785016e-07 -0.0036945853 0.023799885 1.2890106e-18
000320 27 bd 06 be f5 7d bf 3d 7b 31 c3 b5 94 0e 2a 1e
       -0.13158093 0.09350196 -1.4543033e-06 9.00274e-21
000330 4c 53 17 3d d5 18 ce bd b3 0d 14 be 43 6f cf 3d
       0.036944672 -0.1006333 -0.14458351 0.10128643
000340 6b 84 3d 3e d3 80 10 bc d9 d2 26 3d f0 cf f8 3c
       0.18507545 -0.008819777 0.040728424 0.03037259
000350 77 45 4f be cd d0 fe bd 11 91 02 be 5f 91 8a bc
       -0.20241342 -0.12442169 -0.12750651 -0.016915021
000360 1c 58 1c 3e c9 c2 e9 3d 8f 0a 3a 3d 1c 80 5f 3e
       0.15267986 0.114141054 0.045420226 0.21826214
000370 26 85 85 bb cb 8f de 3b 09 51 e4 bc fe a6 fa 3a
       -0.0040747104 0.006792044 -0.027870672 0.0019123254
000380 5f 72 d6 3c 81 8e f6 bc 54 63 f5 3d 7d 61 26 3b
       0.026177583 -0.030097248 0.11981836 0.0025387697
000390 73 fe 1f 3d 07 c1 c2 3d fc b1 63 3c 1a f9 dc 3b
       0.03906102 0.09509473 0.013897415 0.0067435624
0003a0 94 8f 2e be f4 68 03 bc ea 86 86 3d ba 3d 78 af
       -0.17046958 -0.008020628 0.065687016 -2.2577398e-10
0003b0 86 15 f7 bd bd 62 2c bc 52 68 33 20 58 88 4a 3e
       -0.12064652 -0.010521588 1.5196406e-19 0.19778574
0003c0 b6 1d 13 3d 4a 81 13 b9 4a 30 21 39 67 48 11 bd
       0.035917006 -0.00014067176 0.00015372146 -0.03546944
0003d0 0c b7 a4 bb f0 44 34 be 9c 38 65 bd d0 81 93 be
       -0.0050267037 -0.17604423 -0.05596219 -0.28809977
0003e0 a7 4f 5b 3d 96 4e 01 3d 89 10 25 bd d7 05 96 3c
       0.05354276 0.031569086 -0.040298972 0.018313332
0003f0 67 3e db 3b b3 ca 3c bd c4 28 4a 3e 79 5f 06 3e
       0.0066907885 -0.046091747 0.19742113 0.13122357

weight_hh_l0 f4 [27, 9]
000000 af b8 fe bd 2d 08 80 3d 9c 11 84 bc 59 a1 27 3e
       -0.12437569 0.062515594 -0.016121678 0.16370143
000010 0c 99 30 3d 9f 5d dc 3c 56 35 53 3d dd 7e 0e 3b
       0.043114707 0.02690011 0.051564537 0.0021743097
000020 ba c1 98 be 3e a9 c0 3d 8b de 80 be 47 04 7b be
       -0.29835302 0.094072804 -0.25169787 -0.2451335
000030 9e 17 82 3d 55 5e 82 3e 0b 8a d2 3d b1 f2 25 be
       0.06352161 0.25462595 0.10280236 -0.1620586
000040 ed d9 59 bc a6 26 2d 3e aa 82 5d bc ce 7f 8b 3c
       -0.013296586 0.16909274 -0.013519922 0.017028715
000050 a6 72 d8 3c cf a9 10 ba 37 f9 1e 3c 44 46 f6 bb
       0.026421856 -0.00055184675 0.009702972 -0.0075157005
000060 7a 85 a0 bb 10 13 b6 bb 54 4e 3a bc aa 26 30 bd
       -0.004898724 -0.0055564716 -0.011371214 -0.043005623
000070 ad db 19 bd e2 6f c6 bd 3f de d8 b9 c3 d7 d9 3c
       -0.037563015 -0.09689309 -0.00041364317 0.026592141
000080 8c 54 5e bb c4 31 67 3d 1a a4 0a bb b6 46 d7 3b
       -0.0033924906 0.056443945 -0.002115494 0.0065697087
000090 6c 08 b5 bc bc 79 20 3c d1 e2 11 3a 7d 4d 5a 3d
       -0.022098742 0.009794649 0.00055651093 0.053296555
0000a0 16 1e 8d bc a6 1e 0b 3d 90 d0 4f bd 52 43 a5 3c
       -0.01722626 0.033964776 -0.05073601 0.020173702
0000b0 aa 15 53 3e 3d 5e 64 3c 3c d8 7a 3d f2 3b da bc
       0.20613733 0.013938484 0.061241373 -0.026639912
0000c0 1c 68 81 be 84 c4 52 be 60 d9 31 be e8 78 85 3d
       -0.25274742 -0.20582777 -0.17368078 0.06517202
0000d0 ff a8 7b bc d6 ea ab 3c e7 22 19 bc bd 4c 85 be
       -0.015360116 0.020986002 -0.0093467 -0.2603511
0000e0 04 98 1a 3e 19 2d 26 be 1e f0 b1 3d a1 c1 57 3d
       0.15097052 -0.16228141 0.08688377 0.052674893
0000f0 d6 8c 87 3e b1 c1 0e be 20 37 53 be 08 54 38 bd
       0.26474637 -0.13941075 -0.20626497 -0.045002013
000100 5b 4a 44 be 04 f8 9a 3d 04 d4 83 3d 2d eb d6 bd
       -0.1916899 0.075668365 0.06436923 -0.10494075
000110 ed af 32 3e 7f e4 49 be 84 5e 50 be 1c e4 8e be
       0.17449923 -0.1971607 -0.20348555 -0.2790841
000120 d0 3e 09 3c cb 48 89 3d 8e ea 1e bd fb 8b 0a 3e
       0.008376792 0.06703337 -0.038797908 0.13529961
000130 62 49 30 3e 11 39 3a bb 3c b0 b5 bc 18 e1 b5 bc
       0.17215493 -0.0028415362 -0.022178762 -0.02220206
000140 6d 04 77 3d 5a 62 13 bd da f8 43 be 27 c5 1a bc
       0.060306955 -0.035982467 -0.19137898 -0.009446419
000150 d7 f7 fc bd f6 6c 97 3d 9d 23 23 3e 8e b8 8b 3c
       -0.12351959 0.073938295 0.15931554 0.017055776
000160 64 2a 0d bc 91 b9 25 be 9f c0 20 be 6e 8e 1d be
       -0.008616064 -0.16184069 -0.15698479 -0.15386364
000170 fd 88 6e 3d 5b 6d ec 3c 67 98 87 3d 28 2b 14 be
       0.05823611 0.028860739 0.06620865 -0.14469588
000180 e7 81 db 3d 86 36 31 3e e9 d4 04 be 7d aa b9 3b
       0.10718136 0.17305955 -0.12971844 0.0056660757
000190 75 e2 96 3c 5e 53 b9 bb 2b ee a8 bd 02 4d eb bc
       0.01841853 -0.00565569 -0.08248552 -0.028723244
0001a0 9d b9 c4 bc 4d 7e ca bc da 25 31 bc 94 40 0b be
       -0.024014289 -0.024718428 -0.010812247 -0.13598853
0001b0 cf dc 87 bc b1 8c 57 3d 81 95 ed ba fd 09 98 3b
       -0.016584782 0.05262441 -0.0018126221 0.0046398626
0001c0 88 7b 05 3a 15 a8 88 39 d5 9a ef bb 45 7f 2a 3b
       0.0005091955 0.00026065172 -0.0073121586 0.00260158
0001d0 27 8c 17 bb d6 75 65 bc f1 54 85 bc db 7e b1 3b
       -0.0023124309 -0.014005145 -0.016275855 0.0054167337
0001e0 db 4d 09 3c 29 92 77 3c 26 52 3b bc c7 d5 b7 3c
       0.008380379 0.015110531 -0.01143316 0.022440804
0001f0 4c e1 4d 3c 15 11 f1 3b be b8 09 be 86 35 71 3a
       0.012565922 0.0073567727 -0.1344938 0.0009201396
000200 a4 41 bc 3d 73 e4 41 bc 4a b2 20 3c 47 29 1d 3c
       0.091922075 -0.011834252 0.009808132 0.009592361
000210 fd e9 74 3d 7e 9d b8 b9 f9 ff d7 bc 21 48 c7 3d
       0.05979346 -0.00035212556 -0.026367174 0.09730554
000220 f9 d1 aa 3b cf bd 1e be 7c 53 2d 3c 03 48 12 bd
       0.005213019 -0.15502094 0.010578986 -0.035713207
000230 e7 f9 04 3d 5b 9d b9 bb 96 64 d4 3c 7c d9 07 3e
       0.032464888 -0.00566451 0.02592687 0.13266557
000240 32 96 03 3d 82 a7 62 3c 62 e6 31 bb dc d6 6b 3a
       0.03212566 0.013833882 -0.0027145375 0.0008996555
000250 c3 4d 8b 3b 5b b1 1b 3b 14 f9 f3 bb 31 83 14 bc
       0.0042512133 0.0023756835 -0.007445464 -0.009064482
000260 cb 61 34 bd 10 55 63 3b ab 2f ac bd 21 9c 59 bb
       -0.044038575 0.0034688152 -0.084075294 -0.0033204632
000270 2f 26 fc bc 0f fa a6 3c a7 cb 8f 3d 04 32 4b bd
       -0.030779926 0.02038291 0.070212655 -0.049608245
000280 16 2b 08 3c 9d 6b 99 bd 56 4a 33 3d 37 73 19 3d
       0.008311054 -0.07491229 0.043772064 0.037463393
000290 01 cc 5e 3c 21 a7 5d be c4 38 4e be 58 2f 62 be
       0.013598443 -0.21645786 -0.20138842 -0.22088373
0002a0 ea 22 38 3e 14 df 62 3d 13 c1 4b 3d 01 18 1b 3e
       0.17982069 0.055388525 0.049744677 0.15145876
0002b0 4a b4 a3 3d 8e 01 c1 3d e3 45 54 be 84 52 ac bd
       0.07993372 0.09424125 -0.20729785 -0.08414176
0002c0 6d 8e 1a 3e 74 f2 88 be 46 d1 0d bd e4 05 30 be
       0.15093394 -0.26747477 -0.034623407 -0.17189747
0002d0 e9 a6 63 3e ed 21 db 3d b1 cd 20 3e 2c 05 3a 3e
       0.2223164 0.1069983 0.15703465 0.18166035
0002e0 21 ab a8 bd 3f f6 93 3d 49 5d 85 be 12 3c 28 be
       -0.08235765 0.07224702 -0.26047733 -0.16429165
0002f0 50 5a 6a be 06 cd 4f be 5b c8 82 bc 13 ce 82 3e
       -0.22886014 -0.20293054 -0.015964678 0.25547847
000300 bc b0 57 be 93 ee 83 3e c5 4a 90 be ad cb 8d 3d
       -0.21063513 0.25767955 -0.28182045 0.06923614
000310 a3 a8 10 3e 6a 25 75 bd fd a0 96 be c7 44 45 3c
       0.1412683 -0.059850134 -0.294197 0.012040324
000320 a6 0f 02 3c 44 02 0a be 47 87 0b 3e f1 53 90 3c
       0.007938301 -0.13477427 0.13625823 0.017618151
000330 8e 28 2c be 63 de 3a 3e 49 da a3 3e 91 28 ef 3d
       -0.16812345 0.18248896 0.32002476 0.11677659
000340 8f 1a 80 3e e1 9e 98 3d 02 c8 2e 3e 4e 5f f2 bc
       0.25020263 0.07452179 0.17068484 -0.02958646
000350 08 1d 8b 3e 1a 3c 53 3e 79 5a 15 bd e7 83 41 bd
       0.27170587 0.20628396 -0.036463235 -0.047244933
000360 3a 3e 65 be ca ed 97 be 05 d6 db 3d 8f 30 03 3e
       -0.22387019 -0.29673606 0.1073418 0.12811492
000370 4c ce 09 be 5e a1 29 be ce 01 85 3e f0 cc c0 bc
       -0.13457602 -0.16565463 0.2597794 -0.023535222
000380 b8 84 57 be 08 71 51 be 57 69 34 3e e8 70 9b 3e
       -0.21046722 -0.20453274 0.17618309 0.30359578
000390 e3 73 8b 3e bb 34 93 be bb 72 68 be f8 4e eb bd
       0.27236852 -0.28751168 -0.22700016 -0.114896715
0003a0 7d b3 ce bc 04 7a 9a 3e eb 15 68 bb 04 35 10 3e
       -0.025232071 0.30171216 -0.0035413455 0.14082724
0003b0 ef ab 47 3d ec 86 67 3e be 63 03 3e 93 07 c5 bd
       0.048747953 0.22610062 0.12831017 -0.09620585
0003c0 2d 83 15 bd 55 ab 01 3e 6c e9 68 3d
       -0.036502052 0.12663014 0.056863233

bias_ih_l0 f4 [27]
000000 83 85 36 3e a0 30 e2 3c f7 43 d3 3c f6 7e 2f 3d
       0.17824368 0.027611077 0.025789244 0.04284569
000010 5b d4 4d 3e 32 87 55 be 5b 0b b8 3d a9 14 a3 bd
       0.20100538 -0.20852354 0.08986541 -0.07962925
000020 0e 9d d0 bd e3 7d 8c be 7d 95 1f 3e ca 79 ce bd
       -0.10186206 -0.27439794 0.15584369 -0.10081823
000030 15 bb ed bc 6c c9 8e bd 12 b9 9d 3d c6 1c 73 bd
       -0.029019872 -0.06972012 0.07701315 -0.059353612
000040 9f fa 15 be a4 ae 6f 3c 77 ab 7b be 77 74 a4 be
       -0.14646386 0.01462904 -0.24577127 -0.32120106
000050 09 63 a9 bc a0 23 99 be 2e 56 2f be b9 ea 8a 3e
       -0.020677106 -0.29909992 -0.17122719 0.27132204
000060 f6 47 b4 bd d6 53 0a 3e f3 36 91 be
       -0.08802788 0.13508543 -0.28362235

bias_hh_l0 f4 [27]
000000 18 95 09 3e 40 5c 9b bd 51 4e d9 3c 89 12 b7 bd
       0.13435781 -0.07585955 0.026526602 -0.08939082
000010 f4 21 52 3e a0 db 43 3d 2d 6a 8a 3e d9 3e 33 be
       0.20520765 0.047816873 0.2703413 -0.17504443
000020 ae e2 8b be f3 25 70 bc e1 2c 84 3d 58 1b 8a 3e
       -0.2732138 -0.014657485 0.064538725 0.26973987
000030 20 8b 46 bd 87 c7 63 3c cd e2 25 3d cf 71 15 3e
       -0.048472524 0.0139025515 0.040499497 0.14594196
000040 8c 12 49 be 96 c5 e6 3a 16 f9 05 3e d9 9c 2b 3e
       -0.19635981 0.0017606493 0.130833 0.16759051
000050 a0 fe 0d 3c f5 75 f7 bc 33 b0 dc 3c 39 60 a1 be
       0.008666664 -0.030207613 0.026939487 -0.31518725
000060 a3 b5 33 be c7 d7 88 be 44 55 96 bd
       -0.17549758 -0.26727125 -0.07340482

weight f4 [9, 9]
000000 45 4b 25 3e 98 a8 4d be 01 49 96 3c 9c 16 65 3e
       0.16141994 -0.20083845 0.018345358 0.22371906
000010 70 dc 69 3d df 3f 03 bd 3a 53 21 be c5 ec 9a 3e
       0.05709499 -0.032043334 -0.15754405 0.30258766
000020 c3 45 4c be 29 85 cd 36 f1 22 bc b5 16 ec dd b5
       -0.19948487 6.124978e-06 -1.4017261e-06 -1.6534493e-06
000030 04 d9 2e 3a 85 69 a6 35 10 bc a4 35 3e 55 bb b9
       0.0006669911 1.2398674e-06 1.2273686e-06 -0.0003573093
000040 11 6b c2 b7 4d ba 9e 34 cd 42 07 3d 8e 02 59 3e
       -2.3176459e-05 2.9565345e-07 0.03302269 0.21192381
000050 b6 ec 13 3d 78 94 90 3e 2d b5 10 3e 33 e9 23 3e
       0.036114417 0.28238273 0.14131613 0.16006927
000060 1b 6f 53 3e b2 42 4c be 6d 89 41 3e f3 60 c6 3d
       0.20647852 -0.19947317 0.1890008 0.0968646
000070 bf 88 08 bc 2e 3e b5 bd e3 b1 1d be 84 b2 e6 bc
       -0.008333384 -0.088497505 -0.1539989 -0.028161295
000080 ce 2f 91 3e 43 92 a7 3d eb 97 97 bd 19 38 a1 bd
       0.28356785 0.08182194 -0.07402023 -0.07872028
000090 89 dd 05 ba 6e f9 e5 3a 5b 81 b1 b4 6c f7 d2 a5
       -0.00051065587 0.0017545649 -3.3062938e-07 -3.6596853e-16
0000a0 e4 dc e4 a5 3e 27 36 37 7d 37 b8 33 b2 3f ca 37
       -3.9701377e-16 1.0857182e-05 8.578261e-08 2.4109937e-05
0000b0 9f 31 60 24 39 01 44 be c3 d1 5c 3d ec 8b 33 be
       4.8614288e-17 -0.19141091 0.053910982 -0.17533845
0000c0 7d 1a e4 3d 22 25 9f 3e 58 17 07 be cc fa 80 3e
       0.11137865 0.31083018 -0.13192499 0.25191343
0000d0 d8 16 85 3c 0c 50 5b 3c 39 6f 31 bd 7e 97 66 3e
       0.016246244 0.013385784 -0.04331896 0.22518727
0000e0 c1 bc 29 be ed 63 00 be 8d 9a 9a bd a5 19 8c be
       -0.1657591 -0.12538119 -0.075490095 -0.27363315
0000f0 47 e3 05 be c3 95 7d be 88 67 49 bc 99 7a 99 3c
       -0.1307498 -0.24764161 -0.01229275 0.018735217
000100 a5 ba 4b 3a ec 7b 64 3c 34 05 b7 3b 8b 5f 12 3d
       0.00077716477 0.013945561 0.005585337 0.035735648
000110 76 d0 96 3d db 25 83 3c f2 f0 77 3d 02 51 3d 3d
       0.073639795 0.016009262 0.060532518 0.046219833
000120 24 30 3c 38 0f d4 2c a1 a5 9f fc 2a 84 05 70 b9
       4.4867527e-05 -5.8556524e-19 4.4874968e-13 -0.00022890238
000130 bd 1b a8 ba 37 f6 a0 b9 02 82 24 b5 bb 55 73 a6
       -0.001282565 -0.00030701022 -6.128395e-07 -8.442375e-16
000140 79 c9 bd ae
       -8.630514e-11

bias f4 [9]
000000 c7 37 b7 bd da e7 32 b9 56 4c 74 3e f7 93 66 3d
       -0.089461856 -0.00017061774 0.23857245 0.056293454
000010 37 05 8a ba bd b6 0c 3e 86 40 3b 3e 26 dd 0a be
       -0.0010530119 0.13741584 0.18286332 -0.13560924
000020 1b 0b 11 bb
       -0.0022131864
