ERTSNet/new_arch_LA/decimation/model/best-model_r0_J2_NE1000_MSE-15.5.pt (torch, 483167 bytes, 65 tensors)

weight_ih_l0 f4 [27, 15]
0.15018252 -0.19610283 0.023416463 -0.1596143 -0.008857681 -0.043984175 -0.09193814 -0.11242108
-0.015041891 -0.009867739 -0.23100483 -0.13462044 0.10797058 -0.0274484 -0.0006083442 -0.08745365
0.32286644 -0.18900181 -0.0898081 0.038486976 -0.15763825 -0.17715324 0.27059582 -0.26641655
-0.14795789 0.20101564 0.21516228 -0.26236138 0.04373923 -0.1933078 0.16090861 -0.009076042
0.25248423 -0.18256645 -0.092368595 0.08586135 0.22799017 0.3028434 -0.109552614 0.20336857
0.1555147 -0.08993217 0.07906365 -0.09519969 -0.022706395 -0.11782505 -0.15358526 -0.15495521
0.25842693 0.0020870143 -0.17226817 -0.27963147 0.15042415 0.0017464221 -0.32478783 0.172594
-0.021656785 -0.15805522 0.02781848 0.040474176 0.27956268 0.09677996 -2.804119e-05 -0.023387304
0.00397719 0.13594231 -0.10213631 -0.2935727 -0.00036950392 0.10753058 0.24471317 0.3129807
0.25951388 -0.0004833571 0.0032707604 -0.18663867 -0.071056925 0.124634534 -0.048167884 0.058272406
0.22497725 -0.28077316 0.118341275 -0.021829192 0.09028896 -0.03016862 0.11311501 -0.09352708
-0.0015006721 0.24846816 0.23783602 0.044734534 0.07264125 0.0020380788 0.04693987 0.18829061
0.004163742 -0.25358087 -0.07793263 -0.15517464 -0.04312618 0.20245944 0.020950824 0.016046321
0.0018423087 0.04846295 -0.1354905 0.1104253 0.1630031 0.021872949 -0.1844295 0.049455266
-0.13566555 -0.0017591453 0.17230861 -0.13755813 -0.026329694 -0.001690752 -0.0059048245 0.026648797
-0.20225352 -0.2546253 0.23545474 -0.020572228 -0.0113651175 0.0133166555 -0.1355758 -0.27845284
-0.22340624 0.22977334 0.2719632 -0.24864613 -0.049981225 0.15266629 0.11654402 0.06309908
0.24140464 0.11979994 0.054891773 0.07386825 0.15228687 0.08245049 0.04297539 -0.17674443
0.07421082 0.20291972 -0.07833744 -0.07511393 0.12292247 -0.22595963 0.14426483 -0.15427698
0.05459774 -0.044438213 0.008857824 -0.24866119 -0.057321865 0.23217513 -0.095795 0.14682852
-0.0396515 -0.005504394 0.016139617 0.008266504 -0.12162995 0.11221241 -0.07027093 0.1554006
0.040011253 0.024035685 0.036371835 0.25400484 0.18921824 0.03540764 0.19754672 0.06513812
0.17493486 -0.18761769 -0.024721421 -0.019558895 -0.24158597 -0.2879076 -0.007391554 -0.008456594
-0.013706997 -0.26651058 0.06619327 0.17449695 0.011989114 0.108802006 0.2152584 0.06190344
0.019445742 -0.006476256 -0.10081077 0.21888782 -0.22192124 0.004233733 -0.21153551 0.009998445
-0.18106505 -0.14766462 -0.06866525 0.00025297323 -0.025224116 0.26611528 -0.11448197 0.016201014
0.009601614 0.12378316 -0.28430855 -0.28161073 -0.038898554 0.1315426 -0.0013693518 0.13355123
-0.10294446 -0.18806057 5.0070903e-05 -0.115024604 0.1661219 -0.152391 -0.23285232 -0.0018694244
0.07634751 -0.23400389 0.05204493 -0.0016313939 -0.029247772 0.016904121 0.18794452 0.2373991
-0.12707342 0.005414603 0.27670497 0.056289602 0.22814266 -0.14668402 -0.013560193 -0.058782697
0.13588606 0.10558676 0.0044073155 -0.15206209 0.04064667 -0.077879325 0.029457372 -0.22663844
0.00661515 0.12618127 0.29928434 0.008997064 0.15357494 0.022862902 -0.25659722 0.011283319
00000000: 72c9 193e 2ecf 48be e2d3 bf3c ee71 23be
00000010: cf1f 11bc c028 34bd 104a bcbd 063d e6bd
00000020: 4372 76bc 4cac 21bc 888c 6cbe f1d9 09be
00000030: ae1f dd3d 78db e0bc 4a79 1fba e61a b3bd
00000040: c04e a53e b189 41be 4fed b7bd 85a4 1d3d
00000050: ec6b 21be a967 35be 898b 8a3e c067 88be
00000060: 4682 17be 0bd7 4d3e 8053 5c3e 3b54 86be
00000070: e827 333d 7bf2 45be 3ac5 243e aeb3 14bc
00000080: 9d45 813e b3f2 3abe bf2b bdbd 13d8 af3d
00000090: 4176 693e 4a0e 9b3e 1f5d e0bd da3f 503e
000000a0: 3f3f 1f3e 5c2e b8bd 1fec a13d 0ef8 c2bd
000000b0: c302 babc 434e f1bd 7445 1dbe 94ac 1ebe
000000c0: 8950 843e 4ac6 083b 1167 30be db2b 8fbe
000000d0: ca08 1a3e 34e8 e43a 974a a6be 7bbc 303e
000000e0: 9269 b1bc 3ad9 21be 95e3 e33c 40c8 253d
000000f0: d722 8f3e 9234 c63d ff39 ebb7 bb96 bfbc
00000100: 1653 823b 7634 0b3e d72c d1bd 294f 96be
00000110: fab9 c1b9 fe38 dc3d 1796 7a3e 023f a03e
00000120: 01df 843e 176b fdb9 415a 563b 351e 3fbe
00000130: 4b86 91bd 6440 ff3d b04b 45bd 0caf 6e3d
00000140: 7060 663e 80c1 8fbe e95c f23d 22d3 b2bc
00000150: 6be9 b83d 2f24 f7bc d8a8 e73d 208b bfbd
00000160: 33b2 c4ba 706e 7e3e 498b 733e 8f3b 373d
00000170: f0c4 943d 4a91 053b 0544 403d 41cf 403e
00000180: 0070 883b 5ad5 81be 259b 9fbd 1ae6 1ebe
00000190: 14a5 30bd 8751 4f3e 10a1 ab3c 9373 833c
000001a0: 9f79 f13a 1681 463d 06be 0abe a926 e23d
000001b0: 49ea 263e e62e b33c 16db 3cbe 9b91 4a3d
000001c0: e9eb 0abe 1f93 e6ba ab71 303e 0adc 0cbe
000001d0: 5fb1 d7bc 399c ddba 427d c1bb 944e da3c
000001e0: 8c1b 4fbe 3f5e 82be 0c1b 713e 1787 a8bc
000001f0: c234 3abc 1a2e 5a3c 62d4 0abe 5f91 8ebe
00000200: 9bc4 64be b449 6b3e c33e 8b3e 179d 7ebe
00000210: 1db9 4cbd 8d54 1c3e a2ae ee3d 173a 813d
00000220: c732 773e ac59 f53d 32d6 603d 3d48 973d
00000230: 17f1 1b3e cddb a83d f606 303d 7efc 34be
00000240: d8fb 973d 30ca 4f3e 616f a0bd 55d5 99bd
00000250: c7be fb3d f661 67be 29ba 133e c9fa 1dbe
00000260: e1a1 5f3d d804 36bd 6820 113c 0aa1 7ebe
00000270: 55ca 6abd 51bf 6d3e 2b30 c4bd 375a 163e
00000280: 9c69 22bd 345e b4bb 3b37 843c 3b70 073c
00000290: 2019 f9bd 9fcf e53d 35ea 8fbd 5621 1f3e
000002a0: d7e2 233d 7ce6 c43c a2fa 143d ec0c 823e
000002b0: 6dc2 413e 9a07 113d b049 4a3e 2267 853d
000002c0: 2022 333e da1e 40be 9484 cabc fa39 a0bc
000002d0: 5062 77be a068 93be d934 f2bb 878d 0abc
000002e0: 5093 60bc 1374 88be 5690 873d 54af 323e
000002f0: fd6d 443c 96d3 de3d b36c 5c3e 768e 7d3d
00000300: ad4c 9f3c c636 d4bb e175 cebd 2124 603e
00000310: 523f 63be 20bb 8a3b c49c 58be 85d0 233c
00000320: 1e69 39be 6535 17be 5ea0 8cbd 7ea1 8439
00000330: cea2 cebc 4340 883e 8675 eabd fdb7 843c
00000340: 1750 1d3c 0682 fd3d e490 91be 482f 90be
00000350: 1754 1fbd 1ab3 063e d27b b3ba a7c1 083e
00000360: 8cd4 d2bd f392 40be 3903 5238 0592 ebbd
00000370: dc1b 2a3e 630c 1cbe d770 6ebe 7907 f5ba
00000380: 155c 9c3d b79e 6fbe 112d 553d 7fd4 d5ba
00000390: 0699 efbc 837a 8a3c 8774 403e c018 733e
000003a0: 891f 02be fb6c b13b 46ac 8d3e ed8f 663d
000003b0: 3b9e 693e 5634 16be 922b 5ebc 20c6 70bd
000003c0: b725 0b3e df3d d83d 3e6b 903b 2ab6 1bbe
000003d0: 1f7d 263d 327f 9fbd 9650 f13c e813 68be
000003e0: e6c3 d83b aa35 013e cc3b 993e 6c68 133c
000003f0: c042 1d3e fb4a bb3c b660 83be acdd 383c

weight_hh_l0 f4 [27, 9]
0.12878048 0.21046056 0.075144954 0.021795884 -0.2687662 0.2896526 -0.16933212 -0.059250336
-0.25559127 -0.14080958 -0.2305799 0.01705695 -0.102196224 -0.19916329 0.25800192 -0.2945742
-0.046674564 0.012004387 0.018681632 0.24803923 -0.23345512 0.034818888 0.28336626 0.08117656
-0.04104919 0.07816137 -0.0048148963 0.291794 -0.19555052 0.3132324 0.15382686 0.1916829
0.29672593 0.17890124 0.22018662 -0.31882152 -0.0032573089 -0.003229102 0.22545092 0.08552058
0.24783608 0.058575876 0.085348494 0.038749684 -0.113277964 0.24603468 0.017059835 0.05115995
-0.01083307 -0.1490728 0.061976314 0.16117868 0.08974888 -0.0017263655 0.026168851 0.008272085
-0.056513693 0.09589902 0.05803542 0.05095226 0.25681892 0.11439346 0.06969765 0.28109643
0.03161496 0.040799566 0.08472892 0.038654927 0.010834599 -0.2619384 0.046239704 -0.06880452
-0.027199078 0.21824197 0.3032746 0.2915747 -0.0022656939 0.1741265 -0.05053907 -0.2608004
-0.17066713 -0.15056837 -0.08077958 -0.27888167 0.011719579 0.121396 0.2549671 0.2871818
0.06874578 -0.049684543 -0.012526302 0.2391468 -0.09310349 -0.078047074 0.20075302 0.04137392
-0.14008473 0.26099366 -0.008175435 0.12516567 0.056352846 -0.22578515 -0.06553731 0.031292338
0.26873252 -0.123047546 -0.09311134 -0.2535304 0.1044816 -0.043352533 0.0657392 0.03331313
-0.15457958 -0.020039538 -0.1875378 0.2567906 0.12798259 -0.25038984 0.059594695 -0.1285319
0.051587854 -0.11028852 0.015479588 0.28610083 0.04348553 -0.09056454 0.18239093 0.23026583
0.08666003 -0.007196215 0.030568866 -0.021897703 0.0479192 0.0704277 0.0012461504 -0.14570166
-0.16734652 0.26221904 -0.093025446 -0.0241288 0.0997044 0.1356117 -0.24140924 0.25989792
0.022171762 -0.16284716 0.132019 -0.16781534 -0.24612232 -0.184062 0.044874534 -0.12891258
0.2125243 0.13425125 0.3252931 0.014549279 -0.08384941 -0.23335202 0.24858515 -0.08302991
-0.12303863 -0.16933608 0.043871958 0.22117057 -0.11075065 -0.16108707 -0.16568038 0.12719609
0.21834373 0.04478347 -0.04622241 -0.045318197 0.20271814 -0.06259742 -0.004868457 -0.2068336
0.31286976 -0.1836735 0.114105605 0.31727773 -0.14854231 0.10167027 -0.09121655 0.31819078
0.16366258 0.21353358 0.21118964 -0.123228095 -0.15842955 -0.15203817 0.09859843 -0.061956983
-0.28865394 -0.21267042 -0.2690354 -0.30960464 0.11946835 0.27701995 0.18935284 -0.028573465
0.29208383 -0.23918119 -0.31207633 -0.08529605 0.21339889 0.12214112 -0.021349248 0.15654764
0.06440877 -0.030114925 0.13641173 0.21908392 0.16640225 0.25277165 -0.17528379 0.2999795
-0.22265035 0.23666613 -0.097387165 0.08477362 0.22499779 0.33093083 0.12563066 0.24572186
-0.2994868 0.156271 0.116298415 -0.22665879 -0.22719704 -0.08854386 0.19518489 -0.15360437
0.09967904 -0.12887867 0.07804019 -0.29927585 -0.011424976 -0.0158319 -0.123901986 -0.12961885
-0.11283929 0.12988685 0.1648084
00000000: 08df 033e f982 573e 99e5 993d 488d b23c
00000010: b99b 89be 584d 943e 6665 2dbe 7bb0 72bd
00000020: dcdc 82be 6330 10be 231d 6cbe 04bb 8b3c
00000030: 414c d1bd 76f1 4bbe d418 843e 6ed2 96be
00000040: d42d 3fbd 0cae 443c 390a 993c fffd 7d3e
00000050: dc0e 6fbe 409e 0e3d 6215 913e e53f a63d
00000060: 3223 28bd 1113 a03d 47c6 9dbb 0666 953e
00000070: 653e 48be ff5f a03e ca84 1d3e 8648 443e
00000080: 76ec 973e e331 373e 9a78 613e 933c a3be
00000090: 9378 55bb 579f 53bb 9bdc 663e 6a25 af3d
000000a0: bec8 7d3e 42ed 6f3d 31cb ae3d fdb7 1e3d
000000b0: 47fe e7bd 84f0 7b3e 11c1 8b3c 198d 513d
000000c0: 307d 31bc 8aa6 18be e0da 7d3d 060c 253e
000000d0: 43ce b73d 3747 e2ba 0f60 d63c a487 073c
000000e0: e77a 67bd b566 c43d 8cb6 6d3d 51b3 503d
000000f0: c57d 833e 1e47 ea3d a4bd 8e3d dfeb 8f3e
00000100: b07e 013d 721d 273d 5b86 ad3d a154 1e3d
00000110: 9a83 313c ca1c 86be d865 3d3d 62e9 8cbd
00000120: 9ad0 debc d37a 5f3e cf46 9b3e 4749 953e
00000130: 097c 14bb 384e 323e 0e02 4fbd a187 85be
00000140: 5dc3 2ebe 982e 1abe c46f a5bd 94c9 8ebe
00000150: 7a03 403c 779e f83d 0c8b 823e 7e09 933e
00000160: 96ca 8c3d 0582 4bbd 1e3b 4dbc e6e2 743e
00000170: 0bad bebd 25d7 9fbd 3392 4d3e b377 293d
00000180: 5f72 0fbe f6a0 853e 42f2 05bc 6e2b 003e
00000190: 3ed2 663d 3934 67be 6d38 86bd 652c 003d
000001a0: 4f97 893e 5a00 fcbd 29b1 bebd bdce 81be
000001b0: 73fa d53d 6d92 31bd 46a2 863d 5973 083d
000001c0: 1c4a 1ebe f529 a4bc e909 40be 0f7a 833e
000001d0: de0d 033e 1933 80be 9119 743d de9d 03be
000001e0: c94d 533d f3de e1bd 199e 7d3c cf7b 923e
000001f0: e21d 323d e779 b9bd b0c4 3a3e ceca 6b3e
00000200: d07a b13d 3ace ebbb 8f6b fa3c d062 b3bc
00000210: ec46 443d 663c 903d de55 a33a d132 15be
00000220: e35c 2bbe 9341 863e 2084 bebd c3a9 c5bc
00000230: d231 cc3d cbdd 0a3e fc33 77be 5711 853e
00000240: 8ea1 b53c 68c1 26be fd2f 073e c9d7 2bbe
00000250: 7d07 7cbe c07a 3cbe 5cce 373d a901 04be
00000260: f89f 593e 2979 093e d18c a63e 1960 6e3c
00000270: 3db9 abbd d5f3 6ebe 1b8d 7e3e 960b aabd
00000280: adfb fbbd 7066 2dbe 15b3 333d 8a7a 623e
00000290: 3dd1 e2bd 02f4 24be 1ea8 29be b13f 023e
000002a0: 8095 5f3e df6e 373d b653 3dbd 939f 39bd
000002b0: 5895 4f3e 1333 80bd 9487 9fbb 30cc 53be
000002c0: 7730 a03e e814 3cbe 33b0 e93d 3a72 a23e
000002d0: 7a1b 18be 8138 d03d becf babd e7e9 a23e
000002e0: 2a97 273e 8ca8 5a3e 1942 583e 035f fcbd
000002f0: 5b3b 22be e5af 1bbe f9ed c93d 9bc6 7dbd
00000300: 73ca 93be 46c6 59be 02bf 89be 8084 9ebe
00000310: d3ab f43d 8fd5 8d3e b6e5 413e e612 eabc
00000320: 038c 953e eaeb 74be 78c8 9fbe b2af aebd
00000330: 3d85 5a3e 2025 fa3d 9ee4 aebc 064e 203e
00000340: bfe8 833d 93b3 f6bc 84af 0b3e 8957 603e
00000350: 5a65 2a3e 496b 813e 987d 33be ea96 993e
00000360: 74fe 63be 9b58 723e ec72 c7bd cb9d ad3d
00000370: d265 663e c46f a93e 53a5 003e 839e 7b3e
00000380: 5556 99be 8105 203e dd2d ee3d 3e19 68be
00000390: 57a6 68be 7c56 b5bd 8cde 473e 774a 1dbe
000003a0: 8624 cc3d c5f8 03be 89d3 9f3d af3a 99be
000003b0: d32f 3bbc e7b1 81bc 53c0 fdbd ceba 04be
000003c0: 4918 e7bd 0f01 053e 89c3 283e

bias_ih_l0 f4 [27]
0.021375528 -0.25939476 0.10992978 0.20903157 -0.063714914 0.04780758 0.21580765 -0.12522824
-0.12927186 0.019672792 -0.07225617 0.18163915 -0.17765951 0.0631391 -0.07358105 -0.0010116913
0.15481927 -0.07945614 -0.20324746 0.06921696 -0.102468655 -0.044470184 -0.09061666 0.20033792
0.08471028 0.03246117 -0.25646847
00000000: bb1b af3c 64cf 84be dd22 e13d 5f0c 563e
00000010: f77c 82bd e2d1 433d aefc 5c3e d53b 00be
00000020: d85f 04be d628 a13c 0bfb 93bd 9dff 393e
00000030: 60ec 35be 134f 813d a9b1 96bd ba9a 84ba
00000040: f188 1e3e e7b9 a2bd 1a20 50be 9fc1 8d3d
00000050: 16db d1bd 5e26 36bd 3a95 b9bd 6225 4d3e
00000060: 957c ad3d 01f6 043d d64f 83be

bias_hh_l0 f4 [27]
-0.09405578 -0.27994037 -0.20233254 0.007997774 -0.02451574 0.25867566 0.26376027 -0.23573393
-0.23502192 0.27057663 0.085319914 -0.2642178 -0.06699385 0.16703458 -0.0036206227 0.06158387
0.08601188 -0.19002551 -0.28013477 0.30774897 0.07126133 -0.05704725 0.05842344 -0.071751
-0.16621485 -0.13855845 -0.047659475
00000000: 51a0 c0bd 5854 8fbe 4330 4fbe 1809 033c
00000010: 3cd5 c8bc 2371 843e 960b 873e 3c64 71be
00000020: 96a9 70be 0589 8a3e 35bc ae3d 8e47 87be
00000030: 1234 89bd 1d0b 2b3e f847 6dbb 5e3f 7c3d
00000040: ff26 b03d 0c96 42be d36d 8fbe 4691 9d3e
00000050: 76f1 913d 61aa 69bd 6b4d 6f3d 30f2 92bd
00000060: 3a34 2abe 44e2 0dbe 9536 43bd

weight_ih_l0 f4 [27, 24]
0.3135096 -0.0004065315 0.011369317 0.16691951 -0.062612586 0.11284857 -0.052770164 0.30819088
-0.122365706 -0.1503699 -0.074440286 0.20668283 0.2792427 -0.030416606 0.2385082 -0.1896279
0.28838846 0.1706119 -0.10265227 -0.30918533 0.0097162975 0.29380983 0.033492334 -0.17707832
0.12344416 -0.07094609 -0.24680024 0.1350127 -0.11681234 0.19853555 0.31694183 -0.08887335
0.007580117 0.32682446 -0.2820333 -0.26468018 0.32728207 -0.13183206 -0.2952881 -0.21114938
-0.2759989 0.10435085 0.21528165 -0.13233753 -0.18390706 0.101606406 -0.008291196 -0.26045
0.20676585 -0.29187295 -0.25513396 0.021552045 -0.10029448 -0.3244924 0.14446484 -0.07405172
0.22833653 0.01835725 0.21913181 0.28580272 0.1651907 0.14542499 -0.018908309 0.07570956
0.08773032 -0.2306644 0.3027562 0.005692607 -0.06314079 0.24383457 0.093812995 -0.093507424
-0.14266013 0.27664346 0.06203706 -0.008705527 0.16854192 -0.16894299 0.28102568 -0.13209982
0.22133063 -0.20443355 -0.22336684 -0.280109 -0.014447712 0.11017557 -0.07393286 -0.05247815
0.14956367 -0.0821436 0.17704584 -0.091014616 0.24434666 -0.15225157 -0.07835426 -0.023338918
0.26583666 0.24919832 0.082505286 -0.066980384 -0.10038243 -0.22331537 -0.089994945 0.15129659
0.22313818 0.074190006 0.1315931 -0.08701669 0.17704414 0.27543634 0.20958911 -0.054922692
-0.29635835 0.30548128 -0.22237715 0.27518988 -0.3233101 0.22510266 -0.298291 -0.107521206
-0.021841345 0.23276779 0.06583492 0.058493737 -0.24524565 -0.17081732 -0.0057515125 -0.051337563
0.01194606 0.08768151 0.2664861 0.012124815 0.2743278 -0.2651008 -0.20495272 0.23436177
-0.19628732 0.07551868 -0.035778962 -0.046582237 -0.017427599 -0.08412342 -0.26496693 -0.13102043
0.2220859 -0.21556409 -0.20781243 0.11288851 -0.18392262 -0.23757139 -0.25538942 -0.094518445
-0.11567086 0.034148708 0.036282796 0.05748227 -0.2339478 0.27530795 -0.07183713 0.19335197
-0.07918472 0.08981549 -0.16510636 -0.10268121 0.2684142 -0.13973393 -0.061998248 -0.28610268
0.17540953 0.16873121 -0.19065794 -0.08171735 -0.03167772 -0.0347156 0.042414583 0.09654811
-0.111902304 -0.21734492 -0.045559023 -0.015347514 -0.10600008 0.014497184 0.11819562 -0.11510178
-0.24339788 -0.28764725 -0.09154934 -0.09994162 0.03745943 -0.19700317 -0.047490682 0.078012176
-0.28960094 0.030342042 -0.22251372 -0.19773394 0.036052782 -0.2595284 0.17088571 0.099217154
-0.0018769157 -0.08148622 -0.20244811 0.010888825 -0.02669204 0.05240479 -0.016366474 0.039796006
-0.07636273 0.22272572 0.24042748 -0.16649647 -0.041046754 0.11037595 0.05495247 -0.24989504
-0.1392701 0.22160432 -0.0026410166 -0.2994682 0.3343205 -0.15680751 -0.13516484 -0.31646922
-0.12985528 -0.31035388 -0.22929093 -0.08260847 -0.017011885 0.21127327 -0.014259257 0.08124619
-0.10720717 0.16185436 -0.014715459 -0.0419642 0.25884116 0.15701056 -0.21979737 -0.16336213
-0.25272113 0.2942839 0.007066415 0.3219114 -0.1438491 0.23990555 0.25978518 0.0076584904
-0.25420102 -0.2782003 0.0034582894 -0.3183301 0.057522774 0.02282794 -0.22745712 -0.2854062
00000000: 5584 a03e bc23 d5b9 5f46 3a3c f3ec 2a3e
00000010: 073b 80bd 271d e73d 8725 58bd 32cb 9d3e
00000020: df9a fabd 91fa 19be 2674 98bd aaa4 533e
00000030: e6f8 8e3e 3f2c f9bc 7e3b 743e d12d 42be
00000040: a7a7 933e e3b4 2e3e 5a3b d2bd 8a4d 9ebe
00000050: 1b31 1f3c 3e6e 963e 422f 093d 0554 35be
00000060: 4bd0 fc3d 2f4c 91bd 34b9 7cbe c540 0a3e
00000070: 4f3b efbd e74c 4b3e 3346 a23e 3b03 b6bd
00000080: a162 f83b 8955 a73e ab66 90be 2984 87be
00000090: 8491 a73e fcfe 06be 0030 97be 8b37 58be
000000a0: ba4f 8dbe e6b5 d53d cb72 5c3e 7d83 07be
000000b0: 2252 3cbe 0517 d03d ccd7 07bc b459 85be
000000c0: 6dba 533e 5f70 95be eba0 82be ea8d b03c
000000d0: 3167 cdbd de23 a6be 97ee 133e 6ea8 97bd
000000e0: 0dd1 693e f261 963c 1764 603e bc54 923e
000000f0: c027 293e 4aea 143e 99e5 9abc 9d0d 9b3d
00000100: f4ab b33d 4a33 6cbe dc02 9b3e 0c89 ba3b
00000110: f54f 81bd c5af 793e 0721 c03d d280 bfbd
00000120: 7f15 12be 36a4 8d3e 921a 7e3d a0a1 0ebc
00000130: 4196 2c3e 64ff 2cbe 99e2 8f3e 2d45 07be
00000140: 7fa4 623e 0757 51be 47ba 64be 726a 8fbe
00000150: 19b6 6cbc bba3 e13d 1c6a 97bd 54f3 56bd
00000160: 3827 193e e73a a8bd 814b 353e df65 babd
00000170: 0336 7a3e d6e7 1bbe 3378 a0bd 4231 bfbc
00000180: be1b 883e d82d 7f3e 88f8 a83d 032d 89bd
00000190: 4e95 cdbd c9ac 64be 454f b8bd 7eed 1a3e
000001a0: 567e 643e eef0 973d 57c0 063e ce35 b2bd
000001b0: 0f4b 353e fe05 8d3e 879e 563e 9ef6 60bd
000001c0: 48bc 97be 0b68 9c3e d6b6 63be b0e5 8c3e
000001d0: e788 a5be 5081 663e 99b9 98be 1434 dcbd
000001e0: 9fec b2bc ae5a 6e3e 75d4 863d 2197 6f3d
000001f0: ad21 7bbe bcea 2ebe 2f77 bcbb 5647 52bd
00000200: 68b9 433c 5d92 b33d de70 883e 29a7 463c
00000210: b274 8c3e 4bbb 87be 20df 51be 88fc 6f3e
00000220: 8bff 48be 8aa9 9a3d f68c 12bd 04cd 3ebd
00000230: 53c4 8ebc e648 acbd bfa9 87be 382a 06be
00000240: 7c6a 633e d5bc 5cbe c8cc 54be 1732 e73d
00000250: 3656 3cbe ea45 73be 67c2 82be e392 c1bd
00000260: d8e4 ecbd 84df 0b3d 459d 143d 8772 6b3d
00000270: 0390 6fbe 2af5 8c3e 581f 93bd 0ffe 453e
00000280: 992b a2bd 2ff1 b73d a411 29be 874a d2bd
00000290: 966d 893e 6916 0fbe e0f1 7dbd 0d7c 92be
000002a0: 8e9e 333e e0c7 2c3e d63b 43be 6d5b a7bd
000002b0: 7fc0 01bd f231 0ebd eaba 2d3d 04bb c53d
000002c0: 092d e5bd ab8f 5ebe 199c 3abd 2474 7bbc
000002d0: 9216 d9bd 9985 6d3c 8c10 f23d 7bba ebbd
000002e0: 4b3d 79be 8046 93be 387e bbbd 31ae ccbd
000002f0: 0f6f 193d 33bb 49be 9785 42bd d9c4 9f3d
00000300: 9346 94be e08f f83c a3da 63be c47a 4abe
00000310: 15ac 133d e8e0 84be aafc 2e3e 5d32 cb3d
00000320: d702 f6ba 3fe2 a6bd 8f4e 4fbe 0b67 323c
00000330: 44a9 dabc 68a6 563d fc12 86bc 2301 233d
00000340: 1064 9cbd 3612 643e 9f32 763e 0d7e 2abe
00000350: a420 28bd c90c e23d d715 613d 7ce4 7fbe
00000360: d29c 0ebe 3eec 623e e814 2dbb e553 99be
00000370: 0e2c ab3e 2692 20be a768 0abe 4108 a2be
00000380: c8f8 04be b4e6 9ebe 3ecb 6abe a12e a9bd
00000390: 825c 8bbc 0558 583e a99f 69bc 6764 a63d
000003a0: 6f8f dbbd 26bd 253e 1c19 71bc a7e2 2bbd
000003b0: d486 843e 60c7 203e 9012 61be 6748 27be
000003c0: aa64 81be 61ac 963e 638d e73b 92d1 a43e
000003d0: 2e4d 13be cda9 753e 9002 853e 13f4 fa3b
000003e0: a326 82be 4570 8ebe 78a4 623b 2afc a2be
000003f0: 009d 6b3d a901 bb3c 85ea 68be c320 92be

weight_hh_l0 f4 [27, 9]
0.08363265 0.045689136 3.560814e-05 -0.08276003 0.24205975 -5.7469533e-05 0.25731173 0.003063182
0.12441125 -0.09476923 -0.089568794 -0.00031672406 0.23831363 0.032447774 -0.0005650678 0.21699189
0.01239136 -0.27381715 -0.13751133 0.09544164 -2.375934e-05 0.070360295 0.3296395 -4.6003745e-05
0.024902994 -0.0011801636 -0.039244566 0.072236426 0.16394718 2.09467e-05 0.0009026041 -0.20056514
-9.223606e-06 -0.08767102 0.00430127 0.1517825 0.094945416 -0.0760929 4.7704056e-05 -0.15221006
-0.18764417 2.5224032e-05 0.23709436 -0.0015530871 -0.21147002 -0.0060598906 -0.16555913 0.00025515447
0.00086962763 -0.23784181 9.900987e-06 -0.0019703761 -0.0014672845 0.23972386 0.04065813 0.07937803
-5.1027368e-05 0.040600877 0.0196948 -0.001612663 0.022538237 0.00035565466 -0.16483237 0.037396543
-0.30155423 -0.0006051127 0.0719846 -0.096653685 6.637296e-05 0.22571626 0.006838684 0.08182802
-0.00013128643 -0.26722062 0.00019514924 0.0013738181 -0.044296984 -2.4997075e-06 -0.09457037 4.359721e-06
0.015990235 0.2621173 0.25192255 9.8911994e-05 -0.24280167 0.093094505 -0.00018843575 -0.3095451
0.011153796 -0.04727204 0.1653856 -0.2747943 0.0006213014 0.17251556 -0.015664194 -0.01159596
-0.18660085 -0.050987832 -0.2397132 0.04237553 0.28480202 -5.216568e-05 -0.13849425 -0.23798184
-0.015617269 0.11767296 0.009784588 0.29207262 -0.14171912 0.14754082 -0.00020339087 -0.01493208
0.31631657 3.4727385e-05 -0.1948337 -0.014102957 0.26346526 0.0007505479 0.14589672 -3.437065e-05
-0.027923476 0.2864633 -0.0031849593 0.25305057 0.005798744 0.060211506 0.039967086 0.070745416
0.00028518913 -0.013766097 0.13038883 -0.00021045972 0.018929431 0.0050875135 -0.32066497 0.016173912
0.1407581 -9.84656e-05 -0.104978025 0.26389027 0.029026797 -0.10221132 0.0042201253 -0.09528044
-0.1038917 0.19597909 -0.00030129723 -0.030724 0.24530397 -0.0005116745 -0.2724633 -0.023117501
0.29118815 -0.14832664 -0.05574865 -0.00061505265 -0.21543378 0.09562106 -0.00050840963 -0.122750305
-0.06247282 -0.2292845 0.20316954 0.0013565496 8.069779e-05 0.04137323 0.16718312 0.05489856
-0.17552266 0.084463075 -0.24313237 0.24319153 -0.28248718 -0.00072102237 0.29955116 -0.019725746
0.037015818 -0.18842743 -0.15197769 -0.33164048 0.21478373 0.117428415 -0.00023369218 0.08508815
-0.24317716 0.0056562694 -0.06943926 0.0040370137 0.28742167 0.27092934 -0.18781483 0.0010872328
0.095783144 0.19219494 -0.0078082476 0.18690914 -0.0075597134 0.31381541 0.002019975 0.3218594
0.00024154391 0.30760914 0.24817306 -0.041670766 -0.03196805 0.04786619 -0.30085588 0.19706197
-0.18535525 -0.0004956888 0.031217434 -0.17919448 2.0265794e-05 -0.317722 -0.04827718 -0.14195973
0.07750011 -0.1966496 0.0010817902 -0.11207604 0.17282166 0.04825995 0.007866195 -0.03846294
0.20747793 0.036745407 0.11205623 0.00034491328 0.14504683 0.3024415 0.00040881196 0.25969297
0.020064047 -0.21435888 0.25647345 -0.20773567 0.00024255135 0.14840952 -0.28501078 -0.011946532
0.3174425 -0.120792 -0.28596723
00000000: 9847 ab3d 8824 3b3d f359 1538 177e a9bd
00000010: 83de 773e 710b 71b8 5dbe 833e abbf 483b
00000020: 53cb fe3d 5f16 c2bd d86f b7bd fc0d a6b9
00000030: 7d08 743e f5e7 043d 0f21 14ba 1f33 5e3e
00000040: 2105 4b3c c331 8cbe c5cf 0cbe e876 c33d
00000050: cb4e c7b7 0f19 903d 82c6 a83e 25f4 40b8
00000060: 5d01 cc3c b8af 9aba e9be 20bd b1f0 933d
00000070: c5e1 273e b2b6 af37 bc9c 6c3a f360 4dbe
00000080: 16bf 1ab7 dd8c b3bd abf1 8c3b df6c 1b3e
00000090: be72 c23d 98d6 9bbd d715 4838 f4dc 1bbe
000000a0: cb25 40be 3298 d337 ddc8 723e f590 cbba
000000b0: 998b 58be 0c92 c6bb 5588 29be 41c6 8539
000000c0: b9f7 633a ce8c 73be 6a1c 2637 6d21 01bb
000000d0: e651 c0ba 2c7a 753e 2489 263d f390 a23d
000000e0: 3806 56b8 1b4d 263d fd56 a13c fe5f d3ba
000000f0: 1ca2 b83c 2977 ba39 d1c9 28be 1e2d 193d
00000100: 5165 9abe 6da0 1eba a96c 933d 5ef2 c5bd
00000110: b631 8b38 2a22 673e 0a17 e03b 7395 a73d
00000120: efa9 09b9 24d1 88be faa0 4c39 b011 b43a
00000130: c170 35bd a6c0 27b6 1cae c1bd b849 9236
00000140: f4fd 823c 3d34 863e fefb 803e f96e cf38
00000150: 00a1 78be 55a8 be3d d696 45b9 b27c 9ebe
00000160: 69be 363c 54a0 41bd d85a 293e d7b1 8cbe
00000170: d5de 223a eba7 303e 3252 80bc fbfc 3dbc
00000180: 4b14 3fbe 9ed8 50bd 6177 75be f791 2d3d
00000190: 92d1 913e 79cc 5ab8 70d1 0dbe 83b1 73be
000001a0: 93df 7fbc 85fe f03d 894f 203c 8b8a 953e
000001b0: d11e 11be f114 173e 5245 55b9 afa5 74bc
000001c0: 3ff4 a13e 3fa8 1138 7c82 47be 1710 67bc
000001d0: ebe4 863e 6bc0 443a f365 153e 3429 10b8
000001e0: c6bf e4bc 51ab 923e c0ba 50bb d88f 813e
000001f0: 6403 be3b 57a0 763d 87b4 233d f9e2 903d
00000200: 7085 9539 328b 61bc a684 053e daae 5cb9
00000210: e511 9b3c 28b5 a63b 332e a4be 277f 843c
00000220: e422 103e 517f ceb8 b8fe d6bd a01c 873e
00000230: 9bc9 ed3c 2b54 d1bd fa48 8a3b 6422 c3bd
00000240: 2cc5 d4bd beae 483e 6ef7 9db9 e6b0 fbbc
00000250: f730 7b3e e521 06ba 4f80 8bbe ea60 bdbc
00000260: 9d16 953e f0e2 17be b258 64bd 7c3b 21ba
00000270: ac9a 5cbe f9d4 c33d cb46 05ba 8364 fbbd
00000280: 80e3 7fbd 8ec9 6abe ad0b 503e 40ce b13a
00000290: 4c3c a938 fa76 293d 0d32 2b3e 50dd 603d
000002a0: 36bc 33be fafa ac3d b1f7 78be 3307 793e
000002b0: 29a2 90be fe02 3dba c55e 993e e397 a1bc
000002c0: e69d 173d 1ff3 40be 0aa0 1bbe c8cc a9be
000002d0: 44f0 5b3e 4f7e f03d 440b 75b9 b242 ae3d
000002e0: 6f03 79be 3a58 b93b 2c36 8ebd ed48 843b
000002f0: ef28 933e 40b7 8a3e 8852 40be 7b81 8e3a
00000300: f429 c43d c0ce 443e 54dc ffbb 1c65 3f3e
00000310: 79b7 f7bb 6aac a03e 8f61 043b c1ca a43e
00000320: f346 7d39 f27e 9d3e 1421 7e3e f7ae 2abd
00000330: eef0 02bd 570f 443d c809 9abe 9dca 493e
00000340: c4cd 3dbe 1df1 01ba b4bb ff3c c27e 37be
00000350: 7600 aa37 75ac a2be 4bbe 45bd e45d 11be
00000360: 61b8 9e3d 835e 49be dbca 8d3a 1f88 e5bd
00000370: 29f8 303e 3aac 453d 37e1 003c 518b 1dbd
00000380: 1875 543e 5a82 163d bd7d e53d 7ad5 b439
00000390: 2887 143e 9dd9 9a3e d055 d639 7af6 843e
000003a0: 5b5d a43c e580 5bbe 7d50 833e a9b8 54be
000003b0: 6255 7e39 aaf8 173e efec 91be 63bb 43bc
000003c0: d387 a23e cc61 f7bd 4c6a 92be

bias_ih_l0 f4 [27]
-0.24182625 0.26556325 0.14877625 -0.22048695 -0.01608352 0.016540887 -0.10350657 -0.26067472
-0.18958817 -0.033444896 -0.14761569 0.17700748 0.20586464 -0.3061324 0.10884226 -0.051337004
0.17120421 -0.12214662 0.23071308 -0.20047806 0.018851312 0.26337513 0.31081206 0.25714225
0.18450148 0.17321005 0.25755617
00000000: 4da1 77be e8f7 873e cd58 183e 55c7 61be
00000010: 96c1 83bc c180 873c 41fb d3bd 2877 85be
00000020: 6723 42be 84fd 08bd 9128 17be 7341 353e
00000030: 2ece 523e 63bd 9cbe b1e8 de3d c046 52bd
00000040: 2850 2f3e 0228 fabd 0d40 6c3e 1f4a 4dbe
00000050: 116e 9a3c 1bd9 863e c222 9f3e 26a8 833e
00000060: f5ed 3c3e fa5d 313e 67de 833e

bias_hh_l0 f4 [27]
0.20384745 -0.12144422 0.0890632 -0.19062188 0.030414945 -0.0031950262 -0.22353 -0.18434869
-0.145046 0.10161229 -0.10294732 0.11663058 -0.33081096 0.16159299 0.11231213 -0.2848149
0.22845998 0.014802665 0.17573054 -0.27879733 -0.21506456 0.12555276 0.30052933 0.30619052
-0.15693828 0.21217966 0.06639793
00000000: 63bd 503e bfb7 f8bd c466 b63d 6232 43be
00000010: c328 f93c a563 51bb 0ce5 64be e7c5 3cbe
00000020: f086 14be 1b1a d03d 0bd6 d2bd 03dc ee3d
00000030: 0e60 a9be a278 253e e703 e63d 42d3 91be
00000040: 6af1 693e e186 723c b5f2 333e 86be 8ebe
00000050: e239 5cbe e790 003e fbde 993e 01c5 9c3e
00000060: 6eb4 20be a045 593e a3fb 873d

weight_ih_l0 f4 [27, 39]
-0.32554203 3.1996232e-09 -0.07543084 0.025493415 0.10067725 -0.016933199 0.294574 -0.19758652
0.0001791733 -0.12221911 0.05703997 -0.113134705 0.10309491 0.17896776 -0.015173089 0.16729245
0.113932416 -0.014725218 0.15344864 0.32340732 0.13468924 -0.27894148 0.048574787 0.24326974
-0.14960957 -0.0945177 0.16162714 -0.11791888 -0.07386445 0.28832453 0.030761618 0.08882343
-0.043852244 -0.27497125 -0.12780878 -0.05721027 0.09424479 0.2320483 0.12915514 0.033434894
-5.8683738e-05 -0.055862818 -0.266888 0.26610315 0.104223475 0.11657574 -0.17646295 -0.00035716928
-0.043759767 -0.2584684 -0.10707137 -0.23302543 0.09112283 0.022304997 0.19620962 -0.18895076
-0.22756182 0.14911918 -0.273917 -0.32646695 -0.15518959 -0.26061314 -0.061154004 0.050469913
-0.17699252 -0.019330695 -0.08004109 -0.17946161 0.16284423 -0.11196519 -0.10100614 -0.21950457
0.10072633 0.24722606 -0.23902963 -0.012851227 -0.24354452 -0.25099942 -0.14499561 -1.2210891e-08
0.010892835 0.29431382 0.28897578 0.037288286 0.06902024 -0.28460553 0.0013524579 -0.11493778
-0.033425815 -0.024239413 -0.19908324 -0.16273606 -0.08784941 0.16115022 -0.092083335 -0.3245649
0.22707966 -0.06341419 0.020803876 -0.29424313 0.1672694 -0.08090494 0.16692047 0.2017163
0.042555895 -0.10686322 0.12087811 0.06599317 0.00021336973 -0.21130116 0.1157183 -0.23300554
0.049494296 0.10102886 0.33128464 0.30137032 0.1344994 -0.18677783 2.0483496e-20 -0.106309764
0.30171987 -0.16455822 0.08449487 0.15675706 -0.23027176 0.0002804359 0.2139309 0.20384052
-0.21813884 0.25152862 0.14946558 -0.027617816 -0.32730713 -0.17452252 -0.14861101 0.28043294
0.19770347 0.10286329 -0.08394063 0.23391248 -0.31347132 -0.17578895 0.12337761 -0.12206704
0.3215474 0.1658442 -0.03946777 -0.1499485 0.25690624 -0.2602209 -0.12810244 0.0041767536
-0.2883076 -0.02518443 -0.1587854 0.115484625 -0.22973295 1.32910165e-17 -0.279112 -0.08845323
-0.22396499 0.2913887 0.29722413 0.22948411 0.00075617403 0.18003751 0.11983783 0.19915763
0.063903466 0.26395905 0.04340095 -0.26707724 -0.06897547 -0.28016034 0.043531384 -0.15016162
-0.14324957 -0.13193032 0.18797673 -0.14343913 -0.23929569 0.15052287 0.32836908 0.13765322
0.15474717 -0.10853159 0.32371882 -0.18574491 -0.22214317 0.3089799 0.18819368 -0.24108715
0.007938191 0.253017 -0.20220831 -0.11737946 1.5012345e-23 -0.2752087 0.1335085 0.0029957343
0.062523164 0.28782395 0.18220453 0.0011757534 0.09572724 0.33637497 -0.1927249 -0.27541652
-0.1345266 -0.19419977 0.038424972 0.31951723 -0.084038265 -0.28477556 -0.18853493 0.06172592
-0.15648174 0.07957084 0.032716326 0.010793156 -0.006234093 -0.09683974 0.33332592 -0.079983294
-0.15249504 -0.03797955 0.18483172 0.042769812 0.2551416 0.24920915 0.018737536 0.036767423
0.18966126 -0.097305775 0.1822565 0.00011135019 0.010442473 -0.21837097 -0.21593773 0.23842822
-0.1620715 -0.009150275 0.00037336597 0.05320327 0.04233046 -0.09912104 -0.12251171 0.16172017
0.22785233 -0.10999075 -0.14486931 0.23751043 -0.32081658 0.27273414 -0.1914533 0.15680245
00000000: 72ad a6be 5ee0 5b31 7c7b 9abd 91d7 d03c
00000010: e02f ce3d 7eb7 8abc 67d2 963e 1f54 4abe
00000020: 77e0 3b39 034e fabd bea2 693d 2bb3 e7bd
00000030: 6d23 d33d 5343 373e 8c98 78bc b64e 2b3e
00000040: 6655 e93d 0a42 71bc a421 1d3e a595 a53e
00000050: faeb 093e 6bd1 8ebe 5bf6 463d b41b 793e
00000060: 4033 19be 7f92 c1bd 9681 253e 747f f1bd
00000070: 3f46 97bd 469f 933e caff fb3c 0fe9 b53d
00000080: 699e 33bd 08c9 8cbe 4ee0 02be 5155 6abd
00000090: 6a03 c13d 129e 6d3e 3f41 043e 07f3 083d
000000a0: 2f23 76b8 69d0 64bd 8ba5 88be ac3e 883e
000000b0: 1e73 d53d 43bf ee3d b4b2 34be 7342 bbb9
000000c0: 713d 33bd f855 84be 3c48 dbbd 389e 6ebe
000000d0: 9b9e ba3d f8b8 b63c 2deb 483e 4f7c 41be
000000e0: f705 69be b3b2 183e d93e 8cbe ad26 a7be
000000f0: 05ea 1ebe 166f 85be 9f7c 7abd 8ab9 4e3d
00000100: 873d 35be 685b 9ebc 95ec a3bd c9c4 37be
00000110: a3c0 263e 014e e5bd 4fdc cebd cec5 60be
00000120: 9b49 ce3d d428 7d3e 2fc4 74be f48d 52bc
00000130: bc63 79be ff82 80be bb79 14be 11c8 51b2
00000140: dd77 323c 4db0 963e a2f4 933e 9abb 183d
00000150: 7c5a 8d3d d1b7 91be f544 b13a 8064 ebbd
00000160: 82e9 08bd bc91 c6bc 7adc 4bbe 48a4 26be
00000170: 64ea b3bd 9004 253e 3096 bcbd 5f2d a6be
00000180: 9287 683e 4ddf 81bd e46c aa3c 09a7 96be
00000190: ab48 2b3e 7db1 a5bd 33ed 2a3e b88e 4e3e
000001a0: 174f 2e3d 1bdb dabd f18e f73d 6d27 873d
000001b0: 00bc 5f39 555f 58be b7fd ec3d 0199 6ebe
000001c0: 88ba 4a3d 38e8 ce3d 249e a93e 364d 9a3e
000001d0: 36ba 093e b042 3fbe 0e76 c11e efb8 d9bd
000001e0: 077b 9a3e f381 28be a50b ad3d ec84 203e
000001f0: 5ccc 6bbe 7807 9339 b410 5b3e 92bb 503e
00000200: ca5f 5fbe 5cc8 803e 810d 193e c23e e2bc
00000210: cd94 a7be 08b6 32be 7c2d 18be e894 8f3e
00000220: c772 4a3e fda9 d23d 11e9 abbd c186 6f3e
00000230: 507f a0be 0502 34be 67ad fc3d 49fe f9bd
00000240: dca1 a43e 10d3 293e f5a8 21bd 198c 19be
00000250: 3789 833e ac3b 85be 492d 03be 26dd 883b
00000260: 0e9d 93be 944f cebc a498 22be 3483 ec3d
00000270: 1d3f 6bbe 0d2d 7523 c5e7 8ebe f826 b5bd
00000280: 1457 65be e630 953e c32d 983e e2fd 6a3e
00000290: fb39 463a c15b 383e 896d f53d faef 4b3e
000002a0: d2df 823d a425 873e 32c5 313d 59be 88be
000002b0: 0343 8dbd 2d71 8fbe f74d 323d f8c3 19be
000002c0: 04b0 12be be18 07be f97c 403e b5e1 12be
000002d0: ee09 75be ab22 1a3e fe1f a83e f7f4 0c3e
000002e0: 0b76 1e3e cf45 debd 79be a53e ea33 3ebe
000002f0: 8079 63be 9d32 9e3e d8b5 403e 8ddf 76be
00000300: 300f 023c 728b 813e b20f 4fbe a464 f0bd
00000310: c430 9119 28e8 8cbe 74b6 083e 1554 443b
00000320: 250c 803d a95d 933e d393 3a3e bd1b 9a3a
00000330: a50c c43d 5739 ac3e ad59 45be 6503 8dbe
00000340: 57c1 09be 4edc 46be 8163 1d3d c397 a33e
00000350: 411c acbd 1ace 91be 4d0f 41be 51d4 7c3d
00000360: c03c 20be 09f6 a23d 8e01 063d c7d5 303c
00000370: 5d47 ccbb ea53 c6bd b2a9 aa3e 48ce a3bd
00000380: a927 1cbe 7290 1bbd 8744 3d3e 662f 2f3d
00000390: eba1 823e af30 7f3e 767f 993c 7099 163d
000003a0: 9036 423e 4048 c7bd 73a1 3a3e ae84 e938
000003b0: e816 2b3c a49c 5fbe c81e 5dbe 8726 743e
000003c0: 12f6 25be 09eb 15bc 55c0 c339 aceb 593d
000003d0: b462 2d3d f9ff cabd 6be7 fabd f999 253e
000003e0: 1f52 693e d542 e1bd 9f58 14be ef35 733e
000003f0: 1242 a4be cfa3 8b3e 550c 44be d290 203e

weight_hh_l0 f4 [27, 9]
0.02301365 -0.1414511 -0.26028165 0.15213674 -0.23047999 -0.2036946 -0.12196546 -0.15552282
-0.29984707 0.13528402 -0.030412754 -0.12946013 0.23885342 -0.31719103 0.32237443 0.044495095
-0.13436404 -0.26348233 -0.22639424 0.05157344 -0.17828365 0.007810922 0.24308826 -0.04338869
-0.2044376 0.078513674 0.07159969 0.2899899 0.06620336 0.049561907 0.108611114 0.110862926
0.07525414 0.14010748 0.2960689 -0.21622914 0.14086708 -0.015756527 -0.06653431 0.08034739
-0.053191185 0.2661596 0.2675101 0.18871798 0.02939816 -0.18997145 -0.121229135 0.18810067
-0.24079935 0.018691555 -0.21477714 0.22300042 -0.27113625 0.30051517 0.30708754 0.21840727
0.28963146 0.22793545 -0.16484499 -0.25269687 -0.037599657 -0.2912488 0.18464395 -0.32467893
-0.111247405 -0.00479506 0.24116749 -0.09822223 -0.10479717 0.31364334 0.123537324 -0.3188333
-0.11247749 0.31174517 0.05449721 -0.03121242 0.20683947 0.32770905 0.28301576 -0.20366362
-0.1579392 -0.31426716 -0.009883516 -0.15104783 -0.28046787 -0.27253556 0.13061564 0.2761577
-0.11710521 0.27960566 -0.22557603 0.024081418 0.104076326 0.2612211 -0.21416378 0.09135308
0.13522635 0.19365937 -0.21436517 0.09611856 0.10788396 0.19151211 0.14831965 -0.113908045
-0.24150294 -0.059812248 -0.22093937 -0.15183832 0.3034314 0.093542166 0.33448765 -0.09071627
0.3337578 -0.20066671 0.045160674 -0.31818146 0.22016963 0.16806643 -0.30431697 0.013380061
0.23667395 0.12565033 -0.13742429 -0.1135759 -0.034244653 -0.16084017 -0.3180996 0.2956754
-0.27343032 0.16168217 -0.24657795 0.14184825 -0.022042645 0.27794892 -0.0026852258 0.3118755
0.196618 0.039328426 0.13067916 -0.18204512 0.26769915 0.11369087 -0.1615513 -0.2499042
0.0012844821 0.062470738 -0.30808315 0.13428617 0.02279467 -0.2999233 0.3056039 0.33883977
0.08485498 0.26674363 -0.037138846 -0.2653777 0.23866487 -0.27733076 0.1315368 0.09364772
0.32264903 -0.032712933 0.25502095 0.3315638 0.1294704 -0.15435717 -0.17830504 -0.27303562
0.24021715 -0.0967691 0.12392713 0.2617487 0.04508705 -0.29044244 -0.114998065 -0.31198364
-0.24112588 -0.17623708 -0.21053886 0.0571887 0.2752013 -0.083114244 0.12802175 -0.19076368
0.010264597 -0.29554927 0.00088051934 0.08473992 -0.20750059 0.2872782 -0.08252637 -0.092054844
0.29032815 0.01284871 -0.16154651 0.13158543 0.03138938 -0.13386299 0.26887494 -0.18393609
0.24834795 -0.2434037 -0.19536254 0.28498855 0.0033989442 0.16488701 0.14191334 0.18325149
-0.18070835 0.2341374 -0.023088919 0.15822892 -0.13007563 0.010034715 -0.0048314175 0.059543636
-0.13425855 0.23032747 -0.21749488 0.14676055 0.3235564 -0.1989858 0.082852386 -0.055082045
0.03472377 0.33895224 -0.0881241 0.085113466 0.117598005 0.12337893 0.22512189 -0.052289814
-0.2073918 -0.04204111 -0.19835022 0.18702511 -0.29998186 -0.08504056 -0.16352937 -0.20405683
-0.025244335 -0.14351147 -0.04659951
00000000: 1f87 bc3c 8fd8 10be a343 85be bcc9 1b3e
00000010: f202 6cbe 5195 50be 07c9 f9bd 6041 1fbe
00000020: 8e85 99be e587 0a3e 2b24 f9bc 3291 04be
00000030: fe95 743e dd66 a2be 430e a53e 7d40 363d
00000040: ba96 09be 28e7 86be e4d3 67be ac3e 533d
00000050: fd8f 36be c3f2 ff3b 21ec 783e 57b8 31bd
00000060: 1758 51be c7cb a03d dca2 923d 8e79 943e
00000070: a195 873d 6d01 4b3d 816f de3d 1a0c e33d
00000080: d81e 9a3d 5678 0f3e 5896 973e 2c6b 5dbe
00000090: 763f 103e d513 81bc 2443 88bd 2c8d a43d
000000a0: 00df 59bd 1246 883e 15f7 883e 493f 413e
000000b0: 69d4 f03c e087 42be fb46 f8bd 769d 403e
000000c0: 1b94 76be 081f 993c 8aee 5bbe 395a 643e
000000d0: 5fd2 8abe 20dd 993e 943a 9d3e 28a6 5f3e
000000e0: 934a 943e e967 693e 20cd 28be 7c61 81be
000000f0: 1902 1abd 901e 95be 4e13 3d3e 513c a6be
00000100: aed5 e3bd e11f 9dbb 9cf4 763e bd28 c9bd
00000110: e69f d6bd dc95 a03e 2301 fd3d 1e3e a3be
00000120: 995a e6bd 109d 9f3e 7738 5f3d 30b1 ffbc
00000130: bacd 533e 7bc9 a73e 71e7 903e 328d 50be
00000140: d0ba 21be a0e7 a0be 78ee 21bc 48ac 1abe
00000150: 7c99 8fbe c889 8bbe 1bc0 053e 8b64 8d3e
00000160: dbd4 efbd 7928 8f3e 67fd 66be 6546 c53c
00000170: f825 d53d c6be 853e c04d 5bbe 5317 bb3d
00000180: c778 0a3e a44e 463e 8b82 5bbe cfd9 c43d
00000190: 44f2 dc3d c01b 443e 1be1 173e 9f48 e9bd
000001a0: 8c4c 77be b0fd 74bd ee3d 62be 817b 1bbe
000001b0: 5c5b 9b3e 0993 bf3d f741 ab3e 74c9 b9bd
000001c0: 4de2 aa3e 937b 4dbe 66fa 383d aee8 a2be
000001d0: 2674 613e 9b19 2c3e 6fcf 9bbe 0b38 5b3c
000001e0: a85a 723e 7baa 003e f4b8 0cbe 7b9a e8bd
000001f0: 1f44 0cbd 49b3 24be f3dd a2be c462 973e
00000200: 0fff 8bbe 0390 253e ee7e 7cbe ab40 113e
00000210: c792 b4bc 524f 8e3e 9dfa 2fbb 25ae 9f3e
00000220: 3b56 493e d816 213d c2d0 053e 096a 3abe
00000230: dd0f 893e c2d6 e83d b46d 25be e3e6 7fbe
00000240: 115c a83a 51e1 7f3d 13bd 9dbe 5082 093e
00000250: e3bb ba3c 8c8f 99be 1d78 9c3e 687c ad3e
00000260: 73c8 ad3d 9f92 883e e71e 18bd 96df 87be
00000270: 9064 743e 4cfe 8dbe 95b1 063e 60ca bf3d
00000280: 4132 a53e fffd 05bd 1b92 823e bbc2 a93e
00000290: e393 043e ce0f 1ebe 9995 36be 53cb 8bbe
000002a0: 7cfb 753e e12e c6bd 82cd fd3d ed03 863e
000002b0: 33ad 383d dfb4 94be 1b84 ebbd 52bc 9fbe
000002c0: b4e9 76be 7e77 34be 8097 57be b33e 6a3d
000002d0: 2fe7 8c3e cd37 aabd 2218 033e 8e57 43be
000002e0: d72c 283c 3c52 97be a7d2 663a 208c ad3d
000002f0: 097b 54be 2116 933e 9603 a9bd 4087 bcbd
00000300: e4a5 943e 6583 523c 736c 25be 55be 063e
00000310: 2792 003d 6113 09be faa9 893e be59 3cbe
00000320: ed4e 7e3e d23e 79be 1e0d 48be 05ea 913e
00000330: d2c0 5e3b 24d8 283e bb51 113e 47a6 3b3e
00000340: 9c0b 39be b7c1 6f3e f924 bdbc c306 223e
00000350: 8c32 05be a568 243c de50 9ebb 07e4 733d
00000360: 137b 09be f7da 6b3e fab6 5ebe 6648 163e
00000370: 2fa9 a53e efc2 4bbe 83ae a93d b69d 61bd
00000380: 833a 0e3d 268b ad3e 687a b4bd f84f ae3d
00000390: 39d7 f03d 18ae fc3d 5a86 663e d82d 56bd
000003a0: 845e 54be 4d33 2cbd 521c 4bbe 8383 3f3e
000003b0: 3997 99be bf29 aebd 3e74 27be 46f4 50be
000003c0: 35cd cebc acf4 12be 21df 3ebd

bias_ih_l0 f4 [27]
0.23123315 -0.00034094794 0.17374034 -0.333431 0.1378719 -0.19855253 -0.10840545 -0.19879466
0.21662731 0.250584 0.021909464 -0.13544038 -0.22793344 -0.14159366 0.29907054 -0.124491565
-0.31687415 0.24447303 0.17284615 0.32363728 -0.061134126 0.22666746 -0.3167886 0.106780194
-0.08450846 0.083026074 0.059752766
00000000: 62c8 6c3e 42c1 b2b9 fde8 313e 78b7 aabe
00000010: 4b2e 0d3e 5b51 4bbe ad03 debd d490 4bbe
00000020: 8dd3 5d3e 8c4c 803e 7a7b b33c e2b0 0abe
00000030: 6267 69be eefd 10be c61f 993e 6ff5 febd
00000040: 543d a2be 2357 7a3e 95fe 303e c9b3 a53e
00000050: c767 7abd 841b 683e 1e32 a2be 93af da3d
00000060: c512 adbd 9309 aa3d 51bf 743d

bias_hh_l0 f4 [27]
0.19910657 0.28275064 0.24111296 -0.3375296 0.2905387 0.12314872 0.17723344 0.16070893
-0.2891734 -0.11863653 -0.29613534 0.21687381 -0.116268665 0.27498803 -0.29919115 -0.08453307
-0.292962 0.22542393 0.16037582 -0.28327325 0.31023896 0.16823076 0.24135724 0.18034057
-0.31131592 0.05701739 0.2817785
00000000: 98e2 4b3e b1c4 903e 51e6 763e aed0 acbe
00000010: 7dc1 943e 6535 fc3d af7c 353e e290 243e
00000020: 890e 94be b6f7 f2bd 0d9f 97be 2b14 5e3e
00000030: 441e eebd 3bcb 8c3e 952f 99be ad1f adbd
00000040: 1eff 95be 88d5 663e 8f39 243e 3109 91be
00000050: a4d7 9e3e af44 2c3e 5a26 773e 33ab 383e
00000060: cd64 9fbe 118b 693d 4645 903e

weight f4 [9, 9]
-0.09127535 -0.2695302 0.22190528 -0.051386137 -0.18650223 0.2489284 -0.16189948 -0.01115422
0.17554067 -3.2353577e-07 0.00016343 -0.0004948478 0.00048856443 -2.654911e-05 -3.5236133e-07 7.142087e-06
-3.8585943e-09 0.00043191086 0.0060792784 -0.26945022 -0.119153544 0.16731842 0.21697284 -0.14888257
0.008852136 -0.2553696 -0.08144578 0.25484207 -0.30686373 0.19650404 0.08677619 0.019326521
-0.06854852 -0.060018495 0.3181526 0.12253133 0.09319435 -0.10670387 -0.21064262 -0.010605343
0.13498576 0.16714488 0.26716468 -0.32432202 0.22715278 -0.0027960981 -0.30697963 0.21959019
-0.22863583 -0.097552136 0.1999108 -0.28320256 -0.12540112 -0.17150563 0.33638167 -0.1431355
0.1953264 -0.004796155 0.2898687 0.17579861 -0.28861514 -0.21058095 0.12721212 -0.011092105
0.013634133 -0.2248662 0.1415983 0.15473294 -0.26283288 -0.22584957 0.007978067 0.31899953
0.13951056 0.17417221 -0.0007559084 0.09329728 -0.017390167 -0.03136831 -0.045192584 0.00037271553
0.17946593
00000000: 92ee babd ddff 89be 233b 633e 457a 52bd
00000010: 71fa 3ebe 16e7 7e3e fac8 25be 31c0 36bc
00000020: efc0 333e 6bb2 adb4 685e 2b39 acb8 01ba
00000030: 0113 003a c8b5 deb7 2c2c bdb4 0fa6 ef36
00000040: 8e94 84b1 1872 e239 af34 c73b 61f5 89be
00000050: c606 f4bd 8555 2b3e 212e 5e3e ac74 18be
00000060: 8d08 113c cebf 82be 0ccd a6bd a97a 823e
00000070: 3e1d 9dbe 5b38 493e b7b7 b13d a752 9e3c
00000080: 2b63 8cbd f4d5 75bd e6e4 a23e b5f1 fa3d
00000090: aedc be3d 8f87 dabd b3b2 57be 08c2 2dbc
000000a0: b539 0a3e 0728 2b3e cfc9 883e 890d a6be
000000b0: bd9a 683e be3e 37bb 6f2c 9dbe 40dc 603e
000000c0: 831f 6abe 6ac9 c7bd 6bb5 4c3e edff 90be
000000d0: 2769 00be 2c9f 2fbe 383a ac3e 1d92 12be
000000e0: a503 483e 1029 9dbb ac69 943e 8d04 343e
000000f0: 5dc5 93be 88a2 57be e543 023e a9bb 35bc
00000100: b361 5f3c 5343 66be 25ff 103e 5072 1e3e
00000110: 0892 86be 1c45 67be 70b6 023c e853 a33e
00000120: dbdb 0e3e 335a 323e 2728 46ba a512 bf3d
00000130: d375 8ebc 0f7c 00bd dc1b 39bd 0869 c339
00000140: ebc5 373e

bias f4 [9]
0.2350859 -0.0005522152 0.33325437 0.09761346 0.26245198 -0.010782641 0.06150075 0.29943666
-0.04242105
00000000: 5cba 703e 89c2 10ba 51a0 aa3e 91e9 c73d
00000010: 1b60 863e ada9 30bc 36e8 7b3d c34f 993e
00000020: b2c1 2dbd

weight f4 [720, 18]
0.16270533 0.06320136 0.16623844 0.0027415946 0.064018525 0.22648115 0.21707745 -0.121853895
0.032313317 0.13125648 0.19203873 0.068478405 0.17052664 0.1095676 0.21984641 -0.025360908
0.008106402 -0.10466174 -2.388568e-07 -8.1467775e-09 2.1778992e-11 8.744554e-10 -3.2900822e-09 -1.0354437e-08
-8.823961e-10 -4.1721977e-09 -7.2804945e-10 -5.396727e-09 2.295041e-09 -4.1921204e-09 3.3017868e-09 -2.1470643e-09
-3.258911e-07 2.4702576e-09 3.4685274e-10 2.4924858e-09 -0.036558677 -0.1071025 -0.19744767 -0.0046030795
0.028173171 -0.024047941 -0.062274273 -0.10719766 -0.17255807 0.20268527 0.16093092 0.028473984
-0.12265781 -0.08293774 0.07791655 0.19434999 -0.16562498 -0.06703472 -0.062293015 -0.029944602
0.0546213 -0.19111165 0.18688652 -0.14365159 -0.06515344 -0.08575171 0.013612119 0.17654203
0.0638723 -0.14344832 -0.20719084 -0.13404948 0.13691501 0.15243505 -0.14722143 0.12299216
0.1910929 -0.113198996 -0.20769317 0.20049287 0.022993643 -0.11890634 0.07982543 -0.079140365
0.14431345 -0.16701345 -0.21153593 -0.17449725 -0.06361001 -0.0016006446 0.13044505 -0.10444237
0.22080964 0.13028158 0.093835354 0.22033843 -0.005886318 -0.051717617 -0.03447921 0.19981049
0.2255091 -0.2066649 -0.027595412 0.14657333 0.060856894 0.19970089 0.057551716 -0.011900468
0.11381404 0.15841672 -0.0514315 -0.19612096 -0.10499623 -0.053518634 0.10604365 0.13137172
0.033613734 0.077883616 0.06340825 0.027468866 -0.0683614 0.038142927 -0.19758017 -0.21569511
-0.019839896 0.012712053 0.17948164 -0.19048238 0.13713877 0.07014453 -0.003250594 0.116429806
-0.13594876 -0.080813095 0.020436352 -0.02215612 0.045659672 0.12516907 -0.14290509 0.09555714
0.16639522 -0.09263457 -0.20284419 -0.054104596 -0.22366771 0.046223048 -0.015119301 -0.20394455
-0.10441555 -0.0073015853 -0.11077922 -0.026775539 -0.22079787 -0.094031006 -0.20951463 -0.20891921
0.11053598 -0.1127403 0.17431292 0.07747275 -0.05308232 -0.095197745 -0.060195345 0.030861614
-0.08445841 0.11824067 0.23397808 0.028707707 -0.08195164 0.18749054 -0.123299 -0.018936332
0.21114257 -0.19822793 0.006402334 -0.1163481 -0.06484727 0.19116953 0.09185411 0.17786321
0.10794281 0.18265599 -0.13665733 -0.056913726 -0.06561458 -0.086228594 0.06297604 0.04774303
0.1828226 -0.19930747 -0.18750322 0.05045039 -0.020564705 -0.15580088 0.16787006 -0.18540312
-0.21166077 0.048998505 0.10020822 -0.0031938618 -0.024562648 -0.04927364 0.013234314 -0.23223211
-0.13220793 0.22845472 0.029749531 0.13379498 -0.053564362 -0.04145627 0.08726196 -0.16920121
0.22803494 0.14504176 0.18597674 -0.006444869 0.13750674 -0.1647432 0.018774545 -0.14038064
7.6663287e-07 -1.4035958e-14 1.2848996e-15 -3.3760233e-07 -5.7449597e-05 -0.00019919901 -1.2396e-06 -1.4490337e-05
-5.710919e-10 -0.0013667338 -0.001032307 -0.00045884796 -3.5991818e-08 -2.2262656e-08 -4.4787826e-05 0.0003313728
-0.0003859146 -0.00013822062 0.017733973 -0.16460419 -0.23584218 0.11569862 0.16241552 0.074661806
0.18562227 -0.14023301 0.11572534 -0.17521295 0.05212055 -0.08931341 0.16445017 0.14601715
0.10803098 0.1787022 0.12418184 0.02953093 -0.12180212 -0.07602015 -0.11034484 0.16576923
00000000: 3a9c 263e b76f 813d 693a 2a3e 53ac 333b
00000010: 251c 833d adea 673e 8d49 5e3e 898e f9bd
00000020: f85a 043d 1968 063e cda5 443e 683e 8c3d
00000030: 899e 2e3e fa64 e03d 6b1f 613e aec1 cfbc
00000040: b7d0 043c e558 d6bd 3b3c 80b4 e8f5 0bb2
00000050: ee91 bf2d 545e 7030 bd17 62b1 4ce3 31b2
00000060: 1b8d 72b0 0a5b 8fb1 ed1f 48b0 1d6e b9b1
00000070: cab6 1d31 480a 90b1 a6e5 6231 8e8b 13b1
00000080: 22f6 aeb4 3bc1 2931 2faf be2f 4648 2b31
00000090: 8dbe 15bd 8e58 dbbd b92f 4abe 6ed5 96bb
000000a0: 6ccb e63c 3000 c5bc 4f13 7fbd 728a dbbd
000000b0: 10b3 30be ba8c 4f3e 13cb 243e 4642 e93c
000000c0: 0534 fbbd 43db a9bd b692 9f3d af03 473e
000000d0: 9899 29be 8049 89bd f626 7fbd 624e f5bc
000000e0: 96ba 5f3d c6b2 43be 2e5f 3f3e 6719 13be
000000f0: 2b6f 85bd 989e afbd 5d05 5f3c 6fc7 343e
00000100: 7bcf 823d 1ee4 12be d629 54be 4444 09be
00000110: 7333 0c3e ef17 1c3e 37c1 16be 50e3 fb3d
00000120: dbad 433e e0d4 e7bd 85ad 54be 014e 4d3e
00000130: 2a5d bc3c 2b85 f3bd 847b a33d 5814 a2bd
00000140: e8c6 133e 9305 2bbe e09c 58be 68af 32be
00000150: f745 82bd b8cc d1ba 6393 053e e2e5 d5bd
00000160: ec1b 623e 8968 053e c02c c03d 66a0 613e
00000170: 04e2 c0bb dad5 53bd 123a 0dbd 1f9b 4c3e
00000180: dceb 663e f79f 53be c60f e2bc 5217 163e
00000190: 1445 793d 647e 4c3e 59bb 6b3d 2efa 42bc
000001a0: 5617 e93d fe37 223e d6a9 52bd efd3 48be
000001b0: 4308 d7bd 5b36 5bbd 6a2d d93d 4f86 063e
000001c0: 8eae 093d 7281 9f3d 2fdc 813d 6306 e13c
000001d0: 1001 8cbd c23b 1c3d 7552 4abe 2edf 5cbe
000001e0: 4787 a2bc 3746 503c 09ca 373e d00d 43be
000001f0: 1b6e 0c3e efa7 8f3d eb07 55bb c072 ee3d
00000200: 2736 0bbe 5681 a5bd 236a a73c c080 b5bc
00000210: a305 3b3d 522c 003e b655 12be 76b3 c33d
00000220: 8263 2a3e 32b7 bdbd 63b6 4fbe c89c 5dbd
00000230: 2609 65be 6154 3d3d f2b6 77bc d7d6 50be
00000240: d2d7 d5bd 2342 efbb 37e0 e2bd 6058 dbbc
00000250: d618 62be 5493 c0bd 018b 56be ebee 55be
00000260: b060 e23d 63e4 e6bd 167f 323e 08aa 9e3d
00000270: d96c 59bd 09f7 c2bd 658f 76bd 7fd1 fc3c
00000280: 88f8 acbd 2a28 f23d f397 6f3e 6d2c eb3c
00000290: 43d6 a7bd 85fd 3f3e 3084 fcbd 5e20 9bbc
000002a0: c235 583e 43fc 4abe acca d13b ea47 eebd
000002b0: a5ce 84bd f2c1 433e 021e bc3d c621 363e
000002c0: 1f11 dd3d 2c0a 3b3e e6ef 0bbe 5e1e 69bd
000002d0: f060 86bd 9e98 b0bd 95f9 803d 328e 433d
000002e0: d935 3b3e 4217 4cbe d800 40be 11a5 4e3d
000002f0: 5077 a8bc 448a 1fbe 21e6 2b3e 51da 3dbe
00000300: 9abd 58be a8b2 483d f839 cd3d 1c50 51bb
00000310: 9b37 c9bc 28d3 49bd bcd4 583c 41ce 6dbe
00000320: 8461 07be 09f0 693e 4ab5 f33c 8d01 093e
00000330: 4e66 5bbd 0dce 29bd 66b6 b23d 1543 2dbe
00000340: fe81 693e d485 143e b070 3e3e 7b2f d3bb
00000350: 91ce 0c3e 71b2 28be 13cd 993c f1bf 0fbe
00000360: 9cca 4d35 6ed9 7ca8 6e2c b926 b63f b5b4
00000370: 09f6 70b8 14e0 50b9 5560 a6b5 861b 73b7
00000380: 05fb 1cb0 fa23 b3ba 7a4e 87ba 8891 f0b9
00000390: 6c95 1ab3 193c bfb2 90da 3bb8 1bbc ad39
000003a0: 9554 cab9 51ef 10b9 d646 913c 008e 28be
000003b0: 9d80 71be 66f3 ec3d 4150 263e 4ae8 983d
000003c0: c413 3e3e 3e99 0fbe 6801 ed3d 066b 33be
000003d0: 5c7c 553d f3e9 b6bd a065 283e 8585 153e
000003e0: 593f dd3d b6fd 363e 0c53 fe3d d9ea f13c
000003f0: 6473 f9bd 74b0 9bbd 7afc e1bd 69bf 293e
