ERTSNet/new_arch_LA/decimation/model/best-model_trainonWelling_4gains.pt (torch, 386069 bytes, 117 tensors)

weight_ih_l0 f4 [27, 15]
00000000: 8a12 e23d 5a61 863d f712 c83d 4822 f23d
00000010: 91a8 9e3e bc96 09be 5c74 65ba 3439 2e19
00000020: 1793 443e 3133 323d 5b2f 3ebe 17e4 873e
00000030: e973 08bd a648 b2bd 7242 29be 232c 643c
00000040: f005 24bd 5ecc ac3e cee3 61bc f06e 8b3d
00000050: 2767 52be b3bf 973d 822b 26b1 a5ca 423e
00000060: 2d25 413e 90ec 2b3e 5b64 5bbe 4a78 a2be
00000070: 41c5 223e f1cf 193d 1928 90be 009f 42be
00000080: d7c3 acbd f24d 3b3e cb93 b8bd 1b65 9f3e
00000090: 45ee 703e ff5f 5d2f e611 833e 2317 bfbd
000000a0: 6a8d 073e abbd 13be 4782 2c3e e6a8 ddbd
000000b0: 1311 61bd c66a 26bd eed4 5b3d 5bad fd3c
000000c0: 75d4 30be 22a9 9f3d 5609 70be 1ab5 2dbc
000000d0: 2059 f337 3f39 413e 4596 cd3d 099f b1bd
000000e0: 7141 763e 6898 883d ec09 ad3e d72c 52be
000000f0: dd02 3dbc ff56 7c3d dbca ab3e 5aa1 0d3e
00000100: e60a 583e 42b7 373d 828b 003e b709 7cb9
00000110: 2844 9e3c caa0 1ebe 9e66 893e 7bc6 89bc
00000120: f333 20be 1271 9d3e ae0b 703d f5c7 923d
00000130: 21b5 adbe 475d 813e 5f40 9d3d cecc 0e3e
00000140: 36bb fabd e41b d03d 05a4 8e33 e9e7 90be
00000150: a327 9dbe 6c47 253e e0bf 2cbe c156 90be
00000160: 89b4 81be 03aa 85be 402e 4ebe 9f94 7ebe
00000170: ff7a ce3d 7d19 b3bc b1d5 3e3e b0ac d0bd
00000180: 8921 7a3e 8492 581c 32af 4bbd b177 5f3e
00000190: 1dd1 8cbd d135 dd3d 2812 47be 528c 473e
000001a0: cdec 45bd 53a3 b53d b1c3 8dbd ddc7 17be
000001b0: 64ba 513e 99d3 a53d 9dce ab3d 5fe5 753e
000001c0: 80e1 ba37 0cd1 813e 0a02 49be 9ad8 b9bd
000001d0: 5350 883e 1f45 3a3e a75a 233c 617c a63c
000001e0: 2812 0dbc b654 603e 4f6c febd f93d 57be
000001f0: 0d17 df3d e200 f13d 7fc3 363e 7d48 c935
00000200: a751 a63e 9ed9 8d3e ab87 973e 674d 1abd
00000210: a92c 8ebe fe9a 683d 9781 9b3e 9065 283e
00000220: 2dca 1e3e a894 66be 7064 97bd 5da7 38bd
00000230: 37ea 7a3e 685e 903e 3c4d c3a0 08c8 a63e
00000240: efab 62bd 1480 4f3e d08f b43d 26d5 9a3e
00000250: 981b 913d 5676 5bbc 072a c33c 726d a3be
00000260: 07da 0e3e 8ec1 d1bd 8cc2 523e a1f7 58be
00000270: 7f03 3cbe 75c5 a1a2 d516 08bd 1c03 d43d
00000280: a090 533e 451a 403e 18cf 8fbc 37a2 dcbd
00000290: d84d 893e 830f 86be 3497 043e c606 a03e
000002a0: 3ab8 cfbc 8973 993e 8986 703d 8cf0 133e
000002b0: a102 b818 ecf2 9d3e 3b25 993e 2de0 ad3d
000002c0: 0793 163d be78 1f3e 645e 1a3e fd02 1cbe
000002d0: 7241 9b3e 6e14 793e 4992 933d 5f06 0f3e
000002e0: 57a0 803e 1069 5e3e 0831 1e3e 4681 1399
000002f0: 904c ed3d dfae e93d d012 36be 9060 0a3e
00000300: 62cc 593e ad64 90be c380 02be 400a 8f3e
00000310: b502 d73d 81c2 633e b514 123d 73de 633e
00000320: ffe7 9fbd efa7 923e 5181 841a 7625 90be
00000330: eb69 4abe d254 3cbe 659c a6be 271d 67be
00000340: dfda 40be 6dcb d7bd f0c3 a2be 7955 393e
00000350: 7afb 353e 9894 5d3e 9df8 7ebe 5acb 89bd
00000360: bb1c 1e3e 7ea1 e7b8 c0b3 003e 8a82 693e
00000370: 285d adbd cbda 95bd fb78 4ebe bd94 aabe
00000380: 3549 7dbe 97cd 973e a98b 283e 6626 d93d
00000390: a08c c6bd 73ae 78be 14fb 36be a398 23be
000003a0: 44fe 2b20 fb73 263e e291 02bd 0518 a0bd
000003b0: 4ac5 84be 152c 693b 570a 503e 44f7 df3d
000003c0: d397 a5be 5100 babd 2886 a23e 7791 adbe
000003d0: 66b5 fabd c1d5 40be fe2c 8abe 5a6b 5e36
000003e0: 0036 b1bc a575 903e 801b 993c 4208 a0be
000003f0: baa0 8cbe 67f2 8c3c 2097 57bd 5c3c b6bb
0.11038692 0.06561537 0.09769242 0.11822945 0.3098798 -0.13436407 -0.00087529956 9.007141e-24
0.19196735 0.04350585 -0.18572752 0.26541206 -0.033313666 -0.08705263 -0.16529253 0.013926539
-0.040044725 0.3374967 -0.013787223 0.06808269 -0.20547162 0.074096106 -2.418091e-09 0.19022615
0.18861838 0.1678946 -0.21425001 -0.31732398 0.15895559 0.037551824 -0.28155592 -0.19005966
-0.08435791 0.18291453 -0.09012564 0.31131825 0.23528393 2.0133938e-10 0.25599593 -0.09330585
0.13237539 -0.14427821 0.16846572 -0.108232304 -0.054947924 -0.04062917 0.053669862 0.030966451
-0.17268546 0.077959314 -0.23441061 -0.01060226 2.900936e-05 0.18869494 0.10038427 -0.08672912
0.24048401 0.06669694 0.33796632 -0.20524918 -0.011536327 0.061606403 0.33553204 0.13831082
0.21097907 0.044852503 0.12553218 -0.00024036212 0.019319609 -0.15491024 0.26836103 -0.016818276
-0.15644817 0.30750328 0.05860489 0.07167045 -0.33927253 0.25266477 0.076782934 0.13945314
-0.12242739 0.1016157 6.642225e-08 -0.28301933 -0.30694303 0.16140527 -0.1687007 -0.28191188
-0.2533305 -0.2610627 -0.2013483 -0.24861382 0.100820534 -0.02186274 0.18636204 -0.101891875
0.24426855 7.165777e-22 -0.049727626 0.21823002 -0.06875823 0.1080128 -0.1944052 0.19487122
-0.048321534 0.08869042 -0.06922091 -0.14822336 0.20481259 0.08097 0.08389018 0.2401328
2.2277934e-05 0.25354803 -0.19629684 -0.090745166 0.26623783 0.1819043 0.009970344 0.02032298
-0.008610286 0.21907315 -0.12423002 -0.21019734 0.108930685 0.117677465 0.17848013 1.4996764e-06
0.3248417 0.2770509 0.29595694 -0.037671473 -0.27768448 0.056788437 0.30372307 0.16444993
0.15506811 -0.22517645 -0.07392204 -0.045081485 0.24503408 0.28197026 -3.3085394e-19 0.32574487
-0.05533975 0.20263702 0.088164926 0.30240744 0.07085341 -0.013394913 0.023823751 -0.31919438
0.13950358 -0.10241996 0.20582026 -0.21188213 -0.18360709 -4.3848203e-18 -0.0332249 0.103521556
0.20660639 0.18760021 -0.017554805 -0.107731275 0.26817203 -0.2618371 0.12948304 0.31255168
-0.0253564 0.2997096 0.058722053 0.1444723 4.756554e-24 0.30849397 0.29911217 0.08490024
0.03676131 0.15573403 0.1507507 -0.15235515 0.30323368 0.243242 0.07205636 0.13967274
0.2512233 0.21719766 0.15448391 -7.6258284e-24 0.11586869 0.11410307 -0.17780614 0.13513398
0.21269372 -0.2820181 -0.12744431 0.27937508 0.10498563 0.22242166 0.03566428 0.22252826
-0.078079216 0.28643748 5.480284e-23 -0.2815358 -0.19766967 -0.18391731 -0.32541195 -0.22569714
-0.18833493 -0.10536847 -0.31790113 0.18099011 0.17771712 0.21638715 -0.24899526 -0.06728239
0.15440647 -0.000110450186 0.12568569 0.22803703 -0.08465034 -0.07317122 -0.20163338 -0.33316603
-0.24734958 0.2964904 0.16459526 0.10603027 -0.09694791 -0.24285297 -0.17869216 -0.15976195
1.4568393e-19 0.1625518 -0.031877406 -0.07817081 -0.2593177 0.0035579253 0.20316444 0.10935834
-0.32342395 -0.090820916 0.31742978 -0.33900043 -0.1224163 -0.1883154 -0.2698745 3.3143065e-06
-0.021632195 0.28214756 0.01868987 -0.312563 -0.27466375 0.01720543 -0.05263436 -0.0055613946

weight_hh_l0 f4 [27, 9]
00000000: ebab 803d 863f 113c 3105 6d3c c5a3 bb3c
00000010: 0529 a2be ff64 a7be ed7a c0bd ba70 843e
00000020: e720 24be 68f4 4dbe 2ae6 8e3e 4684 f3bd
00000030: 0cb2 843d ecf7 93bc ab63 6bbe 2ee5 993e
00000040: 9b63 a0be 6299 62be 0929 93be 1619 793e
00000050: 7475 a23e 8e1f 7e3e e347 ce3d f3e4 a3be
00000060: ccfe 03be ae3f 4dbe 6686 793e c506 70be
00000070: ecb0 9c3d 2071 c3bd bd32 22be c600 55bd
00000080: e5a5 8bbe 7681 6ebe ca80 bc3d e039 89be
00000090: a58f ab3e 28b5 163e f428 853e 5606 493d
000000a0: ba3a 53bc 9803 8abe 9c1d 793d d1cb 01be
000000b0: 5d62 62bd aa3a ed3d 2a74 38bd df76 c23a
000000c0: 1b2b 35bd 0fe4 77be e28f 86be 2d89 883e
000000d0: c8c3 273e 6da6 0f3e 0fd8 303e f0b5 9ebe
000000e0: a28f e53c 1fd7 b6bd f707 8a3d 3953 a13e
000000f0: 3f51 a1be 1c82 153e 203a 7bbe 42bc 3bbe
00000100: 8586 0ebe 060f 893d 6725 ddbd 8e47 1ebe
00000110: d4a5 9b3c 3d32 6abe d66e 84bd 4e7c 47be
00000120: db3a 073e abe5 b7bd 6e73 1cbd d5f1 f6bd
00000130: 505d 5d3e 3f52 813e 06ab 64be 48c4 7ebd
00000140: abce c13d a717 96bc af83 a3be 609f 46be
00000150: ce15 fe3d 7f37 1e3e 3f3f 90bd ebfb a53e
00000160: de50 e93d 0bc8 6fbd a590 61be d419 c0bd
00000170: 6d4a 1dbd 7b48 5d3e 438b f93d f51d 88be
00000180: f608 42be c7e7 223d 18e4 42be 4dff 293e
00000190: c20d d7bd e24b 533e d2e6 783d eda8 f5bd
000001a0: 5392 9f3e 0a7e a3be e245 4b3e 0026 233e
000001b0: e7f9 f53d 68d6 52bc 85f2 813e 3ba1 98be
000001c0: a870 193e 12ff 6a3c 1200 aa3e 102a 2ebe
000001d0: 6242 adbd d5e0 193e 3abb 5d3e a8b8 8fbe
000001e0: b25a 87be 2180 2bbe d7e3 933e b201 e03d
000001f0: c7fe 633e 064d f7bd a5e2 853e 20da cc3d
00000200: 2b9a 873d 0cae 97bc 86e3 833e 96d2 cb3d
00000210: b79a eebc fa24 723e db9a 903e 9e89 0fbc
00000220: 4eb3 863e 92b5 3c3e e189 cf3d 6a3a 5b3e
00000230: 8bae e7bb e6c8 92be 3f48 173e e526 24bd
00000240: 8951 11bd 7329 87bd e4fe 6e3e 391f e3bd
00000250: 8681 883d bb3b a23e 625c 7d3e 2814 573d
00000260: 6876 ac3e b2b9 7d3e e263 4b3e c13a 9d3e
00000270: 730f a2bd 2713 073e 4294 f8bd 2de9 9bbd
00000280: f66b 8fbe 89e4 babd e6f4 033e 002e 19be
00000290: 3810 8abe 6d48 e7bd 243c 6c3e f444 08be
000002a0: 2cf3 11be c178 82be bf4c c2bd a801 7b3e
000002b0: 568f 84bd db45 8cbe 4856 cd3c 0fd0 96be
000002c0: 8702 333d 78bb 99be 78ef 41be 249f 24be
000002d0: 100d 03be 3337 a6be 55a6 b73d 7a77 4e3d
000002e0: 6772 893e d86c f6bd 0629 adbd f05e 8a3c
000002f0: e463 a7be d212 a23e f786 9abe 08c0 8b3e
00000300: 2b31 a5be 15cb 9ebe eda7 f43d d307 8f3e
00000310: f1f2 f33d fb90 60be 04f8 253e 98c0 39be
00000320: 380f 56be d3cf 53be 9109 343e b01c 793e
00000330: 75ea d03d f841 d83b f21c 953e 0926 083d
00000340: b9f9 35bd c1ac 8ebe 706e 11be 5910 23be
00000350: 5ebb 67be 0126 eabc 8cfd ddbd 9f1a a0bd
00000360: eb1b b73d 5202 fb3c 6b9d 153d 1032 99be
00000370: 0714 863e f064 83be fd17 8ebd a293 2dbe
00000380: e04d bf3d 32f1 7dbe 714e 633e 253b 11be
00000390: f687 bc3d 6be6 a3bc 7c30 85be 666b c2bd
000003a0: eec2 583e b5ec ac3e f166 8abe fe98 303e
000003b0: 6cc7 813e a6ac 23be fb29 763e fe47 1c3e
000003c0: 1f98 8bbe 825d 133c 5209 f5bd
0.06282791 0.008865243 0.01446657 0.02290524 -0.3167192 -0.3269424 -0.09398446 0.25867254
-0.16028176 -0.20112765 0.27909976 -0.118904635 0.06479272 -0.018062554 -0.22987239 0.30057663
-0.31325993 -0.22128823 -0.28742245 0.24325976 0.31730235 0.24816725 0.10072305 -0.32010612
-0.12890166 -0.20043823 0.24367675 -0.23440082 0.07650933 -0.09543061 -0.15839668 -0.05200269
-0.27275005 -0.23291573 0.09204252 -0.26801968 0.3350803 0.14717543 0.26007807 0.049078308
-0.0128924195 -0.26955867 0.060819253 -0.12675406 -0.055269588 0.11583455 -0.045032658 0.0014836452
-0.04423056 -0.24208091 -0.2628165 0.26667157 0.16383278 0.1402833 0.1726992 -0.30998182
0.028022591 -0.0892775 0.067398004 0.31508806 -0.31507298 0.14600414 -0.24533892 -0.18333533
-0.13918503 0.066923186 -0.107981496 -0.15456983 0.018999971 -0.22870727 -0.06466453 -0.19481012
0.13206045 -0.089793526 -0.03819602 -0.120578445 0.21617627 0.2525806 -0.22330865 -0.062198907
0.09463247 -0.018321825 -0.31936404 -0.19396734 0.12406503 0.15450858 -0.07043313 0.3241876
0.11392377 -0.058540385 -0.22027834 -0.09379926 -0.038401056 0.2160968 0.12184765 -0.26585355
-0.18948731 0.03977182 -0.19032323 0.16601296 -0.10500671 0.20634416 0.060767002 -0.11995111
0.31166324 -0.31932098 0.19850877 0.15932465 0.12010556 -0.012868501 0.2538034 -0.2981051
0.14984381 0.01434304 0.3320318 -0.17008233 -0.08459927 0.15027173 0.21653453 -0.2807057
-0.26436383 -0.16748096 0.28884766 0.10937823 0.22265159 -0.12075238 0.2614948 0.100025415
0.06621202 -0.01851561 0.25759524 0.099522755 -0.029126508 0.23646918 0.28243145 -0.008760838
0.26308674 0.18428639 0.1013372 0.21409002 -0.0070703677 -0.28668898 0.14773653 -0.040076155
-0.03547815 -0.06599703 0.2333942 -0.110899396 0.0666533 0.31686196 0.24742272 0.052509457
0.33684087 0.24777868 0.19862321 0.30708888 -0.07913103 0.131909 -0.12137653 -0.07612834
-0.28012055 -0.09125621 0.1288639 -0.14958954 -0.269655 -0.11293111 0.23069817 -0.13307554
-0.14252919 -0.25482753 -0.094872944 0.2451235 -0.06472652 -0.27397045 0.025065556 -0.2945561
0.043703582 -0.3002584 -0.18939006 -0.16076332 -0.12797952 -0.3246399 0.08967272 0.05040691
0.26845095 -0.12032479 -0.0845509 0.016890973 -0.32693398 0.31654984 -0.30181095 0.27294946
-0.32264075 -0.31014314 0.11946092 0.27935657 0.11911572 -0.21930306 0.16207892 -0.18139875
-0.20904243 -0.20684747 0.17581774 0.2432735 0.10200969 0.006599661 0.29123646 0.0332394
-0.044427607 -0.27866176 -0.14202285 -0.15924205 -0.22630069 -0.028582575 -0.10839376 -0.078175776
0.08940872 0.030640755 0.03652708 -0.29921007 0.26187155 -0.25662947 -0.06938169 -0.16950849
0.09341025 -0.2479904 0.22197892 -0.14182718 0.0920562 -0.020007333 -0.26013553 -0.09493141
0.2116811 0.33774343 -0.27031663 0.17245862 0.2534746 -0.15983829 0.24039452 0.15261838
-0.27264497 0.008994462 -0.11964668

bias_ih_l0 f4 [27]
00000000: 0b5c 6ebe 07b5 22bd 949e f83d 81ed 833e
00000010: 2924 123e b459 abbe 6554 e3bd a0f9 adbd
00000020: ef1f c53d 9791 12bd da11 7ebe a64d 8f3e
00000030: 0a19 42be a25e 43be 11e6 96be 7371 2abe
00000040: cc22 f33d 70ce b13a 40f4 c2bd c1c7 873d
00000050: 6a7a 54be 59e7 9abd d74e 07be c696 393e
00000060: 7622 3c3c 8023 fe3d 731a 843d
-0.23277299 -0.039723422 0.121396214 0.2576714 0.14271607 -0.33466876 -0.11100081 -0.08494878
0.096252315 -0.035783377 -0.24811497 0.2798893 -0.18954864 -0.19079068 -0.29472402 -0.1664484
0.11871871 0.0013565551 -0.09519243 0.06629897 -0.20749822 -0.07563657 -0.13213669 0.18123922
0.0114828255 0.12409115 0.06450357

bias_hh_l0 f4 [27]
00000000: 3e71 88be c036 2b3e ad9b 4e3d f392 713e
00000010: ae80 ac3e 8f6e 183e f1de 9f3e 197a 673e
00000020: 28a6 5c3e 9280 503e 7174 88be c3ee 83be
00000030: a78a bfbd 97fc a5be e73b 783e 307d a43d
00000040: 4d48 7f3e 50d1 4fbe c4ee f9bd 8b28 3a3e
00000050: 8431 04be 6e61 703e dd99 a23e 11f9 15bd
00000060: ccfb 963e 0461 813e 13f7 a1be
-0.26648897 0.16720104 0.050441433 0.23591213 0.33691925 0.14885925 0.31224778 0.2260517
0.21547759 0.20361546 -0.26651338 -0.25768098 -0.09352618 -0.32419273 0.24241601 0.0803169
0.24929924 -0.2029469 -0.12203744 0.18179528 -0.12909514 0.23474666 0.31758013 -0.03661448
0.2948898 0.2526933 -0.31633815

weight_ih_l0 f4 [27, 24]
00000000: 1086 55be af78 dc3d 142f 8a3e 639f a13e
00000010: 8c7e 123e 9b0b 683d a89d 983c 2e51 213e
00000020: 6a81 80bd 01e0 713e 1f47 593c 6201 62be
00000030: d26c 313c 5d7e 37be 9956 313e a0ee 2ebd
00000040: c87d 68be fdb5 abbb e4bd a73d c175 4f3e
00000050: 06a6 cfbd d6e1 033d 4082 423e 0f0c 173e
00000060: 030c f5bd 71af dfbd 97b2 eb3d 33d3 0b3e
00000070: 98f8 a43e 8690 22be 12ac 8e3e fb8f a63e
00000080: b8db 8c3e f9be a33e acf7 40bd 4529 9dbe
00000090: 7316 babd b714 a73e c802 dc3d c5f7 69be
000000a0: af09 2dbe 1987 043e dcd2 683e 5f7b f8bc
000000b0: f84b 7c3e 4506 0f3d d23d 75be f844 913e
000000c0: 360b ad3c 0dff 91be 374e 0bbe 5fd1 fb3d
000000d0: b98f 543e 637a 5bbe b2e2 bcbb d1a9 a73e
000000e0: 69be 853e e1c4 8c3c 68db 32bd 0e72 993d
000000f0: 86c9 7f3d 586c bebd f163 cabd 0f5a 603e
00000100: 32d8 9cbd 608a 39be 1db1 d33b b79f af3d
00000110: b1f2 443d e0fd 97be 49fa aabd 861c a03e
00000120: 7b1a 92be 2a68 6f3d fdb6 a43d 0b5c cfbd
00000130: 22f9 aebd aa4c 013e 1fed 93be dcc9 17be
00000140: 5233 523e 6ab1 53be ed50 1bbe facf 3cbe
00000150: c3dc e1bc 7456 ad3e 81dd 01be 6a2c e83c
00000160: 6763 a6bd 029a 1fbd f2ff a5be a122 843e
00000170: 991d 52bd d740 88be 678d c83c c749 1c3e
00000180: c090 77be fae5 783e e0d9 edbc db56 80be
00000190: 4a10 76be 500b 75bb 0069 503e 33f5 30be
000001a0: 2c68 36bd 2c9c ce3d 7335 a1be 2a93 643e
000001b0: 4fb2 59be 36d1 bc3d cc4f 1dbe 254d 28be
000001c0: 3e42 023e 2eba 993e f4e6 2c3e a09f 993e
000001d0: 9528 9e3e 37c8 acbe 1c89 1bbe 2d75 8fbe
000001e0: 8a4a 46be 6e36 073e 67c1 553e c777 2dbe
000001f0: f5ea 583d 1c59 903d 467d 2b3e 6cc3 69be
00000200: 28d3 613e 4652 a2be 5908 a2be 8a9a 75bd
00000210: 5df2 4d3e 2e70 60bd f664 f7bd f370 853e
00000220: 3f8d 64be 82ad 4ebd 0ebb 243e 9a8c 57be
00000230: 4326 653e a334 093e 8ba0 2e3d c0a9 503c
00000240: 8b94 6b3e 08b1 883e 800a 3d3e 09b0 98be
00000250: bee9 a6bd 5339 edbd ac39 97be 2d10 97be
00000260: bca1 5fbe 78e4 9f3e 2d22 1abe 3cbc 97be
00000270: 78e5 dabd 5e13 b43d 3590 c53d e13f 803e
00000280: 5d04 98be 6784 3b3c 9a24 4e3e 36cb 5a3e
00000290: b9ba 9ebe 7ed0 5a3d 6952 9f3e 41ca 25be
000002a0: a7e1 633e 9915 a4bd aaab 84be fe2a 153e
000002b0: a48f 9e3e 016b a5bd 5a60 81be 20b4 d23d
000002c0: 05c5 a4be 8687 66be 8eba dbbd 52ba 12be
000002d0: ce4d 2e3b c1fc aabd 85d9 96be ea4e 46bc
000002e0: 0f3e 873e 65f2 72be 8ab8 be3d 2955 62be
000002f0: 5602 99bd 4889 9f3e 5fff 05be 3307 513e
00000300: 4ade 373e 609a 93be 279c 073e 105b 3abd
00000310: ba20 8e3d 7d33 95bc 6fcb d53d 628f 8c3d
00000320: 3bea 4e3d f4de 433e 5516 98be 0c81 4b3e
00000330: 0693 823e ae1f 993e 391d b4bb a883 12be
00000340: ed69 8dbe 2ea1 a63e 6c8a a73e bf3a e1bd
00000350: e2bf aebd a310 7f3e 0414 08be 75a9 3e3d
00000360: 9e04 bbbd 8acc 5fbe e7d0 233e 2891 adbe
00000370: 76c9 7dbd 3d2f 963e 09cd bebd 5298 2bbe
00000380: 758f 84bd 0153 0cbc 1ba4 9fbe 0002 913a
00000390: fbe2 97be dee3 a43e df56 4b3d 593f 2e3e
000003a0: 254b 04be 1013 103d ee14 03be 76b1 7dbd
000003b0: f0bc 53be d318 ff3d 84d6 81be e46d 923e
000003c0: 7c8b 9f3e d87b a23e 170f 9fbd 0300 883e
000003d0: 3c40 98bd 75e9 3cbe 240c b53d 0d96 00be
000003e0: cb13 a73e cc68 033e 6858 473e cf05 3c3c
000003f0: 755e adbc b84d 0d3e d57e 323e 04fd ce3d
-0.20851922 0.10765206 0.26989043 0.31566915 0.14306086 0.056651693 0.018629864 0.15753624
-0.06274684 0.23620607 0.0132615855 -0.2207084 0.010829167 -0.17919298 0.1731819 -0.04270804
-0.22704232 -0.0052402006 0.08190516 0.20259763 -0.10139088 0.032197796 0.18994999 0.14750694
-0.11965182 -0.10922135 0.11508673 0.13654785 0.32220912 -0.15875444 0.27865654 0.32531723
0.27511382 0.31981638 -0.0471112 -0.3069555 -0.09086313 0.32632992 0.10742718 -0.22848423
-0.16898225 0.1294216 0.22736686 -0.030332265 0.24638355 0.03491809 -0.23949364 0.2837293
0.02112351 -0.285149 -0.13604055 0.12295794 0.20757951 -0.21433406 -0.005764329 0.32746747
0.26121834 0.017183723 -0.043666273 0.07492457 0.062448047 -0.09298009 -0.098823436 0.21909355
-0.076584235 -0.18119192 0.0064603225 0.08575385 0.04808301 -0.2968588 -0.08348519 0.31271762
-0.28535828 0.058448948 0.08042715 -0.10124978 -0.08543612 0.12626901 -0.28891847 -0.14823097
0.2052739 -0.20673147 -0.1516759 -0.18438712 -0.027571088 0.3385502 -0.12682153 0.02834149
-0.08124428 -0.038965233 -0.32421833 0.2580767 -0.051297758 -0.2661197 0.024481488 0.15262519
-0.24176311 0.24306479 -0.029034555 -0.25066265 -0.24029651 -0.0037390776 0.20352554 -0.17281036
-0.04453294 0.10088381 -0.3148609 0.22321764 -0.21259426 0.09219591 -0.15362471 -0.16435678
0.12720582 0.30024856 0.16884977 0.30004597 0.30890337 -0.33746502 -0.15189022 -0.28019086
-0.19364372 0.13204357 0.20874558 -0.16940223 0.052958447 0.07048246 0.16747007 -0.22828454
0.22053206 -0.31703395 -0.31646994 -0.059961833 0.20111986 -0.054794483 -0.12079804 0.26062736
-0.22319506 -0.05045844 0.1608698 -0.21049729 0.22377877 0.13398986 0.042633574 0.012735784
0.23005883 0.26697564 0.18461037 -0.29821804 -0.081500515 -0.11583199 -0.29536188 -0.2950453
-0.2183904 0.31228995 -0.150521 -0.296358 -0.10688299 0.087927565 0.09646646 0.25048736
-0.2969083 0.011445141 0.2013115 0.21366581 -0.31001833 0.05342149 0.3111756 -0.16190435
0.22254048 -0.08011932 -0.2591222 0.14567181 0.30968964 -0.0807705 -0.25268823 0.10288262
-0.32181564 -0.22512636 -0.10728942 -0.14328888 0.0026596668 -0.0834899 -0.2946283 -0.0121037755
0.26414534 -0.23725279 0.09312542 -0.22102799 -0.07471149 0.31159425 -0.13085698 0.20412903
0.1795589 -0.28828716 0.13243161 -0.045497 0.06939836 -0.018213028 0.104391925 0.068632856
0.05051635 0.19128019 -0.29704538 0.19873446 0.25502795 0.29906982 -0.0054966477 -0.14308035
-0.27619877 0.32544845 0.32722795 -0.10997533 -0.085326925 0.2490869 -0.13288885 0.046548326
-0.0913174 -0.21855369 0.15997659 -0.33899808 -0.061959706 0.29332915 -0.09316451 -0.16757324
-0.06472675 -0.008564712 -0.3117989 0.0011063218 -0.2966536 0.322051 0.049643394 0.17016353
-0.1291929 0.03517443 -0.12800953 -0.061936818 -0.20677543 0.12455907 -0.25358975 0.28599465
0.31161106 0.3173511 -0.0776655 0.2656251 -0.07434127 -0.18448432 0.08840206 -0.1255724
0.32632288 0.12832946 0.19467318 0.011475994 -0.021163205 0.13799179 0.17431195 0.10106853

weight_hh_l0 f4 [27, 9]
00000000: 8640 c5ba 0495 13be 25a0 893e daa9 193e
00000010: 0663 9f3e f89b 29be 2af6 16be c3d6 a03e
00000020: ee99 2b9d 8e34 96bd d20f 00be 2096 393d
00000030: 7a89 863e 92c9 8ebe e2c7 fbbd 3c14 95be
00000040: e409 3a3e 56cf a6a5 7bab 1d3e cf2e 813d
00000050: e7ea 8b3e 74ed e93c 820b 893e a044 103e
00000060: d020 273e aaef 3bbe 30cd 8b39 40e2 c63d
00000070: d257 a2be 9fcf d53d 6f79 8d3e b215 353c
00000080: 3d3a 193e f0c3 213d 3279 6bbe 86d4 9799
00000090: e9a7 203e 5836 653e 5ce7 3cbd 879f 3f3e
000000a0: 2cc2 573e 065c b1bc 0a97 eabd 4a46 863e
000000b0: f9de 2db1 9362 76be bd3a 4c3e 5dd5 4a3e
000000c0: 7412 9dbe 4d03 53be 9522 7abd d9ef 353e
000000d0: 912b a1bd a606 509d 621a 7ebe 0c59 6e3e
000000e0: f3d9 dd3c 11f4 723e 00b4 11bd 8d68 53bd
000000f0: b5ce 52be 4e10 a63e bcee cc38 3073 16be
00000100: 269d 3abe 351a 87be bc76 713e 601d 62be
00000110: c7e7 ae3e 0235 143e 464a a4be 88fb c398
00000120: b3bb 383e 1b1b 98be 8c79 7bbe 6cd5 64bd
00000130: 04ee 84bc f3c7 b73d 6823 a93c fb5d bdbd
00000140: 57f4 2337 e559 1fbe 0785 66be 0ff1 5a3e
00000150: 4c2a 003d 840e aa3d a653 0b3e 45a9 aa3e
00000160: d9fa 2abe 8f3e 5a2a f709 06be 0c19 883e
00000170: 7110 80be c103 84bd 1179 44be dfb0 053d
00000180: 014a ab3d 1e3b 893e cca5 c3b4 6c70 89be
00000190: f8b8 cdbd 3e36 c1bd f3e7 7c3e 27a1 3ebe
000001a0: 49c5 963e 99f3 ecbd 624a 263e f07c bcb7
000001b0: 9898 e5bd e809 ab3e 4944 0c3d 4051 ccbc
000001c0: ad03 d5bd a0a8 fa3d 7766 323d ec60 8ebe
000001d0: d9d6 681c 2562 23bd 39d1 e8bd e672 9e3e
000001e0: 20f7 80bd 7172 2cbe 116b 433e d853 993a
000001f0: 0cae 543e f8bb aa38 0338 993e c960 6b3e
00000200: a50b 42be f431 473e 7724 84be 9187 873d
00000210: 5655 5b3d c727 933d 8b37 b19a b55a 1fbe
00000220: f0e3 ab3e 6fe9 ad3d b4e9 a63d 9910 533d
00000230: 6fe7 f0bd d54a a6bd 400e 52be 6196 87b9
00000240: fc49 0dbe 8861 16be 8da3 c13d 26be ebbd
00000250: df9a fd3c 58f5 f0bd f380 553c 01cf 703d
00000260: e580 70a0 f6bb 5d3e 3678 98be ab49 3abe
00000270: 1c0a eabb c6e9 423e 727a ed3d 4793 20be
00000280: 8080 733e daa1 089d abcd 58be 2e36 c13d
00000290: bc22 703d 2ea5 fe3d 9a8e 273e f934 4c3e
000002a0: ba14 ca3d 0208 9c3d 93be 6c34 84cd 593e
000002b0: 494f 80be 5251 11be 10a4 7bbe 69b9 48bd
000002c0: 10e3 9dbe 3df0 48bd 7f44 8cbe 8aed 8438
000002d0: e1db aabe de41 663e c36b 103e 6d80 3a3e
000002e0: 9ad4 a9be ab7e a8bd a81b 9ebe 743c b8bd
000002f0: 24c5 beb8 be88 c73c 901a aa3e c8ea a23e
00000300: ca0f a13e 98c4 8fbe d8e0 a1be 4e5a 0b3e
00000310: c2c4 9a3e f65c 7638 fc65 a93d 4f83 7f3e
00000320: bf2f 883e 8748 cc3b ff33 abbe db46 23bd
00000330: f96c 27be c900 1dbe b938 eb19 6a2c 43be
00000340: ff9c 243c cceb 89be 7ace 553e 75ff 943e
00000350: 3a3a 873e b341 8abd cfc7 dcbd 871b f81d
00000360: bb91 a3be 0a9d 75bd b4c2 833e d15e 5cbe
00000370: 783f 1c3e 6cf5 823e acd6 1f3d 9638 89be
00000380: e2c4 4321 5ea9 7ebe 69a4 943e 196a 5dbe
00000390: 41a6 abbd a207 92be 4e2b 053e 2f92 74bd
000003a0: 97dd a23c 0f95 b29f 22ac 143e f51d a1bd
000003b0: 88a5 233c b3fd 9d3e 6c2d acbe 0b36 633e
000003c0: 81e0 8dbe c553 743e e0b8 379f
-0.0015049137 -0.14412314 0.26879993 0.150062 0.31130236 -0.16563404 -0.14742342 0.3141385
-2.2711241e-21 -0.07334243 -0.12506035 0.045309186 0.2627676 -0.2788816 -0.12293984 -0.29117
0.18167835 -2.8936906e-16 0.15397446 0.06307756 0.27327654 0.02855561 0.26766592 0.14088678
0.1632111 -0.18353143 0.00026665023 0.097111225 -0.31707627 0.10439991 0.2763171 0.011052536
0.14963622 0.0394935 -0.22995451 -1.5698872e-23 0.15689053 0.22384012 -0.04611908 0.18713199
0.21070164 -0.021650326 -0.1145459 0.262255 -2.5301559e-09 -0.2406104 0.19944282 0.19807954
-0.3067814 -0.20606728 -0.061068136 0.17767276 -0.07869638 -2.7532008e-21 -0.24814752 0.23276156
0.027081465 0.23725916 -0.035572052 -0.05161338 -0.20586665 0.32434314 9.771946e-05 -0.14692378
-0.1822401 -0.26387182 0.2358045 -0.22081518 0.34161207 0.14473346 -0.32087916 -5.06603e-24
0.18040352 -0.2970818 -0.24558085 -0.055867597 -0.016226776 0.08973684 0.020646766 -0.09246441
9.772447e-06 -0.15561636 -0.22511683 0.21381019 0.031290337 0.0830355 0.13606128 0.33332267
-0.16697253 1.9383994e-13 -0.13089739 0.2658161 -0.25012544 -0.064460285 -0.19186808 0.03263938
0.083637245 0.26802915 -3.6442214e-07 -0.26843584 -0.100450456 -0.09434174 0.24697857 -0.18616162
0.29447392 -0.115699 0.16239312 -2.2469525e-05 -0.112107456 0.33405995 0.03424481 -0.024941087
-0.10401092 0.12239194 0.04355475 -0.2780832 7.7040045e-22 -0.03988852 -0.11368031 0.30947036
-0.06297135 -0.16840531 0.19083811 0.0011697961 0.20769519 8.1412436e-05 0.29925546 0.2298614
-0.18949755 0.1945265 -0.2580907 0.06617654 0.05354818 0.07185321 -7.329522e-23 -0.15561946
0.3357234 0.084917895 0.08150044 0.0515295 -0.117628925 -0.08119742 -0.20513248 -0.00025861248
-0.13797754 -0.14685643 0.09455023 -0.11510877 0.030957637 -0.117655456 0.013031232 0.058791164
-2.0371438e-19 0.21653733 -0.29779214 -0.18192165 -0.0071423184 0.1903449 0.1159562 -0.15681182
0.23779488 -1.8083125e-21 -0.21172206 0.09434162 0.058626875 0.12433849 0.16362992 0.19942082
0.098672345 0.07618715 2.2048543e-07 0.21269804 -0.2506049 -0.14191177 -0.24574304 -0.049004946
-0.30837297 -0.049057234 -0.27396008 6.3384956e-05 -0.3337088 0.22486064 0.14103608 0.18213053
-0.33170015 -0.08227285 -0.30880475 -0.089959055 -9.096626e-05 0.024357196 0.3322339 0.3181975
0.3145736 -0.28079677 -0.31616855 0.13608667 0.3022824 5.8737547e-05 0.08271405 0.24952434
0.26598927 0.006234232 -0.33438107 -0.039862495 -0.16350164 -0.15332331 2.432134e-23 -0.19059911
0.010047196 -0.2693771 0.20879546 0.29101148 0.2641161 -0.067508124 -0.10780298 6.5673516e-21
-0.3194712 -0.059964217 0.25734484 -0.21520545 0.15258586 0.25577867 0.039023086 -0.26800984
6.632914e-19 -0.24869296 0.29031685 -0.21622504 -0.0838132 -0.28521448 0.130048 -0.059709724
0.019881053 -7.563253e-20 0.14518788 -0.07867042 0.009988196 0.3085762 -0.33628404 0.22188585
-0.27710345 0.2386008 -3.8904682e-20

bias_ih_l0 f4 [27]
00000000: 244d 8dbe 2f72 893d 4b7d 8abe 3440 88be
00000010: 5f17 acbe 618c e23d 2775 16be eaf1 a63c
00000020: cc44 003d 753f 67be 3b6b 97bd f295 153e
00000030: 8db3 923e adf4 1c3e 0988 8bbe ce79 553b
00000040: e6a6 9d3d 0a28 983e 79a4 2f3c 64fb 69bd
00000050: 3c79 2d3e 3ac6 5fbe 1441 213e 7f02 643e
00000060: b928 34be c62f 5a3e 279c 44be
-0.27597916 0.06711232 -0.27048716 -0.26611483 -0.3361158 0.110619314 -0.14693128 0.020379025
0.03131561 -0.225828 -0.073934995 0.14607981 0.2865261 0.15327711 -0.27252224 0.0032573822
0.07697849 0.29718047 0.010720366 -0.05712451 0.16940778 -0.21852961 0.15747482 0.22266577
-0.1759366 0.21307287 -0.19200192

bias_hh_l0 f4 [27]
00000000: 64ad 7dbe a9a0 973e 8df0 923e babf 9c3e
00000010: 0957 2e3e 9ebf 9a3e 7ee6 e73d ce0d 9d3e
00000020: 3ba7 9dbe 440e 873e ceed 0fbe 2d94 803e
00000030: c5e9 82be 44ed 31be b1a4 c03d 9e3b aa3e
00000040: 177c abbd ec84 3abe 365c e53d cb4e 90be
00000050: bb72 9ebe 05fe 96be 4565 7c3e 9846 0abe
00000060: da02 d53d 2771 a6be e3f9 72be
-0.24773175 0.2961476 0.2869915 0.30615026 0.17025389 0.30224317 0.1132326 0.30674595
-0.3079165 0.2637807 -0.14055559 0.2511305 -0.25568977 -0.17375666 0.094064124 0.3324861
-0.08373278 -0.18214768 0.111992285 -0.28185114 -0.30946907 -0.29490677 0.24648006 -0.13503492
0.104009345 -0.32508203 -0.23728137

weight_ih_l0 f4 [27, 39]
00000000: 321f 113d aecd bd3d 0a15 05be 8f19 3fae
00000010: 617a ab3d 000b 003a 1887 a03e 75d3 59bc
00000020: 4e06 68ab c792 66be 9d05 773e 67b9 ef3d
00000030: 0c60 44be 0c76 763e 05b0 58be 4d9a 893e
00000040: 4ae6 4dbe 4dd3 85be 8355 67be e71e 30be
00000050: 8ec5 3f3e 7360 1d3e d2ab 4ebe 8ba6 363e
00000060: c196 a4be fd9b 9d3e 4760 9ebe cc9b 0b3e
00000070: b64d fabd 04f6 5d3e d5e4 f33d 9734 6d3e
00000080: dd7c b83d bd76 01be a266 17be a9d4 8b3e
00000090: d746 153e d938 1cbe 67be 323e be2c 9dbe
000000a0: ff02 653d c1ac 78be 0195 c038 44e4 c0bd
000000b0: 2b3d de39 5182 adbe c331 ee3c 9a72 2338
000000c0: 8985 4bbe 0899 a23e f163 80be 3bfb 4d3e
000000d0: 2341 1dbd 7456 5d3e 25b4 873e bdfc 7dbd
000000e0: 35c9 f03d 954f 9e3d 7c99 adbd e520 863c
000000f0: 7256 4fbe e3bc 66bd 137e a5be 9fef cbbd
00000100: b5c7 0bbe 2844 8bbe 90ad 3fbe d6c8 80bd
00000110: 0c46 a93d 1408 803e 8e30 943c c56f 4cbd
00000120: 3bd0 e0bd 8309 763e 4f78 9bbd d869 b53d
00000130: 1bdc a5be 1898 2abe a1f4 15bc 1775 8a3d
00000140: 5557 05be f962 4c2c ba5a 8d3e 4a90 8da4
00000150: fc9f 233e 9713 673d 06b7 2cb3 5fa2 973e
00000160: a6ee 2fbe 004b 073d ca4b 29bd 2b7c 9abe
00000170: 1b95 713d f323 43be 36ad 7bbe 795b 893d
00000180: 43b8 a23e d320 9b3e 5de8 98be c54d 8ebe
00000190: 86dc 05be bfca dfbd 3896 033e 04f7 953e
000001a0: 94ae a73e f129 363e 958d d4bd 0d0b ed3d
000001b0: 99eb 983c c9d4 933e b0f9 a43e 632e 3a3e
000001c0: 3825 02bd c8c7 78be a22e 913d d428 55be
000001d0: 6b4f 853e a1be 403e f972 f23d 67b5 1dbe
000001e0: a83e 8e2f 2607 1f3e 26e7 5c1c ba39 18be
000001f0: 39bb a6bd 59b0 b0b9 fb03 37bc 6516 db3d
00000200: 95a2 e7bd c441 893d 1cf4 133e 3fc3 acbe
00000210: a068 f33c 8d58 7c3e 92eb 53be fcc9 87be
00000220: d218 723e 786c ee3d 0208 223e 5c82 abbe
00000230: 3b6f 403e f01d a43e d61b 13be 9bed ac3d
00000240: f17c 1fbe 1107 983e 698a 99be ba0f 44be
00000250: 9874 073e 5b59 d03d ac40 803e 8b1d 4dbe
00000260: f3b0 b13d 213c 98be a080 143d aea2 143d
00000270: 0142 063e 5818 1cbe 64c2 a03d 75a3 c8b4
00000280: b2e3 063e 42f6 9118 8ea7 9fbe 3a1f 69bd
00000290: 8da4 7eae ecb2 983e 5ff7 b13d 009f 18be
000002a0: adc8 65be fcaf 2f3e d9e8 adbd 4795 81be
000002b0: a778 7dbe 13be 89be b941 1dbe 12b3 4b3d
000002c0: 867e 03bd d7b6 553e 3617 5fbb fb01 84bd
000002d0: 0f94 a5be 4f8f e13d 306a 17be 0523 8d3e
000002e0: 509e a9be 76b4 2f3e ef0d 6bbe 32a5 d03d
000002f0: 5331 24be 7415 59be e989 38bd aebf 6b3e
00000300: 81db 513e ae58 223d d459 1a3e d987 0a3e
00000310: 9f85 7fbe 7a54 533c b578 3a18 62be a0be
00000320: 76ce e9b5 15c6 33be 2a0a 9abd b261 b6ad
00000330: 9f7c 9bbe aad9 6dbe 7a1c 56be c736 973e
00000340: 5df0 1b3e 9c9a 2d3e 5761 443e 8a83 31be
00000350: a8a0 4ebe aaeb 99be 3df1 fb3d 4650 ebbd
00000360: e39c 73bd 64a6 9d3d c4a1 4f3e 1294 763d
00000370: d69f 35be c343 df3d 0b66 2b3e 12f4 6a3e
00000380: 16fc 0d3e 7556 a53e 32b8 ff3b 184f 233e
00000390: f682 123d 8e61 8a3d b0dc 903c c914 943e
000003a0: a998 95bd 5dcf 843d b4c7 83be 567d 95be
000003b0: de9c 153d b324 f5b7 a992 84be b1d9 67b6
000003c0: 057b 7dbe cca3 f1bc f382 8e34 ec39 7d3d
000003d0: 12a4 dd3c 332b a43e ab3f 183d f81d d2bc
000003e0: 15d7 b43c 5495 973e 0e33 adbe 57b7 073e
000003f0: c337 d93d 2f3c 38bd 4476 a9bd 49b2 7b3e
0.03543014 0.09267746 -0.12996307 -4.3451073e-11 0.08372951 0.00048844516 0.31353068 -0.013295044
-8.2431707e-13 -0.22516929 0.24123235 0.117052846 -0.19177264 0.24068469 -0.21160896 0.26875535
-0.2010738 -0.26137772 -0.22591214 -0.17199288 0.18727705 0.15368824 -0.20182732 0.17836969
-0.32146266 0.30783072 -0.3093283 0.1363365 -0.122218534 0.21675879 0.119088806 0.23164593
0.09008191 -0.12642951 -0.14785245 0.27310684 0.14577805 -0.1525606 0.17455445 -0.30698198
0.05591106 -0.2428465 9.1830276e-05 -0.09418538 0.00042388713 -0.33888486 0.029076463 3.896896e-05
-0.19875158 0.3175738 -0.2507625 0.20115368 -0.038392197 0.2161501 0.26504627 -0.062008608
0.11757127 0.07730023 -0.084765404 0.016373107 -0.2024782 -0.05633248 -0.3232275 -0.099578135
-0.13650401 -0.27200437 -0.18718553 -0.062883064 0.082653135 0.25006163 0.018089559 -0.04991128
-0.10977217 0.24027066 -0.075913064 0.08858079 -0.3239449 -0.16659582 -0.009152562 0.06760614
-0.13021596 2.9045084e-12 0.2760828 -6.139344e-17 0.15978998 0.056415167 -4.021333e-08 0.29616067
-0.17180881 0.03303051 -0.041332044 -0.30172858 0.05898009 -0.19056682 -0.24577793 0.067069
0.31781206 0.3029848 -0.2986478 -0.27793708 -0.13072404 -0.109273426 0.12850273 0.2929002
0.3275038 0.17789437 -0.10378567 0.115743734 0.01866703 0.2887328 0.32221746 0.18181758
-0.031773776 -0.2429496 0.07088973 -0.20816356 0.26037154 0.18822719 0.118383355 -0.15401231
2.587417e-10 0.1553007 7.3090646e-22 -0.14865771 -0.08141179 -0.00033700725 -0.011170383 0.10697631
-0.11310307 0.06701997 0.14448589 -0.3374271 0.029712975 0.24643154 -0.20695332 -0.2652129
0.2364228 0.116417825 0.15823367 -0.33497894 0.18792431 0.3205409 -0.14366087 0.08443757
-0.15575005 0.2969289 -0.2998841 -0.19146624 0.1322807 0.10173293 0.2504934 -0.20030801
0.086763285 -0.29733375 0.03625548 0.036287956 0.13111116 -0.15243661 0.07849577 -3.7371834e-07
0.13172796 3.773028e-24 -0.31182522 -0.056914546 -5.7899064e-11 0.29824007 0.086897604 -0.14904404
-0.22439833 0.17156976 -0.08491678 -0.25309202 -0.24753056 -0.26902828 -0.15357102 0.04973132
-0.032103084 0.20870529 -0.0034040934 -0.0644569 -0.32339522 0.11013662 -0.14786601 0.2756578
-0.33128595 0.17158684 -0.22954534 0.101877585 -0.1603444 -0.2119959 -0.045053396 0.23022339
0.2049389 0.039635353 0.15073329 0.13528384 -0.24953316 0.012898559 2.4100878e-24 -0.3139525
-1.7419941e-06 -0.17556031 -0.0752147 -2.073439e-11 -0.30368516 -0.23227564 -0.209093 0.2953398
0.1522841 0.1695351 0.19177757 -0.17335334 -0.20178473 -0.3006261 0.12301872 -0.1148992
-0.05947579 0.07697752 0.20276552 0.060199805 -0.17736754 0.109015964 0.16738145 0.22944668
0.13865694 0.32292524 0.00780394 0.1594814 0.035769425 0.06756888 0.017683357 0.28922108
-0.07304508 0.06484864 -0.257383 -0.29197186 0.036526553 -2.9223365e-05 -0.25893143 -3.4548395e-06
-0.2475396 -0.02949705 2.654484e-07 0.061822817 0.027055774 0.32064208 0.037170094 -0.025649056
0.022075215 0.29606116 -0.33828014 0.13253532 0.10606339 -0.04497927 -0.082745105 0.24579729

weight_hh_l0 f4 [27, 9]
00000000: e751 4abe 14b6 a0be 990a c5bd eee4 263e
00000010: 1ec7 84bd 4276 df3d 8ebe 67bd aa48 f83d
00000020: feb9 b23d 4d02 793e 4690 1fbe 6679 39be
00000030: 77c4 323e 2db8 f7bc 7f00 a0bd 8f4a 8e3e
00000040: 5b49 55be 41de d4bd 6d34 1c3e 3177 d8bd
00000050: 5e3b 45be febc 53bd 8d24 c93d 77f7 6bbe
00000060: 4b48 86bd f214 553e 2fa6 113d 86b1 86be
00000070: 8152 963c 0e95 d23d 5416 7f3d 900b 18be
00000080: 7875 0fbd fc2c 85be 7f70 5abe de13 1cbd
00000090: f153 67be 31eb 423e 894e 3fbe 982d 8e3e
000000a0: 631d dfbd ff52 5d3e 80fe 653e 019d 713d
000000b0: 18bc a73e b53d 4abc 7383 5b3e e8ef 163d
000000c0: 18b3 8f3d ac81 9abe 9c1b debc 9fdf 4f3e
000000d0: 5351 6b3e 1bf5 3c3e 389e 09be fc1f 2e3e
000000e0: d242 a5be d84e 9e3e 5e57 2cbd 03e7 abbd
000000f0: 1d8e e03d 5e92 39be ee0c 86bc c413 8dbe
00000100: 4763 843e 78e4 eabd 1fbd 6e3e 750d d33d
00000110: 34ad 32be 9d9f a33e 9746 263e 0aef c93d
00000120: 14af 6ebe 41fb 983e 2ae7 7e3e 8b9a c33d
00000130: 610a 99be c99f 8c3e 8612 febc 4b48 22be
00000140: be79 bcbc e2c0 ce3d 60ff 28be 1c06 96be
00000150: 78b3 54be 36d8 93be 54fb 373e 9650 003e
00000160: d867 9f3e 7bc8 2f3e cf65 95be 69fb 14be
00000170: 8b4c 88be 7e09 d0bd 6359 b2bd fb9b 8c3c
00000180: 4799 08be 8dde ecbb e60d 89bd 25ac 623d
00000190: 3f1f 6dbd f5d0 a33e 4d5b 9dbd 2f8b ce3d
000001a0: 2d40 afbc 275d 263d c241 f73d 7970 a53d
000001b0: d94f 233d f788 3dbe 7119 adbe e972 73be
000001c0: ffa8 d4bd a776 b23d f387 383e 1a72 c13d
000001d0: 1e2a 023e 3efa 4e3e 95c5 813e f311 9cbc
000001e0: 6b58 aabe 9c9e 943e a277 25be 2376 453e
000001f0: 8f78 c1bd 90ff 873e bd3f 86be 99a1 7ebe
00000200: 16ac 9f3e d3c1 33be 675b ed3d c57f 90be
00000210: 6845 02be f66e 0e3e 4888 c33d 7ff2 4ebd
00000220: 1b59 7d3e 204b 93bd 997f 973c 4a73 06be
00000230: 54b9 6c3e 954b 903e a30b 8a3d 3a88 73be
00000240: cd28 103e e2d3 72be 383b 61be c203 943e
00000250: 6a1c 3d3e 4a03 ad3d dc54 813e 28a9 a6bd
00000260: ee00 9b3e 7efa fbbd c814 053e f295 243e
00000270: a7db e73d b4de 123e 9ebf bfbd 8c83 843d
00000280: b6dc 6bbc 404b f13d 7527 d73d e873 083e
00000290: c08a 983e feb8 3d3e 24ac 9dbe 58cc 4f3e
000002a0: 0105 8bbd ba85 73be ab61 88be c79b f43d
000002b0: be5b 99be 1eba 2dbd 65ba 7c3c dd41 c3bd
000002c0: d6a2 fc3c 6cf5 10bc aa3a 0bbe 1229 a03e
000002d0: 81c9 ed3c 8019 583e 5be9 56be d5ae 8d3e
000002e0: 9d96 683e e286 04be d17f 473d 4587 ac3e
000002f0: 0122 8cbd 1d93 88be 5e7b 913e b2c7 8a3e
00000300: a443 893e 200d 423e 4ca4 133e d94f 553e
00000310: 5c05 453d 3743 033e c1fb dfbd 6b1e 9f3e
00000320: e38f 1ebe ee71 853e 5920 0e3a ed04 6cbd
00000330: bcc0 a33e c18e a43e ae6f c13d 0e63 9cbe
00000340: b89c 3fbe 3f88 913e 810e 7dbe 2b80 92be
00000350: bde6 633e a657 9abd 3221 84be 7729 a33e
00000360: e49a 593d 518a 813e f381 12be 077e 193e
00000370: 941d 823e c7a6 c2bd 4386 abbe c69a f73d
00000380: dd1b 063e c12f a3be 010d 8c3e aee8 1abd
00000390: 5d01 a73e 5004 c23d c8d6 c63d 078f 4d3d
000003a0: 85ba 49bc 5f89 443d c704 623c 5cdf 533d
000003b0: 3a81 db3c 50b7 4e3e 952e 8cbc 0b23 8cbe
000003c0: 3d0f 84bd b632 45bd c145 94be
-0.19757806 -0.31388915 -0.09621162 0.16298267 -0.06483291 0.10911228 -0.05657821 0.121232346
0.087268814 0.24317284 -0.1558238 -0.18112716 0.17457758 -0.030239189 -0.078125946 0.2779126
-0.20828764 -0.10393954 0.15254374 -0.10569609 -0.19260928 -0.05169391 0.09821425 -0.23043619
-0.065567575 0.20808771 0.035558876 -0.26307315 0.018349888 0.10282336 0.062277153 -0.1484816
-0.035024136 -0.26010883 -0.21331976 -0.038104884 -0.22590615 0.19035031 -0.18682303 0.2776916
-0.10894277 0.21613692 0.22460365 0.05898762 0.32760692 -0.012343814 0.21436863 0.036849886
0.07016581 -0.30177057 -0.027112775 0.20300148 0.22980241 0.18452875 -0.13439262 0.17004389
-0.32277542 0.30919528 -0.042075507 -0.08393671 0.10964606 -0.18122241 -0.016363587 -0.27554142
0.25856993 -0.11469358 0.23314331 0.10305301 -0.17448884 0.31957713 0.16237865 0.09860046
-0.23308975 0.29879192 0.2489287 0.09550961 -0.2989073 0.27465656 -0.031014692 -0.1584789
-0.02300727 0.10095383 -0.16503668 -0.29301536 -0.20771587 -0.28875893 0.17966968 0.12530741
0.31133914 0.17166321 -0.29179236 -0.1454903 -0.26620898 -0.101580605 -0.087084554 0.017164221
-0.1333972 -0.0072286786 -0.06692104 0.05533995 -0.057891127 0.3199536 -0.0768343 0.10085141
-0.021392906 0.04061618 0.12073089 0.08078093 0.03987107 -0.18509279 -0.33808473 -0.23774303
-0.10383796 0.087140374 0.1802061 0.09445591 0.12711379 0.20212647 0.25346056 -0.019051528
-0.33270583 0.2902726 -0.16158918 0.19283347 -0.09446823 0.26562166 -0.26220503 -0.24866332
0.3118598 -0.17554407 0.11589699 -0.2822248 -0.12721789 0.13909516 0.09547478 -0.05052423
0.24741022 -0.07192063 0.01849346 -0.13129917 0.23117572 0.28182665 0.06740501 -0.23782435
0.14078064 -0.2371364 -0.21995246 0.28909117 0.1846787 0.08447893 0.25260055 -0.08137733
0.30274147 -0.12303637 0.12996209 0.16072825 0.11321192 0.14342767 -0.0936272 0.06470403
-0.014395883 0.11781931 0.10505573 0.13325465 0.29793358 0.185276 -0.30795395 0.20292795
-0.06788064 -0.23781481 -0.26637015 0.11943775 -0.29952806 -0.042413823 0.015425299 -0.09534047
0.030839365 -0.008847576 -0.13596597 0.31281334 0.029026749 0.21103477 -0.20987456 0.2767245
0.22713704 -0.12942079 0.04870588 0.33696952 -0.06842423 -0.2667474 0.28414434 0.2710548
0.26809418 0.1895032 0.14418143 0.2083124 0.048100814 0.12818609 -0.1093669 0.31077895
-0.15484576 0.26063484 0.00054216903 -0.057621885 0.31982982 0.32140163 0.09445129 -0.30544323
-0.18712127 0.2842426 -0.24712564 -0.2861341 0.22255988 -0.07536249 -0.25806576 0.31867573
0.05312623 0.2530084 -0.14307384 0.14989482 0.2541319 -0.095044665 -0.3350087 0.120900676
0.13096566 -0.3187237 0.2735367 -0.037819557 0.32618228 0.09473479 0.09708935 0.05018523
-0.012312536 0.04798257 0.013795084 0.051726684 0.026795018 0.20187116 -0.017112056 -0.27370486
-0.06448219 -0.048144065 -0.28959468

bias_ih_l0 f4 [27]
00000000: c545 d5bd b1b6 8cbe b6d0 563e 8c93 9ebe
00000010: cd7c 2b3e 3b44 0e3e c7e9 e4bc c9b9 f63c
00000020: 403d 7d3e fb74 473e 15b0 b9bd 13b5 d23d
00000030: 7cbd 083e 4018 573e 1e2f dd3d bf56 11be
00000040: 7e7d b5bc 31e6 5dbe 02b8 713e 5a99 983e
00000050: 7201 8ebe 269d 8dbe 9736 673e 2696 85be
00000060: af28 0ebe 276e 403e c3f0 e6bd
-0.10413698 -0.27483132 0.20978054 -0.30971944 0.16746826 0.13893215 -0.027943505 0.030117886
0.24730396 0.19478218 -0.09066788 0.102884434 0.13353533 0.21005344 0.108000025 -0.14193247
-0.022154566 -0.21669842 0.2360535 0.29804498 -0.27735478 -0.27658957 0.22579418 -0.26091117
-0.13882707 0.1879202 -0.112763904

bias_hh_l0 f4 [27]
00000000: 34fe f63c b173 9f3e b52e 4f3c e92b a23e
00000010: 4acf 8c3e 4ba5 23be ddf4 463e 5c86 3d3e
00000020: 72da 1e3e 7cdc 82be 830c 45be 0be1 5ebe
00000030: 7757 a1be e34c 983e 08fa 84be 878c 503e
00000040: 75bc 373e 618a 8b3e b260 633e f6a9 8c3d
00000050: 6c72 dcbd b1d6 7c3e 5ffe ebbb 152b 8fbc
00000060: 5580 023e dabd 983e d876 5abe
0.03015051 0.31142953 0.012645413 0.31674126 0.275019 -0.15981023 0.19429345 0.18508285
0.15513018 -0.2555884 -0.19243054 -0.21765535 -0.31512043 0.2974616 -0.2597201 0.20366107
0.17942984 0.27254012 0.22204855 0.06868355 -0.10764012 0.24691273 -0.0072019543 -0.017476598
0.12744267 0.29832345 -0.21334398

weight f4 [9, 9]
00000000: a78a 883e f89e 203e c4cc 553e 09c4 203e
00000010: eae1 33bd 6155 063e c65b 89bd fc1b 9ebe
00000020: 5eb0 7e3e 18ef 0d3e 434c c93d 1287 623e
00000030: 8c78 143e e555 ebbd f24e 97be d486 cabd
00000040: 01d0 10be ab91 28be 4899 a23e 3a25 8dbe
00000050: 7287 4cbe 9416 703e 5f39 dbbd 8bc4 883e
00000060: cb3d 873e 928e 9c3e cdbf be3d aba0 461a
00000070: 76c2 c099 8048 6d23 adbf 4eb7 b928 29b9
00000080: dec9 e1b5 753d 6737 5878 7b96 ed91 3f38
00000090: 5e10 803e e2ae fc3d ea75 1abe 5291 2ebe
000000a0: 5a14 56be d314 8f3e 81f7 423d 9494 40bd
000000b0: 8614 cebd 406c b2b5 f2f1 b81e b151 40b9
000000c0: d276 97b9 879b e535 5f5a ecb6 929a 8f18
000000d0: 21b0 a3b0 13b1 e239 0728 82be 19f1 993e
000000e0: 84cf 983e 1bd4 0d3e 469d f3bd db88 a3be
000000f0: 0e14 a1bd f434 19be e5ac 35be 2ac0 1c3e
00000100: a7c8 1a3e 1b56 9e3d b766 fcbb a571 c13d
00000110: db01 62be 5433 41bd 4bfc b2bc 64fa f5bd
00000120: 0f27 b9bd ce5a 08bd 2bbd 6ebd 3c41 903d
00000130: cd13 403e 4f9a 0c3e 88bb 3abc c4ab 433d
00000140: 19f5 1ebe
0.26668283 0.15685642 0.20878893 0.15699781 -0.04391662 0.13118507 -0.067069575 -0.30880725
0.24871966 0.13860738 0.09828999 0.22121838 0.1449911 -0.114909925 -0.29552418 -0.09888998
-0.14141847 -0.16461818 0.3175757 -0.27567464 -0.19973543 0.23446113 -0.10704302 0.2671245
0.26414332 0.30577523 0.09313927 4.1075227e-23 -1.9930877e-23 1.2863148e-17 -1.2323185e-05 -0.00016132266
-1.6822557e-06 1.3782982e-05 -2.0313592e-25 4.5673853e-05 0.25012487 0.12338044 -0.15084043 -0.17047623
-0.20906201 0.27945575 0.04759932 -0.047016695 -0.10062508 -1.3293538e-06 1.9581824e-20 -0.0001834098
-0.00028889492 1.7107094e-06 -7.0438687e-06 3.712071e-24 -1.190987e-09 0.0004323801 -0.25421163 0.30066755
0.29845822 0.13850443 -0.11895232 -0.3194035 -0.07865153 -0.14961606 -0.17741735 0.1530768
0.15115605 0.07731267 -0.0077026743 0.09445504 -0.2207102 -0.04716809 -0.021848818 -0.12010649
-0.09040653 -0.033289723 -0.058285873 0.070436925 0.18757553 0.13730739 -0.01139725 0.04777123
-0.15523185

bias f4 [9]
00000000: 740e 853e 5a40 8f3d 681b c6bc 79dc e1b6
00000010: babe 713e 4326 35b8 1929 14be 9ef3 443e
00000020: 0a02 25be
0.2598759 0.06994696 -0.02418299 -6.731189e-06 0.23607913 -4.3189397e-05 -0.14468803 0.19233558
-0.16114059

weight f4 [720, 18]
00000000: 0208 2b3e 7ea1 073e d80d c03c dbe3 893d
00000010: 1965 5e3e 8e1c 03be 2e25 00be 5056 08be
00000020: 8703 ef3d c23d ee3d 29f4 89bd 5af6 15be
00000030: 1ed7 c5bc 81ad fcbd 6139 093e fa7d cc3d
00000040: d7bc 6c3e 8b41 75be 1f44 5dbc ede9 083e
00000050: 3d31 86bd b885 473e 198f 4b3e 37b9 24bd
00000060: 4717 89bd ab15 103e ceca 13bd 48b9 243e
00000070: c4da 8a3d a505 a23d 289e 833c 8049 06bd
00000080: 761f fbbd 02fd 49be 0795 da3d bbe5 91bd
00000090: f0bf 8bbd 80be 9ebd 0898 73be 647e d2bd
000000a0: b71f 9e3d b453 e33d 3a36 af3d 9386 d73d
000000b0: 9fe3 f0bd 5f7d 2d3d 9431 303d 7b44 943d
000000c0: f6d1 0b3c b436 4c3e 3826 43be 8e7f 1dbd
000000d0: 3751 46be 2793 693e 9db5 6abe 18df 2abe
000000e0: 25ba 423e fb07 053e 07a9 253e 3dbe 1e3e
000000f0: d92d 4f3e afe4 aebc fa5d 05bd 46ea c43d
00000100: c7dd 26bd 670c 753d f156 753c e583 71be
00000110: 9104 903d a35f 0fbe 4800 083e 9a7f 15be
00000120: 1439 0fbd 4ddf d83d df45 013d 95e8 3f3e
00000130: e7fd 7cbd 65ae 56bc a9dc 153e 1847 ab3c
00000140: a217 203d febe 0fbe d5ba 2f3d d99b a73d
00000150: 340b d4bc 14a6 573e 85ed 3fbe 7918 a43d
00000160: 2bfd 5a3e 0264 b03d 9db8 5dbb 6976 e23d
00000170: 2f02 2b3d 99ed 76be 1140 ce3d f021 633e
00000180: 561a 963b f909 4a3e 7e0d 473e bc15 f53a
00000190: 45ad 88bd 8b5a 2bbe 862b ea3d 60e6 b6bc
000001a0: 1604 6f3c 2ed7 203e cf58 193e b7b2 7ebd
000001b0: 95f3 b1bd 2a0b a13d 4cb0 bd3c a7fb 2d3e
000001c0: ab87 613d 67e8 2ebe 3806 e2bd b678 44bd
000001d0: e5d3 3fbb 5388 95bd aeed 683e 2cc8 cbbd
000001e0: c0c0 dbbc 7161 243c f9c9 41be 9229 2fbd
000001f0: 8f5c ad3d 953a 563e 41ec b53d 523b 573c
00000200: d788 623d 8a9d e53d 5d13 1e3e 78be debd
00000210: da9e 07bc 8579 1c3e b2ab 223e 234a 5cbe
00000220: ff7e 0e3e 516e ea3d 4472 42be a7df 26be
00000230: e9f2 15be e03c 003d 3dcf 8d3d 9bd7 f23d
00000240: 8a5f 2dbe 3e29 b53d a056 dd3d 8c06 583e
00000250: cc67 00bb 881a d63d f7c5 6abe 5014 b23d
00000260: 5f41 473e 5d48 b13d 54bf 5ebd 5c56 ebbc
00000270: 38ac 0a3e 64ee 203e 7221 04be 8864 663e
00000280: 9693 ad3d f8d3 15bd d7b4 ddbb fcdd 363e
00000290: 1789 41be ccf9 19be 2e8d bb3d ad21 01be
000002a0: 6846 e9bd ce34 c13d 8dac 61be 5381 9fbc
000002b0: d440 c43c 7c36 5f3d 4464 30bd 4e35 61be
000002c0: 7d0b eabd 253d 13bd cb11 4cbc 22a7 233e
000002d0: 5aff 953c 2e6e 3abd 70e8 5fbe 1914 663e
000002e0: 2fa4 033d 8152 063d eaae 103d 92d5 003e
000002f0: 4192 3fbe a203 d9bd ab47 473e ffce 603e
00000300: 0fc2 ab3d 0238 28bd 5d54 fd3c f5ec 1fbe
00000310: 8e0c 66be 57a3 543d 80fe 18be 79dd 5cbe
00000320: b3b2 04bd 8cbc 223d f9f7 1ebd 4690 643e
00000330: eeb5 90bc 523a 75be e221 313e a388 f4bc
00000340: 7b0e 003e fe70 17be e703 983c e221 563e
00000350: e2b5 e2bd d59e e23d fd90 29be f561 003e
00000360: 8ed6 8cbc c7b8 8cbc af8b dabc fdd8 bd3d
00000370: 6635 663e 999f 80bc ed64 613d 5cc1 acbd
00000380: 8e62 0a3e c169 2e3e c613 633e 465b 49be
00000390: bf29 043e f87c 11be 1245 6abe f360 513e
000003a0: 6a5f e2bd ecf1 63be 9823 58bd 7a68 033e
000003b0: 414b 4b3e 32d1 78bd 8757 683e fc88 633e
000003c0: cf21 f0bc e4de 50be c641 b4bd 1185 9c3d
000003d0: df37 33be 7ad9 723e d7f2 56be b378 103d
000003e0: 484d e1bd 1b24 ddbd 589e dbbd 053f 4f3e
000003f0: fa29 453d 8383 543d 6d44 23bd 0750 40bc
0.16702273 0.13245198 0.023444101 0.06732913 0.21718253 -0.12803861 -0.12514183 -0.13314176
0.11670595 0.11632873 -0.06736023 -0.14644757 -0.024150427 -0.12337781 0.13400795 0.099849656
0.23118912 -0.23950784 -0.013505011 0.13370486 -0.0655236 0.19484603 0.19878806 -0.040215697
-0.06693893 0.14070766 -0.03608208 0.16086304 0.067800075 0.07911233 0.016066626 -0.03278494
-0.1226186 -0.19725421 0.10672956 -0.07123896 -0.068237185 -0.07751179 -0.23788464 -0.10278013
0.07720893 0.110999495 0.08555265 0.10523715 -0.11762165 0.04235589 0.04301603 0.07239624
0.008533945 0.19942743 -0.19057548 -0.038451724 -0.19366919 0.2281004 -0.22920842 -0.16686666
0.19016321 0.12991326 0.1617776 0.15502258 0.20232333 -0.02134928 -0.032560326 0.096149966
-0.040738847 0.05982628 0.014974342 -0.2358547 0.07032121 -0.14001326 0.13281357 -0.14599457
-0.034966543 0.10589466 0.031560775 0.18741067 -0.061765578 -0.013103102 0.14634956 0.020907924
0.039085038 -0.14037701 0.042902786 0.081840225 -0.025884248 0.21059448 -0.1874295 0.0801248
0.21385638 0.08612825 -0.0033831962 0.11057741 0.04175013 -0.24114074 0.100708134 0.22180915
0.004580776 0.19730367 0.1943874 0.0018698494 -0.066736735 -0.16733758 0.11434083 -0.022326648
0.0145883765 0.15707085 0.14975284 -0.062182155 -0.08689038 0.078634575 0.023155354 0.16990529
0.055061024 -0.17080842 -0.110363424 -0.04796668 -0.0029270586 -0.073013924 0.22746918 -0.09950289
-0.026825309 0.0100329975 -0.18924703 -0.042764254 0.0846492 0.20920785 0.088829525 0.013136702
0.055306282 0.11211689 0.15437074 -0.10876173 -0.008277619 0.15280731 0.15885809 -0.21512656
0.13915633 0.114468224 -0.18988901 -0.16296254 -0.14643444 0.031308055 0.06924293 0.1185753
-0.16930977 0.08845757 0.10807538 0.21096247 -0.0019593118 0.10454279 -0.2292708 0.086952806
0.19458531 0.0865638 -0.054381683 -0.028727703 0.13542259 0.15715939 -0.12903383 0.22499287
0.084754154 -0.036579102 -0.0067659426 0.17858118 -0.18899952 -0.15036696 0.09157787 -0.12610503
-0.11390382 0.094339 -0.22038479 -0.019470846 0.023956694 0.05449532 -0.04306437 -0.2199299
-0.114279725 -0.035946984 -0.012455414 0.15981725 0.018310238 -0.04551523 -0.21866012 0.22468604
0.032139 0.032793526 0.03532306 0.1258147 -0.18708135 -0.10596396 0.19460933 0.21953963
0.08386623 -0.04106904 0.030924017 -0.15617736 -0.22465727 0.051913586 -0.14940834 -0.2156886
-0.032396983 0.039730594 -0.038810704 0.22320661 -0.017664876 -0.23948029 0.17298082 -0.02985031
0.12505524 -0.14789197 0.018556548 0.20911363 -0.11069848 0.11065451 -0.16559215 0.12537368
-0.017192151 -0.017177952 -0.026677934 0.09269903 0.22481307 -0.015701102 0.05502789 -0.08435318
0.13514158 0.1703253 0.22175512 -0.19663724 0.1290655 -0.14207828 -0.2287791 0.2044714
-0.11053355 -0.22260255 -0.05276832 0.12832823 0.19852926 -0.06074638 0.22689639 0.22220224
-0.029312996 -0.20397526 -0.08801608 0.07642568 -0.17501782 0.23715773 -0.20991074 0.035271358
-0.11001068 -0.10797902 -0.10723561 0.20238884 0.048135735 0.05188323 -0.039860178 -0.01173783
