RTSNet/best-model.pt (torch, 139828 bytes, 70 tensors)

weight_ih_l0 f4 [12, 10]
0	0xbe0ddad2	-0.13853005
1	0xbd8ffc6a	-0.07030566
2	0xbd92b5af	-0.0716356
3	0xbe9618e4	-0.29315865
4	0xbc314846	-0.010820454
5	0x3e01e202	0.12683871
6	0xbebee411	-0.37283376
7	0x3ea20acd	0.31648865
8	0xbee1827a	-0.44044858
9	0xbe7d0dd0	-0.247123
10	0x3e89764b	0.26848063
11	0xbebe9884	-0.37225735
12	0x3e491eea	0.19640699
13	0xbe632f90	-0.22186112
14	0x3e888351	0.26662686
15	0xbedb0ea3	-0.42784604
16	0x3e618bf6	0.22026047
17	0x3eeb5412	0.45962578
18	0x3d9b32b7	0.075780325
19	0xbeac9df8	-0.3371427
20	0x3e3c80a0	0.18408442
21	0x3ea6da98	0.3258865
22	0x3ea5271f	0.3225641
23	0xbec5f8e2	-0.38666445
24	0xbe61f02e	-0.22064278
25	0xbe5a8fd4	-0.21343929
26	0xbdc03f80	-0.09387112
27	0xbe98c84d	-0.29840317
28	0xbdf99dc5	-0.12188295
29	0x3ed8c461	0.42337325
30	0xbdb40044	-0.08789113
31	0xbe484687	-0.19558154
32	0x3e9bac8f	0.3040509
33	0xbee5bc99	-0.4487045
34	0xbe0602eb	-0.1308705
35	0xbedf4db9	-0.43613985
36	0xbd7ddfe1	-0.061981086
37	0xbef736b4	-0.48283923
38	0xbe52bc92	-0.20579746
39	0x3ed5e556	0.41776532
40	0xbeccb1a9	-0.39979294
41	0xbdf83e99	-0.121213146
42	0xbea613cf	-0.32436988
43	0xbd3cd560	-0.046101928
44	0xbdcfa6f1	-0.101392634
45	0xbe661465	-0.22468717
46	0x3e001c22	0.12510732
47	0x3e766246	0.24060926
48	0x3ed537de	0.41644186
49	0x3ede031f	0.43361756
50	0xbe22e6a4	-0.15908295
51	0x3ed8ccec	0.42343843
52	0xbed459a2	-0.41474634
53	0x3dc37476	0.095436975
54	0xbd93fa48	-0.07225472
55	0x3e08b5fa	0.13350669
56	0x3eebc30b	0.46047243
57	0xbee9fb3e	-0.45699495
58	0x3e7cedc0	0.2470007
59	0x3ecce117	0.4001548
60	0xbef94238	-0.48683333
61	0x3e3bdc26	0.18345699
62	0x3ea5b90a	0.32367736
63	0xbf0063b7	-0.5015215
64	0x3efeb523	0.4974757
65	0xbe977024	-0.29577744
66	0xbefc6b87	-0.49300787
67	0xbe8f2d41	-0.27964213
68	0xbdd0b70a	-0.10191162
69	0xbeb24c27	-0.34823725
70	0xbe1edb32	-0.15513304
71	0x3e9f595e	0.3112287
72	0xbdf0b84a	-0.117539
73	0x3de8338b	0.11337956
74	0x3ed2379e	0.41058058
75	0xbe891bd8	-0.26779056
76	0x3dd15dc5	0.10222963
77	0xbd59b421	-0.0531503
78	0x3eaad8b0	0.33368444
79	0xbed04fee	-0.40685982
80	0xbefa3330	-0.48867178
81	0xbddaa4c6	-0.10675959
82	0x3e72acce	0.23698732
83	0x3dd07f8c	0.10180578
84	0xbc89d43c	-0.016824834
85	0x3eec8b29	0.4619992
86	0x3ddb7137	0.107149534
87	0xbe86317d	-0.26209632
88	0xbd90cd10	-0.070703626
89	0x3d197265	0.03746261
90	0x3d55e9bf	0.05222487
91	0xbe9100a1	-0.28320792
92	0xbed46d15	-0.41489473
93	0xbe736c04	-0.23771673
94	0x3ec2f3c9	0.38076618
95	0xbef4492b	-0.47712073
96	0xbee29187	-0.44251654
97	0xbd01a002	-0.031646736
98	0xbe41e79c	-0.18936008
99	0xbd644100	-0.05572605
100	0xbe997f0e	-0.29979748
101	0x3eed508f	0.46350524
102	0xbe1ce13e	-0.15320298
103	0xbe96228c	-0.29323232
104	0x3e7516de	0.23934504
105	0x3db86eb6	0.090054914
106	0x3d2396e4	0.039938822
107	0xbe6ad7bc	-0.22933859
108	0x3e884188	0.26612496
109	0xbd203516	-0.039113127
110	0x3e763bff	0.24046324
111	0xbea03307	-0.3128893
112	0xbe0f335f	-0.1398444
113	0x3d482f49	0.04887322
114	0x3e56485c	0.2092604
115	0x3e8cd834	0.275087
116	0xbe88e4bd	-0.26737013
117	0xbe1e7c7b	-0.15477173
118	0xbd763fb6	-0.060119353
119	0x3d961c60	0.07329631

weight_hh_l0 f4 [12, 4]
0	0x3ec68cd5	0.3877932
1	0xbe18fcf5	-0.14940245
2	0x3e245d7c	0.16051286
3	0xbe18c3c3	-0.14918427
4	0x3e87a829	0.26495484
5	0x3e8dc628	0.27690244
6	0xbeed714e	-0.46375507
7	0x3edba51f	0.42899415
8	0x3ef268f2	0.47345692
9	0xbe03cbc7	-0.12870704
10	0x3e5c0d73	0.21489505
11	0x3df86761	0.12129093
12	0x3ea06ed8	0.31334567
13	0xbe9a2180	-0.30103683
14	0x3eb4b3e3	0.35293493
15	0xbe539718	-0.20663106
16	0x3e3ead57	0.18620811
17	0xbdb30ec8	-0.08743054
18	0xbecdc022	-0.40185648
19	0xbed1c3e3	-0.40969762
20	0x3e36de96	0.17858347
21	0x3e33cf5b	0.17559569
22	0xbee29e2d	-0.44261304
23	0xbde069b0	-0.10957658
24	0x3ee99370	0.45620298
25	0xbeed428f	-0.46339843
26	0x3ebd3e6b	0.36961684
27	0x3e734500	0.2375679
28	0xbe3f6d5f	-0.18694066
29	0xbe0f22ea	-0.13978162
30	0x3c5aeafd	0.01336169
31	0xbeeb73af	-0.45986697
32	0x3ee61963	0.44941244
33	0x3ef2104c	0.4727806
34	0x3d1b2306	0.037875198
35	0x3ea3df00	0.32006073
36	0xbcc4c08c	-0.024017595
37	0x3e414c4a	0.18876758
38	0xbdd725a0	-0.10505223
39	0xbebb7e08	-0.36619592
40	0x3dd720f5	0.10504333
41	0xbdced65b	-0.10099479
42	0xbed094e5	-0.40738598
43	0xbe7973fe	-0.24360654
44	0x3ef4b686	0.47795504
45	0xbe836d60	-0.25669384
46	0x3e309d9e	0.17247626
47	0xbda89374	-0.082312495

bias_ih_l0 f4 [12]
0	0x3ccdd941	0.025128009
1	0x3eb87941	0.3603001
2	0xbe3bd26f	-0.18341993
3	0x3eb318ad	0.34979764
4	0x3db20e46	0.08694129
5	0x3e70e34c	0.23524207
6	0x3e95822b	0.29200873
7	0x3efb90dc	0.49133956
8	0xbe40c3ce	-0.18824694
9	0x3e74b662	0.23897699
10	0x3ed30e92	0.41222054
11	0x3e972c55	0.2952601

bias_hh_l0 f4 [12]
0	0x3e560310	0.20899606
1	0x3eb78f7d	0.3585166
2	0x3eaaa034	0.3332535
3	0x3e8e0855	0.27740732
4	0x3ebfed03	0.37485513
5	0x3ebcaecc	0.3685211
6	0xbe055e27	-0.13024198
7	0x3e0f0c52	0.13969544
8	0x3e8f315e	0.27967352
9	0xbe66a10c	-0.22522372
10	0x3eb87746	0.36028498
11	0x3e6f4085	0.23364456

weight_ih_l0 f4 [12, 14]
0	0xbea341c1	-0.31886104
1	0x3dfea33f	0.124334805
2	0xbecf0e1f	-0.4044046
3	0xbe7939e8	-0.24338496
4	0x3e1269ac	0.14298123
5	0x3e017de0	0.12645674
6	0xbda1ccbd	-0.07900379
7	0xbdb19f23	-0.08672931
8	0x3e554d14	0.20830184
9	0xbe31361c	-0.17305797
10	0x3e8163a0	0.2527132
11	0x3e865fc8	0.2624495
12	0xbce2c2ac	-0.027680717
13	0x3ee69f2f	0.45043322
14	0xbdf45041	-0.1192937
15	0x3eed13ce	0.46304172
16	0x3e5660cf	0.20935367
17	0xbeeb9c17	-0.46017525
18	0xbdf55f48	-0.11981064
19	0x3e1e7ad2	0.1547654
20	0x3e6b7526	0.22993907
21	0x3e4fac35	0.20280536
22	0x3d4cb4c9	0.049977098
23	0x3e38e769	0.18057026
24	0x3e2ab00b	0.16668718
25	0xbe84bd05	-0.2592546
26	0x3de357e1	0.11100746
27	0xbe956f9f	-0.29186723
28	0xbcb0a166	-0.021561336
29	0xbe11a161	-0.14221717
30	0xbe42d7d3	-0.19027643
31	0x3ed98b68	0.4248917
32	0xbaa48e94	-0.0012554699
33	0xbea09973	-0.31367072
34	0x3e994121	0.29932502
35	0xbedeb2b5	-0.43495718
36	0xbe230ccf	-0.15922855
37	0xbd06b808	-0.03289035
38	0x3e9beb86	0.30453128
39	0xbe84c238	-0.25929427
40	0x3eee180a	0.46502715
41	0xbef60334	-0.4804932
42	0xbd28d461	-0.041218165
43	0xbe84830a	-0.25881225
44	0xbc88a63c	-0.01668083
45	0x3ec0b112	0.37635094
46	0xbdd2ec5d	-0.10298989
47	0xbe07dcb8	-0.13267791
48	0xbda8b3d0	-0.082374215
49	0xbc013a61	-0.007887454
50	0xbc916a6a	-0.017750937
51	0x3e208d20	0.15678835
52	0xbe9c9178	-0.30579734
53	0x3eadd11e	0.33948606
54	0xbdbf92eb	-0.09354194
55	0xbec94cf4	-0.39316523
56	0x3d4a913a	0.049454905
57	0xbe722b4a	-0.23649326
58	0x3e8207bb	0.25396523
59	0xbe9a028f	-0.30080077
60	0xbe32b5ac	-0.17452115
61	0xbd6caf28	-0.05778423
62	0x3e935cb5	0.28781667
63	0xbef8160d	-0.48454323
64	0xbe94d8e8	-0.29071736
65	0xbe2698fe	-0.162693
66	0xbd849abc	-0.06474826
67	0xbebe8f0f	-0.3721852
68	0x3ec6b36b	0.3880876
69	0xbef4fca2	-0.47848994
70	0x3e92344a	0.28555518
71	0x3ca626c9	0.020282166
72	0xbe99198b	-0.299023
73	0x3ea03d97	0.3129699
74	0xbd1b4420	-0.037906766
75	0xbd4dbd66	-0.050229453
76	0x3d5b6ecf	0.053572472
77	0x3ed5e49b	0.41775975
78	0xbe27178a	-0.16317573
79	0x3eddfbba	0.43356115
80	0x3e4567b0	0.19277835
81	0x3e9f5458	0.31119037
82	0x3eb4edb7	0.35337612
83	0x3df52198	0.11969298
84	0xbdb7f081	-0.08981419
85	0xbd933688	-0.071881354
86	0x3e7f47b7	0.24929701
87	0xbd942b1f	-0.07234787
88	0xbdb47772	-0.08811845
89	0x3ed5eb7d	0.41781226
90	0xbebc2168	-0.36744237
91	0xbe0bfc21	-0.13670398
92	0xbe16cc4a	-0.14726368
93	0xbeb9e2d9	-0.36305884
94	0x3c17c3bc	0.009262975
95	0xbe945cd1	-0.28977063
96	0xbea4ffca	-0.32226402
97	0x3eab7b7a	0.33492643
98	0xbead2641	-0.33818248
99	0x3d4547a9	0.048164044
100	0x3d0dbb14	0.03460224
101	0xbe2abbca	-0.16673198
102	0x3e8ceaeb	0.27522978
103	0x3eb40833	0.35162506
104	0x3ea7825f	0.32716653
105	0x3ee7efa6	0.45300025
106	0xbec6f251	-0.38856748
107	0xbeb7d647	-0.35905668
108	0xbdd1b9d3	-0.10240521
109	0xbd80f293	-0.06296267
110	0x3ee1ea6a	0.44124156
111	0x3e2470fe	0.16058728
112	0xbebc9014	-0.36828673
113	0x3d25262d	0.04031961
114	0xbed4523c	-0.4146899
115	0x3eb5f5ba	0.35539037
116	0x3ec49d2c	0.38401163
117	0x3ea7f534	0.32804263
118	0x3dda8d8e	0.10671531
119	0x3e370a78	0.17875087
120	0xbe988b05	-0.29793563
121	0x3e2daf44	0.1696139
122	0x3e6c29a2	0.23062757
123	0xbe823e48	-0.25438142
124	0xbe79574f	-0.24349712
125	0x3d76b8a0	0.060234666
126	0xbe5a0611	-0.21291377
127	0x3d67f7f9	0.05663297
128	0xbe21fdac	-0.15819424
129	0x3ee10984	0.43952572
130	0xbb5796cd	-0.003289628
131	0xbd7a2c67	-0.0610775
132	0x3e450c8a	0.19243065
133	0xbec26821	-0.3797007
134	0x3e4905bf	0.19631098
135	0xbdb5f203	-0.08884051
136	0xbe9c344c	-0.3050865
137	0xbd87815d	-0.06616471
138	0xbeafa62b	-0.34306464
139	0xbe8ab4ef	-0.27091166
140	0x3eac244a	0.33621436
141	0xbdb47ec4	-0.08813241
142	0x3e4667ba	0.19375506
143	0x3e508ff7	0.20367418
144	0x3ecfe707	0.40605947
145	0x3e6b4bf0	0.22978187
146	0x3e87be53	0.26512393
147	0x3eaaefdd	0.33386126
148	0xbefca977	-0.4934804
149	0x3de49b18	0.11162394
150	0x3ee3efaa	0.44518787
151	0xbe76a8a2	-0.24087766
152	0x3e2bbb59	0.16770686
153	0x3ec6c7f6	0.38824433
154	0xbdbeeaa2	-0.093220964
155	0xb997dec1	-0.0002896693
156	0x3ef7503b	0.48303398
157	0x3eafed70	0.34360838
158	0xbd9aeabe	-0.07564305
159	0x3e3db2fb	0.18525307
160	0x3d5cde08	0.053922683
161	0xbe74e42b	-0.23915164
162	0x3e8007c7	0.25005934
163	0x3ee0c783	0.43902215
164	0x3c8d63eb	0.017259559
165	0x3c2fe738	0.010736279
166	0x3dab3769	0.08360178
167	0x3e8bea20	0.2732706

weight_hh_l0 f4 [12, 4]
0	0x3e904d75	0.28184095
1	0xbe666a18	-0.22501409
2	0x3e0b9bf4	0.1363371
3	0xbe047ba4	-0.1293779
4	0x3e846296	0.25856465
5	0x3ed3f750	0.41399622
6	0x3e5c4338	0.21510017
7	0x3e5cab0c	0.21549624
8	0xbdfa4f99	-0.12222213
9	0x3e93906c	0.28821123
10	0x3e0334cb	0.12813108
11	0xbe5fc603	-0.21852879
12	0xbde0455f	-0.109507315
13	0xbe4faf1c	-0.20281643
14	0xbed99c4b	-0.42502055
15	0xbe38dbaa	-0.18052545
16	0xbec3fda0	-0.38279438
17	0x3ef8e1d9	0.48609808
18	0x3d872284	0.0659838
19	0x3e80dbc3	0.25167665
20	0xbea5594c	-0.3229469
21	0xbe255805	-0.16146858
22	0x3ebf1f83	0.3732873
23	0x3dccd8e6	0.100023076
24	0xbebc3ff8	-0.36767554
25	0xbe44ecd2	-0.19230965
26	0xbd9641b3	-0.0733675
27	0xbee072a7	-0.43837473
28	0xbefa05ab	-0.4883245
29	0xbea3214d	-0.31861344
30	0x3e458814	0.19290191
31	0x3e424521	0.18971683
32	0x3ed7219e	0.42017835
33	0x3ee23e36	0.44188088
34	0x3ea4cfcd	0.3218979
35	0x3ef25d8b	0.47336993
36	0xbe12a799	-0.14321746
37	0xbdf2642a	-0.11835511
38	0x3d0352a5	0.032061238
39	0xbdbd4f20	-0.092436075
40	0x3e45f475	0.19331534
41	0x3e25f194	0.16205436
42	0x3cd10887	0.025516761
43	0xbd9a180f	-0.0752412
44	0x3e558a63	0.20853572
45	0x3db8fbe5	0.0903242
46	0x3e3437d9	0.17599429
47	0xbe791d21	-0.24327518

bias_ih_l0 f4 [12]
0	0xbe54a936	-0.20767674
1	0x3e725800	0.23666382
2	0x3e5dd1c5	0.21662052
3	0x3e3d5c1d	0.1849217
4	0x3ee73fe7	0.4516594
5	0xbea39f00	-0.31957245
6	0xbe9558a9	-0.29169205
7	0xbecd74a2	-0.40128046
8	0xbeb01ff3	-0.34399375
9	0x3ecf9fa7	0.40551493
10	0xbe87c741	-0.26519206
11	0xbdd7b92a	-0.10533364

bias_hh_l0 f4 [12]
0	0x3d963ae7	0.073354535
1	0x3ea6670f	0.32500502
2	0x3ef83793	0.484799
3	0x3efb5972	0.4909168
4	0xbdee7c01	-0.116447456
5	0x3c9986c6	0.018741023
6	0x3e706990	0.23477769
7	0xbee5243e	-0.44754213
8	0x3e276de4	0.16350514
9	0xbea42fd7	-0.3206775
10	0xbf00f7f9	-0.50378376
11	0xbe086034	-0.13317949

weight_ih_l0 f4 [12, 24]
0	0x3ddc69c0	0.10762358
1	0x3eaf089f	0.34186265
2	0xbdae515a	-0.0851161
3	0xbe1016f1	-0.14071251
4	0x3ec703a8	0.38869977
5	0x3c709c19	0.014685654
6	0x3ea1e639	0.31620958
7	0x3ec4a849	0.3840964
8	0xbe2f9c64	-0.17149502
9	0x3ef09820	0.46991062
10	0x3e1b6578	0.15175426
11	0x3e880722	0.26567942
12	0x3ea220e6	0.31665725
13	0xbeb89d46	-0.3605749
14	0x3e5c5640	0.21517277
15	0xbd9b3d97	-0.07580107
16	0x3dd453f9	0.10367579
17	0xbdeeb765	-0.116560735
18	0x3ecf5f10	0.40502214
19	0xbeeb97ac	-0.46014154
20	0xbee0ec61	-0.43930343
21	0x3ecd5468	0.4010346
22	0x3ddc977e	0.10771082
23	0x3db225ad	0.08698592
24	0xbe80caa3	-0.251546
25	0x3ec89956	0.39179486
26	0x3e3ae60b	0.18251817
27	0xbd5c8175	-0.053834397
28	0xbdd22adb	-0.1026208
29	0x3ed2f144	0.41199696
30	0x3e8c21e3	0.27369604
31	0xbbdd23d5	-0.0067486563
32	0xbec7ec8c	-0.39047658
33	0xbb3d2450	-0.0028860755
34	0xbe985227	-0.29750177
35	0x3e906c3c	0.28207576
36	0xbeeca663	-0.46220693
37	0xbef55bbb	-0.47921547
38	0xbec363c8	-0.38162065
39	0x3c9df381	0.01928115
40	0xbe351b99	-0.17686309
41	0x3e888f89	0.2667201
42	0xbec603e0	-0.3867483
43	0x3d87629a	0.06610604
44	0x3e05e831	0.13076855
45	0xbeda800c	-0.42675817
46	0x3b3ce625	0.00288237
47	0x3b3073d8	0.0026924517
48	0x3eca6b72	0.395351
49	0x3eddaab1	0.4329429
50	0x3ebdd8c3	0.3707944
51	0x3e504855	0.20340092
52	0x3d3237f2	0.043510385
53	0xbe405811	-0.18783595
54	0x3ecce2e8	0.40016866
55	0x3e6562ed	0.22401018
56	0xbe917992	-0.28413063
57	0xbee98a59	-0.45613363
58	0x3e86e844	0.2634908
59	0xbeb9f010	-0.36315966
60	0x3eef17e5	0.46697918
61	0xbd9f15cc	-0.07767829
62	0xbe376a32	-0.17911604
63	0xbeca2984	-0.394848
64	0x3e972484	0.29520047
65	0xbe8afad4	-0.27144492
66	0x3eb0451a	0.3442772
67	0xbddabaf3	-0.10680189
68	0x3b48dbc4	0.0030648569
69	0xbf013162	-0.5046598
70	0xbef4053a	-0.47660238
71	0xbe8f77a4	-0.28020966
72	0xbc435d9d	-0.011924175
73	0x3e78f2c5	0.24311359
74	0xbea871d6	-0.3289935
75	0x3ed4892c	0.41510904
76	0x3d9ba958	0.07600659
77	0xbe9142a6	-0.2837116
78	0x3eb3c725	0.35112873
79	0x3ef263b4	0.47341692
80	0x3ea97fd5	0.3310534
81	0xbea06b7a	-0.31331998
82	0x3ea956ec	0.3307413
83	0xbe528f0b	-0.20562379
84	0xbdf073a4	-0.11740807
85	0xbe58dd02	-0.21178058
86	0xbef5b19c	-0.47987068
87	0x3de2cc4a	0.11074121
88	0x3e8f8972	0.2803455
89	0x3d128e95	0.035780508
90	0x3e21af51	0.15789534
91	0x3ea899b9	0.3292978
92	0xbea82e3f	-0.32847783
93	0xbc8db887	-0.017299904
94	0xbe0423ec	-0.12904328
95	0xbdbf0e31	-0.09328879
96	0xbee9c2d4	-0.45656455
97	0xbe452ff0	-0.19256568
98	0x3e028021	0.1274419
99	0x3e910a03	0.2832795
100	0x3b0058dc	0.0019584214
101	0xbde2d750	-0.11076224
102	0x3ecedf89	0.4040492
103	0xbe89882e	-0.2686171
104	0xbd9a06bc	-0.07520816
105	0xbe0139f3	-0.12619762
106	0x3e5cf588	0.21578038
107	0x3eed9a7f	0.46406934
108	0x3e3aa99f	0.18228768
109	0x3e97b59d	0.29630747
110	0x3ecf3165	0.40467373
111	0x3b2fda3e	0.0026832963
112	0xbe3d981a	-0.18515053
113	0x3eb6127b	0.35560974
114	0x3e80f54e	0.25187153
115	0xbe83dde4	-0.25755227
116	0xbda159d9	-0.07878465
117	0x3e969f47	0.29418394
118	0xbee94c94	-0.45566237
119	0xbe70d5d8	-0.23519075
120	0x3e8debb5	0.27718893
121	0x3e711d17	0.23546253
122	0x3d36c816	0.04462441
123	0xbec5066e	-0.38481468
124	0xbe24cef8	-0.16094577
125	0xbeef1335	-0.4669434
126	0xbe97bde5	-0.29637066
127	0xbe0d0d8b	-0.13774697
128	0x3e9d8320	0.30764103
129	0xbe50f352	-0.2040532
130	0xbe3054f6	-0.1721991
131	0x3ed3ab65	0.413417
132	0xbe9e82db	-0.3095921
133	0x3e1e8084	0.15478712
134	0xbea05a35	-0.31318823
135	0xbe8aa62d	-0.27079907
136	0xbdc53806	-0.09629826
137	0x3ee9d25e	0.4566831
138	0xbe28207f	-0.16418646
139	0xbe1347c2	-0.14382842
140	0x3e7cc80d	0.24685688
141	0xbea0054c	-0.3125404
142	0x3eca0943	0.3946019
143	0xbedf62f0	-0.4363017
144	0x3d7c1363	0.061541926
145	0xbee4b46d	-0.44668904
146	0x3c80ab68	0.015706733
147	0x3cecf093	0.028923308
148	0xbe353b57	-0.17698418
149	0xbc352e91	-0.011058466
150	0xbed61a4d	-0.4181694
151	0x3ed7aa71	0.42122224
152	0x3dfa348b	0.12217053
153	0x3e6b48fd	0.22977062
154	0x3df90a8a	0.12160213
155	0x3d311982	0.043237217
156	0xbec8163b	-0.3907946
157	0x3ebc11ad	0.36732236
158	0x3eaf4608	0.34233117
159	0x3e29e108	0.16589749
160	0xbef20efc	-0.47277057
161	0xbefd278b	-0.4944423
162	0xbedf98eb	-0.43671355
163	0xbee23cbe	-0.44186968
164	0xbee09536	-0.4386384
165	0xbea0f4b7	-0.31436703
166	0x3d8dd2f5	0.069250025
167	0xbebcee4b	-0.36900553
168	0x3ee66328	0.44997525
169	0xbe0b1673	-0.13582782
170	0xbe099e6d	-0.13439341
171	0xbe75989a	-0.23983994
172	0x3cd76601	0.026293756
173	0xbd79ccb2	-0.06098623
174	0xbd666280	-0.05624628
175	0xbec9cbbe	-0.39413255
176	0x3e12676d	0.14297266
177	0x3e062304	0.13099295
178	0xbda34f82	-0.07974149
179	0xbe85efc5	-0.26159492
180	0xbee7081d	-0.45123377
181	0xbec52788	-0.38506722
182	0xbe901ae7	-0.28145525
183	0xbe546c2e	-0.20744392
184	0x3e469a0e	0.19394705
185	0xbe7a54b6	-0.24446377
186	0xbe25e948	-0.16202271
187	0x3efa5ed3	0.4890047
188	0x3ea10759	0.31450918
189	0x3d20fa6b	0.039301317
190	0xbe1a73fa	-0.15083304
191	0x3e6362a8	0.22205603
192	0x3b9f7dfc	0.0048673134
193	0x3ed4065a	0.41411096
194	0xbef7bdae	-0.48386902
195	0xbdc2d6ff	-0.095136635
196	0x3e8d796c	0.276317
197	0xbec039e6	-0.37544173
198	0xbed37f06	-0.4130785
199	0xbeb04fa4	-0.3443576
200	0xbe8178ab	-0.25287375
201	0xbe0c2253	-0.13684969
202	0xbded3612	-0.11582579
203	0xbd354aa3	-0.044260632
204	0xbe92d129	-0.28675202
205	0xbe5b60b1	-0.21423604
206	0xbec9fd05	-0.3945085
207	0xbe3f5fc1	-0.18688871
208	0x3ef93f5b	0.4868115
209	0xbeb53164	-0.35389245
210	0xbe9b9991	-0.303906
211	0x3d44c4bc	0.048039183
212	0x3eb1872d	0.34673443
213	0x3dc8f93e	0.09813164
214	0x3e0fe656	0.1405271
215	0xbeacf43f	-0.33780095
216	0xbe6cf289	-0.23139395
217	0x3e53a2d2	0.2066758
218	0x3ee06f96	0.43835133
219	0x3e1816b3	0.14852409
220	0x3e9cf692	0.30656868
221	0xbd69d72b	-0.057089966
222	0x3e0b3447	0.13594161
223	0x3eac5ae1	0.33663085
224	0xbe976fab	-0.29577383
225	0x3eab16bc	0.33415782
226	0xbc376953	-0.011194545
227	0xbe82e356	-0.2556407
228	0xbed2fffd	-0.4121093
229	0x3ec5a261	0.38600448
230	0x3dcc33a7	0.099707894
231	0x3e7294a4	0.23689514
232	0xbe0945b1	-0.13405491
233	0xbe9b8266	-0.30372924
234	0xbe912c06	-0.283539
235	0xbcfb0f70	-0.03064701
236	0x3d683fd6	0.056701504
237	0x3edcb527	0.43106958
238	0xbe30a95a	-0.17252102
239	0xbdb4c240	-0.08826113
240	0x3e17a09c	0.14807361
241	0xbdda19a3	-0.10649421
242	0x3e9297c8	0.28631425
243	0xbea00bcc	-0.31259
244	0xbe373c60	-0.17894125
245	0xbde0c1c0	-0.10974455
246	0x3ee5666a	0.44804698
247	0xbef2c49a	-0.4741562
248	0xbd5aac8d	-0.053387213
249	0xbec7e0a0	-0.39038563
250	0xbe04e029	-0.12976135
251	0xbecbe29e	-0.39821333
252	0xbe72d821	-0.23715259
253	0x3e056416	0.13026461
254	0x3dc62713	0.096754216
255	0x3df7bfdd	0.12097142

weight_hh_l0 f4 [12, 4]
0	0xbe1f8d65	-0.15581281
1	0x3ec1ffff	0.37890622
2	0x3ee540b1	0.44775918
3	0xbd134617	-0.035955515
4	0x3cd9038f	0.026490955
5	0xbece4c7a	-0.40292722
6	0xbc788706	-0.015168911
7	0x3dae38a2	0.085068956
8	0x3e8613ef	0.26187083
9	0xbe8d77e6	-0.27630538
10	0x3e442bb0	0.1915729
11	0x3e93ea73	0.28889808
12	0xbe8a274c	-0.26983106
13	0xbed0761c	-0.4071511
14	0x3e46ba3f	0.19406985
15	0x3e66e2f7	0.22547518
16	0xbe242588	-0.16029942
17	0xbee1c45a	-0.44095117
18	0x3e77efda	0.2421259
19	0x3dc47fa9	0.09594662
20	0xbdee2261	-0.11627651
21	0x3ef6c36b	0.48195967
22	0xbead6273	-0.33864173
23	0x3e324bb7	0.17411695
24	0xbdf67d69	-0.12035639
25	0xbe8dabfe	-0.27670282
26	0x3e787d73	0.24266605
27	0xbef504ff	-0.47855374
28	0x3ee09d4e	0.43870014
29	0x3e0051ad	0.12531157
30	0x3e8cf0c6	0.27527446
31	0xbda6c4e7	-0.08143025
32	0xbbd324b3	-0.006443584
33	0x3ec26db0	0.3797431
34	0x3ef1348f	0.47110412
35	0x3ec257bd	0.37957564
36	0x3daa468b	0.08314236
37	0xbedea4e9	-0.4348519
38	0xbec5df6a	-0.38647014
39	0x3ed28914	0.41120207
40	0xbef97256	-0.48720044
41	0x3ece92e9	0.4034646
42	0x3ef69a6f	0.48164698
43	0xbe8f6497	-0.2800643
44	0xbe95a992	-0.29230934
45	0xbed06852	-0.4070459
46	0xbeac6b73	-0.33675727
47	0x3e7c5b3f	0.24644183

bias_ih_l0 f4 [12]
0	0xbd7552de	-0.05989348
1	0xbc92cbc5	-0.01791943
2	0xbe5a84ee	-0.21339771
3	0x3eb0aa0e	0.3450474
4	0xbdd3d907	-0.10344129
5	0xbc71eab4	-0.01476543
6	0xbe886198	-0.26636958
7	0x3e91244e	0.2834801
8	0xbed0bde5	-0.40769878
9	0x3e6b31ea	0.2296826
10	0xbe7e19a9	-0.24814476
11	0x3ec30a71	0.38093904

bias_hh_l0 f4 [12]
0	0xbcc66e8b	-0.024222633
1	0xbb9ea2a7	-0.004841167
2	0xbe5f66a4	-0.21816498
3	0x3ebd3690	0.3695569
4	0x3ba28807	0.0049600634
5	0x3ed71e7c	0.42015445
6	0x3dba444f	0.0909506
7	0x3e313cc1	0.17308332
8	0xbe0b1a65	-0.13584287
9	0x3e0611b0	0.13092685
10	0xbef58adf	-0.47957513
11	0x3dce48f3	0.10072508

weight f4 [4, 4]
0	0xbddb018f	-0.10693657
1	0x3ee007e3	0.43756017
2	0xbd909469	-0.07059557
3	0xbec33af2	-0.3813091
4	0xbe24e841	-0.16104223
5	0xbecddc21	-0.40207008
6	0x3e7936ad	0.24337263
7	0x3ed58f19	0.41710737
8	0x3eb9b478	0.362705
9	0x3e9abb9d	0.30221263
10	0xbede3346	-0.43398494
11	0xbe61e525	-0.22060068
12	0x3ea74a95	0.3267409
13	0xbe70479a	-0.23464814
14	0x3d75e143	0.06002928
15	0xbea30733	-0.3184143

bias f4 [4]
0	0x3e951755	0.29119363
1	0x3c952247	0.018204821
2	0x3ea3b0f0	0.3197093
3	0x3c7b9e35	0.015357544

weight f4 [320, 8]
0	0xbe8fbb4c	-0.28072584
1	0xbea4de79	-0.32200983
2	0x3eafff2a	0.34374362
3	0xbe93132a	-0.2872556
4	0xbd48a3fa	-0.048984505
5	0xbd4290fd	-0.047501553
6	0x3e196754	0.14980823
7	0xbe41ab5b	-0.18913023
8	0x3e85c74c	0.26128614
9	0xbe9fb3fc	-0.31192005
10	0xbda991b9	-0.082797475
11	0xbe799488	-0.24373066
12	0xbe8f1e8f	-0.27953002
13	0x3e232fae	0.15936157
14	0x3e64f70f	0.2235987
15	0xbe8747a8	-0.26421857
16	0xbd8b6d59	-0.06807966
17	0xbe0905a4	-0.13381058
18	0x3e8d1f27	0.2756283
19	0xbd1cecdf	-0.038311835
20	0x3d9974fb	0.074930154
21	0xbd8ac3fe	-0.06775664
22	0x3ea8b599	0.32951048
23	0xbea903d1	-0.33010724
24	0xbe388462	-0.1801925
25	0xbe9ef187	-0.31043646
26	0xbe603139	-0.21893777
27	0xbea5057d	-0.3223075
28	0x3e081be8	0.13291895
29	0xbe5b0e46	-0.21392164
30	0x3d7a75f2	0.061147638
31	0x3e750814	0.23928863
32	0x3e8d6dc8	0.2762282
33	0xbda2eaa6	-0.07954912
34	0x3e9c4760	0.30523205
35	0xbe96111f	-0.29309937
36	0xbe8e8023	-0.27832136
37	0xbe0b6682	-0.13613322
38	0xbe38874d	-0.18020363
39	0xbe46cf0d	-0.19414921
40	0x3e642dbe	0.22283074
41	0x3d195855	0.037437756
42	0x3e10ad9b	0.14128725
43	0xbe7a5906	-0.24448022
44	0xbdbbefa0	-0.09176564
45	0x3df4b5db	0.11948749
46	0x3da3dabe	0.08000706
47	0xbce8b5da	-0.028407026
48	0xbea7717d	-0.32703772
49	0xbdbd36fb	-0.09239002
50	0x3e187683	0.14888959
51	0xbe9b3c6a	-0.3031953
52	0x3e8f3932	0.27973324
53	0x3dd30b81	0.103049286
54	0xbbb3092a	-0.005463739
55	0x3e9b26b8	0.30302978
56	0x3e8b221a	0.27174455
57	0x3e4f142f	0.20222543
58	0x3e9877bb	0.29778847
59	0xbe5611a7	-0.20905171
60	0xbe80f4c6	-0.25186747
61	0x3e87395c	0.2641095
62	0xbe412df3	-0.18865184
63	0x3d77b5bc	0.06047605
64	0x3def4d7f	0.11684703
65	0x3e992284	0.29909146
66	0xbe3222f8	-0.17396152
67	0xbe8782cd	-0.2646698
68	0xbea0e9e5	-0.31428447
69	0x3e0bf2ed	0.13666888
70	0x3e795818	0.24350011
71	0xbe94d8d5	-0.2907168
72	0xbeb2c23f	-0.34913823
73	0xbe21cd32	-0.15800932
74	0x3ea684d7	0.32523224
75	0xbe13f857	-0.14450203
76	0xbdcec349	-0.100958414
77	0x3e187c32	0.14891127
78	0xbeb1d23b	-0.34730706
79	0xbe80470f	-0.25054213
80	0xbd6f66dc	-0.058447704
81	0x3ea6d6d1	0.32585767
82	0xbd0afe88	-0.033934146
83	0xbde8067f	-0.11329364
84	0x3d2b1936	0.04177209
85	0xbea1897c	-0.31550205
86	0x3ea162f5	0.3152081
87	0xbeadcd02	-0.3394547
88	0x3c737d84	0.014861468
89	0x3e84a41e	0.2590646
90	0xbdbf8a0b	-0.093525015
91	0x3d831a96	0.06401555
92	0x383f1ff2	4.55677e-05
93	0x3e8045cc	0.2505325
94	0xbe4dc916	-0.2009624
95	0x3dbb42f6	0.09143631
96	0xbe0522b1	-0.13001515
97	0x3e20173b	0.15633862
98	0x3e8c3a48	0.27388215
99	0x3e8a30cb	0.2699035
100	0x3d7b8886	0.061409496
101	0x3d90d4f5	0.07071868
102	0x3e71cdd4	0.23613673
103	0xbe09f3aa	-0.13471857
104	0xbe6383e9	-0.22218288
105	0x3daf2c47	0.08553367
106	0xbea71088	-0.326298
107	0xbe94671a	-0.2898491
108	0xbe7baa25	-0.24576624
109	0x3d0c943e	0.034321062
110	0x3df93b47	0.121695094
111	0xbe2625ed	-0.16225405
112	0x3e1020d5	0.14075024
113	0x3e93d78c	0.28875387
114	0x3dce3190	0.10068047
115	0x3dbbcf62	0.091704145
116	0x3e3396ef	0.17538045
117	0x3e1bb47f	0.15205573
118	0xbe618047	-0.2202159
119	0x3d81a9cd	0.06331215
120	0xbe84bca3	-0.25925168
121	0x3d7520f5	0.059845883
122	0xbe71b55f	-0.23604344
123	0x3c8a3cb1	0.016874643
124	0xbd2490eb	-0.040177267
125	0x3b86c49e	0.004112794
126	0xbe84033d	-0.2578372
127	0xbdf197a0	-0.11796498
128	0x3e1c9d87	0.15294467
129	0xbc8ed277	-0.017434342
130	0xbead3557	-0.33829758
131	0x3ea37721	0.31926826
132	0x3ea7dc65	0.32785335
133	0xbe4bc409	-0.19899
134	0x3e925c88	0.2858622
135	0x3ea21ad4	0.31661093
136	0x3dfa3426	0.12216978
137	0xbe7d144f	-0.24714778
138	0x3e919ad4	0.28438437
139	0x3dc2ffd4	0.095214516
140	0x3de7a043	0.11309864
141	0xbd9eff78	-0.077635705
142	0x3d833076	0.064057276
143	0x3d9c9616	0.07645814
144	0x3e14741a	0.14497414
145	0xbd13fff7	-0.03613278
146	0xbe8f97c6	-0.2804548
147	0xbd5da511	-0.054112498
148	0x3e8a7135	0.27039495
149	0x3e70d27b	0.23517792
150	0xbe8ce7a2	-0.27520472
151	0x3c6f0bab	0.014590184
152	0xbeae0c1b	-0.3399361
153	0xbdb55bd5	-0.08855406
154	0x3d950d60	0.07277942
155	0x3d7ab909	0.06121162
156	0xbb89c6e3	-0.0042046173
157	0x3e580d09	0.21098723
158	0xbd8168e9	-0.06318838
159	0x3de011f6	0.10940926
160	0x3db840e3	0.08996751
161	0xbe585335	-0.21125491
162	0xbe4b2b57	-0.19840752
163	0x3c05b0bc	0.008159813
164	0xbe3865b2	-0.18007544
165	0xbe6b87d5	-0.23001035
166	0x3d372e5d	0.04472195
167	0x3e54f413	0.20796232
168	0xbcc4d226	-0.024025988
169	0x3e86fcdf	0.263648
170	0x3e2bb93b	0.16769879
171	0x3d248220	0.04016316
172	0xbe3067b4	-0.1722706
173	0xbe37c0ef	-0.17944692
174	0x3e1d7752	0.15377548
175	0xbe35e8b0	-0.17764544
176	0xbe672e0f	-0.22576164
177	0x3e99f2c2	0.30068022
178	0x3e40565c	0.18782943
179	0xbe7308b2	-0.23733786
180	0x3e693b6c	0.22776574
181	0xbe42dd53	-0.19029741
182	0x3e8ded1f	0.27719972
183	0x3dc1abde	0.09456609
184	0x3e470a93	0.19437627
185	0xbd6f84c5	-0.05847623
186	0x3e39da39	0.18149652
187	0xbdcd470c	-0.10023317
188	0x3db4fcd3	0.08837285
189	0x3da5c43c	0.08094069
190	0x3de6a3f9	0.11261744
191	0xbe62aa3c	-0.22135252
192	0x3e87fb23	0.2655879
193	0xbddb1965	-0.10698203
194	0xbe4ead1c	-0.20183223
195	0x3eb15f13	0.34642848
196	0x3e68adb6	0.22722515
197	0x3c30e3a8	0.010796465
198	0xbe92fc64	-0.28708184
199	0x3ea31233	0.31849822
200	0x3d136b2b	0.035990875
201	0xbe61de6b	-0.22057502
202	0x3e8f856c	0.2803148
203	0xbd970fdd	-0.073760726
204	0xbc5f131d	-0.013615397
205	0x3e6436fb	0.22286598
206	0xbe1ea17e	-0.15491292
207	0x3cb49724	0.022044726
208	0xbe8ccdb6	-0.27500695
209	0xbeaba910	-0.33527422
210	0x3e55904a	0.20855823
211	0x3e47d889	0.19516195
212	0xbea26310	-0.31716204
213	0xbe174b3b	-0.14774792
214	0xbd80482a	-0.06263764
215	0x3e6132c6	0.21992025
216	0x3ea24ea5	0.31700626
217	0xbe49781f	-0.19674729
218	0xbdf69a99	-0.12041206
219	0xbe1da24b	-0.15393941
220	0x3e824879	0.25445917
221	0xbe55b656	-0.20870337
222	0x3e5c3418	0.21504247
223	0xbe0a9063	-0.13531642
224	0xbe5b9fd3	-0.21447687
225	0xbeae4533	-0.3403717
226	0x3dc2d758	0.0951373
227	0x3d7f2839	0.06229422
228	0xbd7a6b5a	-0.061137535
229	0xbe49ad32	-0.19694975
230	0xbdc51569	-0.09623224
231	0x3e3eece6	0.18645057
232	0xbcfa2846	-0.030536782
233	0xbd748ed9	-0.059706543
234	0x3e884095	0.26611772
235	0x3e4fc5e0	0.20290327
236	0xbd29c361	-0.041446093
237	0xbe8aafe3	-0.27087316
238	0x3e2629fe	0.16226956
239	0x3c1a0452	0.009400444
240	0x3e07f27d	0.13276096
241	0xbd99cfcd	-0.07510338
242	0x3ea6e807	0.32598898
243	0xbe24b67d	-0.16085239
244	0x3e3f6f1c	0.18694729
245	0xbea81f56	-0.32836407
246	0x3df65c8e	0.12029372
247	0x3e84d8d0	0.25946665
248	0xbe121afb	-0.14268105
249	0x3e82501b	0.2545174
250	0x3ce02401	0.027360918
251	0xbe0bf142	-0.13666251
252	0x3c899e23	0.016799038
253	0x3e0e8361	0.13917305
254	0xbe4db3ac	-0.2008807
255	0x3c865b11	0.016400846

bias f4 [320]
0	0xbdd9c808	-0.10633856
1	0x3d0cc33b	0.034365874
2	0x3e984ca5	0.29745975
3	0xbead123d	-0.33802977
4	0x3e039d62	0.12853006
5	0xbbeb0a89	-0.0071728867
6	0xbdc44435	-0.09583322
7	0x3aa93e61	0.0012912267
8	0x3e4fcfe0	0.20294142
9	0xbe89b937	-0.2689912
10	0xbdeb81d1	-0.1149937
11	0x3ea99742	0.33123213
12	0x3e7b1bb6	0.2452229
13	0xbe4a6234	-0.19764024
14	0xbeb685b8	-0.35648894
15	0xbda4488a	-0.08021648
16	0xbe0b97c0	-0.13632107
17	0xbe7b3b15	-0.24534257
18	0xbdcdc1b8	-0.100467145
19	0xbe088707	-0.13332759
20	0x3e214b71	0.15751435
21	0x3e196cfd	0.14982982
22	0x3e3aadb4	0.18230325
23	0xbe00f23c	-0.12592405
24	0xbe99d57c	-0.30045688
25	0xbe5e3afa	-0.21702185
26	0x3e8e5123	0.27796277
27	0xbe2c2901	-0.16812517
28	0x3eaa7854	0.33294928
29	0xbe1ded25	-0.15422495
30	0x3e776509	0.24159636
31	0xbe3ddd3e	-0.18541428
32	0x3e92929e	0.28627485
33	0xbdf63019	-0.12020893
34	0x3e8d5663	0.2760497
35	0x3e9d1808	0.30682397
36	0xbe2f3c12	-0.17112759
37	0x3e872c9c	0.26401222
38	0x3e124027	0.14282285
39	0x3e74c164	0.23901898
40	0x3e366811	0.17813136
41	0x3e8df7cc	0.27728117
42	0xbbc84daf	-0.006112776
43	0xbeab2d16	-0.33432835
44	0xbd8c3cc5	-0.06847528
45	0x3cf0f5aa	0.029414017
46	0x3e2d0240	0.1689539
47	0xbe9532eb	-0.2914041
48	0xbe8e22d3	-0.27760944
49	0xbc61a206	-0.01377154
50	0x3eb42434	0.3518387
51	0x3e81e157	0.25367233
52	0xbd22b453	-0.03972275
53	0xbcb15064	-0.021644779
54	0x3e4b6ff2	0.19866922
55	0xbe5642cc	-0.20923918
56	0xbea68ba2	-0.32528406
57	0x3e57d9cf	0.21079181
58	0x3ea2e4e4	0.31815255
59	0x3e782d37	0.24235998
60	0xbdc3f1f6	-0.09567635
61	0xbe905abc	-0.28194225
62	0xbce6804c	-0.028137349
63	0x3e3e1a7a	0.18564788
64	0xbea90f03	-0.33019266
65	0x3e54fb1a	0.20798913
66	0xbdb12a7d	-0.08650682
67	0xbe824b72	-0.25448185
68	0xbde81828	-0.113327324
69	0x3ea4a265	0.32155147
70	0xbc9c79ed	-0.019101107
71	0xbe11a554	-0.14223224
72	0xbd658edd	-0.05604445
73	0xbd7556ec	-0.05989735
74	0xbea665a0	-0.3249941
75	0x3c39f865	0.011350726
76	0x3e3bb663	0.18331294
77	0xbe8b03fe	-0.27151483
78	0xbe742f14	-0.23846084
79	0xbe8c9e26	-0.27464408
80	0xbea88c9e	-0.32919782
81	0x3df0d021	0.117584474
82	0x3d838802	0.06422426
83	0x3e1ef751	0.15524031
84	0x3e2b7289	0.1674291
85	0x3dc8197f	0.09770488
86	0xbe42cf11	-0.19024302
87	0xbcf85f56	-0.030318897
88	0xbe0844db	-0.13307516
89	0xbeaf7a03	-0.34272775
90	0xbe8d4fe8	-0.27600026
91	0x3e94d1dd	0.29066363
92	0x3e3fd218	0.18732488
93	0xbe2b1169	-0.1670586
94	0xbe82bb9b	-0.25533757
95	0xbe20f497	-0.15718304
96	0xbc5a85df	-0.013337581
97	0x3e8f0557	0.2793376
98	0xbd8b89b0	-0.06813371
99	0xbe0257b6	-0.12728772
100	0xbe4a08a0	-0.19729853
101	0x3dee38bb	0.11631914
102	0xbe4c29fa	-0.19937888
103	0xbe0b4469	-0.13600315
104	0x3e2de47d	0.16981693
105	0xbe248e8b	-0.16070001
106	0xbde77296	-0.113011524
107	0x3e1e99b0	0.15488315
108	0x3e98c292	0.29835945
109	0x3e9a8002	0.30175787
110	0x3df82244	0.12115911
111	0xbdef9566	-0.11698417
112	0xbe2b08e6	-0.16702613
113	0xbe2d8739	-0.16946115
114	0x3e8feae4	0.28108895
115	0x3e1aa880	0.1510334
116	0xbdcb3394	-0.09921947
117	0xbe0ba3d2	-0.13636711
118	0x3ddb22e9	0.10700018
119	0xbe8f2279	-0.27955988
120	0xbdee0fa7	-0.11624079
121	0x3e1a9864	0.15097195
122	0x3d9d9de2	0.076961294
123	0xbe380579	-0.17970838
124	0xbe63ec06	-0.22258005
125	0x3e11aa46	0.1422511
126	0xbcb88458	-0.022524044
127	0x3e1a6bbb	0.15080158
128	0x3b6c6ca3	0.0036075495
129	0x3e548b2b	0.20756213
130	0xbdba743b	-0.091042005
131	0x3df5a935	0.11995164
132	0xbe210f43	-0.15728478
133	0x3e92fb11	0.28707173
134	0xbeafcdaa	-0.34336597
135	0xbe4515ab	-0.19246547
136	0x3e189c7c	0.14903444
137	0x3ddc2153	0.107485436
138	0x3ea48021	0.32129005
139	0xbd7dc58c	-0.061955974
140	0x3df1a5cb	0.117992006
141	0xbeb036cc	-0.34416807
142	0x3e3632e5	0.17792852
143	0xbe260bed	-0.16215487
144	0x3dbec89f	0.09315609
145	0x3eac61d1	0.33668378
146	0x3eb192aa	0.34682208
147	0xbd8e23f9	-0.06940455
148	0x3dc9db44	0.09856275
149	0x3e8e2540	0.27762794
150	0xbdde3142	-0.10849239
151	0xbe8db704	-0.27678692
152	0x3e6668fd	0.22500987
153	0x3e55867f	0.20852087
154	0xbe31e704	-0.17373282
155	0xbbe5cb85	-0.007012787
156	0xbeab6e62	-0.33482653
157	0xbdb6f089	-0.08932597
158	0x3e936874	0.2879063
159	0x3dd5ccfa	0.10439487
160	0xbd7910c8	-0.06080702
161	0xbe902be7	-0.28158495
162	0xbea7bde7	-0.32762071
163	0x3e0a00de	0.13476893
164	0xbe99fe70	-0.30076933
165	0xbd91eaea	-0.071248844
166	0xbdae5738	-0.085127294
167	0x3e964aff	0.29354092
168	0xbd9e8d56	-0.077418014
169	0xbe727f88	-0.23681462
170	0xbdc6b4a2	-0.09702422
171	0xbe83aa1f	-0.2571573
172	0xbe891ae3	-0.26778325
173	0xbe8b2021	-0.2717295
174	0xbea54650	-0.32280207
175	0x3de29a29	0.1106456
176	0x3e1b3117	0.15155445
177	0x3bd72468	0.0065656193
178	0x3e45d580	0.19319725
179	0xbe87ffea	-0.26562434
180	0x3eb3d700	0.3512497
181	0x3e732af1	0.2374685
182	0xbe751b4a	-0.23936191
183	0x3eae181f	0.34002778
184	0x3e98aca7	0.29819223
185	0x3e8cdc15	0.2751166
186	0x3e63e6a0	0.22255945
187	0xbe844ba5	-0.25838962
188	0x3e43519d	0.19074102
189	0xbe7b6a33	-0.2455223
190	0x3e73a0a1	0.23791744
191	0x3e2e06b4	0.16994745
192	0x3cd74110	0.026276141
193	0x3ea36fb0	0.31921148
194	0xbdac3442	-0.08408405
195	0xbe9e6e73	-0.3094364
196	0x3e2685b4	0.16261941
197	0x3e2112ad	0.1572978
198	0xbc793984	-0.015211467
199	0xbd04df5f	-0.032439586
200	0x3e845e00	0.25852966
201	0xbdd3597a	-0.10319801
202	0xbd00b3cd	-0.03142147
203	0xbe110a6e	-0.14164135
204	0xbde510a8	-0.111848176
205	0x3ea757a5	0.32684055
206	0xbd3f5ee2	-0.046721347
207	0x3e621d67	0.22081529
208	0xbe0837f5	-0.13302596
209	0xbe9277e0	-0.28607082
210	0x3e8ba9b8	0.27277923
211	0xbe1780a3	-0.14795165
212	0x3db45a5c	0.08806297
213	0xbeaef2c2	-0.34169585
214	0x3eb728d2	0.3577333
215	0xbdfc224a	-0.123112276
216	0x3e604a35	0.21903308
217	0x3eb6669c	0.3562516
218	0x3e2c1971	0.1680658
219	0xbe6941f9	-0.22779073
220	0xbe171e60	-0.14757681
221	0xbeaeb408	-0.34121728
222	0xbe45b915	-0.19308884
223	0x3d9004af	0.07032143
224	0xbe41ec02	-0.18937686
225	0xbe8f13af	-0.27944705
226	0xbd70732c	-0.058703586
227	0xbe76a3ac	-0.24085873
228	0x3e85ee22	0.26158243
229	0x3ca558bb	0.020183912
230	0x3e792f3d	0.24334426
231	0x3e9dfc4e	0.30856556
232	0xbd60d919	-0.05489454
233	0x3e9fe513	0.31229457
234	0x3e1c2dd6	0.1525186
235	0x3e2bab22	0.167645
236	0x3d91d837	0.07121318
237	0xbe1dd034	-0.15411454
238	0xbea6006a	-0.3242219
239	0x3db58aca	0.088643625
240	0xbeaa59cb	-0.33271632
241	0x3dadeb4e	0.084921464
242	0x3e8b614b	0.27222666
243	0x3de43066	0.11142044
244	0x3e8bfd92	0.27341896
245	0xbe89ee2c	-0.26939523
246	0xbe68e044	-0.227418
247	0xbddd614a	-0.10809572
248	0x3e9f0079	0.31055048
249	0xbddc4d1f	-0.10756897
250	0x3ea6e768	0.32598424
251	0x3e103410	0.1408236
252	0xbe76a79b	-0.24087374
253	0x3eab308a	0.3343547
254	0x3e86711c	0.2625817
255	0x3e995569	0.29947975

weight f4 [4, 320]
0	0x3cd55992	0.026043687
1	0x3c05244a	0.008126328
2	0xbd43d728	-0.04781261
3	0xbd5a203c	-0.053253397
4	0xbb0d797d	-0.0021587305
5	0xbc4d7da1	-0.012542159
6	0x3cf23157	0.029564543
7	0x3d4d6feb	0.05015556
8	0x3bfe7def	0.0077664773
9	0xbd4017eb	-0.04689781
10	0xbc34dc31	-0.011038826
11	0x3c1f7241	0.00973183
12	0x3cc717e7	0.02430339
13	0x3cda8f6e	0.02667972
14	0xbd0aa74a	-0.033850946
15	0xbd3195a3	-0.043355595
16	0xbd327f2c	-0.04357831
17	0x3d0a94f8	0.033833474
18	0xbc8a8861	-0.016910734
19	0xbc484e32	-0.012225674
20	0xbcf2d5de	-0.029642995
21	0xbcb84e1d	-0.022498185
22	0xbd9d1002	-0.07669069
23	0x3d0e3067	0.03471413
24	0x3d0346f9	0.032050107
25	0x3cd3c63c	0.025851361
26	0xbc64cc21	-0.013964684
27	0xbca50d3c	-0.020147912
28	0x3bd9562a	0.006632586
29	0xbd01dade	-0.03170287
30	0x3c12929f	0.00894609
31	0xbc35f0d8	-0.011104785
32	0x3d0c2e9a	0.03422413
33	0xbca2a16d	-0.019852364
34	0xbcdfb20d	-0.02730658
35	0x3c4775f7	0.012174121
36	0x3c957640	0.018244863
37	0xbcb7c5b8	-0.022433147
38	0xbd3ab26e	-0.04558032
39	0x3d6add82	0.057340153
40	0x3d04732d	0.032336403
41	0x3ce4c3dc	0.027925424
42	0xbc5a89fa	-0.01333856
43	0xbd4c314d	-0.049851704
44	0x3a8a4112	0.0010547957
45	0xbcda8088	-0.026672617
46	0x3bba82a6	0.005691844
47	0xbbc98ba0	-0.006150678
48	0xbd20e6ce	-0.039282613
49	0x3d540083	0.0517583
50	0x3d35ba46	0.044367097
51	0x3d5a9e95	0.05337389
52	0xbcabf347	-0.020990027
53	0xbc8aa16f	-0.01692268
54	0x3c95db7c	0.018293135
55	0xbd9a598f	-0.07536613
56	0x3c4af425	0.01238731
57	0x3d3cd470	0.046101034
58	0x3c2306bb	0.009950335
59	0x3cfa6f00	0.030570507
60	0x3cb1a1fc	0.021683685
61	0xbca557a3	-0.02018339
62	0x3d231526	0.03981509
63	0x3cac19c1	0.021008374
64	0xba67c3cc	-0.00088411267
65	0x3c14544d	0.009053302
66	0xbd492b77	-0.049113717
67	0x3d3fbe82	0.04681254
68	0xbb61d6f5	-0.00344604
69	0x3d50dfd1	0.050994698
70	0x3d60e139	0.05490229
71	0x3c6bdf63	0.014396521
72	0x3d62bf2b	0.055358093
73	0xbc442943	-0.011972728
74	0x3d21566c	0.03938906
75	0x3d131cdb	0.03591619
76	0xbd1ecb14	-0.03876789
77	0x3cf73c18	0.030180022
78	0x3c568fe9	0.013095834
79	0xbc0b870a	-0.008516083
80	0xbcb67d37	-0.022276504
81	0x3d4ccc4a	0.049999513
82	0x3c98db31	0.018659206
83	0xbcc6dd11	-0.024275335
84	0xbc1be323	-0.009514603
85	0xbd2460db	-0.04013143
86	0xbd3d3f33	-0.04620285
87	0x3ce0467a	0.027377356
88	0xbc81fb70	-0.015866965
89	0x3b49f126	0.0030813902
90	0x3b97fdb4	0.004638398
91	0x3d3d97af	0.046287235
92	0x3d58232b	0.052767914
93	0xbd3add8d	-0.045621444
94	0x3ce2643a	0.027635682
95	0xbd2020c3	-0.039093744
96	0xbbb79de6	-0.0056035398
97	0xbd13467e	-0.0359559
98	0xbc7d57b6	-0.015462806
99	0xba0ab44e	-0.000529115
100	0xbc504272	-0.012711154
101	0x3cba5260	0.022744358
102	0x3d3fb37a	0.04680202
103	0x3cd55e57	0.026045961
104	0x3b6e0502	0.0036318903
105	0x3bb2be9f	0.0054548527
106	0x3d7d3ff5	0.061828572
107	0xbcd7db9e	-0.026349839
108	0x3cd9fed3	0.026610767
109	0xbcfe9349	-0.03107609
110	0x3ca237ec	0.019802056
111	0xbc92453f	-0.017855285
112	0x3d3bc1c7	0.045839097
113	0xbbd469f2	-0.006482356
114	0x3d1933f1	0.03740305
115	0x3cc48cc0	0.023992896
116	0xbb03d15a	-0.0020113797
117	0xbd011f39	-0.031523917
118	0x3d57e513	0.052708697
119	0x3ca4da13	0.020123517
120	0x3d507383	0.05089141
121	0x3c33af1a	0.01096704
122	0x3c819455	0.0158178
123	0x3ce05540	0.0273844
124	0x3b1dac8c	0.0024059145
125	0xbcfc6b55	-0.030812899
126	0x3ce86af4	0.028371312
127	0xbc6f4a3c	-0.014605101
128	0x3c9f6934	0.019459344
129	0x3a9337f5	0.0011231886
130	0x3c129a15	0.008947869
131	0x3ced5ad1	0.028973969
132	0x3d745d02	0.05965901
133	0xbc5d3cfb	-0.013503308
134	0x3b5f4a06	0.003407122
135	0xbc7ff2c2	-0.015621843
136	0xbd36f5aa	-0.044667877
137	0xbd289249	-0.041155133
138	0xbc9b19a3	-0.018933123
139	0x3c6f8688	0.014619477
140	0x3d4db613	0.050222468
141	0xbccdef81	-0.025138618
142	0x3c193f2b	0.009353439
143	0xba9f299f	-0.0012143141
144	0xbaef8d72	-0.0018276407
145	0x3d4b8245	0.04968478
146	0xbd276f64	-0.040877715
147	0x3bcd041b	0.006256593
148	0x3d101f5c	0.035186157
149	0x3d2c16e4	0.042014018
150	0x3ba2642a	0.004955788
151	0x3b1f9594	0.002435063
152	0xbd13eb1d	-0.036112893
153	0xbd25fe11	-0.0405255
154	0x3d502d3b	0.050824385
155	0xbbc5fe93	-0.0060423105
156	0xbc9f0a51	-0.019414099
157	0x3d021556	0.03175863
158	0x3dc7d2c5	0.09756998
159	0x3d09af75	0.033614594
160	0xbd49f67b	-0.049307328
161	0xbcba36fb	-0.022731295
162	0xbcd7c1c2	-0.026337508
163	0x3c6e69e4	0.0145516135
164	0x3c97ab38	0.01851426
165	0x3d5241a7	0.051332142
166	0xbd270ce6	-0.040783785
167	0xbd28ad6c	-0.041181013
168	0xbc8f9ab5	-0.017529825
169	0xbd1aa8d3	-0.03775866
170	0xbca79a0f	-0.020459203
171	0xbc68e92e	-0.014215751
172	0x3d2a3548	0.04155472
173	0xbcbe41a8	-0.023224667
174	0x3b7b4e77	0.003834633
175	0xbd31a1f0	-0.043367326
176	0xbccde7f2	-0.025135014
177	0xbd149065	-0.036270518
178	0x3c02f974	0.007994045
179	0xbd09c189	-0.033631835
180	0x3d0ca299	0.034334753
181	0xbb46e324	-0.0030347789
182	0x3d25f9dc	0.040521488
183	0xbd0b258c	-0.033971354
184	0xba6ac191	-0.0008955235
185	0xbc914575	-0.017733315
186	0xbb99f992	-0.0046989406
187	0xbcbcca7f	-0.023045776
188	0x3d43b8f9	0.047783826
189	0xbd3de0b2	-0.046356864
190	0x3cfdc419	0.030977296
191	0xbd451ce5	-0.04812326
192	0xbd58dbe2	-0.05294407
193	0xbc31a488	-0.01084245
194	0x3d3faad9	0.046793792
195	0x3d21e4bd	0.039524782
196	0x3d1f9972	0.038964696
197	0x3d16d559	0.036824558
198	0x3d65a911	0.056069437
199	0xbd34d152	-0.044144936
200	0x3bf443f4	0.0074543897
201	0x3c341d9d	0.0109933885
202	0xbd221e2f	-0.039579567
203	0xbd3009c3	-0.04297806
204	0x3af035d7	0.0018326592
205	0x3cb883fc	0.022523873
206	0x3d61cc27	0.055126335
207	0x3d78ae2f	0.06071299
208	0x3d2a979e	0.0416485
209	0xbd4e3f28	-0.0503532
210	0x3cc88006	0.024475109
211	0x3cda806a	0.02667256
212	0xbb4eef43	-0.0031575717
213	0x3cd751bc	0.026284091
214	0x3c9cf22d	0.019158447
215	0x3ceaefec	0.028678857
216	0xbce52ec1	-0.027976396
217	0xbc8f8353	-0.017518675
218	0x3d4dc4a6	0.050236367
219	0xbd0601f4	-0.032716706
220	0xbcff4212	-0.031159434
221	0x3d2fa8dd	0.04288565
222	0xbca2b979	-0.01986383
223	0xbd4599d6	-0.048242413
224	0x3d259867	0.040428545
225	0x3c426e16	0.011867067
226	0xbd734c53	-0.05939896
227	0x3d91fa24	0.07127789
228	0x3d61620c	0.055025145
229	0xbd099484	-0.0335889
230	0xbd1abb09	-0.037776027
231	0xbcd2cebf	-0.02573335
232	0xbd4307b7	-0.04761478
233	0xbd26172d	-0.040549446
234	0x3cc5c107	0.024139894
235	0xbd426af7	-0.04746529
236	0x3d05ca9b	0.032663923
237	0x3d37d3dd	0.044879783
238	0x3d59370e	0.05303102
239	0xbd15d99e	-0.03658449
240	0x3d6814f0	0.056660593
241	0x3c4c7038	0.012477927
242	0xbce34284	-0.027741678
243	0x3d614a91	0.055002753
244	0x3cb58b2c	0.022161089
245	0x3b86b34b	0.004110729
246	0x3d52ce63	0.051466357
247	0x3cb603d1	0.022218617
248	0x3c70b50b	0.0146916015
249	0x3d779eb1	0.060454074
250	0xbd128b9a	-0.035777666
251	0xbbc5fa3f	-0.0060417945
252	0xbc5eeb48	-0.0136059
253	0xbd143c92	-0.036190577
254	0x3c825ff3	0.015914893
255	0x3d1057ab	0.035239857

bias f4 [4]
0	0x3d031804	0.032005325
1	0x3c346e80	0.011012673
2	0x3d7a367c	0.061087117
3	0x3d14a6c3	0.03629185

weight f4 [4, 8]
0	0xbde789ea	-0.11305602
1	0x3e653165	0.22382124
2	0xbe9d6cc1	-0.30747035
3	0x3d3d6fa9	0.046249066
4	0xbea12898	-0.31476283
5	0x3e23e427	0.16005002
6	0x3e2d1c53	0.16905336
7	0x3e09580a	0.1341249
8	0x3e03aeb0	0.12859607
9	0x3e44e235	0.19226916
10	0xbd45bac3	-0.048273813
11	0x3c080249	0.008301326
12	0xbd9f4e3c	-0.07778594
13	0x3e9509df	0.29109094
14	0xbce93175	-0.028465966
15	0x3da48b5d	0.08034394
16	0xbe30b0b0	-0.17254901
17	0xbe02f58c	-0.12788981
18	0x3e06cb05	0.13163383
19	0x3d3df1db	0.04637323
20	0xbe2ff042	-0.17181495
21	0x3e2939a5	0.16525896
22	0x3e710fea	0.23541227
23	0x3d97f354	0.07419458
24	0xbdbcbe58	-0.09215993
25	0x3e15a301	0.14612962
26	0x3bd277c4	0.0064229686
27	0xbe1ebf46	-0.15502653
28	0x3dde4d6f	0.10854613
29	0x3ead2a49	0.33821324
30	0xbbebdff4	-0.007198328
31	0xbe9e533e	-0.30922884

bias f4 [4]
0	0xbd94f92e	-0.0727409
1	0xbde78a4a	-0.113056734
2	0x3e91856e	0.2842211
3	0x3e6ace74	0.22930318

weight f4 [4, 8]
0	0xbe09a61a	-0.13442269
1	0x3e8a65f5	0.27030912
2	0xbe6575cf	-0.22408222
3	0x3e33a0ec	0.17541856
4	0x3ea51b76	0.32247514
5	0x3e60e6ae	0.21962997
6	0x3ea107a2	0.31451136
7	0x3e98b1d7	0.2982318
8	0xbd61ceea	-0.05512897
9	0x3e8e90fc	0.2784499
10	0xbd00b0f4	-0.031418756
11	0x3e358ab7	0.17728697
12	0xbcdfef50	-0.027335793
13	0x3cca1eca	0.024672884
14	0xbe1ddd8d	-0.15416546
15	0xbd2fd89a	-0.042931177
16	0x3d58f817	0.052970972
17	0xbe7667c4	-0.24063021
18	0xbd488ab3	-0.0489604
19	0xbe711fcf	-0.2354729
20	0xbe635352	-0.22199753
21	0xbe659498	-0.22419965
22	0x3ea44876	0.32086533
23	0x3e1ca961	0.15298988
24	0x3da56eb8	0.080777586
25	0xbda158e0	-0.0787828
26	0xbcb19209	-0.02167608
27	0x3e33ee85	0.17571457
28	0xbe748119	-0.23877372
29	0xbe405166	-0.18781051
30	0xbc660519	-0.014039301
31	0xbe52a372	-0.20570162

bias f4 [4]
0	0xbc143453	-0.009045678
1	0x3e15efc7	0.14642249
2	0x3e09c732	0.13454893
3	0x3e210b75	0.15727027

weight f4 [10, 2]
0	0xbec3d602	-0.38249213
1	0xbd3f0d91	-0.046643797
2	0xbf00d9ab	-0.50332135
3	0xbec47bd5	-0.38375726
4	0xbeaa9460	-0.33316326
5	0x3dc1036e	0.09424482
6	0x3f18fdd5	0.59762317
7	0xbefbb1a6	-0.49158973
8	0xbecb1093	-0.39661083
9	0xbf05337a	-0.5203167
10	0x3f07f922	0.5311452
11	0x3e6e72ed	0.23286028
12	0xbf172736	-0.59044206
13	0xbef35b3d	-0.47530547
14	0xbf022ba7	-0.5084786
15	0xbd251b82	-0.040309437
16	0x3ea39ebc	0.31957042
17	0x3f00bdfa	0.5028988
18	0xbdfd8056	-0.12377994
19	0xbe8826cb	-0.26592097

bias f4 [10]
0	0xbe7a9454	-0.24470645
1	0xbf17040b	-0.58990544
2	0xbf1012f5	-0.56278926
3	0xbeddce23	-0.43321332
4	0x3e01baa3	0.12668853
5	0x3e24d410	0.1609652
6	0xbf203751	-0.62584406
7	0xbe887416	-0.26651067
8	0xbf2f71ca	-0.68533003
9	0xbf042bfa	-0.516296

weight f4 [10, 2]
0	0x3ede4812	0.4341436
1	0xbde20c42	-0.11037494
2	0x3f110aeb	0.56657284
3	0x3e41321c	0.18866771
4	0xbe6c450a	-0.23073211
5	0xbdaec2c0	-0.08533239
6	0xbe03f667	-0.12886964
7	0xbed059cc	-0.4069351
8	0x3d1f95d1	0.038961235
9	0x3e25bad0	0.16184545
10	0x3f17f40e	0.5935677
11	0x3f192b9f	0.59832186
12	0xbd19b4c6	-0.037525915
13	0xbec77380	-0.38955307
14	0x3e85a036	0.26098794
15	0x3f27230c	0.6528785
16	0x3e66d4e9	0.22542156
17	0x3ec249d1	0.37946942
18	0x3f2e3520	0.6804981
19	0x3f114b8b	0.56755894

bias f4 [10]
0	0x3f327c51	0.6972094
1	0x3f2a4af0	0.66520596
2	0x3f3441a4	0.7041266
3	0xbee2be11	-0.44285634
4	0x3e77a9ad	0.2418582
5	0x3e87869d	0.2646989
6	0x3cda2e4a	0.0266334
7	0x3e04da5c	0.12973922
8	0xbe9e5141	-0.30921367
9	0x3f1a1e1f	0.6020221

weight f4 [20, 4]
0	0x3d8f12de	0.069860205
1	0x3efbee3e	0.49205202
2	0xbda381d3	-0.079837464
3	0x3e67f338	0.22651374
4	0xbefb7dfc	-0.49119556
5	0xbea46436	-0.32107705
6	0x3c659183	0.0140117435
7	0xbeedb9c5	-0.46430793
8	0xbebb00a4	-0.36523926
9	0xbd407b4b	-0.04699258
10	0xbeda8ac6	-0.42684
11	0x3e2322d2	0.15931252
12	0x3e856dcd	0.26060334
13	0xbed5b6c1	-0.41740993
14	0x3e19f912	0.15036419
15	0xbe4c4c7e	-0.19951054
16	0xbeb26306	-0.34841174
17	0x3e224a09	0.15848555
18	0xbeee622c	-0.46559274
19	0x3dfc6296	0.12323491
20	0x3ecaed3c	0.3963412
21	0x3d9b656d	0.07587705
22	0xbe46e57f	-0.19423483
23	0xbeee567d	-0.4655036
24	0xbe1379de	-0.14401957
25	0xbea0b025	-0.31384388
26	0x3ea14871	0.3150058
27	0x3ee6e760	0.450984
28	0xbee03cf9	-0.43796518
29	0xbe9c7bfc	-0.30563343
30	0xbddb90b8	-0.10720962
31	0x3e393907	0.1808816
32	0xbeaa597f	-0.33271405
33	0x3db6c58c	0.08924398
34	0xbed0f681	-0.40813068
35	0xbdbc7f74	-0.09203997
36	0xbed525d9	-0.41630438
37	0x3e95af3e	0.29235262
38	0xbe6afbfa	-0.22947684
39	0xbe21ec4b	-0.15812795
40	0xbe68ae4b	-0.22722737
41	0x3ed59a2b	0.41719183
42	0xbebc0f33	-0.36730346
43	0xbd6de65e	-0.058081023
44	0x3cbceaea	0.023061235
45	0x3c337b08	0.010954626
46	0xbdfa7b54	-0.12230554
47	0xbc13886c	-0.0090046935
48	0x3e595c5c	0.21226639
49	0x3efb8171	0.49122193
50	0xbee94f52	-0.4556833
51	0x3e6960d2	0.2279084
52	0x3db6f5e9	0.089336224
53	0xbe1a1287	-0.1504613
54	0x3e53c834	0.2068184
55	0x3e71bfa4	0.23608261
56	0x3eec174c	0.46111524
57	0x3e1122fd	0.14173503
58	0x3e9ea7b1	0.30987313
59	0xbd5552df	-0.052080985
60	0x3db1ec34	0.0868763
61	0x3e679891	0.22616793
62	0x3be310e7	0.006929505
63	0xba4aac95	-0.0007731405
64	0x3e52eebd	0.20598884
65	0x3edc0030	0.42968893
66	0x3e64a817	0.22329746
67	0xbca791c7	-0.020455254
68	0xbef6f7bd	-0.48235884
69	0x3eabd33e	0.33559602
70	0xbdbfb27f	-0.09360217
71	0xbe716a4b	-0.23575704
72	0xbec7e09d	-0.39038554
73	0xbe539123	-0.20660834
74	0x3efa6192	0.48902565
75	0xbecae92b	-0.39631018
76	0x3ebb9845	0.3663961
77	0x3d503e30	0.050840557
78	0xbebcb851	-0.36859372
79	0x3d8af2f9	0.067846246

bias f4 [20]
0	0x3eed0e3c	0.46299922
1	0x3d58e583	0.052953254
2	0x3e696267	0.22791444
3	0x3ce7f1b1	0.02831349
4	0x3e08a800	0.13345337
5	0x3e469e25	0.19396265
6	0x3dd86680	0.10566425
7	0xbebad106	-0.36487597
8	0xbeefcd62	-0.46836382
9	0x3e98e584	0.29862607
10	0x3e63fae6	0.22263679
11	0x3da1ade4	0.07894495
12	0x3eeb3c9c	0.4594468
13	0xbe95f748	-0.29290223
14	0x3ef13043	0.47107133
15	0x3da780d4	0.08178869
16	0x3e50653f	0.20351122
17	0x3d94d8bf	0.072679035
18	0xbdef9230	-0.11697805
19	0x3e20bf5c	0.15697998

weight_ih_l0 f4 [12, 10]
0	0xbea93f7e	-0.33056253
1	0xbe98ebad	-0.29867306
2	0xbeb9ab27	-0.3626339
3	0x3ed17cd7	0.40915558
4	0x3c5860c9	0.013206669
5	0x3e402d4f	0.18767284
6	0xbe8faad0	-0.28060007
7	0xbef45524	-0.47721207
8	0xbeb4c8ff	-0.35309598
9	0x3efad9ed	0.4899439
10	0xbefac79f	-0.48980424
11	0xbe8fb84e	-0.280703
12	0x3ed0faec	0.40816438
13	0xbe3a7240	-0.18207645
14	0x3db1b40f	0.086769216
15	0x3e742ec5	0.23845966
16	0x3e11b77b	0.14230148
17	0x3e94dc24	0.29074204
18	0x3ef1519b	0.47132573
19	0x3eb35198	0.3502319
20	0x3e6c370b	0.23067872
21	0x3ec4953d	0.3839511
22	0x3ca8a887	0.020588173
23	0x3e8043c8	0.25051713
24	0xbb87358c	-0.0041262563
25	0x3e91f07c	0.28503788
26	0x3edc82b5	0.43068472
27	0x3ed7692f	0.42072436
28	0xbe896912	-0.26837975
29	0xbe29d5bb	-0.16585438
30	0x3e62a677	0.22133814
31	0xbe33c3f7	-0.17555223
32	0x3e08f195	0.13373406
33	0x3ec1dc5e	0.3786344
34	0xbd566579	-0.052342866
35	0xbecf0af8	-0.40438056
36	0xbefb7f35	-0.4912049
37	0x3d2918cd	0.041283417
38	0x3eaf3d2a	0.34226352
39	0x3e867a60	0.2626524
40	0xbe86752b	-0.26261267
41	0xbe73ff9e	-0.23827979
42	0x3e7541cf	0.23950885
43	0xbdcbbe32	-0.09948386
44	0x3e020957	0.12698875
45	0xbecb0152	-0.39649445
46	0x3db89364	0.090124875
47	0x3ef4da9e	0.47823042
48	0x3e37b501	0.17940141
49	0x3c2d25aa	0.010568062
50	0x3eb05c97	0.3444564
51	0xbed5c996	-0.4175536
52	0x3eae0c4d	0.3399376
53	0xbe20de5f	-0.15709828
54	0x3ec29bc0	0.38009453
55	0x3efa2c70	0.48862028
56	0x3e122dd8	0.142753
57	0x3e981e62	0.2971068
58	0x3e887224	0.26649582
59	0xbe61b7b7	-0.22042738
60	0x3e924a40	0.28572273
61	0xbf00e77f	-0.50353235
62	0x3e2cd01d	0.16876264
63	0x3e54fb54	0.20798999
64	0xbe7ebfd2	-0.24877861
65	0x3e56c512	0.20973614
66	0xbea6bb5b	-0.32564816
67	0xbe249e4b	-0.16076009
68	0xbc95aa93	-0.018269813
69	0xbedb46d7	-0.42827484
70	0x3ebd4ad7	0.3697116
71	0x3bcdb679	0.006277856
72	0xbe2a81ed	-0.16651125
73	0x3edd736b	0.4325212
74	0x3df4c4d3	0.11951604
75	0xbe880230	-0.2656417
76	0xbefafb65	-0.49019924
77	0xbd10e34e	-0.035373025
78	0x3c231c52	0.009955483
79	0xbe1c4c5e	-0.15263507
80	0x3e05e07b	0.13073914
81	0x3e9e49a5	0.3091556
82	0xbe0deece	-0.13860628
83	0xbe4c62b4	-0.19959527
84	0x3ee8c460	0.45462322
85	0x3eab2242	0.33424574
86	0xbe4eea79	-0.20206632
87	0xbd15b0f8	-0.036545724
88	0x3e85868c	0.26079214
89	0x3df0e83a	0.11763044
90	0x3ce8c329	0.028413372
91	0x3ecc944e	0.39956897
92	0x3e505b73	0.20347385
93	0x3e70438f	0.23463272
94	0x3ecfc312	0.40578514
95	0x3eb64fe2	0.3560782
96	0xbea1d6f8	-0.3160932
97	0xbe241cd3	-0.1602662
98	0x3e5ea632	0.21743086
99	0xbd68bf17	-0.056822862
100	0xbef85b73	-0.4850727
101	0x3e92f70c	0.28704107
102	0x3e96a5fb	0.29423508
103	0xbe96e675	-0.294727
104	0x3eb853ae	0.36001343
105	0xbef95628	-0.48698545
106	0xbeb56bb7	-0.35433742
107	0x3b223778	0.00247523
108	0x3eefab96	0.46810597
109	0x3d0a47cd	0.03375988
110	0x3f01049d	0.50397664
111	0x3eae0830	0.33990622
112	0xbdba75e7	-0.09104519
113	0xbe4dab37	-0.20084845
114	0xbd11e788	-0.035621196
115	0xbef5b911	-0.47992757
116	0x3ef295cf	0.4737992
117	0x3ee73774	0.45159495
118	0xbe350997	-0.1767944
119	0xbea40017	-0.3203132
