RTSNet/new_architecture/linear/best-model_hrot10_linear2x2rq2040T100.pt (torch, 141383 bytes, 70 tensors)

weight_ih_l0 f4 [12, 10]
000000 7f 47 e3 3e 07 e0 f4 3e c8 54 f4 bd 56 d4 46 2b
       0.44390485 0.4782717 -0.11930233 7.0638406e-13
000010 c2 e2 47 be 4f 56 aa 3d 13 b8 a2 be ff df 7d 3e
       -0.19520095 0.08317243 -0.31781062 0.24792479
000020 e5 98 db 3e dc 30 ea be c2 5c 7b be 7a 19 d3 be
       0.42890087 -0.45740402 -0.24547103 -0.41230375
000030 08 78 9f 3e e2 5a df aa c7 c4 f5 bd 83 8a da bc
       0.31146264 -3.967582e-13 -0.12000423 -0.026677376
000040 23 ec f2 3d b4 a6 4e 3e 8d dc bc bb 75 f5 b8 3e
       0.11861446 0.2018078 -0.0057635964 0.3612477
000050 f1 43 7f be fd b2 60 3d ed 34 5c 3d 42 43 88 3b
       -0.24928261 0.054858197 0.05376141 0.0041584084
000060 b9 b6 26 3e 4d 3b d0 3a 44 57 d5 be c5 a9 84 3d
       0.1628064 0.0015886814 -0.4166814 0.064776935
000070 17 9c c2 be c0 64 d5 3e 91 d0 d0 be 5a c9 85 3e
       -0.38009712 0.4167843 -0.40784124 0.26130182
000080 68 51 ee be f3 61 9a 3a a4 eb 45 3c 65 3e d5 bc
       -0.46546483 0.0011778459 0.012080107 -0.026030729
000090 b6 5f b1 bd b8 44 b6 be 67 cf 89 3e 64 32 7a 3c
       -0.086608335 -0.35599303 0.26916048 0.015270803
0000a0 31 a0 18 be fa 90 23 be 3c 0f a5 3e 46 73 fd 3d
       -0.14904858 -0.15973273 0.32238185 0.12375502
0000b0 c7 ed 10 bd 35 a6 43 39 bc d7 bb be 4d 8d 3d 3e
       -0.035383012 0.00018658566 -0.3668803 0.18510933
0000c0 15 56 74 be 46 87 94 3d 67 7e 78 3e b4 fe d5 bd
       -0.23860963 0.07252364 0.24266969 -0.104489714
0000d0 d9 f5 c8 3d f1 08 69 36 7c 43 0c 3e 19 e4 18 3e
       0.09812517 3.472491e-06 0.13697618 0.14930762
0000e0 1a 68 61 3e 57 c5 94 be fe 1c aa 3e b7 7f 33 3d
       0.22012368 -0.29056808 0.33225244 0.04382297
0000f0 d5 9e f3 bd 3b 39 ec 3d da c6 fb 3c a8 c0 ae bd
       -0.11895529 0.11534353 0.030734468 -0.0853284
000100 e0 2b 16 3e f3 76 87 3c 7e 95 4e bd 51 d6 73 3e
       0.14665174 0.016536212 -0.050435536 0.23812224
000110 2e d8 42 3d 0d 12 8d 3c 20 94 e0 3c 3d 18 a6 3d
       0.047569446 0.017220521 0.027414382 0.08110092
000120 79 7b e0 3c ad 8d ca bd 79 db 8a 3d 49 2c 2f ba
       0.027402626 -0.09890304 0.06780142 -0.0006682319
000130 a3 15 77 be 33 70 09 3a e9 6f 9f 3b 60 0e d8 3d
       -0.24129348 0.0005242854 0.0048656357 0.10549617
000140 fe f9 a8 be 37 f2 b5 3e 72 5d 85 3e 1f ee b4 3d
       -0.3300323 0.35536358 0.26047856 0.088344805
000150 af 24 48 3e 98 c5 c1 bd f6 54 92 be b0 18 1e 3e
       0.19545244 -0.09461516 -0.28580445 0.15439105
000160 6a 14 c0 bd 94 02 6a 3e b9 b1 c2 3d 36 10 87 bc
       -0.09378894 0.22852546 0.09506554 -0.016487222
000170 eb 10 ba 3e 25 37 9e bc 0f b2 44 3e 10 c4 8b be
       0.36341032 -0.019313404 0.19208549 -0.2729802
000180 c2 6f c6 3c d3 3e e6 be 1f 90 a9 3e 98 36 e2 3e
       0.024223212 -0.44969806 0.33117768 0.44182277
000190 46 80 72 be e5 7b ba 3e ce 82 e4 3d 53 23 50 3b
       -0.23681745 0.3642265 0.111577615 0.0031759336
0001a0 c2 e2 ad 3b a0 d0 75 3e f0 cc 50 be 7d 58 db be
       0.0053065727 0.24005365 -0.20390677 -0.4284095
0001b0 78 f7 2d be ba 46 86 be d0 f0 b8 3e 77 43 21 be
       -0.16988933 -0.26225835 0.36121225 -0.15748392
0001c0 c0 d0 a4 be 15 e4 10 3d 31 7a 73 3b d1 fc 9e be
       -0.32190514 0.035373766 0.003715169 -0.3105226
0001d0 7b 0b a4 3e 2a d1 ab bd ec 73 ed be 85 1b fa be
       0.3204001 -0.08389504 -0.46377504 -0.4884912

weight_hh_l0 f4 [12, 4]
000000 c7 a1 a4 3e d9 a6 38 bd 38 ae a6 3e 5d 6b 4f be
       0.32154676 -0.045080993 0.32554793 -0.202558
000010 44 7a ed be a5 23 b6 be 76 dd a9 3e 4f 9b 95 be
       -0.46382344 -0.3557407 0.33176774 -0.29220054
000020 a5 0d d4 3e 5c 64 b2 be e0 92 59 3e 47 b7 4d be
       0.4141666 -0.34842193 0.21247435 -0.20089446
000030 46 aa d4 3e 83 fb 05 bd bb 92 03 bc 4f af 2f 3e
       0.41536158 -0.032710563 -0.008030589 0.17156719
000040 f8 ed 98 bd 60 9c 33 3e 4c 17 ae 3b 96 56 04 3b
       -0.07467264 0.17540121 0.005312836 0.002019321
000050 0f 2c 60 3e 32 dd a5 3e 57 42 9a bd 71 f1 52 bd
       0.21891807 0.3239532 -0.075321846 -0.051499788
000060 ef 6a 11 bd 70 66 a6 bd 79 db 1d be 34 46 47 bc
       -0.03550237 -0.08125007 -0.15415753 -0.012162734
000070 4e 71 77 3c 51 65 50 3d 53 6a ac bd 38 10 8c bb
       0.015102698 0.050877873 -0.08418717 -0.0042743944
000080 b1 dd a4 be 48 a8 6e be 7f 86 cc 3d 89 55 fc bd
       -0.32200387 -0.23306382 0.099865906 -0.12321002
000090 c1 fc 94 be ee 0c 5a 3e e6 5e 1b bc a7 86 cb 3c
       -0.29099086 0.21293995 -0.009483075 0.02484448
0000a0 55 49 6c be 55 76 a8 3d de 08 5a be c4 cf e4 be
       -0.23074849 0.08225695 -0.21292445 -0.44689763
0000b0 fd bb 91 be ca 16 e8 be 92 92 d1 bd 54 5b 95 be
       -0.28463736 -0.45329887 -0.10233034 -0.2917124

bias_ih_l0 f4 [12]
000000 7c 45 1d be e3 2d d9 be 34 56 ad 3d 11 04 41 3e
       -0.15358537 -0.4241782 0.084637076 0.18849207
000010 c0 b9 05 be 4e 6d 4a be ad 32 b3 be 48 d0 a7 bd
       -0.13059139 -0.19768259 -0.349996 -0.08194023
000020 c5 ef 6a be fd fb 20 be 6d 65 e8 3d d0 a7 b9 3e
       -0.22943027 -0.15721126 0.113474704 0.36260843

bias_hh_l0 f4 [12]
000000 e5 57 6d 3e c9 9e 07 3e 19 9c d9 bd fd 83 b3 be
       0.2317806 0.13244165 -0.106254764 -0.35061637
000010 4f bd a9 bc 35 f8 bf 3d ab 7b 88 3e df bf e8 bd
       -0.020720152 0.093735136 0.2665685 -0.113647215
000020 20 8c ca be ad 02 04 3e a1 21 36 3e 16 96 70 be
       -0.39560032 0.12891646 0.17786266 -0.23494753

weight_ih_l0 f4 [12, 14]
000000 e9 4a a7 bd 1f ab 4c 3e e2 d3 cc 3e d1 44 32 3e
       -0.08168585 0.19987153 0.40005404 0.17409064
000010 46 51 d3 bd ca 9e 64 39 0e 69 5b 3c 41 55 f3 3e
       -0.10318236 0.00021802928 0.013391746 0.4752598
000020 fd 62 99 3e f6 d1 a2 3e d4 5d 41 bb 46 73 e4 3d
       0.29958335 0.31800812 -0.0029505389 0.11154799
000030 8a 3f ff 3d ac 1e c0 be 9b 86 85 3e 4a 46 2c be
       0.12463291 -0.375234 0.26079258 -0.16823688
000040 a4 46 6e 3e 29 95 88 be aa b1 4b 3d 0f d2 0f bd
       0.23269135 -0.266763 0.04972998 -0.035112437
000050 85 36 fa 36 16 92 9b bd 1c a6 93 be 75 79 3b be
       7.4569275e-06 -0.07596223 -0.2883767 -0.18308051
000060 c2 21 c5 3c 0c 45 24 29 61 46 c8 3d e7 37 a0 be
       0.024063949 3.6475204e-14 0.09779049 -0.3129265
000070 5d b7 f8 bd a6 b3 d1 be 6d 89 b1 be 16 12 8d be
       -0.12144349 -0.40957373 -0.3467516 -0.2755286
000080 3c f2 00 be 4a 27 62 b9 13 9b 69 bd 63 6e 97 3e
       -0.12592405 -0.00021567676 -0.057032656 0.29576406
000090 b8 b5 58 be d1 df 9c bc c0 58 da 28 f3 38 0e 37
       -0.2116307 -0.019149693 2.4241351e-14 8.477119e-06
0000a0 ea ba 86 3c a9 86 62 be 53 f6 ae be 10 b4 bb 3e
       0.01644655 -0.22121681 -0.34172305 0.36660814
0000b0 a9 d9 86 3e de 6e a2 be aa fd 91 bd 61 bd 53 3d
       0.26337937 -0.3172521 -0.07128461 0.051694278
0000c0 a8 79 81 39 f9 eb 91 3e 3d 6b eb bd 6f ed a9 bd
       0.00024695438 0.28500345 -0.114950635 -0.0829724
0000d0 9f 9c a8 3d 9a ef 03 3d 36 33 c4 bd 93 22 5e 3e
       0.08232998 0.032210924 -0.0958008 0.21692877
0000e0 aa d9 d0 be cb 36 e0 3e c7 62 1b 3e 1a 93 de be
       -0.40791065 0.43791804 0.151744 -0.43471605
0000f0 ce c0 ae b4 f0 56 e0 3d 72 34 da bd 57 9e 21 3e
       -3.255031e-07 0.10954082 -0.106545344 0.15783058
000100 16 90 ae be d0 40 c9 be ea 4d 52 3d 78 82 a6 39
       -0.34094304 -0.3930726 0.051343836 0.00031759194
000110 ce 2c cf be b8 a5 8f 3e 8d 0e 87 3e dd b1 d4 be
       -0.4046387 0.2805612 0.2637829 -0.4154195
000120 3c 71 3c 3d fb 8d 77 bd 71 20 ac 3d da 50 88 38
       0.046006426 -0.060438138 0.08404625 6.500045e-05
000130 93 99 15 bd 1d 8b 34 bd 1d 74 cf 3d 56 5f e4 be
       -0.036523413 -0.04407798 0.10129569 -0.44603986
000140 18 62 cb bc f4 85 5e 26 39 f9 4d be 66 6b 9e 3e
       -0.024827048 7.7203263e-16 -0.20114602 0.30941314
000150 c6 0b f3 3c c9 62 95 bd 2d ed 2f bd af 1e dc be
       0.0296687 -0.072942324 -0.042950798 -0.4299216
000160 db 27 d0 3d 9f c6 93 b7 d0 39 8f bd 46 31 c1 3e
       0.10163852 -1.7616256e-05 -0.06993449 0.37732905
000170 b1 11 c2 3e bb 0b d9 3e 19 3c ab bd 01 6a cf bd
       0.37904122 0.42391762 -0.08361072 -0.101276405
000180 5d 4e ee be b0 98 2f 3e 7c 12 5b 3e 94 bb d8 3e
       -0.4654416 0.1714809 0.2139377 0.4233061
000190 03 c4 4a 3c 24 11 2d be 7d 25 da b4 3c c7 b0 bd
       0.012375834 -0.1690107 -4.063294e-07 -0.08631751
0001a0 7a 37 e0 bd f7 6d e9 bd e0 11 fc 3e 5d 27 a6 bd
       -0.10948081 -0.11397927 0.49232388 -0.08112977
0001b0 20 58 8d bc 3c 54 2c bb 26 19 9f be 7b c0 47 be
       -0.017253935 -0.0026295325 -0.31073874 -0.19507019
0001c0 43 5a 1a be 65 9a c9 3e e0 04 83 be 52 19 49 3d
       -0.15073495 0.39375606 -0.25589657 0.049096413
0001d0 ba b5 1b a9 ce 74 37 bd a6 fc a9 3b ea 48 98 be
       -3.4574536e-14 -0.044789128 0.0051875887 -0.2974313
0001e0 14 d4 64 3e 46 40 dd 3e 0e 10 d1 3d 3d 1f 8c b5
       0.22346526 0.432131 0.1020814 -1.0439904e-06
0001f0 a5 ac 9b be 96 4a d6 be c5 93 d5 3e fd d7 ca 3e
       -0.30405155 -0.4185378 0.41714302 0.3961791
000200 3f a1 eb be c6 2b 4c be 1f bf e3 28 cf 5d db bb
       -0.46021459 -0.19938573 2.5284948e-14 -0.0066945325
000210 3a 6e b0 3d c1 4b 49 3d 0c ba 98 be 25 52 86 3e
       0.08614774 0.04914451 -0.29829443 0.26234546
000220 d4 b1 f3 3b 20 e3 f5 bd 39 5c 92 3d 29 6a 1b bd
       0.0074369702 -0.12006211 0.07146496 -0.03794304
000230 9d 99 98 be 79 ea e5 3c 87 b8 d7 be 3b aa dd 3e
       -0.29804698 0.028065907 -0.4213297 0.43293938
000240 81 8d 8e bc 90 b7 a5 bc 7d f3 ac 3c 98 fb fa be
       -0.017401459 -0.020229131 0.021112198 -0.49020076
000250 cd cf 94 3d b8 a5 c8 be dc ed 91 ad f3 f2 03 2b
       0.07266197 -0.39188933 -1.6590222e-11 4.687771e-13
000260 7f e0 3e 3e cb 7d 98 3d 5c c2 d6 be 07 dd ba be
       0.18640326 0.07445868 -0.4194516 -0.36496755
000270 95 fa 3d 3e cd 60 7c 3e 8d 2b e9 3b 80 a0 a0 2c
       0.1855262 0.24646302 0.0071157874 4.5652926e-12
000280 b6 7e 7f 3e b4 a6 d2 3c 3d 6c 6e be bf fa 9a 3d
       0.2495068 0.025714256 -0.23283477 0.07567357
000290 0b fe ef 3d 48 b0 da bb 98 28 55 3e 7a 24 52 3e
       0.11718377 -0.0066738464 0.20816267 0.20521727

weight_hh_l0 f4 [12, 4]
000000 d7 78 14 3d a3 9b f3 3c f4 89 6f bc 6c cb d8 bd
       0.036248054 0.0297373 -0.014620293 -0.10585675
000010 23 95 15 38 05 17 0d 36 18 3f ba be f4 9c 88 2a
       3.5663263e-05 2.1024036e-06 -0.36376262 2.426736e-13
000020 69 29 e8 bd b7 4e 05 3e e8 09 19 3e 4b 26 81 3c
       -0.11336023 0.13018309 0.14945185 0.01576533
000030 19 74 29 35 33 8d c4 aa c8 82 42 3e b9 30 2b a9
       6.312635e-07 -3.491457e-13 0.18995202 -3.8011888e-14
000040 3b 4f c8 bc 12 79 ae b8 73 49 c7 3e 84 aa 0a 36
       -0.024451843 -8.319518e-05 0.38923225 2.0662856e-06
000050 cc f2 cf b8 52 e8 af 3b 75 f4 da bd 7f d7 b1 35
       -9.9157536e-05 0.005368271 -0.10691158 1.3250245e-06
000060 95 3c 81 bd d6 cc 48 3d 45 be 28 3d 8c 29 97 bd
       -0.06310383 0.04902347 0.04119708 -0.07380971
000070 04 90 03 3d 02 37 8a 29 4f dd b3 3d dc e7 ae bb
       0.032119766 6.1379734e-14 0.08782446 -0.0053376984
000080 53 d0 85 3d b3 0d cd 29 10 db ec 3e 04 1b b2 30
       0.06533875 9.106205e-14 0.4626088 1.2958883e-09
000090 39 27 5b bb 14 53 df bc bc 83 8d be ba 17 4b 3b
       -0.0033440127 -0.027261294 -0.27639568 0.0030989484
0000a0 7c 71 96 33 9e a8 25 b8 15 38 90 be 38 aa 10 29
       7.005562e-08 -3.9496103e-05 -0.28167787 3.2122064e-14
0000b0 11 dc d9 ba 28 93 bc bd d5 79 eb 3c 91 a3 b4 37
       -0.0016621371 -0.09207755 0.028744617 2.1533839e-05

bias_ih_l0 f4 [12]
000000 d9 93 0b be e1 bd aa be d7 68 ea 3d ec 51 a0 be
       -0.13630618 -0.3334799 0.11445778 -0.313125
000010 66 a6 bb be 86 83 07 3e 4b 7a 32 3e fa eb 22 3e
       -0.3665039 0.13233766 0.17429464 0.1591033
000020 77 f7 78 3e 53 49 95 3e 55 5c cc bc 49 7e 41 bd
       0.2431315 0.29157504 -0.024946371 -0.047239576

bias_hh_l0 f4 [12]
000000 3a 63 90 3e 5f ea 04 be 8d ab 21 3d d5 9a 27 3e
       0.28200704 -0.1298003 0.039470244 0.16367657
000010 03 0a 0b bd 29 21 ef 3e 68 10 c8 bd 3f e0 cd bd
       -0.033945095 0.46704987 -0.09768754 -0.10052537
000020 89 b3 a4 3e c5 b6 e5 3d 3f 5d 51 be ac cd 79 be
       0.32168224 0.11216501 -0.20445727 -0.24394864

weight_ih_l0 f4 [12, 24]
000000 80 be d1 3e 20 a8 ea be 94 8e 08 2d cb c9 5c 3b
       0.40965652 -0.45831394 7.762364e-12 0.0033689614
000010 94 55 81 be c9 4b 8f be 79 61 f1 be a7 57 9d be
       -0.25260603 -0.27987507 -0.47144678 -0.30730936
000020 40 d2 12 3d 21 ee 20 bd 1f 1f ff be c8 3f c5 be
       0.03584504 -0.039289597 -0.4982843 -0.38525224
000030 aa 1a 83 3d 96 fe cf 3e a7 6c de 3e 43 bb 03 3e
       0.0640157 0.4062392 0.4344227 0.12864403
000040 e2 a2 78 3d c0 fb d9 be f4 9e 43 bd cd 87 b0 bb
       0.060702212 -0.42574883 -0.04775901 -0.0053872825
000050 da 87 c9 bd 2b 4e 3c 3e 4d e2 a7 be 9c 84 a7 3e
       -0.09840365 0.18389194 -0.3278984 0.3271836
000060 10 5a 85 be 5c 51 c2 bd 82 3a 3f 36 a6 66 ea b9
       -0.26045275 -0.09488174 2.8495274e-06 -0.00044708437
000070 01 94 1e be aa f2 53 be 74 17 db be e4 2c f4 be
       -0.15486147 -0.20698038 -0.4279133 -0.476905
000080 f6 cf e0 bd 4a 89 af be d9 9c 38 3e 38 01 ab be
       -0.109771654 -0.3428443 0.18028583 -0.33399367
000090 78 c0 dc bd 0f 29 85 be c9 d1 ff 3e 5b d2 72 3d
       -0.10778898 -0.26007888 0.4996474 0.05928264
0000a0 b4 4d ed 3e 5c 39 dc 3e 69 f9 90 3e ab 3b 5b be
       0.46348345 0.43012512 0.28315285 -0.2140948
0000b0 c2 89 b7 3d 93 a4 c0 3e f4 a9 a2 be 26 9d 6a be
       0.08961822 0.3762556 -0.3177029 -0.2291151
0000c0 88 f8 4d bd fa 6f 66 be 70 bf cd ba d3 30 f8 2c
       -0.050285846 -0.22503653 -0.0015697312 7.0540045e-12
0000d0 7d 29 a6 3e 64 2a a2 be 6c cc 45 3e cd cd bf be
       0.32453528 -0.31672966 0.19316262 -0.374617
0000e0 be e4 d5 bd 31 aa 66 be bd 0c 19 3e 86 3f f9 3e
       -0.1044402 -0.2252586 0.14946266 0.48681277
0000f0 c4 9f ac 3e 44 a4 95 3e 1d 41 cd 3e 71 69 91 3e
       0.33715641 0.29226887 0.4008874 0.28400758
000100 8d e8 c9 be d7 c6 c7 3e a1 96 f5 3e 8a 65 f0 3e
       -0.39435235 0.3901889 0.47966483 0.46952468
000110 70 f2 15 bd d0 ba 78 be e6 ff 9e 3e 9b 25 88 3e
       -0.03660816 -0.24290013 0.3105461 0.2659119
000120 e6 24 47 3e b8 ab 04 3e 63 70 6d ab 34 5e b7 3d
       0.1944767 0.1295613 -8.435528e-13 0.08953515
000130 5d 5c b7 be d2 a1 27 3e bc b6 7c 3e 2c 65 d9 3e
       -0.35812655 0.16370323 0.24679083 0.4246
000140 3d 2c 3a be ae ae 52 be c8 23 e4 be 9d 99 b6 3e
       -0.18180938 -0.20574448 -0.4455855 0.35664073
000150 45 a1 72 3d f7 99 31 bd 5a 5a 83 3e ed 5c f5 bd
       0.05923583 -0.043359723 0.2565487 -0.11980615
000160 a4 98 7a 3e 8a 70 39 be a2 56 2d 3e 8b b4 b6 3e
       0.2447229 -0.18109336 0.16927579 0.35684618
000170 dc 55 85 be e8 08 86 be c5 a1 60 3e 4b ba 4a be
       -0.26042068 -0.2617867 0.2193671 -0.19797628
000180 e3 98 9e 3c f2 5d 1b be 0d 71 c0 3d e7 ec ee a9
       0.019360011 -0.15172556 0.09396563 -1.0610419e-13
000190 5f 2e ca be 72 00 70 3e 39 68 e3 3e 86 0a d6 3e
       -0.39488503 0.2343767 0.44415453 0.41804904
0001a0 cc ca 97 bd 28 34 a0 be da 40 b7 bc 67 5e da bd
       -0.07411727 -0.31289792 -0.02236979 -0.10662537
0001b0 2a e6 0c be 36 f5 0e be d7 81 3a 3d f5 84 20 bd
       -0.13759676 -0.13960728 0.04553398 -0.039189298
0001c0 f9 d6 89 be 70 39 f5 3d 0a 98 54 be 6d 39 5b 3e
       -0.26921824 0.11973846 -0.20761123 0.21408625
0001d0 36 33 ae be ba 5f d1 be 68 f0 c6 3d 8a ed 80 3e
       -0.34023446 -0.40893346 0.097138226 0.25181228
0001e0 19 dc 22 bb e2 56 b2 3d 2b 4e ee 2b c6 a9 16 bd
       -0.0024850427 0.08707978 1.6932613e-12 -0.036783002
0001f0 17 e3 91 be 6e 5d 84 be ab e7 66 bd 69 16 6a be
       -0.28493568 -0.2585253 -0.05637328 -0.22860111
000200 d8 5a ba bd 64 b0 77 be 38 93 87 3e 44 fb fc be
       -0.09099358 -0.24188381 0.26479506 -0.4941045
000210 93 89 98 bc 1c 8e 9f be 93 f4 13 3e 3f d1 ce 3e
       -0.018620288 -0.31163108 0.14448766 0.40394017
000220 2a 79 c7 3c 8d f8 df be 88 ef f9 be d4 86 5a be
       0.024349768 -0.43744317 -0.4881556 -0.21340495
000230 e3 50 03 be 74 5c eb 3e ba 53 b6 3c 04 bf a0 be
       -0.12823825 0.45968974 0.02225672 -0.31395733
000240 50 c1 c7 3d fb d4 09 bd 12 97 a9 bc c6 6f 99 ba
       0.09753668 -0.03365038 -0.020701919 -0.0011706285
000250 91 28 99 3e 76 7c 86 3e fd fc b0 3b de 27 73 bd
       0.29913762 0.2626683 0.0054012523 -0.059364192
000260 81 44 92 bd 02 f4 31 be 2a 5d a6 be b3 29 b9 be
       -0.07141972 -0.17378238 -0.32492954 -0.36164626
000270 51 9c 84 be c7 07 16 be d8 1b ac 3e aa 1d f9 bd
       -0.2590051 -0.14651404 0.33614993 -0.12163861
000280 a2 83 90 3e 6d 1e e8 bc 8e a0 52 be 6b 25 7a 3e
       0.28225428 -0.02833482 -0.20569059 0.24428336
000290 0c 70 47 3d 0d da 6f be 69 52 5a 3d c1 72 90 3e
       0.04869084 -0.23423024 0.05330125 0.2821255
0002a0 c4 65 be be 66 c6 d4 be b7 32 eb bb d2 1f 01 ae
       -0.37187016 -0.41557616 -0.0071776765 -2.9359466e-11
0002b0 25 de f2 3e bd 00 b6 be 43 eb b5 3e af ad a4 bc
       0.47435108 -0.35547438 0.35531053 -0.02010235
0002c0 4d 9c 3f be 12 90 6b be e0 e6 15 be db ff d3 be
       -0.18711968 -0.23004177 -0.14638853 -0.4140614
0002d0 a7 ce 66 bd a8 33 49 3e bb 23 c3 be 77 e3 f2 bd
       -0.056349423 0.19648612 -0.38113198 -0.11859792
0002e0 dd 45 f0 bd c0 79 18 3e 56 cf 39 3e 2c ad 2e 3e
       -0.11732075 0.14890194 0.18145499 0.17058247
0002f0 29 41 94 3d 2f 20 a8 3d 8c 12 b4 be 42 de cb 3e
       0.07238991 0.082092635 -0.351704 0.39818007
000300 70 b4 85 bd ff c6 fd be 97 87 8d bd ea ae 96 3c
       -0.06528556 -0.49565884 -0.06910627 0.018393952
000310 e5 f9 6b be 81 7b c7 3e 4b 8b a8 3d 3e a3 a6 3d
       -0.23044546 0.38961414 0.08229693 0.08136605
000320 f0 2e 28 be 71 1d fa 3e dd 6d 63 be 22 fd e8 bd
       -0.16424155 0.48850587 -0.22209878 -0.11376406
000330 26 e0 63 bd 45 24 a3 3e 3c 1c 0e be 27 73 8e 3e
       -0.055633686 0.3186361 -0.13877958 0.2782223
000340 f0 05 99 3e 97 db ca 3b 43 d5 19 be b1 5d 76 bd
       0.29887342 0.006190728 -0.15022759 -0.060147945
000350 6f 84 a3 3e 22 a4 ed 3e 95 c1 83 3c 2b 85 ec be
       0.31936976 0.46414286 0.016083518 -0.4619535
000360 4c 8b c2 be 4d 23 c0 3e 14 a6 27 bc 4c 50 0d ab
       -0.379969 0.37526932 -0.010232467 -5.0204697e-13
000370 5f 2d 39 be a4 f9 9d be 28 2b aa 3e 79 ce af be
       -0.18083714 -0.30854523 0.3323605 -0.34337214
000380 6e d6 81 be 77 d2 9a bd 95 a3 45 bd 79 88 aa be
       -0.2535891 -0.07559674 -0.048251707 -0.33307245
000390 4b 43 b3 3e 89 d0 d9 3e 1a 11 90 3e df df 60 3d
       0.35012278 0.42541912 0.28138047 0.054901
0003a0 1c 75 02 bd 75 90 b0 be 64 c2 45 bd 46 3a b5 3e
       -0.031849965 -0.34485212 -0.04828109 0.35396022
0003b0 a8 ab 07 3c 84 60 d7 3e df 47 77 3e fc 89 39 3d
       0.008280672 0.42065823 0.2414851 0.045297608
0003c0 e9 67 97 3d bb 17 ec 3e 3c 29 06 bc 54 6d cf 3c
       0.07392866 0.46111855 -0.008188542 0.025320686
0003d0 0c 97 0c be d5 2d 94 be 99 39 47 be 02 0a ac be
       -0.13729495 -0.28941217 -0.19455566 -0.33601385
0003e0 c7 16 92 be e5 2e 7b be 5d bc c5 3d d9 9c d2 3d
       -0.28533003 -0.24529608 0.09655068 0.102838226
0003f0 a7 d8 8c 3e ff c3 db 3d d8 9b a1 be 95 52 a4 3d
       0.27509043 0.10730743 -0.31564212 0.08023564

weight_hh_l0 f4 [12, 4]
000000 bf 9e 50 3e 68 4e dd 3c 9f b3 73 be 66 77 9c be
       0.20373057 0.027014926 -0.23798989 -0.30559844
000010 88 f7 58 be 39 a9 ac be 9d 88 ba 3e de 51 15 3e
       -0.21188176 -0.33722857 0.36432353 0.14582011
000020 b5 7e 57 be ac c6 19 be 23 db cc 3e 86 08 f0 be
       -0.21044429 -0.15017194 0.40010938 -0.46881503
000030 9e 8a ae bb 91 52 3d 3e 05 c3 78 3d ed f3 90 bb
       -0.005326583 0.18488528 0.06073286 -0.0044236095
000040 74 73 e8 bd bb 06 84 3e 1c 45 0f be bf 8f 90 bd
       -0.11350146 0.25786385 -0.13991207 -0.070586674
000050 9b 4a c4 be 6b 7f 7a 3d b2 54 cf bc 23 62 d2 be
       -0.3833817 0.06115667 -0.02530894 -0.41090497
000060 e7 5b 59 3d 1d ab 83 3e f2 07 15 3e 70 f1 fc 3d
       0.05306616 0.25716487 0.14553812 0.12350738
000070 2d 1f ea be dd c2 4b bd 51 69 40 be 5c 88 03 bd
       -0.4572691 -0.049746383 -0.18790175 -0.032112464
000080 65 6d da 3c 96 51 b5 be f1 09 e1 3d 28 58 bf 3e
       0.026663492 -0.35413808 0.10988224 0.37371945
000090 70 cb fb be e9 df 51 be 57 24 b1 be c4 14 0b be
       -0.49178648 -0.20495571 -0.34598038 -0.1358214
0000a0 aa c4 2f 3d 12 6a 0e 3e 91 9b 60 3e b6 b0 bd 3d
       0.042912163 0.1390765 0.21934344 0.092622206
0000b0 db 0a 1a 3d af 66 c5 3e 63 bf e0 3e 87 d6 5b be
       0.03760801 0.38554904 0.43896016 -0.21468554

bias_ih_l0 f4 [12]
000000 28 8e b9 3c 56 69 44 bd 43 f9 b8 3e 25 f7 8d 3d
       0.022650793 -0.04795202 0.36127672 0.06931905
000010 24 50 2e be 21 1d 8f be 17 52 29 3e 20 ed af 3c
       -0.17022759 -0.2795191 0.16535221 0.021475375
000020 39 81 b5 3e f1 04 cf bd d1 6c 7b be fb aa ba bb
       0.35450152 -0.101083644 -0.24553229 -0.005696652

bias_hh_l0 f4 [12]
000000 b6 45 0d be 46 91 6a bc fc 14 49 be 2a ae 06 3e
       -0.13796124 -0.014316862 -0.19636911 0.13152376
000010 77 66 a8 3e f5 c7 90 3d cd f1 ed be 2e 37 81 3e
       0.32890674 0.07069389 -0.46473542 0.2523741
000020 e1 3a 8d 3e e8 1a f0 be e6 73 9b 3e e8 ad 31 3d
       0.27583984 -0.46895528 0.3036186 0.04337874

weight f4 [4, 4]
000000 1e 27 09 3e 35 3c 92 be 33 92 35 bd a8 f4 80 3e
       0.13393828 -0.2856156 -0.04432888 0.25186658
000010 47 fb e2 be 78 90 0d 3e 80 ed fe 3d 49 93 b3 3e
       -0.44332334 0.13824642 0.12447643 0.35073307
000020 27 f3 77 29 03 83 81 a9 cb 7e 38 ab 1f 3e b0 bb
       5.505592e-14 -5.751478e-14 -6.554589e-13 -0.005378499
000030 d1 ee 6d bd d6 e9 2a b8 89 01 0f bc 06 62 3f 3c
       -0.05808908 -4.0748935e-05 -0.008728393 0.011681085

bias f4 [4]
000000 14 f5 df 3e 4d 2f fa 3e 67 d4 fa bd 0a 6e b4 bd
       0.43741667 0.48864213 -0.12247544 -0.08810051

weight f4 [320, 8]
000000 c5 79 80 3e b3 6c 45 bd 3e a2 94 bd 9a 1f af be
       0.25092903 -0.048199367 -0.07257508 -0.34203798
000010 3c d9 13 3e a9 86 9a 3e 49 2b 30 3e 19 b1 85 3e
       0.14438337 0.30180863 0.17204012 0.26111677
000020 7d 56 a4 bd 04 35 63 bc da 16 ae 3d ad 08 a6 3d
       -0.08024309 -0.01386762 0.08500452 0.081071235
000030 1a 70 fe bd 4d cc 9f be 94 9f b4 be af 99 9d 3e
       -0.124237254 -0.31210557 -0.35277998 0.30781314
000040 b2 49 19 3e 99 7d cb 3c 6d d0 8c be 88 6d 56 3e
       0.14969519 0.024840163 -0.27502766 0.2094022
000050 a2 5b a2 be 11 c4 8c be 08 30 c5 bd 8f 7d 6c be
       -0.31710535 -0.27493337 -0.09628302 -0.23094772
000060 a4 1b a5 3e ae c9 58 bd b1 8b 12 3e a6 80 d7 3c
       0.3224765 -0.05292671 0.143111 0.026306462
000070 00 34 69 3e 74 1c bd bd 4e 35 5b be d6 1f 38 be
       0.22773743 -0.09233943 -0.21407053 -0.17980894
000080 ee c2 51 3d 98 16 17 3e 9f dd 05 be 8b f1 2d 3e
       0.05121129 0.14754713 -0.13072823 0.16986673
000090 d3 c0 b7 bd 84 ee 89 be 65 26 63 3e f4 7f 91 3d
       -0.08972325 -0.26939785 0.22182615 0.07104483
0000a0 39 41 c1 3d cf a9 94 3e 0b 11 53 3e 90 5d 86 3e
       0.09436268 0.29035804 0.2061197 0.26243258
0000b0 ee 98 30 3e 4b 13 ae 3e 12 cb 73 be 23 73 7b be
       0.17245838 0.33999094 -0.23807934 -0.2455564
0000c0 7b fd fd 3d 9a d7 a0 be cc f1 a2 3d 1d aa 1e be
       0.12401863 -0.3141449 0.07956275 -0.1549458
0000d0 6e 96 83 3d 04 74 db bd 63 56 3a 3e 6b 9b 2c 3d
       0.064251766 -0.107154876 0.18197016 0.042140406
0000e0 fb 83 72 39 60 6d d1 b1 97 cc c2 af 8d 37 f1 3c
       0.00023128085 -6.095135e-09 -3.5433764e-10 0.029445434
0000f0 9b fe 9d b1 70 b9 e1 a7 92 7a 4f b9 8d a4 33 2a
       -4.5982467e-09 -6.2651097e-15 -0.0001978672 1.5955484e-13
000100 0c a5 4c 3d e1 7c 3e be 64 08 6d bd 56 db 81 3e
       0.04996209 -0.18602325 -0.05786933 0.25362653
000110 c7 fd 08 3e 0e eb 0a bd 97 67 aa 3e 79 a9 a4 3e
       0.13378058 -0.033915572 0.33282158 0.32160547
000120 8c 0c b8 3d 6a 9a 60 be 0f 68 8b bd 10 04 1d be
       0.08986768 -0.21933904 -0.06806957 -0.15333581
000130 62 7e b2 3d f7 61 7d 3d 56 4c 33 bd 38 bf 2b bd
       0.08715512 0.061861005 -0.04377397 -0.041930407
000140 71 32 9f bb 73 05 03 bc 92 93 5a b9 ba 16 6b 3b
       -0.004858308 -0.007996905 -0.00020845074 0.00358717
000150 37 5c 4f bc 1d b7 41 3c 68 31 ed bc 1a 60 1a 3b
       -0.012656263 0.011823443 -0.028954223 0.0023555816
000160 26 99 8d 3d 39 2b 81 be f2 88 90 be 00 d4 8c be
       0.06913976 -0.2522829 -0.2822948 -0.27505493
000170 fe a0 3c bd 91 10 5e be c1 1a 8b be 69 6d 32 be
       -0.04605197 -0.21686007 -0.2716885 -0.17424549
000180 25 c2 ac be aa c0 a9 3e 9f 73 90 be 19 b4 6d be
       -0.3374187 0.33154804 -0.28213212 -0.23213233
000190 86 bc 09 3d 03 4e 28 be 14 9c 8e be a5 70 9a 3e
       0.033627056 -0.16436009 -0.27853453 0.30164066
0001a0 dc 25 5a bd 3a 3c 87 be 37 dc af 3e 1e 4f 9a 3d
       -0.05325876 -0.26413137 0.34347698 0.07534622
0001b0 30 89 ed bd 39 c3 3b 3e de 65 2e be 84 40 51 be
       -0.11598432 0.1833619 -0.17031047 -0.20434767
0001c0 78 b0 8d bd d7 c6 08 be 60 af c7 bd 81 2b a0 3b
       -0.06918424 -0.13357101 -0.09750247 0.0048879986
0001d0 c9 1f a2 3c 59 3b c1 bd 4f 17 8b 3d 9c f1 b1 3e
       0.019790547 -0.09435148 0.06791555 0.34754646
0001e0 e1 ea 16 b7 bf cb 86 3c 60 3c 4c 39 e9 c3 19 ae
       -8.995384e-06 0.016454576 0.00019477447 -3.4962176e-11
0001f0 29 07 d0 b7 bb 42 83 b7 68 02 ac 36 46 27 bc 2d
       -2.4798866e-05 -1.564749e-05 5.1262796e-06 2.1390566e-11
000200 50 de 30 be 48 0d a3 3d 20 c5 92 3c 22 ee 74 be
       -0.17272305 0.079615176 0.017916262 -0.23918965
000210 0a 2a 8b 3e 95 53 42 be 38 61 61 be 65 d6 83 3e
       0.2718051 -0.18977197 -0.22009742 0.25749508
000220 af 09 90 3e 10 79 49 3e e6 38 18 be eb 74 40 be
       0.28132388 0.19675088 -0.14865455 -0.187946
000230 31 6c 43 3e 8f e2 3d be 02 47 9e be 00 a9 5c 3e
       0.1908424 -0.18543456 -0.3091355 0.21548843
000240 11 e5 98 3c 5c 3c 89 be 07 67 7a 3e 86 c5 86 be
       0.018663915 -0.26803863 0.24453364 -0.26322573
000250 75 21 e3 3d da b1 86 3e a3 29 1c 3e 1e df da bd
       0.11090366 0.26307565 0.15250258 -0.106870875
000260 48 c5 ed 3d 98 6d 75 be 82 6e 6d 3e 1d cb 93 3d
       0.11609894 -0.23967588 0.23186687 0.07216475
000270 23 7e 59 3e 4b 85 5d be 43 44 3b 3e 5c d0 5d 3e
       0.21239524 -0.21632878 0.18287759 0.21661514
000280 e6 45 84 bc a6 88 3f bc 84 00 a4 3e 6f 40 21 3d
       -0.016146611 -0.011690294 0.32031643 0.03936809
000290 c6 e0 f0 3c 3b 72 d4 3d 95 d6 a3 bd 87 5e 85 3e
       0.029404055 0.1037335 -0.07999913 0.2604868
0002a0 37 99 d6 34 60 26 97 2b a0 80 f8 bb ea 4a 5e a9
       3.9972085e-07 1.0739847e-12 -0.0075836927 -4.935888e-14
0002b0 4e a0 ea bc 4a 0b 7e ab 25 07 12 2a ed ca 4e 38
       -0.028640892 -9.0254594e-13 1.2969884e-13 4.9303217e-05
0002c0 eb fd 70 2f e7 98 51 bc 9f a6 8d ba 0e 89 12 37
       2.1918083e-10 -0.012792802 -0.0010807103 8.734189e-06
0002d0 06 61 38 3c 3d a8 d0 b8 09 c9 71 2e 5d 1d 53 3c
       0.011253601 -9.94955e-05 5.497561e-11 0.012885419
0002e0 95 0b 7f be f6 67 ab be d5 21 b8 3d a6 00 7b 3e
       -0.24906762 -0.33477753 0.08990828 0.24511966
0002f0 f1 f1 9a 3e fe 42 7b 3e e9 2d 33 be 2b cf 2e be
       0.30262712 0.24537274 -0.17497982 -0.17071216
000300 c3 ea 48 be 12 fd 00 3e 59 90 7a 3e 27 6a 94 3e
       -0.19620804 0.12596539 0.24469127 0.28987238
000310 ef 7e 0e 3e b6 99 19 3e 78 f9 bf bd 32 90 83 3e
       0.13915609 0.15000042 -0.09373754 0.2569595
000320 bc 1b a4 3e b3 24 a8 3e 87 d9 69 be 20 39 93 3d
       0.3205241 0.328405 -0.22836886 0.0718863
000330 24 45 f9 3a 35 2d 00 be b2 dc 9e be 43 06 5f be
       0.0019017798 -0.12517245 -0.31027752 -0.21779732
000340 77 1f e6 3d 77 19 99 be 19 65 63 3e 1b 27 a3 be
       0.1123647 -0.2990224 0.22206534 -0.31865773
000350 52 f3 f9 bc 26 c8 a1 bd a7 cc 4c be f9 3c 08 3e
       -0.030511532 -0.078995034 -0.19999944 0.13304509
000360 16 4a 93 bd 9c 30 b1 be 49 1c b0 bd f6 27 ae 3e
       -0.07191865 -0.346074 -0.08599145 0.34014863
000370 5e a6 0c be 0e a2 86 3d 99 f9 52 3e 4b da 4e 3d
       -0.13735339 0.06573878 0.20603026 0.05050115
000380 30 c0 3d be 90 ae 2d bd 52 fd 38 bd 94 2b ef 3d
       -0.18530345 -0.042402804 -0.04516346 0.11678234
000390 e5 f9 94 3e 8f c1 2b be 18 de 87 be ce 14 02 be
       0.29096904 -0.16773055 -0.26536632 -0.12703249
0003a0 30 75 26 3c e1 d6 f4 3c f1 15 96 3c 1d ae af 36
       0.010159776 0.029887618 0.01832101 5.235676e-06
0003b0 67 55 94 b7 ab bf 15 a9 b2 54 84 2f dd 45 89 33
       -1.7682743e-05 -3.325089e-14 2.407084e-10 6.392268e-08
0003c0 26 82 02 3c e1 3a c6 bc 18 18 a3 3d fe fd db bd
       0.0079656 -0.024197998 0.0796358 -0.107418045
0003d0 b1 75 36 3e 93 c4 05 bd fe c2 3b 3d 9a 39 4a be
       0.17818333 -0.03265817 0.045840256 -0.19748536
0003e0 d5 95 99 bd 39 1d 18 bd f0 30 ff bd f8 11 8f 3e
       -0.07499281 -0.037137244 -0.12460506 0.27943397
0003f0 a2 cb 93 be 39 15 68 be 13 f1 93 be ca 03 36 3e
       -0.28866297 -0.22664346 -0.28894863 0.17774883

bias f4 [320]
000000 a0 40 e5 3d 9b 52 7c bd 0a 7e 93 bd 2e 8c 26 3e
       0.11193967 -0.061602216 -0.072017744 0.16264412
000010 64 7b 26 bd 66 a1 7b bd b4 af 9d 3e 32 4a a1 bc
       -0.04064502 -0.06143322 0.30798113 -0.0196887
000020 48 1d 0e 3e 4c c3 1a 3e 8d e4 2f bd 20 10 1d 3e
       0.13878357 0.15113562 -0.042942572 0.15338182
000030 4a 9f 85 3e 2f 3a 80 3e 52 73 a6 bb ef f9 2e bb
       0.2609809 0.2504439 -0.005079665 -0.0026699265
000040 97 3c b1 3e 3c 6d 5b be a0 31 78 3d 8f d4 41 3e
       0.3461654 -0.21428388 0.0605942 0.18928741
000050 e6 bd 23 3e e6 c0 48 28 51 c9 b1 bc 9e 87 30 3e
       0.1599041 1.11440584e-14 -0.02170244 0.17239234
000060 b1 3f 7c bd b6 98 56 3e 06 80 c6 bd bd 67 84 3e
       -0.06158418 0.20956692 -0.09692387 0.25860396
000070 8e 93 a1 be fe 10 18 bc 51 ed d3 bd 41 06 2d 3e
       -0.31557888 -0.009281395 -0.10347999 0.16896917
000080 4b bf 26 3e f1 f6 84 3e c5 24 b2 bb 26 84 22 be
       0.1628391 0.2596965 -0.005436512 -0.15870723
000090 77 72 9f 3e 44 b5 3d b5 f5 24 8a 3e 35 ed 14 3c
       0.31142017 -7.067176e-07 0.2698132 0.009089758
0000a0 92 49 23 3e fd 3f e1 bc 63 60 36 3e 27 99 f8 bc
       0.15946034 -0.027496332 0.17810206 -0.030346466
0000b0 9d 66 06 3d 84 80 1c bd f7 28 29 bd ee 0b 23 bd
       0.032812703 -0.0382085 -0.041298833 -0.0398063
0000c0 59 a3 86 bd d5 45 2e bc e2 94 a2 bd 64 d9 c0 ab
       -0.06574125 -0.010636766 -0.079385534 -1.3702759e-12
0000d0 48 16 24 3e 8b 76 91 3e 1c 1b 0e be b5 f5 69 3e
       0.16024125 0.28410754 -0.13877529 0.22847636
0000e0 b5 97 f0 bd 71 ce 96 3d 15 ce 70 3d cc 1a 79 3e
       -0.11747686 0.07363594 0.058790285 0.24326628
0000f0 81 0f 1f bd 56 a2 8a 3e 5d 29 1b bd b8 66 58 3e
       -0.038833145 0.27076977 -0.037881244 0.21132934
000100 2e aa 8b 3d 42 99 f0 b7 0b 3c 94 3e 7a 18 b2 bc
       0.068195686 -2.8681596e-05 0.2895206 -0.021740187
000110 41 59 6f 2a 6d 41 46 ba 7a 27 bc bc 56 bb 2c bd
       2.125843e-13 -0.000756285 -0.022968043 -0.042170845
000120 aa 74 0a bb 70 f4 d1 bc b5 0b af 3e c8 3a ac 3e
       -0.0021126666 -0.025629252 0.3418862 0.33638597
000130 d1 e4 50 3e 6b 38 3d 3e 0d ec 0b bd 28 bc 69 3e
       0.20399787 0.18478553 -0.034160662 0.22825682
000140 b6 1c 0b be 27 2d a6 37 b1 4d ef 3d 86 a3 ab 3e
       -0.13585171 1.9809768e-05 0.1168474 0.33523196
000150 51 4f 91 3e bd c7 b4 3e 9c fc f6 bb fe c2 48 3d
       0.28380826 0.35308638 -0.0075374376 0.049014084
000160 7b 4c 94 3e 54 bd f7 bc 39 57 9e bc 79 f2 ab bc
       0.289646 -0.030241646 -0.0193287 -0.020989643
000170 d1 2c d6 bc c9 b2 8f be f1 a6 8b be 04 7c a0 3e
       -0.026144417 -0.2806609 -0.27275804 0.31344616
000180 fc b7 00 bd 80 e2 09 bd f3 94 f2 bc 74 34 b0 bc
       -0.03142546 -0.033663273 -0.02961204 -0.021509387
000190 8b 0d 04 be 15 0f 88 bd 81 f4 69 3d 19 c1 a2 bc
       -0.12895791 -0.06643502 0.057117943 -0.019867467
0001a0 d4 63 8d 3d 9c a0 c5 3d 75 ae 2c bd e3 f0 de bc
       0.06903806 0.096497744 -0.042158563 -0.027214473
0001b0 ac a8 d2 3d 5f 36 20 3e 54 65 2f 3e 71 56 24 3e
       0.10286078 0.15645741 0.17128497 0.160486
0001c0 a7 08 a4 3e cd 82 8d bc d0 5a 88 ab 26 bf 6b bd
       0.3203785 -0.017274285 -9.688587e-13 -0.05755534
0001d0 d4 f8 ad 3e 8c 78 39 bb b1 51 61 3e 02 5b 6b 29
       0.33978903 -0.0028300611 0.22003819 5.225942e-14
0001e0 f1 c1 15 3e 8d 8b a5 3d ad 06 aa 3d 24 18 21 be
       0.14624764 0.08083258 0.083020546 -0.15731865
0001f0 06 22 a7 3d e2 d2 25 be b8 5a d5 bb 58 e3 4f ba
       0.08160786 -0.16193727 -0.0065110587 -0.00079303
000200 37 aa 87 bc 39 20 fe 2b f8 cb 15 3e 4f 18 7f 3e
       -0.016560657 1.8056729e-12 0.14628589 0.24911617
000210 bc a3 e7 bd e8 f5 98 bc 09 0d 47 bb b7 20 78 bd
       -0.11310527 -0.018671945 -0.003037276 -0.060578074
000220 9e ac f6 3d ef cf b0 3e f8 de d9 3d 57 2a a8 bb
       0.12044643 0.3453364 0.10638231 -0.0051320004
000230 01 0a a2 3e e5 18 2d 3d de 14 82 bc c4 bb c7 bc
       0.31648257 0.04226007 -0.01587909 -0.024381526
000240 0c 94 8c 3e 17 b6 4f 3e ef ff 15 bd b1 eb fc ac
       0.274567 0.20284306 -0.03662103 -7.1884378e-12
000250 b4 af 40 bd 71 8a 67 3e 61 ff ef 3d 4a 8d a5 3d
       -0.047042564 0.22611405 0.117186315 0.080835894
000260 b6 e6 a9 bc 6d 8d 45 bd 55 4c 4d 3d 26 69 93 3e
       -0.020739894 -0.048230577 0.050121624 0.2879116
000270 d1 de 98 bd 37 21 ad bb 24 ac 26 a9 af af 8a 3e
       -0.07464374 -0.0052835005 -3.7008713e-14 0.2708716
000280 10 58 59 bd 67 cc 50 3e 16 a4 9e 3e 3b 2b e9 bc
       -0.0530625 0.20390473 0.30984563 -0.028462997
000290 ac 9f 65 ba fa bb a6 3e bf 10 ab 3e 65 ea 00 3e
       -0.00087594497 0.3256529 0.33411214 0.12589414
0002a0 ac ad 29 ba 88 e4 86 bd 2f cb 80 3e 7f 8b 1a 3e
       -0.00064727175 -0.065865576 0.25155017 0.15092276
0002b0 cf c9 31 bc c2 84 39 3d 7a 45 fb bd 1b 8a 96 3e
       -0.010851338 0.045292623 -0.12269111 0.2940224
0002c0 4d 92 df 3d ce b6 5e 3e 1a 30 cb 3d 2b cb e3 3d
       0.109165765 0.21749422 0.09921284 0.111227356
0002d0 c0 a9 35 be 3b 80 19 3e 26 3d ee bc 71 45 56 ac
       -0.17740536 0.14990322 -0.029081892 -3.0449777e-12
0002e0 ad 7c 86 be 43 37 4d bb 18 d1 94 3e e8 73 8d 3d
       -0.26266995 -0.0031313456 0.29065776 0.06906873
0002f0 1d 79 d7 bd f5 6d f3 b7 81 bf 83 3d f4 94 b1 3d
       -0.105211474 -2.901906e-05 0.06433011 0.08670989
000300 9a ed b5 3e 2c cd bc 29 63 95 1e 3e 70 e5 d9 ba
       0.35532838 8.384469e-14 0.15486674 -0.0016624164
000310 3c 33 7a bc f4 c6 43 b9 43 13 cc 3d c1 56 f2 bb
       -0.015271004 -0.00018670765 0.099646114 -0.007395596
000320 88 6a 09 bd 2c 5e 61 be 61 d3 8f 3e 09 d5 7a bc
       -0.03354886 -0.2200858 0.28090957 -0.015309581
000330 b3 db 45 bc c7 75 5e bb 2a 82 e0 b8 6d a2 5e 3e
       -0.012076306 -0.0033944712 -0.00010705397 0.21741648
000340 5a b7 1b 3e 2d f8 53 3e 3b 07 83 aa c4 5e d1 b6
       0.15206662 0.2070014 -2.3275292e-13 -6.2397175e-06
000350 46 f9 4d bb f1 d5 5e b4 06 18 78 bd 5b 41 b9 bb
       -0.0031429096 -2.0753193e-07 -0.060569786 -0.005653543
000360 b6 dd a8 be 59 b8 02 3d b2 9e 8f bb ab 78 a2 be
       -0.32981652 0.03191409 -0.0043829316 -0.31732687
000370 b1 78 ed 3d fb 77 e6 3c 6c 2c 21 3e 39 88 79 a9
       0.11595286 0.028133383 0.15739602 -5.540726e-14
000380 de 39 77 ba 3d 22 0d be d6 9c 97 3e 60 f7 d3 a8
       -0.0009430925 -0.13782592 0.29611844 -2.3532988e-14
000390 cc bb 91 3e 37 aa 0d 3e 76 16 2f be a3 0c 69 3e
       0.2846359 0.13834463 -0.17098412 0.22758727
0003a0 fd 13 17 3e 79 6c d0 3d 1e 56 a9 3e 05 e9 45 bb
       0.14753719 0.101769395 0.33073515 -0.0030198705
0003b0 c7 93 1b bd 2e cc 96 be bc 33 43 bc da 93 05 3e
       -0.03798273 -0.29452652 -0.01191419 0.13044682
0003c0 15 7f e4 3d 55 0b 0b 3e 22 92 51 3e 45 5a b3 3e
       0.111570515 0.13578542 0.20465901 0.35029808
0003d0 91 83 f3 bb 7b 5e 1c 3e 7d 43 cc bc 3c c4 03 3e
       -0.0074314554 0.15270416 -0.024934525 0.12867826
0003e0 49 95 b5 3e dd 90 aa 3d 08 80 f1 3d 1b ab bc 2b
       0.35465458 0.08328412 0.11791998 1.3405695e-12
0003f0 1c e8 54 3e 5d 72 ad 3d 87 a3 91 3e 60 8e 6b be
       0.20791668 0.08469079 0.28445074 -0.2300353

weight f4 [4, 320]
000000 e2 53 e2 bb eb e5 2c bc 9d 4b 17 3d 32 27 47 bb
       -0.0069069723 -0.010552864 0.036937345 -0.0030388352
000010 9e 5d 23 3c a6 37 31 3d 13 2e 81 3c 64 a7 97 2a
       0.009971051 0.04326596 0.01576904 2.693914e-13
000020 80 9c 39 3b 76 08 d6 bc f6 07 9e 3a 2c 83 10 bd
       0.002832204 -0.026127081 0.0012056816 -0.035281345
000030 de a6 02 3d 40 69 13 3d 25 02 61 3b 5b af a5 ad
       0.03189742 0.035989046 0.0034333554 -1.8836202e-11
000040 08 a7 43 bb 3d ef 4c 3d 86 aa c3 3c 6d a2 99 3c
       -0.0029854197 0.050032843 0.023885023 0.018754208
000050 8a af 37 3c 5d 11 93 aa 54 14 09 b7 52 de 00 bd
       0.011211285 -2.6124494e-13 -8.170569e-06 -0.03146202
000060 05 09 d8 3b 23 9f f6 3c e9 1f 0d 3c 75 71 37 3d
       0.006592872 0.03010518 0.008613565 0.044785935
000070 37 9f 5f bc ba 12 58 aa e7 b8 11 be a5 94 0a 3d
       -0.0136488 -1.9191151e-13 -0.14230691 0.033833165
000080 83 2d 00 bc f3 a9 27 bd 7c 66 09 aa de d4 a8 35
       -0.007823351 -0.04093356 -1.2203601e-13 1.2578928e-06
000090 b4 e0 11 3d 64 6d 85 b6 34 7b ed 3c fa 27 08 bc
       0.035614684 -3.9764436e-06 0.028989412 -0.008310312
0000a0 65 fd 10 bd 4f 31 dc bc e5 57 81 bc 68 16 3e a8
       -0.035397906 -0.02687898 -0.015788982 -1.0551977e-14
0000b0 22 5b 1b bd e6 7e dd 29 1d 3a 2a 3d ca 57 a0 26
       -0.037928708 9.836385e-14 0.041559327 1.1126026e-15
0000c0 34 18 e6 3c 9d 85 33 37 cc 17 0b 2c 01 9b 49 29
       0.028087713 1.0700341e-05 1.9766298e-12 4.476541e-14
0000d0 08 47 dd bc 6d 3a 50 bc 62 64 75 2a b0 48 5c 3d
       -0.02701141 -0.012709242 2.1795199e-13 0.053780258
0000e0 b2 7c f9 3a 2c e1 88 3d f6 5c 62 3d 22 41 75 bc
       0.0019034354 0.06683573 0.055264436 -0.014969142
0000f0 19 d1 82 3c 1f ca 3d 3c a9 91 a1 bc 7f 50 01 3d
       0.015968846 0.011583834 -0.019722776 0.031570908
000100 6b de 54 3d cd 8c ab b9 03 fa 53 bb 0c 27 60 3d
       0.051969927 -0.00032720566 -0.0032345064 0.054724738
000110 4b a0 4a 29 85 33 b7 ba 2e 79 c6 a9 83 9e 13 bd
       4.4992042e-14 -0.0013977146 -8.813988e-14 -0.03603984
000120 df b5 67 39 ad fe 97 3c 4a b4 af ba 03 1c 13 bd
       0.00022097629 0.018554056 -0.0013405171 -0.035915386
000130 8c c5 11 3c 2a 59 84 b9 25 53 bb 3c 12 ac 01 3d
       0.0088971965 -0.00025243434 0.022866795 0.03165824
000140 a5 7a 20 3d 4a 76 9b b9 71 a4 c7 bc b3 ef ee bc
       0.039179463 -0.00029652036 -0.024370404 -0.029167032
000150 37 8f 4b 3d 0c 26 71 3d 11 bb 7b 3b 32 bd 8a 3d
       0.049697127 0.058874175 0.003841106 0.067743674
000160 2f 87 9b 3c f8 c4 08 aa a1 be b4 aa 5d e5 c0 aa
       0.018985359 -1.2147564e-13 -3.2106698e-13 -3.4265204e-13
000170 d5 f1 1d 3c bf c6 35 bd b6 b2 1a 3b 61 38 7f 3d
       0.009640177 -0.044378992 0.0023605055 0.062309626
000180 07 6f 1c 2a cc 79 07 be e3 1d 12 2a 45 d0 a1 bd
       1.3894104e-13 -0.13230056 1.2977774e-13 -0.079010524
000190 9d 66 72 bb b6 6c 75 ba 2a 64 d1 bc 31 c0 a5 bd
       -0.0036987432 -0.00093622075 -0.025560457 -0.08093298
0001a0 dc ca 02 bd e0 e8 bd bc 6c c2 1b 3c bc a7 bb 3c
       -0.031931743 -0.023182333 0.009506803 0.02290713
0001b0 27 5b ab bc 88 22 7c 3d 5f e2 81 3c bd 8e 94 3b
       -0.020917488 0.06155637 0.015855012 0.0045336173
0001c0 d2 24 17 3d dc 54 04 a8 a5 1e 19 2a 03 5c 65 3c
       0.03690035 -7.345873e-15 1.3599762e-13 0.013998988
0001d0 8e 57 f6 3b c9 9b 81 b8 ff ae 45 bc 18 58 17 29
       0.0075177616 -6.1802166e-05 -0.012065648 3.3605144e-14
0001e0 ae 74 d2 bc 6c 17 33 3d 26 48 3f 3d b7 62 09 3a
       -0.025690403 0.04372351 0.046699665 0.0005240845
0001f0 cb 03 55 3d f4 6b a4 bc 6c 32 96 3c 70 f0 96 2a
       0.05200557 -0.020071007 0.01833459 2.681219e-13
000200 d5 1d 43 b5 5e 75 ec 28 b7 48 7e 3c 98 dd b3 3c
       -7.268657e-07 2.6252163e-14 0.015520266 0.02195625
000210 ee 12 60 3c bb d6 12 2a 54 c0 43 b9 6e 32 f0 b6
       0.013676388 1.3041905e-13 -0.00018668297 -7.158428e-06
000220 7b b7 3c 3d 8d 98 87 3c e7 4f 28 b9 7a 9e 7e a9
       0.046073418 0.016552234 -0.00016051494 -5.6536786e-14
000230 52 7e 7a bc 1f 58 fb bc 89 c8 a1 a9 dd 52 14 2a
       -0.015288906 -0.030681668 -7.1846236e-14 1.317379e-13
000240 4e e7 1d 3c 1d 64 d2 bc af 14 6f 29 80 7a 92 a8
       0.009637667 -0.025682503 5.30866e-14 -1.6262382e-14
000250 8a cc d3 ba e6 b8 b8 bc fb c2 8e 3d 04 ac cd 3c
       -0.001615898 -0.022549104 0.06970783 0.025106438
000260 49 bf 33 bc 94 0e 1a 3d 5b 50 07 3d 61 bf 11 bd
       -0.010970899 0.03761156 0.033035617 -0.035582904
000270 3d fe 3f bd e0 30 9f 3b 9d 4e b2 2a 2e ec e9 bc
       -0.04687332 0.0048581213 3.16737e-13 -0.028555002
000280 ca 7c 4e bc b5 b5 27 bc 9b 71 fb 3c 7c 2d 91 3d
       -0.012602994 -0.010236193 0.03069382 0.070887536
000290 2e bf 1b a8 c0 a6 d5 bc 25 5d b6 3c ba 9b 92 3d
       -8.645684e-15 -0.02608049 0.022261212 0.07158609
0002a0 ac 13 13 38 53 c2 18 b8 56 44 10 3d 08 0d ba 3c
       3.5065852e-05 -3.6420603e-05 0.03522142 0.022711292
0002b0 3f e3 83 39 d0 39 53 3d b7 7d 38 3c b7 2a 7a 3d
       0.0002515558 0.051568806 0.0112604415 0.061075892
0002c0 6c 40 fc bb 0d 1c f4 bb 11 9d 2c 3d 83 15 92 bc
       -0.0076981094 -0.007449633 0.042141978 -0.017832523
0002d0 c2 fc 3d bc 58 47 81 3d e0 80 df aa 55 29 43 2b
       -0.011595907 0.06312436 -3.9702183e-13 6.9335276e-13
0002e0 c2 87 f1 bd 95 79 c6 a8 47 62 bd 3c 89 73 da 3b
       -0.11793472 -2.2035144e-14 0.023118151 0.006666605
0002f0 aa cd 12 bd 2b 12 b6 a9 bc c6 18 bb f7 78 b5 bc
       -0.035840668 -8.085575e-14 -0.0023311814 -0.022152407
000300 35 1e 90 3d 57 9e f3 2a 23 37 89 3d 86 16 04 bd
       0.070370115 4.3275342e-13 0.066999696 -0.032248043
000310 96 06 4b 2b 4e 39 73 a9 54 f5 4f 3c c0 b9 13 29
       7.212923e-13 -5.4006543e-14 0.012692768 3.280167e-14
000320 49 a3 b9 a8 5c 52 60 3c ae 48 1b 3d bd 95 4c 34
       -2.060994e-14 0.013691511 0.03791111 1.9053455e-07
000330 be 96 e3 3c 4d 2b fb b6 0a d3 97 28 d2 e0 8b 3d
       0.02778184 -7.485424e-06 1.6855891e-14 0.068299904
000340 1a fc 35 3d 07 49 40 3c 2b 8c 06 a9 3b 70 84 37
       0.044429876 0.011736161 -2.9875553e-14 1.5787888e-05
000350 b2 a5 a8 ba 82 cc 5c b0 db 45 2e bc 06 5b b3 ba
       -0.0012866764 -8.0326157e-10 -0.010636772 -0.0013683743
000360 03 9c dc bc da a2 3a 3d b5 8b f3 3a 57 cb 4c 3d
       -0.026929861 0.045565464 0.0018581065 0.049998607
000370 a7 6e 59 3d 36 79 46 3b 3c 27 7f 3d a0 b9 13 a9
       0.053084042 0.003028465 0.062293276 -3.280156e-14
000380 0a bd b8 a9 0c 36 a1 3b 09 67 7b 3d 25 0d b5 a8
       -8.2040345e-14 0.004919773 0.06137756 -2.0100737e-14
000390 44 fb 66 bc 18 9b 58 3d 8e 3d 2f 3d 09 e7 f0 3c
       -0.014097992 0.052882284 0.042783312 0.029407041
0003a0 0c b1 68 bc 08 8d 7b 3d 14 c7 86 3d 1e da 26 3d
       -0.0142023675 0.061413795 0.0658094 0.040735357
0003b0 29 13 30 bb ec 45 0e 3d d7 bf 05 2a 7a 90 1f ba
       -0.002686689 0.03473465 1.1879331e-13 -0.00060868973
0003c0 44 fc 2c 3d 32 d3 1f 3d 62 e8 2e 3c 41 48 55 bc
       0.042232767 0.03901977 0.010675522 -0.013017715
0003d0 14 73 aa b9 c8 0a 98 3d c9 b9 8d bc 33 d9 70 3c
       -0.00032510667 0.07423931 -0.017300503 0.014700222
0003e0 c9 b1 3f 3d c3 ed 99 3c 93 cf 47 3c ab 66 08 28
       0.04680041 0.018790131 0.012195486 7.571779e-15
0003f0 48 1d 02 bd e1 af 41 3d fe 7b 85 3d d9 03 19 bc
       -0.031766206 0.04728687 0.0651779 -0.009339296

bias f4 [4]
000000 59 82 64 bc df 2e 3f bd d0 e1 4b 3d a3 79 27 bd
       -0.013947093 -0.04667556 0.0497759 -0.040887486

weight f4 [4, 8]
000000 fa 0e 45 3e 68 37 9f be c4 a3 aa 3e ee a2 e8 3d
       0.19243994 -0.3109696 0.33328068 0.11359201
000010 39 3e 5f 3c 0e 29 03 bd 43 5a e4 bd f8 d4 7e 3e
       0.013625675 -0.032021575 -0.111500286 0.24885929
000020 dc 91 82 be 4a ff ec 3d 13 b8 af be 19 02 3a 3e
       -0.25501907 0.1157213 -0.34320125 0.18164863
000030 bd 26 3d 3d 4b 4b d6 bd 2e 85 0f 3e 98 8a ef 3d
       0.04617952 -0.1046358 0.14015648 0.116963565
000040 6b 7d 53 be 06 c4 3b bd a9 65 fd bd b2 ba 93 3d
       -0.20653312 -0.04584124 -0.12372906 0.07213344
000050 0f f8 1d bd 47 1d e8 3d 1d 2b f2 3d 0c e6 da bd
       -0.038566645 0.11333709 0.118246295 -0.10688409
000060 8c c8 37 be d9 5f 64 3d 50 1b 4d be 56 ec fc bd
       -0.17947596 0.05575547 -0.2002995 -0.12349765
000070 00 3c a3 bc 2e 16 d4 3c 83 d8 1b 3d 66 12 8a b7
       -0.019926071 0.025889482 0.03804828 -1.645945e-05

bias f4 [4]
000000 0c 19 30 bc 0b 5c 0b 3e b3 57 e0 bc 40 f9 6e bd
       -0.010748159 0.1360933 -0.027385568 -0.058343172

weight f4 [4, 8]
000000 8f 4c 31 3b aa 2a 84 39 8c ce e0 b9 c3 54 17 bd
       0.002705369 0.0002520879 -0.000428785 -0.03694607
000010 6d aa e1 bc cd ec 41 bd a4 a2 40 bc ba 92 13 3c
       -0.027547086 -0.04734497 -0.011757527 0.00900715
000020 de 93 47 39 3e 5b 86 b3 f8 94 0b 31 35 f4 28 39
       0.00019033204 -6.256458e-08 2.031184e-09 0.00016112703
000030 47 95 36 bc 64 8d 2d bc 3d 2c e8 bc f6 a6 c8 36
       -0.011143989 -0.010592792 -0.028341407 5.9799013e-06
000040 02 c6 aa 3e 8b 34 49 3d d9 76 7d be 2d fd 73 3e
       0.33354193 0.049122375 -0.24752368 0.23827048
000050 5b fe a5 be 8d b8 7a 3e 93 7d 82 bd 4f 1b 7a bd
       -0.3242062 0.24484463 -0.06371608 -0.0610612
000060 33 91 8d bc 7d af ae ae 85 cd be bc ac 0c 0e 3b
       -0.01728115 -7.943777e-11 -0.023291359 0.0021675033
000070 d6 dd 5d 3a 44 d0 08 ba 01 25 61 37 09 08 2e 3b
       0.0008463537 -0.0005219022 1.3419661e-05 0.0026555082

bias f4 [4]
000000 0b d2 a7 ba 10 6b 2a 2e 44 60 b5 3d 79 46 9a bb
       -0.0012803687 3.8748615e-11 0.08856252 -0.004708108

weight f4 [10, 2]
000000 5f 2e 18 3f 11 8a eb 3e 17 f7 04 3f 3c 40 fe 3e
       0.59445757 0.46003774 0.5193953 0.49658382
000010 e6 af a9 3c 1b ce 17 3e c5 d5 43 3d dd 03 13 b0
       0.020713758 0.14824717 0.04781129 -5.348378e-10
000020 5e df 2e bf 13 32 f1 bd 51 3d 63 be 28 36 28 bf
       -0.6830958 -0.11777129 -0.22191359 -0.65707636
000030 4d f3 32 3f d2 d7 87 be b8 26 00 bf 26 73 81 be
       0.699025 -0.26531845 -0.5005908 -0.25283164
000040 a0 23 87 3d 7e 3c 48 be 25 04 82 3e da 4f 97 3d
       0.06598592 -0.19554326 0.25393787 0.07388277

bias f4 [10]
000000 47 56 d2 bd cc d8 1d 3f a0 bb c6 3e 0a bf 00 be
       -0.10270362 0.6165893 0.38815022 -0.12572876
000010 f1 7e b6 be cb 09 f4 be 5b 79 c8 3e af f7 c3 3e
       -0.35643724 -0.4766372 0.39155087 0.38274905
000020 da 4c 2e 3f 5e cf 81 bd
       0.68086016 -0.0633838

weight f4 [10, 2]
000000 6a f5 b0 3d 51 75 de ab 2e a1 ad 35 f8 5c 64 bd
       0.08640559 -1.5806611e-12 1.2936414e-06 -0.055752724
000010 54 98 e5 3d 5d c3 ec be 71 73 2f 3f ff 3b 60 be
       0.11210695 -0.462428 0.68535525 -0.21897887
000020 2e cc 09 be d1 dd d2 be 8f c2 85 be 01 33 92 be
       -0.13456795 -0.41184857 -0.26125 -0.28554538
000030 b1 92 23 be d7 01 71 bb 34 3b a7 a9 5f 83 52 3c
       -0.15973927 -0.0036774778 -7.42656e-14 0.012848704
000040 a9 2c f2 3e 6b 68 cc be bd 1f 01 bf 85 01 04 3f
       0.47299698 -0.39923415 -0.50439054 0.5156482

bias f4 [10]
000000 b6 6e 7b be 7a 21 fc bd 57 eb e8 be 29 90 8b be
       -0.24553952 -0.12311073 -0.4549205 -0.27258423
000010 de ac 11 3d d5 ee 88 bd 19 4d 71 be 3b ac 23 be
       0.03556525 -0.066861786 -0.23564567 -0.1598367
000020 da 5b 00 be 7e 9e aa be
       -0.12535039 -0.33324045

weight f4 [20, 4]
000000 b7 13 65 3d 73 93 f4 3e 04 70 49 be 66 88 f7 be
       0.055927005 0.47768745 -0.19671637 -0.4834625
000010 9a 07 a2 bd 0a 27 93 be a4 36 e0 3e 14 41 83 be
       -0.07911606 -0.28740722 0.43791687 -0.25635588
000020 b5 1d a4 be d3 79 5b bb 1b 5d 32 3e 01 ad e1 be
       -0.32053915 -0.003348936 0.1741833 -0.44077304
000030 e7 de 51 bb 8d 35 bb be 8a ab f0 bd a2 63 ff bd
       -0.003202373 -0.36564294 -0.117514685 -0.12470175
000040 b0 f8 a7 3e c8 4f e5 3d 15 96 81 3e 4d f7 c3 3e
       0.3280692 0.11196858 0.25309816 0.38274613
000050 07 79 2b be 8f e8 34 3e f8 76 5a 3e cc 0d d9 3e
       -0.16745387 0.17666839 0.21334445 0.4239334
000060 bd 45 29 bd cf 10 b4 3d d3 6b 2b 3e cf 99 1b 3c
       -0.041326273 0.087922685 0.1674035 0.00949712
000070 e9 42 f3 be dc b9 9d be 6b 79 bf bd 42 57 8e be
       -0.47511986 -0.30805862 -0.093493305 -0.27800947
000080 d7 5c b4 3e eb 8a 82 3e ce 47 7e 3e 9f 3e 72 3e
       0.3522708 0.2549661 0.24832079 0.236567
000090 80 78 df 3e af 39 8e 3e c1 7a c0 be 3d e5 e2 be
       0.43646622 0.27778384 -0.37593654 -0.4431552
0000a0 68 13 e0 3e f1 44 7f 3e 06 d2 de be 68 b9 ed be
       0.43764806 0.24928643 -0.4351961 -0.46430516
0000b0 2e cf 51 be 29 0f fa be a6 67 85 bd bc 7f d0 bd
       -0.20489189 -0.4883969 -0.0651391 -0.101806134
0000c0 ab 99 73 be ff 23 95 be ef 30 f9 be 83 5b bf bd
       -0.23789088 -0.29129025 -0.48670146 -0.09343626
0000d0 c5 2a 64 3e 35 64 37 be 61 e4 c3 3d 20 b2 dd 3e
       0.2228194 -0.1790932 0.09565044 0.4329996
0000e0 38 db 19 3e fc 17 84 be a6 bc f6 be c8 bc bf 3e
       0.15025032 -0.2579955 -0.48190802 0.37448716
0000f0 8f 83 bf be 00 5c 39 be 14 54 b6 3e 6e 6f f6 3c
       -0.3740506 -0.18101501 0.35611022 0.03008243
000100 d2 62 96 be 44 a2 ba 3e 71 d5 ab 3d e4 7a 47 3e
       -0.2937227 0.36451924 0.0839032 0.19480473
000110 d9 7d 80 be 7f ae 19 3e cb 46 4c be 91 e9 76 be
       -0.25096014 0.15007971 -0.1994888 -0.24112536
000120 fb 87 f3 bb 0f 92 de be b0 a8 ee 3e 29 5a 7b 3e
       -0.0074319816 -0.4347081 0.46613073 0.24546112
000130 c7 3e 3b be 67 72 30 3e 97 5a 00 3f 9e 5f ac 3d
       -0.18285666 0.17231141 0.5013823 0.08416675

bias f4 [20]
000000 03 17 1b 3d 80 ac c7 3e 9d 54 0d 3e a8 58 b6 3e
       0.037863743 0.38998795 0.13801809 0.35614514
000010 61 ab c1 be 99 5d 79 bd 9e 44 2c 3d ba fb a7 3e
       -0.37826064 -0.060880277 0.042057626 0.3280924
000020 04 55 f6 be f8 f2 7e 3d b8 97 f7 be 4b 43 cf be
       -0.48111737 0.06224343 -0.4835794 -0.40481028
000030 50 f5 df be 5b f1 6a 3e 15 2c 45 3d 5f 7b c2 3e
       -0.43741846 0.22943632 0.048137743 0.3798475
000040 bd 17 39 bc e6 72 03 be e5 88 ad 3d c4 ba 65 3e
       -0.011297164 -0.12836799 0.08473376 0.22434527
