RTSNet/new_architecture/linear/best-model_linear2x2rq3050T100.pt (torch, 139828 bytes, 70 tensors)

weight_ih_l0 f4 [12, 10]
0.4762747 0.3160552 0.04456361 0.4529897 -0.33418563 -0.37843943 -0.48274976 0.43787333
-0.31451616 0.26481786 -0.0021933538 0.32985625 0.24641055 -0.14340158 -0.22114947 -0.31638741
0.16043942 0.26020333 -0.4998186 -0.42621928 -0.33660865 -0.15455197 -0.09830679 -0.4679178
-0.041850593 -0.42233032 -0.13769224 -0.29900178 -0.4080499 -0.031802848 0.27405787 -0.3504108
-0.19762896 -0.19191538 0.32533094 0.026063168 -0.08558622 -0.06955264 0.053235527 0.4974118
0.29895145 0.092204966 -0.47438252 0.26110622 -0.28639913 -0.082376055 -0.04973645 0.44200823
0.39863956 -0.46586016 0.20806798 -0.24630508 0.26241702 -0.2410263 -0.045983844 -0.029695936
0.28611723 -0.44391778 0.3304348 0.467291 0.43721366 0.06274161 0.32876053 0.26434323
0.3427131 0.034213893 -0.2388271 0.028311925 -0.42369923 -0.45518014 0.46676704 -0.30797416
0.22440057 -0.22718064 0.25051922 0.44440913 -0.10231397 0.26064113 -0.032399997 -0.08461102
0.04061291 -0.030896245 -0.40560883 0.24536604 0.23213969 0.43313187 0.32589594 -0.012509254
0.32832274 -0.29874137 -0.36321273 0.2175262 -0.10467938 0.114642516 -0.15623997 -0.20592368
0.116188824 -0.4106714 -0.26874533 -0.37742993 -0.32536757 0.06001098 0.17111155 -0.055592127
-0.19657165 -0.14588985 0.46556297 0.049830638 0.35520363 -0.011691631 -0.34128544 -0.27997512
0.28722346 0.42066273 -0.08552615 0.02365451 -0.33361715 0.45288083 -0.2785076 0.45457894
00000000: 47da f33e fdd1 a13e 5588 363d 44ee e73e
00000010: 611a abbe d0c2 c1be fa2a f7be ef30 e03e
00000020: 4308 a1be 3596 873e 5fbe 0fbb ebe2 a83e
00000030: 0c53 7c3e ddd7 12be 0275 62be 88fd a1be
00000040: 3b4a 243e 5f39 853e 39e8 ffbe 6a39 dabe
00000050: f857 acbe df42 1ebe 1255 c9bd ec92 efbe
00000060: 876b 2bbd ae3b d8be 32ff 0cbe c316 99be
00000070: ebeb d0be b443 02bd 5051 8c3e 0b69 b3be
00000080: 3f5f 4abe 7785 44be c791 a63e 6d82 d53c
00000090: d447 afbd 9d71 8ebd 7f0d 5a3d c2ac fe3e
000000a0: 2a10 993e f5d5 bc3d 44e2 f2be b7af 853e
000000b0: e8a2 92be c7b4 a8bd 73b8 4bbd e74e e23e
000000c0: 7c1a cc3e 3985 eebe c60f 553e 6637 7cbe
000000d0: 865b 863e 99cf 76be 8e59 3cbd e444 f3bc
000000e0: f57d 923e 3149 e3be c02e a93e c440 ef3e
000000f0: 78da df3e ac7e 803d 4d53 a83e ff57 873e
00000100: 1778 af3e de23 0c3d 178f 74be 69ee e73c
00000110: 1bef d8be 5f0d e9be 17fc ee3e caae 9dbe
00000120: 43c9 653e 0ba2 68be 0e44 803e 9889 e33e
00000130: fd89 d1bd c172 853e dcb5 04bd 8b48 adbd
00000140: b959 263d 1f1a fdbc f6ab cfbe 3c41 7b3e
00000150: 07b6 6d3e 76c3 dd3e d5db a63e 9df3 4cbc
00000160: eb19 a83e a1f4 98be 05f7 b9be 30bf 5e3e
00000170: 2562 d6bd b2c9 ea3d 5ffd 1fbe a8dd 52be
00000180: 68f4 ed3d 8643 d2be fd98 89be 7f3e c1be
00000190: 9496 a6be 13ce 753d de37 2f3e 92b4 63bd
000001a0: 144a 49be 2664 15be 455e ee3e 361b 4c3d
000001b0: 40dd b53e 418e 3fbc f7bc aebe e658 8fbe
000001c0: f40e 933e 1b61 d73e 5628 afbd 1ac7 c13c
000001d0: decf aabe ffdf e73e 8c98 8ebe 92be e83e

weight_hh_l0 f4 [12, 4]
-0.48025626 0.04078061 -0.014111676 0.10951853 -0.2567429 -0.2744132 0.10664799 -0.41900614
0.12744495 -0.10324378 0.11041342 0.2840046 0.21840361 -0.36891386 -0.44818255 -0.30811214
-0.13842383 -0.31628397 0.052407853 0.37474802 0.40859696 0.28409722 0.41019908 0.36248094
-0.08982229 -0.040025145 0.18156642 0.004287562 -0.13666414 -0.20154417 0.26864928 -0.015535881
-0.13463554 0.34879315 -0.043297075 -0.26908705 -0.068509646 0.16040711 0.2513951 -0.5041577
-0.033439193 0.19146356 0.33296412 0.04561318 -0.26488373 0.06291594 -0.24372265 -0.16141172
00000000: 26e4 f5be 9209 273d a934 67bc 404b e03d
00000010: ce73 83be e37f 8cbe 436a da3d f987 d6be
00000020: ee80 023e 7a71 d3bd 6e20 e23d 0d69 913e
00000030: 32a5 5f3e 47e2 bcbe 2f78 e5be e0c0 9dbe
00000040: fabe 0dbe f9ef a1be 9ea9 563d f9de bf3e
00000050: 9f33 d13e 3175 913e 9d05 d23e 1a97 b93e
00000060: c0f4 b7bd 68f1 23bd 8cec 393e ad7e 8c3b
00000070: aff1 0bbe 9861 4ebe 668c 893e 358a 7ebc
00000080: e6dd 09be 0495 b23e 4658 31bd c7c5 89be
00000090: c94e 8cbd c341 243e dcb6 803e 7b10 01bf
000000a0: 89f7 08bd 060f 443e 467a aa3e e3d4 3a3d
000000b0: d79e 87be 13da 803d 6e92 79be 1d49 25be

bias_ih_l0 f4 [12]
0.19559507 0.033243913 -0.3327283 0.3024451 -0.31341928 -0.38468224 0.3776494 0.34181458
-0.22104831 -0.29035562 -0.33729252 -0.16683093
00000000: 134a 483e c52a 083d 5d5b aabe 16da 9a3e
00000010: 7e78 a0be 12f5 c4be 435b c13e 5202 af3e
00000020: 7d5a 62be 7ea9 94be 9bb1 acbe bad5 2abe

bias_hh_l0 f4 [12]
-0.11996116 0.09168624 -0.22607204 -0.24528006 -0.35842976 0.37734386 -0.39413124 0.16097744
0.30597657 -0.13821527 0.2738298 0.19050115
00000000: 32ae f5bd ffc5 bb3d 6e7f 67be b22a 7bbe
00000010: 1b84 b7be 3733 c13e 92cb c9be 45d7 243e
00000020: f6a8 9c3e 4e88 0dbe 6b33 8c3e bc12 433e

weight_ih_l0 f4 [12, 14]
0.39181167 -0.4383124 -0.18289718 -0.10471426 0.27257523 -0.23005985 0.32900208 -0.42156237
-0.24085492 0.15652916 -0.4321382 0.26064354 -0.063471206 0.4535106 0.3894608 0.1546297
-0.20426378 -0.34863257 0.3704244 -0.11310428 0.0036854763 -0.102429435 0.26590326 0.41296244
-0.1431021 0.48719755 0.04389907 -0.14019385 -0.38417166 0.05999271 0.42524827 -0.4305741
0.32749945 0.33609623 -0.28500378 0.21242146 0.07006682 0.33752513 0.25764745 -0.43907067
0.26461938 0.31646612 0.2437762 -0.14493354 -0.39403373 0.32598686 0.40653184 -0.064455666
-0.10852106 0.42720914 -0.46840492 -0.3175736 0.32238564 -0.019395681 0.020143626 -0.38891017
-0.44074464 -0.37891433 0.067251965 0.22788309 0.47528836 0.20819949 -0.28009912 -0.058429204
-0.09055158 0.2893729 0.45531437 0.40563396 0.46901855 -0.26716653 -0.38018894 -0.32241333
0.369057 0.0782679 -0.32273328 -0.19484667 -0.14503261 0.21031785 -0.36801258 -0.27105013
-0.301526 0.011590152 0.1832537 -0.038221363 0.260378 -0.3613013 0.3239927 -0.30282804
0.11492816 0.4748415 -0.13498476 0.24578401 0.16042875 -0.20787632 0.44345334 0.001368771
-0.43456197 0.39948457 0.016296424 0.29892442 0.11376047 0.2985741 -0.07876087 -0.39636344
0.12725483 0.4407465 -0.12091561 0.48323137 0.05967476 0.14534582 -0.31186575 0.056255665
0.11107439 -0.2488366 0.4445423 -0.03548938 -0.20077856 -0.12201681 0.0010436196 0.44127223
0.38577873 0.3419157 -0.17991382 -0.37752667 -0.4115359 -0.19535929 -0.14318487 -0.4276545
0.11346361 0.075663835 -0.4001289 -0.3007411 0.3279357 -0.31227332 0.18868133 0.116128035
0.26456243 -0.3630962 -0.21220595 0.13399275 0.3908584 -0.1329972 0.35799092 -0.025025457
0.3523411 -0.015869338 -0.40121907 0.24564618 0.30304655 -0.1649613 -0.32947165 -0.1449159
0.29045558 0.1287363 0.41079912 -0.4166625 0.2246311 -0.26411685 0.4327498 0.09399188
-0.3417747 -0.10269719 -0.3287326 0.24513133 0.3932257 0.014312459 -0.012462806 0.38397104
00000000: 8a9b c83e 7c6a e0be 6649 3bbe 6e74 d6bd
00000010: fb8e 8b3e cf94 6bbe f672 a83e 06d7 d7be
00000020: aca2 76be 2e49 203e 3841 ddbe 1273 853e
00000030: 31fd 81bd 8b32 e83e 6867 c73e 4057 1e3e
00000040: 862a 51be f87f b2be 44a8 bd3e 37a3 e7bd
00000050: 0888 713b 86c6 d1bd 7924 883e d06f d33e
00000060: 5b89 12be f571 f93e 83cf 333d fa8e 0fbe
00000070: 26b2 c4be eaba 753d 24ba d93e 3574 dcbe
00000080: 02ae a73e ce14 ac3e 04ec 91be 0385 593e
00000090: 317f 8f3d 18d0 ac3e 5eea 833e dfcd e0be
000000a0: 317c 873e d907 a23e 78a0 793e 7569 14be
000000b0: cabe c9be c0e7 a63e f124 d03e 5501 84bd
000000c0: 4a40 debd 28bb da3e c5d2 efbe 0299 a2be
000000d0: bb0f a53e b1e3 9ebc 3f04 a53c 3c1f c7be
000000e0: 48a9 e1be 0f01 c2be 66bb 893d 2f5a 693e
000000f0: ff58 f33e 3f32 553e 2769 8fbe 7653 6fbd
00000100: 1b73 b9bd af28 943e f71e e93e 41af cf3e
00000110: 3323 f03e 0dca 88be 20a8 c2be 5c13 a5be
00000120: 0af5 bc3e ec4a a03d 4c3d a5be e385 47be
00000130: 6e83 14be 905d 573e 256c bcbe 15c7 8abe
00000140: 9e61 9abe 9fe4 3d3c dca6 3b3e 018e 1cbd
00000150: 4450 853e 7cfc b8be 5fe2 a53e 470c 9bbe
00000160: 755f eb3d 6d1e f33e 7239 0abe ceae 7b3e
00000170: 6f47 243e 88dd 54be 510c e33e 5568 b33a
00000180: e87e debe 3e89 cc3e 1480 853c 9f0c 993e
00000190: 40fb e83d b4de 983e 614d a1bd 26f0 cabe
000001a0: 174f 023e 86a9 e13e 9aa2 f7bd 1a6a f73e
000001b0: 856d 743d 89d5 143e deac 9fbe 576c 663d
000001c0: f87a e33d 06cf 7ebe 0c9b e33e 505d 11bd
000001d0: e598 4dbe f3e3 f9bd 10ca 883a 6fee e13e
000001e0: ca84 c53e 930f af3e 543b 38be 2d4b c1be
000001f0: d5b4 d2be 440c 48be 0e9f 12be 88f5 dabe
00000200: 9c5f e83d a4f5 9a3d b2dd ccbe bdfa 99be
00000210: 30e7 a73e 4ae2 9fbe ae35 413e 89d4 ed3d
00000220: ba74 873e bfe7 b9be 844c 59be 6535 093e
00000230: 981e c83e 6b30 08be 964a b73e 3002 cdbc
00000240: 0d66 b43e 6a00 82bc 966c cdbe ac8a 7b3e
00000250: eb28 9b3e 9deb 28be 82b0 a8be d564 14be
00000260: 98b6 943e 73d3 033e 4354 d23e ca54 d5be
00000270: b205 663e 533a 87be 6291 dd3e d17e c03d
00000280: 18fd aebe e852 d2bd a44f a8be b503 7b3e
00000290: e154 c93e ce7e 6a3c cc30 4cbc da97 c43e

weight_hh_l0 f4 [12, 4]
0.008619348 0.32780713 -0.24944334 -0.13876118 -0.46491113 -0.42858532 0.35900307 -0.0063111037
0.42760316 0.421488 -0.014244145 0.021397581 -0.087249905 -0.23425952 0.07126105 -0.07431152
0.07800437 0.028396526 -0.43288958 -0.31362587 -0.39632204 0.23075373 0.33958438 -0.20779216
0.26207402 -0.026581783 -0.44706595 0.46377683 0.061057556 0.37189463 -0.09657397 -0.35019395
-0.25666937 0.07356281 -0.31777385 0.48303422 0.37185243 -0.15034595 -0.327573 -0.4750331
0.46958768 -0.23977514 -0.090651296 -0.41706568 0.2493824 0.26360056 -0.2720574 0.38907516
00000000: 2a38 0d3c 56d6 a73e 136e 7fbe 6917 0ebe
00000010: d508 eebe 896f dbbe 40cf b73e 60cd cebb
00000020: cdee da3e 46cd d73e 4660 69bc fb49 af3c
00000030: 14b0 b2bd bae1 6fbe 50f1 913d a330 98bd
00000040: c1c0 9f3d d59f e83c b4a3 ddbe 9293 a0be
00000050: b9ea cabe b54a 6c3e 01de ad3e 78c7 54be
00000060: 912e 863e 0ac2 d9bc d4e5 e4be 2874 ed3e
00000070: 7d17 7a3d f968 be3e 93c8 c5bd 9f4c b3be
00000080: 2b6a 83be 19a8 963d 41b3 a2be 4350 f73e
00000090: 7163 be3e 4af4 19be a6b7 a7be 8a37 f3be
000000a0: cc6d f03e 9d87 75be 63a7 b9bd a289 d5be
000000b0: 1a5e 7f3e a7f6 863e 1c4b 8bbe dc34 c73e

bias_ih_l0 f4 [12]
0.3250202 0.2797491 0.23950563 0.28383797 0.47008255 -0.25419992 -0.43568 0.38140574
0.40452117 -0.3062412 -0.0751567 -0.27214438
00000000: 0c69 a63e 463b 8f3e f740 753e 3653 913e
00000010: a9ae f03e 7e26 82be 7311 dfbe 9d47 c33e
00000020: 661d cf3e a6cb 9cbe c2eb 99bd 8256 8bbe

bias_hh_l0 f4 [12]
-0.024804069 0.10987689 0.3008338 0.42274502 0.060556866 -0.012275893 0.15465054 -0.22282961
0.14883022 0.42430696 -0.18093333 -0.047671456
00000000: e731 cbbc 2307 e13d e306 9a3e 0972 d83e
00000010: 7a0a 783d d420 49bc b65c 1e3e 722d 64be
00000020: f366 183e c33e d93e 9646 39be 2543 43bd

weight_ih_l0 f4 [12, 24]
-0.16462952 -0.43688348 0.26277286 0.48623177 -0.33454573 -0.07838259 -0.07757492 -0.061652433
0.4951464 -0.46206722 0.37512946 0.06286855 0.26600847 0.2874515 -0.01198002 0.34300017
-0.1941264 0.41554856 0.09414992 0.18300691 0.16305786 0.47486562 0.077589445 0.3213491
0.22973844 -0.057399902 0.07866789 0.2839912 0.014721143 -0.36964685 0.19276583 0.24612245
0.1748119 -0.08449152 -0.4245218 -0.23272991 0.10807745 0.29402405 0.105285496 0.4428306
0.15249175 0.20917402 0.29159728 -0.029115306 0.36994618 0.14211072 -0.2486717 -0.23611426
0.37584788 -0.111555465 -0.43686292 -0.3845858 0.44598338 -0.2621379 -0.04581518 -0.31351385
0.17276682 0.36996797 -0.18454176 0.06575834 -0.24033794 0.22498725 0.2621301 0.25595343
0.42921847 0.28029487 0.36310124 0.10190139 0.28534615 0.23122992 0.34487665 0.31190038
0.49440363 -0.39901277 -0.1381409 -0.12506282 0.12035425 0.38254088 -0.17411664 -0.25825283
0.0912247 -0.014211834 0.45041305 -0.02817172 0.36339173 -0.46845022 0.17473142 -0.4479199
-0.42934716 -0.12891358 -0.071029276 0.28418475 -0.31952557 -0.15053116 -0.108260594 0.46435323
-0.2333568 0.48054975 -0.15826266 0.037071522 -0.26442635 -0.07230045 0.19203632 0.25544247
0.08204932 -0.16828956 0.50606585 -0.030175159 -0.39476472 -0.4844867 0.11461659 -0.30115765
-0.28713924 -0.27530184 0.4878515 -0.13368315 -0.099990495 0.14035252 -0.27259108 -0.3458224
-0.12696423 -0.4993906 -0.024813786 0.08567806 0.10129585 0.023997767 0.12732571 0.17469682
0.06988476 -0.15528375 0.38586167 -0.16416042 -0.099127084 0.24087079 0.013399394 -0.34416908
0.46729428 -0.29134643 0.062256414 0.46137536 0.40041563 0.145946 -0.06174658 0.27312255
0.024279233 0.2164048 0.2110941 0.19649966 -0.35103792 -0.014223553 0.16234422 0.4432916
0.19895096 -0.32388663 -0.050106246 0.28048715 0.18154703 -0.3365184 -0.35549328 0.11334921
-0.44784206 0.19944683 0.3932576 0.22401533 -0.03857318 -0.20667678 0.35448045 0.19971554
0.15970996 0.20033777 -0.1937556 -0.36611795 -0.44999313 -0.3287872 -0.07985075 -0.24478142
-0.27669606 -0.44748512 0.2122446 0.4687714 -0.08236685 -0.41762486 0.041410677 0.39129445
0.25660053 0.3468709 -0.42876032 0.06072577 -0.4014148 0.094475225 -0.22583878 0.18136483
-0.48640537 -0.398126 -0.01318711 -0.004435467 0.17090456 0.15284795 -0.15392855 -0.4293668
0.27579454 -0.0041185915 0.16214852 0.20683777 -0.413278 -0.45065364 0.13111164 0.21520366
0.46157214 0.44791293 0.12620291 0.05146387 0.0992159 0.2503132 0.24319893 -0.22803994
0.10264656 -0.010825241 0.18787688 -0.031205803 -0.45622045 0.10563329 0.48846206 0.39865774
-0.34640637 0.48625872 -0.0005177417 0.11157293 0.22784865 -0.40514925 -0.4343986 0.35788095
0.4179305 0.11510147 -0.2456686 -0.29713377 0.31487307 0.19210432 0.11948443 0.2736282
0.4060479 -0.3066131 0.37692755 0.31178194 -0.009399209 -0.054700997 0.42562017 -0.38904893
0.049083762 -0.32876363 -0.49195245 0.22628276 0.056538384 0.17291084 0.11131464 -0.21420345
00000000: a494 28be 31af dfbe 2a8a 863e 5ff3 f83e
00000010: 9449 abbe 0d87 a0bd 9adf 9ebd 4387 7cbd
00000020: d483 fd3e 1394 ecbe f810 c03e 3ac1 803d
00000030: 4332 883e d82c 933e d947 44bc b89d af3e
00000040: 12c9 46be c8c2 d43e acd1 c03d 2a66 3b3e
00000050: a4f8 263e 9621 f33e 37e7 9e3d df87 a43e
00000060: 8e40 6b3e 291c 6bbd a11c a13d 4b67 913e
00000070: f330 713c 5a42 bdbe 6864 453e 8607 7c3e
00000080: e401 333e e409 adbd ec5a d9be c050 6ebe
00000090: b657 dd3d 528a 963e ec9f d73d b1ba e23e
000000a0: cc26 1c3e b731 563e 3d4c 953e 3983 eebc
000000b0: 9669 bd3e 7985 113e cba3 7ebe f0c7 71be
000000c0: 226f c03e 3177 e4bd 7fac dfbe 6ee8 c4be
000000d0: ef57 e43e f036 86be b3a8 3bbd e384 a0be
000000e0: c9e9 303e 716c bd3e 84f8 3cbe 4fac 863d
000000f0: 261b 76be 0f63 663e eb35 863e 540c 833e
00000100: 86c2 db3e cf82 8f3e 68e8 b93e adb1 d03d
00000110: e418 923e 89c7 6c3e ac93 b03e 68b1 9f3e
00000120: 7922 fd3e 674b ccbe cf74 0dbe 7810 00be
00000130: 4a7c f63d 66dc c33e a24b 32be b739 84be
00000140: 04d4 ba3d c1d8 68bc 8a9c e63e 61c8 e6bc
00000150: 7b0e ba3e b5d8 efbe cbec 323e c255 e5be
00000160: 64d3 dbbe ec01 04be cc77 91bd aa80 913e
00000170: db98 a3be d724 1abe bbb7 ddbd b5bf ed3e
00000180: 16f5 6ebe 9e0a f63e 9b0f 22be 4fd8 173d
00000190: e462 87be 4212 94bd 2ba5 443e 5bc9 823e
000001a0: 7909 a83d 1954 2cbe 888d 013f e531 f7bc
000001b0: 9a1e cabe a40e f8be 1abc ea3d 5631 9abe
000001c0: ea03 93be 5df4 8cbe acc7 f93e 3ce4 08be
000001d0: d1c7 ccbd 92b8 0f3e 0f91 8bbe a20f b1be
000001e0: e902 02be 20b0 ffbe 4846 cbbc fb77 af3d
000001f0: 3374 cf3d f796 c43c ac61 023e b9e3 323e
00000200: be1f 8f3d b402 1fbe a98f c53e ab19 28be
00000210: 2403 cbbd d5a6 763e 2289 5b3c ee36 b0be
00000220: 3241 ef3e 5c2b 95be 9500 7f3d 6439 ec3e
00000230: 4703 cd3e de72 153e fbe9 7cbd b8d6 8b3e
00000240: 3ee5 c63c 3899 5d3e 0d29 583e 3537 493e
00000250: 3ebb b3be e809 69bc 903d 263e 1ef7 e23e
00000260: cdb9 4b3e 78d4 a5be 353c 4dbd 039c 8f3e
00000270: 77e7 393e 244c acbe 3703 b6be a123 e83d
00000280: 8e4b e5be ca3b 4c3e 0f59 c93e 4664 653e
00000290: e9fe 1dbd 14a3 53be 767e b53e 3b82 4c3e
000002a0: 028b 233e 5825 4d3e de67 46be d073 bbbe
000002b0: 8065 e6be cc56 a8be ca88 a3bd fba7 7abe
000002c0: 1bab 8dbe c51c e5be a656 593e ce02 f03e
000002d0: f3af a8bd edd2 d5be 3e9e 293d bf57 c83e
000002e0: 2561 833e 1099 b13e 7986 dbbe 96bb 783d
000002f0: 3e86 cdbe 3a7c c13d 4842 67be b4b7 393e
00000300: 200a f9be 2cd7 cbbe c00e 58bc 6557 91bb
00000310: 9b01 2f3e 2c84 1c3e 729f 1dbe f7d5 dbbe
00000320: f134 8d3e 40f5 86bb 430a 263e 48cd 533e
00000330: 2d99 d3be 13bc e6be 2142 063e 595e 5c3e
00000340: 2f53 ec3e d854 e53e 563b 013e c7cb 523d
00000350: b531 cb3d 0d29 803e 2409 793e 4d83 69be
00000360: 5c38 d23d 5a5c 31bc cc62 403e 50a3 ffbc
00000370: ba95 e9be 4456 d83d b317 fa3e de1c cc3e
00000380: 2d5c b1be e7f6 f83e 0fb9 07ba 5980 e43d
00000390: 2851 693e b96f cfbe 7e69 debe 2c3c b73e
000003a0: fdfa d53e 52ba eb3d 8d90 7bbe eb21 98be
000003b0: 0b37 a13e ffb6 443e 41b4 f43d ff18 8c3e
000003c0: 83e5 cf3e 64fc 9cbe a6fc c03e e2a1 9f3e
000003d0: 24ff 19bc 270e 60bd e3ea d93e 6c31 c7be
000003e0: 0e0c 493d b553 a8be 31e1 fbbe abb6 673e
000003f0: cb94 673d 8a0f 313e eef8 e33d 2658 5bbe

weight_hh_l0 f4 [12, 4]
-0.4281986 -0.04907821 -0.41446 0.06750581 -0.056421164 0.40847328 0.10874458 0.014344213
-0.14872853 -0.44814777 -0.029988645 -0.34691042 0.085156314 0.11845147 -0.4051767 -0.03634925
0.19866903 0.2060086 0.090593114 -0.044927355 -0.11802275 0.20445623 0.05658771 -0.19942825
0.33258483 0.44289848 -0.31187752 0.029406713 -0.054887857 0.0382382 0.5022579 0.21213295
0.35642883 0.4335309 0.30008233 0.21900381 -0.49074155 0.12286392 -0.38502014 0.2703282
-0.47495377 0.1387855 -0.13890594 0.08384918 -0.2321789 0.31092408 -0.19576739 -0.42687783
00000000: d93c dbbe 3c06 49bd 1a34 d4be 7c40 8a3d
00000010: e119 67bd 6923 d13e 7ab5 de3d fd03 6b3c
00000020: 4b4c 18be a073 e5be bfaa f5bc 3e9e b1be
00000030: 6f66 ae3d af96 f23d 5273 cfbe f3e2 14bd
00000040: e56f 4b3e ebf3 523e e288 b93d bf05 38bd
00000050: e9b5 f1bd f95c 513e 84c8 673d eb36 4cbe
00000060: 8f48 aa3e 97c3 e23e 69ae 9fbe 59e6 f03c
00000070: 17d2 60bd a99f 1c3d f993 003f 6139 593e
00000080: d77d b63e c3f7 dd3e 64a4 993e 8942 603e
00000090: 7a42 fbbe 14a0 fb3d 5c21 c5be 7568 8a3e
000000a0: 242d f3be c91d 0e3e 5c3d 0ebe 1eb9 ab3d
000000b0: 4ec0 6dbe 7131 9f3e 3f77 48be bb8f dabe

bias_ih_l0 f4 [12]
-0.124916896 0.23642592 0.12165864 -0.2933505 -0.35024875 -0.3410946 0.3259739 0.0019417009
-0.31533995 0.45835662 0.3978825 -0.054894537
00000000: 6ed4 ffbd a319 723e 2a28 f93d 0932 96be
00000010: ce53 b3be f4a3 aebe 0de6 a63e ac80 fe3a
00000020: 3d74 a1be b8ad ea3e 41b7 cb3e 18d9 60bd

bias_hh_l0 f4 [12]
-0.47500902 -0.12126786 0.4331039 0.18535541 -0.24029642 0.47150898 0.36453483 -0.075547054
0.15028195 -0.15865844 0.3000805 -0.26179036
00000000: 6234 f3be 495b f8bd cbbf dd3e cfcd 3d3e
00000010: 4410 76be a069 f13e 4fa4 ba3e 6ab8 9abd
00000020: 83e3 193e 5c77 22be 27a4 993e 6309 86be

weight f4 [4, 4]
-0.380019 0.41203654 -0.46406356 0.18540186 0.25582635 -0.47931936 -0.3107105 0.31406546
-0.16319482 0.113151126 -0.27283454 -0.48316145 0.09142229 0.39821473 0.32040316 -0.36810446
00000000: da91 c2be 74f6 d23e bd99 edbe fcd9 3d3e
00000010: acfb 823e 5969 f5be 7215 9fbe 30cd a03e
00000020: 8b1c 27be c7bb e73d f8b0 8bbe f060 f7be
00000030: 9c3b bb3d cde2 cb3e e20b a43e 3078 bcbe

bias f4 [4]
0.37152815 0.40488547 -0.2975086 -0.4066464
00000000: f038 be3e 264d cf3e 0c53 98be f533 d0be

weight f4 [320, 8]
-0.32072294 -0.10184795 0.20300607 -0.19348955 -0.25571814 0.11333786 0.275243 0.042488206
0.11188514 0.3277214 -0.01180753 -0.1394976 -0.010301483 0.21830435 0.33311588 0.32832083
-0.1611327 -0.3277508 0.2398881 -0.30978903 0.14525163 -0.31890023 0.23621823 -0.07947252
0.14106631 -0.3510644 -0.13299607 0.04697032 -0.15289688 -0.20232375 0.1110261 0.3131416
0.2188702 -0.31548852 -0.33877248 0.25083673 -0.083273835 -0.20392698 0.16076313 0.18608372
-0.28743684 -0.33910465 -0.21469845 0.13982685 -0.12213295 -0.13530624 -0.12515545 -0.34095064
0.18428583 0.118450016 -0.05451817 -0.111243434 -0.3621221 0.26058334 0.09499645 0.30900162
0.2808403 0.34578374 0.07638238 0.30840096 0.028144574 -0.30218753 -0.0783629 -0.0136162955
-0.01246736 -0.029407911 -0.15438324 -0.24981213 0.25587252 0.044415195 0.26904425 -0.33438694
0.2537213 0.11013334 0.10083535 -0.25446853 -0.32338387 0.26335648 -0.18558072 0.30838054
-0.14881344 -0.21041825 -0.06992396 -0.21681339 0.25100577 0.00028936958 -0.28311908 -0.07634887
0.34702307 0.19604582 -0.092048936 0.18977417 -0.24678157 0.2783115 0.3044599 0.03496784
0.3285952 0.034581587 0.26014557 0.09410204 -0.31094027 0.322844 -0.16035388 0.036325898
0.25945118 -0.3608567 -0.06796046 -0.07414527 0.0773158 0.11617543 -0.1968734 -0.29395935
0.27469492 0.05112397 -0.19704932 0.15790346 0.046581298 0.31398314 0.20179091 0.34350428
0.18354562 0.21639253 -0.035582993 0.07928729 -0.05831169 0.009952555 -0.15300658 0.10758274
-0.19613476 -0.22888885 -0.14594212 -0.087514006 0.16547056 0.10645499 -0.03463272 0.15482324
0.26304588 0.14374013 0.020794384 -0.14621976 -0.3336175 0.30558005 -0.13929771 0.11683472
0.19582029 -0.23822908 0.34736097 -0.10948624 -0.19477169 0.33091426 -0.029259318 -0.24000938
0.18501934 0.34694546 0.26111186 -0.19867459 0.26599798 0.3241494 -0.20094842 0.17699711
0.31653175 0.21799205 0.018978918 0.17517516 -0.096251905 0.31107643 0.13705982 -0.25597426
0.2903247 -0.28718343 -0.31570628 0.07689714 0.30202478 -0.16656905 0.24004644 -0.09479187
0.24106745 -0.18613198 0.20036308 -0.04343192 0.0763766 0.13595626 -0.14494759 -0.067334615
-0.13607976 -0.23859988 0.3134809 0.21992381 0.048106194 0.25043815 -0.3235885 -0.03086227
0.29341936 -0.0665019 -0.22870682 0.004612633 0.2690509 0.24128926 -0.314862 -0.06765518
-0.13534757 0.29625192 0.26568988 0.22312273 -0.041216217 0.34643844 -0.07236967 0.20645967
-0.19568247 0.1363706 0.15693681 -0.3428024 0.02885602 -0.18045516 0.15306483 0.29577026
0.20296593 0.10249854 0.3233759 -0.26639068 0.28168756 -0.18315963 -0.13637017 0.045879804
0.3081793 -0.17480128 0.016492259 0.08651958 -0.0230706 -0.04899962 -0.27794448 -0.13199227
0.049523994 -0.12211308 -0.30456254 -0.32256708 0.2745981 0.18784848 0.29026166 0.22971644
0.14456987 -0.28281647 -0.08940228 -0.2680832 0.14263396 -0.24061438 0.38633502 -0.15707752
-0.25262994 -0.3222927 -0.14566937 -0.24741726 0.30513024 0.027738122 -0.12755987 -0.24989165
00000000: cc35 a4be a895 d0bd d3e0 4f3e 2022 46be
00000010: 7ded 82be ae1d e83d a7ec 8c3e 1d08 2e3d
00000020: 0924 e53d 19cb a73e 5f74 41bc 75d8 0ebe
00000030: 8dc7 28bc 2d8b 5f3e 2a8e aa3e ab19 a83e
00000040: f8ff 24be f4ce a7be 3aa5 753e ab9c 9ebe
00000050: d8bc 143e e446 a3be 31e3 713e 7dc2 a2bd
00000060: b073 103e b7be b3be 1f30 08be f363 403d
00000070: 0091 1cbe f52d 4fbe a761 e33d 1954 a03e
00000080: 821f 603e b687 a1be 9673 adbe ac6d 803e
00000090: 798b aabd 3cd2 50be 179f 243e bb8c 3e3e
000000a0: ec2a 93be 209f adbe e9d9 5bbe c52e 0f3e
000000b0: d720 fabd b88d 0abe c028 00be 1591 aebe
000000c0: 6db5 3c3e ec95 f23d 724e 5fbd 99d3 e3bd
000000d0: 1168 b9be 2e6b 853e 808d c23d 7635 9e3e
000000e0: 4dca 8f3e 910a b13e 5e6e 9c3d bbe6 9d3e
000000f0: 738f e63c 53b8 9abe ba7c a0bd e216 5fbc
00000100: e643 4cbc dce8 f0bc a416 1ebe c0ce 7fbe
00000110: b901 833e b5ec 353d 2bc0 893e c434 abbe
00000120: c2e7 813e 978d e13d c482 ce3d b349 82be
00000130: 9292 a5be a9d6 863e df08 3ebe 0ee4 9d3e
00000140: 8d62 18be e277 57be 4b34 8fbd 5404 5ebe
00000150: d483 803e 87b6 9739 fcf4 90be cc5c 9cbd
00000160: 02ad b13e 3cc0 483e 2784 bcbd 2954 423e
00000170: 4fb4 7cbe d87e 8e3e 2be2 9b3e 703a 0f3d
00000180: a13d a83e 6ca5 0d3d cd31 853e 92b8 c03d
00000190: 9033 9fbe cf4b a53e cf33 24be 77ca 143d
000001a0: c9d6 843e 36c2 b8be db2e 8bbd 7ad9 97bd
000001b0: bf57 9e3d 62ed ed3d 2e99 49be d781 96be
000001c0: d0a4 8c3e 5e67 513d 4cc7 49be 72b1 213e
000001d0: 08cc 3e3d 66c2 a03e 47a2 4e3e cbdf af3e
000001e0: 62f3 3b3e 0196 5d3e 79bf 11bd 6061 a23d
000001f0: 3dd8 6ebd 0b10 233c c2ad 1cbe 5754 dc3d
00000200: 8dd7 48be d761 6abe da71 15be 8b3a b3bd
00000210: 1d71 293e 1305 da3d 0adb 0dbd fc89 1e3e
00000220: f3ad 863e 9d30 133e fc58 aa3c a2ba 15be
00000230: eacf aabe fd74 9c3e 0fa4 0ebe 0b47 ef3d
00000240: 1d85 483e 53f2 73be 4cd9 b13e 523a e0bd
00000250: 3b72 47be 986d a93e 3db1 efbc 05c5 75be
00000260: b675 3d3e d6a2 b13e 74b0 853e 5a71 4bbe
00000270: e330 883e e9f6 a53e 6cc5 4dbe bb3e 353e
00000280: 7310 a23e 4f39 5f3e ad79 9b3c 1e61 333e
00000290: b81f c5bd 6945 9f3e 6959 0c3e 0f0f 83be
000002a0: 70a5 943e b509 93be 41a4 a1be 3f7c 9d3d
000002b0: fea2 9a3e 1491 2abe bcce 753e 3d22 c2bd
000002c0: 63da 763e 6299 3ebe fb2b 4d3e abe5 31bd
000002d0: 566b 9c3d 1e38 0b3e 246d 14be bbe6 89bd
000002e0: 7e58 0bbe 8753 74be 9280 a03e b533 613e
000002f0: 000b 453d 6e39 803e 64ad a5be dfd2 fcbc
00000300: 103b 963e 2632 88bd 1f32 6abe 9225 973b
00000310: 0ac1 893e 8814 773e 9835 a1be cd8e 8abd
00000320: 8e98 0abe 55ae 973e 8108 883e 497a 643e
00000330: 56d2 28bd 6160 b13e 8d36 94bd 2a6a 533e
00000340: fc60 48be bca4 0b3e 0bb4 203e cc83 afbe
00000350: 7663 ec3c 3dc9 38be 07bd 1c3e 336f 973e
00000360: 4dd6 4f3e c1ea d13d 8791 a53e 5c64 88be
00000370: 5a39 903e 338e 3bbe 9fa4 0bbe 76ec 3b3d
00000380: adc9 9d3e 1bff 32be c61a 873c 2d31 b13d
00000390: 8efe bcbc d3b3 48bd bd4e 8ebe fb28 07be
000003a0: acd9 4a3d 6c16 fabd 9fef 9bbe 8327 a5be
000003b0: 1f98 8c3e 5a5b 403e 2d9d 943e c93a 6b3e
000003c0: 200a 143e 52cd 90be 8b18 b7bd 3442 89be
000003d0: a30e 123e 9e63 76be b4cd c53e eed8 20be
000003e0: b658 81be 8c03 a5be 5a2a 15be f35a 7dbe
000003f0: 083a 9c3e 0f3b e33c 0e9f 02be 99e3 7fbe

bias f4 [320]
0.23381394 -0.2912992 -0.28496403 0.12095491 0.26159525 -0.3196092 -0.06729826 -0.17901643
0.13809583 -0.326365 0.21700883 -0.1785327 0.20439763 -0.12630393 0.22766256 -0.26273578
0.13028398 0.13657139 -0.013959846 -0.1375423 -0.081254855 -0.25989527 0.088502415 -0.13177644
0.0322883 -0.06887668 0.32229248 -0.085462965 0.036262654 0.30210218 -0.07720664 0.23982571
-0.1111893 0.111766316 -0.25660533 -0.268561 -0.20121795 0.07439407 0.10931185 -0.004744055
-0.31165656 -0.1266492 0.13621761 0.17756252 0.24877153 0.101030014 -0.14596695 0.17632063
-0.13915257 0.011289113 -0.1441387 -0.12552498 -0.09826809 0.04544496 -0.29852977 -0.091828205
0.29049373 0.08900316 -0.22107187 -0.015297892 0.2938156 -0.08539647 0.031915434 -0.25384304
0.15496622 -0.19567461 -0.08898114 0.114926994 -0.2520177 0.11466093 0.27456528 0.20504346
-0.0124994535 0.14448154 -0.31212124 0.19962482 -0.015516153 0.29380125 -0.3271292 0.3385968
-0.124030344 -0.17966737 0.35355422 0.0149153145 0.19359969 -0.023241475 0.25505483 -0.30129784
-0.1612784 0.296121 0.22527318 -0.14371118 0.050298322 -0.08438724 0.3404589 -0.2359992
0.17970937 -0.32282174 0.06200431 0.32967886 0.055856735 0.22406383 -0.1116603 0.13938439
-0.20649561 -0.21466531 -0.1823082 0.18672377 -0.08264418 0.15320328 0.13114128 -0.20421685
0.08910445 0.30341986 0.31309533 0.23967546 0.07640988 0.16778898 0.22855626 -0.1821794
0.13640708 0.056202333 -0.03152188 0.22595166 -0.30132908 -0.1606373 -0.3109059 -0.1434271
0.072969496 -0.065439574 -0.23780954 -0.24653813 0.09963382 -0.01949546 -0.22666886 0.27011722
0.02052454 0.11713399 0.03304846 -0.31366396 0.2060996 0.33786416 -0.30857617 0.016302466
0.19722892 -0.23779872 0.026476745 -0.23949833 0.23740612 -0.09953814 0.245104 0.24967466
-0.3080872 0.2701848 0.20277712 -0.07569 -0.23490193 -0.029889578 -0.23029074 0.0024426118
-0.07755376 0.04834882 0.13216011 0.049975477 0.014335386 -0.025890201 -0.09904473 0.028257601
0.27575272 0.22636744 -0.3099766 -0.2234567 0.34253433 0.25473422 0.35554707 -0.25167304
-0.033258952 0.16337442 0.07794665 -0.2077028 0.2007557 -0.10140774 -0.096812546 0.13328448
-0.24244063 -0.19447842 0.21746294 -0.07842911 0.2612824 0.18368508 -0.13534994 0.065189496
0.19314583 0.32131884 0.30312043 -0.2177652 0.22703452 0.28248242 0.16106986 -0.105195105
0.33174574 -0.1828837 0.010314926 0.15993853 -0.12251002 0.28687298 -0.15442635 -0.19641933
-0.041925028 -0.25218698 0.103534 0.13913468 -0.11347693 0.34878853 -0.08182467 0.22707674
-0.005726489 0.27667275 -0.3307448 0.29897872 0.30602464 -0.1980595 -0.27883476 0.3290869
-0.25918865 -0.15705854 0.22265626 0.28904352 0.19803287 -0.34183758 0.05604743 0.30399472
0.0723961 -0.18056461 0.03663001 -0.059309617 -0.19705054 0.0043408214 -0.06673456 0.15645888
-0.11981396 0.023114776 0.24503179 0.2761943 0.31811616 -0.20296767 0.12288662 0.040608652
-0.34050956 -0.14717466 -0.0164924 -0.13753332 -0.05761522 0.30707312 0.103646934 -0.26321644
00000000: ec6c 6f3e 2b25 95be cee6 91be 35b7 f73d
00000010: d0ef 853e d1a3 a3be acd3 89bd 1550 37be
00000020: fe68 0d3e 5019 a7be 9037 5e3e 47d1 36be
00000030: 9d4d 513e d155 01be 6020 693e 4e85 86be
00000040: 2a69 053e 5fd9 0b3e d7b7 64bc e4d7 0cbe
00000050: f268 a6bd fe10 85be c140 b53d 67f0 06be
00000060: bd40 043d 380f 8dbd 8503 a53e 3507 afbd
00000070: 2688 143d 23ad 9a3e 841e 9ebd df94 753e
00000080: 37b7 e3bd bde5 e43d c661 83be d480 89be
00000090: 140c 4ebe eb5b 983d e4de df3d 0574 9bbb
000000a0: 7391 9fbe 54b0 01be a17c 0b3e f3d2 353e
000000b0: f7bd 7e3e d3e8 ce3d 5c78 15be 658d 343e
000000c0: 037e 0ebe f9f5 383c 1899 13be 9f89 00be
000000d0: c840 c9bd 7f24 3a3d e5d8 98be 6d10 bcbd
000000e0: 98bb 943e 4a47 b63d aa60 62be 02a4 7abc
000000f0: 006f 963e 58e4 aebd c2b9 023d b7f7 81be
00000100: 77af 1e3e ed5e 48be be3b b6bd d85e eb3d
00000110: 7708 81be 5ad3 ea3d d293 8c3e eaf6 513e
00000120: 82ca 4cbc f8f2 133e 5bce 9fbe 736a 4c3e
00000130: 7637 7ebc 1e6d 963e 7a7d a7be 8f5c ad3e
00000140: 9f03 febd b9fa 37be 0f05 b53e 5d5f 743c
00000150: ff3e 463e e864 bebc 8c96 823e b643 9abe
00000160: 2a26 25be 2c9d 973e 03ae 663e 0629 13be
00000170: 9d05 4e3d 38d3 acbd a150 ae3e c6a9 71be
00000180: bc05 383e e448 a5be 3bf8 7d3d abcb a83e
00000190: 08ca 643d fd70 653e 28ae e4bd c8ba 0e3e
000001a0: 9673 53be 39d1 5bbe 00af 3abe 8434 3f3e
000001b0: 5a41 a9bd 52e1 1c3e e649 063e 391e 51be
000001c0: 657c b63d d959 9b3e 084e a03e 7c6d 753e
000001d0: c87c 9c3d e0d0 2b3e a70a 6a3e 3d8d 3abe
000001e0: 4cae 0b3e 6b34 663d 161d 01bd df5f 673e
000001f0: ce47 9abe 1b7e 24be 0f2f 9fbe 8ede 12be
00000200: 0871 953d 2f05 86bd 5884 73be 7e74 7cbe
00000210: d10c cc3d f1b4 9fbc e21b 68be ce4c 8a3e
00000220: 1523 a83c f2e3 ef3d d25d 073d 9098 a0be
00000230: c60b 533e 88fc ac3e b2fd 9dbe c08c 853c
00000240: 61f6 493e 8281 73be c2e5 d83c 0d3f 75be
00000250: 971a 733e a7da cbbd 8bfc 7a3e b7aa 7f3e
00000260: 9bbd 9dbe a955 8a3e cea4 4f3e 5c03 9bbd
00000270: 228a 70be fdda f4bc 56d1 6bbe 3a14 203b
00000280: 81d4 9ebd 6a09 463d fb54 073e 16b3 4c3d
00000290: f8de 6a3c b017 d4bc f7d7 cabd 7c7c e73c
000002a0: 762f 8d3e decc 673e 41b5 9ebe d5d1 64be
000002b0: a960 af3e 866c 823e 440a b63e 4adb 80be
000002c0: 8a3a 08bd a04b 273e 7ea2 9f3d 0bb0 54be
000002d0: e792 4d3e dcae cfbd a845 c6bd ba7b 083e
000002e0: 5b42 78be 5a25 47be 9bae 5e3e 719f a0bd
000002f0: cfc6 853e f117 3c3e 2d99 0abe 1282 853d
00000300: 05c8 453e e783 a43e 9a32 9b3e d7fd 5ebe
00000310: bd7b 683e 89a1 903e 7fef 243e 8870 d7bd
00000320: 94da a93e dd45 3bbe efff 283c edc6 233e
00000330: 89e6 fabd 04e1 923e f121 1ebe 2622 49be
00000340: 94b9 2bbd a71e 81be a209 d43d 5279 0e3e
00000350: 9866 e8bd 6994 b23e b193 a7bd ce86 683e
00000360: 45a5 bbbb 0da8 8d3e 6257 a9be bd13 993e
00000370: 43af 9c3e 1cd0 4abe 6ec3 8ebe 147e a83e
00000380: 60b4 84be f4d3 20be 0100 643e 83fd 933e
00000390: 21c9 4a3e 5605 afbe fd91 653d 32a5 9b3e
000003a0: 6844 943d eee5 38be 5909 163d a4ee 72bd
000003b0: 9ec7 49be 733d 8e3b 21ac 88bd c236 203e
000003c0: 0561 f5bd 335b bd3c 9de9 7a3e 5769 8d3e
000003d0: 1fe0 a23e c2d6 4fbe fbab fb3d 4255 263d
000003e0: 4557 aebe f4b4 16be 121b 87bc 89d5 0cbe
000003f0: f0fd 6bbd b038 9d3e d844 d43d 4ec4 86be

weight f4 [4, 320]
0.024841245 0.008395939 -0.040906258 -0.028392531 0.02203309 0.014380137 -0.02558485 0.017666234
0.01091343 -0.04726807 -0.010655248 -0.0011844588 -0.019239983 0.02668684 0.04956125 -0.017976165
0.022687621 -0.018080808 -0.004808129 0.013924477 0.060565148 -0.020137949 0.060580004 0.021394927
-0.03265276 0.021380987 0.011950256 -0.032629356 0.05184062 0.019118812 -0.091825716 0.019144636
-0.055907756 -0.027359411 0.05109677 -0.01404666 0.0216022 0.019980963 0.005032828 0.042792533
-0.010738791 -0.03060468 0.044636067 0.057659082 0.0070001315 0.01587315 0.009598992 -0.022948274
-0.011652191 0.011022086 -0.026548931 -0.065217055 -0.03885042 -0.064193346 -0.016883744 0.03739471
0.027228741 -0.010717751 0.0484663 -0.011733197 0.017522471 -0.043078136 0.017153552 -0.034129262
0.020186238 0.001979141 -0.05015934 -0.017486366 -0.02605739 0.057674948 0.0047213174 -0.021611182
-0.03032834 -0.04512552 0.02698736 -0.0006373951 -0.0019362936 0.059214663 0.02231989 0.046038445
-0.014153762 0.0038309302 0.0343275 -0.022886867 -0.009021493 0.055431075 0.052254066 0.037525773
0.0029068557 -0.047021598 0.023238637 -0.0017453423 0.006339933 0.0448874 0.04867098 -0.051194545
0.05197225 -0.012054094 -0.038388565 0.02012592 -0.10001953 -0.045986556 -0.09245054 -0.041650165
0.017423082 -0.013422558 -0.021839378 0.03281286 -0.041364346 0.064691894 -0.0854389 0.036856163
0.05657752 0.034592193 -0.0035543882 -0.011138909 0.046194516 -0.035946768 0.038548216 -0.04462335
0.002949711 -0.012903013 -0.027004145 0.006666304 0.044147592 0.041193888 0.041972205 -0.0018046154
-0.0049010133 0.041267347 -0.030415207 0.0014401833 -0.044121612 0.0625159 -0.0266892 -0.036719073
-0.01712814 -0.0003690169 0.019839484 -0.0063021937 0.03516586 0.004062819 0.040214323 0.020468185
-0.00051856064 -0.016852226 0.058001045 0.036692873 0.051642846 -0.026540332 -0.015581818 0.013562758
-0.02310878 -0.04548979 0.057479758 0.045043387 -0.017502563 0.037029386 0.019292168 -0.029075429
-0.03374991 -0.024240797 0.038036432 0.036141492 0.0532954 -0.027979298 0.0118135 -0.04193986
-0.024806157 -0.007811484 -0.014852315 -0.0008846638 -0.03194517 0.023594277 0.020455902 -0.02932469
0.03642671 0.05279394 0.055161387 -0.033622455 0.010697067 -0.051710337 -0.004830564 -0.002400685
0.0043228385 0.03795126 -0.0027079706 0.030608702 0.030546099 0.017070342 -0.054980066 0.0021360738
0.061506607 0.014584072 -0.00929559 -0.020455362 0.0011014384 0.05110044 -0.027399762 0.045677304
0.045027968 0.023547765 0.013809561 -0.017560784 -0.0063797995 0.002548643 -0.030030591 0.04060755
0.042078007 0.04721981 0.024760816 -0.034290794 0.045859527 -0.043517154 -0.021638807 0.034311306
-0.02903459 0.027582288 0.00563887 -0.012947356 0.03705864 -0.02325244 -0.03436596 0.04975141
0.032045923 0.001990377 0.02082368 -0.0136933625 0.03518454 0.00859749 -0.03848548 0.013918216
0.051143616 0.0132660745 0.054567486 0.035977695 -0.0021580518 -0.00046423462 0.052399345 0.047683004
0.021677012 -0.013705622 0.01111551 -0.036631122 -0.03852163 0.015198056 0.037210893 0.01933971
0.0066565326 0.019005448 0.035220385 0.008013561 -0.052944414 -0.021834442 -0.07123862 -0.0053187683
00000000: de7f cb3c 1f8f 093c 528d 27bd 7497 e8bc
00000010: bd7e b43c ab9a 6b3c 5297 d1bc c7b8 903c
00000020: 3ece 323c 2a9c 41bd 5993 2ebc d83f 9bba
00000030: 2b9d 9dbc 5c9e da3c bd00 4b3d c042 93bc
00000040: 64db b93c 341e 94bc 828d 9dbb 7d23 643c
00000050: 2913 783d 57f8 a4bc bd22 783d 6a44 af3c
00000060: e7be 05bd 2e27 af3c 02cb 433c 5ca6 05bd
00000070: d456 543d 0e9f 9c3c 1f0f bcbd 36d5 9c3c
00000080: 88ff 64bd d820 e0bc d94a 513d f623 66bc
00000090: 19f7 b03c 1eaf a33c 6cea a43b 3947 2f3d
000000a0: c1f1 2fbc aab6 fabc 4fd4 363d ee2b 6c3d
000000b0: 5c61 e53b 6908 823c 1745 1d3c 05fe bbbc
000000c0: d5e8 3ebc fb95 343c 257d d9bc 8590 85bd
000000d0: 9e21 1fbd cd77 83bd c74f 8abc 322b 193d
000000e0: cf0e df3c 8299 2fbc 9984 463d 983c 40bc
000000f0: 498b 8f3c b372 30bd 9b85 8c3c 20cb 0bbd
00000100: 9c5d a53c 7ab4 013b e173 4dbd 913f 8fbc
00000110: 4f76 d5bc 913c 6c3d 48b5 9a3b ef09 b1bc
00000120: 2473 f8bc 8ad5 38bd 9914 dd3c dc16 27ba
00000130: 3bcb fdba 138b 723d 34d8 b63c cf92 3c3d
00000140: 2ee5 67bc 5810 7b3b fe9a 0c3d 3d7d bbbc
00000150: e2ce 13bc b20b 633d 5c08 563d a0b4 193d
00000160: f280 3e3b b899 40bd f45e be3c f8c3 e4ba
00000170: 36bf cf3b dadb 373d 395b 473d 5fb1 51bd
00000180: dbe0 543d 897e 45bc 543d 1dbd 1ddf a43c
00000190: 0ad7 ccbd 665c 3cbd b556 bdbd 5d99 2abd
000001a0: daba 8e3c 4aea 5bbc 7fe8 b2bc c766 063d
000001b0: a96d 29bd 2f7d 843d 97fa aebd 7df6 163d
000001c0: d4bd 673d 8bb0 0d3d bdf0 68bb f87f 36bc
000001d0: 7636 3d3d eb3c 13bd bce4 1d3d f9c6 36bd
000001e0: f04f 413b 2967 53bc cc37 ddbc 0371 da3b
000001f0: 1bd4 343d ecba 283d 0ceb 2b3d d888 ecba
00000200: ae98 a0bb f307 293d 5029 f9bc 88c4 bc3a
00000210: ddb8 34bd 5608 803d 4fa3 dabc bd66 16bd
00000220: 5050 8cbc 9c78 c1b9 6a86 a23c a282 cebb
00000230: 140a 103d 6521 853b c6b7 243d e5ac a73c
00000240: 04f0 07ba ae0d 8abc 8192 6d3d 444b 163d
00000250: 7387 533d 1c6b d9bc e24a 7fbc 5536 5e3c
00000260: a04e bdbc 8153 3abd e56f 6b3d 6a7f 383d
00000270: 8961 8fbc 20ac 173d 9c0a 9e3c 982f eebc
00000280: 583d 0abd a394 c6bc 17cc 1b3d 1a09 143d
00000290: 474c 5a3d d734 e5bc 698d 413c 21c9 2bbd
000002a0: 4836 cbbc 7af7 ffbb 2057 73bc c8e8 67ba
000002b0: f0d8 02bd c948 c13c 2393 a73c 553a f0bc
000002c0: 2d34 153d 753e 583d e8f0 613d b3b7 09bd
000002d0: c042 2f3c 38ce 53bd b549 9ebb d054 1dbb
000002e0: 99a6 8d3b c872 1b3d 3578 31bb 1abf fa3c
000002f0: d03b fa3c 1ad7 8b3c c732 61bd 5ffd 0b3b
00000300: 5aee 7b3d 08f2 6e3c 884c 18bc 0192 a7bc
00000310: 245e 903a b24e 513d 7775 e0bc 2018 3b3d
00000320: 3f6f 383d 3ee7 c03c 7f41 623c a2db 8fbc
00000330: a30d d1bb 2207 273b b702 f6bc 1a54 263d
00000340: fd59 2c3d 8f69 413d 32d7 ca3c 8174 0cbd
00000350: 33d7 3b3d 0b3f 32bd de43 b1bc 038a 0c3d
00000360: f3d9 edbc 40f4 e13c 45c6 b83b 2621 54bc
00000370: cdca 173d e77b bebc 52c3 0cbd 22c8 4b3d
00000380: 9642 033d fc70 023b 6c96 aa3c 205a 60bc
00000390: aa1d 103d 7ddc 0c3c f3a2 1dbd 3b09 643c
000003a0: f87b 513d f359 593c 2882 5f3d 595d 133d
000003b0: 1a6e 0dbb 8464 f3b9 b2a0 563d 414f 433d
000003c0: fd93 b13c 8c8d 60bc d41d 363c 840a 16bd
000003d0: dbc8 1dbd 4401 793c 736a 183d 506e 9e3c
000003e0: 0b1f da3b 50b1 9b3c 4043 103d 504b 033c
000003f0: 3edc 58bd 25de b2bc 8ee5 91bd 1049 aebb

bias f4 [4]
-0.011077587 0.04957727 0.04234716 -0.012195492
00000000: c47e 35bc 8911 4b3d 3774 2d3d 9acf 47bc

weight f4 [4, 8]
-0.13017987 -0.26290873 0.25120863 -0.010288218 0.10797475 0.14912252 0.026280805 0.20918985
-0.10149143 0.22295986 0.26128516 0.07887463 0.043119922 0.2713813 0.0019292572 0.24379472
-0.078999 -0.28839004 -0.15973659 -0.15337887 -0.15934199 -0.3300856 0.18500847 -0.11703546
-0.21383317 0.35066187 0.03304421 -0.13847758 0.16804428 -0.34351695 0.22605312 0.31593886
00000000: df4d 05be f99b 86be 6b9e 803e ea8f 28bc
00000010: de21 dd3d 93b3 183e d84a d73c dd35 563e
00000020: bdda cfbd 974f 643e 2bc7 853e 0689 a13d
00000030: 849e 303d 7df2 8a3e 21df fc3a 53a5 793e
00000040: 3aca a1bd dca7 93be fd91 23be 5a0f 1dbe
00000050: 8c2a 23be fb00 a9be dc72 3d3e 4ab0 efbd
00000060: 15f7 5abe f489 b33e 5e59 073d 11cd 0dbe
00000070: cd13 2c3e 74e1 afbe 787a 673e bdc2 a13e

bias f4 [4]
0.13841777 -0.14141764 0.05781275 -0.05594077
00000000: 63bd 0d3e c9cf 10be 10cd 6c3d 2622 65bd

weight f4 [4, 8]
0.31899273 -0.21907927 0.061514962 -0.17274429 0.31344742 -0.15797594 0.054541286 0.30931106
-0.20453571 -0.118325196 -0.182072 -0.22016555 0.13505319 0.18756965 0.23151134 -0.07995409
-0.10602983 0.21244651 -0.14883251 -0.25663027 -0.15309832 -0.18186514 -0.2092964 -0.18034689
0.26228285 0.08828225 0.3202664 -0.1443919 0.31023818 -0.0548314 -0.010199504 0.042273242
00000000: 0453 a33e 5156 60be 1df7 7b3d e1e3 30be
00000010: 2e7c a03e 72c4 21be af66 5f3d 055e 9e3e
00000020: cf71 51be 7b54 f2bd 1571 3abe 1473 61be
00000030: 624b 0a3e 4212 403e 4f11 6d3e f8be a3bd
00000040: 2b26 d9bd 948b 593e 8d67 18be 0b65 83be
00000050: cec5 1cbe db3a 3abe cc51 56be dbac 38be
00000060: f049 863e 53cd b43d f5f9 a33e 78db 13be
00000070: 8ad7 9e3e e496 60bd d21b 27bc b526 2d3d

bias f4 [4]
0.075459056 0.15313806 0.018201321 0.24010763
00000000: 478a 9a3d 39d0 1c3e f01a 953c c6de 753e

weight f4 [10, 2]
0.5357833 0.36590105 -0.36878255 0.0035414626 0.4660142 0.28634214 0.60756785 0.257296
-0.52720666 -0.0057119145 -0.16040045 0.08111314 0.46672672 -0.17170888 0.11306597 -0.45539567
-0.5897196 -0.47169212 -0.63297445 0.19007623
00000000: 1829 093f 6257 bb3e 11d1 bcbe e217 683b
00000010: 6a99 ee3e 709b 923e 9189 1b3f 4dbc 833e
00000020: 04f7 06bf 032b bbbb 0440 24be a51e a63d
00000030: cef6 ee3e 74d4 2fbe 228f e73d 9f29 e9be
00000040: ddf7 16bf a181 f1be 9d0a 22bf 58a3 423e

bias f4 [10]
0.32577878 0.664619 0.23710337 -0.11079766 0.59705824 -0.5406529 -0.025804857 0.36112195
-0.19324586 0.32964018
00000000: 7acc a63e 7924 2a3f 3acb 723e e2e9 e2bd
00000010: cfd8 183f 3a68 0abf b564 d3bc fae4 b83e
00000020: 3ee2 45be 99c6 a83e

weight f4 [10, 2]
0.27948308 -0.4694142 0.65179527 -0.37667403 -0.22782136 -0.14638665 0.62621295 0.26010382
-0.388273 0.29599375 -0.47469032 -0.1504814 0.55857295 -0.40110323 -0.32917333 0.5552457
0.53516686 -0.07435343 0.46470323 -0.6010805
00000000: 6818 8f3e 0f57 f0be 0edc 263f 6bdb c0be
00000010: 014a 69be 62e6 15be 7e4f 203f 542c 853e
00000020: b8cb c6be 7e8c 973e 9c0a f3be cc17 1abe
00000030: a3fe 0e3f 675d cdbe 6889 a8be 9524 0e3f
00000040: b200 093f 9c46 98bd 95ed ed3e 69e0 19bf

bias f4 [10]
0.15987697 -0.18886235 -0.42598683 -0.20738935 0.25575626 0.09616534 -0.3331385 -0.14531223
0.2789378 -0.3910622
00000000: cab6 233e 2265 41be f21a dabe e05d 54be
00000010: 7cf2 823e 55f2 c43d 2191 aabe bbcc 14be
00000020: efd0 8e3e 4e39 c8be

weight f4 [20, 4]
0.084695704 -0.40359664 -0.48156676 0.09214813 -0.34657902 -0.0075867795 -0.37119254 0.47209018
-0.31190184 -0.025991196 0.071001135 0.322819 0.06172732 -0.3523145 -0.46645212 -0.100823775
-0.24153757 0.4109706 -0.044992696 -0.46252948 -0.39187106 -0.053498745 0.27926433 0.20723936
-0.3340669 -0.070683174 0.3565014 0.44974554 -0.07766818 -0.21729513 -0.41245458 -0.18976575
-0.27529076 -0.45793387 0.06500509 -0.368787 0.20702559 -0.42697564 0.30326667 -0.295444
-0.018340671 -0.34676766 0.4811345 0.2811297 0.19049202 -0.2331098 -0.1179679 -0.27147266
-0.4336744 0.26930386 -0.08072742 -0.2957656 0.4967569 -0.38578 -0.32539096 -0.37694797
0.26793903 -0.3195905 -0.0038925584 -0.06743634 -0.2174768 -0.3443015 0.2559192 0.18188119
0.11272443 0.08840345 -0.0013933949 0.09980395 -0.21508014 -0.15516694 -0.253913 -0.019316465
-0.10043496 0.11028546 0.42676434 0.009489281 0.4200565 0.19951528 -0.40157568 -0.21162453
00000000: f174 ad3d 38a4 cebe eb8f f6be 29b8 bc3d
00000010: ce72 b1be 859a f8bb f30c bebe ceb5 f13e
00000020: 99b1 9fbe 7deb d4bc 0b69 913d 8848 a53e
00000030: c9d5 7c3d 9162 b4be d0d2 eebe b27c cebd
00000040: a055 77be bd6a d23e 434a 38bd aad0 ecbe
00000050: 53a3 c8be 8021 5bbd bcfb 8e3e 8e36 543e
00000060: d10a abbe 57c2 90bd 5a87 b63e 0c45 e63e
00000070: 7f10 9fbd 9d82 5ebe 3f2d d3be f451 42be
00000080: e9f2 8cbe 4f76 eabe 6321 853d a6d1 bcbe
00000090: 84fe 533e 8d9c dabe c545 9b3e 7044 97be
000000a0: 2d3f 96bc 888b b1be 4357 f63e 3bf0 8f3e
000000b0: 5710 433e 56b4 6ebe 2899 f1bd 77fe 8abe
000000c0: 920a debe 32e2 893e 6b54 a5bd 976e 97be
000000d0: ec56 fe3e f584 c5be a599 a6be 53ff c0be
000000e0: 4e2f 893e 5ea1 a3be 4b1a 7fbb 101c 8abd
000000f0: 3db2 5ebe 4948 b0be d707 833e 103f 3a3e
00000100: 11dc e63d de0c b53d 93a2 b6ba 0366 cc3d
00000110: f83d 5cbe 15e4 1ebe e200 82be 903d 9ebc
00000120: d8b0 cdbd 58dd e13d db80 da3e ee78 1b3c
00000130: a511 d73e bc4d 4c3e 549b cdbe 1ab4 58be

bias f4 [20]
-0.2779608 0.042866882 -0.35109764 -0.44237068 -0.37240297 0.30633065 0.428503 0.3776181
-0.45631742 0.2681069 0.38386133 -0.44032162 -0.23543283 -0.37480152 -0.30114096 0.010396484
-0.0921695 -0.06747143 0.0124305235 -0.38977557
00000000: e150 8ebe 2f95 2f3d 12c3 b3be 697e e2be
00000010: 9aab bebe 5fd7 9c3e bf64 db3e 2957 c13e
00000020: 70a2 e9be 4f45 893e 7989 c43e d671 e1be
00000030: 4e15 71be fce5 bfbe 262f 9abe 0456 2a3c
00000040: 5dc3 bcbd 762e 8abd 65a9 4b3c aa90 c7be

weight_ih_l0 f4 [12, 10]
-0.29608783 0.057040066 -0.44624862 0.07618167 0.3721602 -0.30262905 0.055529166 -0.21581176
0.3243289 0.13034086 0.011946285 0.23538105 0.08886999 -0.12682602 0.21544911 0.26878324
0.36887172 -0.17860337 0.24350342 -0.4229182 0.46350682 -0.4337716 -0.4175959 0.11440759
0.07890448 0.011504217 -0.22873576 0.41989738 -0.30140463 0.26614535 0.43437037 0.30400112
-0.38152927 -0.25610852 -0.4749109 0.37347478 0.47511753 0.12887979 0.28532967 -0.45666197
-0.03684462 -0.4468319 -0.038148735 0.32498628 -0.3564643 0.0064548887 0.33069077 0.11381771
-0.44495562 -0.04565319 -0.36241663 -0.52214223 0.35249874 -0.13263723 -0.45247436 -0.315434
0.03354105 0.0019301686 -0.04174402 -0.1131123 0.2135002 0.09568819 -0.24044299 -0.25263417
0.0056877304 0.4808346 -0.18915646 -0.23490824 0.086676314 -0.18852478 0.35128844 0.19865598
0.37412098 -0.010189315 -0.34030354 0.020220982 -0.13538417 0.29090455 0.12049485 -0.030874586
-0.31637815 0.28475615 -0.22886908 -0.34261537 0.014664491 -0.36518574 -0.47005048 0.3791748
-0.23742373 0.21943729 0.41107872 -0.3019807 0.5303714 0.5451314 -0.010974691 0.059087813
0.33122987 -0.023281785 0.10902825 0.48613286 0.23350666 0.057141658 -0.09689821 0.01045672
0.1004478 -0.3775811 0.32129332 0.065622985 0.35025492 0.42479005 0.32536826 -0.37331146
0.3895042 0.24212031 0.20623028 0.021618975 0.10544321 0.29776695 -0.50478 0.38971198
00000000: d398 97be d8a2 693d b37a e4be 2305 9c3d
00000010: c88b be3e 32f2 9abe 8d72 633d c2fd 5cbe
00000020: 700e a63e 1378 053e 5aba 433c bb07 713e
00000030: 7801 b63d aede 01be b19e 5c3e f59d 893e
00000040: c1dc bc3e cde3 36be f658 793e bc88 d8be
00000050: c450 ed3e 5017 debe 21cf d5be 874e ea3d
00000060: ac98 a13d 2f7c 3c3c b539 6abe cafc d63e
00000070: b551 9abe 3444 883e cb65 de3e 09a6 9b3e
00000080: ce57 c3be a820 83be 8627 f3be 1638 bf3e
00000090: 9b42 f33e 10f9 033e bb16 923e 99cf e9be
000000a0: 62ea 16bd 27c7 e4be d941 1cbd 9a64 a63e
000000b0: 7d82 b6be 8883 d33b 4d50 a93e 4219 e93d
000000c0: 39d1 e3be d7fe 3abd ac8e b9be 1dab 05bf
000000d0: b77a b43e 0ed2 07be b8aa e7be 9180 a1be
000000e0: 5762 093d b6fd fc3a c7fb 2abd 6ca7 e7bd
000000f0: cc9f 5a3e 2bf8 c33d b036 76be 4459 81be
00000100: 2460 ba3b f42f f63e 3bb2 41be c98b 70be
00000110: 5a83 b13d a40c 41be 14dc b33e 796c 4b3e
00000120: c98c bf3e 16f1 26bc 443c aebe 79a6 a53c
00000130: 26a2 0abe 71f1 943e 01c6 f63d b3ec fcbc
00000140: 51fc a1be 8fcb 913e a85c 6abe 486b afbe
00000150: 5543 703c a0f9 babe 75aa f0be 3323 c23e
00000160: 351f 73be 2bb4 603e e978 d23e 379d 9abe
00000170: 6cc6 073f bb8d 0b3f 31cf 33bc 1006 723d
00000180: f696 a93e 71b9 bebc 344a df3d 68e6 f83e
00000190: 5f1c 6f3e 5f0d 6a3d 9272 c6bd aa52 2b3c
000001a0: 93b7 cd3d 4f52 c1be 8f80 a43e 5865 863d
000001b0: 9d54 b33e 157e d93e ab96 a63e ae22 bfbe
000001c0: 186d c73e 63ee 773e 082e 533e 471a b13c
000001d0: 9cf2 d73d e974 983e 4339 01bf 5488 c73e

weight_hh_l0 f4 [12, 4]
-0.27006584 0.05946604 -0.36984077 -0.14578661 -0.14053154 -0.22670501 -0.41292715 -0.14490701
0.3650593 -0.16429685 -0.06592416 -0.44400334 0.27219012 0.14186674 -0.035176933 0.4974753
0.08915277 0.47779623 -0.34309363 0.08210112 -0.28683758 0.3760071 0.5906659 -0.43243048
0.37971503 0.37611726 0.5912113 0.13205947 0.13180016 -0.33042377 -0.5006104 -0.06925096
0.30376828 0.08447358 -0.19450226 0.5664515 0.14067271 -0.13550703 0.3717819 0.1532551
0.32382107 0.08988683 -0.42219582 -0.19717261 -0.21249503 -0.16478999 -0.37788817 -0.30025685
00000000: 1246 8abe aa92 733d c55b bdbe 1649 15be
00000010: 80e7 0fbe 5c25 68be 306b d3be 8162 14be
00000020: 0de9 ba3e 6f3d 28be 3f03 87bd 6854 e3be
00000030: 815c 8b3e 8445 113e b015 10bd 15b5 fe3e
00000040: ba95 b63d b5a1 f43e f8a9 afbe a224 a83d
00000050: 60dc 92be 0184 c03e e135 173f 8767 ddbe
00000060: 026a c23e 7192 c03e a059 173f 993a 073e
00000070: 9ff6 063e 4e2d a9be 0128 00bf 73d3 8dbd
00000080: 8487 9b3e 7c00 ad3d 9a2b 47be f702 113f
00000090: 820c 103e 5bc2 0abe 325a be3e e8ee 1c3e
000000a0: e0cb a53e 9616 b83d 0d2a d8be 9ee7 49be
000000b0: 4c98 59be b5be 28be 8f7a c1be 44bb 99be

bias_ih_l0 f4 [12]
-0.091518484 0.4624949 -0.3919783 0.5083348 0.17955802 -0.11525241 0.32083616 0.43936828
-0.4184115 -0.01520319 -0.03904695 -0.3215456
00000000: 0b6e bbbd 22cc ec3e 61b1 c8be 3b22 023f
00000010: 0fde 373e 7509 ecbd a344 a43e e1f4 e03e
00000020: 083a d6be cd16 79bc b2ef 1fbd a0a1 a4be

bias_hh_l0 f4 [12]
-0.42844602 0.054609176 0.1271381 0.45833066 0.5190048 -0.22211483 0.45310414 -0.17327408
0.048016064 0.22666745 0.1836862 -0.08061041
00000000: 475d dbbe dfad 5f3d 7d30 023e 51aa ea3e
00000010: 80dd 043f 1272 63be 44fd e73e c36e 31be
00000020: 7eac 443d 831b 683e 3c18 3c3e 1217 a5bd
