RTSNet/new_architecture/linear/best-model_linear2x2rq-1010T100.pt (torch, 141383 bytes, 70 tensors)

weight_ih_l0 f4 [12, 10]
00000000: a5f7 3d3e e3fd 113d 70be 093c d135 6c3e
00000010: a9e5 cabd 975f a13e 22d7 343e 8e2e b13e
00000020: 6f7f 9cbe f9e8 a73e 9a52 d0be 95f2 043e
00000030: a539 e03e 3487 02be a389 a23e 8919 4c3e
00000040: 1668 fb3d 77db babe fa80 033d 285d babe
00000050: acab b83d be40 03bf d537 0d3d 63e6 9bbe
00000060: 8ba3 d3bd 2e5a 813e 13f6 b2be 541c 663e
00000070: 9a14 c33e 7903 88be 8b89 b7be aebd a3bb
00000080: 5186 a53e ba53 853e 26b3 00be 8325 86be
00000090: 097a f03e 4698 88be 3d8e ec3d c596 b93e
000000a0: f4f6 85be 4959 493e f13c b2bd d1dc ffbd
000000b0: 1371 f4bd 4657 ccbe 3f1e e9bd ac2e c53e
000000c0: 2a59 2cbe bf49 073d 6078 9fbb 7587 37be
000000d0: 5b20 793e 4929 debe cc40 f5bd 8dad e7bd
000000e0: 1df3 933e c371 083e 2fdb ffbe e703 90be
000000f0: 0d92 083f 6b92 183e 6c48 91bd 6784 79be
00000100: 0a46 63be edcc b43e 480f be3e 186e 60be
00000110: e6c8 b4be afe7 c2be 8fe3 d0be 9d83 593d
00000120: a6ef fc3d 9f0b babd 5d94 c5bd df60 353d
00000130: 63c5 3fbd 3e07 7ebd 46ec cdbe 2624 b2bd
00000140: 9d08 16be 83d5 f7bd f300 f5bd 5936 903b
00000150: 5175 b63e 6663 80be 36f2 b33e 8b38 5bbe
00000160: 289a 593e 3c38 bebe 34bd 1abd ee5f 0f3e
00000170: 5aca afbe 6003 78be 4b2c 93be 428c 573e
00000180: 29b8 f53e bfbe c23e 36af 43bd 9b4c 61be
00000190: c69a 24be e953 0e3e fbca 903e 98f0 b3be
000001a0: f5e9 3a3e e150 ddbe 9b93 b4be 69c0 5bbd
000001b0: 551a b5be 69b0 1fbd 4ab3 823d 3d5d 443e
000001c0: 85d9 803e 8922 f03e abfb 7b3e e543 1c3d
000001d0: 8e7c ab3e 2c25 a1be fdfb 53be 49e1 9c3e
0.185515 0.035642516 0.00840722 0.23067404 -0.099070854 0.31518242 0.17660192 0.3460583
-0.30565974 0.32794932 -0.4068802 0.12983163 0.4379398 -0.12746888 0.31745633 0.19931616
0.12275712 -0.36495563 0.032105424 -0.36399198 0.09017119 -0.51270664 0.034477074 -0.3044921
-0.10333928 0.25264114 -0.34953365 0.22471744 0.38101655 -0.2656515 -0.35847124 -0.004996977
0.32329038 0.2604044 -0.1256834 -0.26200494 0.46968105 -0.26678675 0.11550567 0.3624784
-0.26164973 0.19662966 -0.0870303 -0.12493289 -0.1193563 -0.39910334 -0.11382722 0.3851217
-0.16830888 0.033029314 -0.0048666447 -0.17922767 0.24328749 -0.43390873 -0.1197525 -0.11312399
0.28896418 0.13324647 -0.4997191 -0.28127977 0.53347856 0.14899604 -0.070938915 -0.24366914
-0.22194687 0.35312596 0.37121034 -0.21916997 -0.35309523 -0.38067386 -0.40798613 0.05310403
0.12350397 -0.09084248 -0.09647439 0.044281837 -0.046819102 -0.062018625 -0.40219325 -0.08698301
-0.14651723 -0.12101271 -0.11963072 0.00440101 0.3563638 -0.25075835 0.3514573 -0.21408288
0.21250212 -0.37152278 -0.037778094 0.14001438 -0.3433407 -0.24220037 -0.2874473 0.21049598
0.47992066 0.38036153 -0.047774516 -0.22001879 -0.16074666 0.13899197 0.28279862 -0.35144496
0.1825331 -0.43225768 -0.35268864 -0.053650293 -0.35371652 -0.038986597 0.06381853 0.19176193
0.25165954 0.46901348 0.24607722 0.038150687 0.33493465 -0.31473672 -0.20701595 0.3064063

weight_hh_l0 f4 [12, 4]
00000000: 7ec2 96be 89ae 92be 6fbf db3e 2b7f 873e
00000010: a0fd acbe 1c91 e23e 8f4d 06bc ac7d 64bc
00000020: df60 0a3e 6ece 8cbe 69c5 9fbd a6f1 dbbe
00000030: 94bf 633d 44a2 313e 4498 7d3e c3e6 85bc
00000040: 253d 69be b5fa 86be 7e36 4dba 1152 11be
00000050: 1c45 db3e 7c83 1cbb 34bc 29be 2088 ebbe
00000060: 441e 4abe 4200 1ebe 43bc 713e 39dd 8e3d
00000070: a9b6 d5be 34b6 fb3d 68b3 903c 9175 75be
00000080: b3c7 a4be fbd0 7ebd a735 07bf c0b7 f83e
00000090: 6313 8c3e 5020 a03e f978 dd3d ee86 443e
000000a0: 4808 a9be 4c5d 96be 0215 e53e 0ab8 8f3e
000000b0: c453 5ebe 6737 113e 05e0 953e 7dff a33d
-0.2944526 -0.28648785 0.4291949 0.2646421 -0.3378725 0.44251335 -0.008197202 -0.013945978
0.13513516 -0.27501243 -0.07801325 -0.429578 0.055602625 0.17347056 0.24765116 -0.016345387
-0.22777231 -0.2636315 -0.00078282494 -0.14191462 0.42826164 -0.0023882082 -0.165757 -0.46002293
-0.19738108 -0.15429786 0.23606972 0.069757886 -0.4174092 0.12290612 0.017663673 -0.2397063
-0.32183608 -0.062211018 -0.5281624 0.4857769 0.2735854 0.31274652 0.10814089 0.19192097
-0.3301413 -0.29368055 0.4474259 0.28070098 -0.21711642 0.1418129 0.29272476 0.08007715

bias_ih_l0 f4 [12]
00000000: 3d20 b4be 59d2 243e ed5a e93e ef19 f43e
00000010: 64cb b53e c66f 04be 2542 acbe 69eb ce3e
00000020: c05b fd3d e343 c53e 2576 c43c 9b78 69bd
-0.35180846 0.16095866 0.45577183 0.47676036 0.35506737 -0.12933263 -0.33644214 0.4041398
0.123710155 0.38528356 0.023982117 -0.056999784

bias_hh_l0 f4 [12]
00000000: 26a7 fb3e 7dce 5d3e 895d febe 537e c43e
00000010: abc1 81bd 7424 ca3e e167 453d d6c3 9b3e
00000020: f0ba 10be b18c 13be a3a0 ac3e c237 9b3e
0.49150962 0.216608 -0.49680737 0.38377628 -0.06335767 0.39480937 0.04819477 0.30422848
-0.14133811 -0.14409138 0.33716306 0.30315977

weight_ih_l0 f4 [12, 14]
00000000: 57df a0be 4230 b7bd 0c78 00bf 7074 5bbe
00000010: f50f e6bd 6b19 e7be 455e 643c 96f3 463e
00000020: 0895 51bd b202 ea3e dc62 cf3d e6ed 313d
00000030: 8701 c33e be9b cebe b027 aa3e a9a8 4b3e
00000040: 7244 1cbe 8251 f33b 2f5f c3be bd79 83be
00000050: 251c 183d 4ffd d13e c1ce ef3e d5b4 e83d
00000060: c4b7 56be 622e a53e 82d6 493e f15a 743e
00000070: 2f51 e0be 850f a63e 9a4c 7c3e 096c 5b3d
00000080: 2e5c 8c3e 56d2 81be fa9e d9bd ef01 e43e
00000090: 1efb bfbe 3025 c0be 0721 e5be a68a ad3e
000000a0: 2d02 1c3e fe7a e8be 0342 873e bca7 5ebe
000000b0: 4a61 93be 20f0 dd3c 8a39 a2be 0dff e3bd
000000c0: c045 b5be af4b 28be ae2a 96be 16dc d83e
000000d0: 7f03 bfbe 3083 9f3e c012 4ebe 4f3d 94be
000000e0: 6492 c23e 3e08 e13e a044 92bc 090c 833e
000000f0: e903 403d b151 d43e 4aa6 b03e 02df 04bf
00000100: 80e1 eabd 392c e3bd d79f dabd e3aa c73e
00000110: 88b2 d7be 3992 4fbe 2402 06be 75da d2bb
00000120: 8dc0 5abd f314 8f3c 1cc5 c33e a893 80bd
00000130: fe78 c63e 5bb1 5bbc 2fcb 773e e715 a0be
00000140: 2e96 003f 4b83 cd3e b372 c9be ad4b 3fbe
00000150: a72f afbc 9d29 9abd 67aa d9be 7a88 60be
00000160: f712 f13d bd17 c7be 3219 a53e 81a8 bebe
00000170: a84b 67be 81aa e63e 8886 4a3e 48cc 30be
00000180: e4ff 24be cad9 70be 4684 90be 3fab 0dbd
00000190: 5892 9dbe 64fc b53e b4fd fcbd 7684 913d
000001a0: 0de9 a73e dd42 ec3e 3e09 b5bc c1d6 9dbe
000001b0: d822 a9be ed5c bebe 02a0 f0bd ff56 6e3d
000001c0: bd0e 85be 33d4 db3d 7e3d 66be 5915 1b3c
000001d0: f42e eebe 7a56 273d ecb0 d43e 195e 263e
000001e0: 7e51 d13e dd68 cebd a71b 053f 0655 0dbe
000001f0: 546a dd3e 3156 51be 5df2 533b 61e8 143e
00000200: 05cd e23e d2ed d93e 241e 953e c96c 013e
00000210: f662 623e 8489 423e 19dd 0b3d 3244 b63e
00000220: 9354 953e a400 4ebe 4420 813e ac74 a6be
00000230: 46d0 8f3e 7303 d73e b916 97be a52b 40bd
00000240: e295 0abe 41a8 933e 9254 d9be 6c8f ebbe
00000250: 17f6 be3e 71f4 0d3e ffbc 7cbe a15c 293e
00000260: 2486 b7be ac60 c63c ce64 63be d07a 9e3e
00000270: bd92 e33e 2715 1e3e acc9 993c 038d c4be
00000280: 27bc 833e f204 01be 807a c7be 5c33 d43e
00000290: 9887 a6be 27e1 acbd 0028 ab3e f00b fa3b
-0.31420395 -0.08944751 -0.50183177 -0.21431136 -0.11233512 -0.4513658 0.013938491 0.19428858
-0.051167518 0.4570518 0.10126278 0.04343977 0.38087103 -0.40353197 0.33233404 0.19888557
-0.15260485 0.007425488 -0.38158557 -0.25678816 0.037136216 0.41013572 0.46837428 0.11362616
-0.20968539 0.3226195 0.19710734 0.23862816 -0.43811938 0.32433715 0.24638596 0.053569827
0.27414078 -0.25355786 -0.106260255 0.44532725 -0.37496275 -0.37528372 -0.4475176 0.33894843
0.15235205 -0.45406336 0.2641755 -0.21743673 -0.28785163 0.02709204 -0.31684524 -0.111326315
-0.35404778 -0.16435121 -0.29329437 0.42355412 -0.37307355 0.31154776 -0.2012434 -0.28953025
0.38002312 0.439516 -0.017854989 0.2559512 0.04687873 0.41468576 0.34501868 -0.5190278
-0.11468792 -0.11092419 -0.10675018 0.38997564 -0.42128396 -0.20270623 -0.13086754 -0.0064347335
-0.053406287 0.017466044 0.3823632 -0.06278163 0.38764185 -0.013408984 0.24198602 -0.3126671
0.50229156 0.4013923 -0.3934532 -0.18681212 -0.021385027 -0.07527468 -0.4251282 -0.21927062
0.117711954 -0.38885298 0.32245785 -0.37237933 -0.22587454 0.4505196 0.19777882 -0.17265427
-0.1611324 -0.2352058 -0.28225917 -0.03458714 -0.30775714 0.3554412 -0.123530775 0.07105343
0.3279499 0.46144763 -0.022099134 -0.30827907 -0.33034396 -0.37180272 -0.11749269 0.058188435
-0.25987807 0.10733833 -0.22484395 0.009465539 -0.46520197 0.040853955 0.4154123 0.16246833
0.40882486 -0.10078595 0.5199532 -0.13801965 0.43245184 -0.20443036 0.0032340505 0.1454177
0.44297042 0.42564255 0.29124558 0.12639154 0.22108063 0.1899777 0.034146402 0.35598904
0.29166088 -0.20117432 0.2521993 -0.3251089 0.28088588 0.4199482 -0.29509524 -0.046916623
-0.13533738 0.28839305 -0.42447335 -0.4600786 0.37297127 0.13862778 -0.24681471 0.16539241
-0.3584453 0.024216019 -0.22206423 0.30953074 0.4444789 0.15437756 0.018772922 -0.38388833
0.25729486 -0.12599543 -0.38960648 0.41445434 -0.32525325 -0.08441382 0.33428955 0.0076308176

weight_hh_l0 f4 [12, 4]
00000000: 5835 96be 9436 ad3d 8c4f a83e da9b d93e
00000010: 065f 363e e898 f33e 48ee df3e 940b e9be
00000020: 123b bebe 2728 2e3e 01e2 fa3b 1363 87be
00000030: d8a2 d13e a7ad 3c3e 8cc7 963d cbb6 e73e
00000040: 3f46 233e b57d 97be 9201 82be 4b8b c5bd
00000050: 04ca d0be a7e1 b33e 4875 bc3d 901a 273e
00000060: 277a 4b3e e687 e43d 4269 3f3e 91b3 ef3e
00000070: 42b9 b03d 4b7f ae3e 51a6 6b3e dba9 663d
00000080: 64cc 09bd ed60 be3e 4dcf 9abe 6c1e ec3e
00000090: c717 aa3e 76ed 05be bbf9 a3be 4a7e 94be
000000a0: 40bf 09bb a63c a3be a091 d13e 7791 3e3d
000000b0: 722a c73e e179 efbe 851d bbbe 6794 90bd
-0.29337573 0.084576756 0.3287319 0.42501718 0.17809686 0.47577596 0.43736482 -0.45516646
-0.37154442 0.17007504 0.0076563363 -0.26442775 0.40944552 0.18425618 0.07362279 0.45256647
0.15944766 -0.29588094 -0.25391823 -0.09645709 -0.40779126 0.35133097 0.09202057 0.16318727
0.19870816 0.11158733 0.18692496 0.46816686 0.08629085 0.34081492 0.23012663 0.05631433
-0.033642188 0.37183324 -0.30236283 0.4611696 0.33221266 -0.13078865 -0.32026467 -0.290026
-0.0021018535 -0.3188221 0.40931416 0.046525445 0.3889957 -0.46772674 -0.3654596 -0.070595555

bias_ih_l0 f4 [12]
00000000: 4faa 85be 9f2d acbe 6ea7 c83b b379 abbe
00000010: 830a f83e cf87 0e3e a926 cbbc 7ba5 283e
00000020: 0d73 c2be e811 fb3e 8507 9e3e 8e57 fabe
-0.26106498 -0.33628556 0.006123475 -0.33491287 0.4844552 0.13918994 -0.024798708 0.16469376
-0.37978402 0.490371 0.30865112 -0.48894924

bias_hh_l0 f4 [12]
00000000: 4b7e c6be 2e23 cd3d 6ad4 303e 07ce f1be
00000010: e167 ac3e 4042 ad3e 7ce1 bd3e 9762 a43e
00000020: b14c ac3e 179d eabe cdfa fc3e f8b3 d73e
-0.3876823 0.100164756 0.1726853 -0.472275 0.33673003 0.33839607 0.37086093 0.32106468
0.3365226 -0.45822975 0.49410096 0.42129493

weight_ih_l0 f4 [12, 24]
00000000: 0680 513d fb6e 923e 1374 ea3e b208 df3d
00000010: 45e6 443e b802 323e a36f d4be 94cf 87be
00000020: 3e88 fb3b a598 4b3d 4b10 a13e ddc2 1cbe
00000030: 8f74 803e 2b1f 083e 4074 f9be 9b8a c73e
00000040: e318 213e 871a c33e bd33 323e 6079 11be
00000050: 31a6 f53d c349 24be d3d2 323e b493 d63e
00000060: b388 66be 2280 8cbe 18f2 efbe 4099 123e
00000070: 6b4a a53d 54fa 863e d671 9dbc 29c2 b63e
00000080: ac21 fb3d cf01 31be 1699 be3e 644a a8be
00000090: c34a 2c3d 6816 c23d 6b15 dbbe 38ff 6d3e
000000a0: f86f 19be a130 9cbe 9c89 bbbe 94d2 d23d
000000b0: a888 c2bd 93a8 773e dbab b4bd ecf5 353d
000000c0: af1e be3e ad68 b6be af94 3fbe af00 953d
000000d0: d459 30bd 7f0d 16be 8deb a93e d7ea 8abe
000000e0: a671 ecbd 07e5 d13e 57b4 d1be 062a 27be
000000f0: 7bd1 9abe 98be b83e e8a3 463e 379d cabe
00000100: 4651 8ebd 1a62 7ebe 2fe7 d23d 9269 f1bd
00000110: 2076 bf3e f5d3 b83e 656c 473c 8adf 4f3e
00000120: d64c dcbe 4837 f1be 2baf 4cbe 01e6 85be
00000130: 12a5 223e 2980 debc e4ec 4a3e 39c6 383c
00000140: cf54 883d 7f79 c1be 5101 b6bd 886b e0be
00000150: c757 eebe ca74 e33e a6bd 763e d454 a6bd
00000160: 7731 1a3e 37cb 84bd a703 fcbe f708 18be
00000170: 1dc6 1d3d 8390 fd3e e30a c83e 190c c63e
00000180: 2ee8 bc3e 8de6 3abe f0db 8dbe d6c2 f2bd
00000190: c694 413e aa6a ff3e 3c26 98be 8942 d43e
000001a0: 6b1c 6a3e f360 763d a16a 99be d9de 39be
000001b0: 6a4b 22be f79f a5be 64d2 d1be c205 79be
000001c0: bf2a 82bc e2a4 60bd 0bf3 4c3e e1c7 c33d
000001d0: 858f 95bd 7eb6 40be 7f52 cbbe 7bce 953e
000001e0: 47c3 793e ff01 46be 96d4 f63e 00c1 1a3d
000001f0: 0f93 d23e 61c2 c9bd f884 e3be ccda b5bd
00000200: daa0 bc3e d5a9 fc3c 1954 c33e be29 acbe
00000210: 14a6 ec3e 6972 a33e cb7e 4dbe 4615 1c3e
00000220: de6e 78be 5334 88be 2936 3cbe e75f ce3e
00000230: 16c3 e0be 4256 1c3e 5ae1 dcbd ab4f ebbe
00000240: d681 ac3e ca53 aa3e 62a3 de3d 444f 463e
00000250: 3f9e 033d 1792 ef3e 3b83 483d 09fd a73c
00000260: f514 853e be21 99bd 296b 5e3e fa21 b93e
00000270: a475 e93e 5586 cdbe 6094 7fbd 0471 eabe
00000280: 57a4 f4be 6bd2 ad3e dff3 943d 2a00 fdbe
00000290: 9c41 b4be 3ea7 dbbe c377 db3d 6a7e 183e
000002a0: d087 e63e c8cb 8ebd e6c0 1abe 57aa 93ba
000002b0: 3e1f 05be be0a 0fbe 33cf a53e 3839 e3be
000002c0: 086e 4c3e 4643 a03e 1a0b ac3c ba28 0a3d
000002d0: f23e 94be bf67 eebe a79d 303e cfa4 9dbe
000002e0: 5009 a03e 3e10 9abd 2200 333e 2ecd e83e
000002f0: fd7f a0be 3745 d3be 9dcc eb3e 0201 c3be
00000300: 9b93 d43e 2902 e3be 44d4 debe 1e74 cfbd
00000310: f196 fcbe 87a4 1fbe 16df c73e 1ce7 d63d
00000320: c968 d33e 423c 233e 40bd 77be 2395 833e
00000330: c4fb 4fbe 5c8e b8be c369 96bd 126e c3be
00000340: 0f0a 473c 1c5f cc3e f08b 8fbd 50c1 673e
00000350: 19a2 983e c2c2 2b3e 064b 603e 6312 85be
00000360: 6e26 8a3e 88f2 a0be fae1 99bd b632 b1be
00000370: 280c 7cbe c1a8 ecbe 72b3 adbe 37f4 dbbe
00000380: 67b2 063f d44b efbd 0853 853e febb fdbd
00000390: 141d 293c 84b9 15be 7a77 9e3d 47ff f9bd
000003a0: 82f3 a9be d1e0 bc3d 7e23 1e3e 5d1a f13e
000003b0: 93fc e939 7a3a c8bc b662 09be 4026 f13e
000003c0: ddca 48be d312 3ebd fd59 d1be 5556 55be
000003d0: 8cbf d5be 2fec e5be 09f6 87be 26ef 0f3d
000003e0: 2103 52be d4c4 513d 77ae d83e 2863 b9be
000003f0: 3fb5 d6be 6cba e5be 4c87 42be 1c4b f23c
0.051147483 0.28600296 0.45791683 0.108903304 0.19228466 0.1738385 -0.41491422 -0.26525557
0.0076761534 0.04970612 0.31457743 -0.1530871 0.25088927 0.1329314 -0.48721504 0.38972935
0.1573215 0.38106176 0.17402549 -0.14206457 0.11994589 -0.16043763 0.17463236 0.41909564
-0.22513084 -0.27441508 -0.4686439 0.14316273 0.08070835 0.2636286 -0.01921932 0.35695007
0.12262282 -0.17285846 0.3722617 -0.32869256 0.042063486 0.0947693 -0.42789778 0.2324189
-0.14984119 -0.3050585 -0.36628425 0.10294071 -0.09498721 0.241854 -0.08821841 0.044423983
0.37132785 -0.35626736 -0.18709062 0.07275521 -0.043054417 -0.14653586 0.33187523 -0.27132294
-0.11545114 0.40995046 -0.409579 -0.16324624 -0.30237946 0.36082911 0.19398463 -0.3957307
-0.069490954 -0.2484211 0.10298001 -0.11787714 0.3739481 0.3609921 0.012171839 0.20300117
-0.4302737 -0.4711249 -0.19988696 -0.26152042 0.15883282 -0.02716072 0.19816929 0.011277729
0.06656801 -0.37788007 -0.0888697 -0.4383204 -0.46551344 0.4442504 0.24095783 -0.081216484
0.15057932 -0.06484073 -0.49221537 -0.1484717 0.038519014 0.49524316 0.39070806 0.38681105
0.3689589 -0.1825201 -0.27706861 -0.11853568 0.18904409 0.49886066 -0.2971667 0.41457012
0.22862403 0.06015105 -0.29964164 -0.18151416 -0.1584908 -0.32348606 -0.40980828 -0.24318603
-0.015889524 -0.054844745 0.20014589 0.09559608 -0.07302765 -0.18819615 -0.39711377 0.29259095
0.24390899 -0.19336699 0.48209065 0.037781715 0.41127822 -0.09851528 -0.44437385 -0.08879623
0.3684147 0.030842701 0.381501 -0.33625597 0.46220458 0.31923226 -0.20067899 0.1524249
-0.24261042 -0.2660242 -0.18380035 0.40307543 -0.4389884 0.1526728 -0.1078517 -0.4595922
0.33692807 0.3326705 0.108710065 0.19366175 0.032133337 0.46791145 0.048953276 0.020506399
0.2599255 -0.07477139 0.21720566 0.36158735 0.45597565 -0.4014155 -0.06239736 -0.4578935
-0.4778163 0.339496 0.07273077 -0.49414188 -0.35206306 -0.42901033 0.10716202 0.14891973
0.45025492 -0.06972462 -0.15112647 -0.0011265975 -0.13000199 -0.13968942 0.32384643 -0.44379592
0.19963849 0.31301326 0.021001387 0.033730246 -0.28954273 -0.46563527 0.1724764 -0.307898
0.31257105 -0.07522629 0.1748052 0.4546904 -0.31347647 -0.41263744 0.46054545 -0.38086706
0.41518864 -0.44337586 -0.4352132 -0.101295695 -0.4933391 -0.15590106 0.3903739 0.10493299
0.41290882 0.15940955 -0.24193287 0.2569972 -0.20310885 -0.36046112 -0.07344391 -0.38169914
0.012148394 0.39916313 -0.07009113 0.22632337 0.2981117 0.16773513 0.21903619 -0.2599059
0.26982445 -0.31435037 -0.07513805 -0.34609002 -0.24614012 -0.462225 -0.33925968 -0.4295976
0.5261597 -0.11684385 0.2603991 -0.12389372 0.010321874 -0.1462155 0.07737632 -0.122068934
-0.33193594 0.09222568 0.15443227 0.47090426 0.00044629406 -0.024441946 -0.13416561 0.47099495
-0.19608636 -0.04640467 -0.40888968 -0.20833714 -0.417477 -0.44906756 -0.26554897 0.03514018
-0.20509006 0.0512131 0.42320606 -0.36208463 -0.41935155 -0.4486879 -0.18996924 0.02957683

weight_hh_l0 f4 [12, 4]
00000000: 7131 08be a8aa e2bd 9516 053d 2913 f13e
00000010: a3c3 8ebe 648e 00be 22b2 acbc 9a45 ac3e
00000020: 8c6a e3be e23d c2be 6630 203e 9b51 cbbd
00000030: 447b 85be 89f6 823c 62fd b93d cf48 443e
00000040: 111a 26be 2425 8fbe 6a70 6fbe 3217 45bd
00000050: ffe7 a2be 1115 b2be 3706 9a3e 1200 96be
00000060: 804c 9c3e 28ab fd3e 7f07 09be c691 a7be
00000070: fc10 7cbe 8ca0 493e 2015 553e bbb1 4fbd
00000080: 8189 88be bc3b 0e3d a81f 9a3e ed3b 943e
00000090: 2d2b 2f3e d644 89bd 645a f33e 95b4 403e
000000a0: 4143 c8bd a5c0 293e e896 85be c6ee b03d
000000b0: 1add 91be 0801 e7be a056 cb3e f2d0 c53d
-0.1330011 -0.11067706 0.03249224 0.4708493 -0.27883634 -0.12554318 -0.021081034 0.33646852
-0.44417226 -0.37937838 0.15643463 -0.099276744 -0.26070607 0.015986698 0.09081532 0.191684
-0.16220881 -0.27958024 -0.23382726 -0.048117824 -0.31817624 -0.34781697 0.30082867 -0.2929693
0.30527115 0.49544644 -0.13381766 -0.32728404 -0.24615854 0.1969015 0.2080884 -0.050706606
-0.26667407 0.034724936 0.30102277 0.2895197 0.17106314 -0.067025825 0.475299 0.18818887
-0.09778453 0.16577394 -0.26091695 0.086392924 -0.28489 -0.45117974 0.39714527 0.09658994

bias_ih_l0 f4 [12]
00000000: 7e35 e1be eaee 993e a31d 063e d496 70bd
00000010: a507 953e 8734 eb3e 3b32 e73e 92d4 debe
00000020: c128 663d 9dd7 50be e890 e0be 16ae 6ebe
-0.43986124 0.3006509 0.13097243 -0.05873759 0.29107395 0.45938513 0.4515551 -0.43521553
0.05619121 -0.2039475 -0.43860555 -0.23308596

bias_hh_l0 f4 [12]
00000000: 3ad4 bbbe 3fe3 e63d 8208 cdbd 688e ee3e
00000010: 2f5d 8c3d 23ce 9b3e 696c 5f3d 7af2 ff3e
00000020: e542 523e ebc5 fbbd 4cfa d93e 1fb6 76bd
-0.36685354 0.112738125 -0.10011388 0.46593022 0.06853711 0.30430707 0.054546747 0.49989682
0.2053333 -0.12293609 0.42573774 -0.060232278

weight f4 [4, 4]
00000000: b7c9 e83e ac02 9d3d 97e3 923e 2516 f1bc
00000010: 7a29 2a3d 7631 7fbe be0f 90bc b360 833d
00000020: f68e 53be 61ee bf3e 92d8 73be 928b a6be
00000030: ed31 efbe 7b68 c33e 09a9 fabe e3cd d73e
0.45466396 0.07666525 0.28689262 -0.029429505 0.04154346 -0.24921212 -0.017585631 0.06414928
-0.20660004 0.37486556 -0.23813084 -0.3252836 -0.46717778 0.3816565 -0.4895709 0.42149267

bias f4 [4]
00000000: 3253 d4be 70b3 3ebe d040 4abd 48ef 89bd
-0.41469723 -0.18623137 -0.049378216 -0.067350924

weight f4 [320, 8]
00000000: 402c 7e3e f304 84bd e156 b63e c979 95be
00000010: fc2b 57be 57de fbbe 6816 1cbe 6adb 093d
00000020: aadd 993e 8af7 1fbe 3a03 04be ce3f 07be
00000030: bd9b dcbd e04f 9ebe 069a d93d a28b 3bbe
00000040: 2742 a2be 3cd9 98be 9544 86bd bdac 933e
00000050: c207 563d 73b1 8c3d c341 96be 3631 ae3e
00000060: ff24 97be 3999 25be a332 10be 444d 513e
00000070: eb21 0fbe 4aae 9dbe 68e6 643d 4b56 3a3e
00000080: 635d 95be 30a7 aabe 09ea fcbd 806a 973e
00000090: eab5 79be 4e8f a5be d007 4a3e 00db 8d3e
000000a0: a72d 5e3b 2f42 9e3c 2de7 0a3d 0cee 2d3e
000000b0: ba19 37be 85ef 653e a520 393e 0771 ccbc
000000c0: d95b b03e 595f a03e abe9 94bd 2ed8 9a3e
000000d0: 568d 4f3d 2659 28be bf7b 2c3e 8cca 98bd
000000e0: e60f 703e 298f 9bbe 3f1f 3f3e ac06 ac3e
000000f0: f3d9 933e 3d4c ec3b 0def 8fbd 99c2 bebd
00000100: ed7e 9b3d 2aa4 683e 6309 9c3e 0f9d 95be
00000110: 5acb 77bb ef4f 25be 1301 16be fb08 97bd
00000120: 2166 1c3e 39f5 06be b608 863e 3389 b13e
00000130: b5c2 9ebe fc94 84bd fd27 0a3e fcca 393e
00000140: 4537 9a3a b335 c73d 3dbf 81be 5e46 a73c
00000150: 2c8e cabd 1e3f b4be 3b15 3c3e f579 a7be
00000160: ef3e aa3e 3eea 50bd e74d cdbd 6f20 e13d
00000170: 05a0 a0be 033d bcbd 0a84 20bb d089 e43c
00000180: d981 abbe 812a 6c3c dc53 1ebe 405d 093e
00000190: 4783 1bbe f9ca 2e3d ac00 30be 3f52 913e
000001a0: a753 28be e4f4 5d3e 9c7b 393e 5e1d cb3d
000001b0: 329f 9c3e a7a3 dfbd 5c46 043e 2a4c a2be
000001c0: 4cf2 943d 75f4 1bbe e8aa f23d 8f28 98be
000001d0: 1915 2c3e 77b9 1b3e fa77 783c 62d7 0d3e
000001e0: 3bb6 0b3e 4587 9fbe ea58 b13e 34b1 4b3e
000001f0: 9d2d 85be b5d4 b43d a62f 3a3e bf57 c7bc
00000200: e89f 663e 6602 a3be f3c3 2b3e 8023 07be
00000210: 6873 8e3e 11d1 61bd ef84 a83e 06c9 09be
00000220: 6096 723c 30a1 2cbe 74e0 a93e 4b48 9b3e
00000230: 7c8c f13d 5eb1 8ebd faa1 a63e 68fa 8abe
00000240: 5ad5 02be 9abc a13e 161c ac3e 8392 58be
00000250: c271 163e 4bcf 86be 92e0 2abe 6a8e 3f3e
00000260: e50b 24be 7598 093e f08c 623e de8b 33be
00000270: a163 5fbe 7218 9a3e b977 6fbe 3b76 12bd
00000280: d542 95be 03a2 92be 33b9 8d3e 5534 a93e
00000290: 0ecc 913e 4b4f 8ebb dcbc 863e fbc9 a93e
000002a0: 59a9 a73c c881 9b3e 9e28 0a3e 00c0 143e
000002b0: 63b5 68be 4bbf 27be 7d17 973c f852 a53e
000002c0: 53ef d3bd 9d22 a8bd b83f c2bc caa1 cabe
000002d0: b821 19bd 69f7 29be 4af3 d4bd 22a0 4fbe
000002e0: 82a3 083e 7f22 7ebd a415 27be b1ff 8d3e
000002f0: 1993 803e 80b2 493e 4793 553e d19a 76be
00000300: 94f7 9dbe 37a7 4dbe 8939 ba3b 056e 293e
00000310: 54d2 22be 9b1f 33bc 2623 13be 16da 5abd
00000320: d4d4 ad3e 3f15 89bc 553b 4ebd 66a2 a83e
00000330: fe82 74be 700b a33e 5053 f8bd 3faa 9e3d
00000340: 2298 89be 3f78 7c3e 5c47 123d 3af7 c03d
00000350: 9598 a03e 4a91 0b3d c206 533e 266e 783e
00000360: 50fb c9bd b0d3 253e bf9d 0fbe 3cbe 74be
00000370: 5554 be3c 5922 abbe 904f a93d dbab acbe
00000380: ee98 9ebd 5165 95bc 4235 963e 2c2a 56be
00000390: 3543 e9bd bad4 4f3e 28f2 083e c17a fc3d
000003a0: 9386 4ebe b5a1 b0bd 78aa 8bbe 9ffb 96be
000003b0: 9e6d 49be fcab dbbd 58d2 53bd 2aca a0be
000003c0: 693e 9c3c 7d86 a43e b907 5e3c 879b e63d
000003d0: f2fd 943e cdda 263e 8ae0 1c3e 9b14 f13c
000003e0: c43e 23be de11 9cbe 1bf8 893e 82a9 ce3d
000003f0: 7b0f 6ebd 373a 4fbe 78b1 3bbe af31 be3b
0.24821568 -0.064462565 0.35613158 -0.29194477 -0.21012872 -0.4919307 -0.15242922 0.033656515
0.3005193 -0.15621772 -0.12891856 -0.13207933 -0.10771892 -0.30920315 0.10625081 -0.18314984
-0.31691095 -0.29853237 -0.0655605 0.28842726 0.052253492 0.06869783 -0.29347047 0.3402192
-0.29520413 -0.16171731 -0.14081816 0.20439631 -0.13977782 -0.30797035 0.055883795 0.1819698
-0.2917281 -0.3333068 -0.12349326 0.2957344 -0.24385801 -0.32335895 0.19729543 0.27706146
0.0033901723 0.019318668 0.033911873 0.16985339 -0.17880908 0.2245465 0.18078859 -0.02495624
0.34445074 0.31322744 -0.07271131 0.30243057 0.050671898 -0.16440257 0.1684408 -0.07460508
0.23443565 -0.3038266 0.18664263 0.3359884 0.2887722 0.0072112367 -0.07028017 -0.0931446
0.075925685 0.22718874 0.30475911 -0.2922139 -0.0037810416 -0.16143773 -0.14648847 -0.0737476
0.15273334 -0.13179483 0.2617852 0.34674987 -0.31007925 -0.06473729 0.13491817 0.18143839
0.0011765739 0.09727039 -0.25341216 0.020419296 -0.098903984 -0.35204405 0.18367474 -0.32710233
0.3325114 -0.05100464 -0.10024624 0.10992514 -0.31372085 -0.091913246 -0.0024492764 0.027897745
-0.33497503 0.014414431 -0.15461677 0.13414478 -0.15186797 0.04267404 -0.17187756 0.2838306
-0.16438161 0.2167545 0.1811356 0.09917711 0.30590206 -0.10919886 0.12917465 -0.31698734
0.07272777 -0.15229972 0.11849004 -0.29718444 0.16804923 0.15207468 0.015165323 0.13851693
0.13643734 -0.3115789 0.3463815 0.19891816 -0.26011363 0.08829633 0.18182239 -0.024333833
0.22521937 -0.31837767 0.16773967 -0.13197136 0.27822423 -0.055131022 0.3291392 -0.1345559
0.01480636 -0.16858363 0.33179057 0.30328593 0.117943734 -0.06967424 0.32545453 -0.2714417
-0.127767 0.31589204 0.33615178 -0.2114964 0.14691833 -0.26330027 -0.1668723 0.1870667
-0.16020162 0.13437064 0.22124076 -0.17533824 -0.21815349 0.30096775 -0.23385514 -0.035757285
-0.2915255 -0.2863923 0.27680358 0.3304774 0.28475994 -0.0043429486 0.26315963 0.3316191
0.020466493 0.30372453 0.13492057 0.14526367 -0.22725444 -0.16381566 0.018443817 0.32289863
-0.10348382 -0.08209727 -0.023712024 -0.3957656 -0.037385672 -0.16598286 -0.10397966 -0.2027593
0.13343623 -0.062044617 -0.16316849 0.2773414 0.25112227 0.19696999 0.20856963 -0.24082495
-0.3085295 -0.20083319 0.0056831283 0.16545875 -0.15900546 -0.010932828 -0.14368877 -0.05343064
0.33951437 -0.016733764 -0.050349552 0.329364 -0.23878095 0.31844664 -0.121252656 0.077473156
-0.2687388 0.24655245 0.035712585 0.09422155 0.3136641 0.034074105 0.20608047 0.24260768
-0.09862387 0.16194034 -0.14025019 -0.23900694 0.023233572 -0.33424643 0.082671285 -0.33724865
-0.07744013 -0.018236788 0.29337507 -0.20914525 -0.11389772 0.20295992 0.13373625 0.12328101
-0.20168523 -0.08624593 -0.27278495 -0.29488847 -0.19670722 -0.10726163 -0.05171427 -0.3140424
0.019072728 0.32133856 0.013551646 0.11260133 0.29099995 0.16294403 0.1532003 0.02942877
-0.15941912 -0.30482382 0.26947102 0.10090925 -0.058120232 -0.20237051 -0.18329418 0.0058042626

bias f4 [320]
00000000: 470e aebd e27e 743e ab24 45be 1ddf ddbd
00000010: 688c b8bd d1c0 9f3e 16b5 9e3e 057f 63be
00000020: b1ec fb3c 5a4c 323d 7d1d 4e3e f15a 00bc
00000030: c109 8cbe cd0d 033e f671 f93d dcb6 ad3e
00000040: 826f 7f3e f694 40be df8c 963c 0557 963d
00000050: 7e4f b13e d2e3 20bc 44a5 7ebe 5e80 863e
00000060: 9449 81be 9bc6 523e a8da 18be c155 023d
00000070: 22b2 81be 9eb5 c73d 6db2 2a3e 04b1 533c
00000080: 10ad e2bc dde2 84be 554d ee3d a84b 1e3e
00000090: bb93 833e d806 4cbd fd7d ae3d c4b5 abbd
000000a0: 262f 1c3e f637 ebbd 60c1 0a3e 4cfb cfbd
000000b0: 5933 96be e205 60be 5527 52bc 27fb 84be
000000c0: 048e 843e 7d98 8bbd e025 aabe 672e efbc
000000d0: cb68 5f3d f14f 9f3e c3ab f83d 69d8 abbe
000000e0: c626 8a3e c275 5ebd 1c2a b33e 14be 483e
000000f0: 3bd0 b33e a75f 5cbe 4d75 f23d 4f81 86be
00000100: 7bfe 703c 7479 bc3d ccf6 38bd 3924 a83e
00000110: 106e 75be 0522 79be 3acc 26bd 6afa 403e
00000120: c5a1 383e 5adb 81be 6c8d 99be e122 833e
00000130: f453 a9bc 555a ac3e aef6 813e 32ad 763e
00000140: 0a72 8e3e 2099 eabc 0a88 8f3e 1b67 803e
00000150: b59e 1d3e 4f73 293e facf 9bbe 44c6 b2bd
00000160: 221d 00be 5523 3f3e b72c a63e 86b2 01be
00000170: e1cd 50be 8c2c 933d e980 3b3e b4a9 7e3e
00000180: 9e80 51be e50f 0a3e 547f 9a3e f2c3 67be
00000190: f285 04bc d39d 623e 62d4 823e 36ee 203c
000001a0: 6bc7 273d 82f7 bdbb ca10 643d b1d8 a8bb
000001b0: 4145 c8bd a02e 1c3e d15a 9dbe b5b3 b23e
000001c0: 93d9 81be aedb 66bd dfe5 1dbe 758c 57bd
000001d0: 493a 823e a3c9 2c3e 5be0 d7bd b686 7abd
000001e0: f0ef b2bd 2675 56be b57a 85be afef ea3d
000001f0: 977d 5a3c f667 18bd dada ad3e 7af1 993e
00000200: 6948 4abe e562 363d 68e1 133e 9ac7 a63e
00000210: b0e5 8ebe bb88 b8bd 3664 4ebe 6454 fb3d
00000220: aa5c ae3e a5e6 773e 822a 593e 2036 553e
00000230: c818 a03e 2553 1bbe 3710 64bd cf72 b13e
00000240: fc69 683e 58e1 93be 6d6e d4bd 53db 933d
00000250: 3ea6 963e ab29 7abe dc60 9e3e 35cc b8bc
00000260: 7735 6dbe e5b5 85be 4bf3 a4be fb65 5e3c
00000270: 44a3 e93c 0c41 8b3d f7e3 8fbe 85d3 703e
00000280: 8286 febd c66d 90be 6148 96be 9548 323d
00000290: 1cc2 a23d 7143 823e 3129 29be a469 473d
000002a0: 5c0e b33e be1d 8dbb 43b1 e4bd 1043 5cbd
000002b0: e099 a73e 71ef d2bc 51c2 413e 32f3 5b3d
000002c0: a56e 4b3e c35d 943e 2c5c 99be 8b64 6bbe
000002d0: 75e0 85be 4f47 a63d 7b35 35be 6647 37be
000002e0: b9c9 dcbd fcaf 383d 6093 0abe fd82 46bc
000002f0: 734a c7bd 081e ad3e d208 62bd fd98 553e
00000300: 5713 353e ffe2 a73e 663d 9a3e 1d9f 66be
00000310: 30a9 23bd 9ff2 93be 3bd7 223e 10fd c7bd
00000320: 16be 1d3e 4cdd bc3d 4040 63be 3d30 5dbe
00000330: 7fae 423e 638f 833e 2755 ecbd a271 7a3e
00000340: b5fb 6dbe 5227 d93d 9a4b b33e f340 133c
00000350: ee12 3c3e 9996 86be 4b76 a03c 97a9 a3be
00000360: aedb c6bc 11f1 0abe cc6a 893e 40a9 843e
00000370: b55f c0bd c502 59be 5da5 a0be 3aa9 103e
00000380: 95e6 453e 55b2 dbbd 8874 793e b04e af3e
00000390: bc4d 8c3e 1626 393e e073 073e d6d5 963b
000003a0: d171 ac3e d0b9 63be 51ac 8bbd 17a8 8abe
000003b0: d5af fbbd 0ab9 0c3e 4273 1cbe 7506 323b
000003c0: 7d3e 953d dcae 3ebc 8066 903e fbd6 043e
000003d0: f0e4 ec3c d3b7 25be eac8 713d 2273 9f3d
000003e0: 7f25 93be 73f1 a8bc 7078 0a3e d6ee 963e
000003f0: 22f3 82be cba8 10be df5c a5bd 8230 a83e
-0.08498817 0.23876527 -0.19252269 -0.10833571 -0.09011155 0.31201795 0.30997533 -0.22216423
0.030752512 0.043529846 0.20128436 -0.007834182 -0.27351192 0.12798233 0.121799394 0.33928573
0.2494488 -0.18806824 0.01837772 0.073408164 0.3463096 -0.009819942 -0.24867731 0.2626981
-0.25251448 0.20583574 -0.1492716 0.031820063 -0.25331217 0.097514376 0.16669627 0.012920622
-0.027670413 -0.25954333 0.11635844 0.15458548 0.25698647 -0.049811214 0.08520124 -0.083842784
0.1525236 -0.11485283 0.13550329 -0.10155353 -0.2933605 -0.21877244 -0.01282676 -0.25972864
0.258896 -0.06816194 -0.3323202 -0.029196931 0.054543298 0.31115678 0.12142136 -0.33563545
0.26982707 -0.05431152 0.34993064 0.19603759 0.35119805 -0.21520863 0.118387796 -0.2627053
0.01470911 0.09202853 -0.04515724 0.32840136 -0.23967767 -0.24329384 -0.04072211 0.18845525
0.1803046 -0.25362664 -0.2999071 0.25612548 -0.020669915 0.33662668 0.25383514 0.24089506
0.2782138 -0.028637469 0.28033477 0.25078663 0.15392573 0.16547893 -0.3043211 -0.087292224
-0.12511113 0.18665822 0.3245599 -0.12665758 -0.20391037 0.07186231 0.18310894 0.24869424
-0.2045922 0.13482626 0.3017527 -0.22633341 -0.008088576 0.22130518 0.2555266 0.009822419
0.040961664 -0.0057973275 0.055680074 -0.0051527848 -0.09778834 0.15252161 -0.3073335 0.3490273
-0.25361308 -0.056361847 -0.1541972 -0.052624185 0.25435093 0.16873793 -0.10540839 -0.061163627
-0.08737171 -0.20943126 -0.2607018 0.11471497 0.013335607 -0.03720852 0.33956033 0.30067044
-0.19754185 0.044527907 0.14441454 0.3257416 -0.27909613 -0.09010454 -0.20155415 0.122719556
0.34055072 0.24209078 0.21207622 0.20821428 0.31268907 -0.15168436 -0.055679526 0.34657905
0.2269668 -0.2888286 -0.103726245 0.07219567 0.29423708 -0.24429958 0.30933273 -0.022558311
-0.23164926 -0.26115337 -0.32216868 0.013574119 0.028520234 0.06799516 -0.2810361 0.23518188
-0.12427999 -0.2820875 -0.29352096 0.04352625 0.0794718 0.2544208 -0.1651962 0.04868473
0.34971893 -0.004306524 -0.111666225 -0.053774893 0.32734585 -0.02574894 0.18921782 0.053698726
0.19866426 0.28977785 -0.29953134 -0.22987573 -0.2614781 0.0811907 -0.17696182 -0.1789833
-0.10780663 0.045089707 -0.13532782 -0.012116191 -0.09730997 0.33811975 -0.055184193 0.20859142
0.17683159 0.32790372 0.30124968 -0.22521634 -0.03995627 -0.28896043 0.15902416 -0.09765065
0.15404543 0.092218965 -0.22192478 -0.21600433 0.19011877 0.25695333 -0.11539679 0.2445741
-0.2324055 0.10603203 0.35018617 0.008987653 0.18366596 -0.26286772 0.019587656 -0.31965324
-0.024274673 -0.13568522 0.26839292 0.25910378 -0.09393255 -0.21192463 -0.31376162 0.14127055
0.19326241 -0.107273735 0.2436086 0.3423972 0.27403057 0.18080935 0.13227797 0.004603128
0.33680585 -0.2223885 -0.06819976 -0.27081367 -0.12289397 0.13742462 -0.15278342 0.0027164493
0.07287309 -0.011638369 0.282032 0.12972634 0.02891776 -0.16183405 0.059029497 0.07785632
-0.28739545 -0.020622944 0.13522506 0.29479092 -0.2557612 -0.1412689 -0.080743544 0.3284951

weight f4 [4, 320]
00000000: 0037 2bbe 9e56 37bd de26 233d 2e57 c13c
00000010: 0f81 52bd 4cb3 3b3d 88bd 7abc 7f3e 3cbd
00000020: bb8d 073b c916 2cbd cc67 0c3d e1c4 563d
00000030: 8823 0a3c 7878 afbb 8d05 6b3d ad9e e23c
00000040: f012 05bc 9349 19bd dd8e 173d 55d2 3d3d
00000050: 62ad 5f3d 9612 db3c 9c51 bf3b 3857 65bc
00000060: b3aa 04bd e57f 373d c746 913a 635d 9bbc
00000070: 8ae6 2abd b66e 16bd 2172 36bd ff52 783d
00000080: e4d1 e73b 39ea f53c 8d6b 3a3d 298f 8a3c
00000090: d2d3 7a3d 6479 7cbc a4b6 14bd d48a 393d
000000a0: c7df 15bd 2812 283d c6f3 b9bc b40c 26bd
000000b0: cd6d fcbc ad55 cabc 7262 573d 8e20 543c
000000c0: 35d0 8cbc ee4e 503d 78f9 b13c 2291 c33c
000000d0: 6c0f 0fbd 4289 b13c 181a 803c f892 1a3c
000000e0: ce8b 0cbd bcbd f83b 13a9 f43c d504 4bbd
000000f0: 0a33 b9bc 5f51 f83c 23a7 773d da9d d7bb
00000100: 6263 593c 687d 703d 81d6 54bb 8a5f 1e3d
00000110: 489a 313b 5fd9 113d b0df 333c 380d 2cbd
00000120: 8826 383c 5517 41bd 5759 9cbc 89b1 08bd
00000130: de19 2abd 0745 ddbb 2fbc 02bd be8c 8e3c
00000140: 146b c4bc d81a 0dbd 72ed 13bb 206a a4bc
00000150: ef87 cc3b 0314 9ebc c037 083d e070 8a3c
00000160: ea43 36bd 8ca1 333d e969 9fbc f294 e2bc
00000170: b822 26bd b0e4 823c d2d2 20bc f2e9 10bb
00000180: faa6 00bd e973 703d 8eb6 733c fa6d 4ebd
00000190: 9dcd 54bc ba73 fabb 68fe 243d 9f21 893c
000001a0: b459 713d 6179 e2b9 0a9d 0cbc 584a 253d
000001b0: a8ce 08bd 0911 33bd 8d10 083c 5ffb 67bb
000001c0: f131 f4bc 95a2 14be 3106 a03c 4c6e 2d3d
000001d0: cf3c 683c f9d6 663d f386 ef3c 1ec6 223b
000001e0: f659 febc 370a 8c3b 4127 4ebd b7e0 ff3c
000001f0: 5219 4abc d991 1f3c 3332 a5ba 7f5c b53c
00000200: f1f9 023b d8a1 8d3c 5962 e2bc d999 15bd
00000210: 4a46 793d 558d 4c3d 72ba 603d d79f ae3b
00000220: 4c59 5c3d 3e8f a7bc c9d5 7bbc 7f81 9c3c
00000230: 69bc 223d f7e6 6dbc 610a 07bd bace 1cbc
00000240: 9cab dbbc d213 be3a b428 8dbc b449 a3bc
00000250: 36f5 4d3d 292b c83b 7700 2a3d 4fae 7b3d
00000260: fe5c 38bd 278e a33c f2a3 463d a59d a43b
00000270: ad48 1c3d ae7a aa3c 488b f5bc f3ac 863b
00000280: 03ec 4f3d ecc3 4bbd 4360 d2bd bfd8 d2bc
00000290: 50c7 47bd 1752 0ebd e065 50bb 6d29 9cbc
000002a0: fd28 18bc a511 213c ff58 77bb c36d c9bc
000002b0: 6d40 13bd 1e04 04bd 5c37 8e3c 0337 93bc
000002c0: d316 5cbd 365d 50ba 4654 e0bc 25af 03bd
000002d0: e0fe 513d 793b 63ba b052 4ebc 0671 38bd
000002e0: 17e7 003d 0b1e e03c 377e f5bc 04ec 933c
000002f0: 7fd0 b5bc 837c ea3c c006 143c d692 573d
00000300: a237 cb3c ad60 3b3d 6cb1 e7bc 7609 223b
00000310: a7d0 3fbc 7eb9 15bd 4970 53ba f1af 57bb
00000320: 621a 723d 34da 743d 6659 0e3c c000 95bc
00000330: a3f6 85bc f859 403d ea3b 2d3d a1de 263d
00000340: 3d60 5fbc 167b 0c3c 7ac4 d93c b3d9 cb3c
00000350: 86a0 f13c 4c3d 1ebd 13c7 bfbc 20a6 ca3c
00000360: 4afb 03bd a839 163c f3f2 593d 6795 fcbb
00000370: f00e 263d 5a11 24bd 5c75 16bd 8d82 6dbe
00000380: 4cd4 173c b908 4c3c e200 c03b dd6f 743c
00000390: 4532 3b3d 287a d7bd ede9 053d 63f1 84bc
000003a0: d8f1 ce3c f7ec 243d 05b0 bfbc 8c9f 1b3c
000003b0: c378 243d e753 613d f6e7 393d 165b 20be
000003c0: ac0e e33c c2c2 ffbb 303a b93c b84e f53c
000003d0: a9dd 14bd 99a7 453c d695 22bb 5472 873c
000003e0: 6b2e 5bbd 53a3 34bd 3f5f f5bd 8c82 cc3c
000003f0: 4b4f 2f3d 9cd0 ab3c 8436 fa3c f662 1d3d
-0.167202 -0.04476034 0.03983199 0.02360114 -0.05139261 0.045825288 -0.015303977 -0.04595804
0.0020683843 -0.042013917 0.034278676 0.052433852 0.008431323 -0.005354937 0.05737834 0.027663553
-0.008122191 -0.03742368 0.03700148 0.046343166 0.05460871 0.02674226 0.005838586 -0.013997845
-0.032389354 0.044799704 0.0011083715 -0.018965429 -0.041723765 -0.036726676 -0.044542436 0.060626026
0.0070745815 0.030018913 0.045512725 0.016913967 0.061237164 -0.015409801 -0.036306992 0.045298412
-0.036590364 0.04103294 -0.022699248 -0.04053946 -0.030814076 -0.024699057 0.05258412 0.012947215
-0.017189125 0.050856523 0.021725401 0.023872916 -0.034926817 0.021671895 0.015637442 0.009434454
-0.034313016 0.0075909775 0.029865777 -0.049565155 -0.022607345 0.030312238 0.06046213 -0.0065800967
0.013268324 0.058713347 -0.0032476487 0.038665332 0.0027100015 0.03560769 0.010978624 -0.042004794
0.011239655 -0.04714139 -0.01908557 -0.033372436 -0.041528575 -0.0067526135 -0.031917747 0.017401095
-0.02397684 -0.03444943 -0.0022571948 -0.020070136 0.0062417905 -0.019296652 0.033256292 0.016899526
-0.04449836 0.043855235 -0.019459682 -0.027658913 -0.040560454 0.015978187 -0.0098158885 -0.0022112099
-0.03140924 0.05870429 0.014875067 -0.05039785 -0.012988475 -0.00764319 0.040281683 0.016739665
0.05892344 -0.00043196513 -0.008582363 0.040354103 -0.033400208 -0.043717418 0.008304727 -0.0035397632
-0.02980897 -0.14515145 0.019534202 0.042341515 0.014174654 0.056357358 0.029239153 0.0024837325
-0.031048756 0.0042736786 -0.050330404 0.031235082 -0.012335138 0.009739363 -0.0012603462 0.022138832
0.0019985402 0.017289087 -0.027634786 -0.036523674 0.06085805 0.049939472 0.054865308 0.005329113
0.053796098 -0.020454045 -0.015370795 0.019104717 0.039730463 -0.014520398 -0.032968882 -0.009570772
-0.026815228 0.0014501757 -0.017231323 -0.019932605 0.05028268 0.0061086607 0.04150435 0.06144553
-0.04501056 0.019965244 0.048496194 0.0050236755 0.038155247 0.020810451 -0.029973641 0.0041099726
0.050762188 -0.049747393 -0.10272267 -0.025738118 -0.048774064 -0.034746256 -0.0031799003 -0.019062722
-0.009287116 0.009830867 -0.0037742255 -0.024588471 -0.035950113 -0.03223049 0.017360382 -0.017970568
-0.053732704 -0.000794846 -0.027383935 -0.032149453 0.05126846 -0.0008668225 -0.012592956 -0.045029663
0.031470384 0.027358076 -0.02996741 0.018056877 -0.022194145 0.028623825 0.009034812 0.052630268
0.024806801 0.045746494 -0.028282844 0.0024724877 -0.011707461 -0.036553852 -0.0008065743 -0.0032911266
0.05910719 0.059778407 0.008688306 -0.018188834 -0.016352957 0.0469608 0.042293467 0.04073966
-0.013633785 0.008574268 0.026582945 0.02488408 0.029495489 -0.038632676 -0.023410356 0.024737418
-0.03222207 0.00916902 0.05321021 -0.00770824 0.04054159 -0.04005561 -0.036733016 -0.23194332
0.009266924 0.0124532515 0.0058594802 0.014919248 0.045702238 -0.10521346 0.032693792 -0.016228383
0.025261804 0.04026505 -0.023399362 0.009498488 0.04015423 0.055011656 0.04538723 -0.15659747
0.027716957 -0.0078051994 0.022610754 0.029944763 -0.036344204 0.012063884 -0.0024808547 0.016534008
-0.053511064 -0.04410107 -0.119810574 0.024964593 0.04280023 0.020973496 0.030543573 0.038424455

bias f4 [4]
00000000: 884d 06bd 5c78 373d 3601 0a3b 872f 0abd
-0.032788783 0.044792518 0.002105785 -0.03373673

weight f4 [4, 8]
00000000: 3471 9f3e cbfa 9f3e 42b3 07be 27d8 da3c
00000010: e91a 57be 2c16 28be 6a53 e8bd 1dfb aebd
00000020: 744b 85be 79a2 98be bd29 883e bcc6 01be
00000030: 32fe 9fbe 901e 04bd 054e 7d3d 13cd 35be
00000040: 20d1 df3d 8df0 c43d 0026 24bd 70cd 743d
00000050: d512 543d e317 413e 5e7c b0be 2868 efbb
00000060: f14e 7c3e 56cd 813e 6776 ac3e 6f65 7dbd
00000070: 92eb 1bbe ad00 ac3e 3481 173e e225 9f3e
0.31141055 0.31246027 -0.13251975 0.026714398 -0.21006359 -0.16414708 -0.11344035 -0.0854399
-0.2603413 -0.29811457 0.26594344 -0.12673467 -0.31248623 -0.03225571 0.061841983 -0.17754011
0.10928559 0.09616194 -0.040075302 0.059766233 0.051775772 0.18856768 -0.34469885 -0.0073061176
0.24639489 0.2535197 0.33684084 -0.061864313 -0.15226582 0.33594266 0.14795381 0.3108359

bias f4 [4]
00000000: 5bcd 82be c31a 86bd 56b8 243e ce35 c9bd
-0.255473 -0.06548073 0.16085944 -0.098247156

weight f4 [4, 8]
00000000: cfe0 cebd ccf9 cdbd 8642 743e da0a 0ebc
00000010: 167d 9a3d cf90 443e 53db 1cbe 9c63 9abe
00000020: 8672 a93d 0281 48bc 44f5 92be 652e 6e3e
00000030: 2aed 3c3e fbb5 253e 2846 63bd ca34 a03e
00000040: e9c3 a7be bc30 63bc 5b4b 093d b6d0 8ebd
00000050: d58b d7bb 7b2b a63e 8491 343e 0adb 983e
00000060: 779c 82be 07a9 2dbe 0246 973e 99a2 8e3e
00000070: 1317 a4bc 6c8f 5dbe 190e c53d f742 52bd
-0.101014726 -0.100574106 0.23853502 -0.008669579 0.075433895 0.19195865 -0.1531804 -0.3015412
0.08273797 -0.012237789 -0.28702748 0.23259886 0.18449846 0.16182701 -0.055486828 0.31290275
-0.32766655 -0.0138666 0.03351913 -0.06973402 -0.0065779486 0.32455048 0.17633635 0.29854614
-0.25509998 -0.1695901 0.295456 0.27858427 -0.020030534 -0.21636742 0.096218295 -0.051333394

bias f4 [4]
00000000: 3ee3 21be 874e 6bbe 3d10 adbc 9ac2 233d
-0.15809342 -0.22979175 -0.021125907 0.03998051

weight f4 [10, 2]
00000000: ba93 6cbe f7ea 13be 8bf3 d0be 9672 e63d
00000010: 48f6 323e e47c fd3e 71f6 93be aea7 0fbf
00000020: 9111 6abd c086 bfbd e811 0e3f 3ae0 023f
00000030: 89a0 05be 413c 28bf 637b 9bbe c358 353f
00000040: fcd3 bf3d c727 3c3f cb2d c43e 9fec 19bf
-0.23103228 -0.144451 -0.4081081 0.11252324 0.17476761 0.49509346 -0.28898957 -0.56115234
-0.05714566 -0.093518734 0.5549607 0.5112339 -0.1304952 -0.6571694 -0.30367574 0.70838565
0.09366605 0.73498195 0.38316187 -0.6012668

bias f4 [10]
00000000: 1d2c 49be 6433 013f 4193 f5be 03f0 053f
00000010: 3d67 e33d bd9d 1abe 6353 023e 8f5e 7f3e
00000020: c777 293e 22c0 103f
-0.19645734 0.5046904 -0.47963908 0.52319354 0.111036755 -0.15099235 0.12727122 0.24938415
0.16549598 0.5654317

weight f4 [10, 2]
00000000: 778d 9ebe 0583 24bf 0108 023f a76a 0abf
00000010: e039 313f ea13 e83e 0e42 1c3f c39f c4be
00000020: 2a9d 81be 7f65 6f3e d0f0 51be e4e0 073f
00000030: d056 2d3f d0f7 ecbe e394 903e 9593 99be
00000040: 9e63 db3e 9315 303f 7355 d8be 8bba acbe
-0.30967304 -0.6426242 0.50793463 -0.5406899 0.69228935 0.45327693 0.6103829 -0.3840314
-0.2531522 0.23378561 -0.20502019 0.5307753 0.6771059 -0.46282816 0.28238592 -0.2999541
0.4284944 0.6878292 -0.42252693 -0.3373607

bias f4 [10]
00000000: fc8e de3e c3ef 01be 24fa 9c3e 90ee cc3e
00000010: 01d2 e3be 8806 cdbb 8d63 16be 5e4e aabe
00000020: a4c3 bd3e 2cb4 0dbf
0.43468463 -0.12689118 0.30659592 0.4002576 -0.44496158 -0.006256882 -0.14686413 -0.33262914
0.37063324 -0.55353045

weight f4 [20, 4]
00000000: 14be 33be 0ca5 93be 63ec 30be 8600 f63d
00000010: 8ce5 de3e 743c cd3e 1b20 a63e 9b66 7fbe
00000020: 41ba 243c 92eb a13e d506 c8be 5a34 0f3b
00000030: 7260 fcbd 2e0e fdbe 5fd9 ac3e af9b 0cbe
00000040: 3590 edbd 7897 2f3e 3cb4 293e 5946 e1be
00000050: 540a 1b3e 6f24 0ebd 8793 c63e a34a 173e
00000060: ea67 3a3e 3734 6ebe 55f7 b33e 3299 c33e
00000070: edee 5fbd a6a4 8f3e f340 4f3d 9be0 d9be
00000080: 626e 99be 5984 30be c805 96be 3d9b 053d
00000090: aeb8 e93b 5f47 a8bd 85da 503d 722e 163e
000000a0: ed35 593e 4e1d 8b3e 46a0 d13e 98da 7b3e
000000b0: 73b0 433e 5e7e 97be 9178 b53e ee6e 60be
000000c0: 4624 2abe c4e3 3dbd bff9 aabe 3318 c6be
000000d0: f98e 82be 3da7 a1be cec7 3abe 30d6 793e
000000e0: 707f f13e c99a b0bd 0a4d 483e 2273 b8be
000000f0: f4ae a6be f379 e23e d93c f13d dd64 8a3d
00000100: 57b6 eebe 60b9 883d d672 e6bd 8302 bc3e
00000110: 0a6b b1bd b0e5 d13e 9556 f9bd ffa9 b73e
00000120: 2fca 30be e568 dabe f552 a63e f3ea 2a3e
00000130: cf96 bf3d eaa3 353e 5267 8f3e 8d52 fa3e
-0.17552978 -0.28836858 -0.17277674 0.120118186 0.43534505 0.40085185 0.3244637 -0.24941485
0.010054172 0.31625038 -0.39067712 0.0021851272 -0.12323083 -0.4942488 0.3375959 -0.13731264
-0.11599771 0.17147624 0.1657266 -0.43998984 0.15140659 -0.034702715 0.3878443 0.14774565
0.18203703 -0.23262106 0.35149637 0.38202816 -0.054671217 0.28055304 0.05059905 -0.42554173
-0.29967028 -0.17237987 -0.29301286 0.03261875 0.0071326112 -0.08216738 0.050989646 0.14666155
0.21211977 0.27170795 0.4094259 0.24595106 0.19110279 -0.29588598 0.35443547 -0.21917316
-0.166154 -0.046359792 -0.33393666 -0.38690338 -0.25499704 -0.31572905 -0.18240282 0.24398112
0.4716754 -0.08623273 0.19560638 -0.3602534 -0.32555354 0.44233665 0.11779184 0.067575194
-0.4662349 0.066759825 -0.11252372 0.36720666 -0.08662994 0.4099555 -0.12174717 0.35871884
-0.17264627 -0.42658153 0.32485166 0.16691189 0.09354936 0.1773831 0.28008515 0.48891106

bias f4 [20]
00000000: e8fd 09be de9c 9ebc ab40 c53d e0b9 2d3e
00000010: 4dae de3d ce85 0ebe 8ee8 4fbc 0f7c db3e
00000020: acc4 193e 1174 a8be 2a83 f73e b483 a6be
00000030: 2905 3f3e 4e0e 6f3e 74e9 223e c7c3 c23d
00000040: f0f3 cebe aefd 96be 3664 b53e 851a 8dbe
-0.13475764 -0.01936191 0.09631475 0.16965437 0.10873089 -0.1391823 -0.012689723 0.42868087
0.1501643 -0.32901052 0.48342258 -0.32522357 0.18654312 0.233453 0.15909368 0.09509998
-0.40420485 -0.29490417 0.35428017 -0.27559295

weight_ih_l0 f4 [12, 10]
00000000: 7d24 143e 9a39 bfbe 8da4 8ebe bc31 893e
00000010: 0aea 80be 68e4 e63e f34b 08be aabf c6bc
00000020: 7ebc ebbe 22ce e8be 49fd d3be bcc8 f03e
00000030: dbe4 823e daea a0bd 7ead 76be 16be 0e3e
00000040: 5918 593e be79 bfbe acd6 1a3e 93d7 c93e
00000050: 2b5c a1bd e7bc 7b3e 5f52 4e3e e40e 5a3e
00000060: dc62 b1be c9c0 b3be ad3f 363e 53d0 cb3e
00000070: a467 0bbf b969 67be a02a cdbe 1487 74be
00000080: 5231 94bd d2da ccbe c093 e73e 4e13 15be
00000090: 0426 363e d23c aeb9 4765 72be e8b1 e9be
000000a0: af0d 063f 73d4 a6bd 39a4 823e d873 cdbe
000000b0: 52fc ac3e 244b 983e 38de d73e 0000 c2be
000000c0: f038 103f 4769 a3bd 3f8a bb3d c54e e83d
000000d0: ed05 bfbe 602c e1be c47f 3e3e d2e1 92be
000000e0: 22ba d43e cdf6 9ebe 7897 57be 4cb0 0d3e
000000f0: 45c4 d83b b254 033f 3f7f f1be 2ffd fa3d
00000100: c62e 22be 45d1 6dbe c75d 0b3f 5807 7ebe
00000110: a539 7bbe 8d12 fd3e 1b1c e33c b5a8 d63e
00000120: d357 39bd 6214 69bb 836d 293e c552 febe
00000130: d618 82be ed93 153e 34bc 73be c5fd 11be
00000140: be8c 00bf 4741 6b3e 21b6 5d3d 6532 b0be
00000150: eb80 e53e edf1 7fbe 324c 87be f967 bcbc
00000160: 253d 863d 2319 52be 60f7 223e fd5d abbe
00000170: ff4b faba 20dc e33d 782c d03e f679 96be
00000180: b369 06bf 0bea 0ebf a52b acbd 41c8 18be
00000190: 63a6 47be 24cd e33e d88f 083c a34f 8bbe
000001a0: a29e 92be a5ac 08be 5ba8 bebe 9312 b0be
000001b0: cf0f e9bd 7d1a bbbe 0bf3 113e e4fa 9f3d
000001c0: 00a0 99bd a775 e33e 2ac9 a4bd 6670 e6be
000001d0: 28f8 c7bd 14a0 a93e baf8 31be 9d3d a33e
0.14467044 -0.37348634 -0.27859917 0.26795757 -0.25178558 0.45096135 -0.13310222 -0.024261314
-0.46042246 -0.45469767 -0.4140418 0.47028148 0.25565228 -0.078572944 -0.2408962 0.139397
0.21200694 -0.3739757 0.15120953 0.39422283 -0.07878908 0.2458378 0.2014861 0.21294743
-0.34645736 -0.3510802 0.17797728 0.39807376 -0.5445502 -0.22598924 -0.40071583 -0.23879653
-0.072359696 -0.40010697 0.45229912 -0.14558145 0.1778794 -0.0003323318 -0.23671447 -0.45643544
0.5236463 -0.0814599 0.25515917 -0.40127444 0.33786255 0.29744828 0.42161727 -0.37890625
0.5633688 -0.079790644 0.09157228 0.11343149 -0.3730921 -0.43979168 0.18603426 -0.28687912
0.41548258 -0.3104767 -0.21053874 0.13836783 0.006615194 0.5130111 -0.47167394 0.12255322
-0.15838155 -0.23224361 0.5443997 -0.24807489 -0.24533708 0.49428216 0.027723363 0.41925588
-0.04524977 -0.0035565128 0.16545682 -0.49672523 -0.25409573 0.1460721 -0.23802263 -0.14256962
-0.50214756 0.2297412 0.05412877 -0.34413448 0.4482492 -0.24994631 -0.2642532 -0.022998797
0.06554631 -0.20517401 0.15914679 -0.33470145 -0.0019096135 0.1112597 0.40658927 -0.29389924
-0.52505034 -0.5582587 -0.08406762 -0.14920141 -0.19497065 0.44492447 0.008335076 -0.27209195
-0.28636652 -0.13347109 -0.3723782 -0.3438917 -0.113799684 -0.36543646 0.1425287 0.078115255
-0.07501221 0.444257 -0.080461815 -0.45007628 -0.09764129 0.33129942 -0.17380038 0.31882945

weight_hh_l0 f4 [12, 4]
00000000: d7f0 f6be 2401 d7be b9a2 a63e 4d95 16be
00000010: 80c1 a73e 708a 90be 85f6 e33e 4d30 a73c
00000020: 15a6 0cbe 3772 95be ca9c b63d 5c03 713c
00000030: d59c d9be 3d23 c4be 2996 823e f739 543e
00000040: c8f9 5dbe 5466 da3e 6cf3 6e3e 9897 633e
00000050: eec9 96bd cdde e13e 27ef 093d df4d 5c3d
00000060: ec51 0d3e dec9 b03e 0716 75be b020 85be
00000070: 9940 f03e 0b4e a73e d231 13be fb8a d2be
00000080: b9c6 32be d5b8 da3e 441a 1b3e 3468 7ebe
00000090: bd37 63be a4db 773d 456c 943d af86 08bf
000000a0: 1a6d cabe 8754 b83e 9315 97be 18b4 28be
000000b0: 509d f93b fa41 8abe db76 38bd ce55 aebe
-0.4823062 -0.41993058 0.32546023 -0.14705391 0.32764816 -0.2823062 0.44524017 0.020408774
-0.1373523 -0.29188702 0.08916624 0.014710274 -0.42502466 -0.38308135 0.25505188 0.20725237
-0.21677315 0.42656195 0.23335046 0.22225797 -0.07362734 0.44115296 0.03367534 0.0537852
0.13800782 0.34529012 -0.23934184 -0.260015 0.46924284 0.3267673 -0.14374474 -0.4112166
-0.17458619 0.4271914 0.15146738 -0.24844438 -0.22189231 0.0605122 0.07247213 -0.5333051
-0.39536363 0.3600199 -0.29508647 -0.1647495 0.00761763 -0.2700346 -0.045035224 -0.3404984

bias_ih_l0 f4 [12]
00000000: 34ae 0ebe 074b dd3e 6580 343e c428 de3b
00000010: 60de b0be a35b 8b3a b2d5 94bd cf54 52be
00000020: fbd6 a1bd 648d 993d 7004 043f 735e 4bbd
-0.1393364 0.43221304 0.17627104 0.006779762 -0.3454466 0.0010632168 -0.07267322 -0.20540164
-0.079023324 0.07497671 0.5156927 -0.04965062

bias_hh_l0 f4 [12]
00000000: f128 30bd d863 09be 5943 9ebb 1eb9 b93c
00000010: d89c e7be d2ed d43e 6c1f 983e 6bde d23c
00000020: 8fcc c53e d639 02bf 3c41 2fbd 898e e83e
-0.043007795 -0.13416994 -0.004829806 0.022671279 -0.4523685 0.41587692 0.29711473 0.025740823
0.38632628 -0.508695 -0.04278682 0.45421246
