RTSNet/new_architecture/linear/best-model_hrot10_linear2x2rq020T100.pt (torch, 141383 bytes, 70 tensors)

weight_ih_l0 f4 [12, 10]
00000000: b298 7ebd c02e ac3e 4d49 893e cbfb 94be
00000010: d49a 9f3e 66ff a7be a967 073c b8d4 b43e
00000020: 6c32 65be 87b9 a4be fe1f fe3d c7bc 0ebe
00000030: f2a9 f83d a8b4 813e e98a 6c3e 4fd2 8abe
00000040: 904b a4be 5aa5 a63e 2885 c7be 7f62 c4be
00000050: 68b2 b93e 8bb8 cb3e 2311 813d d8ed 80bd
00000060: 5d68 b9be c2a7 b8be 6dfb e43e ac37 aa3e
00000070: 7e4a 70be e415 85be 5dba ad3c 64da b03e
00000080: 435c 8dbe 96be 3cbe e626 dfbe 8892 8e3d
00000090: 6d87 81bd 33a3 b6be 6922 8cbe 3da3 9f3e
000000a0: da1d 7f3e e9d1 fcbe 1f98 96be 7365 a6be
000000b0: 7f17 f53e 5da6 66be 7c2b 8fbd 9c88 cf3d
000000c0: 464e 96bc 21ea eb3e 8ff5 7a3e dd54 1fbe
000000d0: ed89 dc3d 8992 563d 2cb0 9abe 3bc2 eebd
000000e0: 2cce 1f3e c5e8 39be ffab 2dbe 32ab 4abd
000000f0: c87f 9b3e 60aa ba3e a41c a3be 3a48 d8be
00000100: 6f7b 14bd 6cc4 9cbe d914 a53d 166e eabe
00000110: e483 11be 24f7 b1be f8dc fbbe 6452 7d3c
00000120: 2c05 f83c 9187 47bd 64f5 083e 4551 c6be
00000130: 0499 b63e c15a cbbe 34cb 013d e57c 8e3e
00000140: 82bd 113e e837 12bc 9dda bb3e ad76 2cbd
00000150: 77e5 f93e 54b9 2e3d dc36 733e 5400 903d
00000160: 92b6 a6be 0c9a 233d 09a8 99be a6d3 d6be
00000170: 94ba 5e3e abee 69be fed7 2d3e c521 61be
00000180: 67ce 8ebe 6ffc ef3e 8b6f cabe 2dd1 813d
00000190: dd74 81be b431 ec3c 7910 9c3e 5189 fcbe
000001a0: 6faa cebe c7e6 87be c6c7 d7be ffac 18be
000001b0: 4660 ecbd bcfb 90bd aed1 8e3e 80f5 413d
000001c0: 0d3c ebbe ce3f 2a3e 08fa 8ebe e4d4 debe
000001d0: 82e5 8bbc 19ec d9bd 64cc 993e 0ce0 a6bd
-0.06215734 0.33629417 0.26813737 -0.29098353 0.31172812 -0.3281204 0.008264461 0.35318542
-0.22382516 -0.32172796 0.12408446 -0.139392 0.121417895 0.25333142 0.23099865 -0.27113578
-0.320889 0.32548028 -0.38968778 -0.38356397 0.36268926 0.39789233 0.06302097 -0.06295365
-0.36212435 -0.3606549 0.44723073 0.332456 -0.23465917 -0.25993264 0.021207029 0.3454162
-0.27609453 -0.18432078 -0.43584365 0.06961542 -0.063246585 -0.35671386 -0.27370003 0.31179228
0.24913731 -0.493789 -0.29412934 -0.32499275 0.4786949 -0.225244 -0.06990716 0.10133478
-0.01834787 0.46077064 0.24507736 -0.15559717 0.10768495 0.05238584 -0.30212533 -0.1165814
0.15605992 -0.18155201 -0.16960143 -0.04947967 0.30370927 0.3645811 -0.3185779 -0.42242604
-0.036250528 -0.30618608 0.08060617 -0.45787114 -0.14210469 -0.34758866 -0.49192023 0.015461538
0.030275904 -0.04871327 0.13374859 -0.3873388 0.35663617 -0.39717677 0.03168793 0.27829662
0.14232448 -0.008924462 0.36690226 -0.042105366 0.4880788 0.04265721 0.23751396 0.070313126
-0.32561165 0.039941832 -0.30011013 -0.4195835 0.21750861 -0.22844951 0.16976926 -0.21985538
-0.27891847 0.4687228 -0.39538226 0.06338725 -0.25284472 0.028832294 0.30481318 -0.49323514
-0.40364406 -0.26543257 -0.42144603 -0.14909743 -0.115418 -0.070792645 0.27894348 0.047353268
-0.45944253 0.16625902 -0.27925134 -0.43521798 -0.017077211 -0.10640735 0.3003875 -0.08148202

weight_hh_l0 f4 [12, 4]
00000000: fe15 cd3e df9b a1bc 4695 d7be 982a 383e
00000010: e741 e0be b44c 8e3e c953 9fbd 7ba2 e13e
00000020: ac39 9e3e 3d4a 8f3e 71c6 f0be 72ee c5be
00000030: 4d33 7b3e 1e4a e5be c47f a7bd 3a3e d43e
00000040: 8132 e23e 955b e93e 558d 37be ada3 4bbe
00000050: b68b 8dbe 945d 353c 121a 42be 61d8 c1bd
00000060: e4eb 11bc 35ae 2a3b 8213 093e b393 8cbe
00000070: 04da 3b3d 7b24 cbbe ebb5 8e3e 7d7c d23e
00000080: 8a9d bbbe 98db d93e a3b8 133e 3897 323e
00000090: 23d8 0cbe 1152 a1be 776c 3a3c 52b3 ad3e
000000a0: 919e 66be 6b40 873e a6aa f0bd fabb 93bc
000000b0: 2ad9 d3be 0ab5 d6be 14b9 e93d 4f77 f73e
0.4005584 -0.019727645 -0.42106074 0.17984998 -0.4380028 0.27792895 -0.077796526 0.44069275
0.30903375 0.27986327 -0.470264 -0.38658482 0.24531288 -0.4478311 -0.08178666 0.41453725
0.44179156 0.45577684 -0.17925008 -0.19886656 -0.27645653 0.011069674 -0.18955258 -0.09465099
-0.008906338 0.0026043777 0.13386348 -0.27456436 0.045862213 -0.3967627 0.27873167 0.41110602
-0.3664363 0.4255035 0.14425902 0.17440498 -0.13754325 -0.31507924 0.011378399 0.33925873
-0.22521426 0.26416335 -0.117512986 -0.01803397 -0.4137662 -0.41934997 0.11412254 0.48333213

bias_ih_l0 f4 [12]
00000000: 4e26 c7be 2448 39bb aa25 f33e 63f1 46be
00000010: 4d7d 39be 2634 92be 2f98 923e 052f f13e
00000020: 3ae1 c13e c9b6 d8be 7c60 f83d dd34 dbbe
-0.38896412 -0.002827176 0.47489673 -0.19428019 -0.18114205 -0.2855541 0.28631732 0.47106186
0.37867147 -0.42326954 0.12127778 -0.4281377

bias_hh_l0 f4 [12]
00000000: 1f16 60be fa32 ce3d c5e7 0fbe 86dd 93bc
00000010: 4d38 cabe 5c59 033e 1254 2e3e 1ca2 2cbd
00000020: 94f8 fc3e bfcf 873e 393e 803e b844 243e
-0.21883439 0.10068317 -0.14053257 -0.018049967 -0.3949608 0.12827057 0.17024258 -0.042146787
0.494084 0.26525685 0.25047472 0.16041839

weight_ih_l0 f4 [12, 14]
00000000: 9dc0 fa3e ba77 943e bc62 68be 61df f4be
00000010: a11d 153d 7414 0ebd 0cb1 a1be 2386 2dbe
00000020: 52e5 b2be e4a9 5a3e c803 d3be 2983 e63e
00000030: 28b2 27ae cefe b6be 3a63 65be 1751 cd3d
00000040: 8ba9 893e 45b8 df3c e660 80aa 956a 81bb
00000050: 0e58 cfbd 9d85 cfbe bd5d 583e 39ec d8bd
00000060: 3b77 84be 75f8 d6be f7ea c2a9 8360 5a3e
00000070: 95a4 2ebe 7706 bfbe 8435 0a3d d692 36be
00000080: 3187 01be ca4a 8cbc b6e7 a53c b8b9 5abe
00000090: ab4b f53e 7537 c13e fd99 c43e ecb7 70be
000000a0: 6770 ce3c 64e6 b13e e683 3cbd 1d37 a6be
000000b0: 59a0 4ebd 277f dd3e 8f0d 89bd 3250 40a8
000000c0: 1c19 97be 97df 8d3c a355 af3d 4f96 c13e
000000d0: 7d8a d43d f365 ebbe d462 92bd 3a0a e4be
000000e0: a19d 31bd e0ea 483e 92f3 3cbe 2895 d93e
000000f0: 311e 19bd 1630 df3d a03c 763e 6c2f 83bd
00000100: 9408 bbbc 922c a4bd 32f4 f83e 4cc5 cdbe
00000110: b32e f03d d5d1 833d 36a1 33be 5f8b 9dbe
00000120: 8eaa cfbe ed62 05be bcc2 0730 59c8 3ebd
00000130: 2a42 20be 4c89 44be 51d0 f8be 0468 ddbe
00000140: b3cb 69be 1e27 21be 3452 87bd b79c b43e
00000150: 3d05 01bd 6472 52be ad3b 983d 8186 d53e
00000160: 052e bb3d 93bf 813d 05bf b5be b6fb 9bbe
00000170: f255 f5bd 7aef 6b3e f350 a7be 1ec1 6bbe
00000180: 283d de36 50b3 86be 0842 3abe 1bf5 a03e
00000190: 2f9c a8be c8d8 c73d 036a 033d 7695 81bc
000001a0: e31c a9be 9c0a 1ebe d1c9 c43d 135b c8be
000001b0: 10d2 8e3d dbf3 bebe 466c 2b3b 6e62 f43e
000001c0: 5511 ce3e a8bc a7be 3488 24be abfa 34be
000001d0: c61c 45ae 7506 c1bc b0e0 dcbe 5184 b4be
000001e0: fec7 953c 2806 34bd dc97 e33d 66ab ad3c
000001f0: 6631 0c3d 3e94 6dbd 6c99 3dbd 0377 a0be
00000200: 8dde d4be 0069 6f3e f724 11bc d262 33ba
00000210: 2734 e8bd 29ff 5bbe a3c9 c83e 5670 063e
00000220: 28f6 e3be 1c27 b03e 316f 20bd 0c74 ca3c
00000230: d435 fdbe 8005 ce3e 6c40 96be b84c 8cbe
00000240: 5896 cabd f744 a73d 9190 ffbe 6f91 f63e
00000250: 0d32 51be 988f 6b3d 45b8 4dbe 9c3c eb3e
00000260: 4299 1abc f826 d43e 6677 35be 4077 9c3d
00000270: ca2c 2c3e e9ff e3bd 0fe6 11bd c61a 03bb
00000280: 0a47 d23c eaa8 f13d 9c40 90be f801 b8be
00000290: 87ff c53e d2c4 a33e 7ced 34ba 682c 2dbd
0.48975077 0.28997594 -0.22693914 -0.47826675 0.03640521 -0.034687474 -0.3158039 -0.169457
-0.34940583 0.2135387 -0.41213822 0.45021942 -3.812964e-11 -0.35741276 -0.22401133 0.10025232
0.26887164 0.027309546 -2.2804604e-13 -0.003949473 -0.10124217 -0.40531626 0.21129508 -0.10591931
-0.25872216 -0.41986433 -8.6560906e-14 0.21325879 -0.1705497 -0.3730962 0.033742443 -0.17829451
-0.12649228 -0.017125506 0.02025209 -0.21359909 0.47909293 0.37737623 0.38398734 -0.2350766
0.025200082 0.34746087 -0.046024226 -0.32463923 -0.05044589 0.43261072 -0.06692039 -1.0675531e-14
-0.29511344 0.01731853 0.08561256 0.3780999 0.10377977 -0.4597622 -0.07147756 -0.44539052
-0.043363217 0.19620848 -0.1845229 0.4249661 -0.03738231 0.108978435 0.24046564 -0.064055294
-0.022831239 -0.080163136 0.48623806 -0.40189588 0.11727657 0.06436507 -0.17541966 -0.30770394
-0.4055981 -0.13026018 4.938945e-10 -0.046577785 -0.1565024 -0.19193 -0.48596433 -0.4324342
-0.22831611 -0.15737578 -0.06607476 0.35275814 -0.031499136 -0.20551449 0.07433257 0.4170418
0.09139637 0.06335368 -0.354973 -0.30465478 -0.119792834 0.23040572 -0.32678947 -0.23022887
6.623235e-06 -0.2630868 -0.18189251 0.31437 -0.3293166 0.097581446 0.032083523 -0.015818339
-0.3302985 -0.15433735 0.09608806 -0.39131984 0.0697366 -0.37295422 0.0026157065 0.47731346
0.40247598 -0.3276112 -0.16067582 -0.17673747 -4.481817e-11 -0.02356265 -0.43140173 -0.352572
0.01828384 -0.043951184 0.11112949 0.021199893 0.034226798 -0.058002703 -0.046288893 -0.313408
-0.41576043 0.23379898 -0.008858911 -0.00068430335 -0.11338072 -0.21484055 0.39216337 0.1312879
-0.4452374 0.34404838 -0.03916854 0.024713539 -0.4945513 0.4023857 -0.29346025 -0.27402282
-0.09891957 0.08167451 -0.49914983 0.48157832 -0.20429249 0.05750999 -0.20089824 0.4594468
-0.009435954 0.4143598 -0.17721328 0.07639933 0.1681396 -0.11132795 -0.03561979 -0.0020004972
0.02566864 0.11799796 -0.28174293 -0.35939002 0.38671514 0.319861 -0.0006901843 -0.042278677

weight_hh_l0 f4 [12, 4]
00000000: a8a5 933d 816f b6ba 67aa c1be b95a de3d
00000010: 33b4 abbe 0810 61ba c9bb 2fbe 65d7 f23d
00000020: 5974 84be dcfd 333d e774 9d3e 15b6 1abe
00000030: 32ee 40bd eb6e 833d 0428 cd3e df7a 7fbe
00000040: 56ae 4e3e 01b3 0d30 9534 1c3e 70ad 68be
00000050: 5156 f73c f925 133d ba4a 833b e5dd eabd
00000060: 04e9 aabe 4cca 8e2c d111 443d 74f5 813d
00000070: 74b0 edbe 15a8 63b0 c7c1 bbbe 9a05 7dbe
00000080: 2e90 2bbe d2bb 95b8 3a93 d5bb 31af 5ebe
00000090: e4b4 d0be cf4f 523d e518 95be c0ad 033e
000000a0: 074a b13e 3fff 963c 4588 90bd 0837 93be
000000b0: 02e1 c7be 7f06 99b9 02c1 1ebe 4300 a7be
0.07209331 -0.0013918729 -0.3782532 0.10857148 -0.3353592 -0.00085854577 -0.17161478 0.118574895
-0.25870016 0.04394327 0.30753252 -0.15108521 -0.04710216 0.0641764 0.40069592 -0.24949215
0.20183691 5.154988e-10 0.15254433 -0.22722411 0.030192526 0.035924885 0.004006711 -0.11468104
-0.33380902 4.058342e-12 0.047868554 0.063456446 -0.46423686 -8.282098e-10 -0.36671278 -0.24709168
-0.16754219 -7.139858e-05 -0.006517795 -0.21746518 -0.4076301 0.051345643 -0.29120556 0.12859249
0.3462679 0.018432258 -0.07057241 -0.28752923 -0.39038855 -0.00029187274 -0.15503314 -0.32617387

bias_ih_l0 f4 [12]
00000000: 82e5 813d 9e02 ce3e 1230 54be 23d7 b1bd
00000010: 18f1 a9be fd14 383e 2693 febe 1633 afbe
00000020: d25a 783e 89a4 60bd 1443 ef3e 288b c7be
0.06342603 0.40236372 -0.20721462 -0.08683612 -0.33191752 0.17976756 -0.4972164 -0.34218663
0.24253395 -0.054844413 0.46730864 -0.38973355

bias_hh_l0 f4 [12]
00000000: 175c 1e3e c8c2 f73e cbf5 863e b96b 17be
00000010: 6624 1b3d dd43 e9be e118 383e 8e92 6e3e
00000020: 461c b3be f89a cf3c e575 d73e 45b5 92be
0.15464817 0.48390794 0.263594 -0.14787187 0.03787651 -0.45559588 0.1797824 0.23298094
-0.34982508 0.02534245 0.42082134 -0.28653923

weight_ih_l0 f4 [12, 24]
00000000: a11e 723d f554 883d 1e32 973e cc92 5bbe
00000010: bd8a 49be 5062 d2be 718d f63c cc16 bd3e
00000020: 1709 23be 500d 41bd 21f0 cf3d c8b7 86be
00000030: b299 ba3d 59bc 2f3e 607f d6be 3d01 d1be
00000040: dad5 fb3e aeb9 a1be 1a97 d63d f385 cfbe
00000050: 5c69 d13e 19dc 963d 4618 e8be bf3b b5be
00000060: b701 9fbe c1ac 5cbe 9531 5c3e 32c3 833c
00000070: 2e41 82be e6c3 9e3e d342 fc3e b9df c93e
00000080: 0a92 cc3c d745 aebe eb7b f7be 542a ce3d
00000090: ff73 fdbe fcd2 ef3e 8f0d fbbe aab0 9fbe
000000a0: 7e6a fabe f6a7 8b3e 7f0d ae3e 04bf e73d
000000b0: c7ca 1bbd 2102 d23e c41a 873e cc19 a53e
000000c0: 5cb7 d63e 73b9 8abd 6330 543e 6c4e 47be
000000d0: be36 1dbe 674e 67be 36f2 c4be eec0 453c
000000e0: 6c77 d83e ee8e cebd e6bd 01be 6571 90be
000000f0: de9b ca3d 55b0 34bb fc5e 54be 41af f33e
00000100: 6ad0 99bc 0efe 633e f154 f63d 9af4 12be
00000110: fcab c9be c2e4 893d bee3 c5be fa90 1abe
00000120: 1215 efbd c268 d03e c779 a9bd 9742 db3e
00000130: e357 e4be 7582 24be b50f aabe de81 803d
00000140: 3172 44be ccb2 633e 102d 90bd adca 8d3e
00000150: c463 f0be 3984 a2be ba81 a23e cafe 383e
00000160: d6bc 063e 8578 bcbe 5494 c2be b02f bb3e
00000170: 0439 e6be 031c adbe 3166 c0bd bfe6 333e
00000180: 0dbb e23e 50e7 6dbc 59f6 003f dbc3 063e
00000190: fb7f 313d 69f8 17be b28c db3e 5d9e 35bd
000001a0: 8cbb e6be be72 cc3e 0d48 04be 8e6a 39be
000001b0: d826 ba3e a406 adbd c14e 803e 2369 543e
000001c0: 04ae 843e deab 5bbe 92bd f8bd b736 ccbd
000001d0: 62ce b73e d43c bbbe 5ca8 72be 23b5 a03e
000001e0: 8521 453e 67cc b4be a7e5 753e da5c f23e
000001f0: 5a2a b6bd 31a9 a13e e850 c7bc 0d94 c0bd
00000200: da9b 543e 565f 8ebd e358 adbd b191 83be
00000210: 7a42 ff3e 4d0b f0be edb3 3c3e cf4a c23e
00000220: 6fce 8dbe a45f 023e fe60 4abe 6d65 e63e
00000230: d258 c43d d6dd 28be efd5 c4be aa1f 0f3e
00000240: f6b3 86bd d36c 95be 5cd2 3c3d 4dcb f53d
00000250: e8f2 313e bb7f e93e 51d0 b23e 6962 333e
00000260: 2ee9 9d3d 5465 ae3e 6d10 2f3e 9dfc b5bc
00000270: 157f e6bd 1dbb 523e ad64 49be 6ea7 8ebe
00000280: ca4d ddbe deea 2fbe 8258 bd3e 4766 f73e
00000290: 5204 2abe f9fc 853d 800e 9ebd 1c25 df3d
000002a0: 1f71 41be fd0c e8bd 13b7 eb3e b2e5 c83e
000002b0: 7485 cbbb 28d8 dcbe c4d8 393e 8854 433e
000002c0: 2180 a8be 63c9 d0be 748b a0be 9e7d 793e
000002d0: 724f 2f3d 1620 f1be b465 e6be f013 88be
000002e0: d2cc c2be d2b3 dfbe 70d0 f33c 9354 46be
000002f0: d2e2 eabe 6aa3 42be a1eb 46bd 590b 8d3e
00000300: 2fd1 fbbe b814 f33d 9b44 73be a610 ce3d
00000310: 659f 333e d7c4 b7be 860e 65be c119 073d
00000320: b12c 03bd f855 2bbc 3f56 b13d d102 eabe
00000330: 9f3a 9dbe 31be 98be 2e28 a93e 8fc7 403e
00000340: 3f1c 40be c035 eebe bd16 c2be a85e a13e
00000350: 6ed1 9c3e f324 463e 556f 91bc 8dfd 70be
00000360: 340d 623b 5165 e93e 32e2 92be bd66 db3c
00000370: ff12 313e 01c0 ad3e ec52 61bd 909b f0be
00000380: a08d b8be 849d b8bd 4e21 fabd 844d c1be
00000390: 39a1 cc3e c888 983d 9b88 ac3e 3790 a6be
000003a0: 059a 19be d8c7 bfbe b206 0ebd 9cfc 0fbd
000003b0: d051 20be 6b4c 51be 7acd b03e 556c 9bbe
000003c0: bc02 bfbe 1f2d eb3e a2c9 79be 4344 63bd
000003d0: 649d 62be a613 e13e 4171 f43e cdd6 eb3e
000003e0: 3b65 d0ba c1e2 9abe 9d2e b9be bac9 cabe
000003f0: f271 993e 74c9 383e 1064 93be 3366 fc3e
0.05911124 0.06656829 0.29530424 -0.21442717 -0.1968183 -0.4109063 0.030096741 0.36931455
-0.15921436 -0.047131836 0.10153223 -0.2631209 0.09111346 0.17161693 -0.41894054 -0.40821257
0.49186593 -0.31586975 0.10478039 -0.40531883 0.40900695 0.07366199 -0.4533102 -0.35397145
-0.31055996 -0.21550275 0.21503289 0.016084287 -0.25440353 0.31008834 0.49269733 0.394285
0.02497198 -0.3403766 -0.4833673 0.10066667 -0.4950256 0.46840656 -0.49033782 -0.3118947
-0.48909372 0.27276582 0.33994672 0.1131573 -0.03803518 0.4101725 0.26387608 0.32246244
0.41936767 -0.06773653 0.20721583 -0.1946351 -0.15352914 -0.22588502 -0.38466042 0.012069924
0.42278612 -0.100858554 -0.12670097 -0.28211513 0.098930106 -0.0027570922 -0.20739359 0.47594646
-0.018776137 0.22264883 0.1202792 -0.1435112 -0.39389026 0.06733085 -0.38650316 -0.15094367
-0.11673941 0.40704924 -0.0827518 0.42824242 -0.44598302 -0.1606539 -0.3321511 0.0627477
-0.19184186 0.22236174 -0.07039845 0.27693692 -0.46951115 -0.31741503 0.317396 0.18065944
0.13157973 -0.368107 -0.3800379 0.3655982 -0.44965374 -0.33810434 -0.093944915 0.17568491
0.44283333 -0.014520481 0.50375897 0.1316065 0.043334942 -0.14840855 0.4288078 -0.04434048
-0.45064962 0.3993129 -0.1291811 -0.18107054 0.3635776 -0.08448532 0.25060084 0.20743231
0.25914013 -0.21452281 -0.12145533 -0.099713735 0.35899645 -0.36569846 -0.23697037 0.31388196
0.19251068 -0.35312197 0.24013387 0.47336465 -0.08894797 0.31574395 -0.024330571 -0.094032384
0.20762578 -0.06951778 -0.084642194 -0.2569709 0.49855405 -0.46883622 0.18428011 0.379477
-0.2769656 0.12731797 -0.19763562 0.44999257 0.09587254 -0.16490874 -0.38444468 0.13976923
-0.065772936 -0.2918459 0.04609905 0.12001667 0.17377818 0.45605263 0.34924558 0.17518009
0.07710491 0.34061682 0.1709611 -0.022215182 -0.11254708 0.2057919 -0.19667311 -0.27862114
-0.4322341 -0.17179438 0.3698159 0.4832022 -0.1660321 0.06542391 -0.077176094 0.1089575
-0.18890809 -0.11330602 0.46038112 0.39237744 -0.006210977 -0.43133664 0.18149096 0.19075215
-0.32910255 -0.40778646 -0.31356394 0.24364325 0.042800374 -0.47094792 -0.44999468 -0.2657771
-0.3804689 -0.4369188 0.029762477 -0.193682 -0.45876175 -0.1900765 -0.048564557 0.2754772
-0.49183032 0.11869186 -0.2375664 0.10061769 0.17541273 -0.35892364 -0.22368822 0.032983545
-0.032025043 -0.010457508 0.08659028 -0.45705274 -0.30708787 -0.29832605 0.33038467 0.18826126
-0.18760775 -0.46525383 -0.37907973 0.3151753 0.30628532 0.19350033 -0.017753283 -0.23534222
0.0034492733 0.4558511 -0.28688198 0.026782388 0.17292403 0.3393555 -0.05501072 -0.46993685
-0.3604555 -0.09014419 -0.122133836 -0.37754452 0.39966753 0.07447964 0.33697972 -0.32531902
-0.1500016 -0.37457156 -0.034674354 -0.035153016 -0.15656209 -0.20439307 0.34531766 -0.30356088
-0.37306774 0.45932862 -0.24393323 -0.05548502 -0.22130352 0.43960303 0.47742656 0.46062317
-0.001589931 -0.30251125 -0.36168376 -0.3960703 0.29969746 0.18045598 -0.2878728 0.49296722

weight_hh_l0 f4 [12, 4]
00000000: e219 953e 563a 7a3c ebc8 fcbe 6840 b73e
00000010: 9cd3 8abe c6b1 eabe a447 f3bd 160b 3a3e
00000020: 9815 abbe 72c0 0dbe 6b24 e3be 4db7 8d3e
00000030: 1a0e abbe 72d9 b53d 7a55 d0be e21d b1bc
00000040: 29df cdbd 7eb1 ed3e 0b39 6d3e d163 7b3d
00000050: a7b3 52be ee0f 8bbe 52bf 5f3e 2065 9b3e
00000060: 88a1 b9be 1f83 a93c 82ca d2be 0399 ae3e
00000070: 5c5c ac3b da6f 53be c437 9fbd 8bb8 d33e
00000080: e3f3 38be 77ec 2ebe cf1a ca3e 4555 d1be
00000090: a82c d9be 4191 e73d 1c01 d0be e4aa 9b3e
000000a0: b1e7 d13e a151 e03e 2851 49bd cf30 ab3e
000000b0: 03d0 d13e ebe8 e93e bffc 8e3e 8fb2 a9be
0.2912131 0.015272697 -0.49372038 0.35791326 -0.2711457 -0.45838755 -0.11878899 0.18168291
-0.33414912 -0.13842943 -0.44363722 0.2767891 -0.33409196 0.08879365 -0.40690213 -0.021620695
-0.1005233 0.46424478 0.23166291 0.06137449 -0.20576344 -0.2716059 0.21850327 0.3035059
-0.3625605 0.020692406 -0.41170126 0.34101114 0.0052600335 -0.20648137 -0.07774308 0.41351733
-0.18061785 -0.17082392 0.39473578 -0.40885368 -0.42416883 0.11307002 -0.40625846 0.30403817
0.4099708 0.43812278 -0.049149662 0.33435676 0.40979013 0.45685515 0.27927205 -0.33144042

bias_ih_l0 f4 [12]
00000000: daab 7b3e e0f8 d4bd 9039 943e ed6e b03e
00000010: a272 f43e 0bc7 95be d66d 7a3e b77d 0a3e
00000020: 0813 93be 7365 96be 8364 d93e 8d53 ba3e
0.24577275 -0.10399032 0.28950167 0.3445963 0.47743708 -0.2925342 0.24455962 0.13524519
-0.28725457 -0.29374275 0.42459497 0.3639187

bias_hh_l0 f4 [12]
00000000: 3b83 ecbe 6667 85bc b8b0 89be d1e6 0cbd
00000010: d460 79bc e952 613e 2746 cb3e 9460 3a3e
00000020: 482f fa3d 2127 913e ea25 77be f1d7 73be
-0.4619387 -0.016284656 -0.26892638 -0.03439981 -0.0152208395 0.22004284 0.3970196 0.18200904
0.122160494 0.28350165 -0.24135557 -0.23812844

weight f4 [4, 4]
00000000: 559f be3e dd70 3fbe 35c7 46bd 60bc d2bd
00000010: 8a98 653e 63da 79be 7b84 69bc 33bf 83be
00000020: 8d70 e3bb f50f 813e dc30 a73e 59d3 803e
00000030: 8c07 bd3e 2c6c 453e d7f2 97bc c818 553d
0.37230936 -0.18695398 -0.048529822 -0.10289836 0.2242147 -0.24399714 -0.014252777 -0.2573181
-0.0069409073 0.25207487 0.32654464 0.25161245 0.3691982 0.19279546 -0.018548412 0.052025586

bias f4 [4]
00000000: 7491 dcbd 1805 a03e 9a0c db3e 92ec 723d
-0.107699305 0.31253886 0.42783052 0.059307642

weight f4 [320, 8]
00000000: a134 3fbc 6346 a63e dd3c 8b3d dde0 723e
00000010: 7a59 cfbb c162 833e b023 703d a67f 863e
00000020: 0a47 96bb 045d 60ac 1351 243b 87a2 aa29
00000030: 6191 093a 34a6 8b39 72ad da29 2914 0fbd
00000040: 67e3 eb3d 0d02 123e fbd6 89be 69ef 1d3e
00000050: 1467 6bbc 15a2 7b3e 7e00 a83e 9be3 043e
00000060: 9a0a 3b3e ed45 483e 1052 fabd c8f5 f3bb
00000070: ac4e 04bd 15ac 983e afd0 483e dadf d43d
00000080: e6d0 263d fde1 b03d 3541 a4bc 8505 803e
00000090: ae0a 593e a09c 3f3d 644b d7bd 0959 96bd
000000a0: 94ab fcb8 6b78 e8b7 573b 16bd fea3 8eb9
000000b0: c647 1abc 41f2 c439 becb 8d29 67d5 a83a
000000c0: dd39 e536 e299 50bc d3ec 2daa b023 9b3a
000000d0: 6b6c 3a3c 69d0 39bb 6eed 83bc 2db6 10bc
000000e0: 4b94 b9bc aae5 c7ad 9bef 1eaf d44f df2a
000000f0: 1a11 25a7 0edb 5ab5 96c3 d6ba 927b a03c
00000100: 3afd 553c 05df 55be 6562 20be 114e 09be
00000110: 3a91 6d3e df65 713d 23f7 37be efba 603e
00000120: eae6 5abe 90d4 8e3e 5f4e 8e3d 8322 16be
00000130: d36f 4bbe 5fde 893d 1786 9d3e 5e40 8c3c
00000140: 4416 953d 8c67 96be b619 9d3e 0366 0ebe
00000150: 9b77 1cbe 96fe 8cba 6a18 88be 9ece a2be
00000160: b5e7 893e 3dfd 96be 1a21 733e 3e21 303d
00000170: a1ec 8d3e 19ca 4cbe 1c28 0f3e 0813 5bbe
00000180: 2e93 db3c 7db3 acbd d86f e23c 9351 31be
00000190: d6fc 953c acc8 cb3d f678 8f3e ada7 a6bd
000001a0: 9bde 5b3d dda4 84be 7372 903e dfa1 e2bd
000001b0: 7fc3 a6be 901b ad3e 14ff 0b3e b3dc 393c
000001c0: f136 113e 076b 0fbe f29f 003e 6dad 53be
000001d0: 46f4 cc3d 8122 62be 3fa2 803e 73c0 89bc
000001e0: 1fda 513e 23fd 34be 8a86 453d aae2 dc3d
000001f0: df22 a0be da82 6c3e fc15 8abe a65f 3a3e
00000200: b17a a83d 0eed 15be fe66 a5bd 0c8f 473b
00000210: ef34 42bd 0533 0abb c3ca 7bbd 2a11 7c39
00000220: b5a8 4dbe 7629 ad3e e584 13be 7f23 863e
00000230: e3e6 5cbe 5908 4ebe 63d2 99bd 643a 563d
00000240: 81e2 97be 5587 253c 69a5 133e b46f 0cbd
00000250: 3110 0fbc 58c8 87be 5459 d63d 7f94 e23c
00000260: d70d 873e ef69 8dbe 9a6f 013e ae41 1d3e
00000270: c066 c93b 0846 2abe c008 53be ab2e 7b3e
00000280: 9ea8 2db9 5c20 3fac a0cb 17b8 436b 9f29
00000290: 6009 872a 1f13 a8a9 743b 5eb1 c5e4 93a9
000002a0: 2020 a5bd e4ff d03b cadf 01bc 87e1 9c3d
000002b0: 143b 0c3e fc4e 90bc b90a 873d 6a48 1ebe
000002c0: b5db 643d 817a 35bc 6ed8 67be be98 6bbe
000002d0: 0905 8dbe 42ae 203b a9ad c73d f3d1 993d
000002e0: 03c7 4631 029c 41a8 cedc 9cb5 d182 7ab9
000002f0: aed0 13b9 6e7c 943c 1924 bdbc 5e82 abbb
00000300: 00be 8abe a101 783e 4872 b13e ff36 94be
00000310: 4c04 553d 6952 acbe 2a11 05be 8ea1 643e
00000320: 745f 97ba 7268 16bd 736f 04ae 346d b3b8
00000330: b445 bbb6 a004 a7a8 7165 89bc 39e4 04bd
00000340: 4fc7 8abc 6c8e 00bc 2ea2 57bc 19c4 323c
00000350: 80ee 813b 84ce 4fbd 0bc7 073d 250e 3abc
00000360: c62d 043e 4641 8abe 5667 803e 777d 94be
00000370: f181 88be 038b 0d3e f102 87bd b63c b7bd
00000380: 0f46 953c a23e 8236 942f d8aa a81e fe31
00000390: 5983 ac2d 6cc8 5f34 7774 50bb e558 0ebd
000003a0: 7cf7 0abd 8eb9 ce3c b908 c02a f466 3ab6
000003b0: 343d 013c 76ee 2d3a 4682 2131 0c6e 52ba
000003c0: 979c a6bd 7946 123e ac4f 243e e0bf 97bd
000003d0: d0bb 75be fe3c b13e 0694 8c3e d969 7a3d
000003e0: 410a 753d 590e 823e 1170 b1be 5146 683e
000003f0: 89fc 663d f8ed 59be 9d2d 45be 26dc 8b3e
-0.011670263 0.32475576 0.06798718 0.23718591 -0.006327805 0.2566128 0.058627784 0.26269263
-0.0045861052 -3.1883949e-12 0.0025072738 7.5777106e-14 0.00052477984 0.00026635977 9.711233e-14 -0.034931336
0.11517983 0.14258595 -0.2692183 0.15423359 -0.014367837 0.24573548 0.32812876 0.1297745
0.18265763 0.19557925 -0.122226834 -0.007445071 -0.03230159 0.29818788 0.19610856 0.10394259
0.040726565 0.08636854 -0.020050624 0.2500421 0.2119548 0.04678023 -0.105124265 -0.07341201
-0.00012048255 -2.771263e-05 -0.036677685 -0.00027206534 -0.009416526 0.00037564526 6.2970015e-14 0.0012880982
6.831468e-06 -0.012732001 -1.5447652e-13 0.0011836197 0.011378388 -0.0028352982 -0.016104426 -0.008832497
-0.02265372 -2.2725672e-11 -1.4455141e-10 3.966815e-13 -2.290762e-15 -8.1530095e-07 -0.0016385193 0.019590173
0.013060862 -0.20885856 -0.15662535 -0.13408686 0.23199931 0.058935042 -0.17965369 0.2194631
-0.21377149 0.27896547 0.06948542 -0.14661603 -0.19866876 0.06731867 0.30766365 0.017120536
0.072796375 -0.29375875 0.30683678 -0.13906102 -0.15280001 -0.0010757025 -0.26581126 -0.3179826
0.2693459 -0.2949008 0.23743096 0.043000452 0.27719596 -0.19998969 0.13980144 -0.21393979
0.02680358 -0.08432672 0.027641222 -0.17316274 0.018309038 0.099503845 0.28021973 -0.0813745
0.05367909 -0.2590703 0.28212318 -0.11066031 -0.32571027 0.3381009 0.13671523 0.011344123
0.14181115 -0.14005671 0.12561014 -0.20671625 0.10007529 -0.22083475 0.25123784 -0.0168154
0.20493363 -0.17674689 0.04822401 0.1078542 -0.31276605 0.23096791 -0.26969898 0.1820055
0.082265265 -0.1464121 -0.08076285 0.0030450253 -0.047413763 -0.002108754 -0.061472666 0.00024038987
-0.20083888 0.33820695 -0.14406164 0.26198956 -0.21572451 -0.20120372 -0.07510831 0.05230178
-0.29664996 0.010103066 0.14418568 -0.034286216 -0.008731888 -0.26520038 0.10466257 0.0276587
0.26377746 -0.27619883 0.12640229 0.15357086 0.006146282 -0.16628277 -0.20608807 0.24529521
-0.0001656138 -2.7160696e-12 -3.6190846e-05 7.0796254e-14 2.3987323e-13 -7.464016e-14 -3.2339047e-09 -6.5677966e-14
-0.08062768 0.006378161 -0.007926891 0.076602034 0.13694412 -0.017615788 0.06593842 -0.15457311
0.05587359 -0.0110765705 -0.22641155 -0.23007485 -0.27542904 0.0024517928 0.0974992 0.07510748
2.8925917e-09 -1.0747481e-14 -1.1687168e-06 -0.00023890591 -0.00014096752 0.018125739 -0.023088502 -0.005234047
-0.27098083 0.24219371 0.34657502 -0.2894821 0.05200605 -0.33656624 -0.12994829 0.22327253
-0.0011548833 -0.0367207 -3.0112312e-11 -8.555726e-05 -5.581149e-06 -1.854273e-14 -0.016772004 -0.032444213
-0.01694074 -0.007846456 -0.013161225 0.010911011 0.003965199 -0.050734058 0.033148807 -0.011355911
0.12908086 -0.27002925 0.2507884 -0.29001972 -0.26661637 0.1382256 -0.06592358 -0.089471266
0.018221883 3.8815933e-06 -3.8402322e-13 7.395858e-09 1.9612466e-11 2.0841406e-07 -0.00318077 -0.034752745
-0.033927426 0.025234964 3.4112104e-13 -2.7776086e-06 0.007888127 0.000663496 2.3502635e-09 -0.00080272625
-0.08135336 0.14284696 0.16046017 -0.07409644 -0.23997426 0.34616846 0.27456683 0.0611361
0.059824232 0.2540157 -0.34655812 0.22683074 0.05639318 -0.21282184 -0.19255681 0.27316397

bias f4 [320]
00000000: fb76 073e 6abb c8ba d402 223d 368e a53e
00000010: 4d93 563e f0d3 0abc 3b28 ac2e 1d20 a5bc
00000020: b821 a23d 046f 5c3c c6cc 903d 5e8b 6d3e
00000030: 576a b43e 4ee6 933e f87b 703c 6b62 063c
00000040: fd5a 0aba dcad 7e3e 5feb 233e 0522 cdbd
00000050: e23b adbb 3726 dc3d 61d3 bc3c be9c 27bd
00000060: 11db 1e3d 5896 f62b 7263 7bbd 30c1 62bd
00000070: 56e7 4eaf 0a2b aabc 9645 823b 36da 863e
00000080: 3758 ae3e 9977 27be 250d 723e 2175 8f3d
00000090: 74f0 d4bd 1a4d 8d3e 6db7 97ba e7fc 96bb
000000a0: 4617 bbbd 8ef1 5ebe 5e82 5f3b 15d9 943e
000000b0: ef8a 633e 0d63 4b3e 3903 24bd 0f61 a9bd
000000c0: 4845 e0bd 7c31 2fbc 45a5 0dbd dde2 aa3e
000000d0: a5f4 183e 3673 76be 5e9a 393e c906 a7bd
000000e0: b828 213e 1d48 a03c 7ce7 793e 0c3b e6bd
000000f0: 9a61 81be b287 12bd 823c a4be c6e5 1b3e
00000100: 7b67 4b3e dfd7 b6bb 4e6d 15bc 236d a93d
00000110: 7111 3a3e b2dc b23e 9d61 78bc 9345 393e
00000120: 9f8e 813e a660 8dbe 9d4a 8c3e f034 f43c
00000130: 21ac 173e dd7f 813e fba0 da3d cb8f 96be
00000140: ce28 9f3e 1979 73bc 686d 3429 ed62 84be
00000150: ba00 a83e d34f 063e 7769 3abd b498 8f3e
00000160: 070b ae3e b51e 6fbc 123d 70bd 11bf 7ebe
00000170: 666b 6eb7 e5b3 1f3e dfa1 403e bc4f 18be
00000180: 8b7b 303e a74b 09bd 7046 813e 2b3c 9e3e
00000190: 87fa 6ebe 2190 65be 9b70 f83d 1d76 3d3d
000001a0: af6a 4abe 0b4d 8b3d 3da7 7cbe e19c 0f3e
000001b0: bb25 ea3b c947 7c3e 6c0c 30be 071e e9bd
000001c0: 0464 463d 5ff3 ba3e 2528 9e3e 968e f93d
000001d0: c7ad c0b7 a627 1a3d 98ff ab3e c9bd 9fbd
000001e0: 45c9 aa3e a844 80a9 c170 9a3d 035a e7bd
000001f0: c637 ad3e 62c3 8abc 7dc1 1b3e c84b 91bc
00000200: 2723 abbe 6220 88be c8d3 babb 6a54 46bd
00000210: 48ea 87be 4bf8 06be c238 13bc 0ff1 e1bb
00000220: 942b 9e3e 8b06 1d28 3765 85bb 57f4 16bc
00000230: 8f0b 383d 49ca c4bd 7767 07bb 35de b13e
00000240: c13a 1abd f738 a9bc ff34 5d3e 0f42 803e
00000250: ba7a 6f3d e08b f83d 738f 843e fc0f c93d
00000260: f2a6 04bd a46f 023e b400 2c3d c351 16bd
00000270: cbb8 1f37 4320 80be f60a 193e 716f 843e
00000280: 744d 59be 797c a93e 3287 24bd b4ff f53b
00000290: f317 fd3d 8d9d 7a3d d8d9 a8be bbd9 b33d
000002a0: 59e8 f2ba 7860 533e 675c faba a8f5 c22e
000002b0: c0f2 233c a57a 0d3e ebae 9e3b 3003 b0bc
000002c0: 1781 973e f143 6abc 9068 27bd 7535 23be
000002d0: ec13 27be d1be 73bd 9c67 8abe 9fbd 7e3e
000002e0: 220f 4c3e d81d 8fbd b62c a53e 8edc c2ae
000002f0: 9961 32bc 0203 8e3d 614d 10bd 9102 b8bb
00000300: fd45 7fbd a081 4abe 309d e9bb 0f05 a13e
00000310: d79f 963e 7b75 15bd cbaf e7bc 3931 fa3d
00000320: 256a 56bb 016a 97bd be3e ed3b cd23 a13e
00000330: 421b 9cbc 33d9 b23d 49a7 20bc 1318 e2bc
00000340: c8f7 953e f66b 77be 6e3e eabb 31a4 5b3e
00000350: 01df 8d3e 3f6e df3d f2e2 b6bd b44e 3a3e
00000360: 2a4d 94be 4a1c 853e dbea c3bd e9f0 223e
00000370: 3876 a63e cff4 9dbc 6866 8abe 0da4 44bd
00000380: e79f 563b 881c 863a cab1 6e3e 13f3 1c3e
00000390: bb65 22bd 1daa 033e d506 c6bd 58b1 3f3e
000003a0: 7515 a13e b6e6 17be aa9a f93d ccb0 99bc
000003b0: 83c6 a63a 8d63 813d 0f2c 913e 7f08 883e
000003c0: a7de 6bbe 545a 82b9 a883 683e 8e36 bba9
000003d0: e633 4abd ff40 bfbb 39b4 393e 7b7a e4bd
000003e0: 661c 493e 0a8b 7c3e 7478 e4bc 52c9 353e
000003f0: 9708 ccbd 1999 d6bc c135 833e 33b2 573e
0.13228981 -0.0015314643 0.03955348 0.3233506 0.20954628 -0.008473381 7.828801e-11 -0.020156914
0.079165876 0.013454203 0.070703074 0.23197696 0.3523738 0.28886646 0.014677994 0.008202176
-0.00052778405 0.2487101 0.16007756 -0.10016254 -0.0052866796 0.107494764 0.023050012 -0.040920965
0.038783137 1.752108e-12 -0.061374135 -0.05536002 -1.8817778e-10 -0.020772476 0.0039755804 0.26338357
0.34051678 -0.16354217 0.23637827 0.070047624 -0.10397425 0.27597886 -0.0011575051 -0.004607785
-0.091352984 -0.21771833 0.0034104805 0.2907187 0.22220968 0.19862004 -0.040042136 -0.082704656
-0.10950714 -0.01069295 -0.03458144 0.33376208 0.14937074 -0.24067387 0.18125293 -0.08155591
0.15738189 0.019565636 0.2440471 -0.11241731 -0.25269777 -0.03577394 -0.32077414 0.1522437
0.19863693 -0.005579933 -0.009120299 0.08272769 0.18170716 0.34934002 -0.015159992 0.18092947
0.25304124 -0.276128 0.27400675 0.029810399 0.14811756 0.25292864 0.10675236 -0.2940658
0.3108582 -0.014860415 4.0062924e-14 -0.25856724 0.32813054 0.13116388 -0.045510735 0.2804619
0.33992788 -0.0145947235 -0.05865199 -0.24877574 -1.4210911e-05 0.15595968 0.18811749 -0.14874166
0.17234628 -0.033519413 0.25249052 0.3090528 -0.23337756 -0.22418262 0.12130853 0.04625522
-0.19767259 0.06801804 -0.24673171 0.14024688 0.007145611 0.24636759 -0.17192239 -0.113826804
0.048435226 0.36513802 0.30890003 0.12185399 -2.2969105e-05 0.037635468 0.3359344 -0.077998705
0.3335668 -5.696252e-14 0.07541037 -0.11296465 0.33831614 -0.016938869 0.15210529 -0.01773633
-0.33425257 -0.26587206 -0.005701516 -0.048420347 -0.2654593 -0.13180654 -0.0089857 -0.0068951915
0.30892622 8.7166695e-15 -0.0040709036 -0.009213529 0.044932898 -0.09608895 -0.0020661035 0.34739843
-0.03765369 -0.020657046 0.21602248 0.250504 0.05846665 0.12136054 0.25890693 0.09817502
-0.032385774 0.127379 0.041992858 -0.036699068 9.520164e-06 -0.25024614 0.14945588 0.25866273
-0.21220952 0.33102778 -0.040167995 0.007507289 0.123580836 0.06118541 -0.32978702 0.08781763
-0.001853238 0.20642269 -0.0019101024 8.865736e-11 0.010006607 0.13816316 0.004842629 -0.021485895
0.29590675 -0.014298425 -0.040871203 -0.15938361 -0.16316193 -0.05950815 -0.27032173 0.24877022
0.19927648 -0.06988114 0.32260674 -8.861277e-11 -0.010887527 0.069341674 -0.035230044 -0.0056155403
-0.062322605 -0.1977601 -0.007129334 0.31449172 0.29418823 -0.03648899 -0.028282067 0.1221642
-0.0032717076 -0.073932655 0.0072401455 0.31472626 -0.019055966 0.08732834 -0.009805509 -0.02759937
0.29290605 -0.24162278 -0.0071485555 0.21449353 0.277092 0.109097 -0.08930005 0.18194085
-0.28965122 0.25998145 -0.095662795 0.15912212 0.3251207 -0.019281773 -0.27031255 -0.048008014
0.0032749118 0.0010231892 0.23310009 0.153271 -0.0396478 0.12857862 -0.09669272 0.18719995
0.31461683 -0.14834103 0.12187703 -0.018761061 0.0012723956 0.06317816 0.28353927 0.26568982
-0.23034154 -0.00024862832 0.22706473 -8.313932e-14 -0.0493659 -0.0058366056 0.18135156 -0.11156174
0.1963974 0.24662414 -0.027889468 0.17752579 -0.09962576 -0.02619605 0.25626948 0.21064071

weight f4 [4, 320]
00000000: 9225 b43c 908a 08aa 6d83 6a3d 90d3 6139
00000010: 3e96 12bd e2eb bea9 6c1f 25ab ee14 3faa
00000020: 1ccc 33bd 4239 903c 054c 2ebd 582b 4d3d
00000030: b2b8 e33c 83b4 0c3d acee 7e3d 211a 5cbc
00000040: 4c49 1cbd 1aac 39bd 89ab e13c 9d3e b0bc
00000050: fff4 6628 9b99 643b 24ba 6e3c 9f41 9da9
00000060: 9ef6 803d ea95 ffa9 0b06 bfba b22f 24bd
00000070: 5210 0129 799f 89a9 aedc 0bbd 7886 8abc
00000080: 06b7 1bbc 25ca 9abd 33a0 423d c829 0f3d
00000090: cf1e febc 7453 52bd 34ea 6828 580b 22a9
000000a0: ba38 943c 8303 34bc d2b4 bcbb fbce 1bbd
000000b0: 45d9 be3b f81c 113d f94c 413b cc95 6539
000000c0: fb0c b53c d7a1 132c 021a 173d b679 083d
000000d0: f119 04bd b413 223c e1c2 3ebd 71e7 55bd
000000e0: 6d40 923c 4138 05aa 2932 1a3c f72b 87bd
000000f0: 23a2 993c b236 843d c51e 0abd c391 ae3c
00000100: 9dc4 8b3c 08a5 72bc 497c 343d deff 6c3a
00000110: 965f d73c 449f c13c 954c 5f3c f7d7 87bc
00000120: b980 3d3d 42e4 96bd 4293 abbc 8efa 13bd
00000130: c309 7abd 227e 653d a088 303d de5f b13b
00000140: 2a8f ed3c 225d d629 a7da a7a8 055b 913c
00000150: 461e a03c bd36 ab3c 3ca9 743d eac4 463b
00000160: e5b3 2fbc 21a4 15bc 4bd8 313d c808 f0bc
00000170: adfc 2baa e49f e93c 37ce 2b3d 16a0 82bc
00000180: 86ed e0bd 2c3d 4e28 6d8b 603d 4bd0 abba
00000190: acf3 fb3c 4c84 ffb9 6487 353d 60b4 103c
000001a0: 4626 bebc 3b1e 9abc e410 0cbd 94b4 56bc
000001b0: 5bce 32bd fb7b f83c b0e7 0abc 3737 a4ba
000001c0: c801 2fbd aa4d 623d 1a18 793d e161 803b
000001d0: e899 8aaa 3027 b5bc 7296 2d3d 3b07 123d
000001e0: e701 1ebd 06f6 24aa 3505 333d 0967 f23c
000001f0: c481 debc f483 313d f18e 18be a4a0 c82a
00000200: 252c 113d 05f6 5c3c 5a68 8e3a 0ae6 edbc
00000210: 9bd4 c53c b614 213d 86c6 903a 485b 6831
00000220: e940 30bd 94c9 61a9 cc99 423a b4ef ad3a
00000230: ed68 c93c 1777 e43c 345e 562b 2722 563d
00000240: 5072 c4bc 15a0 632a 6689 79bc 32e4 2cbd
00000250: 6064 2fbd 3b30 5d3d 23b3 913c cd01 2e3d
00000260: 789b 3b3c f953 863d ae44 f9bd 2d08 a03d
00000270: b29e 50aa 778e 8fbd 469a 22bd cb35 7cbc
00000280: 36b1 243d f243 803d e19e 503d 94a0 073d
00000290: e164 553d 09cb 36be bfae 0ebc f30c 873c
000002a0: 2863 51aa de61 453c b17a 4429 3675 baaa
000002b0: 8e7b 063c 7976 1a3d de9f d13c ae6c 3b2a
000002c0: fe83 7b3d f4e0 89aa f445 69aa ff11 563c
000002d0: 2b5d ea3c 6403 bebb 2460 083d 34f9 98bc
000002e0: 7107 f2bc 421d 773d d948 993c f822 7baa
000002f0: d808 0b34 5097 a8bc d21c d8a7 e69e c2a9
00000300: 3357 983c 741f 3e3b 687b 4cbc a7d8 36bd
00000310: 77b9 00bd 3427 67a9 6300 6c3d 5cee cbbc
00000320: 407f ae25 5f29 803c 2d11 9a3c 8bee 513d
00000330: ae2c 1c2a e75b a33b af9a 6baa df97 e83b
00000340: 9af5 96bc 9bc3 593d d0fe 813b 2e06 2a3d
00000350: edce 07bd 325a ef3c 9602 dcbc d290 e93c
00000360: 53cc f5bc 5be7 803c 6398 a93c 45c4 563c
00000370: 0c5b a2bc a95f 1e2a bbbb 3cbd c2e6 08bd
00000380: d7f4 00be cb4d 453c 2f5c 0bbd 2eb5 7a3c
00000390: af37 d1aa b2a7 bfbc 500f 97bb b101 f0bb
000003a0: a8bf 29bd 468c 1bbd ceb7 a4bc b846 f6a6
000003b0: e8e7 bcbc 6d7b 303d 0c97 a63c e6c0 67bc
000003c0: 3328 64bd bc75 1638 cda3 a13b b630 46aa
000003d0: 9450 463d 452d beaa e929 2cbd 93ed 353d
000003e0: 00b7 0ebd 231e 87bb 3ae5 26bd 5b14 54bd
000003f0: 1cba 21bc 4c69 6a3d b9df 15bd 4c94 5c3d
0.021990571 -1.21273e-13 0.057254244 0.00021536485 -0.035787813 -8.478614e-14 -5.866338e-13 -1.6971469e-13
-0.043895826 0.017605428 -0.042552967 0.050090164 0.02779803 0.034351837 0.062239334 -0.013433964
-0.03815584 -0.045330144 0.027547615 -0.021514231 1.282069e-14 0.0034881595 0.014570747 -6.983584e-14
0.062970385 -1.1350281e-13 -0.0014573944 -0.04008455 2.865791e-14 -6.111686e-14 -0.034146003 -0.016909823
-0.009504085 -0.07558087 0.04751606 0.034951955 -0.03102055 -0.05134912 1.2929372e-14 -3.5981065e-14
0.018093456 -0.010987165 -0.00575886 -0.03803919 0.0058242404 0.035428017 0.0029495342 0.00021894946
0.022100916 2.0979796e-12 0.036890037 0.033319198 -0.032251302 0.009892393 -0.04657257 -0.052222673
0.017852986 -1.183229e-13 0.009411373 -0.066001825 0.01875407 0.06455745 -0.03372075 0.021309739
0.017061526 -0.014809854 0.04406384 0.0009040813 0.026290696 0.023635514 0.013629098 -0.016582472
0.046265338 -0.073677555 -0.020944241 -0.03612762 -0.061044466 0.056028493 0.043099046 0.0054130396
0.02899893 9.519665e-14 -1.863555e-14 0.017743597 0.019545685 0.020900125 0.059731707 0.0030329772
-0.010724043 -0.00913337 0.043419164 -0.029301062 -1.5275515e-13 0.028518625 0.04194471 -0.015945476
-0.10982804 1.1448562e-14 0.054820467 -0.0013108341 0.03075584 -0.0004873596 0.04431857 0.008832067
-0.02321161 -0.018813243 -0.034195796 -0.013104577 -0.043653827 0.030332556 -0.00847809 -0.0012528662
-0.042726308 0.055249847 0.060814 0.003917918 -2.4620518e-13 -0.022113413 0.042379804 0.035651427
-0.038576033 -1.4651483e-13 0.043706138 0.029590147 -0.027161486 0.04333873 -0.14898278 3.5638604e-13
0.03544249 0.01348639 0.001086484 -0.029040355 0.02414923 0.039326392 0.0011045493 3.381233e-09
-0.043030653 -5.0134877e-14 0.000742343 0.001327029 0.024586165 0.027888818 7.6158806e-13 0.052278664
-0.02398029 2.021719e-13 -0.015230512 -0.04220981 -0.042820334 0.054001074 0.017785614 0.042482186
0.011450641 0.06558985 -0.12171303 0.078140594 -1.852917e-13 -0.07009595 -0.039697908 -0.015393685
0.040208064 0.062629595 0.05093277 0.033112124 0.05209816 -0.1785089 -0.008708655 0.016485667
-1.8597331e-13 0.012047259 4.362716e-14 -3.3121569e-13 0.008208169 0.03771064 0.025588926 1.6646642e-13
0.061405174 -2.449218e-13 -2.0718827e-13 0.013065814 0.02860888 -0.005798744 0.03329481 -0.018673517
-0.029544564 0.060330637 0.018711494 -2.230541e-13 1.2948601e-07 -0.020579964 -5.998329e-15 -8.642895e-14
0.018596267 0.0029010447 -0.012480594 -0.04464021 -0.031426873 -5.1326307e-14 0.057617556 -0.024893932
3.0270416e-16 0.015644727 0.018807018 0.051252883 1.3871085e-13 0.004985321 -2.092586e-13 0.0070981826
-0.018427659 0.05316506 0.0039671436 0.0415098 -0.033156324 0.029217813 -0.026856702 0.028511439
-0.030004656 0.015735319 0.020702546 0.013108318 -0.019818805 1.4066408e-13 -0.04607747 -0.033423193
-0.12593399 0.012042473 -0.03402346 0.015301986 -3.7164496e-13 -0.023395393 -0.0046099797 -0.0073244204
-0.041442543 -0.037975572 -0.020107176 -1.7088847e-15 -0.0230598 0.043086458 0.020335697 -0.014145112
-0.0557024 3.5872436e-05 0.0049328567 -1.7602833e-13 0.04841669 -3.3782192e-13 -0.042032156 0.04441602
-0.03484249 -0.0041234656 -0.04074595 -0.051777225 -0.009871032 0.057229325 -0.03659031 0.053852364

bias f4 [4]
00000000: 4b08 fd3c 0b63 4fbc e57a 313d bb75 113d
0.030887743 -0.012657891 0.043330092 0.035512667

weight f4 [4, 8]
00000000: 038e 57be afb6 3b3e 8733 a2ba b550 81be
00000010: 553c 7bbe a725 f3bd a805 4ebe 03f4 e2bd
00000020: 39f1 b3be 1198 45be 1551 603e 5b84 213e
00000030: 55c1 5fbe 84bb 813e df65 633d 7cd6 88be
00000040: 72a9 f93d e716 39be d191 013d 7ab5 9f3e
00000050: bad9 7bbd 2f14 793e d1a7 67be 4625 483e
00000060: ee17 eeb7 e985 a53c 2705 02bc b14e 0c3a
00000070: 4609 ad3b b5d2 583b 1e75 8fbb efb5 123a
-0.21050267 0.18331407 -0.0012374975 -0.25256887 -0.24534734 -0.11872416 -0.20119345 -0.11081698
-0.35144976 -0.1929629 0.2190593 0.15773146 -0.21851094 0.25338376 0.055517074 -0.2672614
0.12190522 -0.18075143 0.031633202 0.31193143 -0.061486937 0.24324106 -0.2262261 0.19545469
-2.8382954e-05 0.020205455 -0.007935799 0.0005352302 0.0052806465 0.0033084576 -0.004377975 0.0005596568

bias f4 [4]
00000000: 8938 4d3e 72b0 b23e 9f81 953d 41d9 ecba
0.20041098 0.34900242 0.07300114 -0.0018070118

weight f4 [4, 8]
00000000: 755d 003e a869 573d fa04 8c3e af3c 5fbe
00000010: c850 9a3e 4019 4e3e a344 d2bc d990 183b
00000020: 2b13 18b0 b5db 70bb cf17 1abb cf9f 05ba
00000030: 8246 8d37 c042 24bb 4839 9e2a 3964 073b
00000040: 181b 6e3e 9666 cf3d e9f5 57be d37d 29be
00000050: 5fa2 a63e 5125 3f3e bdbb 6d3e 1934 fcb3
00000060: 75cc 13be f7c1 04bd dfc4 85bd 88b9 633d
00000070: 9691 9c3e 0bd7 77be d432 c9bc d83b 54bc
0.12535651 0.052590996 0.27347547 -0.21800493 0.30139756 0.2012682 -0.025667494 0.0023279695
-5.5324517e-10 -0.003675205 -0.0023512726 -0.00050973607 1.6841343e-05 -0.00250642 2.8106185e-13 0.0020659103
0.23252523 0.101269886 -0.21089901 -0.16551904 0.32545754 0.18666579 0.23216148 -1.1744141e-07
-0.14433463 -0.03241154 -0.06531691 0.05559686 0.30579823 -0.24203126 -0.02456037 -0.012953721

bias f4 [4]
00000000: cbde 233d 69ff 1d2a 24c1 e83d eb70 963e
0.040007394 1.4033014e-13 0.11364964 0.29383025

weight f4 [10, 2]
00000000: 9ba1 c53e c752 e2be 35e5 293f 9a92 d4be
00000010: b1c0 213f 7134 0bbe 7b37 1ebf 4b0a 343e
00000020: 0d1b 96be 4294 a8be 2cbd 84be 8d48 b03e
00000030: 201a 31bf cf55 c03d 841f f3be 766f 2ebf
00000040: 3f88 b3be 444b a83e 9f97 f6bd f8d4 2abf
0.38599858 -0.4420378 0.6636537 -0.41518098 0.6318465 -0.13594224 -0.61803406 0.17582051
-0.29317513 -0.32925612 -0.25925577 0.34430352 -0.6918049 0.09391367 -0.47484982 -0.68138826
-0.35064885 0.32869923 -0.12040638 -0.66731215

bias f4 [10]
00000000: d6a5 e83e 1c77 783e f0d3 07be d2d3 d23e
00000010: ccd7 e13e 69e7 65be 5e27 c4bd c6fc b93e
00000020: 57a9 d2be 30d1 67be
0.45439023 0.24264187 -0.13264441 0.4117723 0.44109952 -0.22451557 -0.09577821 0.36325663
-0.4114482 -0.22638392

weight f4 [10, 2]
00000000: e8a3 caad 0ceb 1235 2a13 41bc 2940 15ba
00000010: 26a9 093f 09f7 f73d f1db 67be 8930 e03e
00000020: bba6 d0be 0191 903e 4cb6 bd3d f12c 203f
00000030: 4509 d43e dc6e fc3e 7382 e13e e071 083e
00000040: 9ae9 6cbd e006 5eb5 e9ca e0bd ff32 6bbe
-2.303753e-11 5.4731277e-07 -0.011784354 -0.00056934595 0.53773725 0.12107665 -0.22642495 0.4378703
-0.40752205 0.2823563 0.09263286 0.62568575 0.41413322 0.4930333 0.44044837 0.1332469
-0.057839967 -8.271145e-07 -0.10976202 -0.22968672

bias f4 [10]
00000000: 1903 14ba bce6 8dbe e127 0b3e 25a2 cebe
00000010: ec4d b43e 85ef 95bd 252d 28bf d8b2 d7bb
00000020: 7fbd a0bd 3b19 013f
-0.00056462135 -0.277151 0.13589431 -0.4035808 0.352157 -0.07321075 -0.65693885 -0.006582599
-0.078486435 0.50429124

weight f4 [20, 4]
00000000: 1b59 aebe 3449 853d fe04 193e f6ee c8be
00000010: 029c c3be 1c14 913d f184 9dbd 1e16 b03e
00000020: e5ba c0be b00c d3be b14b a63e adb8 37be
00000030: 2217 903e 9d50 e43e e041 c13d 39a6 9cbe
00000040: 747d a6bd 895e ca3d 236c 9b3d 8111 f43e
00000050: e403 e3be 18e8 ebbe 4497 08be 840f 1bbe
00000060: 58b9 d33e 47b1 873e 23d8 cebe 4e36 cb3d
00000070: 5407 de3d 3509 e1bd 5461 843e 733a 78be
00000080: e739 dfbe 14c8 a3be 7167 e7be fe1d 5fbe
00000090: ddb1 f93e 7f3d b53e 2fd6 3a3e 172d db3c
000000a0: eda0 e6be 22df 82bd 9e57 6d3e 049f 623c
000000b0: 7e71 01bf b27a ce3e adcc dbbe 6cd7 a93e
000000c0: 3fbc b7be 6a23 e13e d59a fcbe b946 8abe
000000d0: 9f1a df3e 59f6 f7bc 2cd2 7a3e 852d 4d3d
000000e0: c080 e8be 1024 b93e 456f ce3e f523 edbe
000000f0: e7ac 7dbe 664c c53e 8bf5 e13e 9188 4b3e
00000100: 024c 3abd c044 5cbd b4a0 2f3e e9b6 63be
00000110: 88d7 ec3d 979f abbe 7571 093e 32fa b9be
00000120: 1484 63be 3288 c13e be0c b8be b38a 4f3c
00000130: 67ad 04bc d0c6 4c3e cdfc 4bbe ad49 d8be
-0.34052357 0.06508103 0.1494331 -0.39244813 -0.38204962 0.07083914 -0.07691372 0.34391874
-0.3764259 -0.41220617 0.32479623 -0.17941542 0.2814265 0.44592753 0.09436393 -0.30595568
-0.08129397 0.098813124 0.07588985 0.47669604 -0.44338906 -0.4607551 -0.13338953 -0.15142637
0.41352344 0.2650244 -0.40399274 0.09922467 0.108412415 -0.10988084 0.25855505 -0.24241047
-0.43598863 -0.31988585 -0.45196107 -0.21788785 0.4876851 0.3539848 0.18245767 0.026754899
-0.45044652 -0.063902155 0.23177955 0.013831858 -0.505638 0.40327984 -0.42929593 0.33172166
-0.35885808 0.4397233 -0.49336877 -0.27007082 0.43574998 -0.030268835 0.24494237 0.05009224
-0.45410728 0.36160326 0.40319267 -0.46316496 -0.24772988 0.3853485 0.44132647 0.19876315
-0.045482643 -0.053776503 0.17151147 -0.22237743 0.11564547 -0.33520195 0.13422187 -0.36323696
-0.22218353 0.3779922 -0.35947222 0.012667346 -0.008097983 0.19997716 -0.19920655 -0.4224371

bias f4 [20]
00000000: 2b15 b63d ec8b 8abd d82b c63e 1b6d e1be
00000010: bf2d 7abe c3a8 c8be ed44 9abe 071c 503e
00000020: 58c0 893e 5a53 f7be fb36 923e 6e56 0dbe
00000030: 812d 533e 76f1 a03d 4001 bcbe 2f50 f53c
00000040: 2fdd 09be db66 bb3e 8c12 6d3e 7362 c43e
0.08890756 -0.06764969 0.38705325 -0.44028553 -0.24431513 -0.39191255 -0.3013071 0.20323192
0.2690456 -0.4830578 0.28557572 -0.13802502 0.20622827 0.07858555 -0.36719704 0.029945461
-0.13463281 0.3660191 0.23151606 0.3835636

weight_ih_l0 f4 [12, 10]
00000000: 3995 513d 1bae 753d 7634 e4bb f674 a73e
00000010: fec7 9dbe c950 85bd 35f5 853d ae3f 333d
00000020: 5d64 423e e194 4dbc b81c 8b2b fc5e 1fbd
00000030: 7951 ba3e 9356 dd3e dde6 093e 3e84 0732
00000040: c4ab a3bb 524a f2bd a837 d63d 79da 00ba
00000050: 60ac debd 8f4e aebe c18d 513e 6c73 97be
00000060: 98a3 8bbe a259 97ab 68c5 543b 314d b0bc
00000070: badc 96be 528e dbbc c306 adb1 4390 c2bd
00000080: c10c b5be 8e02 adbe 26b7 8ebe d22b a82b
00000090: fa3e d337 44cc 1bbe 1874 803d 1a47 562c
000000a0: 02a4 6439 32c9 c1bd 501b 0b3e 3ed4 703d
000000b0: 2798 333e 9998 87bb d6e3 c8bd 28f4 053f
000000c0: c196 a63e 6d4a 6d38 5d9c dbbc 66c7 b03e
000000d0: cef3 cbbd 2f50 d63e 4a8e a7bd 4fe2 d1bc
000000e0: ba03 25be b554 3e3d 96e6 6d3e 9e13 c7ae
000000f0: efa1 b2aa ab18 ac3e 9911 563e 235a 02be
00000100: a37f a43e a188 b1bd b2c7 9139 428c 0e3d
00000110: 7104 e0bc 4416 ddb1 a350 2bb1 fdf9 e13c
00000120: 23d6 eb3d 8f9e a33e 962e 20bd 238f 032a
00000130: f80a 4bb8 5a6f b3bd da51 a43e e1bb 55ab
00000140: f23e 34ac 8e69 653e 136b 91bd 349d 913e
00000150: a377 693d 0df5 2c3b 33d7 bc3e 0656 a6bd
00000160: 9759 e2be a136 eb3c a273 e33a 2f68 acbe
00000170: d563 bdbe 4690 a93c f96b c73e 26a0 a3bd
00000180: 6c49 bf3d ce08 c33e a055 f03e 3bc7 61bd
00000190: e501 07b3 6eb8 003d ddc9 723e 1f90 ba3e
000001a0: 4d95 6b3e 9439 20bd 9a1b 03be 926d 71be
000001b0: d663 d1bd 48ab c2bd ac68 023d f8c6 51bd
000001c0: 1a05 d1be 704c 093e a7e6 4ebe 557d c43b
000001d0: c99c 203d 3c6d c13b 9cf8 073e e87f e0b3
0.0511677 0.059980493 -0.0069642616 0.32706422 -0.30816644 -0.06509549 0.0654091 0.0437619
0.18983598 -0.0125477025 9.884515e-13 -0.038908944 0.36390284 0.43230113 0.13466974 7.888103e-09
-0.0049948413 -0.11830582 0.10459834 -0.00049153675 -0.10872722 -0.3404431 0.20464231 -0.29580247
-0.2727325 -1.0754073e-12 0.0032466296 -0.021521183 -0.29465276 -0.026801262 -5.0357314e-09 -0.09500172
-0.35361293 -0.33791012 -0.27874106 1.194928e-12 2.5182486e-05 -0.1521464 0.06272143 3.0450698e-12
0.00021804872 -0.09462203 0.13584638 0.05879616 0.1753851 -0.004138064 -0.09809081 0.5232568
0.3253689 5.6574518e-05 -0.026807958 0.3452713 -0.099586114 0.4185805 -0.08181436 -0.025620608
-0.16114703 0.0464675 0.23232493 -9.052957e-11 -3.1731516e-13 0.3361257 0.2090515 -0.12729697
0.3212863 -0.08668638 0.0002780534 0.03480173 -0.027345868 -6.434478e-09 -2.4929612e-09 0.027585024
0.11515453 0.31956908 -0.039106928 1.1684798e-13 -4.8409187e-05 -0.08761473 0.32093698 -7.5933536e-13
-2.561448e-12 0.22403547 -0.07100501 0.2844025 0.05699886 0.0026391179 0.36882934 -0.081218764
-0.44208977 0.028712573 0.0017353187 -0.33673236 -0.36990228 0.020698678 0.38949564 -0.0798953
0.09340176 0.38092655 0.46940327 -0.05512164 -3.143386e-08 0.031425886 0.23709817 0.3643808
0.23006172 -0.03911741 -0.12803498 -0.23576954 -0.1022412 -0.095053256 0.031838104 -0.051215142
-0.40824205 0.13408065 -0.20205174 0.005996386 0.039212022 0.0059029143 0.1327843 -1.0454079e-07

weight_hh_l0 f4 [12, 4]
00000000: 6ee9 aebe 231e d6be ff79 0b3e c89b 98be
00000010: 1eec 60be 3f57 4abe f06b 273c 2008 ab3e
00000020: 51e1 1ebe 08e7 eebc 4c91 7abd 676c 483e
00000030: cba5 bcbd cc77 d5bd 7ad0 b93c e704 403e
00000040: 72c0 873e 6394 c6be 4e54 a83e 0cf6 c23e
00000050: a0be 05be 206b d93d 29e4 663e 6e9f debe
00000060: 7e4f 8dbd 3c29 083e e7e0 8fbd 8700 1d3d
00000070: d6ed e1bc c2d6 cb3c 4cb2 acbd 1129 1f3d
00000080: c9a3 cfbe 9190 9f3e 4e30 d8be ef38 ebbe
00000090: 2087 83be 09cd 83bd cfeb 6e3e 5675 afbd
000000a0: b773 643e f45a 0d3e ea54 093d 8e97 733e
000000b0: 481f ce3e 73b1 1f3b 1e92 c63e 95d0 833e
-0.34162468 -0.41819867 0.13620757 -0.29806352 -0.21965072 -0.19759844 0.010218605 0.33404636
-0.15515639 -0.029162899 -0.061173722 0.19572602 -0.0921131 -0.1042324 0.022682417 0.1875187
0.26514012 -0.38785085 0.3287682 0.38078344 -0.13060999 0.106161356 0.22547974 -0.4348101
-0.068999276 0.1329698 -0.070253186 0.03833058 -0.02757923 0.024882678 -0.08432445 0.038857523
-0.40554646 0.31164983 -0.42224354 -0.45941874 -0.2568903 -0.06435592 0.23332141 -0.08567302
0.22309767 0.13804227 0.033528246 0.23788282 0.4025824 0.0024367243 0.38783354 0.25745073

bias_ih_l0 f4 [12]
00000000: 53c1 0abd 09e7 683e 0c3f 9cbe bcce 3bbe
00000010: 862a aa3c f821 b8be a0bb fdbc f086 af3e
00000020: f969 e1bd 5d92 c03e 7c4f c1be c447 95be
-0.033875775 0.22744383 -0.3051685 -0.18340582 0.02077223 -0.35963416 -0.030973256 0.34282637
-0.11006541 0.37611666 -0.37755954 -0.29156315

bias_hh_l0 f4 [12]
00000000: fc52 31bd e362 25bd 5429 48bd d402 aebc
00000010: 79cf 72bb 287e 883e 417d a93e 80ba 5dbe
00000020: 5861 bc3e a72c c7bd 4ae2 793e 229c 81be
-0.04329203 -0.04037751 -0.04886754 -0.021241583 -0.0037049933 0.2665875 0.33103374 -0.21653175
0.36793017 -0.09725314 0.24402729 -0.25314432
