RTSNet/new_architecture/linear/best-model_hrot10_linear2x2rq1030T100.pt (torch, 139828 bytes, 70 tensors)

weight_ih_l0 f4 [12, 10]
000000 49 82 c1 bd 29 d6 3a 3d 26 0f 18 bc c3 56 05 3e
       -0.09448678 0.045614395 -0.009280955 0.13021378
000010 ba 43 b1 3b 30 17 7e 3c f7 42 49 be c3 0b ec 3d
       0.005409685 0.015508458 -0.19654451 0.11525681
000020 f8 8e f7 be 94 61 89 be 4b ef 57 bd 41 0f 6c 3e
       -0.48351264 -0.2683226 -0.052718442 0.23052694
000030 43 77 12 3c 2c 90 69 3e 58 28 b4 bd 2d 38 2f be
       0.008939567 0.22808903 -0.087967575 -0.17111273
000040 f8 5a b5 3e 8f eb 40 b0 b7 3e a4 be be 8a 13 3e
       0.35420966 -7.018394e-10 -0.32079098 0.14408395
000050 21 84 8f 3e a2 fc 07 be d2 d8 0c be b7 4e fc 3d
       0.28030494 -0.13279966 -0.13754585 0.12319701
000060 5d 4d e4 bd 6d 6a 08 3e b1 7c 5a bd 4b 01 37 3e
       -0.111475684 0.13321848 -0.05334157 0.17871587
000070 6e 56 a5 be 10 13 64 3e 8a 06 0c bc 37 ba 9c 3d
       -0.32292503 0.22272897 -0.008546481 0.07652705
000080 1a 96 eb b9 ef 25 13 3e 9f f2 8c b9 ab 00 40 be
       -0.00044934527 0.1436994 -0.00026883648 -0.18750255
000090 5d ab aa 3e 17 82 91 3d eb 9a 8d 3e 0c d2 1c 3d
       0.33333865 0.07104891 0.27657256 0.038286254
0000a0 3c 49 59 be 27 85 29 be 3a b1 1e 3d 60 cd a5 be
       -0.21219343 -0.165547 0.038743235 -0.3238325
0000b0 8c 0c af 3a 67 19 70 be b0 61 f9 bc 65 61 27 2f
       0.001335518 -0.2344719 -0.030442089 1.5223163e-10
0000c0 c1 51 2e be 21 9b 31 3e 48 24 c8 bc 5c 05 4f be
       -0.17023374 0.17344333 -0.024431363 -0.20216888
0000d0 b7 5b e9 bd 5f c1 8a be db ce 9d 3d c6 3e e3 bd
       -0.11394446 -0.27100655 0.0770547 -0.110959575
0000e0 01 21 99 3e 52 29 6d bc 32 1c 51 be 8c 18 d8 3d
       0.29907992 -0.014475184 -0.20420912 0.10551557
0000f0 d1 4b 29 3e 29 10 80 bc c5 53 26 be 80 25 2b 3d
       0.16532828 -0.015632706 -0.16242893 0.04178381
000100 09 5e 12 3d a9 19 f9 3d ce 00 9e 3e 92 8f a9 3c
       0.03573421 0.121630974 0.3085999 0.020698342
000110 fe ab e0 bd 2f 10 54 3e 8f a6 22 be 09 60 2b 3e
       -0.10970305 0.20709299 -0.1588385 0.16735853
000120 25 7e 01 3e 11 cb 0d 3d 5f 0d 64 3a 2c 91 f7 bc
       0.12645777 0.034617487 0.0008699502 -0.03022059
000130 f1 0c e2 3d 0f 7b ca ab 45 33 a4 3e ed c1 db 3a
       0.110376246 -1.4387119e-12 0.32070366 0.0016766168
000140 42 3b bc 3e 7e 62 f9 3e e0 8c 6a 3e 6c 66 d2 3e
       0.3676396 0.48707956 0.22905302 0.41093767
000150 23 a3 61 bd 18 3a 92 bd ac d8 99 bd ae 2f ac bd
       -0.05508722 -0.07139987 -0.0751203 -0.08407532
000160 3b 78 89 3e 85 a5 2f 3e fc 03 95 be ef 16 cf 3e
       0.2684954 0.17152984 -0.29104602 0.40447184
000170 cb 6b 82 bd 38 92 86 3e 1e eb 62 3c 7e 49 64 b9
       -0.06368216 0.2628343 0.013850002 -0.00021771152
000180 bf 92 86 3d e1 79 c3 b8 cd 5f b1 be ad 74 d0 bd
       0.06570958 -9.321026e-05 -0.34643403 -0.10178504
000190 a9 dd 9a be 7e 76 e9 3e 1f fd 53 3b a0 50 01 3f
       -0.30247238 0.45598215 0.0032346917 0.5051365
0001a0 8f 94 2a 3e 9e 2a 0b be af df cb 3e 28 3c 79 bd
       0.16658233 -0.13590476 0.39819095 -0.060848385
0001b0 50 51 34 3d 22 78 98 be 61 ee db 3e 35 8a d9 be
       0.04402286 -0.29779154 0.42955306 -0.42488256
0001c0 f0 76 9c 3e 2a ad 9d be 83 6f 88 bd bd 84 9a be
       0.30559492 -0.30796176 -0.06661894 -0.30179396
0001d0 41 00 98 3e 29 b9 00 be 33 fd ad be 11 b6 e7 be
       0.29687694 -0.12570633 -0.33982238 -0.45256093

weight_hh_l0 f4 [12, 4]
000000 4d b7 cd 3d 6c 3b 5a bd 6f 97 ed bc c4 09 3b 3e
       0.100447275 -0.053279325 -0.029002873 0.18265444
000010 d3 fd 95 3e 78 c9 1f be 12 6d 80 3e 94 58 44 be
       0.29295215 -0.15604198 0.25083214 -0.19174415
000020 ce 91 41 bd dd fd 2d 3e 20 e8 34 3e 40 6a 1e 3c
       -0.04725819 0.16991372 0.17666674 0.009668887
000030 bb 22 67 be 1a 0b 88 3d a0 86 b6 be b5 10 a0 bd
       -0.22571842 0.066427425 -0.35649586 -0.078156866
000040 87 61 8b be 63 5a 88 be 4d 98 af be 61 2d ad be
       -0.27222845 -0.2663146 -0.34295884 -0.33823684
000050 5a b9 a5 be 8d 44 8a 3e a6 f5 02 bd a9 0e 49 bd
       -0.32367975 0.27005425 -0.03197255 -0.049086247
000060 1b 93 68 3d c9 24 6f 3e c3 a3 85 3e bc 30 c8 bd
       0.056780916 0.23353876 0.26101503 -0.0977492
000070 9e e4 e8 3c 52 d8 04 bd bc b3 8e be 72 3f 4b 3e
       0.028429326 -0.03243286 -0.278715 0.19848421
000080 bf 8b 85 be 5a 62 86 be 96 12 8b be c8 ae bf 3d
       -0.2608318 -0.2624691 -0.27162617 0.09359509
000090 48 ef b5 3e 91 9b 02 bc 1d 81 32 3e 71 7e f3 be
       0.3553412 -0.00797166 0.17432065 -0.47557405
0000a0 52 8a c4 bd d1 eb 84 3e d8 46 81 3e 98 9a 64 be
       -0.09596695 0.25961164 0.25249362 -0.22324598
0000b0 9b 14 d7 3e cf 1e 28 be 63 28 28 be 85 8d 23 be
       0.42007908 -0.16418003 -0.16421656 -0.15971954

bias_ih_l0 f4 [12]
000000 31 63 e8 3d 59 9a e4 3e b3 bb ad 3e 15 01 ae be
       0.11347044 0.44649008 0.33932266 -0.339852
000010 50 89 44 be 41 b5 a8 be f5 61 1b 3e 60 62 2f be
       -0.19193006 -0.32950786 0.15174086 -0.17127371
000020 bb 5e aa bd dc 4e 41 3e a2 96 fe 3e 8d e0 74 be
       -0.0831885 0.18877739 0.497243 -0.23913784

bias_hh_l0 f4 [12]
000000 1c 65 6b be c4 ed c1 be 96 b6 07 be 53 39 86 bd
       -0.22987789 -0.37876713 -0.13253245 -0.065539025
000010 c9 29 05 bd 78 ec c6 bd 0a ac 95 3e b4 fb 55 be
       -0.032510553 -0.097130716 0.29232818 -0.20896798
000020 37 01 f3 bd b5 bb 2e be 97 83 23 be 2b a2 40 3c
       -0.11865466 -0.17063792 -0.15968166 0.011757414

weight_ih_l0 f4 [12, 14]
000000 b5 a3 a8 bc 43 71 a6 3d 12 a9 cd 3e 32 83 cd 3d
       -0.020585874 0.08127072 0.40168053 0.10034789
000010 92 b3 c3 be 49 19 48 3d 9e 91 90 be ab 91 6e 3e
       -0.3822294 0.04885224 -0.28236097 0.23297755
000020 d8 17 1f 3e fd 49 b4 3e d0 3d 73 3d 86 f1 21 be
       0.1553644 0.352127 0.05938512 -0.1581479
000030 eb 8b 93 bd 44 18 a8 3d e0 0e 07 bd a7 cd dd 3e
       -0.072044216 0.08207753 -0.03297317 0.43320963
000040 85 d2 aa bc bc 88 c1 bb 35 af c9 be 27 7f dd be
       -0.020852337 -0.0059061926 -0.39391485 -0.43261072
000050 a2 20 58 be 33 78 f9 3e e8 cf 9f be 39 07 8e 3b
       -0.21106198 0.48724517 -0.31213307 0.004334357
000060 6e c6 89 3e b1 e9 b5 2f 99 74 6a 3e bc 78 cd be
       0.26909202 3.3089756e-10 0.22896041 -0.40131176
000070 4e 9d 8c 3d 5d cc 95 be f2 18 49 bd 17 46 95 be
       0.06865941 -0.2925748 -0.049096055 -0.29155037
000080 ce 6d fd be 24 4e d9 be e4 d3 9e 3d 76 a8 39 be
       -0.49497837 -0.4244243 0.07755259 -0.18130669
000090 49 74 cf be f0 55 bf be 20 50 89 3e 5b 0e 98 3c
       -0.40518406 -0.37370253 0.26818943 0.018561533
0000a0 94 d6 47 3e 42 0d 48 bb 96 a2 a3 3e c7 bd 6f 3d
       0.19515449 -0.003052548 0.3195998 0.058530595
0000b0 67 c0 c4 3e c3 72 a9 be 97 32 9f 3e 67 ee f4 be
       0.3842804 -0.3309537 0.31093284 -0.47838137
0000c0 1e ac e1 be b1 20 5c 3e 39 ca ca 3e 24 10 4c 3e
       -0.44076627 0.21496846 0.3960741 0.19928032
0000d0 ea 89 9d 3e c4 63 16 be 64 f0 a9 3d c5 79 a8 3e
       0.30769283 -0.14686495 0.08297804 0.32905403
0000e0 f1 d0 da be 54 82 c6 3d c6 7c c2 3e 2a 40 86 be
       -0.42737535 0.09692827 0.3798582 -0.26220828
0000f0 6a 80 87 be e7 8c b7 3d 28 4e 93 bd 56 0d a1 3e
       -0.2646516 0.08962422 -0.071926415 0.31455487
000100 14 62 ba be 33 34 d2 3e 4a 40 4a 3e f7 21 b7 3d
       -0.36402953 0.4105545 0.19751087 0.08942025
000110 32 7c 60 be 90 92 1c 3d 48 bf e0 3d 8b eb 65 3e
       -0.21922377 0.03822571 0.10973984 0.22453134
000120 07 3e e9 3e 53 72 f7 bd 4e f9 71 be 4b 6f 48 3d
       0.45555136 -0.120823525 -0.23630258 0.048934262
000130 31 29 83 3e b6 21 97 3e 4d 31 d6 3e f2 b2 4a 3e
       0.25617364 0.29517907 0.4183449 0.19794825
000140 f9 a6 b5 bd 74 e2 00 3e 42 87 02 be 9c 6b 74 be
       -0.08869738 0.12586385 -0.1274691 -0.23869175
000150 f7 c6 8e 3e ed ae 41 3e 55 99 cd bd 40 0d b5 bd
       0.27886173 0.18914385 -0.100390114 -0.08840418
000160 f7 ab dd be ad 06 d4 3e 5c df 3a 3d 21 a0 ff 3d
       -0.4329526 0.41411343 0.04562317 0.12481714
000170 81 19 3d 3d 26 de af 3e 0e 12 07 be d0 24 c4 bb
       0.0461669 0.34349173 -0.13190481 -0.0059858337
000180 26 22 b0 be a3 86 a0 be ad c0 93 3e cb fa 27 3e
       -0.34401053 -0.3135272 0.28857937 0.16404264
000190 72 a5 b3 bb 0c 2b bf 3d 19 65 4d 3e 32 60 49 be
       -0.005482369 0.093343824 0.20058097 -0.19665602
0001a0 5f 3d ff 3e b8 93 27 be 47 75 b5 3e 1a ec b9 3e
       0.4985151 -0.16364944 0.35441038 0.36312944
0001b0 9e 88 58 3e c3 04 be 38 de f5 8a bd e1 fd f9 3e
       0.21145865 9.060793e-05 -0.06785177 0.48826507
0001c0 1b bb e7 3e a8 e1 ba be 1d 7b 95 be 50 b2 9c 3d
       0.45259938 -0.36500287 -0.2919549 0.07651198
0001d0 7b 8a e9 3d c6 1e 9b be 9b 32 97 3e bc d8 87 be
       0.11403366 -0.30296916 0.29530796 -0.26532543
0001e0 d9 05 b1 3e 78 ce d9 3e 29 27 da 3e 72 c1 0e be
       0.34574774 0.42540336 0.42608002 -0.13940981
0001f0 51 0f c0 bd 67 24 9c be 85 71 5e be 0c 88 15 be
       -0.093779214 -0.30496523 -0.21722992 -0.14602679
000200 22 74 b4 3e a6 72 5a 3e 42 62 b3 be de 0e bf be
       0.35244852 0.21332797 -0.35035902 -0.3731603
000210 c7 7b 82 be fb 84 c3 be 36 7f c2 3c bc 89 69 3e
       -0.2548506 -0.38187394 0.0237423 0.22806448
000220 5f 94 07 3f ce ae b1 34 3e 92 87 3d 35 e2 6d be
       0.5296077 3.3096006e-07 0.0661969 -0.23230822
000230 33 9f 88 be 00 51 44 be c2 6f 01 be 8b dc 0d bd
       -0.2668396 -0.19171524 -0.12640288 -0.034634154
000240 c2 2a c4 3e 31 5b 8f 3e ae 05 da 3e d3 c7 99 bc
       0.38313872 0.2799926 0.42582458 -0.018772041
000250 d7 7d 64 be 5e e9 55 3d b5 07 b5 be 74 4c 2e 3b
       -0.22313629 0.05222451 -0.35357442 0.0026595863
000260 c1 e9 d8 3e 79 69 fd be 09 71 93 3e 92 d0 17 be
       0.4236584 -0.49494532 0.28797176 -0.14825657
000270 43 dd 8e be 6c af a6 3d a9 60 af 3d 81 51 90 3e
       -0.27903184 0.08138928 0.08563358 0.28187183
000280 fa 5c 01 3e bd bc b1 be 81 a3 c1 be c0 32 b0 3e
       0.12633124 -0.34714308 -0.37820056 0.3441372
000290 de 99 6b be 8e fe a6 bc e1 eb 29 3c c4 9e eb bc
       -0.23007914 -0.020385053 0.010371179 -0.028762229

weight_hh_l0 f4 [12, 4]
000000 91 5c 38 bd b7 f5 5f bd 19 9a 80 b4 30 96 45 3e
       -0.045010153 -0.05467769 -2.395398e-07 0.19295573
000010 55 82 9b 3d 35 e4 da bd a5 d9 10 3e a4 2a 88 be
       0.07593218 -0.10688058 0.14145525 -0.26595032
000020 66 63 e6 bc 43 d2 30 bd 7c 9d 7d 2e 5b 93 8d 3d
       -0.028123569 -0.04316927 5.7665414e-11 0.069128715
000030 6b cf 0e 3e 0d ab d7 bd 9b 36 bf 3d 98 a5 7a be
       0.13946311 -0.10530672 0.09336587 -0.24477232
000040 5d 9e e9 3e 44 92 bd bd 4b 5a 43 be 93 a3 d8 3e
       0.45628634 -0.092564136 -0.19077413 0.42312297
000050 63 56 c7 3e 7c 17 cd 3d 29 d6 80 3d d9 c6 19 3e
       0.38933095 0.10014245 0.06290848 0.1501726
000060 4f 68 c9 be c4 e9 a7 3e ae 27 35 be 41 83 7b 3e
       -0.39337394 0.32795537 -0.17690918 0.24561788
000070 d9 1e 46 be 94 da eb 3e f9 bf 85 3d 66 00 b7 3e
       -0.19347705 0.460652 0.065307565 0.3574249
000080 86 2f b8 3e 0f 55 7a be 4d 98 34 bb 6b 98 c6 3e
       0.35973758 -0.2444651 -0.0027556599 0.3878816
000090 43 de 32 3d b9 79 83 be 61 fc 35 3e 70 6f 9b 3e
       0.043668997 -0.25678805 0.17772056 0.30358458
0000a0 fa 37 5d 3d f0 a6 c5 3e 4a f2 35 be c7 cd 55 be
       0.05400846 0.38603926 -0.17768207 -0.20879279
0000b0 1d 92 d0 be 67 9c d1 3d 64 2f 4f be 20 33 8c 3e
       -0.40736476 0.102349095 -0.20232922 0.27382755

bias_ih_l0 f4 [12]
000000 b8 a7 1a bc f2 3d 3e 3e 68 ed 8d be 59 e9 16 3e
       -0.009439401 0.18578318 -0.2772019 0.14737453
000010 11 00 b8 bd f3 6d 9a 3d 59 29 f3 be 81 18 8f be
       -0.08984388 0.075405024 -0.47492483 -0.27948382
000020 9e 68 f2 bd 22 a8 8d be 06 e0 a1 be a0 9a a8 3b
       -0.118363604 -0.27667338 -0.3161623 0.005145386

bias_hh_l0 f4 [12]
000000 1f 90 e3 bd b0 50 0c 3e 9e 11 7e 3e 49 7d e8 3d
       -0.11111473 0.13702655 0.24811408 0.11352021
000010 c0 1d 80 3e 88 4c d2 3d 1d 1e f5 3e 2b 64 ed bd
       0.25022697 0.102685034 0.47874537 -0.11591371
000020 3c 1a 1d be bb 41 b0 3e 36 0d 85 3e 4d d5 8b be
       -0.15342039 0.34425148 0.25986642 -0.27311173

weight_ih_l0 f4 [12, 24]
000000 3a e8 58 3e ca 80 7d 3c 82 a8 c7 3a f4 9b 00 38
       0.21182337 0.0154726 0.0015232714 3.066282e-05
000010 f4 9a 2d bd 83 91 64 bc 0b e0 b5 be 31 64 62 3e
       -0.042384103 -0.013950708 -0.35522494 0.22108532
000020 1b 06 6a be d2 94 f5 3b b6 04 6e 3c c2 58 65 be
       -0.22853892 0.0074945474 0.01452749 -0.2239714
000030 a0 ad 5f 3e 74 75 c6 be 9b 1e eb 3e 4e 36 c3 be
       0.21843576 -0.38761485 0.45921788 -0.3812737
000040 f2 47 92 3d 55 18 a4 bd f1 a6 eb be 75 06 c2 bd
       0.07142629 -0.080124535 -0.46025804 -0.09473888
000050 90 85 18 be 1b ad a5 be a6 cc e9 be 26 38 e5 be
       -0.148947 -0.32358631 -0.45663947 -0.447694
000060 2e 09 3a be ae 01 98 be 09 e0 33 be 15 00 94 bd
       -0.18167564 -0.29688781 -0.17565931 -0.07226578
000070 33 4a 8a 3e 7f 04 cd be 2a 25 54 3e f2 d8 d0 be
       0.27009735 -0.40042493 0.20717302 -0.40790516
000080 17 58 4a bd e3 ef 36 3d a7 8d 35 3e c2 0d 83 3e
       -0.049400415 0.044662368 0.17729817 0.25596434
000090 34 35 b1 bd 6b 8b 66 be 4c ea 8b be f9 13 fe bd
       -0.08652726 -0.22514121 -0.27327192 -0.12406153
0000a0 ec 01 03 3e d2 87 d4 be 96 7c b5 3e ce 30 f8 3e
       0.12793702 -0.41509873 0.35446614 0.48474735
0000b0 94 08 35 3e 65 1e 25 be 2e 5d 9e 3d 8d fd 32 be
       0.17679054 -0.16124876 0.07732616 -0.17479534
0000c0 25 39 8c be 86 31 15 3e 5f 53 65 b4 9f 8a 4a 37
       -0.27387348 0.14569673 -2.1357617e-07 1.20724135e-05
0000d0 40 e4 88 bd 20 99 6e 3e 5d 93 a6 be c1 79 ae 3e
       -0.0668416 0.233006 -0.32534304 0.34077266
0000e0 77 57 bf bd 59 5c 2a be 00 e8 ed bc cc 35 8f 3e
       -0.093428545 -0.1663679 -0.02904129 0.2797073
0000f0 53 e4 8b be 51 56 fa 3d 82 d6 39 3e 69 51 b4 3e
       -0.27322635 0.12223495 0.18148234 0.3521836
000100 a0 68 3b be 6a a4 ab 3e f2 f9 5d be e0 d0 d8 be
       -0.1830163 0.33523875 -0.21677378 -0.4234686
000110 5f 52 85 be 6f 1d a5 be 95 8f 54 3e 28 2a 84 bc
       -0.26039407 -0.3224902 0.20757897 -0.016133383
000120 9a f2 45 bc af a4 97 be a0 8f 79 bd de ac 93 ba
       -0.0120817665 -0.2961783 -0.060927987 -0.0011266728
000130 85 cd 66 3b 76 ce 8d bc 69 52 bf be 77 34 c7 be
       0.0035217714 -0.017310362 -0.3736756 -0.38907215
000140 d3 17 72 3e 36 56 a0 bd f4 81 a4 3e 40 2f 83 3e
       0.236419 -0.078289434 0.32130396 0.25621986
000150 73 b2 3d 3e d9 18 63 be 24 dd 33 be e7 b8 e4 3e
       0.18525104 -0.22177447 -0.17564827 0.4467232
000160 cf bd e7 be 92 c4 2c 3e a7 82 b0 3d ce 7c d8 3e
       -0.45262 0.1687186 0.0861867 0.42282718
000170 0e b5 3c be 68 1e a2 3e 0a ab ff 3b ef 86 e2 3e
       -0.18428442 0.31663823 0.007802372 0.4424357
000180 82 a4 f2 3e 5b b8 62 bd 3d b1 81 39 c2 07 04 be
       0.47391135 -0.055351596 0.0002473685 -0.12893584
000190 3f 0d 93 3e a7 5a 38 be a7 4b 99 bd 71 1b c3 be
       0.28721043 -0.18003331 -0.07485133 -0.38106874
0001a0 3d 89 a2 bd da 95 b0 be 52 97 74 be c6 7c 57 be
       -0.079363324 -0.34489328 -0.23885849 -0.21043691
0001b0 f6 aa ec be e0 0f 94 3c b5 79 c8 3e 01 8b eb 3e
       -0.46224183 0.018073976 0.39155355 0.4600449
0001c0 55 7f bd 3e fd fb 18 3e 17 71 e4 3e ce b2 39 be
       0.3701121 0.14939876 0.4461753 -0.18134615
0001d0 cf db 1b 3e c0 7c a3 3e 3a 55 9a be 12 78 2d 3c
       0.15220569 0.31931114 -0.30143148 0.010587709
0001e0 7e 0d 0b 3e c2 1c d9 3e b2 a1 d5 b9 cd c0 d6 3d
       0.13579366 0.42404753 -0.00040746998 0.104859926
0001f0 19 26 04 3e df 4a 53 bd 19 c5 b8 3e cf 4f 3a 3e
       0.12905158 -0.051585075 0.36087874 0.18194507
000200 32 c2 8f bd bf d0 b5 be 0b 78 74 be 12 23 86 3e
       -0.07019462 -0.35510823 -0.23873918 0.26198632
000210 82 65 ce bd d0 a1 ab be 46 9e 9c 3e 36 82 91 3e
       -0.10077955 -0.3352189 0.30589503 0.28419656
000220 15 1c ec 3e d0 9f a0 bc 22 09 e1 3e cd 02 8c be
       0.46115175 -0.019607455 0.4395228 -0.27345887
000230 55 87 bd bd 6c 8e e4 3d 13 04 fa bd d8 05 f4 3e
       -0.09254328 0.11159977 -0.12207808 0.47660708
000240 cd 1b ce 3e d9 bc a5 3e 7c c4 ce 31 93 57 c4 39
       0.40255585 0.32370642 6.0177268e-09 0.0003744928
000250 0f 64 dc be 85 13 ea be c8 00 67 3d b2 17 24 3d
       -0.4304509 -0.45718017 0.05639723 0.04006166
000260 29 0a e7 bc 61 9d 64 3d 1f 28 97 3c 6d 71 9e bd
       -0.028203087 0.05581415 0.018451748 -0.07736478
000270 cf a3 85 be 9c 74 ba 3e 92 e8 b1 3e 48 af be be
       -0.2610154 0.3641709 0.3474775 -0.37243104
000280 b8 47 e6 bd 3e 91 55 be fd 35 ac be 3f 50 03 3f
       -0.11244148 -0.20856187 -0.3363494 0.5129432
000290 46 a8 57 3e f0 1f 02 3e 43 26 25 be 2f c6 81 be
       0.21060285 0.12707496 -0.16127877 -0.25346515
0002a0 eb d9 bf 3e 7a 14 c0 be 57 d5 f1 3c e3 e4 08 be
       0.37470946 -0.37515622 0.029520674 -0.13368563
0002b0 95 d1 0c bd 5d 1c 5b be 4e 8e 93 3e 74 46 04 3f
       -0.03437956 -0.21397538 0.28819507 0.5167
0002c0 9b 78 db be d3 0b 96 3d 98 1b ba 3d 0f ec 7e be
       -0.42865452 0.07326474 0.09087294 -0.24894737
0002d0 e5 d2 90 bd 2a b9 26 be a4 19 dc 3d 21 1b bf be
       -0.07071475 -0.16281572 0.10747078 -0.37325385
0002e0 ac 9c d4 3e 3a ae db bd c7 bc df be d7 9a 6c be
       0.4152578 -0.107265905 -0.43698713 -0.23105942
0002f0 c3 22 b3 bd 55 25 69 bc 03 df 0b 3d c2 d3 60 be
       -0.08746865 -0.014230092 0.034148227 -0.21955779
000300 35 5f bf 3e c3 d6 bb 3e ac 32 42 32 99 9a c6 39
       0.37377325 0.36687288 1.1303808e-08 0.00037880687
000310 87 de e8 bd 50 23 50 3e 42 3c 60 3e ab bc 17 3e
       -0.11370569 0.2032597 0.21897987 0.14818065
000320 4f ef 95 be 45 fd 2a 3c ff 89 09 3e ff 73 11 be
       -0.2928414 0.010436361 0.13431548 -0.14204405
000330 4c e5 51 3d d2 44 da 3e 1f 7a 80 be 35 95 c2 3e
       0.051244065 0.4263063 -0.2509317 0.3800446
000340 2e 54 cb be 44 ab 46 3e b9 0a c0 be 53 31 34 be
       -0.39712662 0.1940127 -0.3750818 -0.1759694
000350 96 db cd 3e f9 23 ea 3e 20 fa b9 bc af dd 02 bf
       0.40206593 0.4573057 -0.022702277 -0.5111951
000360 5f fa a3 be d8 6b ad 3e a9 82 80 bc 72 72 ea bd
       -0.32026955 0.3387134 -0.015687304 -0.1144761
000370 9d 05 ba be 29 0f 5c 3d f4 ae 15 3d ba a6 a3 be
       -0.36332408 0.053725395 0.0365438 -0.3196314
000380 65 6f c6 3e 89 7e f2 3d f8 02 6c be 33 8c d5 be
       0.38756862 0.11840541 -0.23048007 -0.41708526
000390 fc 5b 28 be a9 ff 3b 3d c5 a1 d6 bd c6 e1 f4 be
       -0.16441339 0.045898113 -0.10480074 -0.478285
0003a0 5e da 9a 3e b4 3a d9 3e f8 30 9b bc 84 c5 be be
       0.30244726 0.424276 -0.018944249 -0.37260067
0003b0 7f 96 b4 be 1c 86 9f 3e 04 bf a4 3e b0 56 df be
       -0.3527107 0.31157005 0.32176983 -0.43620825
0003c0 ce 29 d0 3c b4 ea 09 3e 33 4a e4 3c 4c 56 76 bc
       0.025410559 0.13468438 0.027867412 -0.015035223
0003d0 81 98 a7 3d 9d 0f db 3b 14 bd 9d be 29 f8 82 3d
       0.08183385 0.006685211 -0.30808318 0.06394989
0003e0 cf 9f 86 bd a6 9f 83 3e 02 7c 8e be d1 a4 a0 3e
       -0.0657345 0.2570774 -0.27828985 0.31375745
0003f0 76 ec 82 3e be 4e cc 3e 39 88 09 be 4b 14 07 3e
       0.2557103 0.39903826 -0.13430871 0.13191335

weight_hh_l0 f4 [12, 4]
000000 e4 68 f1 b8 3c a2 b2 3d 23 b8 66 3e 65 9e 90 3b
       -0.00011511313 0.0872235 0.2253118 0.0044134133
000010 63 0f f8 3d b6 a0 8b 3e 3b f6 a6 be 6e 3d d9 bd
       0.1211231 0.2727105 -0.32609734 -0.1060742
000020 c8 95 77 be 9e 2c 73 3e c9 df 48 be f0 07 07 3e
       -0.24178231 0.23747489 -0.19616617 0.13186622
000030 1d 85 6b 3e aa 35 a9 be 25 39 ee be 1b 71 89 be
       0.22999997 -0.33048755 -0.46527973 -0.26844105
000040 b1 d9 da 3d 85 49 c8 3e e6 12 4e 3e bf 2f 96 3e
       0.106860526 0.3911859 0.20124397 0.29333302
000050 8d 72 b8 3e c2 e2 ab be 1c d6 fb bc f8 1a d9 3e
       0.36024895 -0.3357144 -0.030741744 0.42403388
000060 17 09 d3 3d c2 d0 c5 3c 68 e0 cd be 2d bd a5 3e
       0.10304468 0.024147395 -0.4021027 0.32370892
000070 cc 95 e0 3d b3 4d a2 be 6b 62 8d be a4 b7 46 be
       0.109660715 -0.31699905 -0.2761415 -0.19405991
000080 bf 4c 08 be 8f d1 b8 3e b5 3c db 3e d6 f4 33 3e
       -0.13310526 0.3609738 0.42819753 0.17573866
000090 09 6e 8a 3e 45 ba 90 bd 6c 41 a5 be 13 21 c2 be
       0.27037075 -0.07066778 -0.32276475 -0.3791586
0000a0 2d 68 9f 3e 7c 90 a1 3e f3 a6 9f be b5 cd 97 3e
       0.31134167 0.31555545 -0.3118206 0.2964913
0000b0 e5 c9 2e be 3a 28 c5 be 5d 82 d1 3e 3b 1e f0 be
       -0.17069204 -0.38507253 0.40919772 -0.46898064

bias_ih_l0 f4 [12]
000000 b7 93 98 be fa c4 01 3e 34 ff 11 3e 8b 4d d1 3e
       -0.29800197 0.12672797 0.14257509 0.40879473
000010 dc 42 23 be 60 65 a1 bc 1d a9 90 3d 9c 91 9d 3c
       -0.15943474 -0.01970166 0.07063506 0.019234471
000020 a5 07 9b be 6d bd 44 3e 17 1d 62 be 12 f1 95 3e
       -0.3027927 0.19212885 -0.2208141 0.29285485

bias_hh_l0 f4 [12]
000000 50 d7 d9 bd d0 c7 5e 3e 72 d1 c1 3e 6d 03 2c be
       -0.10636771 0.2175591 0.37855107 -0.16798182
000010 ad 8f e6 3e be 19 df 3d 64 58 bd be c0 1a ed 3d
       0.4503149 0.10893582 -0.369815 0.11577368
000020 ba 77 fb be 48 75 eb 3e 5f 87 8c be 1b a6 4e 3e
       -0.49114782 0.45987916 -0.2744703 0.20180552

weight f4 [4, 4]
000000 c4 3a ce be c4 7e 67 3e 81 02 8f be 4d d8 cf be
       -0.4027921 0.22606951 -0.27931598 -0.40594712
000010 36 a6 f3 3e 55 34 b5 be a5 a7 18 3e 8c 7a 86 3e
       0.47587746 -0.3539149 0.14907701 0.2626537
000020 3e b6 1a 3d c4 8a 2b be 92 60 e2 3d d6 c5 65 bd
       0.037771456 -0.16752154 0.110535756 -0.056096874
000030 f5 1c 1c be e6 d8 b0 3d 36 ee 1a 3c 0c ab 2c 3a
       -0.15245421 0.0863512 0.009456208 0.0006586767

bias f4 [4]
000000 65 23 13 3e b8 34 ae 3e a0 98 25 be fc ad 9c bb
       0.1436897 0.34024596 -0.16171503 -0.0047814827

weight f4 [320, 8]
000000 00 95 2f be 0d b9 81 be 48 c7 43 be e3 85 e7 3d
       -0.17146683 -0.25336495 -0.19118989 0.11304834
000010 60 d5 ad 3e c7 07 a5 3e 29 05 ed 3d 07 af 98 be
       0.33951855 0.32232496 0.1157325 -0.29821035
000020 33 70 7d 3e 13 5e 08 3e e2 bc 0e bd 43 6c 9b bb
       0.24749832 0.13317136 -0.0348481 -0.0047431304
000030 cc 58 67 be 32 85 48 3e f2 16 89 be fd cc fb bc
       -0.22592467 0.1958206 -0.26775318 -0.030737394
000040 dc b9 7b 3b eb 6e 77 be 2d ae 3d bb a4 a0 94 be
       0.0038410341 -0.24163406 -0.0028942928 -0.2902881
000050 58 bc b8 bb f5 a8 bb 3d 3e 99 50 be cb e0 53 bd
       -0.0056376867 0.09163085 -0.20370957 -0.05172805
000060 42 f9 31 be aa fa b7 bd a8 a8 ce 3d fb d7 a7 3d
       -0.1738024 -0.08983357 0.100907624 0.08195492
000070 ba e8 d2 3d 54 02 b6 be 94 f7 b8 be 33 40 f7 bd
       0.10298295 -0.3554865 -0.36126387 -0.12072792
000080 cb 67 3f 3c ec 21 b7 bb 71 ac 61 bd 82 f0 56 3e
       0.011682461 -0.0055887606 -0.055096094 0.20990184
000090 ed 7e 90 3d 0d a9 5d be fc 25 20 3c 80 46 31 bd
       0.07055459 -0.21646519 0.009774681 -0.043280125
0000a0 7d 69 91 be e4 44 0c be 17 00 84 be 74 4b b7 3c
       -0.28400794 -0.13698155 -0.2578132 0.022374846
0000b0 34 41 5a 3e 2c cb bc bc 9f d6 8e bd ea c2 b4 bd
       0.21313936 -0.023046099 -0.069745295 -0.088262394
0000c0 1f 4c 89 be 9d 6d 20 3d 39 1a 64 3e c0 ae 9f 3c
       -0.26815888 0.039167035 0.22275628 0.019492507
0000d0 b9 86 64 3e b7 62 86 bd af 92 5c bd 46 fb 5e 3e
       0.22317018 -0.06561797 -0.053850826 0.2177554
0000e0 5c 7e 69 3e c2 53 9f 3e 04 d6 8c 3e 85 20 92 bd
       0.22802109 0.3111859 0.2750703 -0.07135109
0000f0 b0 60 9e be 69 7c 5f 3e 2f a5 a8 be b6 67 6f be
       -0.30933142 0.21824802 -0.32938525 -0.23379406
000100 60 8b 81 3c ed db 68 b4 41 0b 50 ad c4 92 b6 bd
       0.01581353 -2.1686692e-07 -1.182593e-11 -0.08914712
000110 4b 45 84 3d 66 0c b2 3d 50 ce bb 3c 1c ef 39 bd
       0.06458529 0.08693771 0.022925526 -0.045394048
000120 ac c5 7f be 8e 07 8e bd a5 c2 4e be 19 a0 81 bb
       -0.2497775 -0.06935035 -0.20191438 -0.0039558527
000130 57 68 82 3e 4a ba 40 3e db 80 75 3d fb 8d 39 3e
       0.2547023 0.18821064 0.05993734 0.18120568
000140 73 a2 89 be c1 0f ab 3e b5 93 7e be 87 04 7a be
       -0.2688175 0.33410457 -0.24861033 -0.2441579
000150 f6 ab 0e be 65 77 a2 3e f6 92 84 bd 31 54 55 be
       -0.13932785 0.31731716 -0.06473343 -0.20832898
000160 b7 ba a6 3e fc 15 a4 bd d8 b6 95 3e 87 44 10 be
       0.32564327 -0.08012006 0.2924106 -0.14088641
000170 c1 4d a5 be 33 78 33 be fc 67 7d 3e bb db ba bd
       -0.32285884 -0.17526321 0.24746698 -0.091239415
000180 56 65 37 3e 92 46 95 3e c7 b1 f3 bd e9 be 9d be
       0.1790975 0.29155403 -0.11899143 -0.30809715
000190 57 85 80 be 04 6e 62 be a2 04 98 3d 28 7b 9f 3e
       -0.2510173 -0.2211228 0.07422759 0.31148648
0001a0 96 62 46 3e 3b 0b 4b be aa 2e 6c 3e 4f ba 27 3e
       0.19373545 -0.19828503 0.23064676 0.16379665
0001b0 8c f0 f1 bd 8d 67 ee bd f8 ef 00 3d b0 63 b0 3e
       -0.11813459 -0.116408445 0.031478852 0.34451056
0001c0 37 36 fe bc e8 2f b4 3b ff 88 4d be d7 bf 3c bd
       -0.031031711 0.005498875 -0.20071791 -0.04608139
0001d0 15 94 75 be ed 60 c9 3d 4b a9 97 3d c0 3e 5e 3e
       -0.2398227 0.0983294 0.07405337 0.21703625
0001e0 0f 75 10 bb 81 c9 e7 3b d3 27 24 3c 65 55 8f 3b
       -0.0022042429 0.0070735817 0.01001926 0.0043741935
0001f0 f6 ec 4a 3d 02 ee 9a 3b f3 8a 77 bd 69 09 ed bb
       0.04954239 0.00472808 -0.060435247 -0.007233788
000200 ef ef d5 3b 52 7f 0f 3e 73 0a 79 3e 45 38 21 3d
       0.0065288465 0.14013413 0.24320392 0.039360303
000210 ce b8 ab 3e 77 f8 a5 be 48 10 36 3e b4 34 48 be
       0.33539432 -0.32416126 0.17779648 -0.19551355
000220 62 6e c5 bd fd bf b3 3e f2 0d 33 bd 29 e2 63 3e
       -0.096401945 0.35107413 -0.04371447 0.22254242
000230 b6 e2 58 3e 9c de 65 3e 81 29 52 be 4b af da bd
       0.21180233 0.224482 -0.20523645 -0.10677966
000240 26 3d 5c be 5b 27 d3 bd 1a 9b 19 3e d3 c9 15 3e
       -0.21507701 -0.10310241 0.15000573 0.14627771
000250 58 54 b9 3b 43 83 4e 3e 03 cb 98 be 4f 3d 0d bd
       0.0056558065 0.2016726 -0.29842386 -0.034482297
000260 2e 79 81 3e f0 92 1a 3e 87 c1 2b 3e 4b ae ba be
       0.25287765 0.15095115 0.16773044 -0.364611
000270 fe ea ce 3d 7b bf 6a be 14 e5 38 3d 48 b7 02 bd
       0.10103415 -0.22924607 0.04514034 -0.031913072
000280 fa b8 2e be 4c 28 08 be 7b 3f 49 bd 65 95 6e 3c
       -0.1706275 -0.13296622 -0.049132805 0.014561986
000290 ac 29 14 3e 8b 54 af 3e ca 2c 81 3e 12 d3 2d bd
       0.14469022 0.3424419 0.25229484 -0.04243762
0002a0 66 19 94 bd 71 d1 f3 3c e5 55 2e 3a 9d c4 f8 3c
       -0.07231407 0.029762955 0.00066503725 0.03036719
0002b0 93 61 1a bd 42 94 af 2f 21 c9 90 b9 bb 63 70 bd
       -0.03769071 3.1937658e-10 -0.00027615673 -0.05868886
0002c0 f6 4f 0f bd 9c 7c 22 b4 97 de 43 b7 bc 1e b8 3a
       -0.034988366 -1.5132758e-07 -1.16747315e-05 0.0014047245
0002d0 19 12 a7 bd 5b 7a 9f 3c 2f 42 29 37 54 f4 aa bd
       -0.08157749 0.019467523 1.00885945e-05 -0.08347383
0002e0 3f 40 9d 3d 45 0e 9b 3e 87 b7 19 be 0e da b9 3d
       0.076782696 0.30284324 -0.15011416 0.09074794
0002f0 83 63 48 3e 56 fe 3f bd 53 42 00 be 8b 1e 8c 3e
       0.1956921 -0.046873413 -0.125253 0.27367052
000300 49 ba 6b 3e db 18 a3 be c9 50 2d 3e ee 47 1b 3d
       0.23020281 -0.318549 0.16925348 0.037910394
000310 e3 e7 10 bc 2d 6c 73 3d bb 27 8d be 30 43 56 be
       -0.008844349 0.059429336 -0.27569374 -0.20924067
000320 4a 6d 36 38 e1 7b ad b4 75 12 00 3b 67 99 2f 30
       4.3493965e-05 -3.2313895e-07 0.0019542251 6.3882627e-10
000330 da 4d f5 39 6e e5 b0 b4 45 3a 80 b1 75 1a 92 bd
       0.00046788045 -3.2949487e-07 -3.7319148e-09 -0.071339525
000340 78 80 94 3e 1b b7 86 3e 03 e6 93 be 70 b3 dd bd
       0.29004264 0.26311573 -0.28886423 -0.108252406
000350 90 92 3c be 01 50 ce 3d 73 61 a4 bd a1 bf 75 3d
       -0.18415284 0.10073853 -0.080263995 0.059997205
000360 47 fa e3 3d dd 0a e8 bb 2e a4 9b 3e f5 12 b8 3d
       0.11131721 -0.007081373 0.30398697 0.08987991
000370 f7 90 a8 be 72 69 90 3e 41 68 05 3d 3c a1 91 bc
       -0.329231 0.28205448 0.032570127 -0.017777078
000380 f0 64 76 3b cc 48 ae 3c d6 8d 9c 3d a7 f6 ca b4
       0.0037596785 0.021274947 0.076442406 -3.7804895e-07
000390 42 85 98 bd 24 31 0f b2 99 b7 75 3c 55 6f 55 bd
       -0.07447292 -8.334869e-09 0.014997386 -0.052108128
0003a0 9a 8d 82 3e db 75 26 3e dd ae 81 be cc 70 1d 3e
       0.25498658 0.16255896 -0.25328723 0.1537506
0003b0 c0 4b 51 be 3a fe e9 3d b5 42 b5 3d 58 a2 84 3e
       -0.20439053 0.11425443 0.08850614 0.25905108
0003c0 d5 d4 35 b9 5f 3d 9d 3d 19 1e 89 3c 11 c1 44 b9
       -0.00017340791 0.07677721 0.016737984 -0.0001876394
0003d0 78 40 45 bd e6 de 55 3d 12 44 45 3c 2e 19 15 bd
       -0.048157185 0.052214526 0.012040155 -0.036400966
0003e0 98 f1 2f be 6e 5e ea bd 75 54 47 3e 39 22 f8 bc
       -0.17182004 -0.11443792 0.19465812 -0.030289756
0003f0 c4 2b 9e 3e f9 5a 73 3e 2e 7e 93 3e 5e 1a 89 bd
       0.30892766 0.23765172 0.28807205 -0.06694482

bias f4 [320]
000000 be 21 4a 3e 02 ad d4 bd 1c b6 aa 3d 56 5a cd 3c
       0.19739434 -0.10384561 0.08335516 0.02506749
000010 89 7f 04 bc e2 76 bb 3d 32 d1 4a 3e 7c ec 67 3e
       -0.008087047 0.091535345 0.19806364 0.22648805
000020 af cd a1 bd 6c cf 9f 3e 2a 2f ab 3d 6f 5f 35 3e
       -0.07900559 0.31212938 0.08358605 0.17712186
000030 12 6c 73 3e 24 4b 0c 3e 57 64 b9 3d cc a4 80 bd
       0.23771694 0.13700539 0.090523414 -0.062814325
000040 f8 71 62 3e 2e 88 75 3e 60 29 58 3d b1 e8 78 3d
       0.22113788 0.2397773 0.052773833 0.060768787
000050 7b 90 0a bc a5 b7 cd bc be 03 39 bd af aa 98 3e
       -0.008457298 -0.025111983 -0.045169584 0.2981772
000060 a6 de d7 3c 3e ca a8 30 a7 e1 42 3d bd 52 1a bd
       0.026351284 1.228109e-09 0.04757848 -0.03767656
000070 e5 9d 0a 35 80 28 20 ba bf 71 89 ba ef 82 3e 3e
       5.1638773e-07 -0.00061095506 -0.001048617 0.18604635
000080 57 55 98 3e 83 28 92 3d 82 87 0b bc dd 39 2a bd
       0.2975261 0.07136633 -0.008516194 -0.04155909
000090 42 a2 af 3d 55 ea 7d 3e d2 ad 27 3d ab 7e 2e 3e
       0.0857587 0.24796422 0.040937252 0.17040507
0000a0 ba b9 6b be ff 1d 4d 3e 38 9c 61 3e f6 ba 27 af
       -0.23020068 0.20030974 0.22032249 -1.5254983e-10
0000b0 fc 7a 1f be e4 88 40 3e 3c c9 1d 3e 2a fa 04 3d
       -0.15574259 0.1880222 0.15408796 0.032465138
0000c0 e2 e5 5c 2e f5 3e b2 bc fe 99 91 bd 92 f3 7e 3e
       5.0226386e-11 -0.021758536 -0.0710945 0.24897602
0000d0 86 3c f7 bc 65 0c 85 3d 24 53 8b 3e 91 b2 5f be
       -0.030180227 0.06496505 0.2721187 -0.21845461
0000e0 54 a1 94 3e e0 db 13 3e 09 56 44 3e 1a c5 aa 3e
       0.29029334 0.14439344 0.19173445 0.33353502
0000f0 87 26 84 bd 50 00 27 be ae d3 11 3d 26 77 22 ba
       -0.06452661 -0.16308713 0.035602264 -0.0006197564
000100 1c 3b dd 3c c4 bd 16 bd 6b 09 86 bc c7 22 c8 3c
       0.027005725 -0.03680207 -0.016361913 0.024430646
000110 cc 07 22 be b7 77 9c be 77 6e 99 bd e9 46 0e be
       -0.15823287 -0.30560085 -0.074917726 -0.13894238
000120 1a d9 8e bd b2 9a 9a 3e e5 13 5c bd c8 bd 77 3e
       -0.069750026 0.30196148 -0.05372991 0.2419349
000130 cc 6c 08 3e 6f be 9c bc 35 37 7f 3e 57 e7 26 3e
       0.13322753 -0.019133775 0.24923404 0.16299187
000140 4e 21 82 3d fb 37 b2 bc 91 16 a2 bb b8 d2 1e 3d
       0.063540086 -0.02175521 -0.004946538 0.038775176
000150 2e fe 72 3e 22 1c 60 bd b5 0b 5a be 86 38 c3 bd
       0.23729774 -0.05471433 -0.21293528 -0.09532265
000160 2e 0a 9d 3e 10 1a c5 bd 49 9e 8c 3e f2 af 3b 3e
       0.3067183 -0.09624112 0.27464512 0.18328837
000170 83 74 73 3e 83 12 07 bd 68 0e a8 3e df 87 62 3e
       0.23774914 -0.03297664 0.3282349 0.22122143
000180 fe 08 95 bc 99 a8 ff bd 0c 4c 44 bd 4e 76 bc 3d
       -0.018192764 -0.12483329 -0.047924086 0.09202252
000190 7d 6c fe bc fb 73 90 bc 66 74 4a 3e 14 2a 2f 3e
       -0.03105759 -0.017633429 0.19770965 0.17105895
0001a0 6b a3 c5 bc a1 21 ac 3d 69 93 9e 3e ae cf 65 3e
       -0.024125775 0.08404852 0.3097184 0.22442505
0001b0 07 eb 85 3e 66 bf 74 be cf b1 d0 3d 1a 4f 17 bd
       0.26155874 -0.23901138 0.10190164 -0.03694067
0001c0 89 8e c5 3d 7c 79 54 be bc 1a 8f 3d b9 16 72 bd
       0.09646327 -0.20749468 0.06987521 -0.0591037
0001d0 eb 00 71 3d 48 a4 81 3e 47 50 17 3e 64 93 65 3e
       0.058838766 0.2532065 0.14776717 0.22419506
0001e0 cb a0 f2 bc bb 52 40 bd 3d 5c 94 3e a1 14 e1 3d
       -0.029617688 -0.046953898 0.28976622 0.10990263
0001f0 d5 84 93 bd 1b bb c0 3d e1 41 a2 be b8 c5 87 bd
       -0.0720307 0.094106875 -0.31690887 -0.06629509
000200 04 7b 95 3e ee 4d 88 bd 6d 4e 84 be 54 4a b7 3c
       0.29195416 -0.06655489 -0.25841084 0.02237431
000210 4f 2a 3c 3d e4 43 4c 3e bf 8f 9a 3e 4b 85 51 bd
       0.045938786 0.19947773 0.30187795 -0.05115251
000220 2d 39 b3 bc fc 75 9e 3e 72 d7 89 be 51 6e 2f be
       -0.02187785 0.3094939 -0.26922184 -0.17131926
000230 55 b7 a8 3d 45 8f 8b bd 7d ba 67 3e f6 df ac bb
       0.08238093 -0.06814436 0.22629733 -0.0052757217
000240 43 74 05 be d3 13 07 3e da e8 33 3e 82 91 ca 3d
       -0.13032632 0.13191156 0.17569295 0.09891035
000250 fe 37 08 bd 24 57 29 3e 76 3e f1 bc 39 76 f8 bb
       -0.033256523 0.16537148 -0.029448729 -0.0075824526
000260 c4 73 b2 be 72 92 53 3e 33 0c 99 3e 16 c1 aa 3d
       -0.34853947 0.20661333 0.2989212 0.083376095
000270 17 20 97 3d 8e fe 4e 3e 7b f3 81 be 8c af 3e bc
       0.073791675 0.20214292 -0.25381073 -0.011638533
000280 1f a0 8d 3e 47 c7 6d be 31 cc 88 3e 7a 24 01 be
       0.27661225 -0.2322055 0.26718286 -0.12611571
000290 c0 2e 87 3c 62 41 b0 3e 8f 79 48 bd 72 2f b4 3d
       0.016501784 0.34424883 -0.048944052 0.08798112
0002a0 25 61 db 3d 87 5a 6b be d8 ce 43 b6 6a 89 11 3d
       0.10711888 -0.22983752 -2.9177663e-06 0.03553144
0002b0 4e 10 b6 bb e7 a5 d9 bc 0e 46 c2 bd ac ee 61 3e
       -0.005556143 -0.026568366 -0.09486018 0.22063702
0002c0 ab 8a ae bd 06 db 48 3e 24 19 1b 3e 7a f7 42 3e
       -0.085225426 0.19614801 0.15146309 0.19039717
0002d0 f0 17 a4 3e 76 e4 47 bd ae 54 8d 3e fe 02 82 3e
       0.32049513 -0.04880186 0.27603668 0.25392908
0002e0 27 89 0d bd db 79 93 bc 97 5a 93 bd 76 f4 1c 39
       -0.034554627 -0.018002441 -0.07195013 0.00014968388
0002f0 4d 29 7e be 56 4d 82 31 c6 8f 90 3e cb ad 9c 3e
       -0.24820442 3.79229e-09 0.2823469 0.30601344
000300 0a 4d d2 3c de 85 07 3d 3f df fc bc b1 3c ba bd
       0.0256715 0.03308665 -0.03086817 -0.09093607
000310 65 76 b0 3e 7e 15 61 3d 09 3d 92 3e 81 d0 0c 3a
       0.34465328 0.054952137 0.2856219 0.00053716457
000320 e5 5b 73 3e 2e 22 06 bd 6d 3c ac 3e 3d 61 9a be
       0.23765524 -0.03274744 0.3363985 -0.30152312
000330 0d 04 e8 bc 63 a5 19 bd 39 5c b4 3e cb d2 46 3e
       -0.028322244 -0.03751124 0.3522661 0.19416349
000340 df 57 57 3e f6 6e 81 3d 6c e5 b0 bd cd 2b 7c 3e
       0.21029614 0.06319992 -0.08637509 0.24626084
000350 94 cc aa bc 9b ce ad bd bb e6 37 3d ba 76 2c 33
       -0.020849504 -0.084866725 0.044897776 4.0154852e-08
000360 da dc 24 b3 9b 79 ed 3c c4 88 c8 bd 38 34 70 3e
       -3.838509e-08 0.02898865 -0.09791711 0.2345742
000370 f4 35 ab 3e d4 03 00 bc 95 46 4e bc 3c 93 85 bd
       0.334396 -0.007813413 -0.01259007 -0.06522223
000380 b8 3c 96 3c 54 00 43 bd 1d 19 fb bc 2b f8 be bc
       0.0183395 -0.047607735 -0.030651623 -0.023311695
000390 50 51 b1 bd 96 60 11 3e 60 6f 0d 3e 7f b3 91 bd
       -0.08658087 0.14197001 0.13812017 -0.07114314
0003a0 63 5b 67 bd 7c 31 7e bd d1 5b d5 3c 0d e8 3b 3b
       -0.056483638 -0.06205891 0.026044758 0.0028672249
0003b0 4b 53 89 bd 12 70 c0 bd e5 e9 3e 3c 38 d3 ff 3d
       -0.0670534 -0.09396376 0.0116524445 0.12491459
0003c0 30 0c 2a bd fb 31 69 be 8e 78 b0 ae 20 60 b2 bb
       -0.04151553 -0.22772972 -8.024968e-11 -0.005443588
0003d0 3e d5 b3 3e 91 2c 5f 3e 16 10 00 be a8 64 8e 3e
       0.35123628 0.21794344 -0.12506136 0.2781117
0003e0 c5 4a e8 3d 8c aa a1 be 86 7a 43 be cf 2b 8b 3e
       0.11342386 -0.3157543 -0.19089708 0.2718186
0003f0 6a 78 ce bd 4a e2 a6 3e 75 08 4e 3e 3b 72 85 bc
       -0.10081561 0.3259452 0.20120414 -0.01628982

weight f4 [4, 320]
000000 79 c5 3e bc 5b ff a2 bc f1 3e c6 bc 2f 70 25 bd
       -0.011643761 -0.019897154 -0.024199935 -0.04039019
000010 a1 be 3a 3d dd c8 ee 3c d8 e2 92 bc 6f e1 22 bd
       0.045591954 0.029148513 -0.017930433 -0.03976577
000020 a6 e7 83 30 3a 42 13 3d 81 60 24 3d 3a e9 b8 bc
       9.597343e-10 0.03595183 0.040131096 -0.022572149
000030 48 db b4 bc 55 5d 4d 3d 0d 68 2a bc 78 b8 56 39
       -0.022077218 0.050137836 -0.010400784 0.0002047735
000040 b3 33 3e bd d9 b9 ff bc 24 a5 0f bd 45 ab a7 bd
       -0.046436023 -0.031216549 -0.0350696 -0.08186964
000050 6a b6 d2 3c 90 71 ba ae 9e 09 39 2f 88 c3 b5 3c
       0.025721747 -8.4784735e-11 1.6829069e-10 0.022187963
000060 0a b9 1c 3d 1f 40 35 30 27 15 57 bc 10 f3 e7 3c
       0.038262405 6.593854e-10 -0.013127602 0.028314143
000070 9f 95 90 2f 89 e2 2d bc 1b a2 4d 39 52 66 27 bd
       2.629976e-10 -0.010613092 0.00019610712 -0.040869065
000080 b8 64 b3 bc f1 49 6e bc 19 5c 9f ba 7c 52 3d 2f
       -0.021898612 -0.014543996 -0.0012158185 1.7218754e-10
000090 47 80 28 3d f4 fb 65 3d 62 31 0c bb 2c d3 78 3c
       0.04113796 0.056148484 -0.002139174 0.015187066
0000a0 b6 6c d7 3c 92 a3 1c bd 53 87 c3 3c 44 e6 dd 2e
       0.026296955 -0.03824193 0.023868239 1.009082e-10
0000b0 bd 80 09 bc 89 6c 41 3c 31 93 5b 3d f6 82 70 3d
       -0.00839251 0.011805662 0.05360717 0.058718644
0000c0 86 81 63 2f b3 4b 14 3c 48 04 64 bc 13 1d f6 3b
       2.0691546e-10 0.009051251 -0.013917036 0.00751079
0000d0 58 8a 22 38 cc 8c 79 bb 1c c3 6b 3d 43 21 d7 3b
       3.8752652e-05 -0.0038078306 0.057559118 0.0065652444
0000e0 ba c0 d4 3c e9 7c 3d 3c 9e 0d c5 3c da d5 1b bd
       0.025970805 0.011565425 0.024054345 -0.03804574
0000f0 7e a7 cb 2f 66 8f 3b bd 26 11 85 3b 6b 69 44 3c
       3.7044495e-10 -0.045791052 0.004060882 0.011988024
000100 ca 0c 3e 3b ac 83 d1 3c 9e f4 0e bd 99 7b 70 3d
       0.0028999322 0.025575481 -0.034901254 0.058711622
000110 6e 0b 1d bc ae fe f7 bc a4 30 c7 3c a9 8f ca 3a
       -0.009585245 -0.030272808 0.024315186 0.0015454191
000120 63 79 a0 bb f6 bb b7 bc c8 ec a4 3c 2a 07 12 3d
       -0.004897283 -0.022428494 0.020132437 0.035651363
000130 c6 a2 15 bd c1 be 3f bd fb 14 4e bb 07 3b 1b bd
       -0.036532186 -0.046812776 -0.003144561 -0.03789809
000140 5d 8c 4f bd 7d f6 9c 3c 3b dc 8f bb 1b 06 09 bb
       -0.05067097 0.019160504 -0.004390267 -0.002090818
000150 d3 39 05 bc 02 83 07 ac 69 18 15 3c 11 ac bd bc
       -0.008131462 -1.9257378e-12 0.009100058 -0.023153337
000160 b9 92 9b bb 13 af 8a 3c 6f 36 3e 3d e4 96 db bc
       -0.0047477153 0.016929185 0.04643863 -0.026805349
000170 82 78 36 bd 27 81 e6 af f0 dd f1 bc 0b 24 43 bd
       -0.04454852 -4.1928525e-10 -0.029524773 -0.047641795
000180 44 4f 32 bd 5e de 48 3d ee b5 49 2e d3 9d 22 bc
       -0.043532625 0.04904019 4.5863695e-11 -0.009925324
000190 d3 42 28 bd 93 1d 25 3d 86 30 41 3d d5 dd 23 3d
       -0.041079354 0.040311407 0.047165416 0.040006477
0001a0 37 e5 44 3c 14 cd ba bc 91 bf 1f bc e9 ac 3d bd
       0.01201754 -0.022802867 -0.009750263 -0.046307478
0001b0 9a ab 33 3d 77 17 9d bd 2a 5d cf bc 75 64 53 b9
       0.043864824 -0.07670491 -0.025312979 -0.00020159951
0001c0 b4 23 25 bc 16 83 8d 3b 9a a8 14 bc 46 59 2f bc
       -0.010079313 0.004318605 -0.009073401 -0.010702437
0001d0 54 19 58 3d d4 a6 3f 3d 33 50 e8 3c 00 2b c0 3c
       0.05275853 0.04678996 0.028358554 0.023458004
0001e0 1d f2 16 3a 9a 98 79 bc 00 fb 4b 3b 5e 0a 29 3c
       0.00057581236 -0.015234137 0.003112495 0.010317413
0001f0 a9 98 4f af 73 c2 8b 3c df 13 77 bc 5b 40 9c af
       -1.8880776e-10 0.017060494 -0.015080421 -2.8421962e-10
000200 1a 7e 34 3d bf 2d 68 2f 0b e1 3f 3a 4a 0b 44 3c
       0.044065572 2.111653e-10 0.0007319606 0.011965582
000210 6b 65 bb 3c 93 bf 1d 3d 49 d6 cd 3c 32 99 49 bd
       0.022875508 0.038512778 0.025126593 -0.049218364
000220 d6 5b 4b 3a a0 16 55 3d 59 57 80 3b 88 65 89 bc
       0.000775752 0.05202353 0.0039166627 -0.016772047
000230 b3 fe 67 3d 7e 41 43 2e fb c0 c9 3c 1f 73 05 30
       0.056639384 4.4396035e-11 0.024628153 4.8548715e-10
000240 7b 16 10 3c 0a c9 83 b8 ec 58 d6 3c 57 66 15 bd
       0.008794422 -6.284013e-05 0.026165448 -0.036474552
000250 38 b6 e1 3c 06 ad 0f bb f8 4b b2 af ab 78 94 3a
       0.027552709 -0.0021923198 -3.243199e-10 0.0011327466
000260 5a 65 86 bb 27 ee 03 3d d4 99 51 3d cc c8 9c 3d
       -0.0041014375 0.03220954 0.051172093 0.076554865
000270 e7 bb f6 3c 89 0e 5e 3d 82 05 b7 3c 9c 44 9c 37
       0.030118896 0.05421308 0.022341494 1.8628598e-05
000280 35 e1 2a bd 99 91 be 3c cd 52 8c 3c 41 9a 00 37
       -0.04171868 0.023262786 0.017129326 7.66531e-06
000290 54 49 ab bc ec 73 33 bd 45 c4 a3 3d a2 2d e5 3c
       -0.020908989 -0.043811724 0.0799642 0.027975861
0002a0 0c 07 1e 3c 70 dc 30 bd 95 1c 89 af ec 45 41 3d
       0.009645235 -0.043178976 -2.4940464e-10 0.047185823
0002b0 77 e4 09 af 90 18 0d bb 9a c1 e1 3a f4 19 24 3c
       -1.2541244e-10 -0.0021529533 0.0017223835 0.010015953
0002c0 b7 ad 67 2f 42 0d 12 3d 75 3e 6d bc db 71 5e bc
       2.1071044e-10 0.035657175 -0.014480223 -0.01357695
0002d0 64 d3 79 3c 0d 8b b1 2e 41 07 3e bd 85 cf 16 be
       0.015248153 8.0737285e-11 -0.046393637 -0.147276
0002e0 a9 d4 26 3d 03 d4 b1 3c cf 37 a0 2d ac 1d 8d 30
       0.040730152 0.02170754 1.8214678e-11 1.0267533e-09
0002f0 91 04 82 bb 5c f5 87 af b1 b7 aa 3c 87 ac bd bc
       -0.0039678295 -2.4730695e-10 0.020839544 -0.023153557
000300 c6 1c 60 3d 52 e2 e4 3c d3 84 a8 3c 2c 8e 2a 2f
       0.05471494 0.02793995 0.020571148 1.551192e-10
000310 74 4a 5a 3b 2a 72 36 3d 79 89 d5 3c 8f ee 95 ae
       0.0033308538 0.04454247 0.026066529 -6.818112e-11
000320 66 90 ee 3c e1 a2 87 3c ff 58 3c 3d 63 a7 66 bd
       0.029121589 0.016557159 0.04598331 -0.056311976
000330 06 b2 2b 30 6e be 71 2e 93 7a ed bc 7b 2a e2 3b
       6.2462424e-10 5.496619e-11 -0.028989112 0.0069020367
000340 be 18 35 bd 8e b1 6e 3c d3 cb 4d bc 91 b1 6e 3d
       -0.04421305 0.0145686995 -0.0125608025 0.05827481
000350 ae ba 75 b9 e8 a5 d1 af c2 01 66 3d e8 b7 37 2e
       -0.00023434564 -3.8134762e-10 0.05615402 4.1772724e-11
000360 5b b3 b3 2f 96 6d bb b8 92 b1 aa 3b f1 c6 b6 3c
       3.268735e-10 -8.937267e-05 0.0052091563 0.02231166
000370 ff a7 3b 3d 20 fc 8b 3a 10 5e c9 b6 5c 4d 87 30
       0.04581451 0.0010679998 -6.001217e-06 9.84453e-10
000380 ff b1 40 3d 01 a5 93 30 e3 65 57 3b 4f 78 1b b0
       0.04704475 1.0742555e-09 0.0032867126 -5.655964e-10
000390 7b 4e fe 2e 35 b1 0c 3c 5a f7 2e bd 59 74 ea 2f
       1.15645236e-10 0.008587171 -0.04271636 4.2647022e-10
0003a0 02 26 83 3b d5 7e 8f ae ae 18 f3 bc 8a 9e 1f bc
       0.0040023336 -6.525417e-11 -0.029674854 -0.0097423885
0003b0 94 43 5f b0 8e d4 16 3d 76 44 2b bd 03 3f b1 bc
       -8.122296e-10 0.0368238 -0.041813336 -0.021636492
0003c0 c1 57 1b 30 d4 ed b0 3a be a3 9f 2f bc db 0c bd
       5.651338e-10 0.0013498613 2.9038277e-10 -0.034389243
0003d0 c0 62 2d 3d 93 91 05 3c f1 6b 9b 3c da f6 53 bc
       0.042330503 0.008152383 0.018972369 -0.012937272
0003e0 d0 78 57 39 03 22 59 3d d6 ae 54 bd df 2a 64 bc
       0.00020549004 0.05301095 -0.05192455 -0.013926237
0003f0 77 78 0c 3c 7d a4 0d bd 60 8b 31 3d 37 26 a8 2f
       0.008573643 -0.034580696 0.04334581 3.0586175e-10

bias f4 [4]
000000 7b 93 5d 3d d9 3e 1c bd 65 a5 f8 3b 69 38 ba bb
       0.054095726 -0.038145874 0.007588076 -0.005682994

weight f4 [4, 8]
000000 66 3d 40 3e cc 0a 00 be 65 22 9b be e4 32 12 bc
       0.18773422 -0.12504119 -0.30299678 -0.008923266
000010 3f b6 3f 3d f9 7b ef 3d 51 09 3a 3e df 9b a4 3e
       0.046804663 0.11693568 0.18167616 0.3215017
000020 48 3b 83 3e ae 96 71 be f4 3f 0f 3e 50 6b 96 3e
       0.25631166 -0.23592636 0.1398924 0.29378748
000030 41 53 a0 3d ea f4 51 bd 0d bd 9f be 8d 1c 92 be
       0.078283794 -0.05125896 -0.31198922 -0.28537408
000040 90 6d 5f be 4b 94 d4 3d 97 62 83 3e 2c d4 84 3e
       -0.21819139 0.10379847 0.25661156 0.25943124
000050 3a 45 e0 bd b1 0c 9e be 19 7d 6b 3e 5a f9 35 3d
       -0.10950704 -0.30869058 0.2299694 0.044427253
000060 c6 8f 67 3e 13 fd 1f 3e 47 4f b6 bc fc 4c 8e 3c
       0.22613439 0.15623884 -0.0222546 0.017370693
000070 d9 3c 66 be a8 28 08 be 8f c2 df bc 89 5d 9a be
       -0.22484149 -0.13296759 -0.027314452 -0.30149487

bias f4 [4]
000000 e9 39 32 bb db 49 81 bd 87 0e a3 3e 3b a1 08 3d
       -0.0027195162 -0.06312915 0.3184702 0.033356886

weight f4 [4, 8]
000000 58 4b 9c be cb 7b 8f bc cb 2e 3c 3e 77 c7 65 bd
       -0.30526233 -0.017515084 0.18377225 -0.056098428
000010 20 8d 19 be c3 75 c4 3d 4c 91 a1 3e 47 1f 8e 3c
       -0.14995241 0.09592774 0.31556165 0.017348899
000020 33 64 8f be 9a a7 11 be 6c bc a5 bd 95 f9 6f 3e
       -0.28006133 -0.14224091 -0.08092579 0.23435052
000030 f5 2f 78 3e 51 22 a1 3e a3 e6 a0 3e c9 44 a4 3d
       0.24237044 0.31471494 0.31425962 0.08020932
000040 6d ef 25 2f 02 e3 10 bd b5 d2 0d 2f 5c 03 2b 33
       1.5091724e-10 -0.03537274 1.2898733e-10 3.9817095e-08
000050 36 bf 0e 39 12 aa 99 3d 64 d9 0e bc 68 78 c2 bc
       0.00013613407 0.075031415 -0.008718822 -0.023739055
000060 37 b7 2b be c6 a7 ad be b4 b7 29 3e e0 1e 07 be
       -0.1676911 -0.33917063 0.16573983 -0.13195372
000070 21 6b 09 3e 75 da ae 3e 28 65 a9 3d 92 f8 e7 3c
       0.13419773 0.34151044 0.08271247 0.02831677

bias f4 [4]
000000 e1 47 b0 3e c7 4d 20 be 0b 85 a6 bd b0 98 6e 3e
       0.3442984 -0.1565467 -0.08130845 0.23300433

weight f4 [10, 2]
000000 3c 51 23 3f 97 9c 13 3f 33 42 cc 3e 0e 3c fe 3e
       0.6379583 0.5766081 0.39894256 0.49655193
000010 e2 1e b6 be a7 b4 db be 28 72 d5 be c6 e2 f1 be
       -0.35570437 -0.42911264 -0.41688657 -0.47243327
000020 dc 23 1e bd 27 46 5e be 4f 91 2c bf ae 12 ae 3c
       -0.038608417 -0.21706448 -0.67409223 0.021249142
000030 c4 94 ee be a8 84 19 be 5c d5 ec bd e4 96 c1 bd
       -0.46597874 -0.1499201 -0.115641326 -0.09452608
000040 5c e8 bd 3e 69 d0 24 3f c9 0d 31 3e 5f 71 de be
       0.3709134 0.6438051 0.17290415 -0.4344587

bias f4 [10]
000000 ff 8e c8 be 8a a3 97 bd 76 6c f3 be d0 66 16 bc
       -0.39171597 -0.074042395 -0.47543687 -0.009179786
000010 92 98 0c be cd 5d c4 be 07 ae 3e 3d e2 43 9e be
       -0.13730076 -0.38352814 0.046552684 -0.30911165
000020 bb 26 29 3e 3e 03 c9 bb
       0.16518681 -0.0061344197

weight f4 [10, 2]
000000 7f 3a 25 3f b5 e9 0c bf df 76 01 3f 51 27 f0 3e
       0.6454238 -0.5504411 0.5057201 0.46904996
000010 f1 63 bf be ef 73 27 3f 9f 92 31 be bd 08 08 3e
       -0.37380937 0.65411276 -0.17341088 0.13284583
000020 3e a7 02 bf 50 cb e3 be c8 49 ec be 84 a7 ee be
       -0.5103644 -0.44491053 -0.4615004 -0.4661218
000030 3c 82 12 3f b9 db 54 3d 5b dc 89 32 1b aa 81 30
       0.5722997 0.051967356 1.6049105e-08 9.434332e-10
000040 dc 00 41 be 10 29 2b 3f 5a 33 3e 3d 9b 54 a6 3d
       -0.18847984 0.6685953 0.04643569 0.08121606

bias f4 [10]
000000 46 2d 77 bd 34 28 be be 37 c0 7e bd 7f d5 d3 3e
       -0.06034591 -0.37140048 -0.06219503 0.41373822
000010 b1 5e 3f 3d fa 7d c9 be 2f 33 ac be bf 33 2f be
       0.046721164 -0.39353925 -0.336328 -0.17109583
000020 c2 6f 16 bf d9 4d 2f 3f
       -0.5876428 0.6847816

weight f4 [20, 4]
000000 81 01 3f bd e1 c7 df be b6 94 a7 be 84 f4 0b 3c
       -0.046632294 -0.43707183 -0.32730645 0.008542184
000010 7e 1e 3a 3e 9c 2d 10 3d 32 4c 92 3e e4 f3 a5 3e
       0.18175694 0.035199746 0.28573757 0.32412636
000020 8c 93 e9 be 1a f8 ce be 2f a0 34 3d 85 0f a8 be
       -0.45620382 -0.4042366 0.044098075 -0.3282434
000030 ef 57 f3 bd 45 c6 97 3d d3 fe bf 3e f0 15 f5 bd
       -0.118820064 0.07410864 0.37499103 -0.11967075
000040 59 a9 ce be ff d3 92 be 8e 70 22 be 63 7d bf 3e
       -0.40363577 -0.28677365 -0.15863249 0.3740035
000050 bf d2 8c be 7f 21 da 3e de 0f e4 3e c8 35 ff 3c
       -0.27504537 0.4260368 0.44543356 0.031153575
000060 7a 33 f3 be d7 81 ee 3c 61 82 e5 3d df ae dc be
       -0.4750021 0.029114647 0.112065084 -0.43102166
000070 5a 31 af be 60 25 d2 3e ef 92 bc be f5 7c b6 bd
       -0.3421734 0.4104414 -0.3683085 -0.089105524
000080 2f a4 86 be 18 dd 88 3e b9 dc 4d 3d 4d 43 4f be
       -0.26297137 0.2673118 0.050259326 -0.20240517
000090 66 49 e7 be e2 52 bf 3e 14 8b 42 be 40 8a a2 3e
       -0.45173186 0.37367922 -0.18998367 0.317461
0000a0 24 cf 97 3e 1a 53 02 3f 26 ba 75 3d e0 b0 7c be
       0.29650223 0.5090805 0.059991978 -0.24676847
0000b0 db 19 19 3e db 54 e0 be d4 11 e2 3e bc 7b ba be
       0.1495127 -0.4381474 0.44154227 -0.36422527
0000c0 4b d2 c5 3e 7b 46 0b 3e 75 d7 ad be 64 12 85 be
       0.38637003 0.13601105 -0.33953443 -0.25990593
0000d0 be 92 ab 3d b4 2e 2b 3e e7 8d 2f 3e 07 9e cf be
       0.08377598 0.16717035 0.17143975 -0.40550253
0000e0 3e f9 7e 3e c9 4f f2 be 8e b5 bf 3e 84 89 8d 3e
       0.24899766 -0.47326496 0.37443203 0.2764398
0000f0 f3 9e a5 bc 2e 23 d9 3e 98 1e d3 bd c5 df d7 3e
       -0.020217394 0.42409652 -0.1030857 0.4216291
000100 55 92 e6 be 21 fe a1 be ca c3 69 be b6 35 2b bb
       -0.45033517 -0.31639197 -0.22828594 -0.0026124544
000110 6f 33 5f 3e 24 8f 58 be 76 38 c7 3e 12 0e 92 be
       0.21796964 -0.21148354 0.38910264 -0.2852636
000120 e4 ee f5 bd 22 68 2c be ec dd 02 be 48 6b a4 bd
       -0.120084554 -0.16836599 -0.12779969 -0.08028275
000130 4d da 23 be bc b1 75 be b4 b8 fb bd 23 7e 1e be
       -0.16001244 -0.23993582 -0.12291089 -0.15477805

bias f4 [20]
000000 bb 3f 98 be 23 89 da 3e 9e d6 b4 be 1d c0 c6 3e
       -0.29736122 0.42682752 -0.3531999 0.38818446
000010 3e 59 f9 3e a9 42 25 be 4d 02 ec 3e e8 ed 95 bb
       0.487009 -0.1613871 0.46095505 -0.00457548
000020 7c 4a 6b 3e 5e 1b 0a 3d 47 84 b0 be 2e d9 41 3e
       0.22977632 0.033717506 -0.3447592 0.18930504
000030 68 e8 e3 bc 61 a9 0a be e9 63 ad bd 4f 94 a0 3e
       -0.02782078 -0.13541175 -0.08466322 0.3136315
000040 3b 8e c8 3e 6b d6 9f 3c e5 28 d0 3e a7 9e bf 3e
       0.39171013 0.019511422 0.406562 0.3742573
