RTSNet/new_architecture/linear/best-model_hrot10_linear2x2rq-1010T100.pt (torch, 139828 bytes, 70 tensors)

weight_ih_l0 f4 [12, 10]
0	0x2f1bb94f	1.4163003e-10
1	0x3e28d541	0.164876
2	0xbeac135e	-0.33608526
3	0x3dc071b1	0.09396685
4	0xbe36ed7b	-0.17864029
5	0x3eaed7be	0.34148973
6	0x2c0377ea	1.8682785e-12
7	0x3d6b499b	0.057443243
8	0x3cb594b2	0.02216563
9	0xbb76693a	-0.003759934
10	0xbd111771	-0.035422746
11	0xbd7e4298	-0.062075227
12	0x3e73fcd4	0.23826915
13	0x3e27bab9	0.16379823
14	0xbd7e0908	-0.06202033
15	0xbec71003	-0.38879403
16	0xbbce314a	-0.006292497
17	0xbeb1a108	-0.3469317
18	0xb0157895	-5.437724e-10
19	0x3e8f29f2	0.2796169
20	0xbc6cbd80	-0.014449477
21	0xbe885e17	-0.26634285
22	0x3e2d2f5d	0.16912599
23	0x2a3d8cb9	1.6835395e-13
24	0x3e292762	0.1651893
25	0x3d782df7	0.06059071
26	0x2ea74310	7.6061935e-11
27	0xbea72ebd	-0.32652846
28	0xb30edf6d	-3.3265156e-08
29	0xbebbc8bc	-0.36676586
30	0xbc792822	-0.015207322
31	0x3ec65f22	0.38744456
32	0xbd6b7500	-0.057484627
33	0x3c97b4bf	0.018518804
34	0x3ed0c0c3	0.40772066
35	0x3e7baebc	0.24578375
36	0xbb29bbe6	-0.002589935
37	0x3e383a72	0.17991045
38	0xbd969e28	-0.07354385
39	0xbeecb340	-0.46230507
40	0x3c2ddc89	0.010611662
41	0xbedd0c87	-0.4317362
42	0x3dcdde2f	0.10052144
43	0x3d0714de	0.032978885
44	0xbeba1331	-0.36342767
45	0x3c78dc01	0.015189172
46	0xbd9d5448	-0.07682091
47	0x3e892c74	0.26791728
48	0x3b95766a	0.004561235
49	0x3e5b8fbe	0.21441552
50	0xbb89a8d4	-0.004201034
51	0xbef02cbb	-0.46909127
52	0x3e81dc63	0.25363454
53	0xbd086d92	-0.03330762
54	0x3e366794	0.1781295
55	0x3e68b21b	0.22724192
56	0xb1baa444	-5.4319873e-09
57	0xbe7466f6	-0.23867401
58	0xbdb79329	-0.089636154
59	0x3eb5a9f8	0.35481238
60	0xb9950d81	-0.00028429556
61	0x3ef000c9	0.468756
62	0x3eb2fcba	0.3495844
63	0xbb17d393	-0.002316688
64	0xbeb016e3	-0.3439246
65	0x3eb953c9	0.36196736
66	0xbc4baccb	-0.012431334
67	0xbea96cc0	-0.33090782
68	0x38943e09	7.068745e-05
69	0xbef2010f	-0.47266433
70	0x3bb3c7e8	0.005486477
71	0x3eb09487	0.34488317
72	0xbec6d988	-0.38837838
73	0xbd108e54	-0.035291985
74	0xbeb5f192	-0.35535866
75	0x3e40be1b	0.1882252
76	0xbd948620	-0.07252145
77	0x3ed142e3	0.40871343
78	0xbdd934c9	-0.10605771
79	0xbecaf15f	-0.39637277
80	0xbe977a8a	-0.29585677
81	0xbed92fcf	-0.42419288
82	0x3eca5a69	0.39522102
83	0xabca0049	-1.4353042e-12
84	0x3e0ac57a	0.13551894
85	0xbe34bf17	-0.1765102
86	0xbe0a02b4	-0.13477594
87	0x3ef35261	0.47523788
88	0x3e2965b2	0.165427
89	0xbd2f49c3	-0.042794954
90	0x3b6d1dd5	0.0036181111
91	0xbe766886	-0.2406331
92	0x3eae7194	0.34071028
93	0xbd991782	-0.07475187
94	0xbe8bc95f	-0.2730207
95	0xbd9dffe9	-0.077148266
96	0x3da38161	0.079836614
97	0x3ebbcaef	0.36678264
98	0xbe2f551a	-0.17122307
99	0xbec14827	-0.3775036
100	0x3e119992	0.14218739
101	0xbe38151b	-0.17976801
102	0x3dea7b27	0.11449271
103	0xbbc27d75	-0.005935366
104	0x3d9c7d12	0.07641043
105	0xbdafb9f3	-0.08580389
106	0x3d3834d7	0.044972267
107	0xbe8fe368	-0.28103185
108	0x3d951550	0.07279456
109	0xbeeba75e	-0.4602613
110	0xbecf7da6	-0.4052555
111	0xbe8019be	-0.2501964
112	0xbe90a641	-0.28251842
113	0x3cbb3f84	0.022857435
114	0x3e9cdcc5	0.30637184
115	0x3cd28ef2	0.025702927
116	0xbc24c23e	-0.010056077
117	0xbebecead	-0.37267056
118	0xbda5d098	-0.08096427
119	0x3eeae18e	0.4587521

weight_hh_l0 f4 [12, 4]
0	0x3e298fd0	0.16558766
1	0x3e3c9815	0.1841739
2	0x3e7d5494	0.24739295
3	0xbdf73f71	-0.12072647
4	0x3efbc123	0.4917079
5	0x3c2fb09e	0.010723261
6	0x3ed9428d	0.42433587
7	0x3e76d523	0.24104743
8	0x3e3d20e5	0.1846958
9	0x3de863e5	0.11347178
10	0x3e502297	0.20325695
11	0xbee0855a	-0.4385174
12	0x3e9ed92f	0.31025073
13	0xbe39b536	-0.18135533
14	0xbecc0071	-0.39844087
15	0x3e4f3459	0.20234813
16	0xbb3c54bc	-0.002873703
17	0xbe30aad0	-0.1725266
18	0xbdaa8da9	-0.08327801
19	0x3e9d1be2	0.30685335
20	0xbf00d387	-0.50322765
21	0x3df1a61f	0.11799263
22	0x3ec75d3f	0.3893833
23	0xbebde2f2	-0.37087208
24	0xbeb350fe	-0.3502273
25	0x3e8e5507	0.27799246
26	0x3e52a8c5	0.20572193
27	0x3e8003f1	0.25003007
28	0xbc47a42c	-0.012185138
29	0xbe9ab5e7	-0.30216905
30	0x3e9a9830	0.30194235
31	0x3e077981	0.13229944
32	0xbd7cee9c	-0.061750993
33	0xbe8cd4f1	-0.2750621
34	0x3ef56e35	0.47935644
35	0xbeec77cb	-0.46185145
36	0xbe2f6c46	-0.17131147
37	0x3ecf8594	0.405316
38	0x3ee4bd7a	0.4467581
39	0xbeaf42b4	-0.34230578
40	0x3e8e4801	0.2778931
41	0xbe17b35b	-0.14814512
42	0x3e97b5b5	0.2963082
43	0x3d6aa815	0.0572892
44	0x3eca764f	0.39543387
45	0xbed7ee29	-0.4217389
46	0xbee3dd3c	-0.44504726
47	0x3eb76f9c	0.3582734

bias_ih_l0 f4 [12]
0	0xbcb78609	-0.02240278
1	0xbedcc902	-0.43122107
2	0xbe101173	-0.14069156
3	0xbef29b65	-0.47384182
4	0x3dced3f4	0.100990206
5	0xbe4affa1	-0.19824077
6	0x3eeadd59	0.45872
7	0x3ef26676	0.47343796
8	0x3d8c8927	0.06862097
9	0x3e936321	0.28786567
10	0x3c8e3f0f	0.017364053
11	0xbeb5ce24	-0.35508835

bias_hh_l0 f4 [12]
0	0x3ed11633	0.4083725
1	0xbeb64727	-0.3560116
2	0x3ebc83c4	0.3681928
3	0x3e6aefb8	0.22943008
4	0xbeb36d19	-0.35044172
5	0xbedccadf	-0.43123528
6	0xbe21debd	-0.15807624
7	0xbe107b11	-0.14109446
8	0x3d9521aa	0.072818115
9	0xbe04302c	-0.12909001
10	0xbddf9735	-0.10917512
11	0xbecb482f	-0.3970351

weight_ih_l0 f4 [12, 14]
0	0xbeadf0ad	-0.33972684
1	0x3d6e8185	0.05822899
2	0xbe708814	-0.2348941
3	0xbec5ec19	-0.3865669
4	0xbe0dc2cf	-0.13843845
5	0xbef75713	-0.4830862
6	0x3e9f9f80	0.31176376
7	0x3d9d7c6f	0.076897494
8	0xbe8ba561	-0.27274612
9	0xbca3cd9a	-0.0199955
10	0x3e8e1a88	0.27754617
11	0x3e53387d	0.20627017
12	0x3e1b8a28	0.15189421
13	0x3dabf1f3	0.083957575
14	0xbefe1f8d	-0.49633446
15	0x3ee7b0dd	0.45252123
16	0xbef9cb26	-0.48787802
17	0xbe800970	-0.250072
18	0x3aa9991e	0.0012939309
19	0xbd0700ec	-0.032959864
20	0x3e802c90	0.25033998
21	0xbcd5e26b	-0.026108941
22	0xbef72e48	-0.48277497
23	0xbe5c95d0	-0.21541524
24	0x3e913fbf	0.28368947
25	0x3ebb7d28	0.36618924
26	0xbeb0bf7e	-0.34521097
27	0xad4bed43	-1.1591897e-11
28	0x3e67d501	0.22639848
29	0xbe8b9c95	-0.272679
30	0x3ed4a30c	0.41530645
31	0xbdfe7a48	-0.12425667
32	0x38be9593	9.0877664e-05
33	0xbe3f70cc	-0.18695372
34	0xbe79345b	-0.24336378
35	0x3e2777a8	0.16354239
36	0xbe6094ca	-0.21931759
37	0xbec0c36b	-0.37649092
38	0xbefabf1e	-0.48973936
39	0x3eaa2fbd	0.33239546
40	0xbebe8f33	-0.37218627
41	0xbe2a0ae8	-0.16605723
42	0xbe18b4ef	-0.1491277
43	0x3ee94e61	0.4556761
44	0x3efd8f20	0.49523258
45	0x3eeb76af	0.45988986
46	0xbd3f725f	-0.046739932
47	0x3e21ade2	0.15788987
48	0x3ed355c5	0.41276374
49	0xa92ff0f1	-3.906679e-14
50	0x3e8a1b9c	0.2697419
51	0xbee7ec07	-0.45297262
52	0x3ef11e5b	0.47093472
53	0xbe8664a0	-0.26248646
54	0xbead7fda	-0.33886606
55	0x2ad6a382	3.8127493e-13
56	0xbdcaea18	-0.09907931
57	0x3ed16e99	0.40904692
58	0xbdc9aee9	-0.098478146
59	0xbd9f752d	-0.077860214
60	0xbdfa53df	-0.122230284
61	0xbe663acf	-0.22483371
62	0x3e41d2da	0.1892809
63	0xb996835b	-0.00028708097
64	0xbdc9c380	-0.09851742
65	0xbecc4a5e	-0.39900488
66	0x3ee241ba	0.4419077
67	0x3ea5c9cd	0.32380524
68	0x3ceca2b2	0.028886173
69	0xad50f1d8	-1.1877131e-11
70	0xbe9f69e2	-0.3113547
71	0x3e98b650	0.29826593
72	0x3e7a2845	0.24429424
73	0x3ec0b229	0.37635925
74	0xbe83eeb5	-0.25768057
75	0x3ee3a84e	0.44464344
76	0xbeb22e09	-0.34800747
77	0x3d74a2f1	0.059725706
78	0x3eab8cb5	0.33505788
79	0x3ed13855	0.4086329
80	0x3e0f4bf2	0.13993815
81	0x3c26dfdc	0.010185208
82	0xbd3f4bfb	-0.04670332
83	0x3cf1d23c	0.029519193
84	0x3e6db1b9	0.23212327
85	0x3e87313d	0.26404753
86	0x3cab7b91	0.020932944
87	0x3e7bb702	0.2458153
88	0x3e7ca91d	0.24673887
89	0x3d559b7a	0.052150227
90	0x3ed4b2a1	0.41542533
91	0x2b09c094	4.8939433e-13
92	0x3eadac10	0.33920336
93	0x3d7c249a	0.061558343
94	0x3e8d753d	0.27628508
95	0xbeed4d30	-0.46347952
96	0x3dcd0cde	0.1001222
97	0xad4f8edb	-1.1798308e-11
98	0x3ec9abee	0.39388984
99	0xbd0ba44a	-0.034092225
100	0xbdb65d26	-0.089044854
101	0xbe611481	-0.21980478
102	0xbe8d2b56	-0.27572125
103	0xbeaeea56	-0.3416316
104	0x3ea8bdd6	0.32957333
105	0xbe095111	-0.1340983
106	0x3c55c039	0.013046318
107	0x3eb1796b	0.34662947
108	0x3ea9cfde	0.33166403
109	0x3ce65545	0.028116832
110	0x3e302402	0.17201236
111	0xbdc609e1	-0.09669853
112	0xbbdada8b	-0.0066788844
113	0x3e4c630a	0.19959655
114	0x3e8d50b5	0.27600637
115	0xbdf2e913	-0.11860862
116	0xbd8eac8d	-0.06966505
117	0x3d5eddeb	0.054410856
118	0x3e97ffd5	0.29687372
119	0xbe2ff013	-0.17181425
120	0x3e8394bb	0.2569941
121	0xbeb0dba5	-0.34542575
122	0x3e2a7c65	0.16649015
123	0xbdfc407a	-0.123169854
124	0x3e683c88	0.22679341
125	0x3dfd85a0	0.123790026
126	0xbe99b028	-0.3001721
127	0x3e4df8e0	0.2011447
128	0xbe705e01	-0.2347336
129	0x3e152378	0.14564312
130	0xbe03e5ab	-0.1288058
131	0xbc5a7781	-0.013334156
132	0x3e39df1a	0.18151513
133	0xbd4095ce	-0.047017865
134	0xbeafd552	-0.34342438
135	0x3eedd524	0.46451676
136	0x3ec33c2a	0.3813184
137	0x3ea7f9cb	0.32807764
138	0x3c5d0447	0.013489789
139	0x3c342583	0.010995272
140	0x3ce43466	0.027857017
141	0xbecc2f7e	-0.39879984
142	0x3e0a2f43	0.13494591
143	0x3ef4b715	0.4779593
144	0xbeae265d	-0.34013644
145	0xbe9c0063	-0.30469045
146	0xbedbec45	-0.42953697
147	0xbb786de7	-0.0037907304
148	0x3e39218b	0.18079202
149	0x3ea29afc	0.3175887
150	0xbe815402	-0.25259405
151	0x3ef96853	0.48712406
152	0xbef76f5c	-0.48327148
153	0x3d229878	0.039696187
154	0x3dc688dd	0.09694073
155	0x3e40df62	0.18835214
156	0xbeba008a	-0.36328536
157	0x3db9a258	0.09064168
158	0xbe811f3c	-0.25219142
159	0xbea84530	-0.32865286
160	0x3e06976a	0.13143697
161	0xbc87ae38	-0.016562566
162	0x3d8e8d36	0.069605276
163	0x3e8206ef	0.25395915
164	0x3cb15605	0.021647463
165	0x3e22754d	0.15865059
166	0xbe328170	-0.17432189
167	0x31a9595b	4.928706e-09

weight_hh_l0 f4 [12, 4]
0	0x3d8bb8db	0.06822368
1	0xbea09b8e	-0.3136868
2	0x3cd57ac7	0.026059521
3	0x3e985375	0.29751173
4	0xb3a6b95e	-7.7636955e-08
5	0x3ee6a75b	0.45049557
6	0xbd43fea8	-0.04785028
7	0xbbb61cba	-0.0055576237
8	0x3db0b10f	0.08627521
9	0xbd1f3211	-0.038866106
10	0x3982f664	0.00024979108
11	0xbe73255d	-0.23744722
12	0x2dd21138	2.3881883e-11
13	0xbeb23c44	-0.34811604
14	0x3dcba01f	0.0994265
15	0x3c995b6a	0.018720347
16	0x3b4bd176	0.003110019
17	0x3e66bcf5	0.22533019
18	0xbbe4778e	-0.00697226
19	0x3e1648d3	0.14676218
20	0x2b1e8885	5.6322335e-13
21	0xbee1b591	-0.44083837
22	0x3e1c8192	0.15283802
23	0xbc3e389e	-0.011610178
24	0xbd3a9cd2	-0.04555971
25	0xbec08718	-0.37603068
26	0xbdb95f23	-0.09051349
27	0xbe2aa44a	-0.16664234
28	0xbce2ad26	-0.027670454
29	0xbe74f405	-0.23921211
30	0xb13950de	-2.696701e-09
31	0xbe0e4d0a	-0.13896576
32	0x3d51a054	0.05117829
33	0xbeb4e4e8	-0.35330892
34	0xbd803394	-0.06259838
35	0xbdd8aa80	-0.10579395
36	0xbdf39eff	-0.118955605
37	0xbe36b391	-0.17841937
38	0x3daa83ca	0.08325918
39	0xbef93e95	-0.4868056
40	0x38bfe6c1	9.150571e-05
41	0x3e920ffc	0.2852782
42	0x3d13d90a	0.036095656
43	0xbe92e70b	-0.28691897
44	0xb5b3cac8	-1.3395556e-06
45	0xbea5a51f	-0.3235254
46	0x3e01961b	0.12654917
47	0xbdc823d6	-0.0977246

bias_ih_l0 f4 [12]
0	0x3e3106fe	0.17287824
1	0x3ec2a338	0.3801515
2	0xbec17a64	-0.3778869
3	0x3e266a7b	0.16251557
4	0xbe4f7ad0	-0.20261693
5	0x3e2bd9be	0.16782281
6	0xbea896c3	-0.32927522
7	0xbe800b24	-0.250085
8	0xbd5a6dcf	-0.053327378
9	0xbe8517d1	-0.25994733
10	0xbef6444d	-0.48098984
11	0xbe10d8fe	-0.14145276

bias_hh_l0 f4 [12]
0	0xbe46ad57	-0.19402061
1	0xbd999b46	-0.07500319
2	0xbde5cbb1	-0.11220492
3	0xbebced5b	-0.36899838
4	0x3dded795	0.10880963
5	0x3dbeab1e	0.09309982
6	0x3dd1bfb4	0.102416426
7	0x3ecc9b16	0.3996207
8	0xbe8f82ba	-0.28029424
9	0x3d13db3a	0.036097743
10	0xbd426c59	-0.04746661
11	0xbe1d0a63	-0.15335993

weight_ih_l0 f4 [12, 24]
0	0x3e0348c5	0.12820728
1	0xbd5335ac	-0.051564857
2	0x3e2fb597	0.17159115
3	0x3dabb3e3	0.0838392
4	0x3ccc8c59	0.024969267
5	0xbe1d3f10	-0.15356088
6	0x3ea597ee	0.32342476
7	0xbea36c78	-0.31918693
8	0x3e6943c1	0.22779752
9	0x3e0c5353	0.1370366
10	0x3ea9436f	0.3305926
11	0x3e747eb8	0.23876464
12	0xbce3fdfe	-0.027831074
13	0x3e1ffdfc	0.15624231
14	0xbec521ce	-0.38502353
15	0xbec58297	-0.38576195
16	0xbdc6aafa	-0.0970058
17	0xbe2b1684	-0.16707808
18	0xbd28e417	-0.04123315
19	0xbedd5787	-0.4323084
20	0x3bf6c96d	0.007531336
21	0xbd13d511	-0.036091868
22	0x3f06a9fa	0.52603114
23	0xbea5e0de	-0.32398123
24	0x3df477e7	0.11936932
25	0x3ec18f76	0.37804765
26	0xbe727d03	-0.236805
27	0xbe136f68	-0.14397967
28	0x3ee82114	0.45337737
29	0x3ecc674d	0.39922562
30	0xbe944367	-0.28957674
31	0x3df03223	0.11728313
32	0xbe070b69	-0.13187946
33	0x3d1ccfe2	0.03828419
34	0x3ef341c2	0.47511107
35	0x3ee30927	0.4434292
36	0xbef8db6d	-0.4860491
37	0xbeb5ef1b	-0.35533985
38	0x3e838592	0.25687844
39	0x3e4df428	0.2011267
40	0xbe0f910d	-0.14020176
41	0xbee508ee	-0.44733375
42	0xbe46b139	-0.19403543
43	0xbef8d7db	-0.48602185
44	0x3ecc88f5	0.3994824
45	0xbeaed7f6	-0.3414914
46	0x3cb0947b	0.021555176
47	0xbe9d95b9	-0.30778292
48	0xbd1a7212	-0.037706442
49	0x3e111a95	0.14170296
50	0xbe8115f8	-0.25212073
51	0xbd0e4403	-0.03473283
52	0xbe96eb16	-0.2947623
53	0x3d555d3b	0.052090865
54	0xbe4bcf71	-0.19903351
55	0x3dad67b2	0.08467044
56	0x3dbd982f	0.09257542
57	0xbdb08264	-0.0861862
58	0xbeadc86d	-0.33941975
59	0xbd7dba24	-0.061945096
60	0x3e966b4a	0.2937873
61	0x3dd09996	0.10185544
62	0xbd12ffb9	-0.035888407
63	0xbefe093c	-0.4961642
64	0xbecd537e	-0.40102762
65	0x3da1c50f	0.07898914
66	0xbee36874	-0.4441563
67	0xbeac532a	-0.336572
68	0x3ec033e5	0.37539592
69	0xbe4657f9	-0.19369496
70	0xbeffd3b9	-0.4996622
71	0x3db2ad81	0.087244995
72	0x35107156	5.3809106e-07
73	0x3b9ca9fc	0.004781006
74	0x3e20e4fe	0.15712354
75	0x3e41e083	0.189333
76	0xbeec8515	-0.46195284
77	0x3ef21529	0.4728177
78	0x3ec0178b	0.37517962
79	0xbea2ed4f	-0.31821677
80	0x3ef1c69a	0.47221833
81	0xbd0ec78e	-0.03485828
82	0x3e1ef0f8	0.1552161
83	0xbea29e26	-0.31761283
84	0xbe879c56	-0.26486462
85	0xbea1567a	-0.3151129
86	0xbe1f3841	-0.15548803
87	0x3e9106ea	0.28325588
88	0xbe90e51b	-0.28299794
89	0xbdf4fd32	-0.11962356
90	0xbe9068ca	-0.28204948
91	0xbea3e776	-0.32012528
92	0x3a1fe02a	0.00060987717
93	0xbe86eaa0	-0.2635088
94	0xbec4e49a	-0.3845566
95	0xbeed8738	-0.46392226
96	0xbdff540b	-0.12467202
97	0x3dd26eb2	0.1027502
98	0xbdbfd41a	-0.09366627
99	0x3da7009d	0.08154414
100	0x3d7c231c	0.06155692
101	0x3d598c60	0.053112388
102	0x3e1ae8e0	0.15127897
103	0xbed99943	-0.42499742
104	0xbef79393	-0.48354778
105	0x3d4d81d8	0.050172657
106	0x3ef161d9	0.47144964
107	0x3ee149f7	0.44001743
108	0xbe784a2c	-0.24247044
109	0xbeac5ee8	-0.33666158
110	0xbeb42fde	-0.3519277
111	0xbe73142a	-0.2373816
112	0xbcdf1f20	-0.027236521
113	0xbe02334f	-0.12714885
114	0x3eed3e49	0.46336582
115	0x3eef8b05	0.4678575
116	0x3cb6e4f6	0.022325974
117	0xbe3c6430	-0.18397593
118	0xbe7c73c8	-0.24653542
119	0xbe45f198	-0.19330442
120	0x34eb0900	4.377871e-07
121	0x3c2802f7	0.010254613
122	0xbee87b1b	-0.45406422
123	0x3e9bcdd9	0.30430487
124	0x3ede54d4	0.43424094
125	0x3eb46a77	0.35237476
126	0xbecdf44e	-0.40225452
127	0x3e48cb9f	0.19608925
128	0x3df3db8b	0.11907109
129	0xbec9f7af	-0.3944678
130	0xbdd3cbdd	-0.10341618
131	0x3d9284f1	0.07154263
132	0xbdf10b71	-0.117697604
133	0xbeb01ec2	-0.34398466
134	0x3b90e43b	0.0044217384
135	0xbe97ef51	-0.2967477
136	0xbdf59afe	-0.11992453
137	0xbe79fe9b	-0.2441353
138	0x3d9e1727	0.0771926
139	0x3eda5a4e	0.42647022
140	0x3eae678b	0.34063372
141	0xbec178b1	-0.37787393
142	0xbecdbdbf	-0.40183827
143	0x3e978cc8	0.29599595
144	0xbd059c6b	-0.032619875
145	0x3e00dc63	0.12584071
146	0xbea73b68	-0.3266251
147	0xbeb79e83	-0.35863122
148	0xbdac7fa4	-0.08422783
149	0xbda03843	-0.07823231
150	0x3ebc3457	0.36758682
151	0x3eadae3e	0.33922
152	0x3ee0eed0	0.439322
153	0xbec95b98	-0.39327693
154	0x3e2c2d1a	0.1681408
155	0xbe986f21	-0.29772285
156	0x3e43efff	0.1913452
157	0x3eee9742	0.46599776
158	0xbee8f710	-0.45500994
159	0x3ed07ead	0.40721646
160	0x3e0869ed	0.13321657
161	0xbd491ae5	-0.049097914
162	0x3e80b321	0.25136665
163	0x3ef19f95	0.47192064
164	0xbe145e8e	-0.14489195
165	0xbe93815c	-0.2880963
166	0x3ea6b76e	0.3256182
167	0x3eeeecb2	0.4666496
168	0x3b96570b	0.004588013
169	0xbc51181a	-0.012762094
170	0x3d5e84ce	0.05432587
171	0x3d81a375	0.06330005
172	0xbdb6953e	-0.089151844
173	0x3eb716f0	0.35759687
174	0xbd61c104	-0.055115715
175	0xbdd721f0	-0.1050452
176	0xbefae5e9	-0.49003533
177	0xbe9bb3ea	-0.304107
178	0x3eb5888a	0.35455734
179	0xbdf89cd9	-0.12139291
180	0xbe7b9eda	-0.24572316
181	0x3e99ef2d	0.3006529
182	0x3c4b1004	0.012393955
183	0x3e2d6ee1	0.16936828
184	0xbe5f947c	-0.21833986
185	0x3e1b44b3	0.15162925
186	0x3e82cd4c	0.25547254
187	0xbc7b824b	-0.0153508885
188	0x3de547ea	0.11195357
189	0xbed570c5	-0.416876
190	0x3e88ee9e	0.2674455
191	0x3ed2529a	0.41078645
192	0x3c8d8387	0.017274631
193	0xbce9e7ff	-0.028553007
194	0xbec4532b	-0.38344702
195	0x3e0f6215	0.14002259
196	0x3ebb5243	0.36586198
197	0xbe9ce15f	-0.30640694
198	0xbe9f83dd	-0.3115529
199	0x3ed2ccf9	0.41172007
200	0x3eb1e10b	0.34742007
201	0xbe970d1a	-0.29502183
202	0xbdc68268	-0.09692842
203	0xbce3a199	-0.027787017
204	0x3eea938c	0.45815694
205	0x3e3484ad	0.17628737
206	0x3e4cfbd8	0.20017946
207	0xbea5a308	-0.32350945
208	0xbdc2ad4d	-0.09505711
209	0x3e1a4224	0.15064293
210	0xbe9ad151	-0.3023782
211	0x3d5e1090	0.054215014
212	0xbefa6ec9	-0.48912647
213	0xbed4ab5f	-0.41536996
214	0x3eac9207	0.3370516
215	0x3e4b3b32	0.198468
216	0xb8b3cf02	-8.573943e-05
217	0xbde32692	-0.11091341
218	0x3df98db8	0.12185234
219	0x3d5b5c56	0.053554855
220	0xbcf613e6	-0.030038785
221	0x3ea7fe86	0.32811373
222	0xbe6144a1	-0.21998836
223	0x3d5c2b0d	0.053751994
224	0xbe9105f6	-0.2832486
225	0x3ee904f2	0.45511585
226	0x3e20d54c	0.15706366
227	0xbe2624be	-0.16224954
228	0xbe2f49c2	-0.1711798
229	0xbe85c005	-0.26123062
230	0x3ef33af1	0.47505906
231	0x3d72f30d	0.059313823
232	0x3eb3c764	0.3511306
233	0x3e7666e8	0.24062693
234	0x3e97809d	0.29590312
235	0xbdacfafa	-0.084463075
236	0x3e3ef81f	0.18649338
237	0xbec7b82b	-0.39007697
238	0xbe852ba6	-0.26009864
239	0x3eb72164	0.35767663
240	0xb9efa657	-0.00045709565
241	0x3e3a90f1	0.18219353
242	0xbd97af15	-0.07406441
243	0xbeb94de0	-0.36192226
244	0xbdda587e	-0.1066141
245	0xbed47f99	-0.415036
246	0xbe6a36f1	-0.22872521
247	0x3e438002	0.190918
248	0xbdadff25	-0.084959306
249	0x3ef52745	0.47881523
250	0xbe895a20	-0.26826572
251	0x3eaa35fe	0.33244318
252	0xbd8d111d	-0.0688803
253	0xbeb254b7	-0.34830257
254	0xbdd9a8c3	-0.10627892
255	0xbef98e4e	-0.48741382

weight_hh_l0 f4 [12, 4]
0	0x3e05cbff	0.130661
1	0xbe66fb10	-0.2255671
2	0x3ed160ca	0.40894157
3	0xbe9bb751	-0.30413297
4	0x3ecc4839	0.39898852
5	0xbdd0c1b5	-0.10193197
6	0x3aac3b9e	0.0013140326
7	0x3e1dac7b	0.15397827
8	0xbe5ed44e	-0.21760675
9	0xbdc56b1f	-0.09639572
10	0x3ef8e7dc	0.48614395
11	0x3ea1f4e9	0.31632164
12	0xbe8490e4	-0.25891793
13	0x3eb32e2e	0.3499617
14	0x3dbfaff0	0.09359729
15	0xbeea7c04	-0.4579774
16	0x3d07ee56	0.03318628
17	0xbd50bee5	-0.0509633
18	0x3e471074	0.1943987
19	0xbe51cb23	-0.20487647
20	0xbede4003	-0.43408212
21	0xbea6110f	-0.3243489
22	0xbe9c06bd	-0.3047389
23	0xbd5242a8	-0.0513331
24	0x3e1fcd8e	0.15605757
25	0x3d113d42	0.03545881
26	0xbe6848e0	-0.2268405
27	0x3c462270	0.0120931715
28	0x3e3a3fb8	0.1818837
29	0x3ebcc8ed	0.36872044
30	0x3d87219d	0.06598208
31	0x3e49c805	0.19705208
32	0xbd85c66a	-0.06531985
33	0xbd31967e	-0.04335641
34	0xbddfab0c	-0.109212965
35	0xbc04b89b	-0.008100654
36	0xbece6817	-0.4031379
37	0x3eada039	0.33911303
38	0x3ee950f5	0.45569578
39	0xbd00875a	-0.03137908
40	0x3de2f934	0.11082688
41	0x3eb4e7da	0.3533314
42	0xbe10e144	-0.14148432
43	0x3ed93dda	0.42430001
44	0x3e394588	0.1809293
45	0x3e743fb3	0.23852424
46	0xbeaf4789	-0.34234264
47	0xbe99ffa9	-0.30077866

bias_ih_l0 f4 [12]
0	0xbe457dfa	-0.19286337
1	0x3eb0512a	0.34436923
2	0x3eeb1363	0.45913228
3	0x3e6fefbf	0.234313
4	0xbecb4aaf	-0.39705417
5	0x3e97bbc6	0.29635447
6	0xbed58c94	-0.41708815
7	0x3bdef302	0.006803871
8	0xbe8eccdb	-0.27890667
9	0x3e70f025	0.23529108
10	0x3efcd992	0.49384743
11	0x3b7e9be6	0.0038850247

bias_hh_l0 f4 [12]
0	0xbeddec39	-0.43344286
1	0x3c03073c	0.00799733
2	0xbdfeab15	-0.12434975
3	0x3d03550f	0.03206354
4	0xbe17ec37	-0.14836203
5	0x3ee9b05e	0.4564237
6	0x3ee8e60d	0.45488015
7	0xbebf5c12	-0.37374932
8	0xbe2a1674	-0.16610128
9	0x3e12ad1e	0.14323851
10	0xbef81c9c	-0.48459327
11	0xbde96daf	-0.113978736

weight f4 [4, 4]
0	0xb967935d	-0.00022084774
1	0xbc0e6341	-0.008690656
2	0x3a0fd300	0.00054864585
3	0xbe04257c	-0.12904924
4	0x3d42980e	0.047508292
5	0x3e70716a	0.23480764
6	0x3db9748c	0.09055433
7	0x3d46372b	0.048392456
8	0xbeb1f860	-0.34759808
9	0x3eee8a09	0.46589687
10	0x3ec9f4e1	0.3944464
11	0xbd113336	-0.03544923
12	0x3e31187d	0.17294498
13	0x3e3eb87e	0.18625066
14	0xbddbbd91	-0.10729516
15	0x3e6aa3d4	0.22914058

bias f4 [4]
0	0xbcd59dbe	-0.026076194
1	0xbd1881c9	-0.037233148
2	0x3e4d598d	0.20053692
3	0x3db3e6e5	0.08784274

weight f4 [320, 8]
0	0x3e41cc07	0.18925487
1	0x3ea8aae2	0.32942873
2	0xbd333b2b	-0.0437576
3	0xbe0e2dec	-0.13884705
4	0x3e95b0e0	0.29236507
5	0x3bf78185	0.0075532817
6	0xbe076dfd	-0.13225551
7	0xbc5d8238	-0.013519816
8	0x3e31c0a1	0.17358638
9	0x3e85ed87	0.2615778
10	0x3c1f7a23	0.0097337095
11	0x3e286844	0.16446024
12	0x3e294354	0.1652959
13	0x3e26d906	0.16293725
14	0xbd8fe4e0	-0.07026076
15	0xbe7eac15	-0.24870332
16	0x3cdfe528	0.02733095
17	0x3e8d90af	0.27649447
18	0x3e178163	0.14795451
19	0x3e1ec8eb	0.15506332
20	0x3d46d4c7	0.048542764
21	0x3e0e7861	0.13913108
22	0x3e2b1d79	0.16710462
23	0x3ea40910	0.32038164
24	0xb36963bf	-5.434026e-08
25	0x3cb3672e	0.021899786
26	0x3d2a85d6	0.041631542
27	0x3884672c	6.313468e-05
28	0xbcb88703	-0.022525316
29	0xbc83b5de	-0.016077932
30	0x3b8698fa	0.0041075917
31	0x3b2432f5	0.0025054787
32	0xbcdf6e15	-0.02727417
33	0x3d9cc7a1	0.07655264
34	0x3e23784a	0.15963855
35	0xbd6b55a7	-0.05745473
36	0x3e3820e3	0.17981295
37	0xbe7e21b4	-0.24817544
38	0xbe436a0f	-0.19083427
39	0xbdd7485c	-0.10511848
40	0xbe8d887c	-0.27643192
41	0x3e364c6f	0.17802595
42	0xbe1316a4	-0.14364105
43	0x3ea9916c	0.3311876
44	0xbe16264f	-0.14663051
45	0xbe17283f	-0.14761446
46	0x3ddcfc5b	0.107903205
47	0x3e711939	0.23544778
48	0xbc7caefd	-0.01542258
49	0xbd2e0f33	-0.042494964
50	0x3c8ca68e	0.017169263
51	0x3d305f07	0.043059375
52	0x3c8c31c6	0.017113578
53	0xbc9bce61	-0.019019308
54	0x3d6a181d	0.057151902
55	0x3c90334a	0.017602582
56	0x3dfad5f8	0.122478426
57	0xbe6cb853	-0.23117189
58	0x3dc53bdc	0.09630558
59	0xbde41311	-0.11136449
60	0xbdb4ae74	-0.08822337
61	0xbe0c254e	-0.13686106
62	0xbdf01040	-0.117218494
63	0x3a16602a	0.00057363755
64	0x39cc7365	0.00038995888
65	0xbd885ca7	-0.06658297
66	0x3c1e6098	0.009666584
67	0x3d0aacb6	0.033856116
68	0xbb43b07f	-0.0029859839
69	0xbd851c76	-0.06499569
70	0x3b1a3374	0.0023529204
71	0x3da4cacb	0.08046492
72	0xbdf7e58b	-0.12104329
73	0x3e367b65	0.17820509
74	0x3e0c63f1	0.1371
75	0x3e341b04	0.1758843
76	0x3e443ebf	0.1916456
77	0x3ea3adda	0.31968576
78	0xbddb8624	-0.10718945
79	0xbb7cf4f2	-0.0038598147
80	0xbcafea08	-0.0214739
81	0xbe9b1ada	-0.30293924
82	0xbe5cc058	-0.21557748
83	0xbe6b85d1	-0.23000266
84	0x3de0802c	0.10961947
85	0x3de55ff7	0.111999445
86	0xbe9bf148	-0.3045752
87	0xbe9d1123	-0.30677137
88	0x3e7386c5	0.23781879
89	0x3d6f70d4	0.05845721
90	0xbe4c6618	-0.1996082
91	0x3e567f9d	0.20947118
92	0x3dd1be13	0.10241332
93	0x3eba4149	0.36377934
94	0xbe39c96c	-0.18143243
95	0x3e784124	0.24243599
96	0x3cba942d	0.022775734
97	0x2c46b10b	2.823577e-12
98	0x3d789691	0.060690466
99	0x3c01cbdc	0.007922139
100	0xbc6d5eb6	-0.014487913
101	0xbd444b32	-0.047923274
102	0x3bac4e96	0.0052583916
103	0xbb09de3e	-0.0021037008
104	0x3e672e45	0.22576244
105	0x3eb1b2f5	0.34706846
106	0xbd862074	-0.06549159
107	0xbe2f7c54	-0.17137271
108	0x3eb5bef5	0.3549725
109	0x3e1ce4ab	0.15321605
110	0xbe641184	-0.22272307
111	0x3e46a8e1	0.1940036
112	0x3e60b81d	0.21945234
113	0xbe03e62c	-0.12880772
114	0x3e8b6bb8	0.2723062
115	0x3db7fc0c	0.08983621
116	0xbe8e6f8c	-0.2781948
117	0xbe58d6f7	-0.21175753
118	0x3c08742f	0.008328482
119	0xbeab4cd5	-0.33457056
120	0x3d55af1c	0.05216895
121	0xbe81a32a	-0.25319797
122	0xbe84aad2	-0.25911576
123	0x3e20a63a	0.1568841
124	0xbe8eb30d	-0.2787098
125	0x3e52da1c	0.20591015
126	0xbe7f37fe	-0.24923703
127	0x3b5ab848	0.0033374
128	0x3bead5ef	0.007166616
129	0x3c72616d	0.014793736
130	0x3bdab2ff	0.00667417
131	0x3e8d6cc1	0.27622035
132	0xbe8bdf5b	-0.27318844
133	0xbe4499d7	-0.1919931
134	0x3e5cbfdb	0.21557562
135	0xbe7b4c6a	-0.24540868
136	0xbdd6004a	-0.10449274
137	0x3d4be09b	0.049774747
138	0xbea5f75f	-0.32415292
139	0xbea91f7c	-0.33031833
140	0xbd066afb	-0.03281687
141	0x3e89527f	0.26820752
142	0x3eb21a01	0.34785464
143	0x3db76146	0.089541
144	0x3ddc8c72	0.10768975
145	0x3daa915b	0.083285056
146	0x3e061a37	0.13095938
147	0xbe72395d	-0.23654695
148	0x3dde29ae	0.108477935
149	0x3dc7b63b	0.097515546
150	0x3e9ae305	0.30251327
151	0x3ea97e1e	0.33104032
152	0xbe5a9eea	-0.21349683
153	0xbceab802	-0.028652195
154	0x3e0593ea	0.13044706
155	0xbdff8441	-0.12476397
156	0xbdaa91d7	-0.08328598
157	0xbe6f1e64	-0.23351437
158	0x3e519075	0.20465262
159	0xbe6b1607	-0.22957622
160	0xbcb36821	-0.021900238
161	0x3e2a5add	0.16636224
162	0xbdf30856	-0.11866824
163	0x3e8488b6	0.25885552
164	0x3eb5cecf	0.35509345
165	0x3eb331d0	0.3499894
166	0x3e889ffc	0.26684558
167	0xbe86be75	-0.26317182
168	0xbda56349	-0.08075578
169	0x3dae8d2e	0.08523022
170	0xbc83f271	-0.016106816
171	0x3d5f7d3e	0.0545628
172	0xbe0b744a	-0.1361858
173	0xbe2c2153	-0.16809587
174	0x3dc65ff3	0.096862696
175	0x3ea50d9d	0.3223695
176	0xbd980570	-0.07422912
177	0xbe5291f8	-0.20563495
178	0xbe10f594	-0.1415618
179	0x3e89c029	0.2690442
180	0x3e345efa	0.17614356
181	0x3e25db6c	0.16196984
182	0x3d9dfe91	0.0771457
183	0xbe72ab07	-0.23698054
184	0x3e8bb9d2	0.27290207
185	0xbe539689	-0.20662893
186	0xbe255410	-0.16145349
187	0xbeaff2de	-0.3436498
188	0x3dae49a1	0.08510137
189	0xbe838959	-0.25690725
190	0xbe6f1e3a	-0.23351374
191	0x3e255063	0.16143946
192	0x3e8250dc	0.25452316
193	0xbad23f24	-0.0016040546
194	0x3c86c914	0.016453303
195	0x3e2bbfc9	0.16772379
196	0x3c70c11b	0.014694477
197	0xbe529c87	-0.20567523
198	0x3ea0f831	0.31439355
199	0xbe96b2b7	-0.29433224
200	0x3e3e854f	0.1860554
201	0x3e91ecbe	0.28500932
202	0xbdfa804e	-0.122315034
203	0xbe9f9c4e	-0.3117394
204	0x3de7c887	0.113175444
205	0x3e50a3ac	0.20374936
206	0xbe84616f	-0.25855586
207	0xbeabbf63	-0.33544454
208	0xbce3fd20	-0.02783066
209	0xbe361981	-0.17783166
210	0xbe3d6e0b	-0.1849901
211	0x3e7e735d	0.24848695
212	0xbe8673dc	-0.2626027
213	0x3e53d816	0.20687899
214	0xbeb51885	-0.3537027
215	0xbe3b9208	-0.18317425
216	0xbe1bf815	-0.15231355
217	0x3d85bc93	0.06530108
218	0xbe583497	-0.21113811
219	0xbe5beba8	-0.21476614
220	0xbc46d50c	-0.012135755
221	0x3e50016d	0.20313044
222	0x3d543683	0.0518098
223	0x3eab98b5	0.33514944
224	0xbe4bf41f	-0.19917344
225	0xbe8fef3f	-0.28112218
226	0xbc0d8879	-0.008638495
227	0x3d868112	0.06567587
228	0xbdb35a97	-0.08757513
229	0x3e5b9c64	0.21446377
230	0x3df74a4e	0.12074719
231	0x3cd0f29a	0.025506306
232	0xbe3def24	-0.18548256
233	0x3ca64dfe	0.020300861
234	0xbd92724d	-0.071507074
235	0xbe166d99	-0.14690246
236	0x3e6ff2db	0.23432486
237	0x3d5973aa	0.05308882
238	0xbea73a11	-0.3266149
239	0xbe2a3ed9	-0.16625537
240	0x3e8b1af3	0.27168998
241	0xbd82faff	-0.0639553
242	0x3eabc436	0.33548135
243	0x3ea80c00	0.32821655
244	0xbe8dcd24	-0.27695572
245	0x3e22b04d	0.15887566
246	0x3e4de238	0.20105827
247	0x3d33c67b	0.043890458
248	0x3e8b6cfe	0.27231592
249	0xbdf6684a	-0.1203161
250	0xbe141b3d	-0.14463516
251	0xbe925e3e	-0.28587526
252	0xbda5c2b5	-0.08093778
253	0xbe9b81d1	-0.3037248
254	0xbead5c81	-0.33859637
255	0x3ea92131	0.33033136

bias f4 [320]
0	0x3ea9e0b1	0.33179238
1	0xbdc14ead	-0.09438834
2	0x3e48f499	0.19624557
3	0xbc2f8607	-0.010713107
4	0xbe7e4cfd	-0.24834056
5	0xbcaa2fc2	-0.020774726
6	0xbd9103f8	-0.07080835
7	0x3e3457c4	0.17611605
8	0xbd691ac5	-0.056910295
9	0xbe447732	-0.19186094
10	0x3e85bb64	0.2611953
11	0xbe1691a5	-0.14703996
12	0xbb76c660	-0.0037654862
13	0x3e9d1a3e	0.30684084
14	0x3badb9f7	0.0053017098
15	0x3e5dd83d	0.2166452
16	0x3e843c06	0.25827044
17	0xbe2d6273	-0.16932087
18	0xbd9f8c0c	-0.07790384
19	0x3ea59c14	0.3234564
20	0xbe98417f	-0.2973747
21	0xbdc330e2	-0.09530808
22	0x3d3de5fd	0.046361912
23	0x3ea30d96	0.31846303
24	0x3e8784b0	0.2646842
25	0x3e7762a3	0.2415872
26	0x3dd91483	0.105996154
27	0x3ea515d8	0.32243228
28	0xbdb288bf	-0.087174885
29	0x3eadcf62	0.33947283
30	0x3eb11acb	0.34590754
31	0x3d97ddc6	0.07415347
32	0xbd642e20	-0.05570805
33	0x3c54b214	0.01298191
34	0x3d2d1426	0.042255543
35	0xb90c2f3f	-0.00013369041
36	0x3e2645dc	0.16237587
37	0x3d814b1a	0.063131526
38	0xbe278614	-0.1635974
39	0xbe82788c	-0.25482595
40	0xbe258281	-0.16163065
41	0x3e8684dd	0.26273242
42	0x3de694de	0.11258863
43	0xbd68e760	-0.05686128
44	0x3e80b841	0.25140575
45	0x3e20085c	0.15628189
46	0xbd299d41	-0.041409735
47	0xbe412446	-0.18861493
48	0xbe944166	-0.28956145
49	0xbdaf8219	-0.08569736
50	0xbeb1a63e	-0.34697145
51	0xbc5bf24f	-0.01342447
52	0x3ea6b5ba	0.3256052
53	0x3e81e169	0.25367287
54	0xbdb0d36d	-0.08634076
55	0xbd341635	-0.04396649
56	0xbe6f71fb	-0.23383324
57	0x3e984efc	0.2974776
58	0x3e66cc80	0.22538948
59	0x3dda2856	0.10652225
60	0x3e17cf80	0.14825249
61	0x3c813e1c	0.015776686
62	0x3df3bd79	0.119013734
63	0x3e7405f2	0.23830393
64	0xbd83440b	-0.064094625
65	0xbd61f0cf	-0.055161294
66	0xbea5f004	-0.3240968
67	0x3e132e71	0.14373185
68	0xbe9a0f11	-0.3008962
69	0x3e3d9fe1	0.1851802
70	0x3e987703	0.297783
71	0xbe17955e	-0.14803073
72	0x3e3534ff	0.17695998
73	0xbd9d0312	-0.07666601
74	0xbe11f03d	-0.142518
75	0x3e128f7c	0.14312547
76	0x3e8dcc16	0.27694768
77	0x3eaf1a59	0.3419979
78	0x3d21b97b	0.03948353
79	0x3ea210d3	0.3165346
80	0xbe97cb53	-0.29647312
81	0x3dbf3187	0.093356185
82	0xbc944e39	-0.018103706
83	0x3e93afd6	0.2884509
84	0xbdefdbd4	-0.11711851
85	0x3e6db9ac	0.2321536
86	0x3e8fde9d	0.28099528
87	0x3eb324d5	0.34989038
88	0xbdcaf8c1	-0.09910727
89	0x3b81d68b	0.003962343
90	0x3e9ca4da	0.30594522
91	0x3d9fd334	0.07803956
92	0xbe114049	-0.14184679
93	0x3e6dc2e3	0.23218875
94	0x3d7d2633	0.061804008
95	0xbddd6248	-0.10809761
96	0x3e8ef327	0.27919886
97	0xbc83d431	-0.016092392
98	0x3d812a67	0.06306916
99	0x3ce60ab4	0.028081276
100	0xbe2bc59c	-0.167746
101	0x3e61baad	0.22043867
102	0xbccb7105	-0.024834165
103	0xbe39b17e	-0.18134114
104	0xbdb292e6	-0.08719425
105	0xbdd99898	-0.10624808
106	0xbd2984ff	-0.0413866
107	0x3e91433a	0.28371602
108	0x3eaf7d61	0.34275344
109	0xbe4c46a3	-0.19948821
110	0x3e897b06	0.26851672
111	0xbd631869	-0.0554432
112	0xbe945bc3	-0.2897626
113	0xbe158e25	-0.14605005
114	0xbddf746d	-0.10910878
115	0xbdfc81b1	-0.12329424
116	0x3e370880	0.17874336
117	0x3eb1d4b0	0.3473258
118	0xbe78e898	-0.24307477
119	0xbd2ef181	-0.042710785
120	0xbe336e7c	-0.17522615
121	0xbe9c2fc1	-0.30505183
122	0xbd60bf87	-0.054870155
123	0x3dd575c4	0.10422853
124	0x3e1d0789	0.15334906
125	0xbe1a1fde	-0.15051219
126	0x3e971694	0.29509413
127	0xbcabd101	-0.020973684
128	0x3e838387	0.25686285
129	0x3eb2345b	0.3480557
130	0xbe10c080	-0.14135933
131	0x3ea04c70	0.31308317
132	0x3d9b86dd	0.075940825
133	0xbd49b249	-0.04924229
134	0x3e1049d9	0.1409067
135	0x3ccaecac	0.024771057
136	0x3de559d1	0.11198772
137	0xbdbee9cc	-0.09321937
138	0x3e58bdf5	0.21166213
139	0x3e7b91ca	0.24567333
140	0xbd1f9944	-0.038964525
141	0xbcce742a	-0.025201876
142	0x3d1315ad	0.035909344
143	0x3dc22b2c	0.09480891
144	0xbd0648cb	-0.032784265
145	0xbd825150	-0.063631654
146	0x3c4eece8	0.012629725
147	0x3e8b9345	0.27260795
148	0x3db2613f	0.087099545
149	0xbbb94b7d	-0.005654751
150	0x3e00ab8d	0.12565441
151	0x3e4506d9	0.19240893
152	0xbe185c3d	-0.14878936
153	0xbe7b758a	-0.24556556
154	0x3ddbbf5d	0.10729859
155	0x3e71ddbf	0.23619746
156	0xbe322123	-0.17395453
157	0xbea801a6	-0.32813758
158	0x3e0cb2e8	0.13740122
159	0xbe0388ed	-0.12845202
160	0x3dc82cd1	0.09774173
161	0x3d9c625f	0.0763595
162	0x3df4a00e	0.119445905
163	0xbdb2ab96	-0.08724134
164	0x3eaf3b36	0.34224862
165	0x3da51220	0.08060098
166	0xbe0886fd	-0.13332744
167	0xbe614020	-0.21997118
168	0xba5f7a0f	-0.0008524963
169	0xbd2d3317	-0.04228505
170	0x3e201b01	0.15635301
171	0xbe9bb28f	-0.30409667
172	0x3e9e4e38	0.3091905
173	0x3c9f3891	0.019436153
174	0x3e7ec36b	0.24879234
175	0x3e831a72	0.25606114
176	0xbe91cf63	-0.28478536
177	0x3e59c3c0	0.21266079
178	0x3d97464c	0.07386455
179	0xbe8da312	-0.27663475
180	0x3e9e4e85	0.3091928
181	0x3c53e792	0.012933629
182	0x3e94c97e	0.29059976
183	0x3e70f657	0.23531471
184	0x3e1d9182	0.15387538
185	0x3e49d718	0.19710958
186	0x3e8be7f8	0.27325416
187	0xbdb0ea34	-0.08638421
188	0xbca67e13	-0.020323789
189	0xbe06dbda	-0.13169804
190	0xbdb2493e	-0.08705376
191	0x3e3c7215	0.18402894
192	0xbcc20fca	-0.02368917
193	0x3e324630	0.17409587
194	0x3e8ec780	0.2788658
195	0x3e9ea22b	0.309831
196	0x3c236299	0.009972238
197	0x3eaa9f05	0.33324447
198	0xbe88da99	-0.26729277
199	0xbd035be3	-0.032070052
200	0x3e24b097	0.16082989
201	0x3e4762ed	0.19471331
202	0x3e9c71c9	0.3055556
203	0xbe08e453	-0.13368349
204	0xbe1bbc8c	-0.15208644
205	0x3eb00fdd	0.34387103
206	0xbdaf6324	-0.085638314
207	0x3ea8a7e2	0.32940584
208	0xbdb4a2c9	-0.08820111
209	0xbe5c8214	-0.21533996
210	0x3d191280	0.03737116
211	0x3e95bed4	0.29247153
212	0x3e93797c	0.28803623
213	0x3e64b716	0.22335467
214	0xbe1414c5	-0.14461048
215	0xbd56b041	-0.052414183
216	0xbd0f1876	-0.034935437
217	0x3e5a137c	0.21296495
218	0x3e2e3735	0.17013247
219	0x3cf1f25b	0.02953451
220	0x3e32c45a	0.17457715
221	0x3d4ebd5d	0.05047356
222	0xbe7f3df2	-0.24925974
223	0xbe3d9582	-0.18514064
224	0x3eaef8b3	0.34174117
225	0x3dc1a4ed	0.09455285
226	0x3e6bc208	0.23023236
227	0x3eb0bf9d	0.3452119
228	0x3e637d9a	0.22215882
229	0xbd220922	-0.03955949
230	0x3db085e9	0.08619291
231	0xbd78d5ca	-0.06075076
232	0x3c1a9fc8	0.009437509
233	0xbca8a0ea	-0.020584542
234	0xbd15ce95	-0.036573965
235	0x3e04355a	0.12910977
236	0xbccd7324	-0.025079317
237	0x3ea08f8f	0.31359527
238	0xbd088784	-0.033332363
239	0xbe4aeca6	-0.19816837
240	0xbc8f58ff	-0.017498491
241	0xbd8aad5e	-0.067713484
242	0x3ea83c97	0.32858726
243	0xbe0823b2	-0.13294867
244	0x3d257a0b	0.040399592
245	0xbb4272bd	-0.002967044
246	0xbd31faee	-0.043452196
247	0xbced4fa9	-0.028968649
248	0x3e64833d	0.22315688
249	0x3d9fd320	0.07803941
250	0xbd21e3ac	-0.039523765
251	0xbd94fbcb	-0.07274588
252	0xbd863ab0	-0.065541625
253	0xbe8cef6d	-0.27526417
254	0xbd6edbcb	-0.05831508
255	0x3ea75832	0.32684475

weight f4 [4, 320]
0	0xbcbd62f1	-0.023118468
1	0x3d51d406	0.051227592
2	0x3d0b4e22	0.03401006
3	0xb707dc86	-8.097972e-06
4	0xbcb4ebd6	-0.022085112
5	0x3adefa4b	0.0017011849
6	0x3b5e555c	0.003392539
7	0x3d664e7d	0.056227196
8	0x3b416c60	0.002951406
9	0x3cf74ba8	0.030187443
10	0x3c0f5924	0.00874928
11	0x3d4062b6	0.046969138
12	0xba06345d	-0.0005119497
13	0x3d1614af	0.03664082
14	0x3c7cdfb2	0.0154341925
15	0x3c967e0c	0.01837065
16	0x3d553403	0.052051555
17	0xbd350fd6	-0.044204555
18	0x3d823c26	0.06359129
19	0x3a7979b7	0.0009516733
20	0xbd6058fa	-0.054772355
21	0xbcb498d6	-0.022045534
22	0xbc736156	-0.01485475
23	0xbc58b473	-0.013226616
24	0x3b69bdc6	0.0035666092
25	0x3cca82e7	0.024720622
26	0x3d2822a3	0.041048657
27	0xbcf98e24	-0.030463286
28	0xbb83d792	-0.0040235007
29	0x3d886a42	0.06660892
30	0x3ce26468	0.027635768
31	0x3c59526c	0.01326428
32	0x2d294444	9.621696e-12
33	0xbc927275	-0.017876843
34	0x3cb99182	0.022652391
35	0x2cc0f74e	5.4844245e-12
36	0xbbccf8d5	-0.006255249
37	0x3d6d3913	0.05791576
38	0xbd056e38	-0.032575816
39	0xbd3f206b	-0.046661776
40	0xbcde0302	-0.027101044
41	0xbcf49609	-0.029856699
42	0xbd021b6f	-0.031764444
43	0xad2b2901	-9.729329e-12
44	0xbc28a2be	-0.010292707
45	0x3cb49293	0.022042548
46	0xbca41e59	-0.020034002
47	0xbcfab69d	-0.030604655
48	0x3d57a74a	0.052649774
49	0xbca9a104	-0.020706661
50	0xbc84d3be	-0.016214248
51	0xb59a5992	-1.1499963e-06
52	0xba9a32ae	-0.0011764371
53	0x3d57a594	0.052648142
54	0xbc88c065	-0.016693303
55	0x2d44fbac	1.11971925e-11
56	0x3bf2f8a6	0.007414895
57	0xbc4130f3	-0.011791456
58	0xb92744c5	-0.0001595198
59	0xbad7172d	-0.0016410105
60	0x3cf56abf	0.029958127
61	0xbc617890	-0.0137616545
62	0x3d2bf8c8	0.041985303
63	0x3b73cd29	0.0037201142
64	0xad0b9259	-7.933731e-12
65	0x2bfeea50	1.811282e-12
66	0x3c3f0257	0.011658273
67	0xbccc5502	-0.024942879
68	0xbc0cc694	-0.008592267
69	0x3ca92c57	0.020651026
70	0x3d239a87	0.03994229
71	0xbbbbcc81	-0.005731166
72	0xbbb68861	-0.005570457
73	0xbc8e717d	-0.0173881
74	0xbd2cde01	-0.042203907
75	0x3ce8c56e	0.028414454
76	0x3d3253f3	0.04353709
77	0x3d300520	0.042973638
78	0xbd130076	-0.03588911
79	0xbc281d7d	-0.010260937
80	0x3c0ebaa3	0.00871149
81	0xbc8a8e37	-0.016913516
82	0x3d7ef2fa	0.06224344
83	0x3c91eb6e	0.017812457
84	0x3d16fba7	0.036861088
85	0x3b1a988a	0.0023589456
86	0x3a99a0b3	0.0011720866
87	0x3d03b28f	0.03215271
88	0x3ccc5680	0.02494359
89	0xbc82b3b7	-0.015954835
90	0x3ca5f983	0.020260578
91	0x3c7870d3	0.015163618
92	0xbc3514e6	-0.011052346
93	0x3cd4ec9c	0.02599173
94	0x3d075865	0.033043284
95	0xbcbe0204	-0.02319432
96	0x3b278469	0.00255611
97	0x390a0ae5	0.00013164764
98	0x3d6fd341	0.058551077
99	0x3ba713ba	0.005098787
100	0x3bf49596	0.007464121
101	0x3d8103cb	0.062995516
102	0xaba7552f	-1.1889707e-12
103	0xbcc51e36	-0.024062257
104	0x3c29f921	0.010374338
105	0x3cdcd244	0.026955731
106	0xbc9aa21e	-0.018876132
107	0x3cf4e3a1	0.029893698
108	0xbd004123	-0.03131212
109	0xbd12e738	-0.03586504
110	0xbd120ec8	-0.035658628
111	0xac9896ce	-4.3368425e-12
112	0xbd75400e	-0.05987554
113	0x3b87f3b7	0.004148926
114	0x3a0806ae	0.00051889836
115	0x3c02d2cb	0.007984827
116	0x3d908d44	0.07058194
117	0xbc5fad8d	-0.013652218
118	0xbd3b2517	-0.04568967
119	0xada09e7b	-1.8260274e-11
120	0x3c708dec	0.014682274
121	0x3cd67cd0	0.026182562
122	0x2b197be8	5.4528474e-13
123	0xbd3860ef	-0.045014318
124	0xbc2c11b8	-0.010502271
125	0x3d45f0d3	0.04832537
126	0xbd21b6a6	-0.039480828
127	0xbcf30963	-0.029667562
128	0x3d2ee7aa	0.0427014
129	0x3ce36973	0.027760243
130	0xbd26c8ad	-0.040718723
131	0x3caed513	0.021341836
132	0x3a146836	0.00056612806
133	0xbc6cc5f1	-0.01445149
134	0xbce13e73	-0.027495598
135	0x3c6082d3	0.013703066
136	0xbb5fd401	-0.0034153464
137	0x3d317018	0.04331979
138	0xbcb27f49	-0.02178921
139	0x3d6df54a	0.058095254
140	0x2eaa24b6	7.737226e-11
141	0xbc6be2d2	-0.01439734
142	0xbbf240f7	-0.0073929983
143	0x3d859735	0.06522981
144	0x3d14c3b0	0.036319435
145	0xad1a98f8	-8.787852e-12
146	0xbd0a6cb7	-0.033795085
147	0xbc200ff7	-0.009769431
148	0xbd0c3b19	-0.034236047
149	0xbcf75ba6	-0.030195069
150	0x3d51149c	0.051045045
151	0xbb5102e4	-0.0031892592
152	0xbd0f324a	-0.03496007
153	0x3d497e18	0.049192518
154	0xbd4fc78e	-0.05072742
155	0x3cb48b53	0.022039091
156	0xbd4ba631	-0.04971904
157	0x3cc4faf5	0.024045447
158	0x3e1af6fb	0.15133278
159	0x3c8f4ea8	0.01749356
160	0x3d46e934	0.048562244
161	0xbc4a61ea	-0.012352446
162	0x3d0423ef	0.03226083
163	0xbbfd7122	-0.0077344337
164	0x3d84416d	0.064577915
165	0x3ba74720	0.0051049143
166	0x3c20b1f7	0.009808055
167	0x3d0136a0	0.031546235
168	0x3d580c01	0.052745823
169	0x3b8c137c	0.0042747837
170	0x3d184e46	0.037184022
171	0x3ba70055	0.005096475
172	0x3d4838ca	0.048882283
173	0x3cbba434	0.022905447
174	0x3d111a1d	0.035425294
175	0x3d6721b2	0.05642862
176	0xbcf2d240	-0.02964127
177	0x3cf4434d	0.029817248
178	0x3c537524	0.0129063465
179	0x3d646604	0.055761352
180	0x3d897596	0.06711881
181	0x3d59014c	0.052979752
182	0x3d0dc9c3	0.034616243
183	0x3d853546	0.06504302
184	0xbcd99975	-0.026562432
185	0x3d2fc4de	0.042912357
186	0x3d6fa23d	0.05850433
187	0xbcca7578	-0.024714217
188	0xae6eee57	-5.4326623e-11
189	0xbc240ab0	-0.010012314
190	0x3cac1592	0.02100638
191	0xbd1ffebe	-0.0390613
192	0xba6e6609	-0.0009094184
193	0xbcb19501	-0.021677496
194	0x3d509d5d	0.050931323
195	0xbcc50de1	-0.02405447
196	0x3d143ca7	0.036190655
197	0x3c58f9a6	0.013243115
198	0x3d21d9ce	0.039514355
199	0x3d8c3252	0.06845535
200	0xbb8317df	-0.0040006484
201	0xbb3f251b	-0.0029166404
202	0x3d5cd9e3	0.05391873
203	0x3d49d3a6	0.04927411
204	0x2d444d6b	1.11585e-11
205	0x3d1aa7f7	0.03775784
206	0x3db5a754	0.08869806
207	0x3d885ea3	0.066586755
208	0x3c9cbef8	0.01913403
209	0x3be21443	0.006899388
210	0x3ce067f5	0.02739332
211	0x3d6c994f	0.057763394
212	0x3d753e5f	0.059873935
213	0x3cf402dd	0.029786522
214	0x3b3aed13	0.0028522655
215	0xbc93c42b	-0.018037876
216	0x3d634e85	0.055494804
217	0x3d6278cf	0.055290993
218	0x3c9207f1	0.017826052
219	0xbd20ffa6	-0.039306305
220	0x3d280b26	0.041026257
221	0xbd1eec90	-0.038799822
222	0x3c4dcea9	0.012561479
223	0x2d748fee	1.3901753e-11
224	0x3d2f9216	0.042863928
225	0x3cd34a17	0.025792165
226	0xbc4d431c	-0.012528207
227	0xbca14a09	-0.019688623
228	0xbcf8f67f	-0.030390976
229	0x2d9aa4ba	1.7580926e-11
230	0x3d791773	0.06081338
231	0x3c2ce1a0	0.01055184
232	0x3ca17416	0.019708674
233	0xac92ebd5	-4.175752e-12
234	0x3d707783	0.058707725
235	0x3d57c47d	0.05267762
236	0x3c11b04f	0.008892133
237	0x3d4fb418	0.05070886
238	0x3cf2983b	0.029613605
239	0x3c8dddbd	0.017317647
240	0x3c95147c	0.018198244
241	0x3d5e4937	0.054269042
242	0xbd15473d	-0.03644489
243	0x3d865121	0.06558443
244	0x3cca1a80	0.02467084
245	0xbae031e3	-0.0017104711
246	0xac28927e	-2.3955555e-12
247	0x3ca704a2	0.020387951
248	0x3c42108f	0.011844768
249	0x3cf096b4	0.029368736
250	0xabd90e58	-1.5422759e-12
251	0x386c3235	5.6313544e-05
252	0xac4b457d	-2.8886609e-12
253	0xbc4be073	-0.01244365
254	0xaceeb216	-6.7841384e-12
255	0x3d2ec2eb	0.042666357

bias f4 [4]
0	0x3cb458d8	0.02201502
1	0x3c6046fd	0.0136888
2	0x3c79da5d	0.015249816
3	0x3d3a5170	0.04548782

weight f4 [4, 8]
0	0x3c8e69e5	0.017384479
1	0x2a822c7e	2.3123512e-13
2	0xb3890e3c	-6.382149e-08
3	0x2cda3a52	6.2024075e-12
4	0x3b625626	0.0034536212
5	0x309acf28	1.1263852e-09
6	0xab10143f	-5.1187174e-13
7	0x3d0be6d8	0.034155697
8	0xbe48ac31	-0.19596936
9	0xbeb06b22	-0.34456736
10	0xbe14c8a1	-0.14529659
11	0x3e3a2777	0.18179117
12	0x3e013fb9	0.12621965
13	0xbe838caa	-0.25693256
14	0x3d8d1c90	0.068902135
15	0x3e917032	0.2840591
16	0xbea67d79	-0.32517603
17	0xbe247f23	-0.16064124
18	0xbe49007a	-0.19629088
19	0xbda06422	-0.07831599
20	0xbe8cf526	-0.27530783
21	0x3e92cc0d	0.28671303
22	0xbd1b5d52	-0.037930794
23	0x3e2169fa	0.15763083
24	0x3d1f2d0a	0.038861312
25	0x3e49a395	0.19691308
26	0xbe7a4998	-0.24442136
27	0xbde6e129	-0.11273415
28	0x3d4a21f9	0.049348805
29	0xbcf9f0ef	-0.030510394
30	0xbe745afb	-0.23862831
31	0xbd2583f4	-0.040409043

bias f4 [4]
0	0xbd3dae40	-0.046308756
1	0x3e8e56db	0.2780064
2	0x3e982bec	0.2972101
3	0x3dd74ed4	0.10513082

weight f4 [4, 8]
0	0x3bac75a4	0.0052630473
1	0xae3a8b27	-4.2415096e-11
2	0xb819978b	-3.6619178e-05
3	0x2d39acdd	1.0554416e-11
4	0x3ce650f3	0.028114771
5	0x3d24c142	0.040223368
6	0xb109d476	-2.0056894e-09
7	0xbd3fbe13	-0.04681213
8	0xbe02fccb	-0.12791745
9	0xbd9f0851	-0.07765258
10	0x3e8e2bb7	0.27767727
11	0xbd0dd648	-0.034628183
12	0x3ba27bec	0.0049586203
13	0x3dd2d83d	0.102951504
14	0x3e87ccc8	0.26523423
15	0x3dad7936	0.08470385
16	0xab4f3924	-7.362047e-13
17	0x2ed2412d	9.561272e-11
18	0xbae5c373	-0.0017529562
19	0xbd2e4da8	-0.042554528
20	0x3c0b4f79	0.0085028345
21	0xb002a65b	-4.753013e-10
22	0xbba601ba	-0.005066124
23	0xbccc13da	-0.02491181
24	0x3e065571	0.13118531
25	0x3c38f7d5	0.0112895565
26	0xbeac85c2	-0.336958
27	0x3dce0f84	0.10061553
28	0x3c97aac2	0.01851404
29	0x3cc7ce87	0.024390472
30	0xbe800dcc	-0.25010526
31	0x3e9ff329	0.31240204

bias f4 [4]
0	0xbcc93f4e	-0.024566319
1	0x3d328be7	0.043590453
2	0xbc84d739	-0.016215907
3	0xbe059a9e	-0.13047263

weight f4 [10, 2]
0	0x3efa5a31	0.48896936
1	0x3eaa992a	0.3331998
2	0xbf02162f	-0.508151
3	0x3f0e4042	0.555668
4	0x3f1d8e1d	0.6154497
5	0xbdc66b8b	-0.09688481
6	0x2c7ebafd	3.619937e-12
7	0x3b9a3ecb	0.0047071925
8	0x3f1ff0b1	0.6247664
9	0xbf33788e	-0.70105827
10	0x3de6967a	0.1125917
11	0xbf337bbf	-0.70110697
12	0x3ab22e68	0.0013594152
13	0xb9159f7b	-0.00014269158
14	0xbf0962d2	-0.5366641
15	0xbf18f871	-0.5975409
16	0x2d4fbbb6	1.1808268e-11
17	0x3da8ddc2	0.08245422
18	0x3f149c7a	0.58051264
19	0xbe611f89	-0.21984686

bias f4 [10]
0	0xbf1a8c1d	-0.60370046
1	0xbf37a218	-0.7173171
2	0x3f0d0a83	0.55094165
3	0xbdf7228a	-0.12067135
4	0xbc21cdf5	-0.009875764
5	0xbc70dbca	-0.014700839
6	0xbd11ac0c	-0.035564467
7	0xbe6e7d0d	-0.2328989
8	0xbe0a50b2	-0.13507345
9	0x3e47b413	0.19502287

weight f4 [10, 2]
0	0x3e9c20ab	0.30493674
1	0x3ee6dce9	0.45090416
2	0x3e624a48	0.22098649
3	0xbe7c72be	-0.24653146
4	0x3e0add14	0.13560897
5	0xbf1a8234	-0.60354924
6	0x3c8e13af	0.01734337
7	0xbb18177d	-0.002320736
8	0x3f0d7ca2	0.552683
9	0xbeb24137	-0.3481538
10	0x3f002685	0.50058776
11	0x3e18eb60	0.14933538
12	0xbf0fee26	-0.5622276
13	0x3dba4b54	0.09096399
14	0xbf235664	-0.63803697
15	0xbf191b48	-0.5980725
16	0x3f298ff4	0.6623528
17	0x3d6d6420	0.057956815
18	0xb00c2ca1	-5.0995125e-10
19	0x3eab339c	0.33437812

bias f4 [10]
0	0xbf0d4090	-0.5517664
1	0x3e7010cd	0.23443909
2	0xbf15c98b	-0.58510655
3	0xbeb303d7	-0.34963867
4	0x3f24f1b9	0.6443134
5	0x3eec2daf	0.46128604
6	0x3f26b0ea	0.651137
7	0x3f13f6bb	0.57798356
8	0x3eed499a	0.46345216
9	0xbeb6437e	-0.35598367

weight f4 [20, 4]
0	0xbea67521	-0.32511237
1	0xbea86b60	-0.3289442
2	0xbee72693	-0.45146617
3	0x3dbeadc9	0.09310491
4	0xbdf52ed1	-0.1197182
5	0xbdd3fb19	-0.103506275
6	0x3eae2c51	0.34018186
7	0x3e5b1688	0.21395314
8	0xbe5db6fd	-0.21651836
9	0xbeee6e64	-0.46568596
10	0xbe9d9d0a	-0.30783874
11	0xbdefe4cc	-0.117135614
12	0x3e8af5de	0.27140707
13	0xbe55d3f7	-0.2088164
14	0x3e90c1b3	0.2827278
15	0xbcb3b3b4	-0.021936275
16	0xbe8d5331	-0.27602533
17	0xbece2e26	-0.40269583
18	0x3ce7c949	0.028294222
19	0xbb83c98e	-0.00402183
20	0x3ec45642	0.3834706
21	0x3dea816d	0.11450467
22	0x3e12b173	0.14325504
23	0xbecf1bf2	-0.40451008
24	0xbd481ccc	-0.048855588
25	0xbee1bda6	-0.44090003
26	0xbead0b26	-0.33797568
27	0x3e48be52	0.19603851
28	0x3ef20400	0.47268677
29	0xbe5313b7	-0.2061299
30	0x3e16ae7c	0.14714998
31	0x3d7bfa86	0.061518215
32	0x3e708657	0.23488747
33	0xbd91437d	-0.070929505
34	0x3dabcd03	0.08388712
35	0xbea018fa	-0.31269056
36	0xbeca8636	-0.3955552
37	0x3e0aa4a9	0.13539375
38	0x3d07484b	0.03302793
39	0x3e934199	0.28760985
40	0xbe8b9cc6	-0.27268046
41	0x3db2cbac	0.087302536
42	0xbee8d0e6	-0.45471877
43	0xbe2ebb0b	-0.17063539
44	0xbed50ada	-0.41609842
45	0x3e1e7962	0.15475991
46	0xbe81fa2c	-0.25386178
47	0x3e3f27e4	0.18667561
48	0xbec14f72	-0.37755924
49	0x3d856519	0.065134235
50	0xbdc9a99c	-0.098468035
51	0x3b1d5542	0.0024007116
52	0x3ee24d00	0.4419937
53	0xbef14fe9	-0.4713128
54	0xbf0006f1	-0.5001059
55	0x3ea7703b	0.32702813
56	0xbe229560	-0.15877295
57	0xbd8dc5b2	-0.06922473
58	0x3eaa7fbb	0.33300576
59	0x3e36909d	0.17828603
60	0xbe439625	-0.19100244
61	0xbe9942cd	-0.29933777
62	0x3dc101c3	0.09424164
63	0xbe6aaf89	-0.22918524
64	0xbd41988d	-0.047264624
65	0xbea4650f	-0.32108352
66	0x3e9c5b0b	0.3053821
67	0x3ee7bc53	0.45260867
68	0xbe69503f	-0.22784518
69	0x3e2280dd	0.1586947
70	0xbda589c4	-0.08082917
71	0xbe614b6a	-0.22001424
72	0xbdc95f28	-0.09832603
73	0xbd9c3157	-0.07626598
74	0xbee1dce7	-0.44113848
75	0x3ece5ba7	0.403043
76	0xbe261aba	-0.16221133
77	0xbea7c24c	-0.32765424
78	0xbee36556	-0.4441325
79	0x3efcb869	0.49359444

bias f4 [20]
0	0x3eba602f	0.36401507
1	0xbdeea2be	-0.11652134
2	0xbdc6c298	-0.097050846
3	0xbe66f451	-0.22554137
4	0x3ee5ff20	0.44921207
5	0x3e87bd4c	0.2651161
6	0x3e0421d3	0.12903528
7	0x3ebe6e85	0.37193695
8	0x3e2ce337	0.1688355
9	0x3ecb516d	0.3971056
10	0xbeee09f8	-0.4649198
11	0x3e2be46b	0.16786353
12	0xbdd1d760	-0.10246158
13	0x3e22f208	0.1591264
14	0xbe8e18db	-0.27753338
15	0xbe78def8	-0.24303806
16	0xbe41d175	-0.18927558
17	0x3d846608	0.064647734
18	0x3ea558b5	0.3229424
19	0xbe5c106f	-0.21490644

weight_ih_l0 f4 [12, 10]
0	0x3ea5b822	0.32367045
1	0xb88cba77	-6.710452e-05
2	0x3e8777f6	0.2645871
3	0xbe95244c	-0.29129255
4	0x3e695784	0.22787291
5	0xbda5fe61	-0.081051596
6	0x2ef18639	1.0983254e-10
7	0x3ea0b3a9	0.3138707
8	0xbed73169	-0.42029884
9	0x3ee290c4	0.44251072
10	0xbe0f5980	-0.13998985
11	0xac35669b	-2.5778605e-12
12	0x3e2422cb	0.16028897
13	0x3e608e0b	0.21929185
14	0x3e50d622	0.20394185
15	0x3e2ef674	0.17086202
16	0xbd7bffac	-0.061523125
17	0x3e2ca500	0.16859818
18	0xbdbbbc72	-0.091668025
19	0xbedee0b7	-0.4353082
20	0xbe0107d4	-0.12600642
21	0x3d96c89b	0.07362481
22	0x3d89b90f	0.0672475
23	0x3bb0bce0	0.0053936094
24	0xbe686557	-0.22694908
25	0xbcb23425	-0.02175338
26	0xbaea0c0a	-0.0017856371
27	0xbeb1954a	-0.3468421
28	0xbe8743e8	-0.26418996
29	0x3e4f6aa6	0.20255527
30	0xbdc9e4d3	-0.09858098
31	0x3b3970f4	0.0028296085
32	0x3da124ef	0.07868373
33	0xbe5c802b	-0.21533267
34	0xbefb8abc	-0.49129283
35	0xbe2cfda0	-0.16893625
36	0xbc4af616	-0.012387773
37	0xbdb4fce8	-0.088373005
38	0x3e46160b	0.19344346
39	0xbedbcb78	-0.42928672
40	0xbe0c21d3	-0.13684778
41	0x34fd2cd5	4.7157542e-07
42	0xbe280009	-0.16406263
43	0xbedce23a	-0.43141347
44	0x3ec61d44	0.38694203
45	0x3de15fdb	0.11004611
46	0x3bd87e38	0.0066068433
47	0xbe5739c4	-0.2101813
48	0x3d9d21fc	0.07672498
49	0xbd987008	-0.07443243
50	0xbe7b4f5d	-0.24541993
51	0x3dde0171	0.10840119
52	0x3ec2d9a4	0.38056672
53	0x3e32308f	0.17401336
54	0x3ec959ab	0.39326224
55	0x3d8cd7e5	0.06877116
56	0x3c6bc3c5	0.014389937
57	0x3ead9614	0.33903563
58	0x3e9164e3	0.28397283
59	0xbebc9064	-0.3682891
60	0xbeae02ce	-0.33986515
61	0x3e328047	0.17431746
62	0x3d94e552	0.07270302
63	0xbe545c9b	-0.20738451
64	0xbefa695f	-0.48908517
65	0xbe79301f	-0.24334763
66	0x3d3dfb0f	0.046382006
67	0xbdfe5ed9	-0.124204345
68	0xbec5c4cd	-0.3862671
69	0x3d6dedfe	0.058088295
70	0xbe16ffeb	-0.14746062
71	0x339e4fa2	7.3719335e-08
72	0xbf03d782	-0.51500714
73	0xbeb79dd7	-0.3586261
74	0x3ed53e5e	0.41649145
75	0x3d039722	0.032126553
76	0x3c70ec00	0.014704704
77	0x3cb5c2d4	0.022187628
78	0xbf06ab20	-0.52604866
79	0xbecdb1fc	-0.40174854
80	0x3dbd262f	0.092357986
81	0xafdb72ce	-3.9917442e-10
82	0x3ee5cd74	0.4488331
83	0xbda2c586	-0.07947831
84	0xbeb2a293	-0.3488966
85	0x3d1e5631	0.038656417
86	0xaec807ca	-9.0963306e-11
87	0xbea4aa9f	-0.32161424
88	0x3dc896e0	0.09794402
89	0x3eb91e0f	0.36155745
90	0x3e445ef2	0.19176844
91	0xae96eb7b	-6.86304e-11
92	0xbe93dd27	-0.28879663
93	0x3e2c0b3d	0.16801162
94	0xbe5b0999	-0.2139038
95	0xbcae31a8	-0.021263912
96	0xbd01d152	-0.031693764
97	0xbdce00d4	-0.10058752
98	0x3c6870c2	0.01418704
99	0xbec200c3	-0.37891206
100	0x3e123a71	0.14280106
101	0x3cc9b071	0.024620267
102	0x3e71465a	0.23561993
103	0xbca073a3	-0.01958639
104	0x3e9419bc	0.28925884
105	0xbd2aeac6	-0.041727804
106	0x2b3fbe92	6.81213e-13
107	0xbeccc3a4	-0.39993012
108	0x3eed1211	0.46302846
109	0xbdbe511a	-0.09292813
110	0x3ced5bfd	0.028974527
111	0xb63d8652	-2.824138e-06
112	0xbe959717	-0.29216835
113	0xbda45b6b	-0.08025249
114	0xbe8feb5b	-0.2810925
115	0xbd84d58d	-0.06486044
116	0xbe1bbe17	-0.15209232
117	0xbedea20f	-0.43483016
118	0xbe125c81	-0.142931
119	0x3eabc0f1	0.3354564
