RTSNet/new_architecture/linear/best-model_linear2x2rq2040T100.pt (torch, 141383 bytes, 70 tensors)

weight_ih_l0 f4 [12, 10]
0.44778866 0.47920766 -0.122132406 0.04546293 -0.21774656 0.39806336 -0.32081097 0.25473225
0.43019432 -0.47127238 -0.2483149 -0.41371724 0.3186198 0.031265993 -0.14872487 -0.28647447
0.12120783 0.21817324 -0.004285962 0.37855986 -0.25723505 0.05580922 0.055875003 0.21714556
0.4212353 0.15228641 -0.42289847 0.085580915 -0.38774878 0.4503243 -0.40994582 0.26350957
-0.46842366 0.18449058 0.016584175 -0.2854409 -0.08567094 -0.3924223 0.27172187 0.016879966
-0.26587862 -0.21102752 0.4314227 0.4758212 -0.1006371 -0.049554545 -0.42696056 0.24712221
-0.45283672 0.32341242 0.36278015 -0.098706834 0.14515574 0.119489804 0.24595241 0.48305976
0.29163748 -0.33649287 0.44840887 0.11771321 -0.20702894 0.14384373 0.043069072 -0.4183548
0.4709105 0.24176587 -0.06312763 0.4082133 0.04768062 0.10729741 0.18283252 0.23736033
0.0779946 -0.43945348 0.32681736 0.1409986 -0.31727353 0.037444822 0.077886045 0.3717216
-0.3291089 0.3568037 0.2621603 0.4231355 0.19934148 -0.15841706 -0.2846012 0.15712601
-0.09240242 0.23035157 0.09661009 -0.015050705 0.3653583 -0.28392303 0.19507873 -0.41957954
0.025777552 -0.4499009 0.33291978 0.44494528 -0.23708878 0.3646577 0.11194514 0.20898767
0.008123373 0.41427553 -0.20421141 -0.4390554 -0.17019497 -0.26342884 0.3602751 -0.1587626
-0.32342565 0.32584956 0.0017868036 -0.435905 0.31932917 -0.08553471 -0.4651684 -0.490601
00000000: 8e44 e53e b55a f53e 8e20 fabd 5637 3a3d
00000010: f4f8 5ebe f6ce cb3e 5641 a4be 446c 823e
00000020: 6e42 dc3e 9d4a f1be 4346 7ebe bfd2 d3be
00000030: 2222 a33e c510 003d 554b 18be c8ac 92be
00000040: d03b f83d ce68 5f3e 4171 8cbb 99d2 c13e
00000050: 50b4 83be 3598 643d 30dd 643d 685b 5e3e
00000060: 27ac d73e f8f0 1b3e 2686 d8be 0c45 af3d
00000070: 0287 c6be e890 e63e 6be4 d1be baea 863e
00000080: 3ad5 efbe 19eb 3c3e 89db 873c 4f25 92be
00000090: 3f74 afbd 93eb c8be 211f 8b3e db47 8a3c
000000a0: 3e21 88be 9917 58be 70e3 dc3e d69e f33e
000000b0: d31a cebd b5f9 4abd 939a dabe 9b0d 7d3e
000000c0: 37da e7be 5096 a53e 52be b93e cf26 cabd
000000d0: b5a3 143e 12b7 f43d f3da 7b3e 9c53 f73e
000000e0: 8251 953e cb48 acbe d995 e53e a013 f13d
000000f0: 65ff 53be c54b 133e 3269 303d 9a32 d6be
00000100: 2e1b f13e 7991 773e 0f49 81bd 5501 d13e
00000110: c14c 433d bfbe db3d 7338 3b3e 960e 733e
00000120: a2bb 9f3d 0c00 e1be 9b54 a73e f061 103e
00000130: ad71 a2be be5f 193d b882 9f3d 4b52 be3e
00000140: f680 a8be f9ae b63e e039 863e 37a5 d83e
00000150: 2c20 4c3e 1538 22be 40b7 91be a4e5 203e
00000160: 7b3d bdbd 48e1 6b3e 83db c53d 3b97 76bc
00000170: 3e10 bb3e 5c5e 91be b8c2 473e 21d3 d6be
00000180: 722b d33c 6959 e6be 7674 aa3e decf e33e
00000190: 67c7 72be 6ab4 ba3e 7e43 e53d dd00 563e
000001a0: e517 053c ec1b d43e cc1c 51be dfcb e0be
000001b0: 9747 2ebe 25e0 86be fa75 b83e aa92 22be
000001c0: 0c98 a5be c1d5 a63e 2e33 ea3a f12e dfbe
000001d0: 1d7f a33e d22c afbd 8d2a eebe 0e30 fbbe

weight_hh_l0 f4 [12, 4]
0.3275937 -0.046988484 0.3373512 -0.21039161 -0.47577608 -0.35998255 0.35185945 -0.31629157
0.4320112 -0.3591275 0.23357171 -0.23627914 0.41862282 -0.03169432 -0.0070076054 0.17732576
-0.10866707 0.2941319 0.039116967 0.062299542 0.28262475 0.41252196 -0.2427201 -0.23863101
-0.19938742 -0.15990448 -0.29608703 -0.0261684 0.022087626 0.17646092 -0.3966502 -0.13056445
-0.32402718 -0.23196326 0.101523556 -0.12541194 -0.2937938 0.2152832 -0.0083266 0.023685226
-0.23273852 0.08263413 -0.21760704 -0.46385634 -0.28409445 -0.45526227 -0.10399873 -0.2924285
00000000: 5dba a73e ff76 40bd 4cb9 ac3e e670 57be
00000010: ec98 f3be a24f b8be ec26 b43e f8f0 a1be
00000020: 9230 dd3e 8fdf b7be 6c2d 6f3e 29f3 71be
00000030: bb55 d63e e7d1 01bd 0ea0 e5bb e294 353e
00000040: d78c debd 7598 963e 1d39 203d ce2d 7f3d
00000050: 31b4 903e 1436 d33e 9e8b 78be b05b 74be
00000060: 372c 4cbe 00be 23be b898 97be 1d5f d6bc
00000070: 1cf1 b43c 2cb2 343e bc15 cbbe b0b2 05be
00000080: e4e6 a5be c787 6dbe 95eb cf3d fd6b 00be
00000090: 246c 96be 3373 5c3e 4b6c 08bc 8507 c23c
000000a0: 0253 6ebe 153c a93d 61d4 5ebe 947e edbe
000000b0: d474 91be 2318 e9be 49fd d4bd 30b9 95be

bias_ih_l0 f4 [12]
-0.15579149 -0.4258773 0.08598405 0.19042702 -0.17117931 -0.21563812 -0.46494678 -0.16058607
-0.22806148 -0.15585563 0.11357582 0.36149028
00000000: ce87 1fbe 970c dabe 6818 b03d 4dff 423e
00000010: a149 2fbe 3dd0 5cbe 810d eebe ad70 24be
00000020: f388 69be 9e98 1fbe 719a e83d 4115 b93e

bias_hh_l0 f4 [12]
0.23140213 0.13497043 -0.10777585 -0.35074067 -0.03193891 0.11744059 0.32503968 -0.22952142
-0.39440495 0.13054912 0.17857023 -0.23635814
00000000: aef4 6c3e b035 0a3e 96b9 dcbd 4894 b3be
00000010: 60d2 02bd b184 f03d 9a6b a63e aa07 6bbe
00000020: 72ef c9be abae 053e 1ddb 363e de07 72be

weight_ih_l0 f4 [12, 14]
-0.08157531 0.20023336 0.41099206 0.18130082 -0.4459025 0.15602422 0.25950396 0.47920674
0.3189197 0.3395942 -0.2068879 0.4582704 0.12490752 -0.4047812 0.29592142 -0.18407641
0.30866668 -0.39699176 0.3560742 -0.32525262 -0.0005077835 -0.13152874 -0.37761548 -0.230326
0.29771 0.00068166933 0.18762273 -0.4089922 -0.12482918 -0.41449067 -0.3631326 -0.2974081
-0.47888488 -0.1558784 -0.37075013 0.30495274 -0.22700901 -0.021975141 -0.029734403 0.124960124
0.01823149 -0.27734274 -0.34517828 0.3697472 0.26971126 -0.32540584 -0.3952546 0.359896
0.11093956 0.28835273 -0.11652825 -0.08460012 0.41354403 0.3184811 -0.09579964 0.23153001
-0.40960374 0.43996677 0.15421449 -0.4397392 -0.108942196 0.45533043 -0.44249362 0.1604969
-0.3470654 -0.3997351 0.3592188 0.16132969 -0.4049965 0.28622082 0.26840815 -0.4203564
0.045928974 -0.06111282 0.4163052 0.14183745 -0.32813674 -0.04788854 0.10294973 -0.45600516
-0.29979 0.00016830141 -0.21257159 0.3143587 0.030929256 -0.07420404 -0.0450614 -0.4370768
0.44358632 -0.1302255 -0.36998484 0.37837753 0.3871605 0.4424858 -0.41560626 -0.44304112
-0.47054726 0.18336682 0.21606378 0.42330757 0.011372283 -0.16978794 -0.10972192 -0.41992852
-0.43205154 -0.11574118 0.49648285 -0.08403175 -0.27739462 -0.20370494 -0.31393832 -0.202927
-0.14984177 0.39274582 -0.25769502 0.05006388 0.033186447 -0.34616712 0.09295237 -0.29951656
0.22677979 0.4364281 0.44425175 -0.11349565 -0.30595684 -0.4225231 0.41624472 0.3984924
-0.4609081 -0.20182303 0.0062125307 -0.23364075 0.41495886 0.05192225 -0.29896918 0.2641959
0.23770146 -0.47056824 0.07339047 -0.03650417 -0.29739106 0.02714272 -0.42411214 0.43644917
-0.27787572 -0.28670704 0.05283617 -0.4924246 0.0724504 -0.39563262 -0.0664496 0.034722712
0.18542127 0.07390116 -0.41854763 -0.3662529 0.18492293 0.24810438 0.2359767 0.070742585
0.39972544 0.024808705 -0.23446415 0.074283406 0.4664412 -0.23352371 0.20734616 0.2046801
00000000: f510 a7bd f909 4d3e 8d6d d23e eca6 393e
00000010: 554d e4be d0c4 1f3e b4dd 843e 965a f53e
00000020: 7149 a33e 4adf ad3e 6cda 53be 6ba2 ea3e
00000030: 84cf ff3d 7b3f cfbe 0383 973e 877e 3cbe
00000040: 8f09 9e3e 8142 cbbe 5c4f b63e 8387 a6be
00000050: c61c 05ba 78af 06be d156 c1be 94da 6bbe
00000060: 726d 983e 0eb2 323a 2c20 403e 6d67 d1be
00000070: 71a6 ffbd 1f38 d4be 84ec b9be e045 98be
00000080: 6630 f5be 969e 1fbe f6d2 bdbe c422 9c3e
00000090: 0d75 68be 3605 b4bc 9095 f3bc 18eb ff3d
000000a0: 355a 953c deff 8dbe 35bb b0be 814f bd3e
000000b0: 9817 8a3e 989b a6be d05e cabe 4a44 b83e
000000c0: 4834 e33d f8a2 933e 5da6 eebd d442 adbd
000000d0: 0bbc d33e f40f a33e 9a32 c4bd 3416 6d3e
000000e0: 95b7 d1be 5343 e13e 67ea 1d3e 7f25 e1be
000000f0: 161d dfbd 1221 e93e 868e e2be 4d59 243e
00000100: 8eb2 b1be 14aa ccbe 87eb b73e 9c33 253e
00000110: b45b cfbe 898b 923e cb6c 893e f438 d7be
00000120: 0520 3c3d 7051 7abd f525 d53e d63d 113e
00000130: 8a01 a8be c626 44bd 4fd7 d23d 8279 e9be
00000140: 137e 99be 117a 3039 5eac 59be a0f3 a03e
00000150: 5a5f fd3c 4af8 97bd 4d92 38bd 88c8 dfbe
00000160: bf1d e33e d559 05be a76e bdbe b3ba c13e
00000170: e739 c63e 808d e23e 58ca d4be 49d6 e2be
00000180: 92eb f0be 83c4 3b3e d33f 5d3e c5bb d83e
00000190: d052 3a3c e4dc 2dbe e3b5 e0bd df00 d7be
000001a0: dc35 ddbe b609 edbd 0033 fe3e d718 acbd
000001b0: ab06 8ebe 0798 50be 86bc a0be 18cc 4fbe
000001c0: 1f70 19be fb15 c93e 9af0 83be c80f 4d3d
000001d0: 83ee 073d d13c b1be d05d be3d 3c5a 99be
000001e0: f638 683e 8173 df3e f774 e33e 6870 e8bd
000001f0: 60a6 9cbe f354 d8be 071e d53e 3207 cc3e
00000200: 25fc ebbe b2aa 4ebe 7c92 cb3b 853f 6fbe
00000210: 7d75 d43e 6dac 543d 7d12 99be af44 873e
00000220: 0368 733e 52ee f0be be4d 963d 6685 15bd
00000230: a443 98be 695a de3c 3a25 d9be 4476 df3e
00000240: ba45 8ebe 44cb 92be bd6a 583d 141f fcbe
00000250: e060 943d 5c90 cabe ba16 88bd 6739 0e3d
00000260: 13df 3d3e 7e59 973d e04b d6be 8085 bbbe
00000270: 705c 3d3e 130f 7e3e e0a3 713e 7de1 903d
00000280: d0a8 cc3e a03b cb3c 5f17 70be e621 983d
00000290: 62d1 ee3e d720 6fbe 8d52 543e a997 513e

weight_hh_l0 f4 [12, 4]
0.3279273 0.31247666 -0.016163867 -0.4498894 0.13602106 0.1168115 -0.47371504 -0.024464112
-0.46089616 0.48485658 0.15723044 0.27241063 0.110111274 0.032128315 0.19380385 -0.018048001
-0.29927906 -0.14442188 0.39219564 0.11672368 -0.14556378 0.22563 -0.1113666 0.114572644
-0.38109827 0.35468408 0.040230747 -0.39952144 0.3182905 -0.015692797 0.08726801 -0.2254314
0.38531876 0.04177217 0.4630351 -0.090583 -0.21088903 -0.30622014 -0.2781381 0.2082819
0.042579804 -0.1370256 -0.2845032 0.029562773 -0.1908624 -0.42897525 0.027692173 0.1318123
00000000: 16e6 a73e f1fc 9f3e 166a 84bc e757 e6be
00000010: 1b49 0b3e de3a ef3d c78a f2be f668 c8bc
00000020: 95fa ebbe 1f3f f83e 0401 213e 6879 8b3e
00000030: 0582 e13d fb98 033d 8474 463e 67d9 93bc
00000040: 1b3b 99be 54e3 13be decd c83e d30c ef3d
00000050: ac0e 15be 8d0b 673e 2c14 e4bd 10a5 ea3d
00000060: 501f c3be 2799 b53e ffc8 243d 138e ccbe
00000070: f9f6 a23e 2e8e 80bc 92b9 b23d 7dd7 66be
00000080: 8048 c53e 4c19 2b3d f012 ed3e 9483 b9bd
00000090: 4bf3 57be e3c8 9cbe 1e68 8ebe da47 553e
000000a0: 2968 2e3d 7050 0cbe 67aa 91be a12d f23c
000000b0: 6f71 43be a5a2 dbbe b2da e23c cef9 063e

bias_ih_l0 f4 [12]
-0.13797215 -0.34706745 0.116522 -0.31272933 -0.36626595 0.13094267 0.17319243 0.158015
0.24205442 0.29355204 -0.026246699 -0.04835401
00000000: 9248 0dbe d3b2 b1be 16a3 ee3d 0f1e a0be
00000010: 3687 bbbe d615 063e 5b59 313e afce 213e
00000020: 1ddd 773e 744c 963e 5103 d7bc db0e 46bd

bias_hh_l0 f4 [12]
0.28189635 -0.13410673 0.041020144 0.16516009 -0.033357117 0.4668708 -0.09931817 -0.10196288
0.3207057 0.11420984 -0.205955 -0.24511491
00000000: b854 903e 4653 09be bd04 283d ba1f 293e
00000010: 79a1 08bd b109 ef3e 5367 cbbd ead1 d0bd
00000020: 8a33 a43e d9e6 e93d dee5 52be 67ff 7abe

weight_ih_l0 f4 [12, 24]
0.41255778 -0.4584866 -0.060915254 0.21070899 -0.25170696 -0.27897495 -0.47230628 -0.30682772
0.038941022 -0.050482303 -0.5024658 -0.38776836 0.067227736 0.4091979 0.43841645 0.16396305
0.0759963 -0.42768276 -0.04871764 -0.004527197 -0.10369918 0.18970858 -0.3284507 0.32908428
-0.2627918 -0.096956484 0.11840266 -0.16660991 -0.15704669 -0.20923604 -0.43165407 -0.47950011
-0.12761545 -0.36410475 0.18204111 -0.33646753 -0.113807924 -0.26222906 0.4989118 0.061621085
0.48699644 0.43199283 0.28380275 -0.21598002 0.09269711 0.3794425 -0.3201043 -0.23086174
-0.050780796 -0.22780454 -0.19081968 -0.062071554 0.32899714 -0.32015318 0.19731049 -0.37708402
-0.3445016 -0.33740193 0.16061881 0.49449328 0.46664163 0.29506356 0.4075248 0.32938457
-0.45045176 0.39973015 0.49485624 0.48033798 -0.0521081 -0.25606972 0.31726798 0.2702958
0.19628043 0.13046542 -0.043108944 0.42500675 -0.3766294 0.16448602 0.2518787 0.4322672
-0.43727985 -0.22249137 -0.4755916 0.36429518 0.09255648 -0.047314644 0.39238656 -0.21097177
0.34256673 -0.18704371 0.17288473 0.36127508 -0.27352 -0.31450015 0.22337058 -0.20218885
0.01573841 -0.29129887 0.43189892 0.02023202 -0.4022391 0.2374618 0.4639727 0.4237211
-0.11336725 -0.35711506 -0.022442635 -0.11635374 -0.1506398 -0.16382214 0.05366948 -0.061147988
-0.41864124 0.1215577 -0.2856417 0.27301535 -0.35393143 -0.47359937 0.09707187 0.25959745
-0.012337362 0.09594931 -0.04989292 -0.32903352 -0.28850502 -0.25955117 -0.058425084 -0.22884841
-0.33277705 -0.31972578 0.33939594 -0.49657723 -0.02908252 -0.3159834 0.14444923 0.42595676
0.026312262 -0.46682876 -0.4967238 -0.21725176 -0.14332868 0.47564694 0.02456884 -0.3541288
0.109552 -0.033108447 -0.28811863 -0.18436098 0.31622574 0.28046477 0.007829336 -0.058475878
-0.2873811 -0.35800952 -0.4244532 -0.36894646 -0.50375515 -0.14975798 0.3482155 -0.13990442
0.31809565 -0.026491255 -0.22120789 0.2553401 0.054272573 -0.25677586 0.069484785 0.31095904
-0.38971767 -0.43784714 -0.23631254 0.07254179 0.48962966 -0.37134734 0.3597582 -0.0415586
-0.42485186 -0.23770319 -0.15331063 -0.42572352 -0.13946298 0.2056219 -0.4918371 -0.25704888
-0.18437561 0.16510694 0.21940202 0.17392488 0.07770102 0.08120456 -0.37694123 0.4121841
-0.06372517 -0.49428827 -0.39152822 0.2810566 -0.22874181 0.39116827 0.0839252 0.08318827
-0.1701068 0.48530018 -0.22139059 -0.11266208 -0.05506206 0.32067928 -0.13726455 0.2840273
0.30450785 0.006633158 -0.1502631 -0.059329964 0.31924054 0.4661727 0.016893331 -0.46121046
-0.3783205 0.37718114 -0.25111642 -0.035736952 -0.1789198 -0.30683863 0.33452922 -0.3417132
-0.2632982 -0.079700164 -0.047497507 -0.3319124 0.35220307 0.4274054 0.28324425 0.056154955
-0.03222409 -0.34442717 -0.047368474 0.35495907 0.008024503 0.42251474 0.24242446 0.046093125
0.073545195 0.46112323 -0.24156854 0.30111855 -0.13654041 -0.29040575 -0.19484165 -0.33576795
-0.3390235 -0.26270315 0.094525866 0.103512846 0.27783203 0.10825426 -0.31465 0.08157327
00000000: c63a d33e c1be eabe 4682 79bd 19c4 573e
00000010: bcdf 80be ced5 8ebe 21d2 f1be 8618 9dbe
00000020: 9f80 1f3d 88c6 4ebd 99a1 00bf 9389 c6be
00000030: b2ae 893d 6382 d13e 1f78 e03e eee5 273e
00000040: f3a3 9b3d 3cf9 dabe 268c 47bd e258 94bb
00000050: 3c60 d4bd f742 423e b12a a8be bc7d a83e
00000060: a68c 86be 1f91 c6bd 187d f23d ca9b 2abe
00000070: d9d0 20be f941 56be c301 ddbe 0a81 f5be
00000080: a0ad 02be f06b babe fc68 3a3e 7945 acbe
00000090: 2114 e9bd e342 86be 5e71 ff3e 6466 7c3d
000000a0: 9957 f93e 2a2e dd3e 984e 913e de29 5dbe
000000b0: fbd7 bd3d 4a46 c23e b6e4 a3be 0567 6cbe
000000c0: 86ff 4fbd 9845 69be 3c66 43be be3e 7ebd
000000d0: 5072 a83e 1eeb a3be c30b 4a3e 2811 c1be
000000e0: 8462 b0be f2bf acbe 4279 243e 392e fd3e
000000f0: a7eb ee3e 9212 973e 17a7 d03e 18a5 a83e
00000100: 9da1 e6be 6ea9 cc3e cc5d fd3e dcee f53e
00000110: 4e6f 55bd 921b 83be f370 a23e 3664 8a3e
00000120: bdfd 483e ba98 053e 0193 30bd 7c9a d93e
00000130: 92d5 c0be 066f 283e 3ff6 803e 2052 dd3e
00000140: 25e3 dfbe c7d4 63be be80 f3be e684 ba3e
00000150: 408e bd3d 00cd 41bd e4e6 c83e fc08 58be
00000160: e864 af3e 6388 3fbe b208 313e 0cf9 b83e
00000170: d00a 8cbe 2a06 a1be 42bb 643e 980a 4fbe
00000180: d7ed 803c 2025 95be db21 dd3e 9fbd a53c
00000190: 49f2 cdbe 3029 733e d48d ed3e f9f1 d83e
000001a0: 172d e8bd c9d7 b6be 9ed9 b7bc df4a eebd
000001b0: 5241 1abe fec0 27be 87d4 5b3d 5076 7abd
000001c0: 2558 d6be 3ef3 f83d a13f 92be abc8 8b3e
000001d0: 8036 b5be 9e7b f2be 9ecd c63d f5e9 843e
000001e0: a622 4abc 1281 c43d 855c 4cbd 1577 a8be
000001f0: eeb6 93be e4e3 84be 244f 6fbd 3d57 6abe
00000200: c161 aabe 19b3 a3be 4ec5 ad3e 5f3f febe
00000210: 773e eebc 94c8 a1be 80ea 133e 0117 da3e
00000220: d08c d73c 2e04 efbe 9552 febe 3f77 5ebe
00000230: c1c4 12be ff87 f33e 9844 c93c 5f50 b5be
00000240: cd5c e03d b99c 07bd 4984 93be 20c9 3cbe
00000250: 57e8 a13e 1499 8f3e 9e46 003c 6784 6fbd
00000260: 9e23 93be 064d b7be ee51 d9be 8de6 bcbe
00000270: 19f6 00bf 285a 19be 4d49 b23e 1b43 0fbe
00000280: 6fdd a23e 3004 d9bc 5284 62be f0bb 823e
00000290: eb4c 5e3d 2078 83be 0a4e 8e3d 0636 9f3e
000002a0: 1389 c7be 802d e0be eafb 71be ca90 943d
000002b0: bdb0 fa3e 3d21 bebe 3a32 b83e 5a39 2abd
000002c0: 2f86 d9be 7768 73be 76fd 1cbe 6ff8 d9be
000002d0: 62cf 0ebe 8c8e 523e 13d2 fbbe e99b 83be
000002e0: f6cc 3cbe cb11 293e ecaa 603e 5d19 323e
000002f0: b621 9f3d 944e a63d 71fe c0be cb09 d33e
00000300: 5882 82bd 5a13 fdbe 6376 c8be a7e6 8f3e
00000310: 4b3b 6abe 3547 c83e fae0 ab3d 9d5e aa3d
00000320: 7a30 2ebe 4479 f83e 37b4 62be 60bb e6bd
00000330: c188 61bd 1330 a43e 148f 0cbe 076c 913e
00000340: 74e8 9b3e f65a d93b 92de 19be fa03 73bd
00000350: 7f73 a33e 30ae ee3e e263 8a3c c723 ecbe
00000360: 39b3 c1be e31d c13e 5592 80be e960 12bd
00000370: c136 37be f419 9dbe 6a47 ab3e 08f5 aebe
00000380: 06cf 86be d739 a3bd bf8c 42bd 6cf0 a9be
00000390: f653 b43e e1d4 da3e 6405 913e bd02 663d
000003a0: 68fd 03bd c258 b0be 7205 42bd 32bd b53e
000003b0: 3479 033c da53 d83e 1e3e 783e 25cc 3c3d
000003c0: dd9e 963d 5818 ec3e be5d 77be 362c 9a3e
000003d0: 40d1 0bbe 10b0 94be 9284 47be c7e9 abbe
000003e0: 7d94 adbe 0781 86be c796 c13d 8bfe d33d
000003f0: 0040 8e3e 69b4 dd3d ce19 a1be e30f a73d

weight_hh_l0 f4 [12, 4]
0.20592535 0.026236316 -0.24033427 -0.30549473 -0.21406244 -0.33826408 0.36709154 0.14439906
-0.21177562 -0.15313688 0.40634507 -0.48007312 -0.0069278707 0.18985309 0.063151 -0.006018334
-0.13995562 0.2830066 -0.1776344 -0.081130244 -0.47173718 0.06352953 -0.02435859 -0.4639078
0.06099056 0.28245974 0.15334186 0.13797005 -0.4734688 -0.055415366 -0.20052561 -0.03738755
0.028501013 -0.35584122 0.108333245 0.3758175 -0.4903369 -0.20628545 -0.3479811 -0.13401334
0.042989187 0.14306848 0.22060427 0.093095124 0.03927733 0.38525838 0.43795696 -0.21485065
00000000: 18de 523e 8bed d63c 301a 76be ce69 9cbe
00000010: 2f33 5bbe f330 adbe 6cf3 bb3e 59dd 133e
00000020: b5db 58be eacf 1cbe 760c d03e 25cc f5be
00000030: 3103 e3bb d968 423e 5055 813d 7235 c5bb
00000040: 8750 0fbe 3ee6 903e cbe5 35be 9d27 a6bd
00000050: 8987 f1be c51b 823d aa8b c7bc 5385 edbe
00000060: 3dd1 793d 909e 903e a605 1d3e 0548 0d3e
00000070: 816a f2be 39fb 62bd 9656 4dbe b023 19bd
00000080: f57a e93c d230 b6be d2dd dd3d 276b c03e
00000090: 700d fbbe 7e3c 53be 942a b2be cb3a 09be
000000a0: 6e15 303d 8b80 123e 16e6 613e a8a8 be3d
000000b0: 44e1 203d 9640 c53e e53b e03e cf01 5cbe

bias_ih_l0 f4 [12]
0.02421198 -0.04980946 0.36305246 0.06842918 -0.22000574 -0.35647285 0.17436261 0.022540743
0.35613713 -0.09932599 -0.2459501 -0.004298876
00000000: 3458 c63c 0105 4cbd 03e2 b93e 9924 8c3d
00000010: 2f49 61be 9c83 b6be 1d8c 323e 5da7 b83c
00000020: 9b57 b63e 6d6b cbbd 58da 7bbe 96dd 8cbb

bias_hh_l0 f4 [12]
-0.136612 -0.016146338 -0.19712818 0.13103004 0.38650575 0.078812785 -0.47691724 0.2579164
0.2776594 -0.46743202 0.30347672 0.04478991
00000000: 04e4 0bbe 5345 84bc f8db 49be bd2c 063e
00000010: 15e4 c53e 9968 a13d 7f2e f4be 9e0d 843e
00000020: 5f29 8e3e 4053 efbe 4d61 9b3e a075 373d

weight f4 [4, 4]
0.13250515 -0.2881327 -0.04419095 0.25446743 -0.44416165 0.1382557 0.12631668 0.35196546
-0.015721831 -0.010082472 0.05117603 -0.22569631 -0.37194344 -0.13731234 -0.24421638 0.25722176
00000000: 6eaf 073e 2186 93be 9201 35bd 8e49 823e
00000010: 2869 e3be e792 0d3e 2959 013e d134 b43e
00000020: 12cb 80bc f430 25bc f59d 513d ef1c 67be
00000030: 5f6f bebe 9b9b 0cbe dc13 7abe 92b2 833e

bias f4 [4]
0.43587628 0.48840925 -0.47400633 -0.42275047
00000000: 2d2b df3e c710 fa3e f5b0 f2be c072 d8be

weight f4 [320, 8]
0.2529417 -0.046657383 -0.07408689 -0.34532556 0.14602171 0.3011159 0.17077637 0.26302254
-0.1333639 -0.11652395 0.16558973 0.1499625 -0.19803655 -0.23444404 -0.27705547 0.35092014
0.16559659 0.032148324 -0.31935966 0.24927947 -0.32525524 -0.28620586 -0.104915746 -0.30822173
0.32323945 -0.053562567 0.14690855 0.026847856 0.22782594 -0.092436835 -0.21431306 -0.18134102
0.058308516 0.30095908 -0.30015102 0.3141897 -0.15882945 -0.28111517 0.2976522 0.11826589
0.096217476 0.29245386 0.2239453 0.2620472 0.174013 0.34194276 -0.23953056 -0.24410635
0.122568816 -0.3161425 0.08154989 -0.15389374 0.06267198 -0.106972955 0.18332133 0.040334865
0.1568243 0.094819054 -0.082698576 0.31175268 0.09360503 0.04161169 -0.15473309 0.017368665
0.049896233 -0.18595128 -0.05966384 0.25402883 0.13378711 -0.03482203 0.3327221 0.32247815
0.090946324 -0.21835694 -0.06948984 -0.15468423 0.08825613 0.06083637 -0.04482614 -0.040766045
0.006838572 -0.12998934 0.059626408 0.121762015 -0.08459984 -0.07241257 -0.32908368 0.0310014
0.068177596 -0.25326434 -0.29213434 -0.27492768 -0.04703168 -0.21920292 -0.27165145 -0.17624204
-0.33732367 0.33254945 -0.2848541 -0.23307052 0.034044806 -0.16520399 -0.27916104 0.3027916
-0.054127757 -0.2655228 0.34774017 0.07647593 -0.116977826 0.18426016 -0.16962925 -0.20575993
-0.07099451 -0.13561463 -0.09811829 0.006524284 0.018076016 -0.093458824 0.06944547 0.34654698
-0.08415891 0.27390078 0.15442787 0.024686081 0.054338988 -0.09003329 0.021627398 0.0023829953
-0.17400876 0.0787051 0.019162854 -0.23892955 0.27091038 -0.18953921 -0.2195218 0.25637847
0.2831271 0.19836473 -0.15090863 -0.1899923 0.19240324 -0.18557498 -0.31046888 0.21806814
0.015117616 -0.27535093 0.2814354 -0.26601246 0.10782791 0.2803433 0.15728998 -0.11133164
0.115332544 -0.2408563 0.23396759 0.073241435 0.21154583 -0.21567479 0.18374647 0.21551092
-0.01625756 -0.011432484 0.32186827 0.03945344 0.029426659 0.10305044 -0.0803564 0.26141825
0.109662876 0.05243699 -0.23847435 -0.0007962985 -0.30973876 -0.057116054 0.036965836 0.13910413
-0.010178984 -0.2612517 -0.18276832 0.12472277 0.25102818 -0.14215112 -0.060838673 0.26185915
-0.24965647 -0.33541778 0.089783974 0.24632601 0.30271912 0.24396245 -0.17584422 -0.17128608
-0.19493163 0.12762654 0.24532469 0.28936833 0.1407458 0.14893939 -0.095199116 0.25851977
0.3193762 0.32823634 -0.24134484 0.07353164 0.00044284144 -0.12631747 -0.30958307 -0.22050472
0.11398043 -0.2980845 0.22254574 -0.32076958 -0.029010886 -0.079969004 -0.20135911 0.13447163
-0.07035683 -0.34512404 -0.08846363 0.33949655 -0.13570203 0.06513094 0.20482385 0.052553665
-0.2641788 -0.08765409 -0.25008917 0.2687844 0.31572175 -0.19074555 -0.29186887 -0.17242949
0.2507972 0.31284806 0.28082612 0.12188742 -0.13025469 0.023507273 0.08170479 0.10437578
-0.17957224 0.0423784 0.21271124 -0.12930852 0.32817906 -0.041590728 0.16044931 -0.26388234
-0.0741458 -0.03625897 -0.12690248 0.2795463 -0.28790647 -0.22763442 -0.28999728 0.17929307
00000000: 9381 813e d01b 3fbd deba 97bd 83ce b0be
00000010: b786 153e dd2b 9a3e 00e0 2e3e e4aa 863e
00000020: 8c90 08be 1ca4 eebd 5b90 293e c58f 193e
00000030: 18ca 4abe 1912 70be 37da 8dbe ceab b33e
00000040: 2792 293e f6ad 033d 1c83 a3be 1e43 7f3e
00000050: db87 a6be 9389 92be 11de d6bd 3dcf 9dbe
00000060: a47f a53e 6c64 5bbd 326f 163e 09f0 db3c
00000070: 344b 693e 864f bdbd e274 5bbe 76b1 39be
00000080: e9d4 6e3d 4f17 9a3e 65ad 99be 79dd a03e
00000090: 30a4 22be 54ee 8fbe df65 983e 6335 f23d
000000a0: ab0d c53d 83bc 953e eb51 653e 0d2b 863e
000000b0: 7730 323e 1f13 af3e 8047 75be 04f7 79be
000000c0: 5c05 fb3d 6edd a1be a103 a73d 5296 1dbe
000000d0: 2b5a 803d a314 dbbd 96b8 3b3e 2c36 253d
000000e0: 8d96 203e 7e30 c23d df5d a9bd 0c9e 9f3e
000000f0: feb3 bf3d 0571 2a3d 5a72 1ebe bb48 8e3c
00000100: fe5f 4c3d 036a 3ebe 1262 74bd 1110 823e
00000110: 7dff 083e 8ca1 0ebd 8d5a aa3e db1b a53e
00000120: 1142 ba3d f698 5fbe b050 8ebd 8b65 1ebe
00000130: a1bf b43d 8f2f 793d 9d9b 37bd 4cfa 26bd
00000140: 1a16 e03b ed1b 05be d23a 743d 5d5e f93d
00000150: ae42 adbd 0b4d 94bd a87d a8be a6f6 fd3c
00000160: b2a0 8b3d ddab 81be a292 95be 52c3 8cbe
00000170: 4aa4 40bd bb76 60be e615 8bbe cb78 34be
00000180: b0b5 acbe ec43 aa3e 66d8 91be 0aaa 6ebe
00000190: 9172 0b3d 3c2b 29be 32ee 8ebe 8007 9b3e
000001a0: 11b5 5dbd 9bf2 87be 000b b23e 6a9f 9c3d
000001b0: 1292 efbd b2ae 3c3e 4ab3 2dbe bbb2 52be
000001c0: 9265 91bd 90de 0abe 3ef2 c8bd a9c9 d53b
000001d0: 2714 943c 5767 bfbd 6d39 8e3d 9b6e b13e
000001e0: 825b acbd b93c 8c3e 5722 1e3e 773a ca3c
000001f0: 8f92 5e3d 6063 b8bd f12b b13c 072c 1c3b
00000200: 5a2f 32be 2430 a13d 6bfb 9c3c f3a9 74be
00000210: c4b4 8a3e 9116 42be 53ca 60be 0a44 833e
00000220: 09f6 903e 2020 4b3e cb87 1abe 578d 42be
00000230: 5b05 453e 5e07 3ebe c7f5 9ebe 414d 5f3e
00000240: e1af 773c ccfa 8cbe 4d18 903e c932 88be
00000250: e1d4 dc3d 2889 8f3e a010 213e d801 e4bd
00000260: 7833 ec3d 09a3 76be 3395 6f3e 9bff 953d
00000270: 789f 583e dad9 5cbe 0928 3c3e e5ae 5c3e
00000280: 932e 85bc 504f 3bbc ebcb a43e ee99 213d
00000290: 2d10 f13c 1c0c d33d e591 a4bd 9dd8 853e
000002a0: ee96 e03d 2bc8 563d 9f32 74be b0be 50ba
000002b0: 1496 9ebe 86f2 69bd 7d69 173d 5071 0e3e
000002c0: c1c5 26bc c8c2 85be 9e27 3bbe a76e ff3d
000002d0: c486 803e 1090 11be f931 79bd 6712 863e
000002e0: f2a5 7fbe e1bb abbe a9e0 b73d e33c 7c3e
000002f0: 00fe 9a3e 4bd1 793e 8210 34be 9e65 2fbe
00000300: 289c 47be 88b0 023e 6536 7b3e 1628 943e
00000310: ab1f 103e 9183 183e c1f7 c2bd b45c 843e
00000320: 4785 a33e 980e a83e 1a23 77be c297 963d
00000330: 2c2d e839 5e59 01be ac81 9ebe fdcb 61be
00000340: 926e e93d 889e 98be 08e3 633e e93b a4be
00000350: 3da8 edbc cac6 a3bd 1531 4ebe eeb2 093e
00000360: 3e17 90bd 19b4 b0be 6b2c b5bd 7ed2 ad3e
00000370: 79f5 0abe 5f63 853d 58bd 513e 8342 573d
00000380: 7242 87be fd83 b3bd b00b 80be 1c9e 893e
00000390: 48a6 a13e cd52 43be d66f 95be 5b91 30be
000003a0: 7e68 803e 9f2d a03e 71c8 8f3e 1da0 f93d
000003b0: 7c61 05be 5392 c03c d754 a73d f8c2 d53d
000003c0: c9e1 37be f994 2d3d fad0 593e 7469 04be
000003d0: 1607 a83e 0a5b 2abd d34c 243e 961b 87be
000003e0: c1d9 97bd 4984 14bd b9f2 01be b120 8f3e
000003f0: 7a68 93be ff18 69be 867a 94be 9a98 373e

bias f4 [320]
0.113500684 -0.14365387 -0.06930375 0.16253604 -0.08006526 -0.060205236 0.3066955 -0.28507215
0.13898748 0.15223345 -0.28872886 0.1528404 0.26152658 0.24963549 -0.006651188 -0.0997437
0.34532738 -0.21305488 0.057149194 0.18843302 0.16015281 -0.00292317 -0.28252316 0.1727617
-0.06014718 0.20843716 -0.0955911 0.26024887 -0.34315413 -0.24682915 -0.19103868 0.16991915
0.16246954 0.26073948 -0.22607063 -0.21517816 0.3122368 -0.102895506 0.26888025 -0.0008758075
0.1590138 -0.028421551 0.17992523 -0.31397694 0.032119777 -0.33219832 -0.042884875 -0.3356824
-0.064288996 -0.119500004 -0.16287439 -0.05690064 0.15985848 0.28362837 -0.15714054 0.22782476
-0.116687715 0.0728625 0.060411252 0.24273908 -0.17798461 0.2725041 -0.036191028 0.21068189
0.06326903 -0.14803652 0.2883265 -0.020083778 -0.025527231 -0.1716206 -0.29466364 -0.04084747
-0.17205049 -0.027049819 0.3426992 0.33593416 0.20497966 0.10252017 -0.14195052 0.22679178
-0.1337521 0.02147038 0.11568111 0.3341799 0.2842428 0.35184616 -0.049700145 0.04985137
0.28857785 -0.31371984 -0.28397 -0.28896943 -0.022658838 -0.28116903 -0.27342817 0.31486046
-0.31659907 -0.12062528 -0.31216636 -0.23907052 -0.12878352 -0.18876024 0.058572937 -0.1662214
0.06959741 0.095903605 -0.041687112 -0.027886547 0.103427395 0.15646161 0.17135455 0.16127865
0.31915724 -0.27746117 0.0475269 -0.058857303 0.3412418 -0.20574424 0.22143541 -0.0031437422
0.14510715 0.08178048 0.08753539 -0.15804042 0.08020357 -0.16042234 -0.0053374292 -0.1766024
-0.18394212 -0.049440708 0.14563897 0.24780071 -0.113324344 -0.28193116 -0.14544216 -0.30377162
0.119228296 0.34641483 0.106967084 -0.2240767 0.31808892 0.043020304 -0.27280027 -0.29857957
0.27630448 0.20308392 -0.32867056 -0.07055504 -0.045640342 0.2280992 0.109467596 0.079713285
-0.15351248 -0.2051204 0.049058713 0.2873611 -0.07532694 -0.10619021 -0.0122174295 0.2717616
-0.051591415 0.20337619 0.30974287 -0.030392094 -0.17850225 0.32472333 0.33438236 0.12609205
-0.17288254 -0.241616 0.25065744 0.14992952 -0.19583689 0.044414088 -0.12433434 0.2923531
0.110182285 0.21692377 0.09814461 0.11265268 -0.17668276 0.15038767 -0.31084603 -0.055808194
-0.3301295 -0.20858036 0.29218295 0.06779446 -0.10332933 -0.13429402 0.063111804 -0.09055553
0.3547611 -0.023694575 0.15378644 -0.0010922899 -0.27069914 -0.15397495 0.09971995 -0.23748197
-0.32163766 -0.22219022 0.2812463 -0.10839191 -0.011469211 0.12804255 -0.14721352 0.21841004
0.15315078 0.2064339 -0.022092793 -0.12226977 -0.13065425 -0.06337098 -0.058455553 -0.13502906
-0.3333157 0.034442894 -0.21206121 -0.32206002 0.11757435 0.10355663 0.1505418 0.020452172
-0.17994829 -0.14858355 0.29584306 -3.9397273e-06 0.28619623 0.13739318 -0.17207152 0.22714654
0.14627852 0.10049013 0.33014336 -0.0014474429 -0.03676325 -0.29777983 -0.25816262 0.13294333
0.113512844 0.13702121 0.20334324 0.35131282 -0.2376561 0.15214533 -0.024435323 0.12932697
0.35364333 0.084659755 0.11941002 -0.0480195 0.2090948 0.08409936 0.28561676 -0.2297647
00000000: 0c73 e83d 001a 13be 20ef 8dbd d96f 263e
00000010: 41f9 a3bd c499 76bd 3107 9d3e faf4 91be
00000020: bc52 0e3e 16e3 1b3e 45d4 93be 3282 1c3e
00000030: d0e6 853e 72a0 7f3e 35f2 d9bb 6d46 ccbd
00000040: c0ce b03e 0f2b 5abe 4615 6a3d 96f4 403e
00000050: 19ff 233e a892 3fbb e0a6 90be 71e8 303e
00000060: e45c 76bd 8d70 553e 44c5 c3bd 573f 853e
00000070: e6b1 afbe c8c0 7cbe a59f 43be 49ff 2d3e
00000080: 6a5e 263e a57f 853e 0f7f 67be aa57 5cbe
00000090: 80dd 9f3e e1ba d2bd acaa 893e 7296 65ba
000000a0: 83d4 223e 50d4 e8bc 523e 383e 96c1 a0be
000000b0: 0790 033d e615 aabe 0da8 2fbd 90de abbe
000000c0: f3a9 83bd 6bbc f4bd 8bc8 26be a510 69bd
000000d0: f1b1 233e bd37 913e 73e9 20be e54a 693e
000000e0: f8f9 eebd ef38 953d ca71 773d 9890 783e
000000f0: 9941 36be a885 8b3e 0b3d 14bd febc 573e
00000100: 3193 813d e396 17be 889f 933e bc86 a4bc
00000110: 7c1e d1bc 50bd 2fbe 27de 96be ad4f 27bd
00000120: 012e 30be 9597 ddbc 4576 af3e 90ff ab3e
00000130: 30e6 513e 18f6 d13d 7a5b 11be 1b3c 683e
00000140: 4ff6 08be a6e2 af3c 38ea ec3d a119 ab3e
00000150: 4688 913e 2e25 b43e 6192 4bbd f330 4c3d
00000160: 7ac0 933e e39f a0be 8464 91be cdf3 93be
00000170: 079f b9bc 63f5 8fbe c7fe 8bbe 6435 a13e
00000180: 4619 a2be 630a f7bd 45d4 9fbe e7ce 74be
00000190: d4df 03be 5d4a 41be 2dea 6f3d f135 2abe
000001a0: 1689 8e3d 1c69 c43d 1bc0 2abd 5472 e4bc
000001b0: bed1 d33d 7937 203e 9177 2f3e 3b26 253e
000001c0: 9468 a33e 640f 8ebe 91ab 423d 5b14 71bd
000001d0: 3fb7 ae3e 9eae 52be f7bf 623e 3e07 4ebb
000001e0: f896 143e 867c a73d c145 b33d 59d5 21be
000001f0: c541 a43d c145 24be 9ae5 aebb 42d7 34be
00000200: 535b 3cbe 5782 4abd 6222 153e 78bf 7d3e
00000210: 9816 e8bd 4859 90be caee 14be f487 9bbe
00000220: f72d f43d 495d b13e 8f11 db3d 5d74 65be
00000230: 8ddc a23e 0f36 303d 7aac 8bbe 6cdf 98be
00000240: c877 8d3e 3bf5 4f3e 8247 a8be 297f 90bd
00000250: 5ef1 3abd d692 693e 8c30 e03d b840 a33d
00000260: 6032 1dbe 150b 52be caf1 483d fe20 933e
00000270: 0345 9abd 417a d9bd 9d2b 48bc 5624 8b3e
00000280: 8551 53bd d941 503e 9e96 9e3e d7f8 f8bc
00000290: 4bc9 36be 2342 a63e 2a34 ab3e 461e 013e
000002a0: 1f08 31be 2f6a 77be 2c56 803e 2087 193e
000002b0: 7789 48be 8ceb 353d 01a3 febd 4eaf 953e
000002c0: 40a7 e13d 4421 5e3e 0b00 c93d 73b6 e63d
000002d0: 53ec 34be 3aff 193e 3627 9fbe 2297 64bd
000002e0: bc06 a9be 1796 55be 0199 953e d2d7 8a3d
000002f0: 549e d3bd 5f84 09be c340 813d 2d75 b9bd
00000300: 3fa3 b53e 201b c2bc 317a 1d3e 2b2b 8fba
00000310: 1499 8abe 9cab 1dbe f939 cc3d 792e 73be
00000320: b1ad a4be d585 63be 84ff 8f3e 94fc ddbd
00000330: 5ce9 3bbc 961d 033e 24bf 16be e2a6 5f3e
00000340: 8fd3 1c3e 6963 533e f2fb b4bc 9368 fabd
00000350: 3aca 05be a5c8 81bd 176f 6fbd 0f45 0abe
00000360: 5ba8 aabe fe13 0d3d 9326 59be 0de5 a4be
00000370: d2ca f03d 8015 d43d a127 1a3e 508b a73c
00000380: 5d44 38be 4926 18be be78 973e 0032 84b6
00000390: 5088 923e ccb0 0c3e 8433 30be 1a99 683e
000003a0: 09ca 153e c5cd cd3d 8d08 a93e 20b8 bdba
000003b0: 1095 16bd 9976 98be e42d 84be 4c22 083e
000003c0: 6c79 e83d 4a4f 0c3e 3639 503e 46df b33e
000003d0: 1f5c 73be fccb 1b3e 962c c8bc 4a6e 043e
000003e0: bd10 b53e 1862 ad3d 3e8d f43d 18b0 44bd
000003f0: f21c 563e 493c ac3d 5c3c 923e 7047 6bbe

weight f4 [4, 320]
-0.0102109965 -0.032014146 0.040239494 -0.010689345 -0.00695747 0.03690915 0.008625084 0.02741656
0.0005245674 -0.03315152 -0.008182078 -0.043890834 0.024962256 0.026290093 0.0021324113 0.011956395
-0.010326679 0.04430783 0.015476763 0.01207373 0.004892953 0.024653388 0.00037506674 -0.039949283
0.0050024064 0.022227455 0.004521815 0.040111404 0.036131866 0.02415193 0.0011750221 0.02649826
-0.01888641 -0.046067555 0.011210963 -0.034812972 0.02810808 -0.037529007 0.022109682 0.014951728
-0.041563332 -0.035529017 -0.022706253 0.0019740148 -0.045502454 0.012532304 0.036923982 0.00029093417
0.022949679 0.035298064 0.025888504 0.009010806 -0.03256328 -0.019293427 -0.021608884 0.04530166
-0.0048861643 0.06383275 0.05319896 -0.021997284 0.013656366 0.006568642 -0.027146267 0.024930945
0.042850703 0.029815188 -0.011085425 0.04931051 -0.00024418207 -0.00029592816 0.018571377 -0.039854843
0.007070755 0.01324564 -0.008310718 -0.043453746 0.0015402997 0.036330763 -0.032119285 0.023941059
0.033036664 0.0040382612 -0.029665764 -0.036772795 0.04383416 0.051196758 -0.0265589 0.061465345
0.011218268 0.023840554 0.030749252 -0.034223292 0.020067975 -0.048538934 -0.0050130743 0.055904135
-0.020065434 -0.010416375 0.013167483 0.0027276955 -0.00978892 0.02096337 -0.032977242 -0.03906595
-0.035879146 -0.03046412 0.002048311 0.015188634 -0.028108701 0.054321103 0.008853621 0.0020212035
0.03541717 -0.03329726 -0.018804923 0.00786731 -2.4287496e-05 -0.020837618 -0.018058602 -0.0012821896
-0.032413792 0.03940069 0.04283676 -0.0018909003 0.054228287 -0.023063602 0.032298606 -0.02500912
0.0020425334 0.0015157437 0.012352008 0.014304547 0.00922432 -0.025906157 0.040982824 -0.02854674
0.034806088 0.009848109 -0.007966895 -0.0046201353 -0.021712359 -0.037934694 -0.006474522 0.012832361
0.0029308104 -0.03379369 0.010105577 -0.0011331169 -0.00074949535 -0.029493297 0.062633954 0.021670826
-0.021975538 0.039885696 0.02573655 -0.04271219 -0.04610986 8.5088635e-05 -0.030729095 -0.03484776
-0.026730526 -0.012186106 0.023024138 0.065181784 0.000945933 -0.034130637 0.015948294 0.063355595
-0.0013499302 -0.02785573 0.027435841 0.019975614 -0.032506473 0.051391646 0.008297899 0.05412222
-0.013150557 -0.010491659 0.03608542 -0.022391278 -0.013151921 0.05573429 -0.03623802 -0.039099757
-0.023609722 0.005992822 0.016901677 -0.0021407472 -0.042710263 0.010745964 -0.011758329 -0.018066606
0.063257255 0.034553282 0.060330685 -0.032940093 -0.039758828 0.0051868814 0.004777399 -0.00048647018
-0.0009953722 0.008825163 0.032571524 0.028173078 0.020513792 -0.00024255713 -0.00043314783 0.06331212
0.043604348 0.0025591096 0.0040809284 0.0012438545 0.0013690009 -0.03970551 -0.013177461 0.015431161
-0.028613152 0.028514119 0.022513319 0.041741062 0.05059772 -0.018293358 0.058612704 0.011906861
-0.009219001 0.00469209 0.054938063 -0.0019437326 -0.019798461 0.04493163 0.036802426 0.021157414
-0.022829691 0.054333586 0.058256123 0.03975257 -0.008552162 0.044925343 -0.01107778 -0.012512453
0.040969945 0.03219248 0.0027673983 -0.020512892 -0.0032106626 0.064714156 -0.02547765 0.008231123
0.03985451 0.01728074 0.008519749 0.0019573395 -0.03841844 0.041692164 0.056941453 -0.016540587
00000000: 064c 27bc 4421 03bd 2bd2 243d 5d22 2fbc
00000010: 7dfb e3bb 0d2e 173d 3950 0d3c b298 e03c
00000020: 1f83 093a e3c9 07bd 1f0e 06bc e0c6 33bd
00000030: a57d cc3c 525e d73c edbf 0b3b c1e4 433c
00000040: 3b31 29bc 217c 353d 4092 7d3c e5d0 453c
00000050: 1155 a03b e7f5 c93c 9ba4 c439 dca1 23bd
00000060: 3aeb a33b 5a16 b63c bc2b 943b db4b 243d
00000070: 02ff 133d 45da c53c 3303 9a3a e112 d93c
00000080: acb7 9abc 55b1 3cbd 30ae 373c 0c98 0ebd
00000090: eb42 e63c 04b8 19bd 5d1f b53c 18f8 743c
000000a0: 503e 2abd e086 11bd 7702 babc 795e 013b
000000b0: c860 3abd 4b54 4d3c 9a3d 173d 8688 9839
000000c0: f700 bc3c b494 103d 2114 d43c 0fa2 133c
000000d0: 1361 05bd 400d 9ebc 1d05 b1bc 3c8e 393d
000000e0: 1e1c a0bb bfba 823d 27e7 593d a633 b4bc
000000f0: f3be 5f3c c33d d73b d961 debc fb3b cc3c
00000100: 3884 2f3d fb3e f43c a49f 35bc d1f9 493d
00000110: 9005 80b9 ce26 9bb9 0023 983c d53e 23bd
00000120: cbb1 e73b 3e04 593c ae29 08bc 8efc 31bd
00000130: e2e3 c93a 91cf 143d 838f 03bd 0a20 c43c
00000140: 7451 073d 6453 843b 9e05 f3bc 129f 16bd
00000150: 738b 333d b1b3 513d 0d92 d9bc 16c3 7b3d
00000160: d4cc 373c 444d c33c dbe5 fb3c b92d 0cbd
00000170: 9865 a43c c3d0 46bd b744 a4bb bcfb 643d
00000180: 4460 a4bc 71a9 2abc 6dbc 573c 23c3 323b
00000190: b561 20bc 60bb ab3c 2513 07bd 9e03 20bd
000001a0: 03f6 12bd e48f f9bc f53c 063b c0d9 783c
000001b0: 3844 e6bc ce7f 5e3d c70e 113c 2b76 043b
000001c0: 9811 113d b562 08bd c80c 9abc e4e5 003c
000001d0: 00bd cbb7 a7b3 aabc a2ef 93bc 250f a8ba
000001e0: 53c4 04bd 9e62 213d 9975 2f3d 16d8 f7ba
000001f0: 7b1e 5e3d e1ef bcbc 8b4b 043d eddf ccbc
00000200: 06dc 053b ebab c63a 1460 4a3c 9e5d 6a3c
00000210: 9a21 173c 2639 d4bc 9bdd 273d dada e9bc
00000220: d490 0e3d f759 213c 9487 02bc 8164 97bb
00000230: 1ede b1bc 6961 1bbd 3a28 d4bb d33e 523c
00000240: d712 403b 416b 0abd dd91 253c 1885 94ba
00000250: c879 44ba ed9b f1bc 3b46 803d 0487 b13c
00000260: 0b06 b4bc 2f5f 233d 75d5 d23c faf2 2ebd
00000270: b1dd 3cbd 9d71 b238 95bb fbbc 86bc 0ebd
00000280: faf9 dabc 3ca8 47bc 1e9d bc3c 077e 853d
00000290: 7df8 773a 91cc 0bbd ffa5 823c 94c0 813d
000002a0: 24f0 b0ba b331 e4bc 21c1 e03c e6a3 a33c
000002b0: 8225 05bd 0c80 523d e9f3 073c 43af 5d3d
000002c0: 6f75 57bc 35e5 2bbc 4ece 133d ea6d b7bc
000002d0: 287b 57bc a449 643d 516e 14bd 1127 20bd
000002e0: 2d69 c1bc 6f5f c43b 6375 8a3c c74b 0cbb
000002f0: f5f0 2ebd d70f 303c 02a6 40bc 6b00 94bc
00000300: 058d 813d be87 0d3d 4f1d 773d 31ec 06bd
00000310: 27da 22bd b7f6 a93b ba8b 9c3b ec0c ffb9
00000320: 2677 82ba 6b97 103c b869 053d 3acb e63c
00000330: 8a0c a83c ef56 7eb9 1e18 e3b9 c9a9 813d
00000340: 799a 323d bcb6 273b 4fb9 853b d508 a33a
00000350: 0c70 b33a 3fa2 22bd 47e6 57bc fbd2 7c3c
00000360: 2166 eabc 7196 e93c da6d b83c adf8 2a3d
00000370: 8e3f 4f3d f4db 95bc e013 703d ff14 433c
00000380: 4b0b 17bc 1bc0 993b bc06 613d d8c4 feba
00000390: 6230 a2bc 3b0a 383d 24be 163d 5052 ad3c
000003a0: 5505 bbbc e58c 5e3d f99d 6e3d 97d3 223d
000003b0: 5e1e 0cbc a303 383d 947f 35bc 0801 4dbc
000003c0: 1ad0 273d 43dc 033d 3d5d 353b a70a a8bc
000003d0: fb69 52bb db88 843d 81b6 d0bc d5db 063c
000003e0: 7c3e 233d 5790 8d3c 6b96 0b3c b546 003b
000003f0: a75c 1dbd 67c5 2a3d 713b 693d 2080 87bc

bias f4 [4]
-0.021379912 -0.047557604 0.048527215 -0.041092977
00000000: ed24 afbc c3cb 42bd 79c4 463d 1c51 28bd

weight f4 [4, 8]
0.19413522 -0.31377262 0.33310324 0.11542316 0.016997717 -0.030987814 -0.11419361 0.25934073
-0.25722188 0.11801102 -0.34309417 0.18141982 0.042967692 -0.108424135 0.1443693 0.12139841
-0.23003653 -0.06215477 -0.14278929 0.090671435 -0.06619644 0.2147511 0.25771055 -0.3335764
-0.29416105 0.11000779 -0.3135463 -0.32435673 -0.0006529097 0.14259331 0.14159302 0.039104387
00000000: 62cb 463e cea6 a0be 828c aa3e fa62 ec3d
00000010: cc3e 8b3c 28da fdbc 57de e9bd 4fc8 843e
00000020: 96b2 83be c3af f13d 0aaa afbe 1ec6 393e
00000030: e4fe 2f3d 790d debd 8cd5 133e bb9f f83d
00000040: b28e 6bbe 0096 7ebd 5b37 12be f2b1 b93d
00000050: 0092 87bd b6e7 5b3e a3f2 833e 87ca aabe
00000060: 479c 96be c44b e13d 2489 a0be 1612 a6be
00000070: 0728 2bba fb03 123e c3fd 103e ec2b 203d

bias f4 [4]
-0.00947977 0.13486046 -0.025078658 -0.05466873
00000000: 0a51 1bbc dc18 0a3e c271 cdbc 51ec 5fbd

weight f4 [4, 8]
0.0012819478 -0.0077169663 -0.11131826 -0.30564773 -0.29865614 -0.2544821 -0.25753346 0.24588823
0.15422492 -0.10432868 0.10057312 0.15209717 -0.255012 -0.2526794 -0.3089822 0.122705914
0.33249313 0.047919992 -0.24873698 0.24076699 -0.32685265 0.24388333 -0.11765231 -0.20630187
-0.27748355 0.074991845 -0.2955698 0.1986288 0.1778396 -0.1691577 0.12817596 0.20397185
00000000: 0807 a83a 9bde fcbb d4fa e3bd dc7d 9cbe
00000010: 75e9 98be 7a4b 82be 6ddb 83be 20ca 7b3e
00000020: 23ed 1d3e 46aa d5bd 48f9 cd3d 5cbf 1b3e
00000030: ef90 82be 325f 81be ea32 9ebe 3d4d fb3d
00000040: 8a3c aa3e c147 443d e8b4 7ebe 9f8b 763e
00000050: 3b59 a7be 8dbc 793e b2f3 f0bd cc40 53be
00000060: 5312 8ebe 5395 993d ed54 97be 5965 4b3e
00000070: 961b 363e ad37 2dbe 8f40 033e ffdd 503e

bias f4 [4]
-0.0859478 -0.07296161 0.08717311 -0.22117223
00000000: 6605 b0bd e66c 95bd d187 b23d f97a 62be

weight f4 [10, 2]
0.59364116 0.48276836 0.52053046 0.52942234 0.02188334 0.15217799 0.3522793 -0.0859935
-0.68963665 -0.12377441 -0.25586012 -0.7124353 0.6983511 -0.30031437 -0.5076807 -0.26825804
0.0674859 -0.19612443 0.25547472 0.07311724
00000000: def8 173f 6a2d f73e 7c41 053f 3988 073f
00000010: b144 b33c 8cd4 1b3e f45d b43e 5c1d b0bd
00000020: 078c 30bf 707d fdbd 1900 83be 2962 36bf
00000030: 23c7 323f cec2 99be 5df7 01bf 1e59 89be
00000040: 0c36 8a3d d8d4 48be 95cd 823e 7ebe 953d

bias f4 [10]
-0.10386488 0.61814845 0.3896475 -0.47860953 -0.356761 -0.53543884 0.39086094 0.38897815
0.6826588 -0.062015146
00000000: 1cb7 d4bd fa3e 1e3f e17f c73e 4f0c f5be
00000010: 61a9 b6be 8512 09bf ed1e c83e 2528 c73e
00000020: bac2 2e3f 9803 7ebd

weight f4 [10, 2]
0.4200687 0.050127476 0.11446193 -0.36760783 0.11731041 -0.4668746 0.6876267 -0.21297349
-0.1356321 -0.44343543 -0.26637715 -0.29347372 -0.5249311 -0.21333061 -0.0043787584 0.261833
0.47398698 -0.3993416 -0.5057093 0.5522075
00000000: 3f13 d73e 7852 4d3d 046b ea3d 1837 bcbe
00000010: 7140 f03d 300a efbe 4e08 303f b915 5abe
00000020: 24e3 0abe f809 e3be 9662 88be 3042 96be
00000030: e261 06bf 5773 5abe b07b 8fbb fa0e 863e
00000040: 6cae f23e 8176 ccbe 2a76 01bf 795d 0d3f

bias f4 [10]
-0.6324052 -0.47490796 -0.46003178 -0.27102956 0.036963392 -0.06273294 -0.6204809 -0.52506024
-0.12561868 -0.33812225
00000000: 4fe5 21bf 2327 f3be 4989 ebbe 63c4 8abe
00000010: ed66 173d 217a 80bd d6d7 1ebf 596a 06bf
00000020: 2fa2 00be 5c1e adbe

weight f4 [20, 4]
0.053725872 0.4775351 -0.19661847 -0.4815495 -0.0788838 -0.28700712 0.440028 -0.25597426
-0.3183807 -0.0016347235 0.174129 -0.44300216 -0.0049182237 -0.36594272 -0.11624291 -0.123024225
0.32826847 0.11280576 0.25292757 0.38817415 -0.16866751 0.17828321 0.21103469 0.42715767
-0.043261494 0.08848614 0.16605993 0.01200619 -0.47825658 -0.3083029 -0.09294354 -0.27585542
0.35299706 0.25695395 0.249185 0.2351762 0.43871766 0.28010848 -0.37613508 -0.44528446
0.441416 0.25242576 -0.43798167 -0.4686555 -0.2053841 -0.4912096 -0.06698698 -0.103737414
-0.24078086 -0.29308498 -0.4901702 -0.09293004 0.22108184 -0.17708327 0.09601694 0.43545
0.14900921 -0.2582992 -0.48179665 0.37773034 -0.37272632 -0.18124884 0.3572472 0.027947225
-0.2937428 0.36875752 0.08456324 0.19514623 -0.2496176 0.15245514 -0.20028259 -0.24292693
-0.0071680495 -0.43761235 0.46645153 0.2439599 -0.18456428 0.17551424 0.5003558 0.08739323
00000000: a90f 5c3d 7b7f f43e 5a56 49be a88d f6be
00000010: d48d a1bd 99f2 92be 5a4b e13e 0f0f 83be
00000020: cc02 a3be 3844 d6ba df4e 323e 2ed1 e2be
00000030: 0d29 a1bb d85c bbbe c310 eebd 20f4 fbbd
00000040: ce12 a83e b506 e73d b97f 813e c3be c63e
00000050: 2db7 2cbe e08f 363e 7a19 583e 69b4 da3e
00000060: f732 31bd 3938 b53d 9d0b 2a3e 9cb5 443c
00000070: 0cde f4be e1d9 9dbe 2f59 bebd ec3c 8dbe
00000080: 08bc b43e 788f 833e 5a2a 7f3e 08d2 703e
00000090: 9a9f e03e 616a 8f3e c794 c0be 53fc e3be
000000a0: 4701 e23e f33d 813e 223f e0be 9df3 efbe
000000b0: 3650 52be d37f fbbe 7830 89bd 4874 d4bd
000000c0: 428f 76be 3c0f 96be 97f7 fabe 1b52 bebd
000000d0: 4763 623e 5155 35be 88a4 c43d 4df3 de3e
000000e0: df95 183e cb3f 84be 0dae f6be df65 c13e
000000f0: fcd5 bebe 4c99 39be 1be9 b63e 94f1 e43c
00000100: 7565 96be c9cd bc3e 7e2f ad3d 6ad4 473e
00000110: c29b 7fbe 331d 1c3e e116 4dbe d6c1 78be
00000120: f5e1 eabb ba0e e0be bcd2 ee3e a0d0 793e
00000130: 6bfe 3cbe 01ba 333e 5117 003f 39fb b23d

bias f4 [20]
0.03598989 0.390338 0.14003119 0.35508907 -0.3786816 -0.06009744 0.04070743 0.32614043
-0.48217636 0.064180784 -0.4814551 -0.40557188 -0.43928102 0.22819862 0.04730928 0.3817092
-0.010304823 -0.12688534 0.08526424 0.2243007
00000000: 236a 133d 62da c73e 5664 0f3e 3cce b53e
00000010: 8ee2 c1be bc28 76bd d6bc 263d e1fb a63e
00000020: d2df f6be 3771 833d 4881 f6be 1ea7 cfbe
00000030: 71e9 e0be e6ac 693e 60c7 413d 636f c33e
00000040: 8fd5 28bc 3bee 01be 059f ae3d 15af 653e

weight_ih_l0 f4 [12, 10]
-0.324511 -0.14024791 0.17086655 0.08210491 0.0033226155 0.16668838 -0.0689219 0.098267324
-0.18141219 -0.16564463 0.17637944 -0.30476883 0.44886068 0.42860818 -0.14559756 0.44642934
0.1831743 -0.25767958 -0.31287006 0.33420616 -0.21923882 -0.4512178 0.2216333 0.104026586
-0.25191712 -0.022982197 -0.41725785 -0.061631717 0.39990842 -0.19664747 -0.037132837 -0.38290903
-0.29738182 -0.20118922 0.041644454 0.10708854 0.2872749 -0.19254978 -0.48008436 -0.16415574
0.24264756 0.2046528 0.41419113 -0.40087798 -0.15022011 0.3602927 0.29599532 0.32688302
-0.12268766 -0.3530404 0.07508576 -0.3722052 -0.2489205 -0.3810275 -0.4482619 -0.3867548
0.37681362 0.103207074 0.04229538 0.22963163 -0.11207122 -0.31434032 -0.0016274869 -0.04668914
0.22749336 0.3578169 0.14738132 0.2715684 -0.22508124 0.4571805 0.141643 -0.3833211
-0.42138982 0.35436985 -0.03532034 -0.0001344838 -0.05017992 -0.03336584 0.07941544 -0.007155932
-0.1815056 0.11531816 -0.08098216 -0.39079282 -0.41522273 0.10954805 0.102804035 -0.034496833
0.13501398 0.49254698 0.49402276 -0.37342077 -0.11284247 -0.26101762 0.29313317 -0.0340018
-0.029515615 0.07799667 0.12042685 -0.2822311 0.42468363 -0.40533707 0.086640745 0.06132444
-0.19247141 -0.3624961 0.1350766 0.3374675 0.47984862 0.010417754 0.4774071 0.09630796
0.18272375 0.307887 0.43250343 0.09940965 0.25962526 0.43966055 0.11604772 -0.48910385
00000000: 4e26 a6be 269d 0fbe a4f7 2e3e 9e26 a83d
00000010: 3dc0 593b 5cb0 2a3e ed26 8dbd 6140 c93d
00000020: 1ec4 39be bf9e 29be d09c 343e a90a 9cbe
00000030: 11d1 e53e 8872 db3e 8717 15be 6392 e43e
00000040: 0b92 3b3e 94ee 83be 8130 a0be 121d ab3e
00000050: 2480 60be 0506 e7be d7f3 623e e40b d53d
00000060: 48fb 80be 2945 bcbc d2a2 d5be 8a71 7cbd
00000070: ccc0 cc3e f45d 49be 9a18 18bd a70c c4be
00000080: 6e42 98be 8c04 4ebe 6093 2a3d 3d51 db3d
00000090: b215 933e c52b 45be 9ecd f5be 7118 28be
000000a0: 9a78 783e 8190 513e dc10 d43e e13f cdbe
000000b0: 4dd3 19be 4978 b83e b38c 973e 365d a73e
000000c0: ab43 fbbd b6c1 b4be 90c6 993d ae91 bebe
000000d0: 04e5 7ebe 0916 c3be 9582 e5be ba04 c6be
000000e0: b7ed c03e 3b5e d33d ec3d 2d3d 8e24 6b3e
000000f0: 9985 e5bd 37f1 a0be 6651 d5ba 1d3d 3fbd
00000100: 05f4 683e c733 b73e 21eb 163e 030b 8b3e
00000110: b27b 66be 9013 ea3e dd0a 113e aa42 c4be
00000120: 68c0 d7be f76f b53e 10ac 10bd 3804 0db9
00000130: 7689 4dbd 9eaa 08bd 90a4 a23d 4f7c eabb
00000140: 9bdc 39be ed2b ec3d fad9 a5bd ff15 c8be
00000150: 1398 d4be ba5a e03d ec8a d23d 8d4c 0dbd
00000160: 1b41 0a3e 1e2f fc3e 8df0 fc3e 0231 bfbe
00000170: f419 e7bd 1aa4 85be 8d15 963e 7945 0bbd
00000180: bbca f1bc b8bc 9f3d 5aa2 f63d 9880 90be
00000190: 2270 d93e 5788 cfbe b470 b13d 562f 7b3d
000001a0: 3a17 45be 1799 b9be 8551 0a3e 8ac8 ac3e
000001b0: b8ae f53e 3aaf 2a3c b46e f43e 1c3d c53d
000001c0: ef1b 3b3e 5da3 9d3e 1771 dd3e 4997 cb3d
000001d0: 9aed 843e 301b e13e 6daa ed3d d26b fabe

weight_hh_l0 f4 [12, 4]
-0.3746803 0.00917028 -0.22982065 0.31483108 -0.44972372 -0.3982797 0.19871487 0.41224208
-0.46317178 0.24162479 -0.16074342 -0.47898972 0.19934033 -0.03304935 0.30200732 -0.19177954
-0.27510983 -0.27979895 -0.09051447 0.20962031 -0.42791936 -0.15113567 -0.36065722 0.3068907
-0.20302483 0.4665953 0.4828669 0.4767586 -0.29422867 0.1994966 -0.47366792 -0.06647983
0.40708968 0.39854223 0.2820979 0.33056623 -0.24224372 -0.08168471 0.38419637 0.17629826
0.36702234 0.4907667 -0.41504607 -0.28094593 -0.13729602 0.32222602 0.38448575 0.03549769
00000000: 19d6 bfbe f13e 163c 1b56 6bbe 8a31 a13e
00000010: 3042 e6be 51eb cbbe e97b 4b3e 6511 d33e
00000020: da24 edbe 7d6c 773e ec99 24be 243e f5be
00000030: df1f 4c3e c15e 07bd b4a0 9a3e db61 44be
00000040: 32db 8cbe cf41 8fbe a75f b9bd b5a6 563e
00000050: 3f18 dbbe 4fc3 1abe 10a8 b8be c720 9d3e
00000060: bee5 4fbe 94e5 ee3e 553a f73e b419 f43e
00000070: 24a5 96be d648 4c3e 9a84 f2be 9426 88bd
00000080: 0f6e d03e ba0d cc3e 236f 903e fa3f a93e
00000090: bd0e 78be 504a a7bd 63b5 c43e 8887 343e
000000a0: 5aea bb3e c645 fb3e eb80 d4be 25d8 8fbe
000000b0: 5497 0cbe cffa a43e 51db c43e 0766 113d

bias_ih_l0 f4 [12]
0.42532632 -0.38257596 0.31636626 -0.31510615 0.32663575 0.3840694 0.3122752 -0.16081238
0.13355443 -0.117235154 -0.060437083 -0.46646857
00000000: 5fc4 d93e ffe0 c3be c2fa a13e 9855 a1be
00000010: cd3c a73e bfa4 c43e 89e2 9f3e 00ac 24be
00000020: 7ec2 083e fc18 f0bd e08c 77bd f8d4 eebe

bias_hh_l0 f4 [12]
0.2369398 0.33546907 0.026306573 -0.49873626 -0.14546758 -0.11400465 -0.47145134 -0.1759919
0.27481145 -0.45450082 -0.026918424 -0.15514229
00000000: 59a0 723e 9ac2 ab3e e280 d73c 5c5a ffbe
00000010: 74f5 14be 457b e9bd 1262 f1be 3837 34be
00000020: 16b4 8c3e 55b4 e8be 0784 dcbc 9fdd 1ebe
