RTSNet/new_architecture/linear/best-model_linear2x2rq1030T100.pt (torch, 139828 bytes, 70 tensors)

weight_ih_l0 f4 [12, 10]
00000000: 1240 fabe 13ac a03a 9ca3 923e ad61 e03e
00000010: 7a57 96be d420 b8bd 8303 c3bb c9c7 9c3d
00000020: 8ab7 1ebe 6417 acbe 49e2 f73e b2fe 39be
00000030: 529e dcbd b453 b23d 5eff b23e fa1e c6bd
00000040: d2af fc3e d642 dfbe e371 0b3e 0df9 8c3e
00000050: 35bc 163c 0697 c43c d757 e0be 5883 3d3e
00000060: 859a 9f3e 59c6 d7bd 90e8 0dbe af26 b23e
00000070: a81c 973e 2bf8 8b3e 1339 aabe 3ee6 06bc
00000080: 1b94 c7be b991 8cbe 4226 7cbe b77e 8d3e
00000090: 4417 c7be d777 00bf 545b 983c 74cf 4abe
000000a0: dd3e e6be 0560 31be ba65 d03e 8ff4 cc3e
000000b0: 62c4 7ebe 5026 0c3e c54c 89be 2108 c2be
000000c0: 7e2f 52be f9d1 ee3e 4ce6 d33d 4c48 ea3d
000000d0: 13aa 913d ef93 8c3e 9c0b 113e 3cbf c4be
000000e0: 0118 cabe b87b e83e e06c 743e 8bdb 6e3e
000000f0: 3ab3 843e 2605 c03e 2cde de3d 8d49 1dbe
00000100: 4511 813e 3cfa b4bd c2fc 87bc ff8a cbbc
00000110: 4276 783e 2334 80be 3548 d23e 35b6 fa3c
00000120: d050 8fbe 989a 5a3d 345b 05be fb0d 993e
00000130: 04ef ddbe 2bee e0be 8336 e3bc 6eca 923d
00000140: 6494 d73d 279d fbbe b5af cabe 88df 80be
00000150: 02e5 8bbe 4878 debe 250f 09be 3e4b 9cbe
00000160: 8ef2 d1be 5886 80bd 6d17 b63e ecee cf3e
00000170: 7f8b d2be 485a 443e 8529 81be cbac f33e
00000180: c71b 90be 294f 8a3e 554c a63e 3b38 57be
00000190: 5755 9fbd 311a b8bd d081 ebbe faa0 433e
000001a0: cb49 6dbe 4d98 b1be c0c6 923e 9370 4f3e
000001b0: b656 b5be f908 8dbe 1ad6 693e c133 943e
000001c0: 7bf3 06bd 2edc 9d3d fce9 afbe 39f2 ab3e
000001d0: 69ff 91be 32ee 8d3e 4266 a6be 3a49 1a3e
-0.48877007 0.0012258313 0.2864045 0.4382452 -0.29363614 -0.089906365 -0.0059513464 0.076552935
-0.15499702 -0.33611596 0.4841483 -0.18163565 -0.10772385 0.08707371 0.34960455 -0.09673877
0.4935289 -0.4360568 0.13617663 0.2753376 0.0092001455 0.023997795 -0.43817016 0.18507135
0.31172577 -0.10535879 -0.13858247 0.34795138 0.2951405 0.27337775 -0.3324667 -0.008233605
-0.38980183 -0.27454928 -0.24623969 0.27635738 -0.38884938 -0.5018286 0.018598236 -0.198057
-0.44969836 -0.17321785 0.4070261 0.40030333 -0.24879602 0.1368649 -0.26816383 -0.37896827
-0.2052593 0.4664457 0.1034666 0.11439571 0.07112517 0.27456614 0.14164585 -0.3842715
-0.3947144 0.4540689 0.23869658 0.23325936 0.2591799 0.37503928 0.1088222 -0.15360089
0.25208488 -0.08836791 -0.016600017 -0.024846552 0.24263862 -0.25039777 0.41070715 0.030604461
-0.27991343 0.05337009 -0.13023072 0.2989348 -0.43346417 -0.43931708 -0.027735954 0.07167517
0.1052635 -0.49143335 -0.3958718 -0.2517054 -0.27323157 -0.43451142 -0.13384683 -0.30526155
-0.41005367 -0.06275624 0.35564747 0.4061197 -0.41122052 0.19175065 -0.2522699 0.47592768
-0.28146192 0.2701352 0.32480112 -0.21017544 -0.07779949 -0.089893706 -0.45997477 0.19104376
-0.23172681 -0.3468651 0.2866726 0.20257787 -0.35417718 -0.27545908 0.2283558 0.28945735
-0.032947045 0.077080116 -0.34358203 0.3358324 -0.28515175 0.2772079 -0.32499892 0.15066996

weight_hh_l0 f4 [12, 4]
00000000: 57f2 5f3e eb86 b63e 5af8 223e 3ff5 8dbe
00000010: 7f17 fb3e f449 18be 42f1 1ebe 3584 9ebe
00000020: c358 bfbe 9e42 a33e dd88 693e c19b 713e
00000030: ff9d f23e 80a2 b7be ec62 463e 06fc a43e
00000040: 7856 ed3d 8988 84bd 2efa afbe 355a 95be
00000050: 6ed6 98be 4420 29be ce93 cebe dcc2 81be
00000060: 3522 333d 28c5 e0be 9bd5 b9be 5e2d 20bd
00000070: 15fe e33c 34e0 dcbd 7c24 80be 7551 ffbe
00000080: 4787 b3be c832 ae3e eb73 963e 4342 babe
00000090: e90a d43e d833 ef3e 4f3d b2be cacd 8f3e
000000a0: 7c89 e5be a06b cd3e 2709 f53e 4180 be3e
000000b0: a77d 00bf 34f9 a43e d4c0 fc3e 2243 f5be
0.21869789 0.3564981 0.15915051 -0.2772617 0.49041364 -0.14871961 -0.1552172 -0.3096024
-0.37372407 0.31886762 0.22806115 0.23594572 0.47386166 -0.35866165 0.19373673 0.3222353
0.11588758 -0.064713545 -0.3437056 -0.29170385 -0.29851097 -0.16516215 -0.4034714 -0.25343978
0.043733794 -0.43900418 -0.3629578 -0.039105766 0.027831117 -0.10784951 -0.25027835 -0.49866834
-0.35064146 0.34023118 0.29385313 -0.3637868 0.41414574 0.4671924 -0.348124 0.28086692
-0.44831455 0.40121174 0.47858545 0.37207225 -0.5019173 0.32221377 0.49365866 -0.4790278

bias_ih_l0 f4 [12]
00000000: d307 cf3c 652e 493e 3af0 f3bd 0869 ce3e
00000010: 1943 dbbe 24d1 6dbd f63c d03d 18d8 e9be
00000020: 676e 773e a0b1 afbe 5843 f53a cc56 a83e
0.025272286 0.19646604 -0.11911054 0.40314507 -0.4282463 -0.05806078 0.101678774 -0.4567268
0.24163209 -0.34315205 0.0018712087 0.3287872

bias_hh_l0 f4 [12]
00000000: 0c6c 503c 1088 a23e dae4 e03b 729f a5be
00000010: 0abd a5be cef9 dcbd e450 fcbe a53d b4be
00000020: c9b6 553e 46bf d4be cdac ae3e 929d fcbe
0.012721073 0.31744432 0.0068632187 -0.3234821 -0.32370788 -0.10789834 -0.49280465 -0.3520328
0.20870508 -0.4155218 0.34116212 -0.49338967

weight_ih_l0 f4 [12, 14]
00000000: 96c2 e53e 7a47 403e fb79 fb3e ec68 8abe
00000010: c246 d53e b87e 283e b1e9 4d3e ca42 143e
00000020: f3d0 a5be 4fa4 f53e 07e8 d13e 9866 e3be
00000030: d09c de3e ec8b 2e3e 9c78 bcbe 2d70 70bc
00000040: cd10 b4be c146 343e e670 db3e 59ef d43e
00000050: 7595 febd f332 8dbe b924 9d3e 20f4 9b3c
00000060: ebc2 6f3e c690 a03e 155c 1cbc 64c8 cebe
00000070: cc12 f7be 0b34 153e 6872 9cbe 5155 83be
00000080: edb4 833e 97dd a1be 62d5 3bbe f3f8 89bd
00000090: edb8 e5be a5b1 e2be e968 cf3e 866a 3abe
000000a0: 3cc6 e5be d5cd 563e ed1c 1dbe a9cb a13e
000000b0: 69f5 6cbe 30b8 04be d57a e63e 90a0 f0be
000000c0: eb9c cebe 06b2 edbe 6541 813e 773f 923e
000000d0: e7fa f1bd 03c7 c0be 69cb 783e b3da afbd
000000e0: b72b bd3d b38b 23be 639f 0e3e b41d 8ebd
000000f0: 5bde cc3d 98ef 213e fc67 903e f51b febd
00000100: 6592 25bc 58ce 31be 5fd4 843d 5115 cd3e
00000110: 3f85 e23e 4671 3b3e a360 4a3e 1021 6cbd
00000120: 3eb5 a23e 7705 f6be 17a4 7a3e c20c e2be
00000130: 975c c93e 8d06 333d c28c 5ebc 7bc5 e6be
00000140: b42e 20be f500 a8bd 3773 e63e a29d 1c3e
00000150: d273 993c 078b 8dbd 8e48 fdbe eafa 0fbe
00000160: 5ae8 5dbb d611 63be e2ff 443e 5bfb 1cbe
00000170: 139c 25be bc92 f23e fe54 dbbd e7d0 96be
00000180: 515b 393e 9632 693a cf21 6abd 8107 f5be
00000190: ca82 083e 79f9 793e 07b8 163c 7e58 5f3e
000001a0: 7206 afbd b62d 98be 6a6e a9be 8e47 bcbe
000001b0: 0f75 cbbe 2ee8 b2be 7ab7 cdbe 1061 b23e
000001c0: 32f4 d9be 9b8c b93e 6ee0 10be 7a3c b83e
000001d0: d3a9 bd3e 1312 90bc 3e96 a4be 4765 d23e
000001e0: 7e36 fa3e 630a e8be 7ef8 b6be 1476 353e
000001f0: 3b96 723c ab2d 58be 7cf5 ae3e e923 35bc
00000200: e20e e43e db57 633e f6bc 11bb 2c32 973e
00000210: 4bcd 70be 6b68 ccbe a72b 7abb c4eb 41bd
00000220: 0a28 3abd 6c6b bb3d c65e edbd 7d07 f9be
00000230: 2cdd e9be 33ed e33e b738 c63e 4de8 4fbe
00000240: 14b4 19be b343 7b3e 1045 f53e 5dea 583d
00000250: 3b07 9d3e dc56 d43e cc16 9a3e f181 90be
00000260: 96af a53e 9622 e0be 733b 643e cf98 803d
00000270: 78d3 a33e 7423 ea3d 6331 93bd 693e f2be
00000280: 0773 92be 5a1f 843e cb10 493d 8271 d7bd
00000290: b8b7 66be 32ad 103e 743e 58be c684 84bd
0.4487502 0.18777266 0.491165 -0.27033174 0.41655546 0.1645459 0.20108677 0.14478603
-0.32385978 0.4797692 0.40997335 -0.4441421 0.43479013 0.17045563 -0.36810768 -0.014675182
-0.35169068 0.17605115 0.42859572 0.41588858 -0.124308504 -0.27577934 0.3069208 0.019037306
0.23414199 0.31360453 -0.009543438 -0.4038726 -0.48256528 0.14570634 -0.30556035 -0.2565103
0.25723973 -0.31614372 -0.18343118 -0.067369364 -0.4486765 -0.44276157 0.40509728 -0.18204698
-0.44877803 0.20976956 -0.15343066 0.31600693 -0.23140492 -0.12960887 0.45015588 -0.469975
-0.40354094 -0.46424884 0.25245205 0.28564045 -0.11815434 -0.37651834 0.24296345 -0.085866354
0.092368536 -0.1597126 0.13927989 -0.06939259 0.100033484 0.15814054 0.28204334 -0.12407676
-0.010105704 -0.1736387 0.06485819 0.40055326 0.44242284 0.18304929 0.19763426 -0.05764872
0.31778902 -0.48051044 0.24476658 -0.44150358 0.39328453 0.04370742 -0.013583364 -0.4507254
-0.15642816 -0.082033075 0.45009777 0.15294507 0.018731985 -0.06911283 -0.49469417 -0.1406056
-0.0033860416 -0.22174773 0.19238237 -0.1533026 -0.16172819 0.47377574 -0.1070957 -0.29456255
0.1810124 0.00088957825 -0.05716115 -0.47857288 0.13331142 0.24411573 0.009199149 0.21811101
-0.08546151 -0.29722375 -0.33092052 -0.36773342 -0.39737746 -0.34942764 -0.40179044 0.34839678
-0.4256912 0.36240086 -0.14148113 0.3598364 0.37043628 -0.017586743 -0.32145876 0.41092893
0.488697 -0.45320424 -0.3573646 0.17720824 0.014806326 -0.21111171 0.34171665 -0.011055925
0.44542605 0.22201483 -0.0022237874 0.29530466 -0.23515813 -0.39923415 -0.0038172991 -0.047343984
-0.04544834 0.091513485 -0.11590342 -0.48638526 -0.45676553 0.44516906 0.38715145 -0.2030346
-0.150101 0.24537544 0.47904253 0.05295788 0.3066958 0.41472518 0.30095518 -0.28224137
0.32360524 -0.43776387 0.22288303 0.06279146 0.31997275 0.114325434 -0.07187154 -0.4731324
-0.28603384 0.2580517 0.04908828 -0.10519697 -0.2253102 0.14128569 -0.21117574 -0.06470637

weight_hh_l0 f4 [12, 4]
00000000: 72a6 00bf 310e 25bd c00d cfbd 28ce 55be
00000010: 524a 8bbe 7b28 be3e f42d f3bb 2c88 063e
00000020: b6be 49be 87fa c4be 62a9 20be 4442 c4ba
00000030: 23ee 053d 0141 b4be 301d 6f3e 3d02 8dbe
00000040: bac9 8f3d dabf acbe 9736 fa3e fb02 c2be
00000050: d31e c0be 685c 463d 848f abbe fa05 adbe
00000060: f776 14be e5db d7be 9b9d ef3e a518 83be
00000070: e4a4 e0bc feb3 ab3d 1fe8 18be ea03 f73d
00000080: 3024 dfbe 87ca a73e f871 ec3e 92b2 7c3d
00000090: c4f5 4bbe 1d31 cf3d df65 69be f732 7ebe
000000a0: 64cf 9a3d 2d9b cebc 90c1 b9be 146a d5bd
000000b0: f52b bdbd 77a6 333e 4a1e bc3e b955 79be
-0.50253975 -0.040296737 -0.101100445 -0.20879424 -0.2720514 0.3714026 -0.0074212495 0.13137883
-0.19701657 -0.38472387 -0.15689614 -0.0014973362 0.032697808 -0.35205844 0.23350978 -0.2754077
0.07020898 -0.3374012 0.48869774 -0.378929 -0.37523517 0.04842797 -0.3350793 -0.33793622
-0.14498506 -0.42159954 0.4679993 -0.2560474 -0.027422376 0.0838394 -0.14932297 0.120612934
-0.43582296 0.32771704 0.461807 0.061693735 -0.19917971 0.101167895 -0.22792767 -0.24824129
0.07559088 -0.025220478 -0.3628049 -0.104206234 -0.092369 0.1754397 0.3674186 -0.24349107

bias_ih_l0 f4 [12]
00000000: 82a1 043e 8ea2 fabe 24c6 65bd 807f 1ebe
00000010: 5fba 05be 2801 06be 4528 10be 12dd c8bd
00000020: b691 dabd f87b cbbe 04e5 103d c03e 453e
0.12952235 -0.48952144 -0.056097165 -0.15478325 -0.13059376 -0.13086379 -0.14077862 -0.09807791
-0.106723234 -0.39743018 0.035374656 0.19262218

bias_hh_l0 f4 [12]
00000000: 495c da3d 2067 a33c 4e73 f33e cc24 55be
00000010: 94a0 d4be adb9 d3be 59d4 cabc ec5c 0cbe
00000020: aa1e 833c 4aef 39bc 9515 823e 4173 f2be
0.10662133 0.019946635 0.47548908 -0.20814818 -0.4152876 -0.41352597 -0.024759458 -0.13707322
0.016005833 -0.011348555 0.2540709 -0.47353557

weight_ih_l0 f4 [12, 24]
00000000: e6fb 10bb f7bf 81be c63c a53e 5c2b e53d
00000010: ef0a d53e 33e8 b6be 7b6d 93bd 70bf 89be
00000020: 43f1 d1be 4272 08be 789b a4be 5c41 943e
00000030: 6c6e 193d 5d4e c3be 39d7 fcbe 3a25 fdbe
00000040: 2539 933e 54ea 2f3e 3afb acbe 7b43 223e
00000050: 1186 363e 8398 473e 08d5 ea3e 88aa 783e
00000060: 6351 03bc 675f e6be fa4e ae3d 69b5 c6be
00000070: 6c67 0dbe e9ee 873e 2d07 bd3d 375c ff3d
00000080: e947 303e 6291 383e f7f1 e73e e1fe 35be
00000090: 0970 7c3c 1ab3 abbe 2143 ee3d 2efd fabe
000000a0: fb86 39bd faf6 efbe 294b 063e 1670 c73e
000000b0: 25ae f6bd b4cd fb3e 4f01 7bbe fcc0 cabc
000000c0: b063 49be 28aa 813e 6732 14bd bf82 c8be
000000d0: e6c0 d33d 37d0 283e 47d2 74be c976 80be
000000e0: 9948 31be 654f 883d ee37 073e 1c8a 963e
000000f0: 570e f33e 8cf7 b1be e3aa 223e b2bd 9cbe
00000100: d4e6 8bbe ef4b 5f3e 10e5 c03e c2c2 8cbe
00000110: 2d78 81be bef0 e43e c3ab 4f3e 41d5 bcbe
00000120: 2b64 34be 55c3 f63e ab65 fbbd f22a adbe
00000130: 1e3e 9a3e 432d 8fbe 6d54 cfbe a681 2abe
00000140: 3384 f7be d14a ffbe a57b 2d3e f285 19bc
00000150: 1b21 333c ab18 0abe b008 2abd 7c1f aabe
00000160: 6965 f0bd 34ce d9be ac8c ac3e dd87 6a3e
00000170: 7522 063e 2dee 0cbe 759f 9dbe 6e34 b1be
00000180: 3824 a6be fcb7 47be 5f86 fe3e c972 c83e
00000190: 1afb 453e ebfd c43e fd16 b8be 3eff bb3e
000001a0: 2627 56bc d92c 97be 7bd3 a73e 08d2 833c
000001b0: 6905 7cbe 422e cf3e a770 3ebd 7d8c b3be
000001c0: f71a 223e 447c 66be f718 723e 7f81 be3e
000001d0: 4da5 a6be 3325 d83e 5080 40bd a919 73be
000001e0: 8e2e 12be 8639 dfbe 0aa8 56be c76c df3c
000001f0: 7d51 bfbe 935d 653d cf61 b5be 550f 41be
00000200: 74d2 8dbe 330d 383e 25c3 59be 7087 cd3d
00000210: 20c7 20be e5cd 40be 70fb bf3e 2077 8f3e
00000220: ec01 da3e 51f1 523d be7a 5c3e f988 a23e
00000230: 301b adbd c2c0 4a3d d93e d23e 825b 9bbe
00000240: 6d19 673e a871 a63d b507 4dbd f3da 98be
00000250: 8ce7 0b3e e08b 59be 464e 07bf 9b36 a4be
00000260: e718 d13c 772e 8fbe 2928 9c3e 8f58 bebd
00000270: ee75 0f3e a9eb c13d 4cc2 4e3e 286a f43e
00000280: 811e 58bc 1ad2 633d 6829 b0be 51ed 433e
00000290: 3609 4f3c e028 c33e a4e1 da3d 5bfe ac3e
000002a0: e2da 9d3e 13ca 633e abd1 7a3e 08fc 09be
000002b0: d14c ecbe 47c9 05be f5b5 65be 3dce fb3e
000002c0: f80e 62be 5ae0 9dbe 3730 853e 9063 df3e
000002d0: 4481 debe a875 66be f184 dc3e 4170 73be
000002e0: d248 c1bd 98cd 973e 7179 ff3e c9a1 f7be
000002f0: 6ace 92be 3e1e d13e bca3 fd3e 7a22 02be
00000300: 5486 48be d625 8fbe 6a96 e43c 0497 dd3d
00000310: 11a2 45bd 4520 cb3b 4d31 9abd d805 8ebe
00000320: db65 d13e 1025 0b3d c10c 69bd 4b8a dfbe
00000330: 873e c6bd 9f5d 343d a94c 9c3d b414 82be
00000340: 1f62 34bd 414a 8ebe aae1 9dbe d4ed a43a
00000350: 6bbc 85be 943c 03bf d3ee 48be 753f 5fbe
00000360: 643f bc3e ba24 4dbe ad92 d9be fb3e 03be
00000370: 9b78 f83e d416 3bbe 19f0 863e 5ab7 003f
00000380: 594c 89bd 7993 93be 1a8b 89bd 6655 bcbc
00000390: 2320 bc3e 9279 61be 89ea 953e 9182 ccbe
000003a0: a5aa 14bd f7a0 c73e ce11 a73d bb41 b53e
000003b0: 1202 f4bc 293f fb3e d44d 07bc 94be 223e
000003c0: 154f 333e bef6 f23e 7c63 f7be 6d98 83be
000003d0: 374d b5bd 16c9 c73e d92a e13e e1e3 533d
000003e0: f17c 293c 1840 7e3e 0544 adbe 51bd 693e
000003f0: a263 68be fe3c c0be fddc 013f 8549 d7bd
-0.00221228 -0.2534177 0.3227293 0.11189911 0.41609904 -0.3572403 -0.07198616 -0.26903868
-0.4100438 -0.13324836 -0.32149863 0.28956115 0.037458822 -0.38145724 -0.49382952 -0.49442464
0.28754535 0.17179233 -0.3378542 0.15846054 0.1782458 0.19491772 0.45865655 0.24283803
-0.00801501 -0.4499466 0.08511157 -0.3881028 -0.13808984 0.2654946 0.09229884 0.124687605
0.17214932 0.18024209 0.45301792 -0.1777301 0.015407571 -0.3353508 0.116338976 -0.49021286
-0.045294743 -0.46868116 0.13114609 0.38952702 -0.12044934 0.49180377 -0.24512218 -0.024750225
-0.19666934 0.2532513 -0.03618088 -0.3916225 0.10339527 0.16485678 -0.2390834 -0.25090626
-0.1731285 0.06655768 0.13204929 0.29402244 0.47471878 -0.34759176 0.158855 -0.30613476
-0.27324545 0.2180631 0.3767476 -0.27492338 -0.25287 0.44714922 0.20280366 -0.3688145
-0.17616336 0.48195902 -0.12275251 -0.33821827 0.30125517 -0.2796422 -0.404941 -0.1665102
-0.48343047 -0.49861768 0.16941698 -0.009370314 0.010933186 -0.13485973 -0.04151219 -0.33227146
-0.117380925 -0.42540133 0.33701074 0.2290339 0.13099082 -0.13762732 -0.3078572 -0.34610313
-0.32449508 -0.19503778 0.49711892 0.39150074 0.19334069 0.38474974 -0.3595504 0.36718172
-0.013070857 -0.29526404 0.32778534 0.016091362 -0.24611439 0.4046498 -0.046494152 -0.35068122
0.15830599 -0.22508341 0.23642336 0.37208173 -0.3254799 0.4221588 -0.04699737 -0.23740257
-0.14275572 -0.43598574 -0.2096254 0.027273549 -0.37366858 0.055997442 -0.35426185 -0.18853505
-0.27699625 0.17973785 -0.21265848 0.10035598 -0.1570096 -0.18828543 0.3749652 0.28020573
0.4257959 0.05149967 0.21531197 0.31745127 -0.08452451 0.049500234 0.41063574 -0.30343252
0.22568293 0.08127147 -0.050056178 -0.29854545 0.13662547 -0.21244764 -0.5285381 -0.3207291
0.02552457 -0.27965137 0.3049939 -0.09294235 0.1400983 0.09468777 0.20191306 0.4773724
-0.013190866 0.05562029 -0.3440659 0.19133498 0.012636473 0.38117123 0.10687569 0.33787808
0.30831057 0.22245054 0.24494044 -0.13475049 -0.46152356 -0.13065062 -0.22432692 0.49180785
-0.22076023 -0.3083523 0.26013348 0.43630648 -0.43457997 -0.2250582 0.43070176 -0.2377329
-0.094377175 0.29649043 0.4989734 -0.4836562 -0.28673106 0.40843385 0.49538982 -0.12708464
-0.19582492 -0.27958554 0.027903754 0.108198196 -0.04825026 0.006198915 -0.07528935 -0.27738833
0.40898022 0.033970892 -0.05689693 -0.43660197 -0.09679895 0.044034597 0.07631809 -0.2540642
-0.044038888 -0.27791026 -0.3083623 0.0012583085 -0.26120314 -0.5126431 -0.19622354 -0.2180155
0.36767113 -0.20033541 -0.42494717 -0.12816994 0.48529515 -0.18270427 0.26355055 0.5027977
-0.06704015 -0.2882345 -0.06715985 -0.02298994 0.36743268 -0.22019032 0.292805 -0.39943364
-0.03629555 0.38989994 0.08157693 0.3540171 -0.029786143 0.49071625 -0.008258302 0.15893012
0.17510636 0.47453874 -0.48318088 -0.2570223 -0.08852618 0.39020604 0.43978003 0.051730994
0.01034473 0.24829137 -0.33840957 0.22826125 -0.22694257 -0.37546533 0.50727826 -0.105120696

weight_hh_l0 f4 [12, 4]
00000000: 6939 8e3e c358 8cbe 29ed 863e 325e f2be
00000010: 5243 a1be 9623 a53e bfbb 0a3d 9b31 9fbe
00000020: 653f d1bd 87df cbbe 5b08 6ebe 2dc5 ba3e
00000030: b43b 7f3e fc09 ecbe 80bc d23e 5447 d4be
00000040: 1ab0 ce3e 445f b3be f9ef 06bd 7db0 b33c
00000050: 052f 903e 33f9 95be d982 813e 66fe a6bd
00000060: fb34 55be d5e0 91be ff7b d6be a9aa e83e
00000070: aed3 103e 3407 c13d ebcf 6f3e 3e93 6c3e
00000080: a66a 233d 27f4 9dbe 279b 72be 9493 723e
00000090: d731 e93e ec38 5f3d 0c72 48be 57e3 f13e
000000a0: a453 c33e cdd9 0d3e 53ba c7be 31e0 1c3e
000000b0: 0362 ef3e 6d13 e13e f4b8 093e d9e6 8cbe
0.27778175 -0.2741147 0.26352814 -0.4733749 -0.31496674 0.32253712 0.033870455 -0.31092533
-0.1021717 -0.39818975 -0.23245375 0.36478558 0.24925119 -0.46101367 0.4115944 -0.4146067
0.4036873 -0.3503362 -0.0329437 0.021934742 0.28160873 -0.29291686 0.2529514 -0.081539914
-0.20820992 -0.28491846 -0.41891477 0.45442703 0.1414325 0.09425202 0.23419158 0.23103043
0.03989663 -0.30850336 -0.23691998 0.23689109 0.45545837 0.054497644 -0.19574755 0.4724376
0.3814975 0.13852616 -0.39009342 0.15319897 0.46754465 0.43960133 0.1344946 -0.27519873

bias_ih_l0 f4 [12]
00000000: a7c0 81be 584c 423e 6068 b33e 56fb 0e3e
00000010: bb66 c73d f78f 423e 7f1a 963d 810c b1be
00000020: d2fb dbbe 7438 3bbc 21ec 613e 8789 e7bc
-0.25342295 0.18974435 0.3504057 0.13963065 0.09736391 0.1900023 0.073292725 -0.34579852
-0.4296556 -0.011427034 0.22062732 -0.02826382

bias_hh_l0 f4 [12]
00000000: d443 bbbe e8bd 353e 6145 353e 775d 96be
00000010: 6dee 8bbe 73fb b5be 2968 173e ca70 f2bd
00000020: d35b 1bbe 9a41 83bd c6e3 ef3e 31da fb3e
-0.36575186 0.17748225 0.17702247 -0.29368183 -0.27330342 -0.35543403 0.14785828 -0.11837919
-0.15171747 -0.06408997 0.46853465 0.49189904

weight f4 [4, 4]
00000000: 921f d0bd c47b 553d 7974 d5be befa 1c3e
00000010: 6a13 82bd 7e12 bb3e 0365 edbe 9dfe df3d
00000020: 5329 91be f609 f6be aa41 903e 024c 7f3e
00000030: f7ca cb3d 646a b53e ee4e 02bf 45fb 833e
-0.101622716 0.052119985 -0.41690424 0.15330026 -0.06351359 0.36537546 -0.46366128 0.109372355
-0.2835184 -0.48054475 0.28175098 0.24931338 0.09950822 0.35432732 -0.5090169 0.2577764

bias f4 [4]
00000000: 9a6d d7ba 50b8 c43e 4ae7 b63e 2751 f63e
-0.0016435862 0.3842187 0.35723335 0.4810879

weight f4 [320, 8]
00000000: ab53 50bd b636 c2be 87b4 9c3e 44dd 283e
00000010: 5c7f 113e 3f37 42bd caa2 46be cd34 cebe
00000020: 3ce1 363e e537 56be bb40 abbe 92ca cbbd
00000030: 1d75 7a3d 3b1a 9e3e ae99 9e3d ad95 4abb
00000040: 8f2a 253d fe46 f33d 92a9 90bb 3985 57be
00000050: f4fc 8ebe 25f3 733e 625d 803e 6d94 c93d
00000060: ef37 abbd 75cf 933d 934b 593e db4f 663e
00000070: c3b0 ae3e 4fee 7c3c 6763 a8be 2a7b 8abe
00000080: f803 743e d879 683c 635a e93c 311c 083e
00000090: 2755 ac3e 5aca 313d b0d7 05be 6bca aa3e
000000a0: 9657 d4bd 7534 9d3e 7ec4 9bbe d2bf a03d
000000b0: 792b b33e 1ffa 993e 66c1 693e ea2d 23be
000000c0: 0717 033e ad18 33be 0eb5 863e 0537 aabe
000000d0: dac3 02bc 8b4f c7bd 2a04 8d3e 1aa8 bcbd
000000e0: 5f90 903c 0ee0 163e 85cd 9abe 1633 ffbd
000000f0: b3c0 30be 6d16 4a3e 383f 93be 4ff4 033e
00000100: bbc9 963e 867b 303e 8ed0 14be cded 0dbd
00000110: 7a9c 67be 842e 4d3e 7595 ae3d b5c3 02bd
00000120: 7a55 073e e1e8 783e b517 b4be badf bcbb
00000130: e822 7bbe 1ce7 3d3d 210a 853e e18a a3be
00000140: c97a 48be 64d5 bbbe 724a 94be 8fc5 953e
00000150: 93f8 44be a2b4 173e fade 05be 3794 8d3e
00000160: bf23 0e3e 44bd 1abe b754 a63e 437a 633e
00000170: c12d 413d 2864 9a3e bc3b 7f3e 78f8 97be
00000180: 10eb a2be 161e 893d 9545 85be 6dc5 09bc
00000190: 76e2 a63e 4270 a13e 6d38 bc3d 2b4b b73e
000001a0: af1c 69be 66d3 a93e 8cdb 9e3e e92e 1fbe
000001b0: 2ff8 dcbd 2430 853d 6cce e8bb 89c1 083d
000001c0: 43fd 33be 2b7d 0b3e cd37 613e 2d58 7fbd
000001d0: 56f3 40be 7694 a4be 293f 83be ddb4 413c
000001e0: cd94 c3bd 4119 86be f9b3 a9be 94d0 5abe
000001f0: 9ed7 9fbe ed94 013e 303f 57be 952f e93c
00000200: ef8d 63bc dd53 593e f549 4f3e 985a 073d
00000210: 6d14 213e a126 09be fb1c 6dbe 78b7 1cbe
00000220: 18ec a7be bce8 eabc 552e 883e ab71 44be
00000230: 5e4c 4fbe 0dea 07be af61 5b3d 1561 b6bc
00000240: eee0 033e 20e6 b0be 179b 1cbe d9fe 74bd
00000250: 4385 223d 1c39 c23d 52cb 993e a132 c0bd
00000260: 4035 7bbd cf34 90be a943 913e 802e 4d3e
00000270: fc7a aa3e 23e5 b23e 4312 fdbd 7acb 18be
00000280: a172 06bd 421b 46be 8fdf 7abe e519 903e
00000290: 12ea 313e de49 57bd a92e dc3d 3d9a 8cbe
000002a0: 272e 963e 8113 63be 3a06 0d3e aa4d 67be
000002b0: 7b32 8ebd 6b67 babd 3322 253d 07fc 633e
000002c0: c1f9 863e 9c38 733e 023f 253e cfc0 71be
000002d0: f4cf 1f3e 3160 483d 457f d0bd 61ca 633e
000002e0: 8509 26be fbcb 20bc 494d 86be ff23 4a3e
000002f0: 6e05 67be d336 713e 2317 66be d77c f63d
00000300: 499c 9f3e f7f5 6bbe 24fa 51be 9d56 68be
00000310: 9264 74be 02f2 91be 984c e23d 13cc b33e
00000320: 1ad3 28be c01d 56be f758 15be 1136 2b3b
00000330: aa56 bbbd 3a88 fcbb f9bd 803e dc52 7ebe
00000340: 40cd 7a3e f15c 823d 8408 a4be 65c6 e03d
00000350: f94a 8bbc 1a7f 09be be3a 7b3e 28eb 2a3e
00000360: 6c03 673e 786e 0bbe 4689 b33e 0f74 0bbe
00000370: b62d 90be ee0e 5a3e d710 a6be 5da2 183e
00000380: 8f52 42be 00c6 a0be a52f 08bd 4177 8e3e
00000390: bc25 963e cdff a8be 995c 7e3d e3eb 0d3e
000003a0: a4d2 3c3e c6de 4abe cb3e 873d d5a8 893e
000003b0: 1b3d 84be 10c2 08be 026a 55be 33bf dc3d
000003c0: a7a3 3abe 57b1 aabd 98d1 a2bd cda0 b1be
000003d0: 4a36 63be c94e 7b3e 6c84 9e3e 63c3 dabd
000003e0: ee5c 57be 2da8 dbbd 7441 9f3e 2a82 82be
000003f0: 7aaa 55be ec80 bdbe 63ab 803e e9e5 b63d
-0.050861042 -0.37932366 0.3060648 0.16490656 0.1420874 -0.047415968 -0.19398037 -0.4027466
0.17859358 -0.2091976 -0.33447823 -0.099507466 0.061146844 0.30879387 0.07744156 -0.0030911968
0.04032379 0.11878775 -0.0044147456 -0.21046914 -0.27927363 0.23823221 0.25071245 0.09842763
-0.08360278 0.07217304 0.21220236 0.224914 0.34119233 0.015437677 -0.32888338 -0.27047092
0.23829639 0.014189206 0.028485483 0.13292004 0.33658716 0.043405868 -0.1307056 0.33357558
-0.10368268 0.30704084 -0.3042335 0.07849087 0.34994105 0.3007364 0.22827682 -0.15935484
0.12801753 -0.17489882 0.2631001 -0.33245102 -0.007981265 -0.097319685 0.2754224 -0.0921175
0.017646967 0.14733908 -0.30234924 -0.12460916 -0.17261009 0.19735117 -0.2875917 0.12886165
0.29450783 0.1723462 -0.14532682 -0.034650613 -0.22618285 0.20037276 0.085246004 -0.031924922
0.132162 0.24307586 -0.35174337 -0.005763975 -0.24525034 0.04636298 0.2598429 -0.31941894
-0.19578089 -0.36686242 -0.28963047 0.29252288 -0.19235449 0.14815 -0.1307334 0.2765214
0.13880824 -0.15111262 0.32486507 0.22214608 0.047162775 0.30154538 0.2492513 -0.29681754
-0.31819963 0.066951916 -0.2602965 -0.008408886 0.3259465 0.31530958 0.0919045 0.35799536
-0.22764848 0.33169097 0.31026876 -0.15545239 -0.10789525 0.06503323 -0.0071046855 0.033387695
-0.1757708 0.13621967 0.21993943 -0.06233995 -0.18842825 -0.32144517 -0.25634125 0.011822906
-0.09549866 -0.26191142 -0.3314512 -0.21368629 -0.3121919 0.12654467 -0.21020198 0.028465072
-0.01388882 0.21223398 0.20243056 0.03304538 0.15730448 -0.13393642 -0.23155586 -0.15304363
-0.32797313 -0.02867543 0.2659785 -0.19183986 -0.20243976 -0.13272877 0.053559955 -0.02226309
0.12878773 -0.3455057 -0.15293537 -0.059813354 0.03967787 0.09483549 0.30037934 -0.09384657
-0.06133008 -0.2816529 0.28371933 0.2003727 0.33296955 0.34940442 -0.12356999 -0.1492137
-0.032824162 -0.19346336 -0.24499343 0.28144756 0.17374447 -0.05256068 0.10751087 -0.27461424
0.29332086 -0.22175409 0.13771906 -0.2258822 -0.06943222 -0.09101757 0.040315818 0.2226411
0.26362422 0.23752064 0.16137317 -0.23608707 0.15606672 0.04891986 -0.10180525 0.2224517
-0.16214569 -0.009814258 -0.2623084 0.19740294 -0.22560665 0.2355607 -0.22469763 0.1203553
0.31173924 -0.23043047 -0.20505577 -0.2268929 -0.2386649 -0.2850495 0.11049765 0.35116634
-0.16486779 -0.20909786 -0.14584719 0.0026124755 -0.09147389 -0.007706669 0.25144938 -0.24836296
0.24492359 0.063653834 -0.32037747 0.10975341 -0.017003523 -0.13427392 0.24534127 0.16691267
0.22559899 -0.13616359 0.3506567 -0.13618492 -0.28159875 0.21294758 -0.32434723 0.14905687
-0.18976806 -0.31401062 -0.033248562 0.2782536 0.29325664 -0.3300766 0.062100027 0.13859515
0.18439728 -0.19811544 0.06603774 0.2688662 -0.2582787 -0.13355279 -0.2084122 0.10778656
-0.18226491 -0.08334606 -0.07950133 -0.34692994 -0.22188678 0.24541773 0.30960405 -0.10681798
-0.21031544 -0.10725436 0.31104624 -0.25489932 -0.20865813 -0.37012422 0.25130758 0.08930571

bias f4 [320]
00000000: defd 093c 0108 aabe ad80 a83e aa0e a53e
00000010: 1e97 cabd 6aa6 8f3e 9442 15be 3ff8 e23d
00000020: 7af6 91be a3a4 0c3d 7733 c03e a7d9 0f3e
00000030: 759b 4a3e 72db 12bd c30a 2d3e 3282 093e
00000040: f217 89bd f9b9 0fbe 4198 9abd e157 2a3d
00000050: d749 8ebe 6a9c c5bd 202c 61be 7333 583e
00000060: bd71 1dbd 85bf cebc 92a7 9e3e 548a a8be
00000070: eb43 36be 4dbf b13e 3364 9bbe 3307 673e
00000080: 9469 153d 9b49 a1be ae4c 6c3a 4122 3fbe
00000090: f62e 75bd e3ec bcbd cbb2 5bbe 0b94 403e
000000a0: 5194 973e 0d06 a1be 8a98 cdbd df63 2dbe
000000b0: 0519 49be 573d 2bbb 388c a43e 3572 4fbe
000000c0: 07ab 353e bfc8 a5be 97b1 1abe 289a e43d
000000d0: 95af 99bd 51b1 4dbc 339b 7d3e a1fc 93be
000000e0: 5391 bebd e2a4 27bd 320b 283e 8879 0a3e
000000f0: 0147 7dbe 5bb5 2abe e0d2 79bd 86e9 2c3e
00000100: a572 c83d 568a 693c 867e 4bbe 48c2 a9bd
00000110: 9504 4bbe 1863 86be 4c7d 56be d9b7 f7bd
00000120: 8471 b23e 8528 743e 29b2 86be 79e8 183d
00000130: e0c9 1e3b 4995 35bb 1a79 0bbd 775c 1d3e
00000140: 19eb 363e cfa7 3dbe 11a0 98be a3af 6636
00000150: 1dc1 223e 2356 003e aa3d ebbd 961b 3a3e
00000160: 91ec 583d 7c38 403e 9718 e2bc 65f1 7ebe
00000170: 8743 ddbd bb12 c4bd 11bf 753c 8056 593d
00000180: cf83 a4be 4a2a 2fbe 6682 3a3e 22d0 4e3e
00000190: 0f8e 2dbe 4585 79be 72d9 5c3e 8041 8dbd
000001a0: b1e8 1bbe e245 9dbe 3359 983c 3ebc 6f3e
000001b0: 31ee 9739 d1c4 10bd 73c7 5abe 6ba5 223e
000001c0: ae0a 85be 71ff 81be 63b9 dd3d 2612 5b3e
000001d0: f6f3 643e c5bc 96bc 61fa d2bd 0e10 8a3e
000001e0: bee7 7cbe 4a95 4fbb 7c95 0bbe 3871 2fbe
000001f0: 3c09 0a3e 226d 84bd 90ff bf3d d02a febc
00000200: 00c4 713e 1cd5 38be 9ddc 9dbe a00e a5be
00000210: d408 773c 0834 06bb 1037 90bb 1487 1a3d
00000220: 0777 ff3d 4fb7 a03e 6673 3fbd 34d0 fd3d
00000230: 114d cc3c 0a35 933e 82fd 893e 8d84 bbbd
00000240: 0863 573e 5b23 31be 66b2 993d 3ba9 39be
00000250: 306c 7b3e 6c4c 813e 75bf 4b3d 7401 383e
00000260: bb88 823d 1c97 873e 73a7 97be 331b 183d
00000270: b218 953d f8a6 bcbc 9534 3f3a cdbe 853e
00000280: 514d 5f3e 477c 263e 16cc 20be 9e0f 7a3e
00000290: d24b d03d 8b06 9bbe 041c 32ba fa75 993e
000002a0: beaf debd 814f 193d 2034 5abe 6a1d 28be
000002b0: f04d 8fbe 5932 90be 1f4b 9e3e ad44 2e3e
000002c0: 29b6 a73e 950b 723e e9c5 6ebe 292c ab3e
000002d0: 2b69 8ebe 1994 173c 5e69 92be 1757 44be
000002e0: 90bc 833e 6d5d a13d 332c 6bbe 2435 a63e
000002f0: f8c9 efbd 1a62 803e 1556 3ebe 1f72 5dbe
00000300: a0cf 873e 1200 98be d13a 8a3e 6359 813e
00000310: 0d94 a23d 9d1a f13d 4e19 133d 076e b0bb
00000320: ada2 4ebe ed47 1d3e 4e6e 873e bb2e 9d3e
00000330: a77d 38be 2710 9ebe 9b8e 943e c742 a4be
00000340: 1985 94be 1fdd 463e 2c81 4ebe 2787 fabc
00000350: 5406 333e c5d9 763e 1d11 273e a996 3e3e
00000360: 2571 9dbd 80d6 893e 8cc7 99bd 5281 a7bd
00000370: 7ae1 5bbe 350d 00be d08c aebe 4f4e 703d
00000380: f738 4e3e b929 e2bd b0fe b63d c542 233e
00000390: 9800 a83e 40ef 7a3e 354c 7e3e 2096 6e3e
000003a0: ed40 35be c061 be3d c1b2 7fbd 3da8 a5be
000003b0: 89af 98bd 53bb 853b 6acd 313e ab5a e9bd
000003c0: 423f 263e ccf4 303e 65c8 9e3e 6941 30be
000003d0: e5b1 273e 3e13 2ebe bcea 1e3e 7807 5bbd
000003e0: a436 97bc 65ec 263e 2b49 62be 0094 903e
000003f0: ba51 94be efb1 e1bc 6202 b03e 09c4 aebe
0.008422343 -0.33209231 0.32910672 0.3223775 -0.098921046 0.2805665 -0.14576179 0.110825054
-0.2850836 0.034336697 0.37539265 0.14047872 0.19785865 -0.03585381 0.16898637 0.13428572
-0.0669402 -0.14035787 -0.075485714 0.041587714 -0.2779071 -0.09648974 -0.21989489 0.21113376
-0.038438547 -0.025237808 0.3098722 -0.32918036 -0.17799346 0.34716263 -0.30349883 0.2256134
0.03647764 -0.3150147 0.0009014112 -0.1866541 -0.05985924 -0.0922487 -0.21454923 0.18806474
0.29605344 -0.3144993 -0.1003886 -0.16932629 -0.1963845 -0.002612909 0.32138228 -0.2025841
0.17741023 -0.3237972 -0.15106808 0.111622155 -0.07504193 -0.012554483 0.24766235 -0.28903678
-0.09305062 -0.04092873 0.1641052 0.13522923 -0.24734117 -0.16670744 -0.06099212 0.16885957
0.09787492 0.014254173 -0.19872484 -0.08289009 -0.19825967 -0.26247478 -0.20946234 -0.12095613
0.3485223 0.23843582 -0.263078 0.03733108 0.0024229214 -0.002770739 -0.03405104 0.15367304
0.1786312 -0.18521045 -0.2980962 3.4374905e-06 0.1589398 0.12532859 -0.11486371 0.18174586
0.052959982 0.18771547 -0.027599616 -0.24896772 -0.108038954 -0.09573885 0.014999167 0.05306101
-0.32131812 -0.17105976 0.18213806 0.20196584 -0.16948722 -0.24367245 0.21567324 -0.06897259
-0.15225483 -0.3071738 0.018597221 0.23411652 0.0002897843 -0.03534395 -0.21365146 0.15883414
-0.2598471 -0.253902 0.10826375 0.21393642 0.22358689 -0.01840056 -0.10301662 0.26965374
-0.24697778 -0.0031674677 -0.13631243 -0.17133033 0.13480085 -0.06466128 0.093749166 -0.031026274
0.23609924 -0.18050045 -0.30832377 -0.3223772 0.015077788 -0.002047779 -0.004401095 0.037726477
0.124738745 0.31389853 -0.046740912 0.12393227 0.024939092 0.28751403 0.26951224 -0.091561414
0.21033871 -0.17298643 0.0750473 -0.18130963 0.24552989 0.25253618 0.049743135 0.17969304
0.063737355 0.26482475 -0.2961994 0.037135314 0.07280101 -0.023028836 0.0007293907 0.26122132
0.21806838 0.16258346 -0.15702853 0.2442002 0.101707116 -0.3027843 -0.0006794336 0.2997282
-0.10873364 0.037429336 -0.21308947 -0.1641747 -0.2798915 -0.28163412 0.30916688 0.17018385
0.32756165 0.2363723 -0.23317684 0.3343213 -0.27814612 0.009251618 -0.28596014 -0.19173847
0.257298 0.07879148 -0.2296608 0.32462418 -0.11708444 0.25074846 -0.18587525 -0.21625565
0.26525593 -0.29687554 0.26997998 0.2526351 0.07938395 0.11772654 0.035912804 -0.00538421
-0.20179243 0.15359469 0.26451343 0.30699715 -0.18016683 -0.30871698 0.2901505 -0.32082197
-0.29007795 0.19420289 -0.20166463 -0.030582024 0.17482883 0.2410651 0.16315122 0.1861216
-0.07687596 0.26921463 -0.07508764 -0.08178963 -0.21472731 -0.12505038 -0.34091806 0.05866843
0.20138918 -0.11043114 0.089352965 0.1594344 0.32812953 0.24505329 0.24833758 0.23299456
-0.17700548 0.09295988 -0.062426332 -0.32354918 -0.07455356 0.0040811687 0.17363515 -0.11394247
0.16235068 0.17280883 0.31012264 -0.17212452 0.16376455 -0.16999528 0.15519232 -0.05347392
-0.018458672 0.16301115 -0.22098224 0.28237915 -0.28968602 -0.027550666 0.34376818 -0.34133938

weight f4 [4, 320]
00000000: 790f 953d 7b24 2f3d fbcd aabb 7b01 eabc
00000010: a2db 87bd 8937 cebb b9d0 c6bd 22d2 0b3d
00000020: d581 9abb 8ef8 603d f9d7 4f3d 6efa bf3c
00000030: 3063 99bc 41ca 2a3d 15f9 f4bc ab70 66bb
00000040: 8cd6 253d 034f 113d f9cc d4bb 70b9 c5bb
00000050: a77e 563c b549 4d3d 7d09 acbc 4492 bd3c
00000060: b627 b3bb e0eb 61bb 0f76 d83c 592a b63c
00000070: 0533 84bc e2a0 863c b748 c7ba f6bb 563d
00000080: fa82 2a3d 8dcf aabc 063d 013e 5b78 14bd
00000090: 786e 06bd b7f3 343c 1d55 1d3d 437c 523d
000000a0: 2a7b 8a3b fda8 12bd 0289 f93b a2de d4bc
000000b0: fd57 4bbd 1c95 2a3c 8c4e f7bc a7c8 103c
000000c0: ce41 6739 ef79 473d 787e 6d3d ba1d bdbb
000000d0: bf28 e93c f40d 233d 0b99 413d 7648 2c3d
000000e0: 7d64 22bc 1847 39bb 89ca 6e3d 09ec 6c3d
000000f0: cae9 fdbc 3381 7abd 18de 27bd a834 93bc
00000100: ebbc 86bb 3bfe 333d d9aa 04bd 6b59 c8ba
00000110: c56e 1d3d 7b1e 8abb e6c1 91bd 00e4 0b3c
00000120: f8f0 3d3b 2e9f eabc 2912 c33c f873 43bc
00000130: a379 4d3d 5214 4f3d d974 dc3c 9fbf 4abc
00000140: a081 113c 3b04 833c de36 373c 167e c5bc
00000150: a7b4 033d 5a2b 5b3d 6faf f63c 47de 853c
00000160: ddb7 38bd bb9e 4abc 924a 4c3b bf70 023d
00000170: 99eb fbbb b13a da3c b24b 18be 067a c73c
00000180: 141e 2c3c fa15 28bd 8954 e13c 7ca4 8f3c
00000190: 902c 983c b5c4 15bd 233e 92bc a470 f6bc
000001a0: 97ca 963c 53eb b33c 448d 6f3d 94a6 83bc
000001b0: b96f 743d e4f9 81bc 23bf 6f3c 7c16 83bc
000001c0: dd2c df3c e89e 063d 3315 f7b9 fdd8 c7bc
000001d0: 0b60 403d 1e97 e3bc bf52 42bd 6da4 e83c
000001e0: 0230 55bc 66d2 b33c 8ab8 773d fa24 693d
000001f0: d1ab 35be a990 40bc 16b9 293d 84f3 7b3d
00000200: 6b6f c9bc 4a53 9fbc 7057 97bc d62f 1fbd
00000210: 37c5 55bc 62bc 333d 70b5 0dbc e28d 7e3d
00000220: d0bc 253c b447 7c3d ec54 e8bc 2087 343d
00000230: 204f b23c fa2a 3fbd 6fba 0dbc ae88 3ebd
00000240: 520b 6c3d 25b1 fdbc 3075 7fbc 9ec3 c93c
00000250: 222f b9bc d315 3c3d e35a 323c 1ca7 fd3c
00000260: 20b5 89bc 7de0 263d 36f3 5b3c 878f f0bc
00000270: 0e2e 0a3d 1fa3 1abd d1a9 803d d828 813d
00000280: e7b4 1abd 0ade 563d 6da9 4fbc fae6 39bd
00000290: 1203 e83c 7b0d 49bd 94e3 5a3d 37f7 713a
000002a0: 7e24 dfbc 68bd 8cbc d426 133d 7124 d83c
000002b0: b99f 143c 2261 523d 0fd5 193d d38c 5fbb
000002c0: bfb4 f9bc c785 f1bc 26eb 1e3a 1ee6 25bd
000002d0: 9225 4fbc 72ee d9bc 8031 3e3c 5b19 65bc
000002e0: e0dd 123d 76a5 afbd 286b 9eba 6053 1ebd
000002f0: bb63 1b3d 92d6 683d 4737 9ebd 77c8 1c3b
00000300: d09a f53b 6be2 803b 1e3d cc3c aa6f 4d3d
00000310: 18cd b1bc d7fc 193c 6846 8abc 2cab 343d
00000320: 8764 083d cf41 b53c 0aa0 5dbc e5df 9c3c
00000330: 94fa 373d d2a3 3a3d aba4 6d3c 628b 1f3c
00000340: a26d 77bc 91af 64bb 7b84 423d 4ef5 763d
00000350: 7ec6 653d 8d7c 433d 9e20 663d 7444 e7bb
00000360: 8812 b4ba 348b 843c c081 ce3c 71df 003d
00000370: 7681 7c3c 8257 d4bb 85c3 02bd cbe2 033b
00000380: 40df 4a3d ee63 0b3c 18c0 e9bc fbe9 213c
00000390: bc44 293d e72f a63c 80d1 193d 0f4a 7c3d
000003a0: 6037 17bc c336 b9bc a637 a3bb 3ae1 ec3c
000003b0: ca51 ae3c 73a6 1cbb 08d0 623d 15dc d43b
000003c0: d2d2 6d3d c19f 06bc 23fd 383c fbbb 5d3d
000003d0: 4207 02bd b488 a1bb 17b7 d2bc b609 05bd
000003e0: ec99 053d 66e6 893c 3e75 aa3a 576a 5e3d
000003f0: f61b cd3c 7c48 bebc 7fa3 6a3b 8bfe 22bd
0.07278342 0.0427594 -0.005212543 -0.028565159 -0.066336885 -0.0062932414 -0.097077794 0.034135945
-0.004715184 0.05492454 0.050743077 0.023434844 -0.018724054 0.04169679 -0.029903928 -0.003516237
0.04048781 0.035475742 -0.006494161 -0.0060340688 0.01309172 0.05011912 -0.021000618 0.023141034
-0.0054673804 -0.0034472868 0.026423482 0.02223699 -0.01613761 0.016434137 -0.0015204166 0.052425347
0.041628815 -0.020850921 0.12620935 -0.036247592 -0.032820195 0.011044434 0.03841125 0.051388036
0.004226108 -0.03580569 0.0076152096 -0.025985066 -0.04964446 0.010411527 -0.030188821 0.008836902
0.00022054391 0.04870027 0.057981938 -0.005771366 0.028461812 0.03980823 0.047265094 0.04206129
-0.009911654 -0.0028271135 0.05829862 0.05784229 -0.030995268 -0.06115837 -0.04098329 -0.017969444
-0.0041118762 0.043943625 -0.032389496 -0.0015285438 0.038435716 -0.0042150593 -0.07117061 0.008538246
0.002898274 -0.028640356 0.02381237 -0.011929505 0.05016483 0.05055649 0.026911186 -0.012374788
0.008881003 0.015993228 0.011182515 -0.024107974 0.032154705 0.05350814 0.03011295 0.016341342
-0.04509722 -0.012366946 0.0031172377 0.031845804 -0.0076879975 0.026639314 -0.14872625 0.024350177
0.010505218 -0.041036583 0.02750613 0.017534487 0.018575937 -0.036564548 -0.017851895 -0.030083008
0.01840715 0.021962797 0.05848433 -0.016070642 0.05967686 -0.015866227 0.014632973 -0.016001932
0.027243072 0.03286639 -0.00047127306 -0.02439546 0.046966594 -0.02778202 -0.047442194 0.028398717
-0.013011934 0.021950912 0.060478725 0.05692003 -0.17741324 -0.01175324 0.041436277 0.06151153
-0.024589261 -0.019448895 -0.01847431 -0.03886398 -0.013047508 0.043880828 -0.008649215 0.06214703
0.010115817 0.06159182 -0.028360806 0.044074178 0.021766245 -0.046671845 -0.008650406 -0.046517067
0.057627983 -0.030968258 -0.0155919045 0.02462941 -0.022605482 0.04591925 0.010885927 0.030963473
-0.01681 0.040741432 0.013424685 -0.029365314 0.033735327 -0.03775322 0.0628239 0.063066185
-0.03777018 0.052457847 -0.012674672 -0.045386292 0.028321777 -0.04908512 0.05343969 0.00092302583
-0.02723908 -0.01718016 0.0359257 0.026384564 0.009071284 0.051362164 0.037556704 -0.0034111037
-0.030481694 -0.029482735 0.00060622615 -0.04050266 -0.012643235 -0.026602957 0.011608481 -0.013983096
0.035856128 -0.08576481 -0.0012086378 -0.03865373 0.037936907 0.056845255 -0.07725387 0.0023923197
0.0074952617 0.003933241 0.024931487 0.05015532 -0.021704242 0.009398661 -0.016879275 0.044108555
0.033298995 0.022126107 -0.013526926 0.01914973 0.044916704 0.045566387 0.014504592 0.009737821
-0.015101822 -0.0034894685 0.047489624 0.060292535 0.0560975 0.047726203 0.05618345 -0.007057721
-0.0013738433 0.016179658 0.025208354 0.03146309 0.015411725 -0.0064801583 -0.031924743 0.0020124193
0.049529314 0.008507712 -0.02853398 0.009882445 0.041325316 0.020286513 0.03755331 0.061594065
-0.009229511 -0.02260912 -0.004980999 0.02891599 0.021279234 -0.0023902922 0.055374175 0.0064959624
0.058062382 -0.008216799 0.011290821 0.05413435 -0.031745203 -0.0049296264 -0.02572207 -0.032479964
0.032617494 0.016833495 0.0013004912 0.054300632 0.025037747 -0.023227923 0.0035803018 -0.039793532

bias f4 [4]
00000000: 47ae b4bc 8be8 18bc fb34 ba3c 1849 273c
-0.022055758 -0.009332786 0.022730341 0.010210298

weight f4 [4, 8]
00000000: 1e26 e23d 0095 a9be 06dd 9abd bc7b d33c
00000010: 5df2 84be 092a a2be e00b 34be 6e1d c13d
00000020: 0502 883e d84b 94be b6f7 093e dfbe 3abe
00000030: c46c a23e e1e1 9b3d 0efa afbe 876d 80be
00000040: 4295 11be 1f36 5ebe 6357 b43e 0e21 983d
00000050: 2278 6c3e 48f8 79be eb78 ecbd a918 71be
00000060: 25f8 61be f32c c7bd 6553 01be 7fc5 a13e
00000070: 3961 783e b391 26be ec28 603d 40fb a63e
0.110424265 -0.3312149 -0.07561688 0.025815837 -0.25966159 -0.31672695 -0.17582655 0.094294414
0.2656404 -0.28964114 0.134734 -0.18236874 0.31723607 0.07611442 -0.34370464 -0.25083563
-0.14217094 -0.21700333 0.3522292 0.0742818 0.23092702 -0.24411118 -0.11546501 -0.23544563
-0.22067316 -0.0972537 -0.12629469 0.3159599 0.24255838 -0.16266517 0.054726526 0.32613564

bias f4 [4]
00000000: 78f9 803d 83e2 7c3e d56d 9dbb 5b2c 173e
0.062975824 0.24695782 -0.0048043528 0.14763014

weight f4 [4, 8]
00000000: 97ab b2bd a851 7dbe 4ebb 5c3d 2baa 8d3e
00000010: d6b7 86be 9da8 9e3d 847f 06be bb39 923e
00000020: cb54 4d3e 8533 733c be33 533e ca60 c2bd
00000030: a703 21be 053e 883e 0ffe 1fbe 4fbd 8b3e
00000040: e842 323e 7d25 b53e d585 3a3e 174f a7be
00000050: 1c0a 8bbe 445a 073e c651 86be 27d0 123d
00000060: 481d 9f3e 3542 2e3e 5733 7f3d 1c90 003d
00000070: 5afb 2fbd 3cf1 70be fb3f 703c adab 8bbe
-0.087241344 -0.2473818 0.053889565 0.2766889 -0.2631213 0.07747004 -0.13134581 0.2855967
0.20051877 0.014843826 0.20625207 -0.09491117 -0.1572405 0.26609817 -0.1562426 0.27292868
0.17408335 0.35380164 0.18215115 -0.32677528 -0.2715615 0.13218027 -0.26234263 0.03584304
0.31077027 0.17017443 0.06230482 0.031387433 -0.042964317 -0.23529524 0.014663692 -0.27279416

bias f4 [4]
00000000: a086 fdbc 16d2 a7be de05 693e 8e22 94bc
-0.030947983 -0.3277747 0.22756144 -0.018082883

weight f4 [10, 2]
00000000: ded5 f6be 4dd3 293f 7e84 113c 5d45 14be
00000010: 8313 193e 1ef6 b8be 3c10 033f d131 4d3e
00000020: 61c2 c7bc 8de3 273f 2d44 c8be 3799 21bf
00000030: 477e 973d 8983 1dbf 4a3a 143f ed12 003c
00000040: c3df fc3e da8c 9d3d c556 93bd c650 833c
-0.48210043 0.66338044 0.008881686 -0.14479585 0.1494885 -0.36125273 0.51196647 0.20038535
-0.02438468 0.6558159 -0.39114514 -0.6312441 0.07397132 -0.6152883 0.5790144 0.007817012
0.49389467 0.07692881 -0.07194284 0.016029727

bias f4 [10]
00000000: 21ed 01bf f91b e03e 5b6f b53d 94de 15bf
00000010: 6d2e 3b3e 15ac dfbe f504 a13e fda8 15bf
00000020: 2ca9 10bf 7e46 47be
-0.50752455 0.4377134 0.0885913 -0.5854275 0.18279429 -0.43685976 0.31449094 -0.5846098
-0.56508136 -0.19460484

weight f4 [10, 2]
00000000: 20a8 75be 6c45 7d3e 7e56 e53e 8b7d 303f
00000010: 191a 2b3f 6ec3 ac3c 946f fa3e 95c2 d5be
00000020: b7d1 1c3d bed9 a6be a130 b63e 828a 5c3e
00000030: ed9d d1bd 898d 01be 7b88 17bf 19d2 37bd
00000040: aaab 00bf 6c7d 6d3e 9305 a53e da61 24bf
-0.23989916 0.24733514 0.4479255 0.68941563 0.66836697 0.021089282 0.48913252 -0.41750017
0.038285937 -0.32588 0.35583976 0.21537212 -0.102352 -0.12651648 -0.5919263 -0.0448781
-0.5026194 0.23192376 0.32230815 -0.6421181

bias f4 [10]
00000000: 19a0 a83c e2e9 dabd 47a9 88be f52c ad3e
00000010: 379d 2f3f 5be9 0c3f 6867 c5be b93c 2cbf
00000020: 26f7 04bf c7ea b53e
0.020584153 -0.10689141 -0.26691648 0.33823362 0.68599266 0.5504357 -0.38555455 -0.67280155
-0.5193962 0.35530683

weight f4 [20, 4]
00000000: f0a7 853e 4680 f23e edfb e7be 6eb1 cc3d
00000010: 12d2 193e f7ff c63d ce09 9b3e fc67 933e
00000020: c0ef 0cbe f857 ed3e 8f59 3f3e 1292 c23e
00000030: 028d 2abe 0611 c33e 51be 80be 81c8 c4bd
00000040: 18e8 f93e c06d 363d 786a 9a3e 30f7 50be
00000050: bae2 bf3e 7fe3 a93e 64d3 5ebe 9a85 72bd
00000060: e85c e7be b14c fa3e b1c0 de3e 69ee c8be
00000070: 3035 cdbe 4e6f 933e 9a59 0a3e 57ea d03e
00000080: 0ad3 863e d622 873d 6f04 a03b 848f 15be
00000090: 3a02 56be 619b 98be 8a71 c23e d491 e7be
000000a0: 50b2 293e 7849 c63e dca1 bf3c 4518 aa3e
000000b0: 0107 8a3e c8b2 b43c 1777 d13e 3c10 963e
000000c0: 9ad7 ddbe 5053 173e 7e2d 8d3e e5f7 ccbd
000000d0: 5a3d a33e 9264 abbe bdb3 be3e f53d b3be
000000e0: 1fea dd3e 9c72 e5bd 985f 95bc 2f20 8fbc
000000f0: 4561 90be 2079 1c3d dd8e 0cbc a936 ba3d
00000100: 2a3a 953d 9434 10be 8098 69be 65eb ab3e
00000110: 1f83 b03e 5780 5cbe 252b 9f3e 476d 90be
00000120: 1e6a e23e aba4 b83e 7be1 c7be 40ef 263e
00000130: 89e5 51be ffe4 90be ec1e 583d c1e4 dd3e
0.2610469 0.4736349 -0.45309392 0.099947795 0.15021542 0.0971679 0.30280918 0.2879027
-0.13763332 0.46356177 0.18686508 0.38002068 -0.16655353 0.38098925 -0.251452 -0.096085556
0.48809886 0.04453826 0.30159354 -0.20406795 0.37477666 0.33181378 -0.21760327 -0.059209444
-0.4518807 0.48886636 0.43506387 -0.39244393 -0.4007964 0.28795856 0.13510743 0.40803787
0.26332885 0.06598441 0.004883341 -0.14605528 -0.20899287 -0.29806045 0.37977248 -0.45228446
0.16571927 0.38727927 0.02339261 0.3322164 0.2695847 0.022057906 0.4091117 0.2930926
-0.43328553 0.14777875 0.2757377 -0.1000822 0.31882745 -0.33475167 0.37246504 -0.35008207
0.43342683 -0.11203501 -0.01823406 -0.017471401 -0.2819921 0.03820145 -0.008578983 0.09092457
0.072864845 -0.14082557 -0.2281208 0.3357803 0.34475037 -0.21533333 0.31087604 -0.28208372
0.44221586 0.36063132 -0.39039215 0.16302204 -0.20497717 -0.2829971 0.052763864 0.43338588

bias f4 [20]
00000000: 428d 2abe 594b 3bbe 3e9c 04be 98bc eebb
00000010: 3c9a cd3e 973c ad3d 3fb2 ebbe aaab c5bc
00000020: 9b24 473e f16b 533d a12c f4be 5163 a6be
00000030: fbcf e9bd 10e6 3e3d 1d39 7a3e 6884 f33e
00000040: 4e12 a33e 5564 823d 958b 88be b47d 253d
-0.16655448 -0.18290462 -0.12950227 -0.0072856657 0.40156734 0.08458822 -0.46034428 -0.024129707
0.19447558 0.051616613 -0.476903 -0.32497647 -0.11416622 0.046606123 0.2443585 0.47561955
0.31849903 0.06366793 -0.26668993 0.040403083

weight_ih_l0 f4 [12, 10]
00000000: 18bd 74be 3c78 2f3e b37f c8be bcb4 5c3e
00000010: 5ed5 d13e be2b b7be c783 14bc 136e cebe
00000020: 8f39 98be 1de7 b1bd 4b30 8cbe 0ed5 073f
00000030: 5b44 cfbe bdfb ecbd f7f5 d6be 7e31 cc3e
00000040: 9547 1dbe 53b4 3cbe 9b4b 8dbe dc34 803e
00000050: 2d27 eebe 240a 463e f2c8 a53b 2727 6f3e
00000060: 1a75 183e e140 903e 1258 8e3e 2020 f0bd
00000070: e311 ebbe 9aab e53e 2065 ca3e 688d a8be
00000080: d633 ccbe c0f8 1d3e 421b a43e af34 a03e
00000090: 1491 9cbe a0e0 b0be b945 acbe 668a bfbe
000000a0: 5d64 253e 4017 89be 4221 5cbe 3338 f53c
000000b0: cc5e a73d 0875 cc3e 21be 10bd 53ae 8fbe
000000c0: b7e1 593e ff91 74bd 859f 5cbd cdd1 a0be
000000d0: ebdb 723b db10 c83d 3b78 9cbd 79d3 e53e
000000e0: 3fe9 92be f75e fc3d cc09 d4be 2b3a 2b3e
000000f0: 938a 953d f8f8 a9be bbba 523d fd87 abbe
00000100: 98f2 d6be d92e 5f3e 58a7 1b3d 6e0c 973e
00000110: d4bc c4bd c367 0b3c b91c 813e 445d b7be
00000120: b05a 58bc 9f06 b03e 916c 0dbe 06c5 8fbe
00000130: 7dd4 5a3e ee75 ab3e 5e30 d6be 5269 ad3d
00000140: 68ec eebe 6fdb 2abd 5de1 ad3c d03f 233d
00000150: cef3 993e e067 aa3d c4ea 3bbe 84ea f7bc
00000160: 5fb3 183e 7ecd e8be a650 97be b7c9 d13d
00000170: d3de 963d 7e28 cd3e f7f1 4dbd 0be6 aebe
00000180: ba7c 4d3e 4ff6 e6bd 630d 043f da8c db3e
00000190: 4117 c5be 4f65 143c 0f88 b8bd 6fa2 8c3e
000001a0: 61f9 4dbc c2ae e03e 680e c5be 648e c9bc
000001b0: 6811 05be 19e8 c5be 4c7b bd3e 9025 1dbe
000001c0: 78f3 1a3e 1c7f e1be d618 54bd 1590 1c3e
000001d0: fe5c 633d e7df 873e f815 06be 8554 cd3e
-0.23900259 0.1713571 -0.39159927 0.2155332 0.409831 -0.3577556 -0.009064621 -0.40318355
-0.29731414 -0.086866595 -0.27380595 0.5305947 -0.4048184 -0.11571453 -0.4198453 0.3988151
-0.15359338 -0.18428163 -0.27596745 0.25040329 -0.46514264 0.19339806 0.005059355 0.23354779
0.1488842 0.281745 0.27801567 -0.11724877 -0.45912084 0.44857484 0.39530277 -0.32920384
-0.39883298 0.15426922 0.32052046 0.31290194 -0.30579436 -0.34546375 -0.33646944 -0.37410277
0.16151567 -0.2677555 -0.21497062 0.029934024 0.08172378 0.39933038 -0.03533757 -0.28062686
0.2127751 -0.059709545 -0.053863067 -0.31410065 0.003705735 0.0976884 -0.0764012 0.44887903
-0.28693578 0.123228006 -0.41413724 0.16721408 0.073018216 -0.3319776 0.05144761 -0.33502188
-0.4198196 0.21795215 0.03800139 0.2950167 -0.096063286 0.008508625 0.25217226 -0.35813344
-0.013205215 0.34380051 -0.13810946 -0.28080004 0.2137012 0.3348841 -0.41833776 0.08467354
-0.4666474 -0.041713174 0.021225626 0.03985578 0.3006882 0.08320594 -0.18351275 -0.030263193
0.14912175 -0.45469278 -0.29553717 0.10243552 0.07366719 0.40069956 -0.050279584 -0.34159884
0.2006711 -0.112774484 0.51582927 0.428809 -0.38494304 0.009057357 -0.09010326 0.27467677
-0.012571664 0.4388333 -0.38487554 -0.02460403 -0.12994921 -0.3865364 0.3700813 -0.1534636
0.15131938 -0.4404229 -0.051781498 0.15289338 0.055508606 0.2653801 -0.13094318 0.40103546

weight_hh_l0 f4 [12, 4]
00000000: e842 cebc 801d 123e 046e 6ebe 8bcc 403e
00000010: 8f5e d1be ea55 013f 03ab 903e 153e f8be
00000020: b50e 9e3e 8dc0 01bf f8c4 18be 45b0 6e3e
00000030: 3102 c6be b200 a33e 53af 723e 4a41 b83e
00000040: e6bf 8dbe a1a7 f2bd cfc0 f0be d14e f73e
00000050: 4a9d 9e3e 3ba8 1dbe 2ce8 c4be 0653 b23e
00000060: b438 efbe a34c e03d 2c4d e43e 0e0f 6c3e
00000070: 394a 8a3e 13b2 f03e ed67 a33d 71bd f2bc
00000080: 517e 2f3e 08c9 b7bd b198 953e 4527 5f3b
00000090: f40c d3be 47dd d4be 4eb2 92be d0a5 dd3e
000000a0: 3016 57be 41c0 33be fac4 d4be c8cb f7be
000000b0: 0f62 a43d 83f6 b8be 8356 ac3e e177 193e
-0.025178388 0.14269066 -0.23284155 0.18828027 -0.40892455 0.5052172 0.28255472 -0.48484865
0.30870596 -0.50684434 -0.14918888 0.23309429 -0.38673547 0.31836468 0.23699693 0.35987312
-0.2768547 -0.11848379 -0.470221 0.4830232 0.30979377 -0.15396206 -0.38458383 0.34828967
-0.4672295 0.10952117 0.44590127 0.23052618 0.27009752 0.4701086 0.07978807 -0.029631348
0.1713803 -0.089738905 0.29218057 0.0034050506 -0.4122082 -0.4157507 -0.2865166 0.43290567
-0.21004558 -0.17553808 -0.4155653 -0.4839766 0.08026516 -0.36125574 0.33659753 0.14987136

bias_ih_l0 f4 [12]
00000000: 7446 263e f880 c9be 2a2d de3e 5df4 973d
00000010: 70c9 5d3e 4866 b53e 95bd 57be 1b17 1b3e
00000020: ddf0 833e 65f0 5a3e 65a5 eabe b398 033f
0.16237813 -0.39356208 0.43393832 0.074196555 0.21658874 0.35429597 -0.21068414 0.15145533
0.25769702 0.21380766 -0.4582931 0.51404876

bias_hh_l0 f4 [12]
00000000: 4c53 a73d ed65 c0be aa7f da3d 97bc 86be
00000010: a9ad 98be e4c5 de3e 7d14 623e 4d4c 5d3e
00000020: effb f33e 9695 943e 9cd1 9f3e ae68 ff3e
0.081701845 -0.37577763 0.10668881 -0.26315758 -0.29819992 0.43510354 0.22078128 0.21611138
0.47653148 0.29020375 0.31214607 0.49884552
