RTSNet/new_architecture/linear/best-model_linear2x2rq020T100.pt (torch, 139828 bytes, 70 tensors)

weight_ih_l0 f4 [12, 10]
0	0xbeabcd5d	-0.33555117
1	0x3d4fb036	0.050705157
2	0x3e8da9fe	0.27668756
3	0xbe99ed58	-0.3006389
4	0x3ef4b32e	0.47792953
5	0x3e96ec6d	0.29477254
6	0xbec22a1c	-0.37922752
7	0x3ec9b91e	0.39399046
8	0xbd9e1742	-0.0771928
9	0x3dad9270	0.08475196
10	0xbe9b4adf	-0.3033056
11	0xbee19d98	-0.44065547
12	0xbe35177a	-0.17684737
13	0x3c52f2f2	0.0128753055
14	0x3e1f1627	0.15535794
15	0x3dc5f4fc	0.09665868
16	0x3e8a93c7	0.2706587
17	0x3ec75a47	0.38936064
18	0xbe404422	-0.1877599
19	0x3de73e38	0.11291164
20	0x3f0f18eb	0.55897397
21	0x3d2b32a9	0.04179636
22	0x3ecfd314	0.40590727
23	0x3e645c5a	0.22300854
24	0xbe8578e9	-0.2606881
25	0x3dbd5931	0.092455275
26	0x3e3cf755	0.18453725
27	0x3df4c074	0.1195077
28	0xbeaf5130	-0.3424163
29	0x3d61588d	0.05501609
30	0x3ee27d43	0.44236192
31	0x3c8f99f3	0.017529463
32	0xbeb74303	-0.35793313
33	0xbeb3c5c7	-0.3511183
34	0xbca043d4	-0.019563593
35	0x3ef7dd0d	0.48410836
36	0x3b7d0603	0.003860832
37	0xbe973876	-0.29535264
38	0xbe54d2b2	-0.20783499
39	0x3eb0b0c0	0.3450985
40	0x3edf431b	0.43605885
41	0x3e5014b2	0.20320395
42	0xbec829e5	-0.39094463
43	0xbe8a7ff6	-0.2705075
44	0xbbbe3cb6	-0.005805577
45	0x3e9b5085	0.3033487
46	0x3ec517ca	0.38494712
47	0xbe192dae	-0.14958832
48	0xbea0b185	-0.31385437
49	0xbeb26d55	-0.3484904
50	0x3ea54874	0.3228184
51	0x3d4d2370	0.050082624
52	0x3e9ee44d	0.31033555
53	0xbe8e5c1d	-0.27804652
54	0xbc390bd7	-0.011294327
55	0xbec7bb65	-0.39010158
56	0x3eeebf1f	0.4663019
57	0x3d2cd790	0.042197764
58	0x3e4d9da8	0.20079672
59	0x3e2207a8	0.15823233
60	0x3e8da69c	0.27666175
61	0xbdfa9ad2	-0.12236561
62	0x3e777c9e	0.24168631
63	0xbe8c1859	-0.27362326
64	0xbede4b18	-0.43416667
65	0xbe0d79c5	-0.13815983
66	0xbea5e144	-0.32398427
67	0xbeb651a0	-0.3560915
68	0xbe0718a5	-0.13192995
69	0xbeecdf42	-0.46264082
70	0x3e8b2877	0.2717931
71	0xbec0a132	-0.37622982
72	0x3ccaa831	0.024738403
73	0x3ebef6cb	0.37297663
74	0x3deeb02b	0.11654695
75	0xbebeff79	-0.37304285
76	0xbee9bf2c	-0.45653665
77	0x3d022ce1	0.03178108
78	0xbe6fec94	-0.23430091
79	0xbe96afb3	-0.29430923
80	0x3e30dbc4	0.17271334
81	0x3e776cf0	0.2416265
82	0x3e20ba64	0.15696102
83	0xbe01c417	-0.12672459
84	0x3dfec124	0.124391824
85	0x3e66d5ec	0.22542542
86	0xbe7e030f	-0.24805854
87	0x3dae6a19	0.0851633
88	0x3e46888f	0.1938803
89	0xbe222ccb	-0.158374
90	0x3e99a3eb	0.30007872
91	0xbeae1f07	-0.34008047
92	0xbe42bef0	-0.1901815
93	0xbe90ce01	-0.28282169
94	0x3df6e18d	0.12054739
95	0x3dfbecf7	0.12301057
96	0xbea5b10c	-0.3236164
97	0xbcadc093	-0.02120999
98	0x3e47e402	0.19520572
99	0xbe92b061	-0.2865019
100	0x3ed6b645	0.41935936
101	0x3c93aa51	0.01802555
102	0x3cd5f58b	0.02611806
103	0x3e1c6528	0.15272963
104	0xbee6591f	-0.4498987
105	0x3e7294aa	0.23689523
106	0x3e5408b4	0.20706445
107	0xbce06def	-0.02739617
108	0xbe5050fc	-0.20343393
109	0xbec89357	-0.3917491
110	0x3ec27d6c	0.37986314
111	0xbe9ab3ba	-0.30215245
112	0x3ed35681	0.41276935
113	0xbead04d4	-0.33792746
114	0x3d00a53a	0.031407572
115	0xbee61509	-0.44937924
116	0xbe484143	-0.19556145
117	0xbebff4b1	-0.37491372
118	0xbda25797	-0.07926863
119	0x3e588a90	0.21146607

weight_hh_l0 f4 [12, 4]
0	0x3e2a0fd3	0.16607599
1	0x3e676a82	0.22599223
2	0xbea188b4	-0.3154961
3	0x3de52b93	0.11189952
4	0x3e8e9e17	0.27854988
5	0x3eda236b	0.42605147
6	0xbdfd5233	-0.12369194
7	0x3e6a0048	0.2285167
8	0x3de2c9e2	0.11073662
9	0x3e80b7dd	0.25140277
10	0xbea7745f	-0.32705972
11	0xbecc58ea	-0.39911586
12	0xbeaa02f4	-0.33205378
13	0x3eb429cc	0.35188138
14	0xbe350df6	-0.17681107
15	0xbee9963c	-0.45622432
16	0xbe91a503	-0.28446206
17	0xbea3c6ab	-0.3198751
18	0xbe11f8c7	-0.14255057
19	0x3d0b2897	0.033974256
20	0xbee7699f	-0.4519777
21	0xbeb7dac7	-0.359091
22	0xbe17a892	-0.14810398
23	0x3eaf3989	0.34223583
24	0x3d993018	0.07479876
25	0xbebbd2d1	-0.36684278
26	0x3e87513e	0.2642917
27	0xbca2bea6	-0.019866299
28	0x3e0ed15e	0.13947055
29	0xbda11c09	-0.078666754
30	0x3d378a20	0.04480946
31	0xbefdf846	-0.4960348
32	0x3e9be958	0.30451465
33	0xbe5129be	-0.2042608
34	0xbd1041fd	-0.03521918
35	0xbec4ca06	-0.38435382
36	0x3d52d84e	0.051475815
37	0x3ee194f9	0.4405897
38	0xbebc0c3c	-0.36728084
39	0xbeadaa05	-0.33918777
40	0x3e246a60	0.16056204
41	0x3e6d2b3e	0.23161027
42	0x3e94f515	0.29093233
43	0xbe802328	-0.25026822
44	0xbd950a37	-0.07277339
45	0xbea6d986	-0.32587832
46	0x3de191ba	0.11014123
47	0x3e328669	0.17434086

bias_ih_l0 f4 [12]
0	0x3d9d8c86	0.07692818
1	0x3e9eca15	0.3101355
2	0xbdcd6ef3	-0.100309275
3	0x3b237e28	0.002494702
4	0x3e22b4e5	0.15889318
5	0x3e4823a0	0.1954484
6	0xbd93aeb9	-0.0721106
7	0x3e245ee4	0.16051823
8	0x3e6c1375	0.23054297
9	0x3d8730f9	0.06601138
10	0x3ed4dd9b	0.41575322
11	0x3e6cb5ab	0.23116176

bias_hh_l0 f4 [12]
0	0xbf00c385	-0.5029834
1	0xbd82bee3	-0.06384065
2	0x3ec2d01d	0.38049403
3	0xbe00bcd9	-0.1257204
4	0xbe74f4cf	-0.23921512
5	0x3e5b9000	0.2144165
6	0x3dc3cc4c	0.09560451
7	0x3e90a5fd	0.2825164
8	0x3d84c0a4	0.06482056
9	0xbd05d7c4	-0.032676473
10	0xbe6e9ca9	-0.23301949
11	0xbee12743	-0.43975267

weight_ih_l0 f4 [12, 14]
0	0x3db52d2e	0.08846508
1	0x3d9712f5	0.07376663
2	0x3eac332b	0.33632788
3	0xbd60b728	-0.05486217
4	0x3e1614f9	0.14656438
5	0x3ea8387f	0.32855603
6	0xbeb0e28c	-0.34547842
7	0xbcaf2aba	-0.021382678
8	0xbeadc73f	-0.33941075
9	0x3dbb42ec	0.09143624
10	0x3eb44290	0.35207033
11	0xbe225e25	-0.15856226
12	0x3ec6bd3b	0.38816246
13	0x3ef10607	0.4707491
14	0xbeeaa888	-0.45831704
15	0x3eb2dfc4	0.34936345
16	0xbea3e9e6	-0.32014388
17	0xbed12ad6	-0.40852994
18	0xbec01552	-0.37516266
19	0x3eb0602d	0.34448376
20	0xbe65d252	-0.22443512
21	0x3ebfe356	0.3747813
22	0xbd8cb936	-0.06871264
23	0xbe3b4298	-0.18287122
24	0x3e8b4aa2	0.27205378
25	0x3e4de867	0.20108186
26	0x3ec19aff	0.37813565
27	0xbe4a4e0d	-0.19756337
28	0xbe8bfc12	-0.27340752
29	0x3dba8dcf	0.09109079
30	0xbe0c6f38	-0.13714302
31	0x3eb2f0b8	0.3494928
32	0xbe599145	-0.21246822
33	0xbdab5074	-0.083649546
34	0x3e45ccdb	0.19316427
35	0x3e2f5ce0	0.17125273
36	0x3e2e3d87	0.17015658
37	0x3e7a5fed	0.24450655
38	0xbdd2f487	-0.10300546
39	0x3eb0ddaa	0.34544116
40	0xbe2050fa	-0.1565589
41	0xbefaed14	-0.49009
42	0x3eacf55c	0.33780944
43	0x3f06cdc6	0.52657735
44	0xbeb8ec4c	-0.3611778
45	0xbeca1b9a	-0.39474183
46	0x3e7a4f40	0.24444294
47	0x3da4a4c7	0.08039241
48	0xbe304659	-0.17214336
49	0xbed8de8d	-0.42357293
50	0xbe83b67b	-0.2572516
51	0xbb2ca017	-0.0026340538
52	0xbe657a6a	-0.22409979
53	0x3e9fac41	0.31186107
54	0xbe4a053f	-0.19728564
55	0xbefef416	-0.49795598
56	0x3e254172	0.16138247
57	0x3ecb7bcd	0.3974289
58	0x3d8844a0	0.06653714
59	0x3ee3d1a9	0.44495896
60	0xbe875d0d	-0.2643818
61	0x3ed9f03a	0.4256609
62	0xbe17682f	-0.14785837
63	0x3e3a6e72	0.18206194
64	0xbe2702be	-0.1630964
65	0x3e2f3624	0.17110497
66	0xbdd6d96b	-0.10490688
67	0x3e884ff7	0.26623508
68	0xbecd844c	-0.40139997
69	0x3eea9860	0.45819378
70	0x3e0d62bf	0.138072
71	0x3cdba845	0.026813636
72	0xbd6560c5	-0.05600049
73	0xbe732f04	-0.23748404
74	0x3ca92b61	0.020650567
75	0x3d554633	0.0520689
76	0x3d728eef	0.059218343
77	0x3dcda15a	0.10040541
78	0xbe2373e0	-0.15962172
79	0x3e5b53f6	0.21418747
80	0x3da46861	0.08027721
81	0xbed37e9a	-0.41307527
82	0xbe5652a3	-0.20929961
83	0x3cf2c6a7	0.02963574
84	0xbec4dc3f	-0.38449284
85	0x3eaa080f	0.33209273
86	0x3d5750b3	0.052567195
87	0x3eec7c14	0.46188414
88	0xbed5e79a	-0.4177826
89	0x3e01d311	0.12678172
90	0x3e4d75c7	0.2006446
91	0x3cbfd925	0.023418972
92	0x3ef98e83	0.4874154
93	0x3ed2f6a5	0.412038
94	0xbe63a12d	-0.22229452
95	0x3dda4bb9	0.10658974
96	0xbe43b66c	-0.19112557
97	0x3e0104b5	0.12599452
98	0x3e9c6e45	0.3055288
99	0x3eea2f76	0.45739335
100	0xbea3743b	-0.31924614
101	0x3e5513c9	0.20808329
102	0xbe63a28e	-0.22229978
103	0x3ead47d4	0.33843863
104	0x3ef3b772	0.47600895
105	0x3ee93e4d	0.45555344
106	0xbe1bd7c8	-0.15219033
107	0x3dd46108	0.1037007
108	0xbe976bb7	-0.29574367
109	0xbeaae9ef	-0.33381602
110	0xbdd04e9e	-0.10171245
111	0xbed0d79d	-0.407895
112	0xbecda5f1	-0.40165666
113	0x3ee50961	0.44733718
114	0xbe7bdcb0	-0.24595904
115	0xbd89808f	-0.06713974
116	0xbe37e1e8	-0.1795727
117	0xbe81199b	-0.25214848
118	0x3e91c386	0.28469485
119	0xbc109211	-0.008823887
120	0xbeb029e1	-0.3440695
121	0xbed8e55c	-0.42362487
122	0xbdfda8e5	-0.1238573
123	0x3e321fa2	0.1739488
124	0xbe8a3efb	-0.27001175
125	0xbea3fbcc	-0.32028043
126	0x3e7b862e	0.24562904
127	0xbecde530	-0.4021392
128	0x3e43ac28	0.19108641
129	0xbe89832c	-0.2685789
130	0x3e8dc49e	0.2768907
131	0xbee30b83	-0.4434472
132	0xbe59b866	-0.21261749
133	0x3e848257	0.2588069
134	0xbed28286	-0.41115206
135	0xbeb4532a	-0.352197
136	0xbec50e08	-0.38487267
137	0xbe097963	-0.13425212
138	0x3e64b6de	0.22335383
139	0xbe7bb5d8	-0.24581087
140	0x3e33f670	0.17574477
141	0x3ee1d230	0.44105673
142	0x3e885a56	0.2663142
143	0x3eb02c0f	0.34408614
144	0xbdd9d762	-0.10636784
145	0x3ef7a5d2	0.48368698
146	0x3ebbf4e4	0.36710274
147	0xbe527f3b	-0.20556347
148	0xbe3d55ba	-0.18489733
149	0x3e6342f9	0.22193517
150	0xbc36fb62	-0.011168333
151	0xbdd6a6c3	-0.10481026
152	0x3d83e876	0.06440823
153	0x3dcd876b	0.100355946
154	0xbeb51547	-0.35367796
155	0x3ea4dd43	0.3220006
156	0xbeba829e	-0.36427778
157	0xbe15a73f	-0.1461458
158	0xbec9bf45	-0.3940374
159	0xbe74ea3f	-0.23917483
160	0xbecf9437	-0.40542766
161	0xbebabc75	-0.36471906
162	0xbeaadc31	-0.33371118
163	0x3e0ae693	0.1356452
164	0xbd69eaf9	-0.057108853
165	0xbe5ca7ef	-0.21548437
166	0xbe3436a8	-0.17598975
167	0x3cb102e8	0.021607831

weight_hh_l0 f4 [12, 4]
0	0xbe619ce1	-0.22032501
1	0x3eabb157	0.33533737
2	0x3eee4fcf	0.46545264
3	0xbe373dd1	-0.17894675
4	0x3e640fba	0.22271624
5	0x3eb89ea9	0.36058548
6	0xbeec54a4	-0.46158326
7	0xbe48ada0	-0.19597483
8	0x3e390563	0.18068461
9	0x3e1ad90b	0.15121858
10	0xbeba0006	-0.36328143
11	0x3e60d2ef	0.21955465
12	0xbdcfbe83	-0.10143759
13	0xbed8767c	-0.42277896
14	0xbea29b82	-0.31759268
15	0xb9b67251	-0.00034798917
16	0xbe278110	-0.16357827
17	0x3ef71afc	0.48262775
18	0x3b73c639	0.0037197007
19	0xbd8e9a38	-0.06963009
20	0xbe3b62b8	-0.18299377
21	0xbdc41451	-0.095741875
22	0x3ea6c527	0.3257229
23	0xbe8fcd80	-0.28086472
24	0xbed5035d	-0.41604128
25	0xbe9ab3e8	-0.30215383
26	0xbec20167	-0.37891695
27	0xbe2e314c	-0.17010993
28	0x3e9a883e	0.3018207
29	0x3e605456	0.21907172
30	0x3ddfcd47	0.109278254
31	0x3eacd49f	0.33755967
32	0x3d49da24	0.0492803
33	0xbe77a422	-0.24183705
34	0x3eab732c	0.33486307
35	0x3ee483de	0.44631857
36	0x3e6333d9	0.22187747
37	0xbe0fba52	-0.1403592
38	0xbe872fae	-0.26403564
39	0xbe08a1bb	-0.13342945
40	0x3d44abd3	0.048015427
41	0xbe228c5f	-0.1587386
42	0x3ce395cd	0.027781392
43	0xbe9ce924	-0.30646622
44	0x3db2abdb	0.08724185
45	0x3ed1f62a	0.4100812
46	0x3ea917af	0.33025882
47	0x3e28f444	0.1649943

bias_ih_l0 f4 [12]
0	0xbeddcede	-0.4332189
1	0xbee125c2	-0.4397412
2	0x3ce13c94	0.027494706
3	0x3e4b6ded	0.19866152
4	0xbef6c8ae	-0.4819998
5	0xbeaa6988	-0.3328364
6	0x3ebc3ec2	0.3676663
7	0xbee008d1	-0.43756726
8	0xbdd3a96f	-0.10335051
9	0xbe87e78c	-0.26543844
10	0xbe5a542e	-0.21321175
11	0x3ecd8f38	0.4014833

bias_hh_l0 f4 [12]
0	0xbe0e368d	-0.13887997
1	0xbeb0f144	-0.3455907
2	0x3e748524	0.23878914
3	0x3e9d9f92	0.30785805
4	0x3e28a9b4	0.16470987
5	0xbe6aa7f1	-0.22915627
6	0xbeb37784	-0.3505212
7	0x3de005e8	0.109386265
8	0x3ed748b3	0.42047653
9	0xbcaacea7	-0.020850493
10	0xbec1c6b4	-0.3784691
11	0xbea744b5	-0.32669607

weight_ih_l0 f4 [12, 24]
0	0xbe80f3fb	-0.25186142
1	0x3e8c9d98	0.27463984
2	0xbdce1691	-0.10062898
3	0x3ee0f970	0.43940306
4	0xbe21e4ba	-0.15809909
5	0xbec29bd4	-0.38009512
6	0x3edfca6f	0.43709132
7	0x3e80b527	0.25138208
8	0x3ed34066	0.4126007
9	0xbd3fe7d3	-0.046851944
10	0xbea914ad	-0.33023587
11	0xbf0120f7	-0.50440925
12	0xbdfbfbbc	-0.12303874
13	0x3ea01714	0.31267607
14	0xbe95221d	-0.2912759
15	0xbe87a008	-0.26489282
16	0xbe4ce9eb	-0.20011108
17	0xbed82ce8	-0.4222176
18	0x3e977fe3	0.29589757
19	0x3eecca03	0.46247873
20	0x3e8b5215	0.2721106
21	0xbecc4b53	-0.39901218
22	0x3ec1e8ac	0.37872827
23	0xbdfc87d3	-0.12330594
24	0xbe886dc4	-0.26646245
25	0x3e9f4e68	0.31114507
26	0xbebc613b	-0.3679293
27	0x3e72bb13	0.23704176
28	0xbf001b0f	-0.5004129
29	0x3eddcbb9	0.4331949
30	0x3eb83df6	0.35984772
31	0x3d214e53	0.039381336
32	0x3df8379b	0.12119981
33	0x3e9332ec	0.28749788
34	0xbd75d342	-0.060015924
35	0xbe06c836	-0.13162312
36	0xbdb56978	-0.08858007
37	0xbef71bc3	-0.48263368
38	0xbe26476a	-0.1623818
39	0x3e611208	0.21979535
40	0x3e3b50ff	0.18292616
41	0x3e901115	0.28138033
42	0xbe2d3d3a	-0.16917887
43	0x3ea28e3e	0.31749147
44	0xbd51fd3f	-0.051266905
45	0xbd1b1e3b	-0.037870627
46	0x3e691345	0.22761257
47	0x3d50d7e7	0.05098715
48	0xbea7c67d	-0.32768622
49	0x3dbe70e2	0.092988744
50	0xbe88622a	-0.26637393
51	0x3e0a35a3	0.13497023
52	0x3c0e4c56	0.008685192
53	0x3c8f011b	0.017456582
54	0xbd0bfb98	-0.034175485
55	0xbe56f73c	-0.2099275
56	0xbedd9fb2	-0.432859
57	0x3eefd1ec	0.46839845
58	0xbbf88b86	-0.007584992
59	0xbefa06b1	-0.4883323
60	0x3eebbaa0	0.4604082
61	0xbe9b6c61	-0.30356124
62	0xbd195c63	-0.037441622
63	0xbdab0c9c	-0.083520144
64	0xbe1a945a	-0.15095654
65	0x3e87884c	0.26471174
66	0x3e8f666c	0.2800783
67	0x3ed535b0	0.41642523
68	0xbe402fdd	-0.18768258
69	0xbeef0669	-0.46684578
70	0xbe9b3aea	-0.30318385
71	0xbe8a8ec0	-0.27062035
72	0x3eb98252	0.3623224
73	0xbe5ed515	-0.21760972
74	0xbee3eeed	-0.44518223
75	0x3eb1dc43	0.3473836
76	0xbe82e9ee	-0.255691
77	0xbd8cd9a7	-0.068774514
78	0x3ee5d5b5	0.44889608
79	0xbdd74a87	-0.10512262
80	0x3c773ac3	0.0150896935
81	0xbe71afaf	-0.23602174
82	0x3e344ff5	0.17608626
83	0x3dcf5a7a	0.10124679
84	0xbea820ee	-0.32837623
85	0x3e14e220	0.14539385
86	0x3e8c0e4e	0.27354664
87	0xbeee154b	-0.4650062
88	0xbedb55dc	-0.42838943
89	0x3e98c126	0.2983486
90	0xbe82e3ef	-0.25564525
91	0x3e969389	0.29409435
92	0x3ddce92a	0.1078666
93	0xbe9d4d35	-0.30722967
94	0x3e774bdb	0.2415003
95	0x3e7429df	0.23844098
96	0xbea560ad	-0.3230032
97	0x3edb63f5	0.428497
98	0xbe2c69cd	-0.16837235
99	0xbe914790	-0.2837491
100	0xbe6863c9	-0.22694315
101	0x3e8c314f	0.2738137
102	0xbe7d4029	-0.24731506
103	0x3d8e76b1	0.06956232
104	0x3e76dd82	0.24107936
105	0x3e8d8825	0.27642933
106	0xbe8a76ae	-0.2704367
107	0xbe25dc39	-0.1619729
108	0xbeaf7c3e	-0.34274477
109	0xbcc71083	-0.024299866
110	0x3e9bf9b8	0.30463958
111	0x3de479c7	0.1115604
112	0x3de78383	0.11304381
113	0xbdeaf0ff	-0.114717476
114	0x3ea9e1c8	0.3318007
115	0x3e3e0ad1	0.18558814
116	0x3ec1c7b7	0.37847683
117	0xbcab1c75	-0.020887593
118	0xbebe682f	-0.3718886
119	0xbc8871e2	-0.016655866
120	0x3e839384	0.25698483
121	0x3d6cbd2a	0.05779759
122	0x3ca1dce9	0.019758658
123	0x3e0ddbea	0.13853422
124	0x3f02be63	0.5107176
125	0xbee23dd4	-0.44187796
126	0x3e8cb438	0.27481246
127	0x3e99a065	0.30005184
128	0x3e9b15e4	0.3029014
129	0x3e4dd089	0.20099081
130	0x3e1e3b89	0.15452398
131	0x3e8ffd09	0.28122738
132	0xbf01b672	-0.50669014
133	0xbcb21605	-0.021739015
134	0xbe9a5275	-0.30141035
135	0xbd6504cf	-0.05591279
136	0x3ea960a8	0.33081555
137	0x3e8e29bc	0.27766216
138	0x3e421664	0.18953854
139	0x3e0f3481	0.13984872
140	0x3c19a3b8	0.0093774125
141	0x3e85fb2d	0.26168194
142	0xbefc82bc	-0.49318492
143	0x3c80b65d	0.015711958
144	0xbe8c0379	-0.273464
145	0x3eadd629	0.33952454
146	0x3d3096a3	0.04311241
147	0x3e12d0ce	0.14337465
148	0xbec308fe	-0.38092798
149	0xbd8f6d2b	-0.07003244
150	0x3ee0cb6a	0.43905193
151	0xbe1fc910	-0.15604043
152	0x3ee32af2	0.44368702
153	0xbcf12cac	-0.029440247
154	0xbdc6ac12	-0.097007886
155	0x3efee9b3	0.49787673
156	0x3d636365	0.055514712
157	0xbea72c87	-0.3265116
158	0x3dcf703a	0.101288274
159	0x3e9754b7	0.2955682
160	0x3eff3c9b	0.49850926
161	0x3ef9c850	0.4878564
162	0x3e843d91	0.2582822
163	0xbe2c1659	-0.168054
164	0x3e34f925	0.17673166
165	0x3ed5dcfa	0.41770154
166	0xbed7866e	-0.4209475
167	0x3e628669	0.22121586
168	0xbe93863b	-0.28813347
169	0xbed9574e	-0.4244942
170	0xbdb079cb	-0.0861698
171	0xbe4e6be0	-0.20158339
172	0xbe1ca5f1	-0.15297677
173	0x3ebd63a6	0.36990088
174	0xbece4d12	-0.40293175
175	0x3e748ee5	0.23882635
176	0x3ec1be3c	0.3784045
177	0xbe0b1725	-0.13583048
178	0xbe664d66	-0.22490463
179	0x3d9b6392	0.07587351
180	0x3b2c699f	0.0026308072
181	0x3ecce014	0.40014708
182	0xbec0b497	-0.3763778
183	0xbea07f09	-0.3134692
184	0xbead0247	-0.337908
185	0x3edf6b62	0.43636614
186	0x3e8efc02	0.27926642
187	0x3c5e0a4f	0.013552262
188	0xbd0e4d18	-0.03474149
189	0x3ee8d1f9	0.45472696
190	0x3ec06ba7	0.37582132
191	0x3cbd49e0	0.023106515
192	0xbdfc77ab	-0.12327512
193	0x3e1bc60e	0.1521227
194	0x3ea255c8	0.3170607
195	0xbedcb55d	-0.4310712
196	0xbee0f9ff	-0.43940732
197	0xbdf0b64b	-0.117535196
198	0xbe1d2ae5	-0.15348394
199	0xbee7f014	-0.45300353
200	0x3e5518da	0.20810261
201	0x3c9a7175	0.018852929
202	0x3ea61970	0.32441282
203	0xbebf2597	-0.37333366
204	0xbef4b14a	-0.4779151
205	0x3edd9875	0.43280378
206	0x3e323d2c	0.17406148
207	0xbe29ec28	-0.16593993
208	0xbdfb4b2b	-0.122701965
209	0x3e086564	0.13319927
210	0x3e5781c7	0.210456
211	0xbe612b40	-0.21989155
212	0x3e2fb7f5	0.17160018
213	0xbe2c8ba2	-0.1685014
214	0x3db2647d	0.08710573
215	0x3e99a426	0.30008048
216	0x3ee501dd	0.44727984
217	0xbeafa1b0	-0.34303045
218	0x3ea8dd48	0.32981324
219	0x3e02396c	0.12717217
220	0xbe4f6adc	-0.20255607
221	0x3ebd3be1	0.36959746
222	0xbe8ddb9c	-0.2770661
223	0xbe07b268	-0.1325165
224	0xbe8fa2e6	-0.2805397
225	0x3dae9b21	0.08525682
226	0x3cadac3f	0.021200297
227	0x3e064bc6	0.13114843
228	0xbe612efc	-0.2199058
229	0x3e851de8	0.2599938
230	0x3e212ed3	0.15740518
231	0xbd16685e	-0.036720626
232	0x3ed0c248	0.40773225
233	0x3ec94bed	0.3931574
234	0x3e5c66dc	0.21523613
235	0x3ddd3975	0.10801975
236	0xbe57809b	-0.21045153
237	0xbe080bc4	-0.13285738
238	0xbde89dcf	-0.113582246
239	0xbeb973d2	-0.36221176
240	0xbe23ad07	-0.15983973
241	0x3eb58346	0.35451716
242	0xbf08fd73	-0.5351173
243	0x3d746286	0.05966427
244	0xbe8b3644	-0.2718984
245	0x3e8ad363	0.271144
246	0xbde1d090	-0.11026108
247	0x3e805e81	0.250721
248	0xbd3a220a	-0.04544262
249	0xbdcd7f40	-0.10034037
250	0xbe0aac73	-0.13542347
251	0xbe557642	-0.20845893
252	0xbead8156	-0.33887738
253	0xbdcfadf7	-0.10140603
254	0xbe533c23	-0.20628409
255	0xbe8afe24	-0.2714702

weight_hh_l0 f4 [12, 4]
0	0xbeac5a77	-0.3366277
1	0xbeec90f2	-0.46204334
2	0x3ed82734	0.4221741
3	0x3c417720	0.011808187
4	0xbe198d92	-0.14995411
5	0xbd2cd058	-0.04219088
6	0xbddade03	-0.106868766
7	0x3ef0c50e	0.4702534
8	0x3e62b380	0.22138786
9	0x3ed346cb	0.41264948
10	0x3df24c75	0.11830989
11	0x3ecda96c	0.4016832
12	0xbe5d2767	-0.21597062
13	0xbe859e43	-0.26097307
14	0x3e2d3fbf	0.16918848
15	0xbe275d47	-0.16344176
16	0xbeeb96c7	-0.4601347
17	0x3ef7d739	0.4840639
18	0x3e1931db	0.14960425
19	0xbc058f9f	-0.008151918
20	0xbd9411bc	-0.07229945
21	0x3ed71d32	0.42014462
22	0xbe324f96	-0.17413172
23	0xbd980c4c	-0.074242204
24	0xbb4f315d	-0.0031615116
25	0x3db19cae	0.086724624
26	0x3ec5fd0c	0.38669622
27	0xbe6d1ead	-0.23156233
28	0xbee74d25	-0.45176044
29	0xbecff4a1	-0.40616325
30	0x3e5a803c	0.2133798
31	0x3d664b78	0.056224316
32	0x3e48669c	0.19570392
33	0xbea26001	-0.3171387
34	0xbd0d4bbb	-0.03449605
35	0xbe8b9810	-0.27264452
36	0xbeceb56e	-0.40372795
37	0xbe899d5f	-0.26877877
38	0x3d2004be	0.039067023
39	0x3d8038cf	0.062608354
40	0xbe2aaa4f	-0.1666653
41	0xbe97c816	-0.2964484
42	0xbdfb2637	-0.12263148
43	0xbe940b18	-0.28914714
44	0xbe2fb7f2	-0.17160013
45	0x3d8d2c7a	0.06893249
46	0xbe9ec618	-0.3101051
47	0xbe123ad9	-0.14280261

bias_ih_l0 f4 [12]
0	0x3ea7c73b	0.32769188
1	0xbed6e388	-0.41970468
2	0x3e710d64	0.23540264
3	0xbe81af25	-0.25328937
4	0xbde23751	-0.11045707
5	0x3ea77140	0.3270359
6	0xbe299a70	-0.1656282
7	0x3e15fb26	0.14646587
8	0x3ddf19a2	0.10893561
9	0xbe9c50d2	-0.3053041
10	0x3e15c374	0.1462534
11	0xbe2ff4ce	-0.1718323

bias_hh_l0 f4 [12]
0	0xbedf904a	-0.4366477
1	0xbe8cef34	-0.27526248
2	0x3e61aa85	0.22037704
3	0xbeab36e8	-0.33440328
4	0xbed5afe9	-0.4173577
5	0x3d62650b	0.055272143
6	0x3e26e0de	0.16296718
7	0xbd02aaa5	-0.03190102
8	0x3ed43ede	0.41454214
9	0x3ebd2338	0.36940932
10	0x3ddf65aa	0.10908063
11	0x3cb167e8	0.021655992

weight f4 [4, 4]
0	0xbee4a1b1	-0.4465461
1	0xbda4d304	-0.080480605
2	0x3e54c5ae	0.20778534
3	0xbec47268	-0.38368535
4	0xbee6c591	-0.45072606
5	0xbe6b7eb3	-0.2299755
6	0xbeb3ddc1	-0.35130122
7	0x3e3a7e2f	0.18212198
8	0x3eae22f2	0.34011036
9	0xbed21f73	-0.4103962
10	0xbda278ec	-0.0793322
11	0x3ef4865d	0.4775876
12	0xbe0568b7	-0.13028227
13	0xbee4cb02	-0.44686133
14	0x3e8d61b5	0.27613607
15	0xbee96c0b	-0.45590243

bias f4 [4]
0	0xbcc98ec4	-0.024604209
1	0x3ed007d1	0.40630963
2	0x3d7f0e92	0.062269755
3	0x3da851a5	0.082186975

weight f4 [320, 8]
0	0xbe0dfbd0	-0.1386559
1	0xbe79f1d6	-0.2440866
2	0x3e9c4dd6	0.30528134
3	0xbe4ec330	-0.20191646
4	0x3e11f88e	0.14254972
5	0x3e450ef3	0.19243984
6	0xbe495684	-0.1966191
7	0x3e09f554	0.13472492
8	0x3d1cbd8e	0.03826671
9	0xbda108e4	-0.07863024
10	0xbd36ae6b	-0.04459993
11	0x3eaa5487	0.33267614
12	0x3e6c41fb	0.23072045
13	0xbdc8d737	-0.09806674
14	0x3e011703	0.12606435
15	0x3e8e1d28	0.2775662
16	0xbe0765b8	-0.13222396
17	0xbe6f1204	-0.23346716
18	0x3e20991c	0.15683407
19	0x3e99e999	0.30061033
20	0x3d5bd768	0.053672224
21	0x3d22106b	0.03956644
22	0x3e561e14	0.20909911
23	0xbda33c22	-0.07970454
24	0xbe3a50dd	-0.1819491
25	0x3e6d6fab	0.23187129
26	0x3e28abda	0.16471806
27	0xbea1fd12	-0.3163839
28	0xbd825ed9	-0.06365747
29	0x3e557b5b	0.20847838
30	0x3d8a252e	0.06745373
31	0x3dd2e113	0.10296836
32	0xbc8402a2	-0.016114537
33	0xbc04d04d	-0.008106303
34	0x3e0cab5d	0.13737245
35	0xbdc46d1c	-0.095911235
36	0x3dbe667f	0.09296893
37	0x3eab60fe	0.33472437
38	0xbe23fd75	-0.16014655
39	0x3d671d5e	0.05642449
40	0x3e07edcc	0.13274306
41	0xbe0ec6c4	-0.1394301
42	0xbdcf20e2	-0.10113694
43	0xbdf28ee7	-0.11843663
44	0xbe9d0dc4	-0.30674565
45	0x3cb10482	0.021608595
46	0x3e66b662	0.22530511
47	0xbda2fb8e	-0.079581365
48	0xbeb1f676	-0.34758347
49	0xbe43486c	-0.19070596
50	0xbeacd055	-0.33752695
51	0x3dfeacdd	0.12435315
52	0x3e500930	0.20316005
53	0x3eb425e6	0.35185164
54	0xbdd921ff	-0.10602187
55	0xbe16d2d2	-0.14728859
56	0x3e216ff0	0.15765357
57	0x3e1bb52c	0.1520583
58	0xbdf935ed	-0.12168489
59	0x3eacdb52	0.33761078
60	0xbd43f77c	-0.04784344
61	0xbe6c3e27	-0.23070584
62	0x3e278251	0.16358306
63	0xbe5612a1	-0.20905544
64	0xbc21e6f8	-0.009881727
65	0x3ba5b842	0.0050573656
66	0x3e64815e	0.22314975
67	0xbe9b33e6	-0.30313033
68	0xbe0211f2	-0.12702158
69	0x3d63171f	0.055441972
70	0xbe41048b	-0.1884939
71	0x3e6701a8	0.22559226
72	0x3decabca	0.11556204
73	0xbe743f32	-0.23852232
74	0x3eb4f768	0.35345006
75	0x3e1ffa23	0.15622763
76	0xbe4fbfaf	-0.20287965
77	0x3e4d14f8	0.2002753
78	0xbdea9d02	-0.11455728
79	0xbe55097e	-0.20804402
80	0xbcaabfe5	-0.020843456
81	0xbdf3c9f0	-0.11903751
82	0x3b72e201	0.0037060978
83	0xbea49434	-0.3214432
84	0x3de7a071	0.11309899
85	0x3e6532fc	0.2238273
86	0xbdb2d1dd	-0.087314345
87	0xbe1de361	-0.1541877
88	0xbdeffc4d	-0.117180444
89	0x3e9197ed	0.28436223
90	0x3c1210a5	0.008915101
91	0xbe77dc76	-0.24205193
92	0x3e46c73e	0.19411942
93	0x3e1d460b	0.1535875
94	0x3e0e79f4	0.13913709
95	0x3e09da2a	0.13462129
96	0x3cc4bdac	0.024016224
97	0xbeb59a1d	-0.35469142
98	0xbc02bf23	-0.007980141
99	0xbe5856ad	-0.21126814
100	0x3e9b1237	0.30287334
101	0xbe492a94	-0.19645149
102	0xbe2e2b65	-0.17008741
103	0xbe8fbaea	-0.28072292
104	0x3d98b1b8	0.07455772
105	0xbd0dcb52	-0.03461773
106	0x3d1a60ab	0.037689846
107	0xbd97b4a2	-0.074075
108	0x3e9eaf48	0.30993104
109	0xbd98e46b	-0.07465442
110	0x3e7318e0	0.23739958
111	0xbe95f697	-0.29289696
112	0x3e8715c3	0.2638379
113	0xbda58997	-0.08082884
114	0x3c7dd74b	0.015493224
115	0xbea17ce8	-0.31540608
116	0x3df84072	0.12121667
117	0xbdaf28ee	-0.085527286
118	0x3d85e696	0.065381214
119	0x3e0c87e2	0.1372371
120	0x3e8bd4ff	0.2731094
121	0xbe2c04ee	-0.16798756
122	0x3e9bd98a	0.30439407
123	0x3e9a9f5a	0.301997
124	0x3e00a5e7	0.12563287
125	0x3d7113df	0.05885684
126	0x3e4a7f7c	0.19775194
127	0x3e85db1f	0.2614374
128	0xbdb0bfcb	-0.086303316
129	0x3e17e65c	0.14833969
130	0x3e8be0a2	0.2731982
131	0x3eac740d	0.3368229
132	0x3e5f1f44	0.2178927
133	0xbda1a1a9	-0.07892162
134	0xbe20001b	-0.1562504
135	0x3e0c726c	0.13715523
136	0x3e7f7357	0.24946342
137	0xbd395336	-0.04524537
138	0x3e1eb259	0.15497722
139	0x3e959cc6	0.2922117
140	0xbe3cce4c	-0.18438071
141	0x3e047c27	0.12937985
142	0xbe6c49c1	-0.2307501
143	0x3ec30308	0.3808825
144	0xbdce7398	-0.100806415
145	0xbe66127e	-0.22467992
146	0xbda3d6d1	-0.07999957
147	0xbe9b0b4e	-0.30282062
148	0x3e0d8ac1	0.13822462
149	0xbe8fe470	-0.2810397
150	0x3e909f8a	0.2824672
151	0x3dc50b69	0.09621317
152	0xbe744241	-0.23853399
153	0xbe65d1ab	-0.22443263
154	0x3e272fab	0.16326778
155	0x3e2f6725	0.1712919
156	0x3df43b79	0.11925406
157	0x3e852a84	0.26009
158	0x3d4087fd	0.04700469
159	0xbd756dde	-0.05991923
160	0x3eaefa43	0.3417531
161	0xbe265ef8	-0.16247165
162	0x3e79f4b9	0.2440976
163	0x3ca0f41b	0.019647649
164	0xbe782216	-0.24231753
165	0x3e845518	0.2584617
166	0x3e0d1eb1	0.13781239
167	0x3ebb1e10	0.36546373
168	0x3e305d35	0.17223056
169	0x3ea1fba9	0.31637314
170	0xbe3bca52	-0.18338898
171	0xbc98d98c	-0.018658422
172	0xbe865267	-0.26234743
173	0xbe674cbd	-0.22587867
174	0xbeb16a4e	-0.34651417
175	0x3e614d5d	0.22002168
176	0xbeae481c	-0.3403939
177	0x3eb2dc3f	0.3493366
178	0x3e19f9ba	0.1503667
179	0x3e6ef0b4	0.23334008
180	0x3e9e8a08	0.30964684
181	0x3c65ad05	0.014018302
182	0xbd319af3	-0.04336066
183	0xbe7575c7	-0.2397071
184	0x3e9a6cd1	0.30161145
185	0xbe1f648c	-0.155657
186	0x3e864435	0.26223913
187	0xbe17798e	-0.14792463
188	0x3e48b541	0.19600393
189	0x3e66f782	0.22555354
190	0xbeaaa777	-0.3333089
191	0x3cd9a88b	0.026569625
192	0xbe42e3ad	-0.19032164
193	0x3d914a93	0.07094302
194	0x3c6b93c5	0.014378493
195	0x3e56bfb9	0.20971574
196	0x3e0b380c	0.13595599
197	0xbe1e8f4f	-0.15484355
198	0xbe7b713e	-0.24554917
199	0xbcfa6021	-0.030563416
200	0xbe998069	-0.29980782
201	0xbea6552d	-0.3248686
202	0x3e2e9071	0.17047288
203	0x3e90df1c	0.2829522
204	0xbdc3e808	-0.09565741
205	0x3e356a1e	0.17716262
206	0x3e0387c9	0.12844767
207	0xbcd585e7	-0.026064826
208	0x3ea2e758	0.31817126
209	0x3e84d0db	0.25940594
210	0x3e5ef9fb	0.21775047
211	0xbd28cf1f	-0.04121315
212	0x3de29e2a	0.11065324
213	0xbe8f1b45	-0.27950493
214	0x3dcf4eb2	0.10122432
215	0xbe210b09	-0.15726866
216	0xbde2899b	-0.110614024
217	0x3eb193ee	0.34683174
218	0xbd94adef	-0.07259738
219	0x3d553171	0.052049104
220	0xbe1f2113	-0.1553996
221	0x3e87431b	0.26418385
222	0xbe8360a8	-0.2565968
223	0x3e409df7	0.18810259
224	0xbeb0a2e1	-0.34499267
225	0xbd35ffda	-0.044433452
226	0x3e002f88	0.12518132
227	0x3e95f6d0	0.29289865
228	0xbea8aa7e	-0.32942575
229	0x3c19bc44	0.009383265
230	0xbe83e309	-0.25759152
231	0x3ea2429d	0.31691447
232	0x3e8fd8e4	0.28095162
233	0x3e4bd51a	0.1990551
234	0xbdfe003a	-0.12402387
235	0xbea07e90	-0.3134656
236	0xbdab3f3f	-0.083616726
237	0xbe14b9e2	-0.14524034
238	0xbdb73b59	-0.089468665
239	0xbeacc8da	-0.33746988
240	0x3ba6f509	0.0050951284
241	0x3def6edc	0.116910666
242	0xbeb9b508	-0.36270928
243	0xbe0e0900	-0.1387062
244	0xbe810308	-0.25197625
245	0xbe9d9ef2	-0.30785328
246	0xbde60efc	-0.11233327
247	0x3e5575e0	0.20845747
248	0x3de63111	0.112398274
249	0xbdf68518	-0.12037104
250	0x3ea516f0	0.32244062
251	0x3e58f09f	0.2118554
252	0x3e031727	0.128018
253	0x3e0b2ecc	0.1359207
254	0x3e8689d4	0.2627703
255	0xbe949d4a	-0.29026252

bias f4 [320]
0	0xbe2cb2ff	-0.16865157
1	0xbd5863fa	-0.05282972
2	0xbe830914	-0.25592864
3	0x3e19a048	0.15002549
4	0x3eac3a4b	0.33638224
5	0xbe8b4981	-0.27204517
6	0xbe328c80	-0.17436409
7	0xbda7caba	-0.08192964
8	0xbe02e67c	-0.12783235
9	0xbb29ecfb	-0.0025928605
10	0xbe525e66	-0.20543823
11	0x3e88e18e	0.26734585
12	0xbe577023	-0.2103887
13	0xbea1865b	-0.31547818
14	0x3e6ac667	0.22927247
15	0x3dc32b33	0.09529724
16	0x3db3b005	0.087738074
17	0x3d1fc9b9	0.039010737
18	0x3e77a346	0.24183378
19	0x3e182a61	0.14859916
20	0x3d4b7186	0.04966881
21	0x3da40ef8	0.080106676
22	0x3c8782cf	0.016541867
23	0xbe65b25c	-0.2243132
24	0x3e78a5fb	0.24282067
25	0x3ea5f0bc	0.32410228
26	0xbdba0c30	-0.09084356
27	0x3d49a608	0.049230605
28	0x3eb2f9af	0.34956118
29	0x3ea7577a	0.32683927
30	0x3eb88528	0.3603909
31	0xbe12751e	-0.14302489
32	0xbe929c7e	-0.2863502
33	0x3eaf1c3c	0.3420123
34	0x3e2bd6b2	0.16781119
35	0xbda8c9d0	-0.08241618
36	0xbdd508dc	-0.104020804
37	0x3e43326f	0.19062208
38	0x3eaf6247	0.34254667
39	0xbe59cbc4	-0.21269137
40	0x3d392263	0.04519881
41	0x3e24d16b	0.16095512
42	0x3d105de3	0.035245787
43	0xbe698d55	-0.2280782
44	0xbe25192b	-0.16122882
45	0x3ea641ea	0.32472163
46	0x3e644908	0.22293484
47	0xbc8d69a9	-0.017262297
48	0xbe429cb6	-0.19005093
49	0xbe89727c	-0.26845157
50	0xbc94fe04	-0.01818753
51	0xbc78ea4a	-0.015192578
52	0xbe3d913a	-0.18512431
53	0x3ddec6fa	0.108777955
54	0x3ea9e060	0.33178997
55	0x3d9e072a	0.0771621
56	0x3cf7598d	0.030194068
57	0x3e60fb3e	0.21970841
58	0x3e459849	0.19296373
59	0x3d4fcb7e	0.050731175
60	0xbe0b58ee	-0.13608143
61	0x3e006896	0.12539896
62	0x3e4b41e8	0.1984936
63	0x3dd8d88e	0.105881795
64	0xbdec4a5b	-0.1153762
65	0x3e9e25c1	0.3088818
66	0x3e015fa1	0.12634136
67	0xbea5b452	-0.32364136
68	0xbe51fe91	-0.20507266
69	0x3e47b73c	0.19503492
70	0xbe15e239	-0.14637078
71	0x3e0bafe9	0.13641323
72	0xbe58d450	-0.21174741
73	0x3e348d43	0.17632012
74	0xbe1c6d20	-0.15276003
75	0x3b309d0f	0.0026949083
76	0xbcdb4970	-0.026768416
77	0x3db40b7d	0.08791254
78	0x3e2f49ec	0.17118043
79	0xbd81492e	-0.06312786
80	0xbdbfecdc	-0.09371349
81	0x3dbe2204	0.09283832
82	0xbe1e72c1	-0.15473463
83	0xbd18273d	-0.037146796
84	0xbd20eb3a	-0.03928683
85	0x3d4a9616	0.04945954
86	0xbdecd088	-0.11563212
87	0x3e915b45	0.28389946
88	0x3e1181bc	0.14209646
89	0x3e0b5dbe	0.13609979
90	0x3e919930	0.28437185
91	0xbe32d02b	-0.17462222
92	0xbe730e15	-0.2373584
93	0xbea5fdc2	-0.32420164
94	0xbe97dfb7	-0.29662868
95	0x3ca5e77b	0.02025198
96	0xbdc8be50	-0.09801924
97	0xbe4de92d	-0.20108481
98	0x3e5392f0	0.20661521
99	0x3e868e2b	0.2628034
100	0xbe783a4d	-0.2424099
101	0xbe14de6d	-0.14537974
102	0xbe2033d0	-0.15644765
103	0x3e46bf66	0.1940895
104	0x3e8a0826	0.26959342
105	0x3e9c6166	0.3054306
106	0x3a2ce67a	0.0006595623
107	0xbd155101	-0.036454204
108	0x3e5734e3	0.21016268
109	0xbe21797a	-0.15768996
110	0x3e92485f	0.2857084
111	0x3e1776fe	0.14791486
112	0x3dfa2941	0.122149
113	0x3ea1fc45	0.3163778
114	0x3ccc4165	0.024933526
115	0x3dae09c6	0.08497958
116	0x3d4c730d	0.04991441
117	0x3e02229a	0.12708512
118	0xbe38ea78	-0.18058193
119	0x3d923f37	0.071409635
120	0x3e7569ee	0.2396619
121	0x3e79eb63	0.24406199
122	0xbe506034	-0.20349199
123	0x3e3d8131	0.18506314
124	0x3da5cd73	0.08095827
125	0x3e94f34a	0.29091865
126	0x3d042c8f	0.032269057
127	0x3e1b11dc	0.15143532
128	0xbc989c38	-0.018629178
129	0x3da293eb	0.07938369
130	0x3ddd05e5	0.1079214
131	0xbe322980	-0.17398643
132	0x3d2d0655	0.042242367
133	0xbeaa6c30	-0.33285666
134	0x3e2d57f8	0.16928089
135	0x3dff00a2	0.124512926
136	0xbceb2433	-0.028703785
137	0x3e38555f	0.18001316
138	0xbea7a6e2	-0.3274451
139	0xbea446d4	-0.32085288
140	0xbde29e37	-0.11065333
141	0xbe99db90	-0.30050325
142	0x3cc94083	0.024566894
143	0xbe999afe	-0.30001062
144	0xbdb7eb42	-0.08980419
145	0x3e300bb3	0.17191963
146	0xbe7a0469	-0.24415745
147	0xbe2f73dc	-0.1713404
148	0x3e589d6c	0.21153802
149	0xbdb692cd	-0.08914719
150	0x3dbf25a0	0.09333348
151	0x3d8ac2fd	0.06775472
152	0xbdd34aae	-0.103169784
153	0xbe332b38	-0.17496955
154	0x3d0c1697	0.03420123
155	0x3dc09c3f	0.094048016
156	0x3cec7105	0.028862486
157	0xbe90c32f	-0.28273913
158	0x3e8757d2	0.2643419
159	0xbe4a3cad	-0.19749708
160	0xbe665d92	-0.22496632
161	0x3d934761	0.07191349
162	0x3e4e5731	0.20150448
163	0xbe56f498	-0.20991743
164	0x3e51e4d2	0.20497444
165	0xbe97c5c2	-0.29643065
166	0x3e338fb5	0.17535289
167	0x3ea27729	0.31731537
168	0x3e1b6551	0.15175368
169	0x3de9f260	0.114231825
170	0x3e18103d	0.14849944
171	0xbd2ef86c	-0.042717382
172	0xbce681f4	-0.028138138
173	0x3e9b530f	0.30336806
174	0x3d515f5e	0.05111634
175	0xbeaaf8de	-0.33392996
176	0xbe750865	-0.23928984
177	0x3e3ef7de	0.18649241
178	0xbd937b36	-0.07201235
179	0xbe2ccd0c	-0.16875094
180	0x3e041c96	0.1290153
181	0x3eaa7cf0	0.33298445
182	0x3e9b8256	0.30372876
183	0x3e1324d8	0.14369524
184	0xbcd68369	-0.026185708
185	0x3dc370f0	0.095430255
186	0x3e8f0407	0.2793276
187	0x3d97c8d7	0.07411354
188	0xbdd2472e	-0.10267483
189	0x3e2e05aa	0.16994348
190	0x3e5cb57b	0.21553604
191	0xbe6b6a87	-0.22989856
192	0x3c85a1f3	0.016312575
193	0xbe1dc36c	-0.15406579
194	0x3e2c3020	0.16815233
195	0xbdddb983	-0.10826399
196	0x3e8fc7cc	0.2808212
197	0xbdc79d59	-0.097468086
198	0xbe5f9a33	-0.21836166
199	0x3dcad8eb	0.09904655
200	0x3dd22cda	0.10262461
201	0xbd91bce0	-0.07116103
202	0xbe6dad68	-0.2321068
203	0xbe4811b0	-0.19537997
204	0x3c9227b4	0.017841198
205	0xbe9670a8	-0.29382825
206	0x3e48347c	0.19551271
207	0x3eaa2b32	0.3323608
208	0xbdc90169	-0.09814722
209	0x3da43b33	0.08019104
210	0xbe454205	-0.19263466
211	0x3d79f7b5	0.061027247
212	0xbe8ee28b	-0.27907214
213	0xbd88457b	-0.06653877
214	0x3d8b5ab2	0.06804408
215	0x3e90819b	0.2822388
216	0xbe959305	-0.2921373
217	0xbe336c2e	-0.17521736
218	0x3e055b38	0.13023078
219	0x3e22c0c4	0.15893847
220	0xbdf3d43c	-0.11905715
221	0x3c88c3c3	0.016694909
222	0xbe13c9d9	-0.14432468
223	0xbdaf37bf	-0.085555546
224	0xbc92f124	-0.01793725
225	0xbe88ecae	-0.26743072
226	0xbd59a8d9	-0.05313954
227	0xbe56d55f	-0.20979832
228	0x3c566191	0.013084785
229	0x3e634fde	0.22198436
230	0x3d22e34d	0.039767552
231	0x3e3a3cf3	0.18187313
232	0xbe6ecbfa	-0.23319998
233	0xbe97dc7a	-0.29660398
234	0x3e4e81c9	0.20166697
235	0xbd539799	-0.051658247
236	0x3e48681d	0.19570966
237	0x3e492dee	0.19646427
238	0x3e464fa4	0.19366318
239	0x3e10e160	0.14148474
240	0xbe006edd	-0.12542291
241	0x3e47df9a	0.19518891
242	0x3d28fb8f	0.04125553
243	0xbe5557b5	-0.20834239
244	0xbdb29338	-0.08719486
245	0xbdb09a1c	-0.08623144
246	0xbe93e41c	-0.2888497
247	0xbe348e23	-0.17632346
248	0xbe94b728	-0.29045987
249	0xbeaa28d4	-0.33234274
250	0xbe860f76	-0.2618367
251	0xbd55cb95	-0.052196104
252	0xbe802fed	-0.25036564
253	0xbdc429f0	-0.095783114
254	0x3da37a41	0.079823025
255	0xbce62049	-0.028091567

weight f4 [4, 320]
0	0x3c54d470	0.012990102
1	0x3ad38a2b	0.00161392
2	0x3c6d3c48	0.014479704
3	0xbd2aeee7	-0.04173174
4	0x3d4bcae6	0.049754046
5	0x3c425258	0.011860453
6	0x3cc703b0	0.02429375
7	0xba11d249	-0.0005562646
8	0x3d759349	0.059954915
9	0x3a3c41d3	0.00071814394
10	0xbbb648da	-0.005562884
11	0x3d870adb	0.065938674
12	0x3d83cdce	0.064357385
13	0x3c691e32	0.0142283905
14	0xbd15ec9d	-0.036602605
15	0xbd1114ff	-0.035420414
16	0x3cd33de2	0.025786344
17	0xbe012f21	-0.12615635
18	0x3d696492	0.056980677
19	0x3d5ae3ed	0.053440023
20	0x3d149abf	0.03628039
21	0x3c80d374	0.015725829
22	0xbb2bdaaa	-0.0026222863
23	0xbc89b46c	-0.016809665
24	0x3a5b7fde	0.00083732407
25	0x3c5293cc	0.01285262
26	0x3c9c1d6c	0.019056998
27	0x3cd73e71	0.026274892
28	0x3ca51137	0.02014981
29	0x3d6fcb19	0.0585433
30	0x3d61cc52	0.055126496
31	0x3cfa82ac	0.030579887
32	0x3bbc69b9	0.005749908
33	0x3c01dec1	0.007926644
34	0x3cbbd233	0.02292738
35	0xbd285299	-0.041094396
36	0xbcaef78b	-0.021358272
37	0x3c326c2c	0.010890048
38	0x3d773841	0.060356382
39	0x3cf96b83	0.030446773
40	0x3d3e9718	0.046530813
41	0x3d34f507	0.04417899
42	0x3cfead69	0.031088548
43	0x3d52d7c0	0.051475286
44	0xbce7087b	-0.028202286
45	0xbb38e60b	-0.0028213288
46	0xbcc17924	-0.023617335
47	0xbce72dcb	-0.028220078
48	0x3ce5ac40	0.028036237
49	0x3c426b66	0.011866426
50	0xbcd3d23f	-0.02585709
51	0x3d376eb6	0.044783317
52	0xbc0c5e3b	-0.008567388
53	0x3c5241e5	0.012833093
54	0xbc973f1f	-0.018462716
55	0x3b3e0420	0.0028994158
56	0x3b67b7f4	0.0035357447
57	0xbc3eca53	-0.011644918
58	0x3c75efd5	0.015010794
59	0xbc2df019	-0.010616326
60	0xbca2d682	-0.019877676
61	0x3d126d01	0.035748485
62	0xbc01f5b3	-0.007932114
63	0x397b94ed	0.00023992705
64	0x3c8931ef	0.016747443
65	0xbd354daa	-0.04426352
66	0x3d682501	0.056675915
67	0xbd32660c	-0.04355435
68	0x3a93b0ea	0.0011267934
69	0xbba93523	-0.005163805
70	0x3d018653	0.031622242
71	0xbd00c80a	-0.031440772
72	0x3ce4b40c	0.027917884
73	0x3c46f287	0.012142784
74	0xbcc7b2d3	-0.024377262
75	0x3c19c2fb	0.009384866
76	0x3c3817a6	0.011236107
77	0xbd2619e4	-0.040552035
78	0x3d70fc64	0.05883445
79	0x3d431208	0.047624618
80	0xbd261db1	-0.04055566
81	0x3d476200	0.048677444
82	0xbc5829ac	-0.013193529
83	0xbd133feb	-0.03594963
84	0x3d5ebb20	0.054377675
85	0xbcc2b74e	-0.023769047
86	0x3927c0c7	0.00015998176
87	0xbc28d985	-0.010305767
88	0x3cbd2056	0.023086708
89	0xbd1e85a5	-0.038701672
90	0x3cb96ea8	0.022635773
91	0xbd52162d	-0.05129068
92	0xbcda4bf2	-0.026647542
93	0x3cd39484	0.025827654
94	0xbca46519	-0.020067738
95	0x3ceec464	0.02914638
96	0x3c198a72	0.009371387
97	0x3d12dd2c	0.035855457
98	0xbcdb733a	-0.026788343
99	0x3d9df5a5	0.077128686
100	0x3ca18aad	0.019719446
101	0xbc409bba	-0.011755878
102	0xbc1ef5d5	-0.009702166
103	0x3cfc250f	0.03077939
104	0x3d4d1960	0.050073028
105	0x3d0e7ebd	0.034788836
106	0xbdb0bf61	-0.08630253
107	0x3d51dc5a	0.051235534
108	0x3d36e3b4	0.04465075
109	0xbd249ad8	-0.040186733
110	0xbce0f1a0	-0.027458966
111	0x3d5541b6	0.05206462
112	0xbc9d90ab	-0.019234022
113	0x3d3a7084	0.04551746
114	0x3b6affec	0.0035858108
115	0x3c24b70b	0.0100534065
116	0xbd265b46	-0.04061439
117	0xbd266d7c	-0.040631756
118	0xbceba0ca	-0.028763194
119	0xbc9d5c1a	-0.019208957
120	0x3bd6878b	0.0065469197
121	0x3c76a19f	0.015053182
122	0x3d032d1d	0.032025445
123	0x3d14990c	0.03627877
124	0xbd087885	-0.03331806
125	0x3d2d00ad	0.042236973
126	0x3d54da8b	0.05196623
127	0x3cb37342	0.021905545
128	0x3d33da6b	0.04390947
129	0x3d32c9c5	0.043649454
130	0x3bef2fc7	0.0072993967
131	0xbcdc5ac2	-0.026898745
132	0x3d43f511	0.047841135
133	0xbc99606f	-0.018722741
134	0x3d5e6ff7	0.054305997
135	0x3d413ea2	0.047178872
136	0xbce8ce8e	-0.028418805
137	0x3cda8a92	0.026677404
138	0xbd994cb3	-0.07485332
139	0xba284425	-0.0006418846
140	0xbbafc5d4	-0.005364159
141	0xbd21b1c6	-0.03947618
142	0x3c2ae16e	0.010429723
143	0xbd0827ba	-0.03324101
144	0xbc89dbb1	-0.01682839
145	0xbc154733	-0.0091112135
146	0x3c365cc7	0.011130518
147	0xbbe65ba5	-0.007029968
148	0x3b41ed9e	0.0029591094
149	0xbd460a1b	-0.04834948
150	0xbd09baae	-0.033625297
151	0x3a7acb38	0.0009567025
152	0xbd29ca0b	-0.04145245
153	0xbce29a1b	-0.027661374
154	0xbc8b6605	-0.01701642
155	0xbc72958e	-0.014806164
156	0x3d1a1d10	0.037625372
157	0x3c5c0d2d	0.013430876
158	0x3d6fd953	0.058556866
159	0xbd3a9217	-0.04554948
160	0xbcbc7dd6	-0.023009222
161	0x3d27c883	0.040962707
162	0xbc8d30ab	-0.01723512
163	0xbc189ea1	-0.009315164
164	0xbae057d0	-0.0017116014
165	0xbc6112ea	-0.01373742
166	0x3d566af0	0.052348077
167	0x3d58645d	0.05283009
168	0x3c90639b	0.01762562
169	0xbc052118	-0.008125566
170	0xbb81e614	-0.003964195
171	0x3d1e5d58	0.03866324
172	0x3cd96948	0.02653946
173	0xbd2ac4bd	-0.04169153
174	0x3d77c5db	0.060491424
175	0xbceee2b3	-0.029160833
176	0x3c41e221	0.0118336985
177	0x3ca73512	0.020411048
178	0x3d25f6ed	0.04051869
179	0xbcc9da28	-0.024640158
180	0xbb426601	-0.002966285
181	0xbd162be7	-0.036662962
182	0x3c280bbd	0.010256705
183	0x3b77f115	0.0037832905
184	0x3ce8916c	0.028389655
185	0xbcbf561e	-0.023356494
186	0xbc88fcf5	-0.016722182
187	0xbc6a42f7	-0.014298192
188	0xbbefd323	-0.0073188706
189	0xbd14ee2b	-0.036359947
190	0x3c958c0a	0.018255252
191	0xbc87cb73	-0.016576504
192	0xbcfb43fa	-0.030672062
193	0x3c68b56d	0.0142034115
194	0xbcb2c473	-0.02182219
195	0xbbf20b2f	-0.007386587
196	0x3b84e22d	0.0040552826
197	0xbb50a336	-0.0031835563
198	0x3c243805	0.010023122
199	0x3c27de7e	0.010245917
200	0xbc1855dc	-0.009297814
201	0xbd0e0ca5	-0.034680028
202	0x3c7cee43	0.015437665
203	0x3cc36e71	0.023856374
204	0x3cf14df9	0.029456126
205	0x3d4472ad	0.047960926
206	0x3d1d9444	0.038471475
207	0x3cc4b5ac	0.02401241
208	0xbcb18080	-0.021667719
209	0xbd33d946	-0.04390838
210	0x3d1f779e	0.038932435
211	0x3d60388a	0.05474142
212	0xbc35ec4b	-0.0111037
213	0xbd0911b5	-0.033464152
214	0xbd1348ca	-0.03595809
215	0xbcfdf311	-0.030999692
216	0x3c7ba6e0	0.01535961
217	0x3c84bb2a	0.016202528
218	0x3d0f6259	0.0350059
219	0x3c0a5217	0.008442423
220	0xbb9c7844	-0.004775079
221	0x3d2aed86	0.041730426
222	0xbb634300	-0.0034677386
223	0xbdcfc551	-0.10145057
224	0xbcde73d0	-0.027154833
225	0xbc42f92d	-0.011900228
226	0xbd3ec10d	-0.046570826
227	0xbd06dee2	-0.0329274
228	0xbd1919d1	-0.037378136
229	0x3c0477a5	0.008085166
230	0x3cbfb706	0.023402702
231	0x3c87fec0	0.016600966
232	0xbc5fbb34	-0.013655473
233	0xbd3fd2c8	-0.046831876
234	0x3bcee104	0.006313445
235	0x3d217c70	0.039425313
236	0x3d4ef99b	0.05053101
237	0x3d284d14	0.041089132
238	0x3d49edb7	0.04929897
239	0xbc17b56e	-0.009259565
240	0x3d48b101	0.04899693
241	0x3c74c78c	0.014940154
242	0x3d28d6be	0.04122042
243	0xbd33ba69	-0.043878946
244	0x3c326b44	0.010889832
245	0x3c6824ee	0.014168961
246	0x3bdc5efd	0.0067251907
247	0xbcae0762	-0.021243755
248	0x38bb97df	8.945143e-05
249	0xbc868a42	-0.016423348
250	0xbd437d45	-0.04772689
251	0x3ac04bd2	0.0014671034
252	0x3d018a47	0.031626012
253	0xbcfbce75	-0.030738095
254	0x3d489229	0.048967514
255	0x3c7de9a0	0.015497595

bias f4 [4]
0	0xbd0f46cd	-0.03497963
1	0x3d1c9bb2	0.03823442
2	0x3d00c1ed	0.031434942
3	0x3d5d2110	0.05398661

weight f4 [4, 8]
0	0x3c3df550	0.011594132
1	0xbe35d265	-0.1775604
2	0x3e6e88ae	0.23294327
3	0xbe118b74	-0.14213353
4	0xbd8daa23	-0.06917217
5	0xbcb8cc00	-0.022558212
6	0x3e922d18	0.2855003
7	0xbddf2118	-0.10894984
8	0x3bca4596	0.006172846
9	0x3ea81171	0.32825807
10	0x3e595621	0.21224262
11	0xbe24cb22	-0.16093114
12	0xbe3ebdfd	-0.18627162
13	0xbe6b2aa5	-0.22965486
14	0xbd6fab05	-0.058512706
15	0xbea1a690	-0.3157239
16	0x3df2644c	0.11835536
17	0xbe4d2edb	-0.20037405
18	0x3dd8ad8a	0.10579975
19	0xbe8b6823	-0.27227888
20	0xbd6ea535	-0.058263022
21	0xbeb7a4c1	-0.35867885
22	0x3dc13041	0.09433032
23	0x3e87fdf1	0.2656093
24	0x3c96112b	0.018318733
25	0x3db5df1a	0.08880444
26	0x3e6f7af1	0.23386742
27	0xbea1572f	-0.31511828
28	0x3e9b6d7f	0.30356976
29	0x3e97cd29	0.29648712
30	0xbe094b52	-0.13407639
31	0xbe6d6376	-0.23182473

bias f4 [4]
0	0xbcd0da27	-0.025494648
1	0xbde64445	-0.1124349
2	0x3e901b28	0.2814572
3	0x3c8b4465	0.017000386

weight f4 [4, 8]
0	0xbe9e249c	-0.30887306
1	0x3d756eb4	0.059920028
2	0xbd0523d3	-0.032504868
3	0xbe9ded9e	-0.3084535
4	0xbe0ddb86	-0.13853273
5	0xbdc7ebab	-0.09761747
6	0xbe5b09e8	-0.21390498
7	0xbe826a0a	-0.25471526
8	0x3df0ebb3	0.11763706
9	0x3e8e2ac7	0.27767012
10	0x3e56f336	0.20991215
11	0x3dd7d504	0.105386764
12	0xbe7547e1	-0.23953201
13	0x3dccd516	0.100015804
14	0x3e83c91c	0.25739372
15	0x3e87ef5a	0.26549798
16	0x3e9db4c0	0.30801964
17	0x3e1dea97	0.1542152
18	0x3dc70d2e	0.09719311
19	0xbe424c27	-0.18974362
20	0x3eb00a97	0.3438308
21	0xbdf76084	-0.12078956
22	0x3e0960ef	0.13415883
23	0x3e4619ca	0.19345775
24	0xbe38c3e9	-0.18043484
25	0xbb4e1dfe	-0.0031450982
26	0x3e075623	0.13216452
27	0x3d768106	0.06018164
28	0x3ac55965	0.0015056549
29	0xbe85221a	-0.2600258
30	0xbe0b2e19	-0.13591804
31	0xbe15e067	-0.14636384

bias f4 [4]
0	0x3ccff641	0.025385978
1	0xbb8de517	-0.004330288
2	0xbd85788e	-0.065171346
3	0x3e97f71c	0.29680717

weight f4 [10, 2]
0	0x3f2d8080	0.677742
1	0x3ecf69ea	0.40510494
2	0xbd1337fe	-0.03594207
3	0x3e7c55af	0.2464206
4	0xbe117e20	-0.14208269
5	0xbed4a9f6	-0.4153592
6	0xbd73ae48	-0.05949238
7	0x3dff940f	0.12479412
8	0xbf0dee47	-0.5544171
9	0x3d06a3ec	0.03287117
10	0xbe3b8c8d	-0.18315335
11	0x3f0e3e47	0.5556378
12	0xbe7e37a2	-0.2482591
13	0x3efde18a	0.49586135
14	0x3ebfadac	0.3743719
15	0xbecab4f4	-0.3959118
16	0xbe8ec937	-0.2788789
17	0x3f336b35	0.7008546
18	0x3ec88746	0.39165705
19	0x3e001a89	0.12510122

bias f4 [10]
0	0x3f0bb342	0.545704
1	0xbebbc8b9	-0.36676577
2	0xbf26d10f	-0.6516275
3	0x3f1bd054	0.6086476
4	0x3eca63b8	0.39529204
5	0xbe968010	-0.2939458
6	0x3e0c8a9b	0.13724749
7	0xbf070a78	-0.5275035
8	0x3e4cddc1	0.20006467
9	0x3e2d3227	0.16913663

weight f4 [10, 2]
0	0x3e30f493	0.17280798
1	0xbf09bf70	-0.53807735
2	0x3ed70232	0.41993862
3	0x3f11d21f	0.56961244
4	0x3ec22586	0.37919253
5	0xbf217c71	-0.6308051
6	0x3edeb32f	0.4349608
7	0x3e4159ed	0.1888196
8	0x3ee60e4b	0.4493278
9	0xbe98fc91	-0.29880193
10	0x3a0e23ab	0.0005422185
11	0xbeb8d9fa	-0.36103803
12	0xbef6ffc1	-0.48242
13	0x3e6a5f95	0.22888024
14	0x3d048385	0.03235199
15	0x3f1c7267	0.61112064
16	0xbf1b2b42	-0.6061288
17	0x3d8cb304	0.06870082
18	0xbe8cafe2	-0.27477938
19	0xbe1a2d94	-0.15056449

bias f4 [10]
0	0xbee396d0	-0.44450998
1	0xbe2d421b	-0.16919748
2	0x3ce1e98b	0.027577182
3	0x3ee63d61	0.44968703
4	0xbed6811e	-0.41895384
5	0x3f02ea87	0.5113911
6	0x3e85916b	0.26087508
7	0xbe74b8f6	-0.23898682
8	0xbf0f2ead	-0.55930597
9	0x3e007f60	0.1254859

weight f4 [20, 4]
0	0xbeaff9f8	-0.343704
1	0x3ec1fc15	0.37887636
2	0x3dbcc04d	0.09216366
3	0x3dfb801a	0.12280293
4	0xbeeb2e5e	-0.45933813
5	0x3db614f0	0.08890712
6	0xbee46b06	-0.44612902
7	0x3e99b1ad	0.30018368
8	0x3e108593	0.14113455
9	0x3e42068e	0.18947813
10	0x3ea8d918	0.3297813
11	0xbea40c02	-0.3204041
12	0x3efcb00e	0.4935307
13	0x3ed26d56	0.41099042
14	0x3e0131a0	0.12616587
15	0xbeb18dd1	-0.3467851
16	0x3d2011e9	0.03907958
17	0xbe059c25	-0.13047846
18	0xbec62f10	-0.3870778
19	0xbec0b36b	-0.37636885
20	0xbcdc9242	-0.02692521
21	0x3e936104	0.28784955
22	0xbeaef309	-0.34169796
23	0xbe7d0759	-0.24709834
24	0x3c1aac7c	0.009440538
25	0xbed1c865	-0.409732
26	0xbea9ac28	-0.33139157
27	0x3ee22fc7	0.44177076
28	0x3e87a753	0.26494846
29	0xbdc88d4f	-0.097925775
30	0x3e8c2c3a	0.27377492
31	0x3efd5553	0.4947916
32	0x3e8cbc67	0.2748749
33	0xbda9699c	-0.082720965
34	0x3d575635	0.052572448
35	0xbec9bdf0	-0.39402723
36	0xbe8dbf6d	-0.2768511
37	0x3e9fd352	0.31215912
38	0x3ed35c75	0.41281477
39	0x3e82f52c	0.25577676
40	0x3d75adab	0.059980076
41	0x3ecd36f9	0.40081003
42	0x3e6d6917	0.2318462
43	0xbc29ef66	-0.010372018
44	0xbebb46c5	-0.3657743
45	0x3eb66460	0.35623455
46	0x3e80cbbc	0.25155437
47	0xbeb61585	-0.35563293
48	0x3e77c5d2	0.24196556
49	0xbdf9bf5b	-0.12194701
50	0xbeacc596	-0.33744496
51	0xbe132288	-0.14368641
52	0xbe3e2b51	-0.18571211
53	0xbe11c8b1	-0.14236714
54	0x3cd1378d	0.025539184
55	0xbe5f13ed	-0.21784945
56	0x3ef4dfb3	0.4782692
57	0x3e78b0de	0.2428622
58	0x3e286ff1	0.16448952
59	0xbeaa78c8	-0.33295274
60	0x3eefe3b4	0.4685341
61	0xbd181092	-0.037125178
62	0x3e71042a	0.23536745
63	0x3ea486b3	0.32134017
64	0x3e8f1a7e	0.279499
65	0xbeab441f	-0.3345041
66	0x3d89a7ea	0.0672148
67	0xbe5f0cf8	-0.21782291
68	0x3e47ac9a	0.19499436
69	0xbed6293f	-0.41828343
70	0x3e997b3e	0.2997684
71	0xbd980b77	-0.07424062
72	0x3d2fc73d	0.042914618
73	0xbeab955e	-0.33512396
74	0xbed39945	-0.41327873
75	0xbee5ae67	-0.4485962
76	0x3e61a04e	0.22033808
77	0xbea9b7b4	-0.33147967
78	0xbd98a6cb	-0.07453688
79	0xbe8c2698	-0.27373195

bias f4 [20]
0	0x3efc8200	0.49317932
1	0xbee28aae	-0.4424643
2	0xbea87286	-0.32899874
3	0x3c7e06c6	0.015504545
4	0x3e984573	0.29740486
5	0xbebd296a	-0.3694566
6	0x3eb8a07a	0.36059934
7	0x3e229186	0.15875825
8	0xbe5eac89	-0.21745504
9	0x3ef5f578	0.4803884
10	0x3c4109ff	0.011782168
11	0x3ef7eee8	0.48424459
12	0x3e6b586e	0.22982952
13	0xbe4373d9	-0.19087161
14	0x3e919f3d	0.28441802
15	0x3edbb1c3	0.4290906
16	0x3e652ed9	0.22381152
17	0xbe3e9eed	-0.18615313
18	0xbe8175b3	-0.2528511
19	0xbeaefa89	-0.34175518

weight_ih_l0 f4 [12, 10]
0	0xbe1cfeb3	-0.15331535
1	0x3e87a2bb	0.2649134
2	0x3d9599b3	0.073047064
3	0xbed31fd5	-0.41235223
4	0xbdd750d2	-0.10513462
5	0xbea71f5d	-0.32641116
6	0xbec25311	-0.37954
7	0x3ee3cb47	0.44491026
8	0x3dc3ecc0	0.09566641
9	0xbe85cd29	-0.26133087
10	0x3eac19c6	0.33613414
11	0xbeac1907	-0.33612844
12	0xbef7e175	-0.48414198
13	0xbebf60bc	-0.3737849
14	0xbebe0c7b	-0.37118897
15	0xbcb12d20	-0.021627963
16	0x3ef8267b	0.48466858
17	0xbca72dea	-0.020407636
18	0xbefcb5fb	-0.4935759
19	0xbe7bdb9d	-0.24595495
20	0xbe053e0f	-0.13011955
21	0x3e1a264a	0.15053669
22	0x3ee990c6	0.45618266
23	0x3e313bdc	0.17307991
24	0x3e2e9f37	0.17052923
25	0x3da70036	0.08154337
26	0x3eb7f5b9	0.3592966
27	0xbf089f67	-0.5336823
28	0xbe9a956a	-0.3019212
29	0xbd893ff9	-0.06701655
30	0xbef98104	-0.48731244
31	0xbb99b279	-0.004690465
32	0x3e960718	0.29302287
33	0xbe06d4d7	-0.1316713
34	0xbcfc935b	-0.030831983
35	0x3ed110bf	0.4083309
36	0xbb9ad647	-0.004725251
37	0xbe89835c	-0.26858032
38	0x3e339eaa	0.17540994
39	0xbe462d2c	-0.19353169
40	0x3e972359	0.29519156
41	0x3ecd4dd8	0.40098453
42	0x3eb13f4a	0.34618598
43	0xbea8c0ba	-0.3295954
44	0xba1a61d8	-0.00058892136
45	0x3c2c98e1	0.010534496
46	0xbecdd1ea	-0.40199214
47	0xbee53b0c	-0.44771612
48	0xbe544b4b	-0.20731847
49	0xbea82dbb	-0.3284739
50	0xbea1e721	-0.3162165
51	0x3ec5c2bf	0.38625142
52	0xbec195f4	-0.37809718
53	0xbee937d2	-0.455504
54	0x3e9180d7	0.2841861
55	0xbee6ce60	-0.45079327
56	0x3e3b84f5	0.18312438
57	0x3f07cd58	0.53047705
58	0x3e09f361	0.13471748
59	0xbed29df2	-0.41136128
60	0xbbacd4dc	-0.0052743983
61	0x3eabab3e	0.33529085
62	0xbdc7f423	-0.09763362
63	0xbece6cc7	-0.40317366
64	0x3c997ca6	0.018736195
65	0xbe23f450	-0.16011167
66	0x3eb63e06	0.35594195
67	0x3eb9336d	0.36172047
68	0x3e9223d5	0.28542963
69	0x3e359266	0.17731628
70	0x3e71027e	0.23536107
71	0x3eb7515b	0.35804257
72	0xbedabf48	-0.4272406
73	0xbe3fa0b2	-0.18713644
74	0x3e843a6e	0.25825828
75	0xbc02995b	-0.007971133
76	0xbedfa482	-0.43680197
77	0x3d043719	0.032279108
78	0x3eb96482	0.36209494
79	0xbe60f4bc	-0.21968359
80	0x3d7e2842	0.06205011
81	0x3eaa254f	0.3323159
82	0xbd3a66a4	-0.045508042
83	0x3e64d9c2	0.22348693
84	0x3e7adabe	0.24497506
85	0x3ed2d39a	0.41177064
86	0x3e1a0e76	0.15044579
87	0x3e923d9f	0.28562638
88	0xbe48fdb1	-0.19628026
89	0x3eda8e75	0.4268681
90	0x3d9a3859	0.07530279
91	0xbe25cbed	-0.16191073
92	0x3e348902	0.1763039
93	0xbedf80d7	-0.43652984
94	0x3da71ddb	0.08159991
95	0xbeb49397	-0.35268852
96	0xbdc6369b	-0.09678384
97	0x3ed38588	0.41312814
98	0x3e62c24e	0.22144434
99	0xbd9030cc	-0.07040557
100	0x3efd7706	0.4950487
101	0xbe9176b6	-0.28410882
102	0x3d453c5e	0.048153274
103	0xbda9a70c	-0.08283815
104	0x3e6d6887	0.23184405
105	0xbe9d63db	-0.30740246
106	0x3eb7fde7	0.359359
107	0xbdd712a1	-0.105016
108	0x3efe39eb	0.49653563
109	0x3f10d1af	0.5656995
110	0x3e3e74d6	0.18599257
111	0xbea9a2da	-0.33132058
112	0x3e8bba2e	0.2729048
113	0x3ed3acbc	0.41342723
114	0xbeb8a638	-0.36064315
115	0xbe1e138c	-0.15437144
116	0xbdac1ad3	-0.08403554
117	0xbee2e3a3	-0.44314298
118	0x3e656184	0.2240048
119	0xbea2b364	-0.3177749
